Examples/speed_skating/model/speed_skating.pt (torch_old, 146532 bytes, 12 tensors)

log_std f4 [51]
000000 b3 b5 65 be 86 53 a1 be a9 37 7c be 02 50 14 be
       -0.22432594 -0.31509036 -0.24630608 -0.14483646
000010 e0 1c 16 be 70 a1 16 bf 48 85 2f be 11 43 c7 be
       -0.14659452 -0.58840084 -0.17140687 -0.38918355
000020 6b f9 f5 be da a8 8c be 14 8f 1d be 5a 5d be be
       -0.48041853 -0.27472574 -0.15386611 -0.37180597
000030 df 6d 86 be 68 90 9f be 18 4c de be b0 27 95 be
       -0.262557 -0.3116486 -0.4341743 -0.29131842
000040 da cf bd be 6b 1d 0b bf 30 42 91 be 5b 20 09 bf
       -0.3707264 -0.54341763 -0.2837081 -0.53564996
000050 01 c9 4d be f8 7f 92 be 68 6d 78 be 66 fb cf 3c
       -0.20096208 -0.28613257 -0.24260485 0.02538843
000060 9c f7 a0 be 2d 2d 9d bd 83 30 07 bd 2c 4c c1 be
       -0.3143891 -0.07674632 -0.03300525 -0.37753427
000070 fd c4 9d be 96 9a 8a be de 35 6b be 37 46 1f be
       -0.30814353 -0.27071065 -0.22969767 -0.15554129
000080 c1 e3 21 be e1 f4 27 be f2 3a 2a be 8a 8e a4 bd
       -0.15809537 -0.16402008 -0.16624048 -0.08035
000090 30 19 cd be 61 36 67 be 1a bc 6d 3d f5 55 43 be
       -0.4005828 -0.22579338 0.058040716 -0.19075759
0000a0 26 7c f5 be cf 2f 65 be 25 c4 b0 be bf 25 34 be
       -0.4794628 -0.22381519 -0.34524646 -0.17592524
0000b0 3d 67 36 bd 94 b0 8f bd 89 4a 0d bd c5 30 31 be
       -0.04453205 -0.070161015 -0.03449491 -0.1730376
0000c0 49 f9 9e be 6b 5c f0 be 43 75 a3 bb
       -0.31049564 -0.4694551 -0.004988344

policy_fc1.weight f4 [64, 235]
000000 a2 41 1e 3d 78 cc 8f bd 18 70 98 3d 0a 00 d8 bd
       0.03863681 -0.07021421 0.07443255 -0.105468825
000010 46 c1 d5 bd 68 0b a5 bd 8f e0 67 3c 1b 0b 4d 3d
       -0.104372546 -0.08058816 0.01415266 0.05005942
000020 64 7f 6e 3e 58 74 7d bd 12 b0 e7 3e 71 c7 7a bd
       0.23290783 -0.061878532 0.45251518 -0.06122536
000030 b5 59 b6 bd a4 ed 98 bd cb 32 b8 bc ee c0 39 bd
       -0.08903829 -0.07467201 -0.022485157 -0.045350008
000040 1b 93 71 be fc ea ad bd 59 fc 97 bd 40 4d e7 bd
       -0.23591273 -0.08492085 -0.07421178 -0.11294031
000050 9f 3a 96 3c 9e 9f 16 be fc 8d 79 3d 17 c0 b4 bb
       0.0183385 -0.14709327 0.060926422 -0.005516063
000060 0a d0 f1 bd bb dd 28 bc ee dc de bd 71 03 c2 3b
       -0.118072584 -0.010306771 -0.10881983 0.0059208204
000070 36 74 85 3d 11 97 d0 3d e8 79 78 bd 5b 41 fa bd
       0.06516306 0.10185064 -0.060663134 -0.12219497
000080 b3 31 27 3d 3e e1 0f 3d e6 3c 62 3d de 40 9e bd
       0.04081888 0.035126917 0.05523386 -0.07727216
000090 d4 a8 b2 3d 0f c1 0e 3e 13 4e 00 3e 9c 12 66 3d
       0.08723608 0.13940834 0.12529783 0.05617009
0000a0 9d 8f 1e 3d 00 c9 a2 bd 0e bb 4f bd 99 8f 89 3d
       0.03871118 -0.07948494 -0.0507155 0.06716842
0000b0 96 22 ef 3c c7 2a 26 be dc 99 74 bd 69 46 e4 bd
       0.029191297 -0.16227256 -0.059717044 -0.11146242
0000c0 5c a6 a8 bd 73 39 e3 bd 51 65 1e 3e af 9c 29 3d
       -0.082348555 -0.11094942 0.15468337 0.04140919
0000d0 bb 84 eb bd e1 27 3a bc 14 bb 4e 3c 54 2d f9 3d
       -0.11499926 -0.011362047 0.012617845 0.12166849
0000e0 84 1a 26 3d 48 42 cc bd 40 4b 39 bd fb 7f 5a 3d
       0.04055263 -0.0997358 -0.04523778 0.053344708
0000f0 3c 94 f9 3c 30 dd ce be b3 c7 84 3e 94 ae 93 3d
       0.030466191 -0.40403128 0.25933608 0.072110325
000100 47 18 66 3e 1c 6b b6 3d c7 45 69 3e 56 36 0f 3e
       0.22470199 0.08907148 0.22780524 0.13985571
000110 ca 10 07 3e 6c 4f 98 bd c3 cc 10 3f 58 fa 0e 3e
       0.13189998 -0.074370235 0.5656244 0.13962686
000120 2c 3a 80 bc c2 74 aa be 27 fb 2d bd 97 e8 9f bb
       -0.015652739 -0.33292204 -0.042475846 -0.004880022
000130 6a 8f 09 3e 1e 73 16 be e1 c8 2b 3e 49 2a 70 bd
       0.13433614 -0.14692351 0.16775848 -0.058634076
000140 55 f1 0b bd 0d a3 27 be 1e 48 2d be 4a 16 b4 bb
       -0.0341657 -0.16370793 -0.16922042 -0.005495821
000150 d1 63 dc bc a5 b3 56 be 2c 00 2f 3c fe f8 19 3e
       -0.026903065 -0.20966966 0.010681193 0.15036389
000160 6b d2 45 be 97 c6 7f be 5b 3b 0d 3d 67 79 62 3d
       -0.1931855 -0.249781 0.034480434 0.05529156
000170 5c 16 9d bd 61 71 0f be 02 0c 03 be c7 ab b9 bd
       -0.0767028 -0.14008094 -0.1279755 -0.09065967
000180 26 fc fd 3d 01 ac 44 3d 86 6b 68 3c f1 b0 d4 bd
       0.12401609 0.0480156 0.014185792 -0.103853114
000190 f3 d2 13 3e e5 1e 59 bd 74 61 9a 3d f8 45 d6 3d
       0.1443594 -0.05300798 0.07538119 0.10462564
0001a0 62 3d 87 bc 28 ae 0b be 1b 05 95 3d d5 98 97 3d
       -0.016508762 -0.13640654 0.072763644 0.07402197
0001b0 54 b5 0e be f1 7f 53 be 63 1c 00 3d 76 82 1e 3e
       -0.13936359 -0.20654275 0.03127707 0.15479454
0001c0 8a a1 25 bd db e1 e0 bd 63 fb 64 3d 57 19 72 3d
       -0.04043726 -0.109805785 0.055903804 0.059106197
0001d0 d2 f0 e3 3c 7b 34 35 3d 87 21 48 bd bc 3e 58 3d
       0.027824793 0.044239502 -0.0488601 0.052794203
0001e0 df 00 a3 bd b5 5e e8 3d 4f 1d c4 3d 26 95 c5 bd
       -0.079591505 0.11346189 0.09575903 -0.096475884
0001f0 10 b3 a6 bd 35 8d dd bd 51 2c 02 be 1a 36 2c be
       -0.08139622 -0.10817949 -0.12712218 -0.16817513
000200 d7 30 89 3d 6f 71 99 3e a4 5b c4 bc a9 b8 ed 3d
       0.066987686 0.29969355 -0.023969479 0.11607487
000210 86 15 b1 3e 99 4e e1 bd ba ec 01 be 72 db 04 3e
       0.34586734 -0.110013194 -0.1268796 0.12974337
000220 bd 7f c7 bd 12 95 ac be b8 8c 81 3e 1d 9e d6 bd
       -0.09741161 -0.33707482 0.25302672 -0.104793765
000230 c6 84 14 3e ce d3 38 3e 4f 7a e6 bb be 17 c6 bd
       0.14503774 0.18049547 -0.0070336233 -0.09672497
000240 09 47 a2 3d 2d f1 c7 be f8 44 e9 3d 9b 4a a9 3e
       0.07923705 -0.3905119 0.11390108 0.33064732
000250 ac e9 c7 3c b9 4c 93 3d ee 21 11 3e d9 b6 04 be
       0.024403416 0.07192368 0.141731 -0.12960376
000260 a2 ac 45 bd c4 4c 4e bd 30 59 41 be cf 54 9b 3a
       -0.04826034 -0.05036618 -0.18881679 0.0011850836
000270 b2 8b 9b bd 7f 38 d3 bc 18 17 e3 3d e9 72 a4 3d
       -0.07595004 -0.025783775 0.11088389 0.0802973
000280 17 e3 b2 bd 7c 33 94 bd 39 9b 73 3d 23 d4 f2 bd
       -0.0873472 -0.07236382 0.059474204 -0.11856868
000290 5d 13 de 3d 54 af be 3e fd 72 83 3c b2 ce 62 bc
       0.10843537 0.3724314 0.016046042 -0.013843225
0002a0 3a f2 c5 3e 0d f4 27 be 6c 75 de 3d 74 2f 3a bd
       0.38661367 -0.16401692 0.1086224 -0.04545541
0002b0 e1 43 83 be 76 10 fb 3d 21 72 b0 bd 03 bb 27 3e
       -0.25637725 0.12258999 -0.08615518 0.16379933
0002c0 b5 0e e9 bd a7 bd 7f bd 56 9c e2 3e 9d 08 a4 be
       -0.11379758 -0.062436726 0.442599 -0.3203782
0002d0 e8 5e 28 bd 19 ad a5 be 6d fa b1 3e 0c a2 87 be
       -0.041106135 -0.32358626 0.34761372 -0.2649082
0002e0 49 ab 8d be 0c fe ab 3e 55 06 93 3e bc 31 7b be
       -0.27669743 0.3359226 0.28715768 -0.24530691
0002f0 48 f7 db bd 03 c0 b0 3e 80 80 c8 3c f2 8e 18 be
       -0.107405245 0.34521493 0.024475336 -0.1489828
000300 3a 02 8e 3e 8f 19 98 be cc a0 36 3e 43 4e f7 be
       0.27736074 -0.29707 0.17834777 -0.48301896
000310 25 11 08 bd e9 ce 0b 3e 8e 47 bf be d9 d2 b2 3e
       -0.033219475 0.13653149 -0.3735928 0.3492649
000320 5b 56 d6 3d a1 ef 1a bf fb 78 54 3b f9 42 46 3e
       0.1046569 -0.60521895 0.0032420743 0.19361486
000330 e6 c2 2e 3e 7c 15 69 be 3d 44 6a be bc 49 ad 3e
       0.17066535 -0.22762102 -0.22877593 0.33845317
000340 fa 4c eb bd 0d d8 f9 bd 13 40 af 3e 35 c3 6f be
       -0.114892915 -0.121994115 0.34228572 -0.2341431
000350 fb 97 97 be d6 1e 1c 3d 7f c8 b3 be 1b 72 20 be
       -0.2960814 0.038115345 -0.35113904 -0.15668528
000360 90 cb 25 3d b2 91 f4 be 19 af f6 bd 9d 46 83 be
       0.040477335 -0.47767407 -0.12045116 -0.2563981
000370 4e 9f d3 be 66 20 92 bc ec 46 7b be c9 11 07 3e
       -0.41332477 -0.017837714 -0.24538773 0.13190378
000380 53 98 d2 bd f4 3f e5 3e 1e 71 88 bc 03 5c a9 3d
       -0.1028296 0.44775355 -0.016655501 0.08269503
000390 3d 51 25 3f 6b 3f e1 3b 55 ab bc bd a9 14 17 3f
       0.64577085 0.006874015 -0.092123665 0.590159
0003a0 5c 21 b0 bc 1a 2e 63 be fa f3 fe 3e 35 b5 da 3d
       -0.021500282 -0.22185555 0.49795514 0.10679094
0003b0 b8 54 be bd 68 3e 65 3d 04 cd 47 bd b7 fd 12 3d
       -0.092935026 0.05596772 -0.048779503 0.035886493
0003c0 9c 7d f7 bd fd 5c 64 3d fb df 1c 3d c8 6d 4c bd
       -0.12084505 0.055752743 0.038299542 -0.049909383
0003d0 fa 4c b6 3c 3d b6 34 bf b4 ab 2f be 26 40 0b bd
       0.022253502 -0.70590574 -0.17155343 -0.033996724
0003e0 20 82 06 be a0 52 c9 bd 64 95 16 3c b2 a4 55 3e
       -0.13135576 -0.098302126 0.009190891 0.20863608
0003f0 ee fa e5 3d 80 6d a1 3d 2f 6e 27 3d 68 ea 7e 3c
       0.11229502 0.078822136 0.040876564 0.0155588165

policy_fc1.bias f4 [64]
000000 a1 eb 4f 3c b0 1a 51 b8 e7 61 2b be 8a 5e 0a bd
       0.012690456 -4.9854338e-05 -0.16736566 -0.033781566
000010 6d 3a 88 bd f7 de fb bc df 59 86 bc 0c 22 2d bd
       -0.06651769 -0.030745966 -0.016400276 -0.042268798
000020 65 cf d9 bd 6a 8e 83 bd 4e ab 05 3b 67 78 9f 3c
       -0.106352605 -0.06423648 0.0020396295 0.019466592
000030 09 7d 0c bd ce 01 34 bd d0 ec 12 bd c4 59 d3 3b
       -0.03429893 -0.043947034 -0.035870373 0.00644991
000040 35 fd b7 bc 45 de 08 bd c7 4b f0 bc 4c 3c 72 bd
       -0.022459606 -0.033415098 -0.029333008 -0.059139535
000050 aa 49 09 bb 43 b7 1d 3c b0 ec ce 3c 72 6d 27 bc
       -0.0020948448 0.0096262125 0.025259346 -0.010218965
000060 98 17 bb bc 5d c0 81 bd b2 a8 8e bc 70 7f 05 be
       -0.022838399 -0.063355185 -0.017414425 -0.13036895
000070 61 78 0d be f8 64 2d bd 6d 46 61 bd 05 05 f7 3c
       -0.13815452 -0.04233262 -0.054998804 0.03015376
000080 cc 99 82 bc 46 4f dd bd 5b 0e bc bc 7e 64 ca bc
       -0.015942477 -0.10806136 -0.022956064 -0.024706122
000090 1b fc 04 b9 87 50 ac bc ef bc 95 bb 77 92 0c 3d
       -0.00012682418 -0.021034492 -0.004569642 0.034319367
0000a0 32 a3 ba bc 3c 68 20 3d 66 da 3c bc 7e 30 08 bc
       -0.022782896 0.039161906 -0.01152668 -0.008312343
0000b0 ff ae 45 bd 80 04 64 bd 43 b0 95 bc 09 9a b9 bc
       -0.048262592 -0.055668354 -0.018272525 -0.022656457
0000c0 87 7f e8 bc 76 b1 07 be 30 69 68 bd 9a 5f 36 3b
       -0.028381122 -0.1325129 -0.05674094 0.002782798
0000d0 ab a3 fb bc 32 83 67 3c 54 2b 8b bd 51 f5 a1 bd
       -0.030717691 0.0141304005 -0.067953736 -0.079081185
0000e0 f9 e2 8e 3c ba 4d 16 be bb f3 36 bc 8d 51 ca bb
       0.017442213 -0.14678088 -0.011166508 -0.0061742724
0000f0 f1 49 9b bc a7 74 07 be 9b 89 82 bc 4f c8 f9 bd
       -0.018956156 -0.13228093 -0.015934756 -0.12196409

policy_fc2.weight f4 [32, 64]
000000 6a 30 76 3e 72 94 a7 3d cd 61 34 be cf aa 7c be
       0.24041906 0.081826106 -0.17615433 -0.24674533
000010 9c 6a aa 3d 5f fa 7d bd 4a c7 90 be 82 b1 3a bd
       0.083211154 -0.06200635 -0.28277045 -0.04557944
000020 0a 7d be 3d a1 68 90 3d 62 24 d1 be 65 ca a7 be
       0.09301193 0.070512064 -0.4084807 -0.32771602
000030 5f 9a 11 bf 88 d5 e1 be 63 65 90 3e 07 a8 a9 3e
       -0.56876177 -0.44108224 0.28202352 0.33136007
000040 28 51 e5 3d b7 21 a6 3c 8f d7 20 3e 00 d5 0f 3d
       0.1119712 0.020279748 0.15707229 0.035115242
000050 7e 00 f5 3b 99 b5 bb be 3e 64 0e 3e 87 e9 d3 be
       0.0074768653 -0.36661986 0.13905427 -0.41389105
000060 67 11 49 be cf f1 c3 be db c0 2e 3d a6 bb 83 3d
       -0.19635545 -0.38270423 0.04266439 0.064322755
000070 8c 51 88 be 70 8a 02 be 30 03 9b 3e 4e 9a af 3d
       -0.26624715 -0.12748122 0.3027587 0.08574353
000080 57 ac 49 bc e3 c9 6f be a8 d0 60 bd 69 45 af be
       -0.012309155 -0.23416857 -0.05488649 -0.34232643
000090 11 38 1b 3e 45 4d 35 3e 86 0f 86 3e f8 25 f4 3c
       0.15158106 0.17705257 0.26183718 0.029803261
0000a0 20 30 61 be 4a 25 98 bd 9c d4 97 3d f8 78 8b 3d
       -0.21991014 -0.07428987 0.07413599 0.06810182
0000b0 7b 84 9f 3b 43 1e c7 bd 07 bc 52 bc 3d ed 88 3c
       0.004868088 -0.09722569 -0.012862212 0.016714687
0000c0 d2 c0 0e bd 05 6d d0 3d b2 5c c8 be 5c d6 94 bd
       -0.034851857 0.10177044 -0.3913322 -0.07267448
0000d0 af 7e 89 3e e3 e5 44 be 0b c3 9e be 15 46 99 be
       0.26854464 -0.1922832 -0.3100818 -0.2993628
0000e0 3c 2e 2d 3d 1f 91 65 3e bc e3 b0 bd d1 6a 64 3e
       0.04228042 0.2241864 -0.08637187 0.22306372
0000f0 3f 45 50 3e 2c fa 55 be 29 da 22 be cf 3c 01 be
       0.20338915 -0.20896214 -0.15903534 -0.12620853
000100 f1 16 87 3e a9 47 3b 3d 54 8c 7a 3e 57 90 16 3e
       0.2638469 0.045722637 0.24467593 0.14703499
000110 ff 8b 5d 3e 11 93 b1 3e a3 26 a2 3d f5 1d 8f be
       0.21635436 0.34682515 0.079175256 -0.27952543
000120 2c ac 29 3e ed 93 59 bd a8 29 74 be 76 3a 65 3d
       0.16569585 -0.05311959 -0.23844016 0.055963956
000130 e9 69 42 3d a2 83 48 3d ef 7a 38 3d df 2e 14 3e
       0.047464285 0.04895366 0.045039114 0.14471005
000140 d7 32 07 3d 9b cf aa 3e 4d 83 79 bc c1 06 89 3e
       0.03300747 0.33361515 -0.015229058 0.26762965
000150 45 39 50 be 22 b0 df 3e 1c 59 83 be 28 6f 2b bd
       -0.20334347 0.43689066 -0.25653923 -0.041854054
000160 09 fd af ba 2d 9b 4e 3e 55 c1 f9 bd cf 4c 6f bd
       -0.0013426851 0.20176382 -0.12195078 -0.05842286
000170 79 7f 72 3d 61 87 77 be 64 8e dc 3d 16 83 37 3c
       0.0592036 -0.24172737 0.10769346 0.011200687
000180 73 15 3b be 16 3d 93 3d 55 5c 4f bd 16 5a c1 3d
       -0.18269901 0.071893856 -0.050625164 0.09441011
000190 fd 35 a2 be a7 7f 44 3e 44 74 3d be 5d fc 35 3e
       -0.31681815 0.1918932 -0.18501383 0.1777205
0001a0 22 a3 51 3e 86 08 42 bb 3b 17 6f 3e 54 f4 60 3e
       0.20472386 -0.002960713 0.23348705 0.21968204
0001b0 79 09 5f 3e e3 40 98 3d 1d 19 86 3e a2 38 c1 3e
       0.21780957 0.07434251 0.26191035 0.3773852
0001c0 68 03 91 bd a3 6c 4e 3e a7 c1 38 be 44 65 09 be
       -0.07080728 0.20158629 -0.18042623 -0.13417536
0001d0 22 05 b9 3c 81 12 fd 3c c2 b8 73 3e 98 e0 17 3e
       0.022585455 0.030892612 0.23800948 0.1483177
0001e0 68 04 f2 3d 39 88 65 bd ac 15 4f 3e 66 65 77 be
       0.11817247 -0.056038115 0.20223111 -0.24159774
0001f0 17 59 08 be 0a 33 83 3e 82 5d 6a 3e 71 0e de 3d
       -0.13315235 0.25624877 0.22887233 0.10842598
000200 0e 12 5e 3e f4 55 b7 3d ae 67 99 be b5 e9 ab be
       0.21686575 0.08951941 -0.29961914 -0.33576742
000210 b9 1e 1e 3e 13 4c 71 be f0 2f 3e 3e 3f d9 4d be
       0.15441407 -0.23564176 0.18572974 -0.20102404
000220 fb 2a 92 be 3e 56 6f 3d 88 73 a8 3a ff 42 a7 bd
       -0.28548416 0.058431856 0.0012851814 -0.08167075
000230 cc 57 86 be fc c3 28 bf 80 b2 3f be 75 11 c8 bc
       -0.2623886 -0.6592405 -0.18720436 -0.024422387
000240 e8 d0 09 bf bd d6 52 be 21 f3 99 3d af 85 f3 3d
       -0.5383439 -0.20589729 0.07517076 0.118907325
000250 d6 aa 5f be a3 12 e5 be 37 cc 51 3d 63 04 4a bd
       -0.21842512 -0.4474078 0.051220145 -0.04932059
000260 3b cb cf be 7c cc 2b bf 63 01 f7 bd 57 1f ff 3b
       -0.4058474 -0.67108893 -0.12060811 0.0077857184
000270 47 bb 33 3e 1a 55 16 39 dd 28 96 be 0a c0 08 3f
       0.1755191 0.00014336818 -0.2932805 0.5341803
000280 da dc 66 3d 30 7f 2d 3d 55 70 18 3e bd 9b ae bc
       0.056362964 0.042357624 0.14886601 -0.021314496
000290 47 36 45 3d f4 bf 93 bd da 51 10 be 12 8e 4f be
       0.048147466 -0.072143465 -0.14093724 -0.2026904
0002a0 48 43 0c be fe ab ed 3d dc 0b 47 3e 05 d3 d2 be
       -0.13697541 0.116050705 0.19438118 -0.4117662
0002b0 82 56 16 bd dc 48 f2 bd d6 72 51 be 34 6f fd be
       -0.036703594 -0.11830303 -0.20453963 -0.49498904
0002c0 30 61 96 bd 8e 61 c3 3c dd ca 73 3e 75 91 9c be
       -0.07342756 0.023850229 0.23807855 -0.30579725
0002d0 b5 81 74 be 13 73 2b bd 9f bf 0b bd 12 bc 19 3e
       -0.23877604 -0.04185779 -0.03411829 0.1501315
0002e0 d6 65 3d bd b9 ef 94 be 75 f0 a3 bc 30 7b 2d 3d
       -0.046239696 -0.29089144 -0.02001212 0.04235381
0002f0 85 bd 0f bd a5 c2 af 3e bb c1 9e be 2d b0 7b 3e
       -0.03509285 0.3432819 -0.3100718 0.24578924
000300 7e d4 6a bd 19 45 0f 3e 0b 11 a5 be 82 8e 3c bb
       -0.057331555 0.13991202 -0.32239565 -0.0028771465
000310 7d 2d ff bd a1 c3 9d bd b5 25 35 be 3d ec 92 be
       -0.12459848 -0.07703329 -0.17690165 -0.2869586
000320 08 11 f8 bd 42 82 0b bf a9 ee 91 3d f3 32 1d be
       -0.121126235 -0.5449563 0.07125599 -0.15351467
000330 3a 84 8a 3c ca c3 a2 3a 93 c6 1b 3e 51 5f 83 be
       0.016908754 0.0012417969 0.15212469 -0.25658658
000340 0a 47 56 be 73 94 2e 3c 2c dc 43 3e 8c f8 22 be
       -0.20925537 0.01065551 0.19126958 -0.15915126
000350 7b 57 6f 3e 0d 00 82 ba 4e 66 61 be 26 1a a0 3d
       0.23373215 -0.0009918228 -0.22011682 0.078174874
000360 a9 b8 96 be 13 2e 1b 3e b2 f8 ae 3e 8c 93 1d be
       -0.2943776 0.15154295 0.34174114 -0.15388316
000370 ca 9e 8c 3e f8 68 4d bd f5 68 57 bf 97 9b 03 be
       0.27464896 -0.050148934 -0.84144527 -0.12852322
000380 25 70 3a be ae 60 05 3a 36 6b 82 3e c0 ea 17 3e
       -0.18206842 0.0005087954 0.2547242 0.14835644
000390 ba ce 28 be fe f0 bf be 06 89 b2 3c bd ef 83 be
       -0.1648511 -0.3748855 0.021793853 -0.25768843
0003a0 72 d8 a6 be 5b da 3e 3e fd 15 18 3d d3 91 f0 bd
       -0.3258701 0.18637984 0.037130345 -0.11746564
0003b0 b4 2f 8e 3d 42 38 7c be 8f a8 30 3e e1 4e 1c be
       0.069426924 -0.24630836 0.172518 -0.15264465
0003c0 aa df 1b bf 5e 9d 46 bd 50 ed d9 be 8a 82 13 bf
       -0.6088816 -0.04848992 -0.42563868 -0.5762106
0003d0 fb 15 31 3c 27 92 ae 3e 45 da 01 bd 56 f7 49 be
       0.010808463 0.3409588 -0.0317023 -0.19723257
0003e0 30 23 02 bc 65 1d 81 be cc fd 3a be ec 1f c8 bd
       -0.00794296 -0.2521774 -0.18260878 -0.097717136
0003f0 fc 92 48 be a7 f6 5a be ff 18 66 3e 08 aa 33 be
       -0.1958732 -0.21383153 0.22470473 -0.1754533

policy_fc2.bias f4 [32]
000000 7d 1f 66 3d 84 8d a3 bd bf 01 14 3e ab 69 3b 3d
       0.056182373 -0.07985976 0.14453791 0.04575507
000010 b9 e9 69 bd 23 fc c2 bd 9c 4d f7 bc a9 2d 95 bd
       -0.05710766 -0.095207475 -0.030188374 -0.072840996
000020 0e e9 db bd 8b 4a 7d 3d 85 24 cb 3d 6a b0 9a 3d
       -0.10737811 0.061838668 0.09919075 0.075531796
000030 8a 3a c7 3c 2d e6 83 bc e3 57 df b9 78 0a 33 3e
       0.024319906 -0.016100967 -0.00042599355 0.17484462
000040 af 36 59 bd 30 cc 31 bd b8 c7 72 3d 85 80 72 bd
       -0.053030666 -0.04340762 0.059272498 -0.059204597
000050 29 9f 12 bc a2 ad 44 3c dd 52 90 3d fb 44 ac 3d
       -0.00894908 0.012004288 0.07047055 0.084115945
000060 0c 89 b2 3d 32 94 23 3e 5d 89 f5 bb af 67 50 38
       0.08717546 0.15974501 -0.0074931816 4.9687627e-05
000070 8a eb cc 3d 01 0b a7 3d 65 c7 04 3e e7 83 5b bd
       0.10005863 0.08156396 0.12966688 -0.05359259

policy_fc3.weight f4 [51, 32]
000000 f3 28 86 3c 3c 32 9c bc c9 ae 2a bd 98 5f 9f 3d
       0.016376948 -0.019066922 -0.041670594 0.07781905
000010 ab c1 fa bc 40 ae a7 3d 50 51 2a bd 22 b8 14 3d
       -0.030609926 0.081875324 -0.041581452 0.036308415
000020 f7 70 96 bd 2e ae 70 be e8 86 50 bc 59 e4 64 3e
       -0.07345765 -0.23503944 -0.012727477 0.22352733
000030 cd 48 a6 be 85 b2 b5 3d e1 de d5 bd fe 1b a6 bd
       -0.32477418 0.088719405 -0.104429014 -0.08110808
000040 76 11 80 bd 2a e0 46 be 84 e4 d6 3e 71 4a 83 be
       -0.062533304 -0.1942145 0.4197122 -0.25642732
000050 df 0d 51 be 34 34 03 bd 75 8c 57 3d 3c fa 9a 3e
       -0.20415448 -0.032032207 0.052624185 0.3026904
000060 01 ff c6 be 1b 1b d2 3d 9f 30 8a 3e 38 f6 de 3d
       -0.38866428 0.10259076 0.2699022 0.10886806
000070 37 6f 6b 3e 09 c2 32 3e 94 7d cd 3e 7b 97 1f be
       0.22991644 0.17456831 0.4013487 -0.15585129
000080 59 4e 26 be 80 db d1 be 06 1b c4 bd 21 71 51 3e
       -0.16240825 -0.40987778 -0.09575467 0.20453312
000090 95 14 71 be c9 18 90 be 67 29 31 be 89 37 21 be
       -0.23543008 -0.2814391 -0.1730095 -0.15743841
0000a0 54 9d aa be 3f 92 3c be ea 39 82 3e fe 08 c0 be
       -0.33323157 -0.18415163 0.2543481 -0.3750686
0000b0 0e 96 b9 3e cf 1c 10 3e d1 4e 80 3e bc ff d2 3d
       0.36247295 0.1407349 0.25060132 0.10302684
0000c0 1a 09 f2 bc d8 1b 75 3e 1c 33 16 be 7a 40 4f be
       -0.029545356 0.23936403 -0.14667934 -0.2023944
0000d0 03 1f f8 bd cd f8 9a bd ef d8 0f 3e f8 d4 3a be
       -0.1211529 -0.07566986 0.14047597 -0.18245304
0000e0 3f cd 9f 3d e3 15 10 be 72 1b df bc 1e a3 52 3e
       0.078028195 -0.14070849 -0.027234767 0.20570037
0000f0 b3 fe ae 3e cc de da bd 34 d7 9f bd 1e 9d 66 3d
       0.34178695 -0.106870264 -0.078047186 0.056302182
000100 6d f0 78 bc 15 5f 25 be e5 6f e1 3e 02 d7 1d 3e
       -0.015194041 -0.16149552 0.4403068 0.1541405
000110 d3 43 d2 3c 3c 03 11 be 78 bb b0 be 59 db 84 be
       0.025667107 -0.1416139 -0.34518027 -0.259486
000120 85 b0 6e be 26 2b 80 3e 2d 8b 81 3e 5e 35 45 bd
       -0.23309524 0.2503292 0.25301495 -0.048146598
000130 4b fa 9d 3d 41 7f 84 bd 50 c3 0d be a9 7b 04 3f
       0.07713755 -0.06469584 -0.13844037 0.5175119
000140 6b 9c 7e 3d 92 f7 a7 be 1b f7 ae 3e ea 27 52 3d
       0.06216089 -0.3280607 0.34172902 0.051307596
000150 ef 71 87 bd 86 75 8c bd 79 86 98 be fa 9d b0 3d
       -0.06613528 -0.06858353 -0.29790094 0.08623882
000160 31 5e 13 be c1 ca b4 3d 7e fc b7 be b3 18 8a 3d
       -0.143914 0.08827735 -0.35934824 0.06742992
000170 ce ca bb be d2 57 c6 3e d0 e5 66 be b1 74 c5 be
       -0.36678165 0.38738877 -0.22548604 -0.3856559
000180 f1 98 08 be 6e 50 19 3d 30 8c 0f 3f 75 f8 8d 3d
       -0.13339593 0.03743022 0.56073284 0.06932155
000190 00 c9 6d 3d 36 b3 6b bd 13 a3 01 bf 59 fe 04 be
       0.058053017 -0.057543956 -0.50639457 -0.12987651
0001a0 bb bb 80 be 19 91 61 be 6d 53 f7 3e 89 ac 17 3e
       -0.25143227 -0.22028007 0.48305836 0.1481191
0001b0 fe a8 23 bc 5c 92 79 3e 8e 82 89 be 09 9e 15 3e
       -0.009989021 0.24372238 -0.26857418 0.14611067
0001c0 59 92 18 be 30 68 53 3e 29 f0 9c 3e d7 ba 6e 3c
       -0.14899577 0.20645213 0.30651978 0.014570913
0001d0 29 c2 0e 3e 1d 7b b2 3d 42 25 8b be 1f 08 00 3f
       0.13941254 0.08714888 -0.27176863 0.5001239
0001e0 2d de 6f be ba 6b b8 be 06 98 8d be b6 80 c8 3e
       -0.23424597 -0.3601969 -0.27655047 0.391607
0001f0 e1 49 56 3c 54 5f 10 be 06 3b 80 be 96 fd 7e 3e
       0.013079138 -0.14098865 -0.2504503 0.24901423
000200 0b 97 00 be ef 28 57 be a2 69 c7 3e 89 45 43 be
       -0.12557618 -0.21011709 0.3894778 -0.19069494
000210 78 e8 08 be 92 4f b3 3d e0 a6 9a 3d ee 60 b7 bd
       -0.1336993 0.08755411 0.0755136 -0.08954035
000220 3c 0e 35 be 29 81 78 3d 26 c3 05 be 45 f0 88 bd
       -0.17681211 0.06067005 -0.13062724 -0.06686453
000230 c5 7b 93 3e 7c 15 bb bd 1f 72 1a 3e 4c 57 75 3e
       0.28805366 -0.09134957 0.15082596 0.23959082
000240 d8 45 92 bd 2d c9 82 3d 94 6e fc bc 3a a7 b6 bd
       -0.07142228 0.063860275 -0.030814447 -0.08918615
000250 70 1d a9 be 07 0f 56 be 25 c0 f7 bd 29 22 dd be
       -0.33030272 -0.2090417 -0.120971955 -0.43190125
000260 5b 96 5f be 59 38 db be 4d 8a a2 be 33 08 bb 3d
       -0.218347 -0.42816427 -0.3174614 0.09132423
000270 21 76 8a 3d 37 7a e1 be e4 94 ae 3e 0c d3 9a 3e
       0.067608126 -0.44038555 0.3409797 0.3023914
000280 2b c3 8c 3e e1 80 0b be 09 c7 86 3e 54 59 3e bd
       0.2749265 -0.13623382 0.26323727 -0.04647191
000290 d4 16 a8 3d 27 24 1a 3d 33 e8 da 3c 68 4b b6 bd
       0.08207479 0.037632134 0.02672205 -0.08901101
0002a0 c2 9e ed bd 42 02 33 bb ce 73 2b 3e c1 8e bd be
       -0.11602546 -0.0027314578 0.16743395 -0.37022975
0002b0 3a 27 bc bd 1d bc 2b 3f 90 11 ad bd 16 2c 8c be
       -0.091871694 0.67083913 -0.084506154 -0.27377385
0002c0 06 df 61 be 9c 97 b0 3e fd c2 58 be 71 b6 bd be
       -0.22057733 0.3449067 -0.21168132 -0.37053254
0002d0 aa ec c6 be d6 3d 9c 3e 97 34 d7 3d af 8e c6 bd
       -0.38852435 0.30515927 0.105080776 -0.096951835
0002e0 64 0e 33 be 9f b4 78 3e 31 5d ab bc 04 54 c5 bd
       -0.17485958 0.24287651 -0.02091846 -0.09635165
0002f0 cf ec fd 3c 06 a0 80 3e 32 ce fd 3e 62 f2 35 3e
       0.030996708 0.25122088 0.49571377 0.17768243
000300 ff b5 58 bc 56 36 71 3e 29 50 c2 be 39 dc c4 bd
       -0.013226985 0.23555884 -0.37951782 -0.09612317
000310 68 db 46 3e 8e 7e 85 bd e7 74 3f 3e 49 cd 01 3e
       0.19419634 -0.06518279 0.18696938 0.12675966
000320 cd 17 89 3d 3a 50 79 bc 12 fa fa bd ac dc af 3e
       0.06693993 -0.015216881 -0.122547284 0.34348047
000330 c1 8d a2 be 6d d8 0a bd 55 cf 27 be 70 b5 52 3e
       -0.31748775 -0.033897806 -0.16387685 0.20577025
000340 8c 34 39 be 6e c5 0a be ff ed 26 3e c3 1d cb bd
       -0.18086451 -0.13551876 0.16301726 -0.09917786
000350 44 c3 9e 3e 9b a1 88 bd 9a b9 27 3e 54 6d b1 3e
       0.3100835 -0.06671449 0.16379395 0.34653723
000360 ef 0d ee 3e 64 c4 9c bc cd 56 ea bd 32 47 90 be
       0.46495005 -0.019136615 -0.11442337 -0.28179318
000370 cb 7a 2b be bb 75 19 3d 3b 2f 9e be 61 b5 d0 bd
       -0.1674606 0.037465792 -0.3089541 -0.10190845
000380 ae 0b 25 3e fe ff 7f be 2b 62 3c be 5b a5 40 3e
       0.16117737 -0.24999997 -0.18396823 0.18813078
000390 12 1c 83 be c6 a4 11 be 7a 56 a5 3e a8 02 be 3e
       -0.25607353 -0.14223012 0.3229254 0.37111402
0003a0 7f cc 11 3e 8e d9 cb 3d 64 15 94 be 1d 75 dd bd
       0.14238165 0.09953605 -0.2892257 -0.10813353
0003b0 71 0e cd 3d 1d 75 93 be 50 1b 42 bc 08 f3 05 bd
       0.1001252 -0.28800288 -0.011847332 -0.032702476
0003c0 03 2c 1e be 5c 58 24 3e da 01 6c 3e 15 b2 e4 bd
       -0.15446477 0.16049331 0.23047581 -0.11166779
0003d0 33 d3 e0 be be 78 9b 3d 69 82 6b 3e c5 ec d1 3d
       -0.43911132 0.07591389 0.22998966 0.10250238
0003e0 d9 1a de bc bc 03 f0 bd 4a 7a bc 3d df fa 98 bd
       -0.027112411 -0.11719462 0.09203012 -0.07469725
0003f0 64 45 84 bd b2 fd f9 3e 29 b5 19 bd 24 54 91 3e
       -0.06458548 0.48826367 -0.037526283 0.28384507

policy_fc3.bias f4 [51]
000000 fa 99 c5 3d f7 cf ec 3d 65 78 c7 3c 6f 87 1d 3d
       0.09648509 0.11563104 0.0243494 0.038459238
000010 1c f7 33 be 5d a6 96 3e fe 87 b4 ba 5c 1e 72 bd
       -0.17574733 0.294238 -0.0013773439 -0.059110984
000020 72 fd 83 bd 3c 48 3c 3e ab e9 b2 bb d0 0f 19 3e
       -0.06444825 0.1838693 -0.0054599843 0.14947438
000030 45 07 6c 3d 75 28 b8 3d e6 52 53 3e 99 99 59 bd
       0.05762412 0.089920916 0.20637092 -0.053124998
000040 4a a0 4a 3e fe 92 5e bd 46 eb 36 bd 06 23 98 bb
       0.19787708 -0.0543394 -0.044657968 -0.004642847
000050 73 cb 42 3d 21 f8 81 3d 52 5a 6c bc 00 27 c5 3d
       0.047557306 0.06346155 -0.014425831 0.09626579
000060 fe 89 da 3d 84 7d 00 bc 1f 86 33 3d ef 0d ac 3d
       0.10670851 -0.007842425 0.04382908 0.08401095
000070 15 33 b6 3d 9e e3 12 3e 0d 96 1a be 7b 0e ca 3c
       0.08896462 0.14344642 -0.15096302 0.024665108
000080 c0 98 8c bd 6d e1 07 bd e9 0d 16 bd 06 de e2 3d
       -0.06865072 -0.033173967 -0.03663436 0.11077504
000090 b2 26 4e 3e 09 b1 0c 3e 80 77 88 bd 12 ad e5 bc
       0.20131949 0.13739409 -0.06663418 -0.028036628
0000a0 15 7c 28 bd c5 c4 10 3e 5b c7 54 3d 32 83 e6 3c
       -0.04113396 0.14137562 0.051947933 0.02813873
0000b0 f8 83 de bd 2a a5 3b 3b 82 63 f2 3d fe b3 a3 3d
       -0.10865015 0.002863238 0.11835386 0.07993315
0000c0 6f 0f 8a 3b 35 cb 5e bd 6b 71 b9 3c
       0.0042132656 -0.054393012 0.02263709

value_fc1.weight f4 [64, 235]
000000 8c 0d 83 bf 30 19 1f 3c f3 33 01 be cf 6e 9a bd
       -1.0238509 0.009710595 -0.12617473 -0.07540666
000010 9c 4b b1 3d 2f 63 38 bc 56 6e 5e bd ce c5 b4 3d
       0.086569995 -0.011254116 -0.054304443 0.08826791
000020 9d 4a ce 3c 45 64 a4 bd 1a 58 dd bd 56 28 f9 bc
       0.025182063 -0.080269374 -0.1080782 -0.030414741
000030 1b 89 50 3d de 21 38 3d dc b9 d9 bd f2 5d 8e bd
       0.050912004 0.044954173 -0.10631153 -0.069515124
000040 f3 58 2d 3e 1c 9c 23 3d d0 ff ac bd 4e 6b 87 3e
       0.16928463 0.0399438 -0.0844723 0.26449054
000050 e2 a8 1e 3c e9 22 60 bd 38 37 eb 3d 9e cc 5b 3d
       0.0096838195 -0.054720793 0.114851415 0.053661935
000060 7e 39 bb bd 2e 87 39 3e 61 a2 81 3d e6 71 d0 be
       -0.09141825 0.18117973 0.063297994 -0.40711898
000070 cd b6 ec 3c 54 c3 4a bc 84 e8 a5 be a2 15 c7 3b
       0.02889576 -0.012375671 -0.32403958 0.006075577
000080 28 1d 0a 3d 84 8e cb be c1 68 9c 3d d6 32 09 be
       0.03371921 -0.39757168 0.07637168 -0.13398299
000090 37 6a fd bd ed 6c 14 3c 70 e1 0b bc 1c ba c2 bc
       -0.123737745 0.009059173 -0.008537635 -0.023770384
0000a0 0b e7 9b bc e4 c8 fa bd de 47 23 be 6f 45 0d 3e
       -0.019031068 -0.12245348 -0.15945384 0.13796018
0000b0 37 2e 9b bc 68 c4 ad be 70 b8 3d bc e9 17 ce 3d
       -0.018942935 -0.3393891 -0.011579618 0.10063154
0000c0 d5 cf 1b be 3f ce b6 3d 92 76 1f bd 9f 86 7a 3d
       -0.15216 0.08926057 -0.038931437 0.06116354
0000d0 b7 c6 34 be 98 1a 0f be 5c 9a 0f 3e 7c 0b 13 bd
       -0.17653929 -0.13974988 0.14023727 -0.035899624
0000e0 c6 43 03 3e 86 45 a2 3d 54 15 6f 3d 40 a0 28 3e
       0.12818822 0.07923417 0.05836995 0.1646738
0000f0 65 b7 e8 be ad 18 15 3f 62 4c f0 bd db 1f 9b 3d
       -0.4545242 0.5824078 -0.11733319 0.07574435
000100 30 af 92 be 8f 24 a6 3e c9 73 0f 3e cf 7e c7 3d
       -0.28649282 0.32449767 0.14009012 0.09740984
000110 b8 c3 ca be fd d5 ce 3e 53 5a 06 bf be 60 9a 3d
       -0.39602447 0.40397635 -0.52481574 0.07537983
000120 76 f0 15 bd d7 11 60 bc 2a 5c 5d 3d b0 e0 d1 3c
       -0.036606275 -0.013676128 0.054042973 0.025619835
000130 f0 63 71 3e d5 a8 7d bd 22 b1 94 3d d2 7f 87 3d
       0.2357328 -0.06192859 0.07260348 0.06616177
000140 95 0d 1d 3e 5c e2 51 be a7 06 b7 3d dc b4 34 3c
       0.15337212 -0.20496505 0.08936816 0.011029448
000150 63 a8 97 be 71 ae ef 3e d5 68 4f be 49 de 4f 3d
       -0.29620656 0.46812776 -0.20254834 0.050749097
000160 63 75 5c be 85 03 d3 3e a9 5e 82 bc 4d 71 e1 bc
       -0.21529154 0.41213623 -0.015914278 -0.027519846
000170 55 ab fe bc 95 7b 79 3e b9 a5 03 be 47 a9 a9 3d
       -0.031087557 0.24363549 -0.12856187 0.0828424
000180 c2 c4 95 bd 0c 5c 0a 3e cb 4d 07 3e 00 f8 88 3d
       -0.07312919 0.13511676 0.1321327 0.06687927
000190 75 ef d0 3d 09 6f 22 be 19 8a df bd e9 95 b3 bd
       0.10201923 -0.15862669 -0.10915012 -0.087688275
0001a0 8f bd 07 be 23 ef b7 bd 37 f7 4a be ee 4e 2c 3e
       -0.13255905 -0.089811586 -0.19820867 0.16826984
0001b0 47 94 1f be 2c 77 9d 3d 57 bf fb bd 4d 89 20 bc
       -0.15583907 0.07688746 -0.122923546 -0.00979836
0001c0 56 2b 2c 3c 98 56 50 be 4d 86 fc bd ff fb 5c bd
       0.010508379 -0.20345533 -0.12330303 -0.05395126
0001d0 7d 35 b7 be 27 88 e0 bc bd 87 63 bd e8 13 9c bc
       -0.35782996 -0.027408672 -0.055549372 -0.01905246
0001e0 a3 f7 75 be b5 ae 83 3e 6c 53 d5 3d 4d 5e eb 3d
       -0.24020247 0.25719228 0.10416302 0.11492596
0001f0 b4 e7 84 3d 97 fd 4b 3e e4 f1 4d 3c b3 e8 6a bd
       0.06489506 0.19920956 0.012569878 -0.057350826
000200 61 41 bc bc 9e 18 47 be 83 3a 6a 3c 3e f4 b7 3d
       -0.022980394 -0.19442984 0.014296177 0.089821324
000210 5f fa c8 be 50 14 11 3d 21 cb d9 3d f7 97 7c be
       -0.39253518 0.035419762 0.10634447 -0.24667345
000220 00 41 db bc 2d 68 dc 3b b5 86 9d be 76 f8 14 3c
       -0.026764393 0.006726286 -0.30766836 0.009092441
000230 46 31 1b be 95 6d c1 be f2 71 a4 3a f0 82 e3 bd
       -0.15155515 -0.37778917 0.0012546165 -0.11108959
000240 fb 1e 8d be e6 48 01 bd cb 72 24 3d dc 91 73 be
       -0.275627 -0.031563662 0.040148538 -0.2378611
000250 f4 70 13 bd 99 c0 e0 bd 6b 44 3f be ce 95 0a be
       -0.035996392 -0.10974235 -0.18678443 -0.13533708
000260 05 a9 35 be b9 a4 0b be 1e df dc bd 01 0d bf bd
       -0.17740257 -0.13637055 -0.10784744 -0.09328652
000270 95 3b 43 be e6 12 56 3c 43 5a 34 bd e3 9f 4a be
       -0.19065697 0.013066029 -0.044031393 -0.19787554
000280 cb 32 1a be c0 f2 12 be e8 58 e0 3c 80 fe 44 bd
       -0.15058438 -0.14350414 0.027386144 -0.048094273
000290 b8 cd 1d bd 32 c3 57 bc 3f 4f e8 3d 9d d4 4e 3d
       -0.038526267 -0.013169097 0.1134324 0.050495733
0002a0 a6 d7 d0 bd b1 70 85 bd c5 76 42 bd 54 0d ee bd
       -0.10197382 -0.06515635 -0.04747655 -0.11623636
0002b0 c3 98 cb bd ae 0e 2a be 27 4f aa bb 37 26 0e bb
       -0.09941246 -0.16607162 -0.005197424 -0.0021690258
0002c0 a4 a3 a2 bd d2 3a ab bd 29 08 94 bd 58 1e 64 bd
       -0.07941368 -0.083608285 -0.07228119 -0.055693
0002d0 a9 f3 f8 bd ec 87 f9 3d 1d f6 84 bd 3c a7 8e 3b
       -0.121558495 0.12184128 -0.06492255 0.004353432
0002e0 94 31 21 3e 48 64 8b be 93 ec ec 3e 34 e3 3e bc
       0.15741569 -0.27224946 0.46274242 -0.011650849
0002f0 a6 46 82 be 0c 9f a7 bd 3a 01 ac 3e 10 82 a1 be
       -0.25444525 -0.08184633 0.33594686 -0.31544542
000300 e5 6a b9 be 87 b9 0c 3d 67 d5 83 3d de 8c a5 3d
       -0.36214367 0.03435662 0.06437188 0.08083509
000310 ff 44 c4 3d f6 ed 74 3d 10 33 44 be b1 ef 9a be
       0.095834725 0.05979725 -0.19160104 -0.30260995
000320 3b 4e 24 3e ad e8 cd 3e f7 d0 25 3e 66 e3 e4 be
       0.16045468 0.4021658 0.16192995 -0.4470474
000330 6d 91 c3 3d f8 06 b1 3c d0 3d a0 3d 21 cc 7d 3e
       0.09549222 0.021609768 0.0782429 0.247849
000340 66 ea 32 bd 99 21 29 bd 61 91 8b 3e 26 f7 14 bd
       -0.04368057 -0.041291807 0.27259353 -0.03636851
000350 58 85 49 be 74 56 ee 3d 29 f9 c7 3d fc e5 a9 3d
       -0.19679773 0.116375834 0.097643204 0.08295819
000360 12 ec b1 3c 9b 3b 2e bd e6 51 44 bd c0 08 e9 3d
       0.021719012 -0.042537313 -0.047929667 0.11378622
000370 f2 d4 c8 bd ee a4 10 be 7f 64 e6 3d eb f5 92 3c
       -0.09806241 -0.14125416 0.11249637 0.017939528
000380 84 27 02 3e c0 74 b3 bd 58 1e e3 bc bc d1 c3 bd
       0.12710387 -0.08762503 -0.02772443 -0.09561488
000390 98 72 49 be 3d 57 3b be fa cc a3 bc 19 17 b7 bd
       -0.1967262 -0.18294998 -0.019995201 -0.089399524
0003a0 d7 73 cb bc d8 28 f4 bd a6 04 f9 3d 03 9e 49 3e
       -0.02483551 -0.11921853 0.1215909 0.19689183
0003b0 00 b5 90 3c 0c 08 6a 3d d2 40 01 3e c2 89 1e be
       0.017664433 0.05713658 0.12622383 -0.15482238
0003c0 36 9c 3b 3d 61 89 2b bd 37 59 ad bd 93 2c f5 3d
       0.04580327 -0.04187906 -0.08464282 0.119713925
0003d0 82 89 0f be 88 74 5b 3f 3d 7d 52 be 99 52 33 3d
       -0.14017299 0.8572469 -0.20555587 0.043779943
0003e0 f2 29 2e be 17 73 25 3e 48 2f f0 bd 4b a5 c7 bd
       -0.17008188 0.16157185 -0.11727768 -0.09748324
0003f0 35 57 4e 3e 56 62 93 3c 2e d3 d0 be 7e 0f dc 3d
       0.20150454 0.017991226 -0.40786117 0.107451424

value_fc1.bias f4 [64]
000000 ff 3e 59 3d f1 24 a1 bc 68 b1 a4 bd 55 56 d2 3d
       0.053038593 -0.019670935 -0.0804165 0.10270373
000010 f7 b4 a7 3c 24 9d 9b 3d fd 90 e3 bd e3 d5 2e bc
       0.020472033 0.075983316 -0.11111639 -0.010671112
000020 f0 38 c9 3d d0 bd ee bd 34 fc 23 bd 62 31 a6 3d
       0.09825313 -0.116572976 -0.04003544 0.08114888
000030 63 69 58 bc d2 1e 43 3d 5a 6f 65 bd 87 95 4d 3d
       -0.01320872 0.047636814 -0.056014396 0.05019143
000040 26 87 b0 3d 00 79 5a 3d 49 5f fe bc 49 5f c2 3d
       0.086195275 0.05333805 -0.031051295 0.094908305
000050 1a bf b2 3d b8 50 c4 3b 27 6d fb 3c ed 63 47 3c
       0.08727856 0.0059910677 0.030691696 0.01216982
000060 16 de 3a bd a4 55 20 bc 7d 51 59 bd 0c 47 e1 bd
       -0.045621954 -0.009786043 -0.05305623 -0.10999879
000070 d5 89 48 3e 40 ac 83 bd 0d 21 f2 bc 61 2d 2f 3c
       0.19583829 -0.064293385 -0.029556775 0.0106919715
000080 69 fe c7 3d be 73 ff 3b a1 85 6d 3e 6d c2 0a 3e
       0.09765322 0.00779578 0.23195507 0.1355073
000090 58 08 7a 3d 22 5d 8a bd cb 12 6f 3e 81 65 4c bb
       0.061043113 -0.06756045 0.23347013 -0.003118843
0000a0 39 b7 d7 3c 71 13 52 3d 7d 71 30 be 8e 30 4b 3e
       0.026332485 0.051288072 -0.17230792 0.19842741
0000b0 a3 fb f4 39 75 11 f3 bd 30 99 5f bc 8e c0 2d 3c
       0.0004672679 -0.11868564 -0.013647363 0.010604991
0000c0 7b 88 2c 3d 77 48 0d bd db 04 ed bc d6 89 0c 3e
       0.042122345 -0.034492936 -0.02893298 0.13724455
0000d0 4f 3e 75 bc d3 95 a0 bd b1 73 14 3d 47 ef f9 3d
       -0.014968469 -0.07841077 0.036243144 0.12203842
0000e0 e6 49 59 3d 0a c3 67 3d bd 1e 8e bc 87 4d fa 3d
       0.05304899 0.056582488 -0.017348642 0.122218184
0000f0 1e c6 b8 bd 29 63 c6 3d bb f1 aa bb 30 00 15 3e
       -0.09022163 0.09686882 -0.005216805 0.14550853

value_fc2.weight f4 [32, 64]
000000 b7 05 11 3e dc b9 88 be 3b fc 90 be a5 bc f1 3e
       0.14162336 -0.267043 -0.28317437 0.47214237
000010 05 99 af bc e5 a1 17 3e 9a 25 30 be 08 07 91 3d
       -0.02143527 0.14807852 -0.17201844 0.07081419
000020 bc 20 c3 bd ee a8 ae 3c 58 cc 91 be 44 23 69 3e
       -0.09527728 0.021320786 -0.28476214 0.22767359
000030 da 8b 47 bc ec a0 f6 3e 69 8b 68 bf 62 be 43 bd
       -0.012179339 0.4816965 -0.90837723 -0.047788985
000040 68 b2 5d be 7b ff 9f bd a0 15 ae 3d 05 be cf bc
       -0.21650088 -0.07812401 0.085002184 -0.025359163
000050 25 0e 84 3e 07 71 e7 bd e1 29 2a bc 84 9a b7 3e
       0.2579204 -0.11300855 -0.010385961 0.35860074
000060 6a 65 c3 bd 82 ee 4f bd 29 58 7a 3d 8b 77 dc be
       -0.095408276 -0.05076457 0.061119232 -0.43059954
000070 f0 d1 7c be cb f3 fb be 80 51 de bc d2 fe 87 3d
       -0.2468946 -0.49209437 -0.027138472 0.066404
000080 08 b1 bc 3e bd f3 66 bd 8b 86 2d 3e 0d c6 e0 3d
       0.36853814 -0.05638479 0.16945855 0.10975275
000090 41 ba 42 be d6 b7 b4 be 19 e5 b3 be 30 b9 4d bf
       -0.19016363 -0.35296506 -0.35135725 -0.803607
0000a0 1f 8a 07 3e 02 8c 87 3e 6c 97 d3 bd 01 11 95 be
       0.13236283 0.26474005 -0.10331616 -0.29114535
0000b0 2a 30 fe 3d 1c 50 ed 3d 99 b7 06 bd 25 9f 26 3d
       0.1241153 0.11587545 -0.032889936 0.040679116
0000c0 16 6a 2c bf 9d dc 1b bf 9f 21 a0 3e 1a c8 4d 3e
       -0.67349374 -0.60883504 0.3127565 0.20095864
0000d0 6b a0 ef bb 95 1f 09 3e db 6b ba 3e c5 ff e5 bb
       -0.0073128245 0.13390954 0.36410412 -0.0070190155
0000e0 be cb 02 be 17 44 87 3e ee 53 83 3e f9 54 8c be
       -0.12773034 0.26419136 0.2564997 -0.2740858
0000f0 53 cb 0a bd 0f de 86 be 74 dd 99 be ff 35 f8 3d
       -0.03388531 -0.26341292 -0.30051768 0.12119674
000100 f5 a3 b4 3c f0 e0 9f bd 2d b8 89 3e 8a 65 e4 3d
       0.022050837 -0.07806575 0.26898327 0.111521795
000110 e9 15 e8 be 53 36 c2 bc 83 ab 97 3e 82 f3 34 3e
       -0.45329216 -0.023707544 0.2962304 0.17671016
000120 b8 45 4c 3e 10 9c e1 3d 9d d1 1d 3e 05 4a 14 3e
       0.1994847 0.11016095 0.15411992 0.14481361
000130 2b ac 19 3f 3e 97 e1 3d ec 14 5d bd 71 5c 98 3e
       0.6002833 0.11015175 -0.05397503 0.29758027
000140 c1 a9 22 3e 5c 95 47 bc 6a cb ce 3c 49 6e 19 3e
       0.15885068 -0.012181606 0.02524348 0.14983477
000150 3d fe 23 bd d4 38 01 be 98 3c 10 bd 43 3e 48 3e
       -0.040037382 -0.12619334 -0.035214037 0.19555001
000160 9b f3 a0 3d 7d ce ca 3e 33 0a d3 3e 73 ee 8c 3d
       0.07858964 0.39610663 0.4121872 0.06881418
000170 e1 79 f2 be 4b 33 32 3b 39 f9 04 be 24 89 e7 be
       -0.4735861 0.0027191218 -0.12985696 -0.45221817
000180 75 4d 07 3d 7d 8a be bc 36 cc 11 bf 3e a4 3c 3e
       0.033032853 -0.023259396 -0.56952226 0.18422028
000190 26 32 92 3e 97 db 82 3e 66 28 44 bf 43 fc b0 3e
       0.28553885 0.2555816 -0.76624143 0.3456746
0001a0 46 f2 bd 3e 97 a4 4f bd be cb 34 bd 9f c6 07 3e
       0.37098902 -0.050694074 -0.044139616 0.13259362
0001b0 71 6e 15 3e d8 33 13 bd b6 91 44 3e aa 22 d3 3e
       0.14592911 -0.035938114 0.1919621 0.41237384
0001c0 d9 ee d8 3e 10 c1 0e 3f f4 c2 b2 3e 0e e9 8a 3e
       0.42369726 0.5576334 0.34914362 0.27130932
0001d0 8b cd b0 3e dc fd 5c 3d 2c 58 2e be 0c cf 0f bd
       0.34531817 0.053953037 -0.17025822 -0.035109565
0001e0 17 1f 54 bd 4b fa b1 3e e4 59 25 3e 78 19 61 bd
       -0.051787462 0.3476127 0.16147572 -0.05495593
0001f0 d6 a2 31 3e 0f 6a 1e bd 3a fd 68 3e 34 05 4c 3e
       0.17347273 -0.038675364 0.22752848 0.1992386
000200 6e 88 53 3e 11 8d ba be 8d fc bf be e5 37 0c 3f
       0.20657513 -0.3643575 -0.37497368 0.5477279
000210 bc f4 15 be 16 62 d7 3e 8d 1b 91 be 27 f7 28 3e
       -0.1464414 0.4206702 -0.28341332 0.16500531
000220 69 03 67 be 31 ac 12 bd 82 8c 93 bd 1f 86 9c be
       -0.22559895 -0.035808746 -0.07204534 -0.30571076
000230 b2 d7 62 be 56 54 b9 3e 58 7b dd be 09 84 aa be
       -0.22152594 0.36197156 -0.43258166 -0.3330386
000240 c4 7b a7 be 98 c9 65 be 8e 1a d5 be e2 bd b3 be
       -0.32711613 -0.22440183 -0.41621822 -0.35105807
000250 5e 13 96 3e 25 03 3e bd aa f4 2a 3e 0b dc 74 3e
       0.2931165 -0.046389718 0.16694894 0.23912065
000260 dd c2 29 3e df 67 83 3d 80 8d b4 bd d1 d2 82 bf
       0.1657824 0.06416296 -0.088160515 -1.0220586
000270 b9 15 b6 bd ef ea 9f 3d 3f 27 d3 be 33 5f 38 3b
       -0.08890862 0.07808482 -0.4124088 0.0028132915
000280 e4 bb b6 3e db 1c c8 3d c6 54 92 be 90 38 14 be
       0.35690224 0.09771129 -0.28580302 -0.14474702
000290 b3 11 2c 3c 6f a3 99 be 9e ff 23 be c5 12 88 bf
       0.010502267 -0.30007502 -0.16015479 -1.0630728
0002a0 4a ae 91 be 83 45 03 3e e2 a4 09 be 20 9e d7 be
       -0.28453285 0.12819485 -0.13441804 -0.42112827
0002b0 1f 39 fb bd fc c1 5a bd e6 dd 1f bd 44 88 3d be
       -0.12266754 -0.053407654 -0.03902998 -0.18509012
0002c0 ff 57 fe be ec f9 c4 be 0d e9 13 be c0 31 5f 3e
       -0.4967651 -0.38471925 -0.1444437 0.21796322
0002d0 1d 2b 1a bf 62 93 7a bc 46 a2 95 3e 60 c2 a6 3e
       -0.60222036 -0.015293928 0.29225367 0.3257017
0002e0 7a 0d b3 bd c9 13 5a be 2e 28 92 3d 0c 9f 1e bd
       -0.08742805 -0.2129661 0.0713657 -0.038725898
0002f0 6e fe dd be 1e 22 6c 3e 94 8e c6 be ef 19 94 3e
       -0.43358177 0.2305989 -0.38780653 0.28926036
000300 34 b5 34 3e 20 cf df bd 84 a1 aa be f0 fa 9a 3d
       0.17647249 -0.10928178 -0.33326352 0.07567394
000310 b4 15 e1 be f4 37 5c bd 2d 66 14 bf 82 76 38 3e
       -0.4396187 -0.0537643 -0.5796841 0.18013957
000320 25 f4 9b 3e bf 20 92 be 12 25 75 bf 69 31 eb be
       0.30459705 -0.28540608 -0.9575969 -0.45936134
000330 ec b6 ce be b2 ba 8b 3d 04 cb 7b be 9f 78 22 be
       -0.40373933 0.06822719 -0.24589163 -0.15866326
000340 48 48 05 be 4c 58 76 3e 25 b3 5a be 3b 8e d9 be
       -0.13015854 0.2405712 -0.213574 -0.42491326
000350 05 de 94 3e 5c 46 e5 3e c6 9f 29 be 0f 45 06 3d
       0.29075637 0.44780242 -0.16564855 0.032780703
000360 ac 62 9e 3e f0 20 91 be b9 a0 8e bc 07 bc 75 bf
       0.30934656 -0.28345442 -0.017410623 -0.9599003
000370 29 1b 93 bb a0 33 76 be fa 07 34 be 7e a7 ce bd
       -0.0044893217 -0.24043131 -0.17581168 -0.1009054
000380 d1 14 ff 3d 32 44 05 be 7e 29 e3 3d dd 1f 35 3e
       0.12455142 -0.13014296 0.110918984 0.17687936
000390 2e a7 03 3e 92 d0 8c 3d 30 cc 37 3e a9 89 42 be
       0.12856743 0.06875719 0.17948985 -0.18997826
0003a0 71 1d 9f be db 11 c5 3d a1 0d d4 be 9b 20 7c 3e
       -0.3107715 0.09622546 -0.41416648 0.24621813
0003b0 2a 10 57 be 39 76 e5 be 3f 70 5a be 76 29 58 bd
       -0.2100226 -0.4481676 -0.21331881 -0.052773915
0003c0 e0 93 29 3d 12 08 f4 be 42 c5 8b be 66 b9 a5 3e
       0.04140079 -0.47662407 -0.27298933 0.3236801
0003d0 18 ea 9a be 06 d3 3c bd 4c 5c a6 bd 70 a5 6f 3e
       -0.30256724 -0.046099685 -0.08123073 0.23402953
0003e0 e9 a6 06 3e 51 db bb be d6 ed f1 3d cc f5 11 3e
       0.13149609 -0.36690763 0.11812942 0.1425392
0003f0 1d 07 02 bf da cd 86 3d 20 cd 4e bd b9 83 17 3d
       -0.50792104 0.06582232 -0.05048859 0.036990855

value_fc2.bias f4 [32]
000000 0e 81 e1 bd 47 b6 36 3e 99 f1 7c 3d ef 2c bd 3d
       -0.11010943 0.17842971 0.061753843 0.09237086
000010 94 70 11 3e 81 bf 8d bd b5 51 14 3e ae 60 b2 bc
       0.14203101 -0.06921292 0.14484294 -0.021774616
000020 81 e8 12 3e 9d 72 4f be 2a f9 20 3d 98 83 81 bc
       0.14346506 -0.20258565 0.03930012 -0.01580982
000030 dc f1 21 3d c6 9e 9c 3d b2 f8 cc 3d fd 53 f4 bd
       0.039537296 0.07647471 0.10008372 -0.11930082
000040 c3 a2 4d 3e e5 a9 80 be f7 56 9d bd bf 6d ae bd
       0.2008162 -0.2512962 -0.07682603 -0.08517026
000050 ca 17 8a 39 af 46 3f be 12 cc 2b be 75 6d 95 3d
       0.00026339135 -0.18679307 -0.16777065 0.07296268
000060 66 bb 66 bd d0 91 0d 3e d5 4a 97 ba 4c 42 51 be
       -0.05633106 0.13825154 -0.0011542687 -0.20435447
000070 49 3c 20 be fd cd 13 3e 85 3d 22 bd 4d 9b 85 3d
       -0.15647997 0.14434047 -0.03960945 0.06523762

value_fc3.weight f4 [1, 32]
000000 f7 1e 79 bf 16 6a 3f 3f 50 08 a1 bf 4f e5 31 3f
       -0.97312874 0.7477125 -1.2580662 0.6949052
000010 94 41 70 3f a5 78 85 3f 5f 65 d9 3e 4b 2d 30 bf
       0.93850064 1.0427443 0.42460153 -0.6881911
000020 fb 98 94 3f f5 68 9e bf 11 0c bb 3f 5f 30 a1 bf
       1.1609186 -1.237578 1.4613057 -1.2592887
000030 a9 cc 98 3f 6a ef aa 3f 5a f4 87 3f 4b 6a 46 bf
       1.1937457 1.3354313 1.0621445 -0.7750594
000040 fa c8 91 3f 67 b0 7c bf c7 ea 58 3f 5b 2c 8f bf
       1.1389458 -0.9870667 0.8473324 -1.1185411
000050 f3 f0 d6 3f ba 6d af bf be f8 d6 3f df 02 9e 3f
       1.6792282 -1.3705361 1.679466 1.2344626
000060 34 c5 41 3f ee 38 2f 3f fa 48 60 bf 79 ca fc be
       0.75691533 0.6844624 -0.87611353 -0.49373224
000070 40 44 44 bf 1e 1f e7 3e df ca 54 3f 09 fb 89 3f
       -0.7666664 0.45140928 0.83122057 1.0779735
