rl/spin_model_11221411/16.pt (torch_old, 159601 bytes, 12 tensors)

log_std f4 [51]
000000 5e a4 e7 3c b6 59 b6 3d ec 07 1a bd 42 eb 8b 3d
       0.028276619 0.0890383 -0.03760521 0.06831981
000010 df 64 22 3d 0e ad a4 3d 35 a3 a2 3d 9e ae 9b 3d
       0.03964698 0.0804082 0.079412855 0.07601665
000020 5c 47 9b 3d 94 21 c5 3d b9 33 d2 3d f2 48 18 3e
       0.0758197 0.09625545 0.102637716 0.14871576
000030 8a f5 b1 3d 1a df aa 3d 03 6d 04 3e 51 ed ff 3d
       0.08689411 0.083433345 0.1293221 0.124964364
000040 df 8c a7 3d 33 96 ca 3d 0b c1 f7 3d 35 4b ba 3d
       0.08181166 0.098919295 0.12097367 0.09096376
000050 d3 56 5e 3d ff f3 b9 3d 9e 4a d6 3c 6a 08 96 3d
       0.05428202 0.09079742 0.026158627 0.073258236
000060 23 7f f3 3c 8e 9f df 3d 6b d1 b8 3a fd f1 b2 3d
       0.02972371 0.109191045 0.0014100497 0.08737562
000070 b1 06 b9 3d 89 00 fb 3c 48 ca e3 3d e2 e1 ae 3d
       0.090344794 0.030639904 0.111225665 0.085391775
000080 9b ec db 3d bc d9 21 3d df 86 91 3d 9b 89 c8 3c
       0.10738488 0.03951429 0.07105803 0.024479678
000090 60 10 e0 3d 06 de 4d 3d 42 fe b8 3d f6 97 88 3d
       0.10940623 0.050260566 0.09032871 0.06669609
0000a0 d8 03 b3 3d 66 08 28 3e 23 5d b0 3d e6 9a cc 3d
       0.087409675 0.16409454 0.086115144 0.09990482
0000b0 ad dc 20 3e 0d 11 7d 3d 1e 62 80 3d a2 4f f4 3d
       0.15709181 0.06178384 0.06268714 0.11929251
0000c0 6b 13 b4 3d 43 32 31 3d c1 25 84 3d
       0.08792766 0.043260824 0.064525135

policy_fc1.weight f4 [64, 261]
000000 bc 2a 3e 3d 6c b4 f4 bc 58 8c cc bd 00 7c 14 bb
       0.046427473 -0.029871188 -0.09987706 -0.0022656918
000010 a4 20 08 3d d4 3d 85 bd 3e ad fb 3d d6 65 2a 3e
       0.033234254 -0.065059334 0.12288903 0.1664041
000020 29 de 06 3e 72 0f e9 3d d1 65 70 bd 55 da 0b 3e
       0.13170685 0.11379899 -0.05869085 0.13657506
000030 2a 2d 43 3d 2c aa b1 bd 45 e1 d1 3d 4e 4f a6 3d
       0.047650494 -0.08675036 0.10248045 0.08120595
000040 d0 29 78 3d d4 eb e7 bd e7 73 0b 3d 97 20 51 3d
       0.06058675 -0.113242775 0.03404608 0.05105647
000050 90 a6 eb bd c8 4c d8 3d 2f a5 26 3d 46 6d 9e bd
       -0.11506379 0.1056152 0.040684875 -0.07735686
000060 31 ea df bd 8d 4c b9 bd 29 ff a9 3c a0 3e 0c be
       -0.1093334 -0.09047804 0.020751553 -0.13695765
000070 47 a4 ab bd b1 e2 83 3d 18 20 fe bd 4d ef bf bd
       -0.08380943 0.06439722 -0.12408465 -0.09371815
000080 22 67 5e 3d f6 84 d5 3d 6d f4 a5 3d 87 bf 9c 3d
       0.054297574 0.10425751 0.08103261 0.076537184
000090 4d 7a 0d be 31 a6 19 3c f9 42 b4 3a d9 dd a0 bc
       -0.13816185 0.009378002 0.001375287 -0.019637035
0000a0 4c 5e 21 3d 42 43 be 3b 53 b9 8e bd da c3 57 3d
       0.03939657 0.0058063576 -0.069689415 0.052677013
0000b0 64 b9 14 3d 91 2c e8 bd 5a 2d 2f 3d b7 3b f1 bd
       0.036309615 -0.11336625 0.04276786 -0.11778968
0000c0 4c 40 d6 bd d1 16 e8 bb c2 f0 c5 bd 27 c2 25 bc
       -0.104614824 -0.007082798 -0.096650615 -0.01011709
0000d0 7d 18 61 b9 cb 29 cc bd dd 5f 14 be 6a 24 04 bd
       -0.00021466795 -0.09968909 -0.14489694 -0.03226129
0000e0 85 88 37 bd b4 61 ca 3d 12 5d 6f 3d e2 c8 1a 3d
       -0.04480793 0.09881917 0.05843837 0.037789233
0000f0 fe 38 fb bb ff 62 08 be f0 5c 23 bd c4 9d 62 3d
       -0.007666706 -0.13319014 -0.039883554 0.05532624
000100 a0 88 37 3d 01 ca a2 bd a9 bf b6 3d 67 44 96 3d
       0.04480803 -0.079486854 0.08923275 0.073372655
000110 59 60 a8 3d 19 0c 6e bd 25 53 9d 3d 79 03 25 bd
       0.08221502 -0.058117006 0.07681874 -0.040286515
000120 19 a5 08 3e e2 8a e0 bc 8f e4 cd 3d cd 51 fb 3d
       0.1334423 -0.027409974 0.1005336 0.12271462
000130 90 c7 a9 3d bf 0d a1 bb 03 17 e2 3d 39 95 ce 3d
       0.08290017 -0.0049149687 0.110395454 0.10087056
000140 c0 0a 33 3e 12 53 fe bc df 92 a3 bd ce 21 e2 bc
       0.1748457 -0.03104547 -0.07986998 -0.02760401
000150 cf d8 f2 3c 18 08 04 be e0 5b a4 3c bb 20 f7 3d
       0.029644398 -0.12893713 0.02006334 0.1206679
000160 b6 90 d8 3d 78 b2 09 3d bb 5d e0 3c 1b 8e d0 3d
       0.105744764 0.033617467 0.027388444 0.101833545
000170 09 4b e1 bd bd eb 7b 3c c8 7b 16 3d 01 de e0 bd
       -0.1100064 0.015376029 0.03673914 -0.10979844
000180 7d 9c ee bd 0b db 93 bd f5 cd e5 bd aa 89 98 bd
       -0.116509415 -0.072195135 -0.11220924 -0.07448132
000190 f1 54 ce 3d ad c5 fe bd fe c1 82 bd 31 5b 76 bd
       0.10074795 -0.124400474 -0.06384657 -0.06014556
0001a0 8e 47 04 3e a0 57 16 be 2b 02 db bd b9 89 37 3d
       0.12917921 -0.14681864 -0.10693773 0.044809077
0001b0 bc 6b 05 3e fa 05 cb 3d af f1 36 3d 12 8d 54 3d
       0.13029379 0.09913249 0.04466408 0.051892348
0001c0 46 aa af 3d f3 a6 92 3c 42 55 d0 bc 80 26 82 3d
       0.08577399 0.017901873 -0.02543128 0.063549995
0001d0 e2 85 d9 3d 8e d4 5b 3d 12 ad a3 3d 64 a1 28 3d
       0.10621239 0.053669505 0.07991995 0.04116954
0001e0 f7 bd 0b 3d c2 ef 9b 3d 52 eb ab bd 8a f4 c4 bc
       0.03411671 0.076140895 -0.08394493 -0.024042387
0001f0 21 d0 f3 bd 50 a6 5e bc 78 bc 89 3d 04 8b a7 bd
       -0.11904932 -0.013589457 0.06725401 -0.08180812
000200 59 ba 52 3d 5e 34 5d bd ef a0 ac bc 94 95 68 bd
       0.051447246 -0.05400502 -0.021072833 -0.056783274
000210 c2 98 88 3c 9e 3e aa bd 84 aa 90 bd 7d c4 de 3d
       0.016674403 -0.083127245 -0.07063773 0.10877321
000220 3c 30 e2 3c 65 55 9d bd fc 8f f8 3d 82 a0 82 bd
       0.02761089 -0.07682303 0.12136838 -0.06378271
000230 69 9a ef bd 87 cd fd bd d3 90 8e bc f1 8d af 3d
       -0.11699373 -0.12392717 -0.017403042 0.08571995
000240 eb ad 6e bc 83 83 49 bd 8f 43 15 be 63 59 cc 3d
       -0.014567832 -0.049197685 -0.14576553 0.09977987
000250 a9 1d 9a bd df 81 6d 3c 7e 6f e0 bd ee c9 78 3d
       -0.075251885 0.014496296 -0.109587654 0.06073945
000260 c7 52 dd bc 75 2d e6 3d 83 e1 db bd db 50 b3 3d
       -0.02701701 0.11239139 -0.10736372 0.08755656
000270 e1 a9 da 3d 19 12 50 3d fb b2 92 bd 39 ef d2 bc
       0.10676933 0.05079851 -0.07163044 -0.025748836
000280 ac ab 72 bd 52 a1 cc 3d 8d 3b 21 be 88 56 f0 3c
       -0.05924575 0.09991707 -0.15745373 0.029338136
000290 52 12 0e 3d 83 a7 91 3d 6b 23 fa bd 23 91 20 be
       0.03468544 0.071120284 -0.12213787 -0.15680365
0002a0 fb 89 f9 bd 4b 26 6c 3c 05 a6 76 3d 6b 80 18 3d
       -0.12184521 0.014413427 0.060216922 0.037231844
0002b0 0f 61 03 3e 50 8b 02 3d e9 bc 8c bc 0c 36 e9 bd
       0.12829994 0.03187114 -0.017179923 -0.11387262
0002c0 97 62 ea ba be dd c1 3d 8c 2a de bd f5 26 1d 3e
       -0.0017882165 0.09466122 -0.10847959 0.15346892
0002d0 a7 75 97 ba d6 9c c9 3d 89 fc 1e 3e 08 fd 20 3d
       -0.0011555449 0.09844367 0.15526022 0.03930381
0002e0 7f 99 b1 bd 1b 17 5c bd 9d 30 e6 3d 4a 12 23 bd
       -0.08671855 -0.053732973 0.11239741 -0.039812364
0002f0 62 35 0e be 40 5e 96 3d 87 19 86 bc 07 41 15 3d
       -0.13887551 0.073421955 -0.016369594 0.036438968
000300 cc a9 90 3d 81 a9 55 3c 26 19 8e 3d 7c 0c c1 bb
       0.07063636 0.013040901 0.069383904 -0.005891381
000310 50 18 1e bd f4 cf 1e 3e 5b 0d 20 3e 67 eb 1d be
       -0.038597405 0.15509015 0.15630095 -0.1542183
000320 fd 17 ac bd 8e cb c8 bd bb 22 b1 3d f8 ea e6 3d
       -0.08403013 -0.0980445 0.086492024 0.112752855
000330 24 af a9 3c f6 a7 6d 3b ad da 1a bd f1 f7 7d 3c
       0.020713396 0.0036263443 -0.0378062 0.015501008
000340 42 2b 04 bd fd df c4 bb b7 9a 6d bd ec c7 94 3d
       -0.032267816 -0.006008147 -0.058008876 0.072646946
000350 a0 ae 13 3e da c2 4e 3d cc e3 9f 3d c2 cb 86 bd
       0.14422083 0.050478794 0.07807121 -0.065818325
000360 16 2f 1a 3d 7f a5 fc 3d 4a 7a 65 3d 06 94 2f 3e
       0.03764256 0.123362534 0.056024827 0.1714631
000370 93 d2 02 3d 14 95 ae bc 46 b3 c0 3d 76 f0 c4 3b
       0.0319391 -0.02131132 0.09409194 0.0060101105
000380 05 00 67 bd 79 b6 27 3d d7 ae 9a bd c1 2e bf bd
       -0.056396503 0.040945504 -0.07552879 -0.093350895
000390 30 d4 76 bd 96 7d c6 3b 08 77 c2 bc b2 a3 40 bc
       -0.06026095 0.0060574515 -0.0237384 -0.011757778
0003a0 c3 fd a1 bc 00 f6 de 3c 77 4f 72 3d 8c cd cd bd
       -0.019774323 0.027216911 0.059157815 -0.100489706
0003b0 ed d6 23 3d 9e 31 14 3e 34 c3 c2 bd 28 6d 34 bd
       0.03999989 0.14472052 -0.09509888 -0.044049412
0003c0 fe 8e ba bd a2 a9 df bc dd ab 05 be 10 d0 bd 3d
       -0.09109305 -0.027302567 -0.13053842 0.092682004
0003d0 e6 d6 d6 3d 9e 93 0a bd de 8e 9f 3d 04 11 d9 bd
       0.104902074 -0.033832185 0.07790922 -0.105989486
0003e0 6b 3b 03 3e 00 5d e8 3d e4 e0 b7 bd d1 ff b9 bc
       0.12815635 0.11345863 -0.08978441 -0.02270499
0003f0 75 fa 7f bc dd db ba 3c b5 cd 0b 3e 53 79 7b 3d
       -0.015623678 0.022809917 0.1365269 0.061395

policy_fc1.bias f4 [64]
000000 e1 c4 7e bc e0 8a ed 3b 62 72 e9 3b 27 33 71 3b
       -0.015549869 0.007249221 0.007124231 0.003680417
000010 b5 16 ba bc 2e 78 2f bc 83 32 d0 bc 21 9e 5f bc
       -0.022715906 -0.010709805 -0.02541471 -0.013648541
000020 e2 f9 2a bc 60 8c a4 bc 27 17 32 bc 9a 79 d1 3a
       -0.010435553 -0.020086467 -0.010869778 0.0015981675
000030 49 52 5f ba 31 59 ac bb 6d 1b 80 bc 5c 44 10 bc
       -0.00085190363 -0.005259656 -0.015638078 -0.008805361
000040 f4 89 5b bc 7d 92 8f bc ed d7 46 3c 4e 9e 06 bb
       -0.01339959 -0.017525906 0.012136442 -0.0020541134
000050 f0 2e 17 3c 6b 50 92 bb 03 50 50 3c a2 99 c4 bb
       0.009227499 -0.004465153 0.012714389 -0.00599976
000060 9e 32 89 bc e4 b5 2b bc ac ca 9b bc 63 2b 56 bc
       -0.016747769 -0.010480378 -0.01901754 -0.013071868
000070 ea 4d 46 b9 f6 5e 7b bc 15 eb 38 bb 7e ef 2c bb
       -0.00018911777 -0.015342465 -0.0028216292 -0.0026387866
000080 70 e3 1f bc e0 b7 11 bc 84 51 88 38 50 e4 05 bc
       -0.009758815 -0.008893937 6.500169e-05 -0.00817211
000090 92 14 ef bb 31 ca b2 bb 03 1a f9 bb 17 9d 54 bc
       -0.0072961533 -0.005456232 -0.007601978 -0.012976906
0000a0 e1 cc eb bc b9 2b dc 3a 6e 47 1d bc d2 e9 89 3b
       -0.028784217 0.0016797698 -0.00959955 0.0042087818
0000b0 1b 67 ba 3b b2 db 9c bc 82 20 8d bc 32 1b 14 bc
       0.0056885607 -0.019147728 -0.017227415 -0.009039687
0000c0 47 b4 3b bb fa 4b f8 ba 1b 81 96 bb d6 67 03 3b
       -0.002864139 -0.0018943541 -0.0045930273 0.0020050905
0000d0 14 e0 f8 3a 77 ea a8 3b 98 4b 22 3b 8d bd e2 3b
       0.0018987679 0.0051549035 0.0024764296 0.006919569
0000e0 60 78 ac bb 67 36 91 3b 3e 46 68 bc 47 70 13 bb
       -0.0052633733 0.004431534 -0.014176903 -0.0022497342
0000f0 28 eb 15 bc 1f 3b 86 bb 47 25 5d bc eb 3b f2 bc
       -0.009150304 -0.0040964033 -0.013497657 -0.029569587

policy_fc2.weight f4 [32, 64]
000000 33 fa db bd ee 24 f7 3d 1c a0 13 be 22 b8 14 be
       -0.10741081 0.12067591 -0.14416546 -0.14523366
000010 7d f7 b1 3d 44 39 4f 3e 80 5e ab 3d ab c3 7e be
       0.08689783 0.20236689 0.08367634 -0.24879329
000020 f8 ee 09 be 00 79 0a be 55 94 e5 3c a1 87 d8 3d
       -0.13470066 -0.1352272 0.028024832 0.10572744
000030 e5 68 62 3d d4 bc 67 be 34 71 fa bc 8d 77 d4 bd
       0.055275816 -0.22630626 -0.030571558 -0.10374365
000040 d3 a7 d1 bd d0 62 22 3c ee 5a e2 bc a4 6b b7 3c
       -0.10237088 0.009911254 -0.02763125 0.022390194
000050 23 66 25 3e a2 f3 d5 3d 66 1f 08 3e 18 81 91 bd
       0.16152243 0.1044686 0.13293228 -0.07104701
000060 9a c9 f7 3d 83 06 a1 3d 77 ee 3b be 99 5d d6 3c
       0.12098999 0.0786257 -0.18352686 0.026167678
000070 6b 1b 29 3e 8e 24 e6 bd c7 83 49 be 26 61 c5 bd
       0.16514365 -0.11237441 -0.19679175 -0.0963767
000080 3a f8 57 3d c5 18 5e be 48 dc 83 bd 7f 61 26 3e
       0.05272696 -0.21689136 -0.064385 0.1624813
000090 e2 55 86 3e b6 81 68 be 42 b2 d6 3d ed f8 7b 3e
       0.26237398 -0.22705731 0.10483219 0.24606676
0000a0 22 30 7d be e3 37 64 be ca b8 ce bd c4 ce ee 3d
       -0.24725392 -0.22286944 -0.100938395 0.11660531
0000b0 2f 45 25 3e 72 0e 29 3e 07 1e f3 3d bb 5f 29 bb
       0.16139673 0.16509417 0.11870962 -0.0025844413
0000c0 96 a5 07 3e aa 42 cc 3d 81 ac 10 be 20 e4 3f 3e
       0.1324676 0.09973653 -0.14128305 0.18739367
0000d0 9c a2 26 3e da ce ee 3c fc 09 91 bd 96 93 2f 3e
       0.16272968 0.029151369 -0.070819825 0.17146143
0000e0 1a ca 86 bd fd 69 11 3e 9f 43 70 bd d7 4f 2b be
       -0.065815166 0.14200588 -0.05865824 -0.16729675
0000f0 03 4a 8e be a2 af 2b bc af e5 ea 3d 40 41 43 be
       -0.2779084 -0.010478886 0.1146959 -0.1906786
000100 cc 32 f5 bc 07 ee 5e 3e ad d9 3d be 6e 17 5c bd
       -0.029931448 0.21770488 -0.18540068 -0.05373328
000110 ed e4 47 3e 99 77 37 bd a1 9e 90 bc dd a9 3c be
       0.19520922 -0.04479179 -0.017653765 -0.18424173
000120 b1 95 12 be e9 7c 50 be 27 d6 44 3d a1 f0 17 3e
       -0.14314915 -0.2036015 0.048055794 0.14837886
000130 89 be 21 3e fe ad 30 3e 16 5d 44 3d 15 89 42 3e
       0.1579534 0.17253873 0.047940336 0.18997605
000140 a7 a1 2a 3e ea d5 49 be 80 a9 26 be c0 4c 62 3e
       0.16663228 -0.19710508 -0.16275597 0.2209959
000150 79 6b 9a bd ea 56 77 bd 3f 9a 7a 3b f7 42 34 3e
       -0.0754003 -0.060385622 0.003823891 0.1760367
000160 69 ee fa 3c 26 fa b4 3d 31 ea 3b 3e 07 41 81 3e
       0.030631261 0.088367745 0.18351056 0.25244924
000170 37 b7 f8 bd 53 86 8b 3d 6f e3 16 3e 87 b1 33 3e
       -0.121443205 0.0681273 0.14735197 0.1754819
000180 a0 79 35 3d 19 f5 1d 3e f8 3f 72 3e 23 78 64 bd
       0.044305444 0.15425529 0.23657215 -0.055778634
000190 6a 2c 65 3c 44 33 7c 3c 19 d2 34 be 5e c6 bf bb
       0.01398764 0.015393082 -0.17658271 -0.0058525046
0001a0 c6 69 8a be 16 5e 74 be d7 95 3b be c4 6c 65 be
       -0.27033824 -0.23864016 -0.18318878 -0.22404772
0001b0 ac 9e cb 3c 2f 17 81 be c1 21 0e be 15 dc 9d 3c
       0.024855934 -0.25213 -0.13880064 0.019269982
0001c0 88 ec 01 3c 98 fc 88 3d 29 88 68 be cd c8 ca bc
       0.007929929 0.066888034 -0.22708191 -0.024753952
0001d0 a4 86 19 3e 19 a0 cd bc b4 b2 e6 bd 00 00 62 3e
       0.14992768 -0.025100755 -0.11264554 0.22070312
0001e0 00 91 f0 bc f3 cf 4b be b7 54 8a 3e e6 02 a3 3d
       -0.029366016 -0.19903545 0.27017757 0.07959537
0001f0 bd 1b 4f be a4 b4 28 bd 64 22 bd bd 1f 17 51 3e
       -0.20225425 -0.041187897 -0.09235075 0.20418976
000200 ec b2 3a 3d 9a 45 12 bd 4c 51 b0 3d f4 10 62 3d
       0.04558079 -0.03571091 0.08609256 0.05519195
000210 b5 65 70 bd c4 fd 83 3d bf ce 66 3e fa 1b 3e be
       -0.058690745 0.06444886 0.22539805 -0.1856536
000220 5d e9 e7 3d 03 24 ba bd ad b6 24 3e 40 53 15 be
       0.113238074 -0.090889 0.1608531 -0.14582539
000230 fc cd 02 3e 26 80 3f bc fd 62 b7 3d 1f e1 0a be
       0.1277389 -0.011688268 0.089544274 -0.1356244
000240 8a e0 67 be 38 9c 6e be b1 91 6c 3e f2 1e ce 3d
       -0.22644249 -0.2330178 0.23102452 0.10064496
000250 1b 3a 42 3e 51 73 6f be 75 5b 70 be 92 5d ab bc
       0.18967478 -0.23383833 -0.23472388 -0.020918641
000260 95 39 84 be 45 47 a8 bd 85 6d bd 3d b4 a9 44 bc
       -0.25825182 -0.082167186 0.09249405 -0.012003351
000270 0b 0d d6 bd ae b9 aa bd 36 72 a9 bd ae c8 97 3d
       -0.104517065 -0.08336197 -0.08273737 0.074113235
000280 5f 29 8b bc 37 7e 14 be 3a c6 1b bd bd 26 95 bd
       -0.0169875 -0.14501272 -0.03803084 -0.07282779
000290 da 16 20 be fe 59 f4 3d 24 99 a3 3d e7 7a c0 bd
       -0.15633717 0.11931227 0.07988194 -0.09398442
0002a0 9d 8e 2e be 20 00 4a 3c ab 12 52 be 4d 94 07 be
       -0.1704659 0.012329131 -0.20514934 -0.13240166
0002b0 32 48 05 be 57 65 22 bd c5 2f 2d 3e 2d d2 08 bd
       -0.13015822 -0.039647426 0.16912754 -0.033403564
0002c0 66 2e 1f be 45 48 b8 3d 40 14 f9 3d 9c 87 06 be
       -0.15545043 0.08998159 0.121620655 -0.13137668
0002d0 85 4b a6 bd 0a 0f 6e 3e 55 54 67 3e 00 53 99 3d
       -0.08119873 0.23247924 0.22590764 0.07486534
0002e0 89 e6 59 be 3e 9a 4b 3e 0b 61 55 3e 56 5d 9e 3d
       -0.21279348 0.19883057 0.208378 0.07732646
0002f0 60 58 94 3d 53 eb 0e be 62 72 4b bd 75 8b 2f 3e
       0.07243419 -0.13956957 -0.04966963 0.17143042
000300 a1 25 43 3e 4d 89 8b bd f2 96 8b 3d 2a e4 81 3d
       0.19057323 -0.068132974 0.068159 0.06342347
000310 21 ed 84 3e 71 c2 be 3c be d2 10 3e 4b 1a c1 bd
       0.25962165 0.023286076 0.14142892 -0.09428843
000320 e3 a2 1a 3e 00 62 5e bd d0 46 30 3d 0e 09 e2 3b
       0.15101199 -0.05429268 0.043036282 0.006898052
000330 29 2e 9f bd dd 93 ec 3d ae f1 ea 3d ca 63 da 3c
       -0.07772476 0.1155164 0.11471878 0.026658911
000340 9b 39 1f bd ce 97 95 bc 1d d3 d3 3c e3 2d 33 bd
       -0.038873296 -0.018260863 0.025857503 -0.043744933
000350 37 05 b4 bd f0 67 f8 bd f1 bc 29 bd 01 db 21 3e
       -0.08790057 -0.121291995 -0.041439954 0.158062
000360 62 83 d5 bd 15 34 10 be 64 29 26 be 54 1c c4 bd
       -0.1042545 -0.14082368 -0.16226727 -0.09575716
000370 c7 22 21 3d f6 e1 1e 3b f1 a6 75 3d a5 b2 6e 3e
       0.039339807 0.002424357 0.05997366 0.23310335
000380 79 03 3a 3e aa be 22 3e 64 d8 09 3e 82 d6 8d 3d
       0.18165387 0.15893045 0.13461453 0.0692568
000390 ea 3d 68 be f0 9e 51 3d 0e 70 e5 3d 79 2f 21 3e
       -0.22679868 0.051176965 0.11203013 0.15740766
0003a0 6a 9f 8f 3e df d2 e8 bd b2 3b 2d 3e d3 a2 f8 ba
       0.2805131 -0.113683455 0.16917303 -0.0018969424
0003b0 7a 12 62 3c 5f 43 86 bd 4d 5d 3f 3c 54 a7 27 be
       0.0137983505 -0.06555819 0.0116799595 -0.16372424
0003c0 f4 1b a4 3b 4a cc 37 3e 3c d3 4e be 07 3b 74 bc
       0.005008215 0.17949024 -0.20197767 -0.014906651
0003d0 ae 09 4d be 7d 78 45 3d a1 a2 3f bd f6 d9 39 be
       -0.20023224 0.04821061 -0.046785954 -0.18149552
0003e0 d8 5f 05 3d 54 ad c5 3d cc 67 96 3d 62 ed 3f 3e
       0.032562107 0.096522 0.073440164 0.18742898
0003f0 d4 a2 ac bd 2f 98 8c bd ba 0a 76 be 55 19 6f be
       -0.084294945 -0.06864964 -0.2402753 -0.23349507

policy_fc2.bias f4 [32]
000000 ae 7d a7 bb 02 8b 90 3b 3e 9e 0e 3c 15 3c b6 3c
       -0.0051114177 0.0044111023 0.00870472 0.022245446
000010 5e 2b df 3a 54 9a 5a 3c a7 74 e5 ba 6e bb 10 bc
       0.0017026474 0.013342459 -0.0017506079 -0.008833749
000020 e6 4e 95 3c ec ac 1d bd 20 1a 1a bd c8 2a 3a bc
       0.018226098 -0.03849499 -0.03762257 -0.011362739
000030 bf 37 02 bc ea 90 ca 3c 91 da b3 bc be 54 02 bc
       -0.007947861 0.024727304 -0.021954807 -0.007954774
000040 2e 96 32 3c e3 70 91 3c d1 25 75 3d 9b 3e 00 3c
       0.010900063 0.017754024 0.059850518 0.007827426
000050 a1 72 bd bc 71 6d d4 3b da 41 97 bc 99 ad 86 3b
       -0.023125948 0.006482773 -0.018464018 0.00411005
000060 f9 1c 48 3b 3f d9 f1 3b 77 a1 27 3b 74 db 5b 3c
       0.0030534847 0.007380634 0.0025578418 0.013419021
000070 91 91 93 3c ef 7e 89 3c 95 c4 b7 bc 3a a3 6c bb
       0.018013747 0.01678416 -0.022432605 -0.0036108033

policy_fc3.weight f4 [51, 32]
000000 99 f9 0b be 17 bb d8 3d af e5 09 be 35 80 c2 bc
       -0.13669433 0.105825596 -0.13466524 -0.023742775
000010 97 eb 0d be 93 b2 37 3e 0a 9d 62 bd b7 d7 98 bd
       -0.13859402 0.17939214 -0.055325545 -0.07463019
000020 54 b8 5c 3e 34 ae 60 3e 1a d8 22 be 54 75 83 be
       0.2155469 0.21941453 -0.15902749 -0.25675452
000030 c2 67 3b be 25 fe 9f be 0a 78 01 3d 44 8c 2b 3e
       -0.18301299 -0.31248584 0.03160862 0.16752726
000040 4a aa 83 3e 23 d6 68 3e 1f ee 0c be 24 dd 21 bc
       0.25715858 0.22737937 -0.13762711 -0.009879384
000050 29 c1 a2 bd 80 bb 44 bc 31 13 64 3e d0 e0 96 3e
       -0.079469986 -0.012007594 0.22272946 0.29468393
000060 df 80 13 be e0 8a 4d 3e 39 46 34 3e 72 e1 4f 3e
       -0.14404629 0.20072508 0.17604913 0.20300844
000070 b2 a9 30 be f3 8e 2b 3e d6 58 24 3e 43 11 6d 3e
       -0.17252234 0.1675375 0.16049513 0.23151116
000080 34 aa b3 3d b0 dc 50 3e 84 77 a6 3d 15 fa b0 bd
       0.08772698 0.20396686 0.081282645 -0.08641449
000090 4b bf 82 3d 8b 06 77 3e 01 50 19 3d 78 e8 75 3e
       0.063841425 0.2412359 0.037429813 0.24014461
0000a0 25 ed 1b be 0a fd 02 bd 0b d0 34 be 46 c1 1e 3e
       -0.15227182 -0.031979598 -0.17657487 0.15503415
0000b0 b0 ae 58 bd 3d 23 21 bd ce cd 7b bd cd 44 73 be
       -0.05290097 -0.039340246 -0.061475568 -0.23756714
0000c0 f6 75 95 3c 62 3a 3d 3d fa 8a 1f be 77 c7 df bb
       0.018244725 0.046198256 -0.15580359 -0.006829198
0000d0 a9 ef a6 bc c2 92 29 3e f5 79 62 bc bd 31 c5 3c
       -0.02037795 0.1655989 -0.013823022 0.024071569
0000e0 3a 74 21 bd d1 c5 c8 3c ea 8d 87 3d 4a d0 0b be
       -0.039417483 0.024508389 0.06618865 -0.13653675
0000f0 7a b2 eb bd f5 94 e3 bd d6 e5 26 be a6 2c 69 3d
       -0.11508651 -0.11112396 -0.16298613 0.056927346
000100 77 eb 7b 3c ae ee 23 be 43 40 50 bd f4 44 15 3e
       0.015375963 -0.16009018 -0.050842535 0.14577085
000110 30 f0 fa bd a1 07 f5 3d 8f d1 fd bd 26 da 1d be
       -0.122528434 0.11964346 -0.12393486 -0.15415248
000120 a2 95 7e be e3 f3 ed bc 03 b2 5c be 07 00 26 3d
       -0.24861768 -0.029046958 -0.21552281 0.04052737
000130 11 0e 90 3d f2 9b 89 be 9a b7 b4 bd a4 b4 58 3e
       0.07033933 -0.2687679 -0.08824082 0.21162659
000140 c6 b3 fc bd 41 44 9d 3d 92 cb 37 be 4c 92 65 bc
       -0.123389766 0.07679034 -0.1794875 -0.014011931
000150 5d 8c 7c 3d c6 8f 66 3e 0b 29 42 3e bb d2 3f 3e
       0.0616573 0.22515783 0.18960969 0.18732731
000160 72 10 98 3e 6a ff 86 bd a6 bb b0 bd 46 95 20 3d
       0.29700047 -0.06591685 -0.08629541 0.03920486
000170 31 a8 22 be 7d e0 13 bd 4a 7c 2e 3e 12 1c 2b 3e
       -0.15884472 -0.03610276 0.170396 0.16709927
000180 f1 2c 97 bd 05 53 0d bb a4 1d ec 3d b3 87 60 be
       -0.07381619 -0.0021564376 0.11529091 -0.21926765
000190 d8 01 3b 3c 4c f0 10 be 1e 7b 45 be 31 93 fd bd
       0.011414014 -0.14154166 -0.19285247 -0.1238159
0001a0 bc 45 39 3e 9a 21 58 bd 73 ea 57 be 84 e7 78 bd
       0.18093008 -0.05276642 -0.21085529 -0.060767666
0001b0 18 95 ee 3d 15 56 3d 3e e3 3f 91 bd 6a e7 93 be
       0.11649531 0.18489869 -0.070922635 -0.28887492
0001c0 b1 0f 66 3e 8a 10 24 3e 8f f6 3d 3e 3d 88 67 be
       0.22466923 0.16021934 0.18551086 -0.22610565
0001d0 f3 41 8a bd e8 a5 93 bd f4 6f 5c 3e a5 9f 07 3c
       -0.0675086 -0.072093785 0.21527082 0.008277808
0001e0 ef 2b 1b 3e 0c 87 c8 3d 8e 61 9d 3e 21 90 31 3d
       0.15153478 0.09791383 0.3073849 0.043350343
0001f0 5b 87 47 3e a7 8c 26 be 9e 25 1c 3e a4 1c 04 be
       0.19485228 -0.16264592 0.15248725 -0.1290155
000200 48 2f 89 be f4 77 73 3e d7 43 6a be 1d e0 39 3b
       -0.26793885 0.23776227 -0.22877441 0.0028362342
000210 6d f3 74 3c ba 1b 95 bd aa 72 84 3e 69 b8 28 bd
       0.014950615 -0.07280679 0.25868732 -0.041191492
000220 d7 30 32 3d 05 ac 58 be 30 49 27 3e ea ea 5f be
       0.04350361 -0.2115937 0.16336513 -0.21866956
000230 2d 62 7a 3e 49 05 9a 3e 5a 6a 2b be 0f 3f 45 3e
       0.24451514 0.30082157 -0.16739789 0.19262336
000240 4c 1d 56 3d 43 21 bf 3d eb 28 4a bd 02 91 dd bd
       0.052274033 0.09332516 -0.04935543 -0.10818674
000250 11 ba ae be b0 a9 ac bc 22 53 d9 bd 79 1a cf bc
       -0.34126332 -0.021077007 -0.106115595 -0.025281178
000260 41 a8 88 3d e7 a8 72 3d d3 21 51 be dc 44 2e 3e
       0.06672717 0.05924311 -0.20423059 0.17018455
000270 a3 00 67 bb 10 32 fd bd 26 3f 7d 3e cb ce b3 bb
       -0.0035248182 -0.12363064 0.2473112 -0.005487298
000280 e9 9d 9f bd 5d 6e 36 3e f5 a0 f9 bd 12 8a 98 bd
       -0.07793791 0.17815538 -0.12188903 -0.0744821
000290 74 86 ed 3d ad 9e b0 bd 33 15 68 3e e0 99 8f bd
       0.115979105 -0.08624015 0.22664337 -0.07011771
0002a0 3a 2f e5 bd 98 0e 85 bb 1e 99 2b 3e 7c ba a0 3d
       -0.111906484 -0.0040605776 0.16757628 0.07848069
0002b0 2c 69 e2 bd a3 fd 4f 3e 76 6c 75 3d 1a 8b 34 be
       -0.11055216 0.20311598 0.05991789 -0.17631188
0002c0 e2 93 90 3e a3 2a a6 bd 77 fb 83 3d c4 37 02 3e
       0.28237826 -0.08113601 0.064444475 0.12716585
0002d0 c8 27 8d 3e 67 2f 74 be 3e ba 9f 3d ce 4c 4d 3e
       0.27569413 -0.23846208 0.07799195 0.2004883
0002e0 c2 f4 4b be 86 8b 9d 3d d8 88 51 be fe 7e 43 be
       -0.19917586 0.076926276 -0.20462358 -0.19091412
0002f0 bd b7 76 be 7c 6e 5f 3e fb 1e cf 3c 91 35 1c be
       -0.24093528 0.2181949 0.025283327 -0.15254809
000300 3b af d8 3c fa 2e c4 3d 66 1d 5a be 3f 53 5b be
       0.026450744 0.095792726 -0.21300277 -0.21418475
000310 c2 49 63 3e 75 fb f3 3d 3b 3e d5 3d 4a 36 e4 3c
       0.22196105 0.11913196 0.1041226 0.027857918
000320 7b 70 0e 3e f3 22 80 3e 26 21 98 3d ab 69 37 be
       0.13910095 0.25026664 0.074281976 -0.17911403
000330 d0 d6 42 3c c3 6d ec bc 94 12 53 3d c9 14 71 3e
       0.011892036 -0.028860932 0.05153139 0.23543085
000340 85 bf 82 3e a2 19 c5 3d a3 7a 9b bd b1 aa 19 3e
       0.25536743 0.0962403 -0.075917505 0.1500652
000350 78 d3 76 be f2 5e 24 3e c2 fd 70 3e 2c 7a 59 be
       -0.24104106 0.16051844 0.23534301 -0.21238011
000360 63 b7 4d be c6 1f 8a be d5 e4 f2 3d 74 c9 41 3b
       -0.20089488 -0.26977366 0.118600525 0.0029569538
000370 43 7d 0a 3e 4e 23 ad 3d d9 e5 09 3e cc 26 80 3e
       0.13524346 0.084539995 0.13466586 0.250296
000380 3c 6b 45 bd 92 3d 44 3e 52 33 9c 3d 45 5a 68 be
       -0.04819797 0.19164112 0.07626976 -0.22690685
000390 52 db 3c 3e 40 46 e3 3d 4a 68 b1 3d 2b 66 0b 3e
       0.18443039 0.110973835 0.0866247 0.13613193
0003a0 08 71 2e 3e a0 b1 7f bd e2 e9 f5 bd 94 98 4b 3e
       0.17035306 -0.062425256 -0.120075 0.19882423
0003b0 34 2c 20 3d d5 b1 ec bd 5e 66 9d 3d 5b f7 06 be
       0.039104655 -0.11557356 0.076855406 -0.13180296
0003c0 a4 0e 94 bc ed 61 16 be c0 fe da bd 32 14 46 3e
       -0.018073387 -0.14685793 -0.10693121 0.19343641
0003d0 c0 8d 2f 3e 38 67 b7 3d e0 0b ca 3d 2c e5 5a 3e
       0.17143917 0.08955234 0.09865546 0.21376485
0003e0 58 d9 24 be 70 75 62 3e 5e eb 9b bd 9c 14 6f 3e
       -0.16098535 0.22115111 -0.07613252 0.23347706
0003f0 eb d9 73 3e dd 5a 20 3e 5b 0d 71 3e 3b f0 de 3c
       0.23813598 0.15659662 0.23540251 0.02721416

policy_fc3.bias f4 [51]
000000 d2 d0 f6 3c 19 a1 d7 3c 58 db 3a bd e5 4e d7 3c
       0.03012887 0.026321935 -0.04561934 0.026282737
000010 bc 91 1b 3c f2 dd 12 3c 7d 1a 48 3c 0a e8 55 bc
       0.009495195 0.008964049 0.012213347 -0.013055811
000020 73 5c b8 ba 9b dc 9c 3c 5d d8 6f 3b 79 f7 21 3c
       -0.0014065638 0.019148162 0.0036597468 0.009885662
000030 68 5f d2 3b b0 30 7e b8 a8 58 02 3c 91 47 2b 3c
       0.0064200647 -6.0603663e-05 0.007955708 0.0104540745
000040 bc 72 40 3d eb e2 b4 bb 13 8f 4d bc a4 98 f8 3c
       0.04698442 -0.005520215 -0.012546319 0.030346222
000050 7d 80 02 3d bc ac a1 bc e9 fd 4e 3c b0 01 3d bc
       0.031860817 -0.019735686 0.012633779 -0.011536047
000060 be 11 31 3c b3 a6 4b 3d 53 8e 75 3d a9 46 14 3c
       0.010807453 0.049719524 0.059950184 0.00905005
000070 8f aa d8 3c ca 7b f7 ba 71 2f 1c bd 5b 7b a6 bb
       0.026448516 -0.0018881497 -0.03813118 -0.005080623
000080 bd 40 a6 3c 0d 56 24 bd 97 8f 25 3c d1 16 7c bc
       0.020294541 -0.040121127 0.010105035 -0.015386299
000090 dd 34 ba 3b 2e ec 3d 3c 87 c0 04 3d 08 a8 ee 3b
       0.0056825713 0.011591954 0.03241017 0.0072832145
0000a0 d8 2e c2 bc 42 7f 98 bb 1a 32 ae bb f8 e0 04 3d
       -0.023703977 -0.004653842 -0.005316031 0.03244111
0000b0 15 d7 4c bd 9c c0 1e bd cd 24 a6 3c 39 b4 1b 3d
       -0.050009806 -0.038757905 0.02028122 0.03801367
0000c0 83 ac 01 bd 83 9e 9e 3c 35 58 8e 3c
       -0.03165866 0.019362694 0.017376045

value_fc1.weight f4 [64, 261]
000000 48 8c b9 bd b6 87 9b bd c0 d7 d3 3d b0 bc 85 bd
       -0.0905996 -0.07594244 0.103438854 -0.0653013
000010 d0 99 0a be cb 4e a1 3d ac b1 a7 bd d8 d4 5b bd
       -0.13535237 0.07876357 -0.08188185 -0.05366978
000020 84 81 ae 3d 75 b6 15 3d c7 65 68 be 2a 24 ac bd
       0.08520797 0.036550958 -0.22695075 -0.08405335
000030 f0 13 39 3d e8 58 7d bd 52 87 12 3e 53 fa bd 3d
       0.04518503 -0.061852366 0.14309433 0.09276261
000040 21 3d ae 3d 8e cd 22 3e 87 0b 87 3c 94 0b 76 3e
       0.08507753 0.15898725 0.016484989 0.24027854
000050 4d e4 a6 3c a7 80 38 3d 39 70 23 3e ce a9 94 3c
       0.020372534 0.045044567 0.15960778 0.018147375
000060 67 80 b6 bd 04 0f e1 3d 85 83 bf 3d c7 cf 4e bd
       -0.089112096 0.10989192 0.09351257 -0.05049112
000070 8a 43 f0 3d ee 64 83 bc da e3 c4 3d 12 2e 93 be
       0.11731632 -0.016039338 0.09613772 -0.28746086
000080 b8 e4 15 3d 99 12 9b be 90 71 fe 3c 06 da 39 3d
       0.036595076 -0.30287626 0.03106001 0.04537394
000090 1d 93 15 bd 1e 74 ff bd 44 46 40 3d e5 e6 5b be
       -0.03651725 -0.124733195 0.04694201 -0.21474798
0000a0 72 7b 30 3d 64 ae b6 3c 6a b6 81 bd 53 63 36 3e
       0.043086477 0.022299953 -0.06333621 0.17811327
0000b0 9f d7 0f 3d c5 55 bc 3d 76 e1 89 bd 5a be 85 bd
       0.03511774 0.09196047 -0.067324564 -0.06530447
0000c0 ee 6f cd bc ab 0b 2e be 55 85 c6 3d 1a a7 94 be
       -0.025077786 -0.16996638 0.096934 -0.29033738
0000d0 ec 7f d2 bd 93 af 51 3d e1 3a 8b bd 43 cb c0 3d
       -0.102783054 0.05119283 -0.0679834 0.09413769
0000e0 3e a3 95 bd e1 bb 6e bc 47 14 d4 bb ac b9 31 be
       -0.073065266 -0.014571161 -0.006472144 -0.17355984
0000f0 66 9e 18 be 98 8a 7d 3c 40 10 77 bb d0 a4 63 bd
       -0.14904174 0.015474938 -0.0037698895 -0.0555771
000100 4a b1 27 bd 86 1b dd 3d a6 16 93 be a1 86 d9 bd
       -0.04094056 0.10796265 -0.28728217 -0.106213816
000110 c5 00 09 be 42 73 8e 3d b0 31 e9 bd a6 41 6f be
       -0.133792 0.069555774 -0.1138643 -0.23364887
000120 5a 47 6c be fd db e0 3c 1e 87 03 3d 21 5e c9 bd
       -0.23074093 0.027448649 0.03211128 -0.09832407
000130 9c cb 0d be d3 3c db 3d 2a 3c 8c bd ab 99 aa be
       -0.13847202 0.10704961 -0.06847413 -0.33320364
000140 e2 7a a8 3c 2d 38 86 bd 75 b9 bb 3c bc 6f 66 3e
       0.020566408 -0.065536834 0.022915581 0.22503561
000150 e7 b9 18 3e dd c2 89 3d 52 eb f7 3d 6a 0d 3a 3e
       0.14914666 0.0672662 0.12105431 0.1816918
000160 8d 68 a2 3d 5c 7f 42 3d b4 ca fd 3d 53 17 45 3e
       0.07930098 0.04748474 0.12392178 0.19247179
000170 a2 14 f2 be e5 f6 bc 3c ec d2 a9 3d a3 fb 3e 3e
       -0.47281367 0.023066947 0.08292183 0.1865068
000180 e7 9c 7f be 34 37 82 bd 1a 77 ab be 43 68 61 3d
       -0.24962197 -0.063581854 -0.33489305 0.055031072
000190 14 9c a4 3e 68 05 55 bd 78 57 c4 bd 05 6d ed bc
       0.32150328 -0.05200711 -0.09586996 -0.028982649
0001a0 12 4a d1 3d 91 4c f3 3c 05 7c b4 be 76 1b 80 3d
       0.10219206 0.029699596 -0.3525087 0.06255238
0001b0 8c 4b 1b bd 74 19 ff bd 8e 65 cd 3d 6e a0 21 be
       -0.037913844 -0.12456027 0.10029136 -0.15783855
0001c0 1d f9 d2 bd 7a a5 8f 3d 5b ac 1f be 42 53 64 be
       -0.10301421 0.07013984 -0.15593092 -0.22297385
0001d0 be a2 05 be 81 d1 4d 3d 61 7d 4a bb 95 22 94 bd
       -0.13050362 0.050248627 -0.0030897486 -0.072331585
0001e0 08 88 ba bd e2 c4 61 bd 56 c6 1a be d8 79 be bd
       -0.09107977 -0.055119403 -0.15114722 -0.093005836
0001f0 e3 39 54 bc 66 ce eb bb 1a 7d 5e 3d e1 5e 2a be
       -0.012953254 -0.0071962355 0.054318525 -0.16637756
000200 56 e0 0f 3d f0 eb b7 3d 8e 89 dc 3d db bf f0 bd
       0.035126053 0.089805484 0.10768424 -0.117553435
000210 27 cf bd 3c 51 98 66 bd 73 7e a0 3d f4 4d 21 3e
       0.023170067 -0.056297604 0.07836618 0.15752393
000220 60 a0 ab 3d c3 9a 8a b9 91 46 df 3d 50 e0 74 bc
       0.083801985 -0.00026436718 0.10902131 -0.014946058
000230 a2 04 90 3e 08 06 a0 3d 36 96 cf 3d f3 e1 dc bd
       0.28128535 0.0781365 0.10136072 -0.10785284
000240 58 30 67 3d 05 28 4d bd 50 0c 05 3e f7 46 c2 3d
       0.05644259 -0.050086994 0.12992978 0.09486192
000250 4b a6 a8 bc ae ae a9 bd 7d 26 0a 3e 73 8d 9b bd
       -0.020587107 -0.08285271 0.13491245 -0.07595339
000260 9d 9a ad 3d c8 c1 e5 bd 31 64 42 bc a7 d8 40 bd
       0.08476756 -0.112186015 -0.011864708 -0.047081616
000270 20 c3 80 bd d7 25 84 bd eb 29 32 3d 24 61 ca bd
       -0.06287217 -0.0645253 0.043497007 -0.09881809
000280 a7 1e 0d 3d 55 47 d4 3d c9 56 93 3d 13 35 23 bd
       0.03445306 0.10365168 0.07194287 -0.039845537
000290 14 f2 92 bd 5e 9d 81 3d ac ab 50 39 5f e6 52 3c
       -0.07175079 0.063288435 0.00019900379 0.012872308
0002a0 b0 dd 29 3d be 86 e6 3d 15 97 97 3d 4b 74 6e 3d
       0.041471183 0.11256169 0.074018635 0.058216374
0002b0 c3 ce 8b bd 35 df 81 bd 5f 02 3d 3d 75 cf db 3d
       -0.06826546 -0.063414015 0.04614484 0.10732929
0002c0 91 64 47 bc f5 a3 a1 bd af 2a 7b 3c 10 18 a2 bc
       -0.012169973 -0.078926004 0.015330001 -0.019786865
0002d0 15 cf 1e be b6 01 b1 3d 22 b9 26 3d 33 09 6f 3d
       -0.15508683 0.086429045 0.0407039 0.058358382
0002e0 7e 2c 9f 3d da 00 cb 3d 33 47 f0 bb 58 0f 62 3d
       0.07772158 0.09912272 -0.0073327064 0.055190414
0002f0 78 9f fe 3d d5 d4 c3 3c 15 7a 82 bd db 1a 87 bd
       0.1243276 0.023905197 -0.063709415 -0.06596919
000300 ed 4e 94 bd 20 d5 3a 3d bd fb ef 3d 25 94 d7 bd
       -0.072416164 0.045613408 0.11717937 -0.10526303
000310 d9 6a 90 3c 9b a5 5b 3d b6 51 71 3d d3 51 54 bd
       0.017629074 0.05362473 0.058915816 -0.051835846
000320 a7 45 92 bc 39 cc 7f bd 57 1e cd bd 08 bc 9d 3c
       -0.017855478 -0.06245062 -0.100155525 0.0192547
000330 88 dd 06 3e 3c ab 38 bd ef 24 92 3d 5d 9f ba bd
       0.13170445 -0.045085177 0.07135951 -0.091124274
000340 cb c0 fa bd cc 16 15 3d 54 b7 aa 3d a1 ed e2 bc
       -0.122438036 0.036398694 0.08335748 -0.0277012
000350 ce ed da bc e8 2a 03 be 75 17 cb bd 3f 10 2a 3c
       -0.026724722 -0.12809336 -0.099165834 0.01037985
000360 f0 dd 8d bd e9 ff 02 3e 30 9b ca bd 2d d8 8a 3d
       -0.06927097 0.12792934 -0.09892881 0.067795135
000370 14 d4 9a 3c 29 8a 5f 3b 08 f4 ed 3d 6f 85 da bd
       0.018899955 0.003410945 0.11618811 -0.10669982
000380 f0 a1 87 bd 2c c3 c9 3d 23 6c e5 bb 3a 9b fd 3d
       -0.06622684 0.09851679 -0.0070014163 0.12383123
000390 78 8c 84 3c c2 9a cd bd f0 20 80 bb 24 c9 43 3d
       0.016180262 -0.10039283 -0.0039101765 0.047799245
0003a0 b0 45 05 be 9a a7 c6 3d 35 6b 1c 3d ae ef 14 3d
       -0.13014865 0.09699936 0.038188178 0.03636139
0003b0 c2 03 ca 3c 00 b2 86 bd a5 c1 0c 3e 7c 20 2c 3d
       0.024659995 -0.065769196 0.13745745 0.042023167
0003c0 c5 b5 c1 3c b7 49 2f 3c 46 45 6d 3d bf 53 e2 bd
       0.023646245 0.010698727 0.057927392 -0.110511295
0003d0 cb 97 4a 3d 45 6e e2 3c 75 ce 3e be 21 46 aa bd
       0.049461167 0.027640471 -0.18633445 -0.08314157
0003e0 c0 40 db bc 45 4d 5b bd 72 39 03 be a3 53 e7 3d
       -0.026764274 -0.053540487 -0.12814882 0.11295249
0003f0 0f 53 0a bd 92 c4 c3 3c cc 73 b3 3d 0f a5 32 be
       -0.033770617 0.023897443 0.08762321 -0.17445777

value_fc1.bias f4 [64]
000000 62 cf c8 bc 1b 4a 95 3b 72 89 9f 3c 84 68 e8 3a
       -0.02451295 0.004555953 0.019474719 0.0017731343
000010 7e a7 c7 bb f8 5e aa 3b 1a c5 0a bc 00 9e 04 bc
       -0.0060929647 0.0051993094 -0.008469844 -0.008094311
000020 4f cf b2 3c 4d 55 2b 3b 46 9d b2 3c 12 c4 3f 3c
       0.021827368 0.0026143373 0.02180351 0.011704462
000030 c0 20 0e 3c 52 74 ae bc a4 28 9f 3b a2 aa 9c bc
       0.0086748 -0.0212957 0.0048571397 -0.019124333
000040 19 a1 46 bb 3a 51 32 3c e7 a2 9c 3c 6c 75 0a bb
       -0.0030308424 0.010883624 0.019120647 -0.0021127118
000050 57 46 11 3c d7 e2 12 bc 6f 1a 29 ba 79 d1 2c 3c
       0.008866868 -0.008965216 -0.00064507773 0.010547989
000060 4d 5b 02 bb 04 d4 fa 3b eb 27 bc 3a 33 56 d7 bc
       -0.0019890845 0.0076546688 0.0014355158 -0.02628622
000070 a8 5e f3 ba b4 50 29 bc 57 4d ac 3a 97 51 81 3a
       -0.0018567638 -0.0103341825 0.0013145608 0.0009866235
000080 46 b9 e8 bb 0d 24 db 3c fa 06 2e 3c 15 1c a4 3a
       -0.0071021644 0.026750589 0.0106217805 0.0012520576
000090 5e fd 88 3c e8 ed b7 3c d5 4e 9a 3c e1 c4 a5 bc
       0.016722377 0.02245231 0.018836418 -0.02023548
0000a0 af 45 ee bb 82 c5 9e 3c 49 3a 1e 3c c3 61 28 bc
       -0.0072714905 0.019381288 0.009657451 -0.010277214
0000b0 d1 d8 45 3c 0e a8 90 bc 1f ef a0 ba 9f c7 40 3c
       0.012075619 -0.01765826 -0.0012278295 0.011766343
0000c0 f5 3e f9 3c 83 4e b3 3b ee bf b9 bc 0a 2c 17 bc
       0.030425528 0.005472006 -0.022674527 -0.009226808
0000d0 9d b3 81 3a b5 e1 91 bb 91 58 6e bc 3b ee a7 3c
       0.0009895448 -0.004451955 -0.014547483 0.02049934
0000e0 54 ee a3 3c 1d f2 e5 bb c2 83 e1 3a 0f 1f 7d bc
       0.020011105 -0.0070173875 0.0017205405 -0.0154492995
0000f0 ee da b9 3c 16 3a 11 3c 2f 6d 17 3c 7b 03 ff ba
       0.022687402 0.008863946 0.00924234 -0.0019455993

value_fc2.weight f4 [32, 64]
000000 a9 b7 06 be 56 f9 59 be 31 17 94 be e4 09 15 be
       -0.13155998 -0.2128652 -0.28923944 -0.14554554
000010 04 5f 6d be 90 ab 89 be 50 d7 0f bd eb 9c 87 3e
       -0.23180777 -0.26888704 -0.035117447 0.26486906
000020 77 ab 10 be 3e a2 45 be 32 86 45 3e 28 79 7e 3e
       -0.14127909 -0.19300172 0.19289473 0.24850905
000030 5d 2f 3f bd 66 7a 57 3e 9a d0 43 be 2d de 13 be
       -0.04667603 0.21042785 -0.19122544 -0.14440222
000040 6c 47 4b be d8 7a c0 bc 0a 48 ed bc 73 23 68 bd
       -0.19851464 -0.023496076 -0.028965015 -0.056674432
000050 9b da 8d bd b8 a8 ce 3d c5 5d 30 be 5e 48 fd 3c
       -0.06926461 0.10090774 -0.1722327 0.030918296
000060 bf 67 75 be 08 0f 73 3e da cf cc bd 50 1a 67 3c
       -0.23965357 0.23736203 -0.10000582 0.0141053945
000070 70 e7 e6 3b 22 4f 8d 3b 2b 84 0b 3e 6a 40 1b be
       0.0070466325 0.004312412 0.13624637 -0.15161291
000080 e2 e9 e2 bd eb 93 13 be b3 54 08 3c fc a8 c0 3d
       -0.11079766 -0.14411895 0.008320975 0.09407231
000090 d4 e4 57 3e ba 6a 12 be fb 0d b0 3d 89 18 24 3e
       0.21083385 -0.14298525 0.085964166 0.16024984
0000a0 fd 83 72 3e 0d dc e4 bd ea cc 5d 3d 1d e2 8d 3d
       0.23683162 -0.11174784 0.0541505 0.06927893
0000b0 ad 73 aa 3d e0 42 71 3e 93 de 5f 3e e1 3d 5a 3e
       0.08322845 0.23560667 0.21862249 0.21312667
0000c0 cd 21 19 be 51 bf aa bd 8c a8 29 be b6 0b a5 be
       -0.149543 -0.08337272 -0.16568202 -0.32235497
0000d0 6b ab ff 3d 24 43 12 3e 7d bf 99 bd e3 26 db bd
       0.12483867 0.14283425 -0.075072266 -0.107007764
0000e0 62 b4 0d be f0 2d 05 be 3e a4 24 bd a2 2e 9e bd
       -0.13838342 -0.13005805 -0.040195696 -0.07723738
0000f0 4c ac 2a 3b e2 c3 75 3e 53 49 b0 bd 02 bb 51 3d
       0.0026042638 0.24000505 -0.086077355 0.051203735
000100 54 c5 4d 3e c1 bb 1f be 55 5e 93 3d a9 8c 26 3d
       0.20094806 -0.15598966 0.07195727 0.040661488
000110 c8 9a 3f 3e 88 f7 70 3e bb 22 7e 3c f4 90 c4 bd
       0.18711388 0.23531926 0.01551121 -0.0959796
000120 c1 cc 8e bd 6b 7c 00 3e a6 cb cb bb 0a 31 e8 bd
       -0.069726475 0.12547462 -0.006219345 -0.113374785
000130 e0 f3 c0 3d 11 08 2f 3e 2b 94 58 3d e8 c3 dd 3d
       0.094215155 0.17092921 0.05287568 0.10828382
000140 41 58 1a 3b 88 25 10 3e 9d 14 2a 3e 54 20 7d bb
       0.0023551139 0.14076817 0.16609426 -0.0038624005
000150 36 a6 08 3e 48 d0 35 3e f4 da b4 3d 95 fe bc bc
       0.13344654 0.17755234 0.088308245 -0.023070613
000160 0b a9 87 bd dc 07 42 3e 39 91 07 3c 3d b6 f2 bd
       -0.06624039 0.1894831 0.00827437 -0.118511654
000170 3f 08 87 3d de ec 0a be 6b 4c 49 be a4 2e cc 3d
       0.0659337 -0.1356692 -0.19658057 0.099698335
000180 6c c2 29 3d 22 0c 48 3d 65 c8 aa bc ef 8e 5e 3e
       0.04144518 0.048839696 -0.020847509 0.21734212
000190 38 ac 69 be d0 e0 52 3d 11 dc 5a be ed ac 36 3e
       -0.22819602 0.05148393 -0.21373011 0.17839403
0001a0 2e f9 dc 3d 74 28 16 3e 5e 76 08 bc b1 37 39 be
       0.10789715 0.14663869 -0.008329002 -0.18087651
0001b0 35 1b f8 3d 52 fa 6f 3d 92 0e 0f 3e a4 90 ee 3d
       0.12114564 0.058588333 0.13970402 0.11648682
0001c0 f1 07 3d bd 7a 89 02 3e 56 aa 43 be 05 1d 3e 3d
       -0.04615015 0.12747756 -0.19107947 0.046414394
0001d0 38 d1 87 3d 56 34 6f 3d 21 11 c1 bc 12 bf 2d be
       0.06631702 0.05839952 -0.023567738 -0.16967419
0001e0 fd 78 37 be 56 87 f5 3d 26 3c c9 bd a9 b4 85 be
       -0.17917247 0.11988704 -0.098259255 -0.26114395
0001f0 33 f3 d1 bc cb aa 39 3e de fa d0 3d 4d ba 85 be
       -0.025628662 0.18131559 0.10204099 -0.261187
000200 5d 03 16 be cf 16 87 3e 4f d8 ca 3a 6b c2 9c bd
       -0.1464972 0.2638459 0.0015475842 -0.0765427
000210 0c 3d cb bb 8e 3e 45 be 4d 30 ff bd ff 63 00 3e
       -0.0062023457 -0.19262144 -0.124603845 0.12538145
000220 d8 89 08 be b3 f2 59 3e 74 30 3f 3e 99 e0 89 bd
       -0.13333833 0.21283989 0.18670827 -0.06732292
000230 14 0c 4c be 76 81 89 bd 2f d3 59 3e 43 74 31 be
       -0.19926482 -0.06714146 0.21271966 -0.17329507
000240 2f 5e 6b 3e a8 36 74 be 87 82 17 be 19 7f 06 bd
       0.22985147 -0.23848975 -0.14795886 -0.032836054
000250 dc 05 16 3e c3 79 9e 3d b9 a0 f6 bd 00 1b 83 3d
       0.14650673 0.07738068 -0.12042374 0.06401634
000260 d7 87 1d 3e 76 9a 6b 3e d2 12 3c 3e d1 e4 0f be
       0.1538385 0.23008141 0.18366554 -0.1405213
000270 dd 8b 3d bd 76 69 2d 3d 3e ff 03 3d 74 f1 8f 3c
       -0.046275962 0.042336904 0.03222584 0.017571189
000280 83 7a 4e 3e 04 4f 23 be 19 58 e6 3d b6 1d 24 be
       0.20163922 -0.15948111 0.11247272 -0.16026959
000290 34 b3 aa 3d b4 fa 81 bd 55 60 b1 bd e9 02 71 be
       0.083349615 -0.06346646 -0.08660952 -0.23536266
0002a0 04 c7 13 be d4 f2 4c be 8e 50 49 3e 3f 06 eb bd
       -0.14431387 -0.20014507 0.19659635 -0.11475801
0002b0 2b 7a 05 be 31 1c 49 3d 19 7c e2 3d 26 c5 aa 3b
       -0.13034885 0.04909915 0.11058826 0.00521149
0002c0 d3 f1 c2 bd 05 29 e5 3d 06 55 22 3e dd 3c 2e 3e
       -0.095187806 0.111894645 0.15852746 0.17015405
0002d0 27 0f c4 3c fc 5b bf 3c 95 c8 e4 3d 30 32 7b 3e
       0.023933006 0.023359291 0.111710705 0.24530864
0002e0 c3 fa 11 be 10 1c a7 bd dc 2b 10 3e 8c 00 a1 be
       -0.14255814 -0.08159649 0.14079231 -0.3144573
0002f0 fb 23 8c bd 90 5c 0c be 07 c1 fe bd ff ff a1 3d
       -0.068428 -0.13707185 -0.12439161 0.079101555
000300 01 46 8f bd c7 ce 50 3d 19 07 07 3e 5d e6 69 3e
       -0.06995774 0.05097845 0.13186301 0.22841783
000310 35 02 13 be 3f 2d 3d be bd be 32 3e 7b 95 39 3e
       -0.1435631 -0.18474291 0.17455573 0.18123429
000320 d5 dd 4e 3e e0 8d 87 3d 0f 3b fd bd 36 4c 83 3e
       0.2020181 0.066188574 -0.1236478 0.25644082
000330 e9 a2 31 be 0d 90 3d 3d 53 fa b7 bd 8c e3 41 3d
       -0.17347302 0.046279956 -0.089832924 0.047336146
000340 fa 1c ef bc 31 8c 4e 3e 87 66 5c 3e 96 c4 a3 3b
       -0.029188622 0.20170666 0.21523486 0.0049978
000350 c5 06 80 bd cd 35 59 3d 05 03 ac 3d 55 92 11 be
       -0.06251291 0.053029824 0.083990134 -0.14215977
000360 81 af 64 be 30 70 04 be bb c1 dd bd 5e 8c a8 3d
       -0.22332574 -0.12933421 -0.10827967 0.08229898
000370 ee e9 17 3d d8 51 1f be 53 46 df bc 5c cc 08 bd
       0.037088327 -0.15558565 -0.027255213 -0.033398017
000380 a7 42 ac bd f9 a6 b7 3d e6 9c a3 3b 8c 0e 7a bc
       -0.084111504 0.089673944 0.004993069 -0.015262257
000390 33 fd 53 bd 52 83 10 3e b3 a6 bc bc 9a 85 10 3e
       -0.05175514 0.14112595 -0.023028707 0.14113465
0003a0 bc a1 e3 bb 92 81 84 bd 35 5e 1c bc d0 7b 72 be
       -0.0069467705 -0.06470026 -0.009543945 -0.23680043
0003b0 af 48 42 3d 87 4e b1 3d 47 34 d4 bd 56 52 8b 3c
       0.047432598 0.08657556 -0.103615336 0.017007034
0003c0 bd b5 34 bd b3 51 21 bd cd 2a 99 3d 09 ab 0d bb
       -0.04411863 -0.039384555 0.07478867 -0.0021616837
0003d0 cd d6 c1 3c 65 24 28 3e 56 25 8a be 49 4d bf bd
       0.023661995 0.16420133 -0.2698161 -0.09340913
0003e0 d5 6c 51 bd ac 17 53 be c1 65 f2 bd e4 6a ee bb
       -0.05112918 -0.20614499 -0.11835814 -0.007275926
0003f0 ab 7c 03 be 05 b2 9f bd af f6 96 3d c0 2f 0a 3e
       -0.12840526 -0.077976264 0.0737127 0.13494778

value_fc2.bias f4 [32]
000000 21 60 12 3b c9 c6 47 3d 4e 1d c5 3b 89 91 8b bc
       0.002233513 0.04877356 0.0060154563 -0.01703717
000010 07 ee 46 3d 93 3f 50 3d 78 43 11 bb 44 3e 26 3d
       0.048566844 0.05084188 -0.0022165459 0.040586725
000020 41 5b 23 3d 2b d8 da 3c 17 f2 e9 3c 0a 8e 24 ba
       0.03988195 0.026714405 0.02855782 -0.0006277269
000030 d6 43 93 bb 0c 8f 3b bc 86 94 d9 3b eb d5 76 bd
       -0.0044941707 -0.011447679 0.00664002 -0.0602626
000040 25 ce c0 bc 5a db 1c 3d cd de e2 3c 72 f6 d0 3c
       -0.023535797 0.038295127 0.02769413 0.02550814
000050 01 5e d2 bc 85 75 98 bc 2a 59 82 3c 4c cb bb bc
       -0.02567959 -0.018610725 0.015911657 -0.022924088
000060 06 22 9c bc 7b b4 32 3c 82 6a 8e ba 88 b5 d1 bc
       -0.019059192 0.010907288 -0.0010865482 -0.025599256
000070 73 ed 2f bd b8 9f 6e bb b2 cf cf 3c b5 62 2c bd
       -0.04295106 -0.0036411118 0.025367592 -0.04208632

value_fc3.weight f4 [1, 32]
000000 6f 20 55 bd 9d e7 7e 3c 08 13 13 be d9 e3 3b bd
       -0.052032884 0.015558151 -0.14362729 -0.04587159
000010 35 74 38 3e 7b bc 07 3e fb bd 28 bd 6e 2c 17 3f
       0.1801308 0.13255493 -0.041196804 0.5905217
000020 72 7c 8e 3e a0 07 83 3d c5 53 f8 3d 9b ae 7c be
       0.2782932 0.06397939 0.12125353 -0.24675982
000030 5d 35 df be 30 8f 75 be e2 f8 9f be 2b 95 f3 bc
       -0.435954 -0.23980403 -0.3124457 -0.029734215
000040 2b 9d 9c bd 16 0b b5 3e 6d 2f 02 be 5e 11 d2 3e
       -0.07647165 0.3536002 -0.12713404 0.41028875
000050 df cc 32 be 1a 30 60 be 54 7e 0d 3f 05 5d f5 bd
       -0.17460965 -0.2189335 0.55270886 -0.11980633
000060 df d8 9e be a9 06 25 3f 32 c4 3f be 30 f5 9f bd
       -0.31024835 0.6446329 -0.18727186 -0.07810438
000070 73 e4 ce bd cc 3c b9 be bd 22 ae 3e 12 42 a7 bd
       -0.10102167 -0.36179197 0.34010878 -0.08166899
