rl/spin_model_12031747/2.pt (torch_old, 160417 bytes, 12 tensors)

log_std f4 [57]
0.10447278 0.09879948 0.1100563 0.10410665 0.11508611 0.07613967 0.08714426 0.088614784
0.119520426 0.11023937 0.07482082 0.09715771 0.08175316 0.10764886 0.11191619 0.110495135
0.09093482 0.09255249 0.10642255 0.12634483 0.098098576 0.10496606 0.1090334 0.12454095
0.10431757 0.10252023 0.08459066 0.0811997 0.10644717 0.10603831 0.055216238 0.11847552
0.07440187 0.113204785 0.07139461 0.094650835 0.09145372 0.107046396 0.11431013 0.07045859
0.09507066 0.10139746 0.10133883 0.11102902 0.059138086 0.13228352 0.09957278 0.10670009
0.12704334 0.102971494 0.08208596 0.07002629 0.09794725 0.10671727 0.1047684 0.11638723
0.08806682
00000000: d3f5 d53d 6257 ca3d 3365 e13d de35 d53d
00000010: 44b2 eb3d 1eef 9b3d b178 b23d ab7b b53d
00000020: 20c7 f43d 2ec5 e13d a83b 993d 9ffa c63d
00000030: 336e a73d 0177 dc3d 5134 e53d 464b e23d
00000040: 093c ba3d 298c bd3d 11f4 d93d 8a60 013e
00000050: e8e7 c83d 72f8 d63d e74c df3d 530f ff3d
00000060: 73a4 d53d 20f6 d13d de3d ad3d 074c a63d
00000070: f900 da3d 9d2a d93d 6c2a 623d 4ba3 f23d
00000080: 0260 983d e9d7 e73d 5637 923d 4cd8 c13d
00000090: 174c bb3d 243b db3d 6e1b ea3d 984c 903d
000000a0: 68b4 c23d 79a9 cf3d bc8a cf3d 2f63 e33d
000000b0: c73a 723d 5575 073e d0ec cb3d 9485 da3d
000000c0: a617 023e b8e2 d23d af1c a83d f269 8f3d
000000d0: 9198 c83d 968e da3d d190 d63d 6e5c ee3d
000000e0: 605c b43d

policy_fc1.weight f4 [64, 261]
0.017436218 -0.035415187 0.10100514 0.0691863 0.093481086 -0.0045087873 0.08200079 -0.13740589
-0.014916874 -0.11551739 -0.05096699 0.039910078 -0.09931674 -0.044898115 0.035157446 0.015821198
-0.022066802 0.06129504 -0.12246324 0.021997722 0.07709949 0.09895933 0.08869515 -0.06412954
0.029226538 0.0052141687 0.052659597 0.021604815 0.02693455 -0.07110649 0.110361606 0.12278471
-0.12537113 -0.006819745 0.054122873 0.1036003 -0.098915376 -0.11968752 -0.03212495 0.011492848
-0.050305568 0.0039298227 0.07027399 -0.04141675 0.07868406 -0.113628544 -0.022906538 -0.04483709
0.07250032 0.10867036 0.07705251 0.1405842 0.08700136 0.004456843 0.08920682 0.017313516
0.058431003 -0.09523079 0.12407894 -0.025897657 -0.11127831 -0.13307565 0.04260604 -0.12475653
0.09778117 -0.06871361 0.11343137 -0.12183204 0.038404025 0.12585443 -0.10444643 -0.10120482
0.031631775 -0.07532324 -0.11850155 0.054658484 0.014063317 -0.04591675 -0.025662256 0.09457722
0.04357754 -0.023380365 -0.06748755 -0.086884096 -0.07089727 0.020307796 -0.04757866 0.028398938
0.064667225 0.022923445 0.046194736 -0.10958656 -0.061734233 0.032836225 0.1138331 0.08867559
-0.09384395 0.05592645 0.0647069 -0.0261876 0.034449548 0.09184782 -0.13678901 0.111625105
0.13803688 0.06305828 -0.13603629 -0.056553252 -0.12619387 -0.054980215 0.027681326 -0.11215911
0.105824724 0.04612985 0.06160851 0.084280245 -0.05835017 0.09373471 0.11423344 0.11195014
0.07251854 -0.10797005 -0.0792991 0.064076215 0.07268873 -0.13466999 -0.05754508 0.037658565
0.06230446 0.111111 0.09185894 0.035876874 0.11215744 0.09765533 -0.13410129 0.10389288
0.09993676 0.13700537 0.042711675 0.1292821 -0.071684755 -0.10872081 0.035506774 -0.095020145
-0.018292818 -0.073596396 0.032975636 0.023406891 0.08575103 0.031545285 -0.071419634 0.0860939
-0.13557531 -0.060116142 0.048386995 0.08758528 -0.10175068 0.08549887 -0.114847176 -0.09127305
-0.12098611 -0.0999073 0.06819539 -0.07277933 0.02218229 -0.107815325 0.0107943555 0.06648635
0.004204721 -0.030391645 0.08100704 0.04344307 0.094765335 0.057726867 0.08649133 -0.028718894
0.09847958 -0.09162384 0.08211988 0.0047566136 -0.07435157 0.007966256 0.065210894 0.014720459
0.07427962 -0.036373626 -0.062009256 -0.12818617 0.11836946 0.10081126 0.047171723 -0.017860541
0.014040664 0.0212391 0.09582239 -0.107590616 -0.037429 -0.095070764 -0.035587315 -0.025611924
-0.09249966 0.0048338636 0.08742456 0.026978342 -0.043393265 0.04508813 0.05678997 0.022373822
-0.07273182 -0.068685465 0.08929299 0.06438386 0.033451855 0.13782902 0.04443387 -0.090779744
-0.08424947 0.11897787 0.09449143 0.04077734 0.12402793 0.033998456 -0.08408113 -0.092582755
0.034436643 -0.086135626 0.0128116645 -0.05856009 -0.06077015 -0.11291731 0.04567407 0.13183475
0.1277628 -0.046767015 -0.07833172 0.06403113 0.048204675 0.048006598 -0.11400897 0.10077701
0.108106166 -0.10759432 0.04154655 -0.017463218 -0.13961422 0.088842034 -0.05263176 -0.13338964
-0.08003838 -0.008010778 -0.097073436 -0.0051068417 0.047770172 -0.08527938 0.10838243 -0.049398202
00000000: 66d6 8e3c 840f 11bd c8db ce3d 8cb1 8d3d
00000010: 0373 bf3d 73be 93bb 08f0 a73d 21b4 0cbe
00000020: e765 74bc 6294 ecbd c3c2 50bd c078 233d
00000030: 9366 cbbd 16e7 37bd 4101 103d 759b 813c
00000040: 70c5 b4bc 8210 7b3d 02ce fabd 9134 b43c
00000050: 56e6 9d3d 30ab ca3d cea5 b53d 5956 83bd
00000060: 7e6c ef3c 9edb aa3b 97b1 573d 95fc b03c
00000070: d8a5 dc3c 48a0 91bd 4405 e23d 8d76 fb3d
00000080: 4a61 00be 2b78 dfbb f2af 5d3d 652c d43d
00000090: 2594 cabd bb1e f5bd 7495 03bd 804c 3c3c
000000a0: 360d 4ebd bec5 803b cfeb 8f3d 9ca4 29bd
000000b0: 1c25 a13d 15b6 e8bd 7ea6 bbbc 19a7 37bd
000000c0: 0c7b 943d 918e de3d b5cd 9d3d 4ef5 0f3e
000000d0: c52d b23d b50a 923b 11b2 b63d 13d5 8d3c
000000e0: 5955 6f3d 5c08 c3bd 191d fe3d 5327 d4bc
000000f0: e2e5 e3bd fc44 08be ac83 2e3d 5a80 ffbd
00000100: 7e41 c83d b9b9 8cbd b54e e83d 1483 f9bd
00000110: 8a4d 1d3d fcdf 003e 03e8 d5bd 7944 cfbd
00000120: 5290 013d 1243 9abd f1b0 f2bd 93e1 5f3d
00000130: d469 663c 3413 3cbd a739 d2bc b4b1 c13d
00000140: 5d7e 323d 2e88 bfbc ea36 8abd 4af0 b1bd
00000150: 9732 91bd 895c a63c d7e1 42bd e4a4 e83c
00000160: 4070 843d f3c9 bb3c b136 3d3d eb6e e0bd
00000170: 09dd 7cbd 477f 063d 5421 e93d 8c9b b53d
00000180: 4231 c0bd 2213 653d 0d85 843d 6187 d6bc
00000190: f81a 0d3d b61a bc3d 6b12 0cbe b49b e43d
000001a0: 8a59 0d3e b324 813d 194d 0bbe 62a4 67bd
000001b0: f738 01be ef32 61bd f3c3 e23c adb3 e5bd
000001c0: a2ba d83d a7f2 3c3d 3459 7c3d 1f9b ac3d
000001d0: 9600 6fbd fcf7 bf3d 39f3 e93d 1d46 e53d
000001e0: 9a84 943d 671f ddbd 9167 a2bd 643a 833d
000001f0: d4dd 943d eee6 09be 64b4 6bbd de3f 1a3d
00000200: f632 7f3d 2a8e e33d 8a20 bc3d a1f3 123d
00000210: cdb2 e53d 85ff c73d d951 09be cac5 d43d
00000220: a5ab cc3d 234b 0c3e 70f2 2e3d 8762 043e
00000230: 75cf 92bd 04a9 debd 8d6f 113d ec99 c2bd
00000240: d2da 95bc b5b9 96bd 7611 073d cfbf bf3c
00000250: 3c9e af3d a135 013d 7544 92bd 0052 b03d
00000260: 41d4 0abe 583c 76bd 7131 463d e95f b33d
00000270: a962 d0bd 081a af3d ff34 ebbd 5ded babd
00000280: 91c7 f7bd 339c ccbd 06aa 8b3d 540d 95bd
00000290: a2b7 b53c 48ce dcbd cfda 303c ff29 883d
000002a0: c2c7 893b e6f7 f8bc 05e7 a53d 5cf1 313d
000002b0: 5414 c23d 0273 6c3d 5e22 b13d e343 ebbc
000002c0: a9af c93d 48a5 bbbd 782e a83d 5edd 9b3b
000002d0: a345 98bd e684 023c 4a8d 853d 142e 713c
000002e0: ea1f 983d 83fc 14bd 6bfd 7dbd 3c43 03be
000002f0: b06b f23d 2276 ce3d 2337 413d 4550 92bc
00000300: d00a 663c 9ffd ad3c 873e c43d 7858 dcbd
00000310: 274f 19bd 76b4 c2bd 01c4 11bd 19d0 d1bc
00000320: 7670 bdbd 6365 9e3b a60b b33d af01 dd3c
00000330: 23bd 31bd 55ae 383d 999c 683d 4e49 b73c
00000340: 6cf4 94bd f7aa 8cbd 3edf b63d afdb 833d
00000350: d004 093d 0d23 0d3e 4a00 363d bbea b9bd
00000360: fc8a acbd abaa f33d b984 c13d 2406 273d
00000370: 5b02 fe3d f741 0b3d ba32 acbd 079c bdbd
00000380: 700d 0d3d e067 b0bd 04e8 513c b4dc 6fbd
00000390: 1fea 78bd 3141 e7bd bc14 3b3d b0ff 063e
000003a0: 40d4 023e c58e 3fbd 616c a0bd c122 833d
000003b0: 4472 453d 91a2 443d 897d e9bd 2d64 ce3d
000003c0: c466 dd3d 695a dcbd b72c 2a3d 060f 8fbc
000003d0: 08f7 0ebe d0f2 b53d 6694 57bd 4b97 08be
000003e0: 2aeb a3bd a33f 03bc 70ce c6bd 4b57 a7bb
000003f0: a8aa 433d f5a6 aebd 9cf7 dd3d c555 4abd

policy_fc1.bias f4 [64]
-0.0017729502 0.00012081323 -0.0031557777 0.00018829995 -0.004286685 -0.0037946033 -0.007694134 -0.008202256
0.0024607282 0.0018039034 -0.000656541 0.0003767287 0.0032074854 0.002697529 0.00048916525 0.0047030407
-0.0017691575 -0.010687821 0.0009787958 -0.0039560082 0.00728867 0.0019854193 -0.0036600402 0.0021037855
-0.010306356 0.005555792 -0.0011374833 -0.002020946 -0.00094329636 -0.0022159317 -0.001592058 -0.0015602832
-0.006786902 -0.0029219126 -0.0031077524 -0.011243817 0.003462067 -0.008697773 -0.0028800522 0.0007499453
-0.00050654466 0.002594962 -0.0049617793 -0.0043137106 -0.00038586295 0.0057630306 0.004595341 -0.0029072277
-0.004309143 0.001362484 -0.005873391 -0.008311143 -0.00020585721 -0.0011072896 -0.0024756 -0.001098391
-0.00013673172 -0.0034992816 0.004300261 0.0033263923 -0.0069820257 -0.0008711378 -0.00056088506 0.004165311
00000000: 5662 e8ba 1c5d fd38 2ad1 4ebb 6272 4539
00000010: 5277 8cbb e1ae 78bb 131f fcbb c162 06bc
00000020: 2b44 213b f470 ec3a b81b 2cba ac83 c539
00000030: ad34 523b 07c9 303b 533b 003a f71b 9a3b
00000040: 13e3 e7ba f81b 2fbc f04a 803a 67a1 81bb
00000050: ccd5 ee3b cf1d 023b 49dd 6fbb aadf 093b
00000060: fddb 28bc 5c0d b63b 9b17 95ba d971 04bb
00000070: 8c47 77ba 2a39 11bb 9aac d0ba 6b82 ccba
00000080: a964 debb 8f7d 3fbb 6fab 4bbb fd37 38bc
00000090: d9e3 623b 1b81 0ebc 42bf 3cbb fa97 443a
000000a0: a3c9 04ba 3d10 2a3b 6c96 a2bb 075a 8dbb
000000b0: a64d cab9 ced7 bc3b 8494 963b 3087 3ebb
000000c0: b633 8dbb 6095 b23a 9375 c0bb 762b 08bc
000000d0: 60db 57b9 7922 91ba ad3d 22bb e3f7 8fba
000000e0: a45f 0fb9 3454 65bb 34e9 8c3b 9aff 593b
000000f0: 7ac9 e4bb 115d 64ba 5c08 13ba 297d 883b

policy_fc2.weight f4 [32, 64]
-0.03141571 -0.04682621 0.09562351 -0.1740634 -0.07251878 -0.016791243 0.12999213 -0.07845523
-0.051320482 -0.041360665 -0.09548442 0.03625044 0.23788175 0.14694479 0.0986548 0.1843138
-0.060999524 -0.079814956 0.15836337 -0.23870671 -0.017138088 -0.048376627 0.044410277 0.11786383
0.20465328 0.22701512 -0.053905483 -0.20642753 -0.107803024 0.16094741 0.16056542 0.2193634
0.22430968 -0.21747306 0.19450194 -0.1480964 0.16916654 -0.11124875 0.22356062 -0.061702322
-0.12181514 0.10012429 -0.11003785 -0.21484521 -0.10401895 -0.21848689 -0.23769775 -0.061221942
-0.07145625 -0.027538145 0.20354833 0.06832589 -0.14534871 0.14074163 0.021472234 -0.01843425
-0.20482457 0.07421321 0.05367194 -0.13274254 0.021284085 -0.050343763 0.23822132 -0.028019544
0.16597176 0.19155501 0.24925579 0.10311256 -0.075220235 -0.08300089 -0.11140195 -0.13195041
-0.07991685 -0.03418631 0.062403224 0.17034277 -0.033074167 -0.15426773 0.06490934 -0.23537344
0.18162544 0.07259406 -0.12959772 0.24305864 -0.23782343 -0.22795486 -0.022591649 0.14065029
-0.032152265 0.111013174 -0.17399676 0.22040471 0.094531626 -0.05316363 -0.018764095 0.14777154
-0.09372031 0.11948007 -0.091019005 0.21425678 0.090974614 -0.20818262 0.021099739 0.0015892517
0.21893466 -0.061304066 0.23997965 0.19060175 -0.06336433 -0.019584322 0.19250843 0.22762194
-0.08431555 0.13356967 0.062122036 -0.0064650285 -0.013071085 -0.13830118 -0.19373143 -0.21548809
0.2407462 0.075755775 -0.04025936 0.13909331 -0.2461235 0.15267634 -0.012584137 0.105103336
0.0052058836 -0.21253137 -0.14778513 0.23900239 0.10913419 -0.18284851 0.15159403 0.13967755
0.0017245191 -0.20237787 -0.13494131 0.026338745 0.20513003 0.119638935 -0.21185648 0.21024527
-0.15977055 0.038032647 0.098829195 0.15021475 0.14488006 -0.1684883 -0.23664045 -0.06701867
0.124617144 -0.0011838609 0.120402865 0.21288061 -0.21045056 -0.013017182 -0.13378179 0.09876823
0.11451874 0.16655508 -0.15486172 0.021819677 -0.023865892 0.008694214 0.14476818 -0.15744196
0.17137554 0.15158527 0.13336322 0.07635504 0.032466397 -0.15227956 0.2148316 -0.07298946
0.128628 0.24216877 0.14317212 -0.19274808 -0.21286903 -0.056875233 0.11341366 0.19884743
0.048752565 0.15718657 -0.051387336 -0.1065772 -0.11255986 0.1892313 0.21791734 -0.16770664
0.13834123 -0.07520551 0.26116213 0.09409034 0.062441092 -0.11894728 -0.08646613 0.009889069
0.08623891 -0.20726594 0.25427693 -0.0654038 -0.11655921 0.13039552 -0.2049524 -0.07552412
0.13272916 0.08523826 0.042302523 -0.20499502 -0.1557579 0.13340089 -0.14737263 0.13393591
-0.08629462 0.033237733 0.1368489 0.10394397 0.11631696 0.19993863 -0.007831814 0.03556004
-0.2509067 0.20465077 -0.18501152 -0.05721954 0.038374133 -0.11853965 0.16824824 -0.2457477
0.033626676 0.037885338 0.24708985 -0.14792925 -0.2265558 0.23613642 0.20887782 0.13681436
0.106608786 0.15031847 -0.23139977 -0.136082 0.1369444 0.043341953 -0.029926782 -0.14798942
-0.20643023 0.078375556 -0.23272699 0.17918658 -0.03296136 -0.21849617 -0.08650725 0.1391451
00000000: c2ad 00bd d7cc 3fbd 42d6 c33d ad3d 32be
00000010: ba84 94bd ca8d 89bc a81c 053e 23ad a0bd
00000020: 6d35 52bd cd69 29bd 568d c3bd 577b 143d
00000030: 4697 733e b278 163e 870b ca3d c2bc 3c3e
00000040: a3da 79bd 0676 a3bd 022a 223e 886f 74be
00000050: 2d65 8cbc 9226 46bd 8de7 353d 9762 f13d
00000060: a190 513e a776 683e ffcb 5cbd bd61 53be
00000070: d5c7 dcbd 66cf 243e 436b 243e cda0 603e
00000080: 70b1 653e 42b1 5ebe 842b 473e 95a6 17be
00000090: fe39 2d3e 62d6 e3bd 13ed 643e 93bb 7cbd
000000a0: 377a f9bd f70d cd3d 865b e1bd 6200 5cbe
000000b0: e307 d5bd 07bb 5fbe 0a67 73be dcc3 7abd
000000c0: a857 92bd ad97 e1bc f96e 503e 72ee 8b3d
000000d0: 4bd6 14be 931e 103e 8ae6 af3c 6d03 97bc
000000e0: 88bd 51be 18fd 973d 1cd7 5b3d a9ed 07be
000000f0: f65b ae3c 4335 4ebd 4af0 733e 3e89 e5bc
00000100: 80f4 293e ff26 443e e93c 7f3e ae2c d33d
00000110: 110d 9abd 5ffc a9bd b526 e4bd 021e 07be
00000120: 72ab a3bd f206 0cbd 869a 7f3d 566e 2e3e
00000130: c778 07bd 5cf8 1dbe 30ef 843d bc05 71be
00000140: 05fc 393e 32ac 943d 44b5 04be 5de4 783e
00000150: fc87 73be 006d 69be 1f12 b9bc a106 103e
00000160: 18b2 03bd e05a e33d 352c 32be c6b1 613e
00000170: cc99 c13d 1bc2 59bd 29b7 99bc 6c51 173e
00000180: 6ff0 bfbd f8b1 f43d 2c68 babd 2166 5b3e
00000190: e650 ba3d d32d 55be 5cd9 ac3c 704e d03a
000001a0: 6830 603e f919 7bbd 3abd 753e 1b2d 433e
000001b0: 28c5 81bd 4d6f a0bc ee20 453e ba15 693e
000001c0: a2ad acbd 7dc6 083e ad73 7e3d 97d8 d3bb
000001d0: 1b28 56bc d39e 0dbe 8861 46be e9a8 5cbe
000001e0: 2c86 763e d825 9b3d 00e7 24bd 7a6e 0e3e
000001f0: cc07 7cbe 3057 1c3e b22d 4ebc 6b40 d73d
00000200: 1e96 aa3b d3a1 59be fc54 17be 0bbd 743e
00000210: bf81 df3d a43c 3bbe 773b 1b3e a207 0f3e
00000220: 4209 e23a 253c 4fbe 0e2e 0abe 5ac4 d73c
00000230: 9b0d 523e 4205 f53d e8f0 58be 894a 573e
00000240: e49a 23be 1fc8 1b3d f666 ca3d e5d1 193e
00000250: 705b 143e 3288 2cbe e051 72be 1641 89bd
00000260: 4637 ff3d c82b 9bba c795 f63d 60fd 593e
00000270: 5a80 57be 0546 55bc 18fe 08be ff46 ca3d
00000280: cd88 ea3d 6a8d 2a3e 1294 1ebe 2ebf b23c
00000290: 6782 c3bc 2d72 0e3c 1c3e 143e 7738 21be
000002a0: 127d 2f3e 2b39 1b3e 5e90 083e 0860 9c3d
000002b0: 7cfb 043d 2cef 1bbe d1fc 5b3e 7f7b 95bd
000002c0: 0fb7 033e 17fb 773e b69b 123e c15f 45be
000002d0: 57fa 59be 01f6 68bd 6c45 e83d a99e 4b3e
000002e0: c5b0 473d 84f5 203e 877b 52bd 2645 dabd
000002f0: c985 e6bd dac5 413e b925 5f3e 4abb 2bbe
00000300: 53a9 0d3e 5905 9abd 0bb7 853e 70b2 c03d
00000310: 3bc2 7f3d a29a f3bd 2815 b1bd c305 223c
00000320: 079e b03d 863d 54be 9630 823e 6df2 85bd
00000330: 98b6 eebd 6786 053e 0bdf 51be 64ac 9abd
00000340: 27ea 073e 6691 ae3d 6945 2d3d 37ea 51be
00000350: 007f 1fbe 3e9a 083e dae8 16be 7f26 093e
00000360: 3cbb b0bd 4a24 083d 1e22 0c3e 93e0 d43d
00000370: 9637 ee3d b6bc 4c3e 0251 00bc 68a7 113d
00000380: d876 80be f98f 513e a973 3dbe 095f 6abd
00000390: 322e 1d3d ebc4 f2bd 4449 2c3e 49a5 7bbe
000003a0: 20bc 093d a82d 1b3d 1f05 7d3e c47a 17be
000003b0: 3efe 67be bfcd 713e 11e4 553e 1019 0c3e
000003c0: b555 da3d 16ed 193e 10f4 6cbe 1459 0bbe
000003d0: 273b 0c3e 5587 313d 0329 f5bc 8a8a 17be
000003e0: 7262 53be 5d83 a03d fc4f 6ebe b07c 373e
000003f0: 7e02 07bd 76bd 5fbe b72a b1bd 0e7c 0e3e

policy_fc2.bias f4 [32]
-0.0019405325 -0.0042558936 0.0008446635 -0.01133987 -0.02100595 -0.0050670374 7.984128e-05 -0.007043227
-0.004781569 0.004164785 -0.0019367717 -0.0024674863 0.005018062 0.0058381576 -0.0045938403 -0.0018181375
-0.0020248804 0.005379652 0.0006401208 0.008372463 -0.0014134274 -0.0061751725 -0.0038131233 0.010231832
0.003938068 -0.0048042843 0.0020161853 0.0081693735 0.0030211858 -0.004973373 -0.013514605 -0.0013540555
00000000: 7759 feba 0675 8bbb 686c 5d3a ddca 39bc
00000010: ac14 acbc 6409 a6bb 7670 a738 dfca e6bb
00000020: b5ae 9cbb c078 883b 46db fdba 8db5 21bb
00000030: 8e6e a43b 044e bf3b ed87 96bb 924e eeba
00000040: dbb3 04bb cb47 b03b c8cd 273a a82c 093c
00000050: c142 b9ba 1a59 cabb 98e5 79bb 6aa3 273c
00000060: e90a 813b 426d 9dbb fa21 043b d6d8 053c
00000070: 16ff 453b adf7 a2bb 5d6c 5dbc 907a b1ba

policy_fc3.weight f4 [57, 32]
0.10431637 -0.051701546 -0.08414156 -0.11597671 0.034303553 0.042450637 0.24284999 -0.04442286
-0.12479809 -0.20979111 -0.2519775 0.11348028 0.06899704 -0.22071902 0.07623461 -0.08568554
-0.09463955 -0.0054234806 -0.21757759 -0.11124821 0.02138473 -0.04770362 0.16156542 0.038262557
0.14559022 0.042525772 -0.20555148 -0.24190079 -0.18890493 0.21313836 0.15985194 -0.08207233
0.0576074 -0.050820284 -0.122726694 -0.22894558 0.12741369 -0.056691043 0.1523987 0.18748575
0.011665862 0.08282816 -0.010509546 0.023184048 -0.20312165 -0.06709589 0.23018496 0.1624193
0.16249172 -0.21305269 -0.13166468 -0.16866264 0.1804985 0.08669815 0.15811467 -0.26988366
-0.053154178 -0.07630044 0.09833486 0.13794143 0.25064564 0.2391399 -0.09334519 0.029135821
0.21205384 -0.02288483 -0.025954928 -0.2676461 -0.12987891 0.1094481 -0.0491627 0.15372142
0.17391534 -0.028628452 -0.055319656 0.24459454 0.17745139 -0.26039526 0.22789279 -0.06578846
-0.11161265 0.021267354 -0.24425803 -0.1936087 0.1666747 -0.14201845 -0.002109852 -0.25259587
-0.25661945 -0.021742426 0.19932948 -0.1426253 0.032153253 0.05225834 -0.2641119 -0.13067786
0.10014535 0.092337996 0.14942153 -0.14320785 -0.15212671 0.017040178 -0.19747144 -0.23740529
-0.1786074 -0.14607696 -0.2445702 0.08076799 0.043805845 0.0081144 0.14324994 0.21117015
-0.23903057 -0.27286005 -0.17992927 0.010071069 -0.18333519 -0.008768828 -0.064197 -0.16549766
0.0992811 -0.18884856 -0.14555782 0.029051244 0.17094299 0.15342562 0.2515578 -0.14833775
0.106766656 0.060361084 0.12552658 -0.049415644 0.15149888 -0.011913529 0.099144004 -0.12422866
-0.22088042 -0.072766066 0.08144418 0.13923138 0.16275881 0.08220433 0.039928697 0.0039953683
0.1069902 -0.22819455 0.06092378 0.22652125 -0.12879883 -0.124966085 -0.082163505 -0.039729487
-0.10067542 -0.15468921 0.17824538 0.115145996 0.09786154 0.150389 -0.005706693 0.09556555
-0.09290829 -0.015404907 0.13795269 -0.16683123 -0.0796017 0.1578625 -0.14124064 -0.07626506
0.24104285 0.12627973 0.21150294 -0.053713664 0.00036652433 -0.0040777884 -0.03509401 -0.053624686
-0.0077492613 -0.17377737 0.123029456 0.052782185 0.13076569 -0.0049060117 0.1721227 -0.1864521
0.18043962 -0.029950716 0.24884984 -0.041730076 0.076962784 -0.0036076223 0.08698241 0.016833594
0.19610132 0.078700945 0.020375406 -0.15510288 -0.11493751 0.03199461 0.26018786 0.25467768
-0.11298088 0.12286708 0.19452028 0.009152229 0.2394762 -0.10190741 -0.21283671 0.24562524
-0.13291788 0.034739867 0.24646674 -0.21299127 0.011374992 -0.11519018 0.16825332 -0.020983722
-0.21637242 0.1380659 0.089766234 -0.17101327 0.15385479 0.12895238 -0.022517951 -0.13484125
0.07104474 -0.20537595 -0.24328595 -0.19065334 -0.1513654 0.07906691 -0.14205085 -0.2484402
-0.17426439 -0.05620075 0.027092734 0.062156804 -0.22656216 -0.1438448 -0.106194906 -0.24652424
-0.08691556 0.22103092 0.084628016 -0.055714995 -0.055344682 -0.18688387 -0.19337936 0.17090984
-0.24483886 -0.05135035 0.20016213 -0.14845179 0.046610493 0.1398534 0.023121106 -0.13748908
00000000: d2a3 d53d 00c5 53bd 6952 acbd 3385 edbd
00000010: e281 0c3d b8e0 2d3d abad 783e bff4 35bd
00000020: 2496 ffbd 7bd3 56be 3203 81be 5968 e83d
00000030: 524e 8d3d 2b04 62be e420 9c3d e77b afbd
00000040: 61d2 c1bd 74b7 b1bb a9cc 5ebe 1ad6 e3bd
00000050: 072f af3c df64 43bd 6871 253e 33b9 1c3d
00000060: 9a15 153e 812f 2e3d 167c 52be d7b4 77be
00000070: 4b70 41be f140 5a3e 3ab0 233e 8a15 a8bd
00000080: bdf5 6b3d ee28 50bd 2258 fbbd b670 6abe
00000090: bc78 023e de34 68bd 680e 1c3e 44fc 3f3e
000000a0: 2c22 3f3c cfa1 a93d 3b30 2cbc 79ec bd3c
000000b0: 1fff 4fbe 9269 89bd 9bb5 6b3e 3f51 263e
000000c0: 3b64 263e 7c2a 5abe 1bd3 06be e6b5 2cbe
000000d0: 99d4 383e cd8e b13d d0e8 213e 312e 8abe
000000e0: 32b8 59bd 6843 9cbd c963 c93d 8540 0d3e
000000f0: a054 803e 17e1 743e c32b bfbd 3fae ee3c
00000100: a424 593e f878 bbbc 6e9f d4bc e908 89be
00000110: fafe 04be 5326 e03d d45e 49bd 2669 1d3e
00000120: dd16 323e 3786 eabc dd96 62bd fe76 7a3e
00000130: d1b5 353e 8752 85be ba5c 693e 1abc 86bd
00000140: 2c95 e4bd e038 ae3c c71e 7abe 5c41 46be
00000150: c6ac 2a3e 496d 11be 7145 0abb 3f54 81be
00000160: a063 83be 2c1d b2bc 071d 4c3e 5e0c 12be
00000170: 21b3 033d d70c 563d ad39 87be 6bd0 05be
00000180: 0119 cd3d b41b bd3d f501 193e 14a5 12be
00000190: 1bc7 1bbe d897 8b3c f435 4abe 5f1a 73be
000001a0: dce4 36be 3395 15be 9c70 7abe b069 a53d
000001b0: c26d 333d 43f2 043c 1db0 123e fd3c 583e
000001c0: 6ec4 74be 50b4 8bbe 613f 38be 2001 253c
000001d0: 38bc 3bbe 21ab 0fbc b779 83bd 3878 29be
000001e0: e453 cb3d 8461 41be 1c0d 15be e0fc ed3c
000001f0: ae0b 2f3e 9b1b 1d3e 2fcc 803e dae5 17be
00000200: 7aa8 da3d 2f3d 773d 0a8a 003e 0f68 4abd
00000210: 8622 1b3e f630 43bc 030c cb3d 986b febd
00000220: 7a2e 62be 6006 95bd 35cc a63d ac92 0e3e
00000230: 3faa 263e be5a a83d 468c 233d 94eb 823b
00000240: ae1d db3d d5ab 69be 378b 793d 30f5 673e
00000250: d7e3 03be 38ee ffbd 5745 a8bd 63bb 22bd
00000260: ea2e cebd d966 1ebe f585 363e aad1 eb3d
00000270: a26b c83d 93ff 193e 36ff babb dfb7 c33d
00000280: b446 bebd dd64 7cbc 7843 0d3e ced5 2abe
00000290: 3706 a3bd b5a6 213e 63a1 10be db30 9cbd
000002a0: f0d3 763e 794f 013e 3a94 583e dc02 5cbd
000002b0: 102a c039 f89e 85bb bdbe 0fbd 8fa5 5bbd
000002c0: 84ed fdbb b2f2 31be def6 fb3d 2232 583d
000002d0: 71e7 053e 9cc2 a0bb ef40 303e 4ded 3ebe
000002e0: 2ac5 383e 345b f5bc 7ed2 7e3e 28ed 2abd
000002f0: aa9e 9d3d dc6d 6cbb d523 b23d 9be6 893c
00000300: c9ce 483e f62d a13d 53ea a63c 4ad3 1ebe
00000310: 5b64 ebbd c80c 033d 5837 853e 1d65 823e
00000320: 8562 e7bd bca1 fb3d 5330 473e 3bf3 153c
00000330: 4039 753e d5b4 d0bd def1 59be 2f85 7b3e
00000340: a01b 08be 644b 0e3d c761 7c3e 621a 5abe
00000350: 2d5e 3a3c d4e8 ebbd 994a 2c3e 0ee6 abbc
00000360: bb90 5dbe 2661 0d3e 5cd7 b73d 1a1e 2fbe
00000370: 1c8c 1d3e 180c 043e 9177 b8bc d313 0abe
00000380: e87f 913d 134e 52be f41f 79be a13a 43be
00000390: 88ff 1abe d5ed a13d c775 11be 1c67 7ebe
000003a0: 5d72 32be c232 66bd 95f1 dd3c 2298 7e3d
000003b0: e9ff 67be 0d4c 13be b77c d9bd da70 7cbe
000003c0: c900 b2bd ee55 623e 7451 ad3d 6835 64bd
000003d0: 1bb1 62bd 7c5e 3fbe 3d05 46be fd02 2f3e
000003e0: 0ab7 7abe bf54 52bd 4df7 4c3e bf03 18be
000003f0: a5ea 3e3d bb35 0f3e 7968 bd3c f0c9 0cbe

policy_fc3.bias f4 [57]
-0.002469013 0.00704031 0.0018180404 0.017969651 -0.0039776117 0.011467319 0.002025644 0.02558197
-0.0011351506 -0.008037696 -0.0012455791 0.0014788588 0.02267818 0.0016847411 0.004278661 0.021370193
0.010174843 -0.023793394 -0.00019948572 0.035438895 0.0068173404 0.001041064 0.009624238 0.00929801
0.032878883 0.008057206 -0.0029010037 0.007935889 0.005639577 0.015507758 -0.0098786205 0.0022062429
-0.01090974 -0.011187367 0.020841075 0.0017958155 -0.00039418062 9.5481795e-05 0.005064521 0.012558932
-0.0052970555 0.007821 -0.008800324 -0.00640023 -0.008940277 0.00036166018 -0.01215554 0.018561166
-0.0011170023 -0.011509285 -0.014906499 -0.021257233 0.012203805 0.006671951 -0.014922487 -0.016835894
-0.015803853
00000000: 2acf 21bb 67b2 e63b 504b ee3a 1735 933c
00000010: a056 82bb 6ce1 3b3c abc0 043b 4891 d13c
00000020: 55c9 94ba 8ab0 03bc b342 a3ba 44d6 c13a
00000030: 97c7 b93c 88d2 dc3a 0334 8c3b 8b10 af3c
00000040: 62b4 263c 5dea c2bc 0a2d 51b9 6028 113d
00000050: ff63 df3b 5074 883a fbae 1d3c ae56 183c
00000060: 02ac 063d 5f02 043c c41e 3ebb 8805 023c
00000070: 33cc b83b 4014 7e3c f0d9 21bc 9d96 103b
00000080: c4be 32bc 384b 37bc e7ba aa3c 9261 eb3a
00000090: 07aa ceb9 663d c838 48f4 a53b fbc3 4d3c
000000a0: ec92 adbb a723 003c 3c2f 10bc 05b9 d1bb
000000b0: 3d7a 12bc 359d bd39 0828 47bc 960d 983c
000000c0: 6168 92ba 7191 3cbc 633a 74bc a623 aebc
000000d0: 78f2 473c 62a0 da3b 727d 74bc 6eeb 89bc
000000e0: 1577 81bc

value_fc1.weight f4 [64, 261]
-0.07910036 -0.034375496 -0.070779726 0.08000693 0.11400341 -0.11212585 -0.040009305 -0.052590203
0.022214701 -0.042519987 -0.0586873 0.08871644 0.039068803 -0.011295286 -0.041149564 0.07237648
0.0744152 -0.1357597 0.07678103 -0.11591438 0.098430224 0.103396915 0.09585576 -0.09803554
0.0077075814 0.10299544 0.05275088 -0.12740876 0.049693137 0.017447915 -0.092815675 -0.12777118
0.09975752 -0.087683834 0.016880339 0.032618552 -0.11590376 0.091929786 0.002351787 -0.054096337
-0.056779385 -0.11517255 0.14015009 -0.002700546 -0.14401521 -0.025055405 -0.09771913 -0.13274553
0.0137200495 0.056039058 0.11980489 -0.060504336 0.10586303 0.02012307 -0.10792158 -0.074349344
0.11284905 -0.111640565 0.11941994 0.0016194404 -0.02476706 -0.11912043 0.03708692 0.112158164
0.094765976 -0.0062356386 -0.10100279 -0.06866104 -0.014946822 0.0571853 -0.029716663 0.049229637
0.023192693 0.010707521 -0.04882455 0.00912966 0.04615171 -0.090100095 0.07883862 -0.05769258
0.01526237 0.04222567 0.09405486 0.048068423 -0.12339769 -0.07221262 -0.06887202 0.106037654
-0.124816306 -0.11226379 0.02743599 0.12575106 -0.13105425 0.03417329 0.058314804 0.1298559
0.0890645 0.004447244 0.021647654 0.13024506 0.038400453 0.08471384 -0.0113574155 0.10540681
-0.06569596 -0.0697595 0.04440124 0.07997965 -0.11139881 -0.020091295 0.025248192 0.024812985
-0.03872919 0.06496443 0.057826128 -0.044155966 0.14204489 0.13125123 -0.063222826 -0.025060795
-0.037924964 -0.022325763 0.08778676 -0.113673136 -0.06438928 0.00502334 0.06816562 -0.060119122
0.023996748 0.08820845 -0.07297387 -0.036561158 0.011890647 -0.03397224 0.088477366 0.06217558
0.13272114 -0.02224912 0.05944111 0.10096305 0.0884061 -0.11510986 0.11588689 -0.0962562
-0.008989611 -0.11940774 0.07507323 -0.089642644 -0.122827634 -0.14867556 -0.058855865 -0.057828587
0.01849392 -0.08795604 0.11205837 -0.12287766 -0.06555741 0.10588656 0.06366556 -0.0837685
0.013053738 -0.09611551 0.038111083 -0.09032475 -0.10845063 -0.015473672 -0.050239485 -0.010575118
-0.010753591 -0.030428046 0.058608726 -0.06694326 0.012142461 0.10887052 -0.10065204 0.122688495
0.085593306 0.092800654 0.11056121 -0.109475866 -0.10565263 0.0691074 -0.06078821 -0.01206059
0.011206436 -0.0019813075 0.06737249 -0.049636226 -0.10640463 0.012836375 0.041208517 0.09926805
-0.008006824 -0.09744441 0.019714117 0.0042956644 0.11564198 0.056376234 0.006596311 -0.0538809
0.14041992 0.12736405 -0.021999568 -0.09750739 0.11797558 -0.062361643 -0.004249475 0.06674325
-0.009424298 -0.11733266 -0.07587724 0.018271547 0.0038725773 -0.08969986 0.021352123 -0.12016997
-0.118227564 -0.12711157 -0.038113937 -0.10516747 -0.114634044 0.034598198 -0.05875889 -0.12875618
-0.11906122 -0.0667583 -0.09603524 0.059561677 -0.021587444 0.09733666 -0.060417213 0.06547775
-0.07425664 0.08550647 -0.06791955 0.019956324 -0.06817448 -0.06884469 0.041439142 0.082728095
-0.123419374 -0.028868062 0.056488056 -0.085547335 0.08928319 0.035503395 -0.05136061 -0.074031495
-0.008774846 -0.07777132 -0.09637425 -0.06748285 0.04444294 -0.036862694 0.052836135 -0.026029682
00000000: 5fff a1bd 52cd 0cbd f6f4 90bd acda a33d
00000010: 9f7a e93d 3da2 e5bd cce0 23bd d368 57bd
00000020: 9bfb b53c 7029 2ebd 1862 70bd f7b0 b53d
00000030: 9c06 203d dd0f 39bc 728c 28bd 1f3a 943d
00000040: ff66 983d 9704 0bbe 5f3f 9d3d 8564 edbd
00000050: c995 c93d c3c1 d33d 0650 c43d dbc6 c8bd
00000060: e18f fc3b 46ef d23d 4f11 583d 7177 02be
00000070: 088b 4b3d eeee 8e3c 2516 bebd 73d6 02be
00000080: ac4d cc3d 9593 b3bd a348 8a3c 089b 053d
00000090: f35e edbd af45 bc3d 7020 1a3b 1f94 5dbd
000000a0: 8091 68bd 96df ebbd 8183 0f3e a5fb 30bb
000000b0: b978 13be fe40 cdbc f820 c8bd 72ee 07be
000000c0: 0fca 603c 3689 653d 445c f53d 65d3 77bd
000000d0: b7ce d83d 23d9 a43c fd05 ddbd 7844 98bd
000000e0: 671d e73d cfa3 e4bd 7192 f43d 6743 d43a
000000f0: 4ae4 cabc 69f5 f3bd 74e8 173d 2eb3 e53d
00000100: aa14 c23d 5454 ccbb 8dda cebd 299e 8cbd
00000110: 84e3 74bc 223b 6a3d 5c70 f3bc 04a5 493d
00000120: 9afe bd3c 996e 2f3c 40fc 47bd 9294 153c
00000130: 9309 3d3d 6686 b8bd 2476 a13d 0e4f 6cbd
00000140: 050f 7a3c d3f4 2c3d d69f c03d 65e3 443d
00000150: eeb7 fcbd 36e4 93bd c60c 8dbd 452a d93d
00000160: b19f ffbd 8fea e5bd 71c1 e03c e3c4 003e
00000170: 1633 06be 4bf9 0b3d 81db 6e3d f2f8 043e
00000180: 7367 b63d 30ba 913b 6c56 b13c f65e 053e
00000190: cb49 1d3d 737e ad3d 7414 3abc 87df d73d
000001a0: 9a8b 86bd 12de 8ebd 13de 353d 5fcc a33d
000001b0: 0f25 e4bd 8096 a4bc 4cd5 ce3c 9a44 cb3c
000001c0: 80a2 1ebd 120c 853d 17db 6c3d e3dc 34bd
000001d0: 3774 113e b966 063e f87a 81bd 4c4c cdbc
000001e0: 3557 1bbd 85e4 b6bc 8bc9 b33d 76cd e8bd
000001f0: 87de 83bd d59a a43b 6b9a 8b3d 783f 76bd
00000200: d494 c43c a2a6 b43d 5373 95bd 27c1 15bd
00000210: fdd0 423c 7a26 0bbd 9f33 b53d d2ab 7e3d
00000220: 0de8 073e c943 b6bc 8578 733d b7c5 ce3d
00000230: 420e b53d b8be ebbd 1b56 ed3d f821 c5bd
00000240: 2949 13bc 0c8c f4bd febf 993d 9096 b7bd
00000250: 0e8d fbbd 683e 18be d912 71bd abdd 6cbd
00000260: 9080 973c 4c22 b4bd dc7e e53d 48a7 fbbd
00000270: f742 86bd 0edb d83d 1763 823d d28e abbd
00000280: 58df 553c 35d8 c4bd 5e1a 1c3d 2ffc b8bd
00000290: 5d1b debd 4985 7dbc ebc7 4dbd 4243 2dbc
000002a0: d42f 30bc 3d44 f9bc b40f 703d 8c19 89bd
000002b0: 2cf1 463c 82f7 de3d a822 cebd 1b44 fb3d
000002c0: 8b4b af3d 450e be3d ea6d e23d e234 e0bd
000002d0: 6860 d8bd 2e88 8d3d 0ffd 78bd c899 45bc
000002e0: 339b 373c d3d8 01bb 97fa 893d 5b4f 4bbd
000002f0: acea d9bd a94f 523c 43ca 283d 0c4d cb3d
00000300: 0e2f 03bc ef90 c7bd 807f a13c a5c2 8c3b
00000310: b4d5 ec3d c4ea 663d de25 d83b 38b2 5cbd
00000320: 3dca 0f3e b96b 023e 7038 b4bc f4b1 c7bd
00000330: 2e9d f13d ec6e 7fbd 2e3f 8bbb afb0 883d
00000340: 5f68 1abc 1b4c f0bd 8765 9bbd 36ae 953c
00000350: 11cb 7d3b 8fb4 b7bd a6ea ae3c ac1b f6bd
00000360: 4b21 f2bd 8929 02be 5c1d 1cbd 0b62 d7bd
00000370: 41c5 eabd d7b6 0d3d 29ad 70bd a9d8 03be
00000380: 5ed6 f3bd 93b8 88bd 20ae c4bd f2f6 733d
00000390: 27d8 b0bc 7158 c73d 0a78 77bd 3319 863d
000003a0: de13 98bd 041e af3d 6819 8bbd 727b a33c
000003b0: 109f 8bbd 72fe 8cbd 17bc 293d 596d a93d
000003c0: 4cc3 fcbd b77c ecbc 0560 673d 7133 afbd
000003d0: 1bda b63d 026c 113d 815f 52bd d39d 97bd
000003e0: 5fc4 0fbc 9246 9fbd dd5f c5bd 7334 8abd
000003f0: cd09 363d 56fd 16bd b46a 583d 333c d5bc

value_fc1.bias f4 [64]
0.00943347 -0.043588437 0.033410944 -0.026292447 0.026134035 0.005222691 0.011414695 -0.0001425998
0.0022384909 0.0075613325 0.034517065 0.024009194 0.030169176 0.024329182 0.019600324 -0.01276518
0.00549258 0.003596741 -0.022950167 0.0026033842 -0.013545488 0.027898801 -0.04124187 0.023517184
0.020276532 0.006818655 -0.017708158 0.062980995 -0.038431775 -0.024858113 0.03850132 0.0116665475
-0.00020718473 -0.024710743 -0.009671405 0.0016444525 -0.03167087 -0.025647862 -0.019901654 0.030661006
-0.043287244 -0.01873012 -0.020269424 -0.008301129 -0.015454707 -0.0018643636 -0.032775935 -0.025138047
-0.04364292 0.012565476 0.017189542 -0.019001942 -0.019624304 0.003753255 0.027781054 -0.009526738
-0.0213747 -0.0010960335 0.009502828 0.025710171 -0.020027343 -0.007577369 0.008155114 0.042835806
00000000: d78e 1a3c ca89 32bd ead9 083d 4263 d7bc
00000010: 0b17 d63c 1c23 ab3b b304 3b3c d886 15b9
00000020: a5b3 123b 0ec5 f73b c461 0d3d eeae c43c
00000030: 5925 f73c fe4d c73c dc90 a03c 0c25 51bc
00000040: 1afb b33b 4db7 6b3b fd01 bcbc 8a9d 2a3b
00000050: e5ed 5dbc 078c e43c 3ced 28bd 1ca7 c03c
00000060: f81a a63c 066f df3b b310 91bc 2efc 803d
00000070: a36a 1dbd 3ea3 cbbc 8fb3 1d3d 0c25 3f3c
00000080: ba3f 59b9 2f6e cabc d074 1ebc ab8a d73a
00000090: 50b9 01bd 771b d2bc cb08 a3bc ca2c fb3c
000000a0: f74d 31bd e96f 99bc 100c a6bc 7501 08bc
000000b0: bd35 7dbc a95d f4ba 0f40 06bd 4eee cdbc
000000c0: ebc2 32bd 6ddf 4d3c 15d1 8c3c f6a9 9bbc
000000d0: 26c3 a0bc 2bf9 753b 1895 e33c 0916 1cbc
000000e0: ff19 afbc c8a8 8fba c0b1 1b3c 239e d23c
000000f0: 6210 a4bc 944b f8bb 079d 053c 9974 2f3d

value_fc2.weight f4 [32, 64]
-0.08697029 0.03506433 0.18968211 -0.23093611 0.13185258 0.16685301 -0.22703125 0.16872226
0.11641243 0.16782811 -0.23208134 0.021923563 0.058900625 -0.10136849 -0.062473696 0.20673566
-0.109266095 0.13301244 0.15426889 0.1977591 0.021079175 -0.071438424 0.23203613 -0.18651587
0.040137436 0.23818895 -0.23308079 0.114823416 -0.019585093 -0.16481431 0.24925297 -0.20811899
0.15236296 0.1738948 -0.10517248 0.1353907 0.122864954 0.20297408 -0.06482976 -0.22458673
-0.08140357 -0.08595667 -0.09640434 -0.14887291 0.027840067 -0.118553825 0.2386944 0.13690181
-0.16145802 -0.20350698 -0.13035321 0.2341688 0.16265002 0.07191349 -0.26411653 -0.15843275
-0.19833754 -0.18126921 0.04024572 -0.123401076 0.120308556 0.20851664 -0.25625676 0.12909092
0.02132859 0.06815885 -0.16103335 -0.10537075 0.20830756 -0.24772903 -0.080707274 0.16696088
-0.12697151 0.05763997 -0.1505286 0.14385937 -0.098252594 0.08837163 -0.25283405 -0.17901431
-0.050441116 0.10539668 -0.21772681 0.10834099 -0.03912474 0.12463186 0.14615077 0.038578287
0.2149359 0.1894734 0.083782405 -0.18300408 0.19474943 0.24811254 0.019362146 -0.111133546
0.11321412 -0.18456052 -0.05132406 0.06069446 0.10317162 -0.11666255 -0.14927705 -0.007914902
-0.2095298 0.095598124 0.105653636 -0.14613964 0.093887396 0.112395056 -0.15038693 -0.23390873
-0.24067542 -0.16705449 -0.15868115 0.14014469 0.14609118 -0.05386999 0.08217639 0.1597853
-0.19336791 0.07256874 -0.0029588381 0.035820916 0.054441802 0.1872994 -0.029241405 0.1703562
0.20067137 -0.18156773 0.20138943 0.23877224 0.23832926 -0.15198685 -0.15237677 0.097534746
-0.2313877 -0.1547166 -0.03190296 0.06391083 -0.03349941 -0.18965906 -0.07478998 -0.1319233
0.16801238 0.12910868 -0.039743874 -0.15099765 -0.051320393 -0.15316124 -0.14330597 0.23918083
-0.2625123 0.19256 0.047411803 0.08615555 0.18952267 0.042406354 0.17412624 -0.12283965
0.018081455 -0.22607102 -0.0483497 -0.08072713 0.008686532 -0.12959783 0.012685686 0.12670363
0.10933969 -0.07913435 -0.10685286 -0.16101085 -0.14767198 -0.23966977 0.1597796 0.22523947
0.039038785 0.13422044 -0.07361697 0.12387429 -0.005876629 0.19796588 -0.13815215 -0.028705789
-0.23361392 0.09173947 -0.1649679 0.16771197 0.08118746 -0.11930859 -0.053316016 -0.06584246
0.063076474 -0.13214256 -0.032972585 -0.15801913 0.13344327 0.1752563 0.09719315 0.15106608
0.23249388 -0.07227451 -0.16707864 0.18299766 0.1666956 -0.14017239 0.09631057 0.18072891
-0.047338016 -0.23982882 0.18757223 -0.12105032 0.13970152 0.057008643 0.0095927445 -0.19956934
-0.12225674 -0.1618556 -0.0069510634 -0.073031604 0.04859946 0.047279894 -0.1263006 -0.11578804
-0.2085359 0.06106747 -0.1222516 0.2154646 -0.040627986 0.1775724 -0.073816195 -0.02393992
-0.07295626 0.08033769 0.04455628 -0.10522214 0.23184371 -0.19955947 -0.0667202 0.101167396
-0.22909173 -0.13687523 0.20624955 0.14298834 0.008182456 -0.102163844 -0.13111138 -0.08279018
-0.17133324 0.06106578 -0.21770303 -0.13107318 0.11970602 -0.028615303 -0.22317494 -0.09868368
00000000: 7b1d b2bd 9d9f 0f3d 073c 423e 847a 6cbe
00000010: 5d04 073e 84db 2a3e e17a 68be 87c5 2c3e
00000020: a469 ee3d 22db 2b3e bba6 6dbe 0b99 b33c
00000030: c841 713d 489a cfbd 6be4 7fbd 83b2 533e
00000040: e7c6 dfbd 6a34 083e aaf8 1d3e 5d81 4a3e
00000050: 3cae ac3c 4f4e 92bd e19a 6d3e 04fe 3ebe
00000060: 2767 243d cee7 733e bbac 6ebe 8a28 eb3d
00000070: eb70 a0bc 15c5 28be 2c3c 7f3e 251d 55be
00000080: 0905 1c3e 7a11 323e ab64 d7bd dca3 0a3e
00000090: 9fa0 fb3d 70d8 4f3e 77c5 84bd 10fa 65be
000000a0: eab6 a6bd 0d0a b0bd a36f c5bd 2472 18be
000000b0: da10 e43c 59cc f2bd 4e6c 743e fd2f 0c3e
000000c0: 4055 25be 2264 50be 507b 05be f2c9 6f3e
000000d0: ba8d 263e 6147 933d 483a 87be 323c 22be
000000e0: ff18 4bbe a39e 39be b2d8 243d b4b9 fcbd
000000f0: 5564 f63d 6385 553e 1634 83be 6930 043e
00000100: 4cb9 ae3c de96 8b3d ede5 24be 9fcc d7bd
00000110: 944e 553e aeac 7dbe db49 a5bd cbf7 2a3e
00000120: d204 02be e417 6c3d 2b24 1abe df4f 133e
00000130: a838 c9bd 2ffc b43d 7773 81be 874f 37be
00000140: 589b 4ebd 37da d73d c7f3 5ebe e2e1 dd3d
00000150: 4341 20bd fd3e ff3d 8ca8 153e 4404 1e3d
00000160: 2818 5c3e 5105 423e 1c96 ab3d 6c65 3bbe
00000170: 656c 473e 3711 7e3e 5d9d 9e3c fc99 e3bd
00000180: cedc e73d 6ffd 3cbe 2d39 52bd c19a 783d
00000190: a44b d33d c6ec eebd 15dc 18be 81ad 01bc
000001a0: fb8e 56be f3c8 c33d ef60 d83d a1a5 15be
000001b0: 0948 c03d 612f e63d 08ff 19be c585 6fbe
000001c0: 9e73 76be 5510 2bbe 507d 22be 1782 0f3e
000001d0: ed98 153e c7a6 5cbd 184c a83d c29e 233e
000001e0: 3d02 46be eb9e 943d 11e9 41bb f4b8 123d
000001f0: 5efe 5e3d 6acb 3f3e ac8b efbc db71 2e3e
00000200: cc7c 4d3e e4ec 39be 0839 4e3e b680 743e
00000210: 960c 743e 71a2 1bbe a808 1cbe 4cc0 c73d
00000220: e6f0 6cbe 076e 1ebe aeac 02bd aee3 823d
00000230: ad36 09bd fc35 42be 7d2b 99bd e716 07be
00000240: 700b 2c3e 1135 043e 79ca 22bd 219f 1abe
00000250: 5535 52bd 4dd6 1cbe cdbe 12be d2eb 743e
00000260: 0368 86be 732e 453e e132 423d 5272 b03d
00000270: 3b12 423e 49b2 2d3d 264e 323e 5b93 fbbd
00000280: 8f1f 943c 297f 67be 560a 46bd 4454 a5bd
00000290: f551 0e3c 4bb5 04be a0d7 4f3c 99be 013e
000002a0: 7ded df3d 3111 a2bd acd5 dabd 07e0 24be
000002b0: 5337 17be fe6b 75be 439d 233e 2da5 663e
000002c0: 22e7 1f3d 1571 093e 7ec4 96bd ceb1 fd3d
000002d0: bd90 c0bb 91b7 4a3e c277 0dbe 6728 ebbc
000002e0: 7d38 6fbe e7e1 bb3d 58ed 28be b0bc 2b3e
000002f0: 9c45 a63d 1058 f4bd e561 5abd 69d8 86bd
00000300: 3d2e 813d 6150 07be 430e 07bd c4cf 21be
00000310: 5aa5 083e 6376 333e 340d c73d 11b1 1a3e
00000320: e012 6e3e a904 94bd aa16 2bbe bd63 3b3e
00000330: 40b2 2a3e 5a89 0fbe 7a3e c53d 0011 393e
00000340: 82e5 41bd b095 75be ef12 403e 3be9 f7bd
00000350: ea0d 0f3e e581 693d e32a 1d3c e85b 4cbe
00000360: be61 fabd 79bd 25be bfc5 e3bb 9891 95bd
00000370: 3a10 473d 90a8 413d f254 01be 4822 edbd
00000380: 6f8a 55be e221 7a3d 0c5f fabd c1a2 5c3e
00000390: 8869 26bd 8ad5 353e f22c 97bd a71d c4bc
000003a0: 176a 95bd 1688 a43d a580 363d b57e d7bd
000003b0: 7068 6d3e 5159 4cbe 9aa4 88bd da30 cf3d
000003c0: 0697 6abe 0529 0cbe 1533 533e 896b 123e
000003d0: b50f 063c 473b d1bd 1042 06be e68d a9bd
000003e0: fb71 2fbe 1d20 7a3d 8bed 5ebe 0c38 06be
000003f0: 6e28 f53d a46a eabc f987 64be ab1a cabd

value_fc2.bias f4 [32]
-0.01380071 -0.020316154 0.035531443 -0.015693028 0.03030239 -0.030495808 -0.046432488 -0.013666052
-0.030147232 0.031418145 -0.026426313 -0.03906223 -0.025547577 0.031563 0.024663053 -0.03695195
0.01336113 0.04109061 0.00960121 0.025575237 0.038519643 -0.041523553 -0.028218446 0.027828738
-0.030836431 0.039684743 -0.05183981 -0.033507906 -0.02679695 -0.046535674 0.027564233 0.057676245
00000000: 601c 62bc 106e a6bc 6b89 113d aa8e 80bc
00000010: b83c f83c 58d2 f9bc fe2f 3ebd 94e7 5fbc
00000020: 54f7 f6bc 50b0 003d ff7b d8bc b8ff 1fbd
00000030: 2749 d1bc 3448 013d 2c0a ca3c ee5a 17bd
00000040: a4e8 5a3c a14e 283d 654e 1d3c 2983 d13c
00000050: c6c6 1d3d 9a14 2abd 5f2a e7bc 18f9 e33c
00000060: af9c fcbc 788c 223d fb55 54bd 963f 09bd
00000070: 4785 dbbc 319c 3ebd 63ce e13c ed3d 6c3d

value_fc3.weight f4 [1, 32]
-0.23000945 -0.41870964 0.24054413 -0.358847 0.2672609 -0.047104433 -0.39601332 -0.06298726
-0.31580123 0.14515097 -0.07282408 -0.38118178 -0.10813564 0.07180662 0.24699296 -0.101121865
-0.1863071 0.23891176 -0.099333905 0.36792755 0.28503227 -0.30507517 -0.027581051 0.39909354
-0.37432444 0.04670088 -0.2809396 -0.34733444 -0.30824327 -0.3329044 0.32000533 0.22906543
00000000: 9987 6bbe 1c61 d6be 3351 763e cbba b7be
00000010: 6cd6 883e 94f0 40bd 42c2 cabe 77ff 80bd
00000020: b3b0 a1be 75a2 143e cb24 95bd 422a c3be
00000030: 3876 ddbd 590f 933d b9eb 7c3e fb18 cfbd
00000040: 4ac7 3ebe 49a5 743e 936f cbbd 0061 bc3e
00000050: c0ef 913e d032 9cbe a8f1 e1bc fd55 cc3e
00000060: 74a7 bfbe 6c49 3f3d 51d7 8fbe d2d5 b1be
00000070: 10d2 9dbe 7272 aabe bdd7 a33e 2190 6a3e
