rl/spin_model_11231518/17.pt (torch_old, 159601 bytes, 12 tensors)

log_std f4 [51]
0.04918381 0.08591273 0.018929433 0.08052914 0.08783267 0.042683326 0.14332412 0.036042165
0.08359478 0.080333486 0.17099299 -0.023747167 0.026572382 0.100652955 0.14133929 0.13254781
0.080113955 0.10537496 0.06991457 0.12919416 0.08004856 0.049223125 0.118936665 0.043436404
0.1335783 0.071105935 0.17673425 0.19169976 0.094001144 0.13727093 0.0714766 0.09627883
0.07283534 -0.026199061 0.07512891 0.072854064 0.1669926 0.080643915 0.0319189 0.14922765
0.045504693 0.16118252 0.09470426 0.08454516 0.07248047 0.057504233 0.052967753 0.09641119
0.029675663 0.058123298 0.08434895
00000000: f674 493d 03f3 af3d e611 9b3c 76ec a43d
00000010: 9de1 b33d b6d4 2e3d 8fc3 123e f3a0 133d
00000020: bd33 ab3d e285 a43d c918 2f3e 6b89 c2bc
00000030: 53ae d93c 2323 ce3d 3fbb 103e 9dba 073e
00000040: c912 a43d d4ce d73d 5f2f 8f3d 794b 043e
00000050: 80f0 a33d 309e 493d 1195 f33d 5fea 313d
00000060: c0c8 083e fd9f 913d d3f9 343e f14c 443e
00000070: ac83 c03d c090 0c3e 5362 923d d62d c53d
00000080: b22a 953d 6a9f d6bc 30dd 993d 8334 953d
00000090: 1c00 2b3e a328 a53d 64bd 023d 22cf 183e
000000a0: 2163 3a3d 080d 253e 4ff4 c13d 0326 ad3d
000000b0: a470 943d 8f89 6b3d b7f4 583d 3b73 c53d
000000c0: 601a f33c b212 6e3d 24bf ac3d

policy_fc1.weight f4 [64, 261]
-0.021195583 0.03956522 -0.110099174 0.1285034 -0.099526204 0.04545268 -0.13023303 0.101593815
0.12762548 -0.053638034 -0.11952948 -0.057706796 -0.13269354 -0.1468852 -0.108195744 -0.119616285
-0.102841444 0.076478615 0.110669956 -0.020306844 0.05531938 -0.1289619 0.042472716 -0.11603078
0.06774614 -0.11586078 0.082117856 -0.038809657 0.047185242 -0.08824075 0.014380306 -0.03697999
-0.00026226282 0.011885789 -0.12731275 0.057192948 -0.03609533 0.09925182 -0.024098555 0.09277381
0.006051468 0.13687119 0.15876909 -0.032445747 0.08187268 -0.048301145 -0.03811657 -0.06420713
-0.11282185 -0.040218614 -0.13318953 0.10539988 -0.0018240369 -0.02513783 0.14292435 -0.06761715
0.10282578 -0.072739586 -0.1364853 0.053580333 0.07213398 -0.044071037 0.06970605 0.10195601
0.1032484 -0.06644352 0.02704151 -0.0004252428 0.07984037 -0.14009632 -0.015555586 -0.0901087
0.07926111 -0.003867444 -0.16450185 0.038310234 0.14829883 0.12180628 -0.037707977 0.022031942
0.12732126 -0.10635379 0.05586564 -0.07409712 -0.10012498 -0.09605431 0.12722898 -0.032522865
-0.13503097 -0.035267785 0.10180354 0.02539939 -0.030138604 -0.017080804 0.050113935 0.074620046
0.1117902 0.059117265 0.10370794 0.1807506 -0.12248693 -0.1029855 -0.089958884 -0.06738785
0.16569783 -0.06451655 0.22247577 0.0029693258 -0.053418394 0.11704889 -0.044456348 0.09219029
0.061204772 -0.007649429 -0.009455633 0.13205826 0.13563348 0.0855003 0.01794708 0.20371383
-0.0421883 -0.0544837 -0.114164814 0.18926872 -0.09209361 0.008194688 -0.029522501 0.11901688
-0.06424544 -0.034295462 -0.051082112 -0.14939997 -0.08776705 -0.06805486 -0.12894396 -0.11222015
0.06679238 -0.04953976 0.04799423 -0.114783965 -0.11702432 -0.1154981 -0.073086925 0.08706275
-0.02783641 -0.0005957285 0.023295742 0.10714151 -0.06581489 0.0049205064 -0.032065824 0.07344147
-0.00501016 -0.05485371 -0.13731577 0.05554041 -0.051411893 -0.036493003 0.08939628 -0.111645296
0.0043986836 0.007722193 0.04216126 0.12886819 0.10461842 0.005440615 0.15901124 -0.09158037
-0.115151584 -0.14100687 0.12526153 -0.09190517 -0.07627522 0.010667053 -0.0020441567 -0.14499933
-0.092314884 -0.010704097 0.043628417 0.095156185 0.06557704 0.025431773 -0.19016507 0.07865099
0.090369076 -0.13507773 0.054885775 0.003363382 -0.06411929 0.06654725 0.072166435 -0.12840292
0.12569392 0.09309121 -0.06567589 -0.17148021 0.07807674 0.07314156 -0.107447304 0.07619243
0.07951212 -0.19136715 0.10460717 -0.113939874 -0.109134786 -0.12995031 0.092891484 -0.06555749
-0.18205975 -0.10783069 -0.116477944 -0.110892475 -0.0515356 -0.034511223 0.072683 0.010777273
0.026546514 0.0933453 0.02399784 -0.0049952916 -0.1597976 -0.08886312 -0.11207024 -0.02088118
-0.09713028 -0.017001005 -0.04209091 -0.07617149 -0.0127426805 -0.11527471 -0.100006044 0.040896412
-0.042797863 -0.08628426 -0.09701351 0.0677342 0.056052472 0.06811044 -0.026240729 -0.09910594
-0.08159786 0.045001756 -0.16577074 -0.09422813 0.06974431 -0.0034863714 -0.14378932 0.116978005
0.009954825 -0.0918321 -0.14282374 -0.043363415 0.06871153 -0.07307682 -0.065481015 0.09398939
00000000: 5ca2 adbc 240f 223d ad7b e1bd 6596 033e
00000010: 65d4 cbbd 972c 3a3d cf5b 05be 6b10 d03d
00000020: 41b0 023e 8eb3 5bbd dfcb f4bd f65d 6cbd
00000030: d1e0 07be 1369 16be bb95 ddbd 62f9 f4bd
00000040: 899e d2bd d2a0 9c3d eea6 e23d 8a5a a6bc
00000050: 9396 623d 970e 04be dff7 2d3d 8ca1 edbd
00000060: 7dbe 8a3d 6b48 edbd 682d a83d e0f6 1ebd
00000070: 5045 413d 91b7 b4bd 609b 6b3c 5478 17bd
00000080: 5280 89b9 9dbc 423c 465e 02be 2743 6a3d
00000090: b2d8 13bd 8a44 cb3d 556a c5bc 3200 be3d
000000a0: 654b c63b f627 0c3e 5d94 223e d5e5 04bd
000000b0: ddac a73d 6cd7 45bd 1f20 1cbd 077f 83bd
000000c0: 240f e7bd 46bc 24bd d662 08be e4db d73d
000000d0: 8614 efba daed cdbc c35a 123e dc7a 8abd
000000e0: 5396 d23d 7ef8 94bd cdc2 0bbe 0d77 5b3d
000000f0: fbba 933d d583 34bd 0cc2 8e3d 50ce d03d
00000100: e673 d33d 8a13 88bd 2886 dd3c 1ff3 deb9
00000110: 5983 a33d 6975 0fbe dbdc 7ebc e98a b8bd
00000120: a653 a23d f174 7dbb 2c73 28be 31eb 1c3d
00000130: a6db 173e 9275 f93d ae73 1abd 557c b43c
00000140: 8160 023e 04d0 d9bd 5fd3 643d 3bc0 97bd
00000150: 530e cdbd 1fb8 c4bd 5048 023e b236 05bd
00000160: 8f45 0abe f474 10bd 607e d03d 6212 d03c
00000170: 3ce5 f6bc 0bed 8bbc 4544 4d3d 65d2 983d
00000180: 43f2 e43d f224 723d d464 d43d af16 393e
00000190: 6dda fabd 10ea d2bd 5d3c b8bd a402 8abd
000001a0: b1ac 293e 4121 84bd b0d0 633e 0599 423b
000001b0: 3fcd 5abd 54b7 ef3d dc17 36bd 43ce bc3d
000001c0: dbb1 7a3d 10a8 fabb cdeb 1abc 483a 073e
000001d0: 81e3 0a3e c81a af3d c105 933c 5c9a 503e
000001e0: a4cd 2cbd 4d2a 5fbd 3ecf e9bd a9cf 413e
000001f0: 939b bcbd 0343 063c 2cd9 f1bc 1fbf f33d
00000200: 1d93 83bd 6679 0cbd 7a3b 51bd 4efc 18be
00000210: 36bf b3bd 5960 8bbd e309 04be aed3 e5bd
00000220: 71ca 883d 34ea 4abd 9995 443d db13 ebbd
00000230: 72aa efbd 458a ecbd 99ae 95bd f44d b23d
00000240: 2f09 e4bc aa2a 1cba b6d6 be3c 026d db3d
00000250: f5c9 86bd 333c a13b 7457 03bd 7b68 963d
00000260: 452c a4bb 49ae 60bd 819c 0cbe 577e 633d
00000270: 4795 52bd b079 15bd 6615 b73d 4aa6 e4bd
00000280: d522 903b 730a fd3b 49b1 2c3d 06f6 033e
00000290: 2f42 d63d 3047 b23b d8d3 223e 7d8e bbbd
000002a0: 98d4 ebbd 1b64 10be 8f44 003e c738 bcbd
000002b0: 2f36 9cbd ddc4 2e3c 42f7 05bb b47a 14be
000002c0: 960f bdbd 3d60 2fbc b6b3 323d 3fe1 c23d
000002d0: 414d 863d 4b56 d03c a2ba 42be c513 a13d
000002e0: 6c13 b93d d151 0abe e8cf 603d 306c 5c3b
000002f0: f950 83bd ed49 883d ffcb 933d 0e7c 03be
00000300: e8b5 003e 9ba6 be3d 1581 86bd 8298 2fbe
00000310: b3e6 9f3d 3ecb 953d 550d dcbd c70a 9c3d
00000320: 40d7 a23d c0f5 43be 493c d63d 4f59 e9bd
00000330: 0f82 dfbd b211 05be e43d be3d 0143 86bd
00000340: df6d 3abe 56d6 dcbd fd8b eebd 981b e3bd
00000350: fe16 53bd a45b 0dbd d3da 943d 2993 303c
00000360: 1378 d93c d22b bf3d 1e97 c43c 8baf a3bb
00000370: fba1 23be defd b5bd 1585 e5bd 020f abbc
00000380: 3eec c6bd b145 8bbc 8567 2cbd ccff 9bbd
00000390: adc6 50bc 2615 ecbd f8cf ccbd ff82 273d
000003a0: d04c 2fbd cdb5 b0bd 05af c6bd 3ab8 8a3d
000003b0: 4797 653d 7d7d 8b3d ccf6 d6bc 0ef8 cabd
000003c0: c71c a7bd c353 383d cebf 29be aefa c0bd
000003d0: 1bd6 8e3d 9b7b 64bb 823d 13be 2a92 ef3d
000003e0: 9019 233c 7812 bcbd 6340 12be d69d 31bd
000003f0: a1b8 8c3d 4da9 95bd e91a 86bd 827d c03d

policy_fc1.bias f4 [64]
-0.0047290493 -0.0065887454 -0.0023865246 -0.0139168585 0.0013429145 0.0054184194 0.0068619316 -0.013280407
-0.028325638 -0.004514269 0.0069526825 0.0020220552 -0.018417424 0.0034331256 -0.017759059 -0.0010741705
-0.009798961 -0.0022481284 -0.003744758 -0.004737805 -0.0105807595 -0.013968133 0.008908316 -0.017823342
-0.011125529 -0.010339669 -0.0102834795 0.0065337303 -0.020420596 -0.004441604 -0.0019918284 -0.015876621
-0.034483522 -0.008218808 -0.0119456835 -0.0053470214 0.002391551 -0.013103861 0.003814244 -8.751647e-05
-0.008831118 -0.018221006 -0.031983867 0.0024430084 -0.015483064 0.010066941 8.005253e-05 -0.01402942
-0.0044755964 -0.010239057 -0.006647671 -0.01792016 -0.005003933 0.015181936 -0.015917195 -0.0050545307
-0.014196024 -0.0005835053 -0.0026791396 -0.02146672 -0.03779042 7.84297e-05 -0.0074311444 -0.0075021167
00000000: 24f6 9abb 67e6 d7bb 3d67 1cbb 8903 64bc
00000010: bc04 b03a ff8c b13b 0eda e03b 1096 59bc
00000020: 2b0b e8bc 6fec 93bb 54d3 e33b 7584 043b
00000030: 23e0 96bc 4afe 603b 727b 91bc 2ecb 8cba
00000040: d28b 20bc 5655 13bb 9d6a 75bb 973f 9bbb
00000050: ec5a 2dbc 99da 64bc 2ff4 113c 4202 92bc
00000060: da47 36bc b767 29bc 0a7c 28bc e718 d63b
00000070: 1849 a7bc e08a 91bb 5689 02bb b00f 82bc
00000080: 983e 0dbd 2ea8 06bc d4b7 43bc 1136 afbb
00000090: 91bb 1c3b 94b1 56bc 65f8 793b 0c89 b7b8
000000a0: 65b0 10bc 3844 95bc 8401 03bd e11a 203b
000000b0: adac 7dbc d0ef 243c e0e1 a738 a7db 65bc
000000c0: 06a8 92bb b8c1 27bc b5d4 d9bb 4dcd 92bc
000000d0: 08f8 a3bb a8bd 783c c764 82bc 7aa0 a5bb
000000e0: 7196 68bc 61f6 18ba 8194 2fbb fada afbc
000000f0: 21ca 1abd a07a a438 f580 f3bb 51d4 f5bb

policy_fc2.weight f4 [32, 64]
-0.1525267 0.092979416 -0.018796148 -0.15487657 0.064287215 -0.12436629 -0.09000478 -0.13409317
-0.11830782 0.15114988 0.06770668 -0.09977688 -0.081550315 0.10998444 -0.047229655 -0.075643875
-0.23265068 -0.21425739 0.12412519 0.19118871 -0.2586756 0.19474356 0.037688363 -0.15456057
-0.06380343 -0.1785381 0.14475788 -0.08342047 0.25818512 -0.02825443 -0.14001569 -0.1282215
-0.060054142 0.19916032 0.14461513 -0.1479519 -0.06448941 -0.1604583 -0.19855951 0.09855884
-0.023214333 0.25963572 0.24031772 -0.25992396 0.21125539 -0.19810739 -0.18293913 -0.07593352
0.22858761 -0.09287489 0.10772327 0.2642287 0.015421903 0.10348379 0.14472537 -0.046811078
-0.037076008 -0.11807949 0.18181497 0.043090615 -0.15033334 0.0037284305 -0.20160095 -0.045435853
0.20281133 0.016658068 -0.12204509 -0.11725478 0.19009621 -0.14700405 0.06790536 0.041898683
-0.042051267 -0.21516329 0.13938479 -0.14636384 -0.19508666 0.23797159 -0.08547738 0.17350604
-0.031904224 0.06097722 -0.01705264 0.20710398 -0.15074775 0.034121547 0.20880327 -0.06321633
0.06469602 0.10207058 0.045679133 -0.03749754 -0.16910861 0.1033817 -0.17596893 -0.12902412
0.059250817 0.20698105 0.15489462 0.0019167862 -0.14689949 0.12348002 0.14400491 -0.09801873
0.11219823 -0.21970452 -0.09941587 0.18108584 -0.16518782 -0.20194848 -0.022253638 -0.20345604
-0.00031230442 -0.13095887 -0.0394328 -0.026909536 -0.1000814 -0.02700665 -0.016696423 0.0017450859
-0.17345163 -0.086681426 -0.03204346 -0.0038022015 0.112484 0.18176077 0.033269696 0.06945792
-0.09094109 -0.16315135 -0.21814701 -0.05461204 -0.26176107 0.028211594 0.12831274 -0.023061328
0.15936965 -0.07086632 -0.11327769 0.043655034 -0.020494672 -0.0982194 0.028531147 -0.19696459
0.09168938 -0.11452009 -0.10434878 -0.27445078 0.014185555 -0.10599949 0.21823107 -0.28990945
-0.10786657 0.17048974 -0.123018354 0.043358024 0.12078753 -0.23804511 0.12983754 0.05927249
-0.10702406 -0.12480211 -0.23066697 0.04506904 -0.15553837 -0.273493 -0.119497076 0.15783043
-0.10799396 0.09813871 0.053817466 0.18430702 -0.072436325 0.1644782 -0.034445006 0.19795454
-0.05648362 -0.17426997 0.20942488 0.16723298 -0.178773 0.07346321 -0.20001382 0.08009356
0.054043185 0.16973493 0.12176048 -0.06349641 0.024980668 -0.032721877 0.21853885 0.22037604
-0.15686993 -0.20685752 -0.14239047 0.2070191 0.056292392 0.007416316 0.03702128 -0.09888087
0.037139587 0.20670344 -0.17450806 0.20490788 -0.0968711 -0.14266492 -0.1470772 -0.22391483
-0.13461767 0.14711913 -0.24895933 -0.08283029 -0.05135396 0.11562674 0.08533046 0.10990491
0.09238715 0.19373612 0.08300271 -0.20828311 -0.0897987 0.0006247227 0.12921603 0.15243927
-0.13205197 -0.0135144815 0.18337615 0.17040762 -0.10821816 -0.18146485 -0.23988153 -0.08626714
-0.16044888 -0.22679546 0.06808384 0.010620977 0.12965633 0.22014378 0.15470159 -0.022438277
-0.03270422 0.011071316 -0.21229957 -0.04814873 0.057223633 0.19757707 0.15831295 -0.2231807
-0.05564009 -0.21828245 -0.20205034 -0.102355674 0.15305156 -0.12153783 -0.14692016 0.039708793
00000000: f62f 1cbe fe6b be3d 61fa 99bc f797 1ebe
00000010: 04a9 833d c1b3 febd 6d54 b8bd b84f 09be
00000020: 5f4b f2bd 09c7 1a3e cda9 8a3d d257 ccbd
00000030: da03 a7bd 863f e13d e273 41bd 2deb 9abd
00000040: fb3b 6ebe 4a66 5bbe 5935 fe3d f9c6 433e
00000050: 2171 84be db6a 473e 1d5f 1a3d 2045 1ebe
00000060: 5fab 82bd b1d2 36be 693b 143e 5ad8 aabd
00000070: d730 843e d675 e7bc 4660 0fbe 7f4c 03be
00000080: 55fb 75bd aff0 4b3e fd15 143e b480 17be
00000090: 0613 84bd 2e4f 24be 2f53 4bbe 38d9 c93d
000000a0: fc2b bebc f9ee 843e d915 763e c114 85be
000000b0: 5553 583e aadc 4abe 6554 3bbe 0983 9bbd
000000c0: df12 6a3e 3135 bebd 059e dc3d fc48 873e
000000d0: 26ac 7c3c 4fef d33d e332 143e f9bc 3fbd
000000e0: 03dd 17bd a9d3 f1bd b42d 3a3e c97f 303d
000000f0: fcf0 19be af58 743b 7b70 4ebe f21a 3abd
00000100: c6ad 4f3e 8076 883c c7f2 f9bd 4623 f0bd
00000110: 95a8 423e 3b88 16be f711 8b3d f49d 2b3d
00000120: f33d 2cbd c453 5cbe e3ba 0e3e 67e0 15be
00000130: ccc4 47be d3ae 733e c40e afbd 91ab 313e
00000140: 01ae 02bd 40c3 793d fab1 8bbc 1113 543e
00000150: 9e5d 1abe 09c3 0b3d 86d0 553e 9077 81bd
00000160: 597f 843d 610a d13d 0b1a 3b3d 0597 19bd
00000170: cf2a 2dbe c9b9 d33d 3331 34be e61e 04be
00000180: fcb0 723d d7f2 533e b29c 1e3e ac3c fb3a
00000190: d26c 16be 18e3 fc3d 0676 133e 0bbe c8bd
000001a0: 30c8 e53d 39fa 60be 8c9a cbbd 916e 393e
000001b0: ff26 29be 95cb 4ebe 434d b6bc c856 50be
000001c0: cabc a3b9 151a 06be 4a84 21bd 6371 dcbc
000001d0: 7af7 ccbd 0d3d ddbc f0c6 88bc 5ebb e43a
000001e0: 4e9d 31be 0886 b1bd 0140 03bd 5b2e 79bb
000001f0: 035e e63d 7f1f 3a3e ce45 083d f43f 8e3d
00000200: 523f babd 2611 27be ee61 5fbe e0b0 5fbd
00000210: 8c05 86be 001c e73c 6a64 033e 1ceb bcbc
00000220: cc31 233e 5c22 91bd 22fe e7bd 9fcf 323d
00000230: 71e4 a7bc 4127 c9bd 27ba e93c 16b1 49be
00000240: a4c7 bb3d 8289 eabd d0b4 d5bd d084 8cbe
00000250: 886a 683c 4316 d9bd f777 5f3e 036f 94be
00000260: 26e9 dcbd dd94 2e3e 0cf1 fbbd 2f98 313d
00000270: 745f f73d 19c2 73be 22f4 043e b6c7 723d
00000280: 6e2f dbbd 4098 ffbd f633 6cbe 509a 383d
00000290: 7345 1fbe 4607 8cbe e2ba f4bd 4d9e 213e
000002a0: f02b ddbd f3fc c83d b46f 5c3d fbba 3c3e
000002b0: 7f59 94bd f96c 283e 3516 0dbd 98b4 4a3e
000002c0: 5e5b 67bd d473 32be 7a73 563e 1f3f 2b3e
000002d0: 4510 37be e173 963d 6cd0 4cbe 1808 a43d
000002e0: 635c 5d3d fece 2d3e 8f5d f93d 680a 82bd
000002f0: 42a4 cc3c 6007 06bd a6c8 5f3e 42aa 613e
00000300: 83a2 20be 75d2 53be cfce 11be d1fc 533e
00000310: da92 663d 9104 f33b a0a3 173d 0e82 cabd
00000320: ae1f 183d 11aa 533e 3eb2 32be 5fd3 513e
00000330: 5b64 c6bd c116 12be 689b 16be ee49 65be
00000340: 37d9 09be 66a6 163e 32ef 7ebe eda2 a9bd
00000350: 8858 52bd b6cd ec3d bcc1 ae3d d315 e13d
00000360: 7935 bd3d c362 463e 53fd a93d 2b48 55be
00000370: 61e8 b7bd 6ec4 233a 3551 043e 0a19 1c3e
00000380: a238 07be d86b 5dbc f5c6 3b3e 567f 2e3e
00000390: 7ca1 ddbd ecd1 39be 81a3 75be d4ac b0bd
000003a0: b64c 24be 123d 68be 8a6f 8b3d 9b03 2e3c
000003b0: a1c4 043e 5f6d 613e 186a 1e3e 7ad0 b7bc
000003c0: dcf4 05bd 7764 353c 0f65 59be 9a37 45bd
000003d0: 5463 6a3d a551 4a3e ca1c 223e 7b89 64be
000003e0: dde6 63bd 6f85 5fbe 49e6 4ebe da9f d1bd
000003f0: 8cb9 1c3e d3e8 f8bd 3d72 16be b0a5 223d

policy_fc2.bias f4 [32]
0.0033713307 0.03222827 0.0028097448 0.012415786 0.008272129 0.0042389976 -0.0074810553 0.024633853
0.014732576 0.019213356 -0.022410365 -0.0047223666 0.0041965456 -0.001128989 -0.0063787643 -0.049886696
0.00048196226 0.0031503201 -0.022769678 0.012580821 -0.020831836 0.009490733 0.037433363 -0.00614059
0.005246739 0.0061819097 0.0036401618 -0.0012090722 -0.009681806 -0.0014938622 -0.028824931 0.0011461189
00000000: 8bf1 5c3b ca01 043d b223 383b 956b 4b3c
00000010: d387 073c 4ae7 8a3b a423 f5bb efcc c93c
00000020: e760 713c 5465 9d3c f195 b7bc 15be 9abb
00000030: 2d83 893b 96fa 93ba f404 d1bb fe55 4cbd
00000040: e1af fc39 9a75 4e3b 7a87 babc ca1f 4e3c
00000050: 87a7 aabc 057f 1b3c ba53 193d 0137 c9bb
00000060: d6ec ab3b 9e91 ca3b c88f 6e3b bb79 9eba
00000070: 70a0 1ebc b3cd c3ba 4322 ecbc 5e39 963a

policy_fc3.weight f4 [51, 32]
-0.033695813 0.07933235 -0.21545097 0.14851408 -0.17794085 0.092214145 0.0549197 0.104481585
0.31806645 0.25365147 0.15148963 -0.015125153 -0.064811595 -0.16326632 -0.21633847 0.063045725
0.06144963 0.18689136 0.05583055 -0.20490679 -0.24299783 -0.12069318 0.17829686 -0.10064309
0.15828872 0.008520382 -0.18343881 0.00072306383 -0.017473344 -0.12401355 -0.13566393 -0.15409364
0.19796793 0.024973715 0.16111949 0.16500014 0.21121477 -0.16359204 -0.18916218 -0.16189238
-0.18388398 0.038557872 0.19041029 0.16662534 -0.056371696 -0.0479256 0.1545439 -0.10494005
0.25245056 0.07499492 0.11242731 -0.0049488936 -0.18204407 -0.028056791 0.2562037 0.15154113
-0.06560372 0.112660706 0.027020402 0.012218237 -0.29041514 -0.14211291 -0.059001267 0.15520683
-0.04190518 0.07829371 -0.22089215 0.14835702 -0.20225799 0.18285117 0.18718062 -0.16884641
-0.13698225 0.11841176 -0.13063642 -0.18384057 -0.08984491 0.14255424 -0.11908304 -0.18834883
-0.20012134 0.23757552 0.22965679 0.02069079 -0.13661158 0.14780955 0.058247354 -0.018140478
-0.014118015 0.30034173 0.2770418 -0.088512205 0.18801701 0.12928155 0.2330112 0.009233545
-0.2000326 0.06831947 0.09124606 -0.2181955 0.13111694 0.17160986 0.08565434 -0.051738102
0.18336184 0.121194676 0.118357584 0.007862197 -0.12162327 0.1979983 0.21786804 -0.06449587
-0.20135976 -0.07452376 0.17345807 0.18301041 -0.10106348 -0.10732605 -0.1512705 0.110155225
0.24136694 -0.10627618 -0.19345191 0.24358778 -0.09422306 0.004340657 -0.25943542 -0.042519327
-0.12904572 0.20051928 0.0019574899 0.08851594 0.06852201 0.1354326 0.2020343 0.12307116
-0.2697399 0.17259048 0.13708955 0.109890275 0.11809189 -0.29674947 0.075866155 -0.16920286
-0.19088182 -0.21503085 -0.2015874 0.22728339 -0.17437558 0.14241749 0.05721047 0.08882033
0.20878255 0.21641517 -0.20302147 0.23357476 -0.064183205 -0.09259148 -0.034816477 -0.18566112
0.18643624 0.23227291 0.14847766 0.18603487 -0.21003781 -0.048128325 -0.25131968 0.17364468
-0.053219013 -0.23335433 0.05921296 0.06480913 0.0041034548 0.061889496 0.22939876 -0.12224214
-0.056570843 0.120036356 -0.32501876 0.13817526 -0.09683909 0.1543721 0.12911181 0.15638834
0.21283843 -0.2304408 0.040753495 -0.28497308 0.19885263 0.0127764875 0.053036705 -0.25618938
0.12474421 0.095884874 0.09255549 0.21614584 -0.11228467 0.1312745 -0.19649667 -0.09834862
-0.2766261 0.25829303 -0.12718233 -0.08846153 0.02527995 0.22856413 -0.115136966 -0.14234537
0.024513705 -0.05275631 -0.017805384 -0.15247071 -0.21946016 -0.18884015 0.03961636 -0.016074846
-0.07656271 0.102075644 0.13683912 -0.024446173 0.144473 0.17534626 0.25089473 -0.056215566
-0.056293156 0.081109114 0.21032129 -0.17332059 -0.14734195 0.061611086 0.1927687 0.22498606
0.119166374 -0.14872228 -0.041514624 -0.13700438 0.08463569 -0.25108644 0.17099874 -0.10119524
-0.19728383 0.035466265 0.22425698 0.18375407 -0.0009236869 0.03990537 0.05494087 -0.2517674
-0.1652657 -0.07931566 -0.112016566 -0.2465616 -0.013878364 0.103923984 -0.29060313 -0.13295557
00000000: 9f04 0abd 0079 a23d 2e9f 5cbe 1314 183e
00000010: 2036 36be c5da bc3d 7bf3 603d 71fa d53d
00000020: 9bd9 a23e 9bde 813e 1920 1b3e 7dcf 77bc
00000030: f1bb 84bd 492f 27be d587 5dbe 1e1e 813d
00000040: 9bb2 7b3d 7360 3f3e 93ae 643d 16d3 51be
00000050: 6cd4 78be fc2d f7bd 7493 363e f71d cebd
00000060: 7016 223e 1399 0b3c 62d7 3bbe fe8b 3d3a
00000070: 4224 8fbc d1fa fdbd 7ceb 0abe b9ca 1dbe
00000080: 1bb8 4a3e ad95 cc3c 82fc 243e ccf5 283e
00000090: af48 583e ac84 27be bbb3 41be 1ec7 25be
000000a0: 154c 3cbe dcee 1d3d eafa 423e d59f 2a3e
000000b0: 02e6 66bd a24d 44bd c240 1e3e cfea d6bd
000000c0: 3341 813e f096 993d 4a40 e63d 542a a2bb
000000d0: c369 3abe 5bd7 e5bc 222d 833e 992d 1b3e
000000e0: 3e5b 86bd a8ba e63d e459 dd3c 002f 483c
000000f0: 4bb1 94be 0c86 11be 50ab 71bd 8aee 1e3e
00000100: c4a4 2bbd 7458 a03d 8d31 62be e7ea 173e
00000110: b81c 4fbe 563d 3b3e 47ac 3f3e 13e6 2cbe
00000120: 1345 0cbe dd81 f23d 8ec5 05be b440 3cbe
00000130: 9c00 b8bd bdf9 113e cfe1 f3bd 84de 40be
00000140: 9cec 4cbe ff46 733e 262b 6b3e bb7f a93c
00000150: e8e3 0bbe 635b 173e c794 6e3d 579b 94bc
00000160: 3f4f 67bc 64c6 993e 6cd8 8d3e e345 b5bd
00000170: 8887 403e 6262 043e 7d9a 6e3e 4b48 173c
00000180: 59d5 4cbe 14eb 8b3d 37df ba3d a46e 5fbe
00000190: 8543 063e 7fba 2f3e 8b6b af3d 55eb 53bd
000001a0: 35c3 3b3e ea34 f83d 7665 f23d 72d0 003c
000001b0: 9f15 f9bd 11c0 4a3e cd18 5f3e 6916 84bd
000001c0: 4131 4ebe ea9f 98bd fe9e 313e 1567 3b3e
000001d0: 5ffa cebd c3cd dbbd a7e6 1abe 1099 e13d
000001e0: e528 773e 53a7 d9bd 4218 46be 136f 793e
000001f0: 05f8 c0bd 123c 8e3b b8d4 84be bf28 2ebd
00000200: 9024 04be ed54 4d3e 3b49 003b d847 b53d
00000210: 4555 8c3d d8ae 0a3e 14e2 4e3e bb0c fc3d
00000220: 591b 8abe 8fbb 303e 3461 0c3e 270e e13d
00000230: 29da f13d 8cef 97be b75f 9b3d 8443 2dbe
00000240: 8676 43be 0c31 5cbe ed6c 4ebe fabc 683e
00000250: 838f 32be e4d5 113e 8755 6a3d 6fe7 b53d
00000260: 18cb 553e f09b 5d3e dce4 4fbe 392e 6f3e
00000270: 7c72 83bd 9aa0 bdbd b99b 0ebd f31d 3ebe
00000280: 24e9 3e3e f3d8 6d3e 870a 183e ed7f 3e3e
00000290: 2714 57be 3522 45bd f9ac 80be e9cf 313e
000002a0: 2efc 59bd 70f4 6ebe 4a89 723d a6ba 843d
000002b0: 4676 863b d77f 7d3d 82e7 6a3e 165a fabd
000002c0: d4b6 67bd 9fd5 f53d dc68 a6be d17d 0d3e
000002d0: 9353 c6bd b813 1e3e e335 043e 4424 203e
000002e0: 51f2 593e acf8 6bbe 23ed 263d fee7 91be
000002f0: 06a0 4b3e 7954 513c 043d 593d 412b 83be
00000300: e479 ff3d 4a5f c43d bc8d bd3d 5655 5d3e
00000310: 81f5 e5bd d36c 063e 6c36 49be 006b c9bd
00000320: f0a1 8dbe fc3e 843e 163c 02be 522b b5bd
00000330: e617 cf3c b70c 6a3e eecc ebbd fcc2 11be
00000340: f7d0 c83c 0017 58bd 99dc 91bc 4821 1cbe
00000350: 2aba 60be 505f 41be c444 223d 65af 83bc
00000360: e9cc 9cbd 090d d13d 8e1f 0c3e 5743 c8bc
00000370: bbf0 133e f88d 333e 4675 803e 4b42 66bd
00000380: a793 66bd 891c a63d 775e 573e f47a 31be
00000390: cfe0 16be e85b 7c3d 2865 453e bf62 663e
000003a0: 800d f43d a74a 18be 3d0b 2abd e04a 0cbe
000003b0: 7a55 ad3d 678e 80be 4b1a 2f3e 733f cfbd
000003c0: c604 4abe 1345 113d 9fa3 653e 072a 3c3e
000003d0: 9423 72ba d073 233d ad09 613d a8e7 80be
000003e0: 693b 29be 4070 a2bd f168 e5bd a57a 7cbe
000003f0: 1462 63bc 19d6 d43d efc9 94be 8125 08be

policy_fc3.bias f4 [51]
-0.018261109 0.00034638215 -0.060899388 0.07598858 0.042388704 0.004431459 0.013286675 -0.048589215
-0.011974368 -0.040595554 -0.040719766 0.047907885 -0.04792086 0.022061387 0.026354067 0.006412211
0.03425346 -0.024613254 0.045777764 -0.003234057 0.023274098 0.07249825 0.0063349875 -0.05714313
0.0055823796 0.008465164 -0.006812465 -0.057997398 -0.009658855 0.037045516 0.026849225 -0.047897108
0.01141327 -0.047387987 0.024682492 -0.016851947 -0.028316876 0.046640895 0.020409627 -0.035304736
0.013429744 -0.06977708 0.023049435 -0.024814194 0.052874755 0.017238606 -0.02856141 -0.038796965
-0.0040150983 0.02125725 -0.014263278
00000000: 5298 95bc a09a b539 a371 79bd e79f 9b3d
00000010: c79f 2d3d c635 913b 5bb0 593c 7c05 47bd
00000020: 2430 44bc 8647 26bd c5c9 26bd 0f3b 443d
00000030: aa48 44bd 15ba b43c 7ce4 d73c 861d d23b
00000040: 5b4d 0c3d bca1 c9bc 7781 3b3d 79f2 53bb
00000050: 52a9 be3c f679 943d ba95 cf3b ea0e 6abd
00000060: 65ec b63b 79b1 0a3c 193b dfbb ae8e 6dbd
00000070: 2d40 1ebc 0abd 173d e8f2 db3c c22f 44bd
00000080: b9fe 3a3c e819 42bd f032 ca3c 180d 8abc
00000090: cbf8 e7bc 860a 3f3d 1732 a73c b39b 10bd
000000a0: 6e08 5c3c 49e7 8ebd 2bd2 bc3c 2347 cbbc
000000b0: 3393 583d fa37 8d3c 9ef9 e9bc 91e9 1ebd
000000c0: 1691 83bb af23 ae3c 86b0 69bc

value_fc1.weight f4 [64, 261]
0.060162794 -0.0038643628 -0.09882774 -0.06593939 -0.002655385 0.12553337 0.006051939 -0.097799495
-0.0132355355 -0.07520199 -0.30074143 0.0959141 -0.01206422 -0.23918255 0.029711206 -0.2537736
-0.14987813 0.14127342 0.04835563 -0.09655051 -0.050372604 0.15076667 -0.12507758 0.030268183
-0.044627205 -0.1646937 -0.012847355 -0.027812285 -0.026505461 -0.04776447 0.092257425 -0.16109453
-0.086925365 0.2083016 -0.13222656 -0.09279449 0.10580609 0.008972986 -0.009844537 0.24204147
0.041170463 0.020253802 0.12025488 0.06411494 0.060764924 -0.11382008 -0.087194145 -0.065505356
-0.021893898 0.06307267 0.040005304 0.13432206 0.10931198 0.03086269 0.065062545 -0.033371195
-0.11958356 -0.08710403 -0.16271427 -0.10885881 0.118624516 -0.029216392 -0.0043588877 -0.10865633
0.02089122 -0.074252784 0.12325672 0.006726539 0.08910537 -0.08011049 0.23411626 0.034725748
0.0018192851 0.16495924 0.04193934 -0.017255774 -0.12273616 0.139548 0.11976525 0.20507981
0.015731804 0.11420081 -0.14094563 -0.20269585 -0.1438134 0.21642442 -0.21591517 -0.13552257
-0.28269684 -0.03807079 0.06963409 -0.00503152 0.017693883 -0.056784883 0.13354644 0.04034911
-0.025045075 0.15397166 0.061983265 -0.30998963 -0.10091339 0.18204318 0.015383628 -0.12774071
-0.1320426 0.012148602 0.007829861 -0.065118454 0.16943133 0.12914057 -0.17654707 0.0031923759
0.047387697 0.045401122 0.1792924 0.06517233 0.1971613 0.0025537098 0.1725416 -0.023634767
0.068171546 0.024048017 0.15953846 0.053540803 0.03951057 -0.058529958 0.010649857 -0.0035737695
0.003523972 -0.22768858 -0.02079779 0.081258245 -0.023746353 -0.08776886 -0.006444466 0.042287428
-0.16869688 0.08403904 0.026886439 -0.20424406 -0.020869648 0.079693705 -0.0629045 0.09631276
-0.1306245 -0.08084909 0.052324608 0.10402873 0.13939199 -0.13009025 0.06828536 0.09730761
0.10467875 -0.14887992 -0.12732266 -0.03072579 -0.054577988 -0.05477768 0.13667199 0.12682901
-0.10819023 0.06676546 0.083363794 0.02456728 -0.08828418 0.11176064 -0.050175555 0.08809351
0.099042304 0.0764797 0.04823808 0.047720455 0.00018220313 0.05231361 -0.055842225 0.05171504
0.09106806 -0.016126359 0.087533616 -0.13956879 -0.05675007 -0.10147565 -0.06449564 0.11724112
0.009175306 0.051182553 0.015539953 0.11412826 -0.06830792 -0.01811204 0.0006614317 -0.11912919
0.027778326 -0.10867885 -0.09090374 0.12474824 -0.026713764 -0.06530239 0.14538386 0.024532575
-0.15221807 -0.115115866 0.08949839 0.053730305 0.087865375 0.09315155 0.07738885 0.020283835
0.051421028 0.039757412 0.06251493 0.11524763 -0.017539639 -0.021805845 -0.016357541 0.020939544
-0.02848088 0.052145086 0.076143146 0.029604107 -0.017739484 -0.07976112 0.11535132 0.13655941
0.12638934 -0.10581971 0.04596936 -0.033456482 -0.15556318 0.041423198 -0.02679644 0.00011731343
0.015540816 0.039092418 -0.016861446 0.009521202 -0.06812548 -0.035557546 0.20468128 -0.016538426
-0.12299261 0.04518269 -0.11557122 -0.0139683895 0.054473087 -0.16063096 0.04754256 0.21665078
0.085593075 -0.055091713 -0.06489086 0.1164944 -0.12926231 0.040618036 0.09466945 -0.09641584
00000000: 436d 763d 4041 7dbb 3366 cabd 3b0b 87bd
00000010: f805 2ebb d28b 003e 584f c63b 1a4b c8bd
00000020: dcd9 58bc 8003 9abd c8fa 99be 9d6e c43d
00000030: 02a9 45bc 45ec 74be ea64 f33c 9dee 81be
00000040: a779 19be fba9 103e 8e10 463d 46bc c5bd
00000050: 8153 4ebd 9462 1a3e 5614 00be fbf4 f73c
00000060: 04cb 36bd 77a5 28be b67d 52bc 97d6 e3bc
00000070: fb21 d9bc ada4 43bd 76f1 bc3d f7f5 24be
00000080: ed05 b2bd 044d 553e 6666 07be 0a0b bebd
00000090: ddb0 d83d 6e03 133c fb4a 21bc b8d9 773e
000000a0: 5ca2 283d 4deb a53c 3148 f63d b24e 833d
000000b0: a4e4 783d 811a e9bd d892 b2bd ac27 86bd
000000c0: d55a b3bc 3e2c 813d 9adc 233d b98b 093e
000000d0: f6de df3d c1d3 fc3c 833f 853d 3cb0 08bd
000000e0: 3ae8 f4bd 9963 b2bd 929e 26be 5ef1 debd
000000f0: 69f1 f23d 3757 efbc 00d5 8ebb 3687 debd
00000100: 1024 ab3c d811 98bd 056e fc3d 4d6a dc3b
00000110: e07c b63d f810 a4bd 2cbc 6f3e 963c 0e3d
00000120: 1475 ee3a 13eb 283e 96c8 2b3d fb5b 8dbc
00000130: 195d fbbd ace5 0e3e 7c47 f53d 7100 523e
00000140: fcdf 803c 1de2 e93d 0d54 10be 808f 4fbe
00000150: d243 13be 5d9e 5d3e de18 5dbe 6ec6 0abe
00000160: a4bd 90be 1ef0 1bbd 519c 8e3d 73df a4bb
00000170: c3f2 903c 4497 68bd 66c0 083e 1c45 253d
00000180: 542b cdbc bfaa 1d3e 2ae2 7d3d f6b6 9ebe
00000190: aeab cebd 8769 3a3e 9d0b 7c3c 76ce 02be
000001a0: 2d36 07be ee0a 473c d148 003c d35c 85bd
000001b0: 687f 2d3e 6d3d 043e c1c8 34be 2e37 513b
000001c0: 9a19 423d 87f6 393d 6d98 373e 1279 853d
000001d0: a7e4 493e 245c 273b bfae 303e b39d c1bc
000001e0: 869d 8b3d 5900 c53c 0d5e 233e 9a4d 5b3d
000001f0: d6d5 213d 1cbd 6fbd bd7c 2e3c e735 6abb
00000200: 70f2 663b 3227 69be 2060 aabc b96a a63d
00000210: b687 c2bc 29c0 b3bd 192c d3bb 9535 2d3d
00000220: e0be 2cbe a91c ac3d f340 dc3c 5b25 51be
00000230: d3f6 aabc 7436 a33d 13d4 80bd a03f c53d
00000240: 6ec2 05be 3594 a5bd 5452 563d 040d d53d
00000250: c6bc 0e3e 6136 05be 32d9 8b3d 3649 c73d
00000260: d061 d63d fa73 18be df60 02be a7b4 fbbc
00000270: 2b8d 5fbd 905e 60bd bef3 0b3e 77df 013e
00000280: d792 ddbd 54bc 883d a3ba aa3d 5241 c93c
00000290: 56ce b4bd c3e2 e43d e284 4dbd 5f6a b43d
000002a0: b1d6 ca3d 64a1 9c3d 4b95 453d 8676 433d
000002b0: c80d 3f39 cc46 563d d1ba 64bd 26d3 533d
000002c0: e481 ba3d 6d1b 84bc d344 b33d 1feb 0ebe
000002d0: c372 68bd 77d2 cfbd 4a16 84bd 1d1c f03d
000002e0: 0654 163c cca4 513d 499b 7e3c 14bc e93d
000002f0: 06e5 8bbd b35f 94bc ee63 2d3a 01fa f3bd
00000300: 5f8f e33c 0493 debd bd2b babd 017c ff3d
00000310: d3d6 dabc 42bd 85bd 82df 143e 8af8 c83c
00000320: 0edf 1bbe dec1 ebbd ef4a b73d 4f14 5c3d
00000330: c3f2 b33d 3dc6 be3d 0c7e 9e3d 492a a63c
00000340: db9e 523d abd8 223d d407 803d f306 ec3d
00000350: 4aaf 8fbc 2ca2 b2bc 4000 86bc 6889 ab3c
00000360: bc50 e9bc 1696 553d f0f0 9b3d 5084 f23c
00000370: 6552 91bc cc59 a3bd 503d ec3d 3bd6 0b3e
00000380: 356c 013e 01b8 d8bd 5e4a 3c3d aa09 09bd
00000390: f44b 1fbe 5fab 293d 3584 dbbc 2b06 f638
000003a0: e89e 7e3c 5f1f 203d 0421 8abc d1fe 1b3c
000003b0: 5f85 8bbd caa4 11bd f897 513e 987b 87bc
000003c0: 8de3 fbbd 7c11 393d 9bb0 ecbd acdb 64bc
000003d0: 2c1f 5f3d 717c 24be fdbb 423d b4d9 5d3e
000003e0: 6c4b af3d d9a7 61bd 80e5 84bd 9e94 ee3d
000003f0: 575d 04be 195f 263d 0ee2 c13d ab75 c5bd

value_fc1.bias f4 [64]
-0.015835349 0.008530441 0.14929816 -0.033528134 -0.082624145 -0.032899678 0.08757462 0.0049928036
0.073815666 0.016513154 0.031469993 0.06575897 -0.05667833 -0.03965782 0.03814203 0.04458915
0.024055326 -0.025941886 0.10061587 -0.12510282 -0.0695645 -0.06545985 0.07172053 0.13956723
0.0773822 -0.14068002 0.12538067 0.07479327 0.099984035 0.08093179 0.005959421 0.139496
0.055669054 0.10160286 0.107197315 0.027188886 0.0019654746 0.061398968 0.09145317 0.15116625
0.075211376 -0.07751593 -0.009927471 -0.028468087 0.10028846 -0.110023886 0.015757743 -0.041298546
-0.060760792 0.08486696 0.11419591 0.021820359 -0.1438308 0.13101658 -0.0015279322 0.01377705
-0.03836532 0.16801333 0.032077122 -0.03649672 0.14179201 -0.12384738 -0.05767521 0.2469052
00000000: 22b9 81bc 43c3 0b3c 9ee1 183e cc54 09bd
00000010: d936 a9bd d0c1 06bd 535a b33d ac9a a33b
00000020: ab2c 973d 9846 873c aee6 003d a4ac 863d
00000030: 8927 68bd 3d70 22bd d13a 1c3d 1da3 363d
00000040: ad0f c53c 1484 d4bc b10f ce3d f41a 00be
00000050: d577 8ebd d00f 86bd 37e2 923d b6ea 0e3e
00000060: 8f7a 9e3d 6c0e 10be ca63 003e 372d 993d
00000070: 6ec4 cc3d 91bf a53d 3f47 c33b 0ad8 0e3e
00000080: 3c05 643d 2915 d03d 448a db3d 3abb de3c
00000090: 31cf 003b 7c7d 7b3d cd4b bb3d 53cb 1a3e
000000a0: 6c08 9a3d acc0 9ebd d5a6 22bc e835 e9bc
000000b0: 0964 cd3d 3454 e1bd 6216 813c aa28 29bd
000000c0: 4fe0 78bd bbce ad3d 8cdf e93d 9cc0 b23c
000000d0: 6248 13be 3629 063e e644 c8ba 23b9 613c
000000e0: f424 1dbd b00b 2c3e 4d63 033d 967d 15bd
000000f0: ed31 113e b2a3 fdbd d73c 6cbd b7d4 7c3e

value_fc2.weight f4 [32, 64]
0.1762554 -0.09507179 0.1883806 0.04371729 0.2327267 -0.14891668 -0.25705492 0.14637178
0.005379428 0.02533312 0.30631018 0.15003486 0.13665366 0.19633323 0.16872327 0.3416316
-0.12792955 -0.13228627 0.309534 0.09979854 0.14005503 0.20556776 0.08141936 0.016971547
0.2813505 0.29411095 -0.13252138 0.18413402 0.022934046 0.014907214 -0.15957728 0.0067625325
-0.046453606 0.22616005 0.38435772 -0.15101576 0.09609938 0.07423628 -0.036869034 0.028930211
-0.23788957 0.029850213 0.15908313 0.29821143 -0.1062029 0.13829742 0.13837156 0.18526387
0.38545793 -0.12172194 0.30602905 -0.25690913 -0.059009273 0.21436413 -0.18821333 -0.16796544
0.07117845 -0.071406014 0.08306057 0.23537515 0.2115307 -0.122817926 0.1877252 -0.06740193
0.008113263 0.058475975 -0.13864931 -0.21355693 -0.22967166 -0.06582737 0.04868574 -0.16895568
0.1633073 -0.24644728 -0.12160351 -0.08720909 0.14726867 0.12281357 -0.09172097 -0.2188824
0.18628366 -0.25450042 0.11998444 -0.24119478 -0.038751528 -0.13458611 0.20960821 0.138756
0.20530464 -0.21725322 0.1992754 -0.21533464 -0.23467271 -0.060858633 0.10011695 -0.08402166
0.14851427 -0.011221476 -0.035038322 -0.016471915 -0.17973472 -0.25412452 -0.07513091 -0.033947937
0.08523687 0.014597846 0.027439672 0.08712563 -0.08466092 0.25663635 0.07189453 0.07983708
0.07016567 0.015783854 -0.07705703 0.17286849 -0.18124084 -0.07082233 -0.30212232 -0.2326634
0.13189746 -0.21884969 0.04156161 -0.06018865 -0.09257466 0.07121486 -0.20338325 0.22244719
0.20562533 0.006895661 -0.21169882 -0.110783435 0.14060111 -0.13030328 -0.14909926 0.23047186
0.12068375 0.090601906 -0.050274774 0.08175185 -0.1952069 -0.035133023 0.08461244 0.089335345
-0.010967431 -0.21198292 -0.1689754 -0.11174829 -0.0061049596 -0.078872055 -0.015528157 -0.21946977
0.000517036 0.14427319 -0.25183046 -0.24190749 0.062222946 0.14515094 0.21125217 -0.19970115
-0.17547771 0.10370986 -0.04785516 -0.06838797 -0.028920764 -0.08122774 0.2044433 -0.014713982
0.205585 -0.31409737 0.18992266 -0.25557977 -0.1766927 0.059563104 0.08405722 0.058896136
0.0597792 -0.048763834 0.1319765 -0.22942533 0.041633874 -0.18721406 -0.15885799 -0.18197735
-0.18488736 0.10847565 0.09373535 0.18310992 0.065962315 -0.20920444 0.054240264 -0.035256725
-0.11768004 0.05159408 0.19368017 0.14279793 -0.14843129 0.19577508 0.120204665 0.16578631
-0.019317674 0.13279025 0.20595126 -0.22117983 0.13034159 0.14378466 0.091703594 0.0014709249
-0.25687253 -0.36586636 -0.18404217 -0.31000778 0.07794064 0.2618214 -0.17359921 0.07836921
0.07524668 0.044807617 0.26755598 0.15828565 0.19144344 0.23415165 -0.15600467 0.10746135
0.24528776 -0.15606198 -0.17857568 -0.07165741 0.13715746 -0.1018751 0.06394019 -0.06903858
0.087581836 -0.2205229 0.24988297 -0.07362599 0.19316703 0.18136543 0.094587065 0.02176698
-0.22470503 -0.03229084 -0.16020218 0.056020565 -0.20838283 -0.22600517 0.16421556 -0.08778358
0.05310733 -0.0467095 -0.06630979 -0.091941565 0.21147418 -0.15986185 -0.1290356 0.0997484
00000000: 4c7c 343e 00b5 c2bd d8e6 403e e710 333d
00000010: e84f 6e3e 9d7d 18be b49c 83be 7ce2 153e
00000020: ea45 b03b 6787 cf3c b0d4 9c3e bda2 193e
00000030: f0ee 0b3e 940b 493e cbc5 2c3e 56ea ae3e
00000040: f7ff 02be 0d76 07be 3e7b 9e3e 2d63 cc3d
00000050: 966a 0f3e 5b80 523e 32bf a63d ea07 8b3c
00000060: 2c0d 903e b695 963e afb3 07be a18d 3c3e
00000070: 2ee0 bb3c 633d 743c 3a68 23be 3c98 dd3b
00000080: 2346 3ebd 8096 673e 89ca c43e e0a3 1abe
00000090: c0cf c43d 3109 983d fc03 17bd 0dff ec3c
000000a0: 5399 73be 6f88 f43c b0e6 223e 2baf 983e
000000b0: e880 d9bd d79d 0d3e 46b1 0d3e d0b5 3d3e
000000c0: be5a c53e 5a49 f9bd d7af 9c3e 9889 83be
000000d0: b5b3 71bd 4582 5b3e ffba 40be 22ff 2bbe
000000e0: 02c6 913d 513d 92bd a91b aa3d 2f06 713e
000000f0: 819b 583e f787 fbbd 093b 403e 060a 8abd
00000100: 7eed 043c 8184 6f3d 16fa 0dbe abae 5abe
00000110: 0c2f 6bbe 80d0 86bd b36a 473d b802 2dbe
00000120: 073a 273e ad5c 7cbe 430b f9bd ae9a b2bd
00000130: 99cd 163e ae85 fb3d 34d8 bbbd b522 60be
00000140: 25c1 3e3e e14d 82be 67ba f53d c4fb 76be
00000150: ecb9 1ebd f1d0 09be 89a3 563e 0e16 0e3e
00000160: 613b 523e a177 5ebe da0e 4c3e af80 5cbe
00000170: 0b4e 70be e746 79bd 1e0a cd3d 8c13 acbd
00000180: 2014 183e 48da 37bc 5884 0fbd 1cf0 86bc
00000190: 610c 38be 9c1c 82be 3cde 99bd fe0c 0bbd
000001a0: ab90 ae3d ce2b 6f3c 2ac9 e03c ec6e b23d
000001b0: b462 adbd d765 833e 703d 933d 9f81 a33d
000001c0: 05b3 8f3d 244d 813c 13d0 9dbd 7004 313e
000001d0: 3397 39be 4c0b 91bd c7af 9abe 503f 6ebe
000001e0: 2110 073e 221a 60be 823c 2a3d 6088 76bd
000001f0: c997 bdbd 19d9 913d b343 50be 32c9 633e
00000200: 728f 523e fff4 e13b 93c7 58be 6de2 e2bd
00000210: bdf9 0f3e 396e 05be 7aad 18be d100 6c3e
00000220: 0b29 f73d 7e8d b93d ecec 4dbd 846d a73d
00000230: 51e4 47be a5e7 0fbd 4949 ad3d 73f5 b63d
00000240: bdb0 33bc 0d12 59be e307 2dbe 4adc e4bd
00000250: 1d0c c8bb ac87 a1bd d069 7ebc afbc 60be
00000260: b389 073a 5abc 133e ecef 80be 99b6 77be
00000270: 7ddd 7e3d 73a2 143e 7d52 583e 757e 4cbe
00000280: 6eb0 33be d665 d43d c603 44bd fe0e 8cbd
00000290: 3deb ecbc bb5a a6bd 9659 513e ea12 71bc
000002a0: e084 523e 5fd1 a0be 167b 423e 5adb 82be
000002b0: eeee 34be 71f8 733d 3126 ac3d 133d 713d
000002c0: 09db 743d 96bc 47bd d924 073e 79ee 6abe
000002d0: 4888 2a3d 0bb5 3fbe abab 22be 4558 3abe
000002e0: 1d53 3dbe 7b28 de3d 52f8 bf3d 2b81 3b3e
000002f0: 4017 873d b039 56be 0a2b 5e3d 5b69 10bd
00000300: 3c02 f1bd 5054 533d 1854 463e 9f39 123e
00000310: 5ffe 17be 4379 483e dd2d f63d e3c3 293e
00000320: 1940 9ebc 2bfa 073e e3e4 523e f77c 62be
00000330: 4478 053e 493c 133e 18cf bb3d 0dcc c03a
00000340: cc84 83be d652 bbbe 8d75 3cbe 57b9 9ebe
00000350: 589f 9f3d 740d 863e fec3 31be 0980 a03d
00000360: ee1a 9a3d 3188 373d 19fd 883e a215 223e
00000370: c009 443e 73c5 6f3e b0bf 1fbe b214 dc3d
00000380: b72c 7b3e b6ce 1fbe 8bdc 36be 1fc1 92bd
00000390: 0173 0c3e e4a3 d0bd 13f3 823d 1964 8dbd
000003a0: 1b5e b33d c1d0 61be 52e1 7f3e 39c9 96bd
000003b0: 94cd 453e dcb7 393e ddb6 c13d aa50 b23c
000003c0: 1319 66be 6643 04bd 0a0c 24be d275 653d
000003d0: 4f62 55be e66d 67be 2028 283e e1c7 b3bd
000003e0: 1287 593d 7652 3fbd 6dcd 87bd dc4b bcbd
000003f0: b08c 583e d3b2 23be e921 04be e448 cc3d

value_fc2.bias f4 [32]
0.14394586 0.12534995 -0.01508825 -0.062318224 -0.0082180705 0.17253305 -0.06832968 -0.20336188
0.12719597 0.1702602 -0.09470452 -0.019017817 -0.061824832 -0.11244072 0.26734874 0.062367495
0.16091298 0.010223278 -0.11575048 0.04799763 0.019592963 0.102937125 0.16986269 0.06707165
0.20358795 -0.17391448 -0.07814292 0.1515349 -0.091975376 0.20059544 -0.0299599 -0.030671928
00000000: 8b66 133e bd5b 003e b534 77bc 6541 7fbd
00000010: 16a5 06bc 81ac 303e 6ef0 8bbd 193e 50be
00000020: a93f 023e b158 2e3e 72f4 c1bd 41cb 9bbc
00000030: 093c 7dbd 5247 e6bd efe1 883e 0f75 7f3d
00000040: 5fc6 243e 897f 273c 960e edbd 2a99 443d
00000050: 6c81 a03c b3d0 d23d 7cf0 2d3e dc5c 893d
00000060: 5c79 503e a316 32be 6509 a0bd f72b 1b3e
00000070: 965d bcbd e468 4d3e 776e f5bc b243 fbbc

value_fc3.weight f4 [1, 32]
-0.056997165 -0.10581778 -0.154376 0.13804358 -0.28692478 -0.103604905 0.06582579 0.043874376
-0.09356888 -0.12401497 0.19561888 0.06713189 0.33929792 0.08018544 -0.013010753 0.9370958
-0.009587559 -0.32168677 0.3204824 -0.14321375 0.45868045 -0.04682944 -0.14030711 0.2951651
-0.028230585 0.054994296 -0.19705795 -0.013567612 0.028592966 -0.08905127 0.036006335 -0.31542018
00000000: dc75 69bd feb6 d8bd be14 1ebe 4c5b 0d3e
00000010: cee7 92be cf2e d4bd accf 863d 9eb5 333d
00000020: 0aa1 bfbd 90fb fdbd 5150 483e 727c 893d
00000030: 75b8 ad3e 4438 a43d 0e2b 55bc 83e5 6f3f
00000040: 2315 1dbc 21b4 a4be 4516 a43e a0a6 12be
00000050: 2ad8 ea3e 3ad0 3fbd abac 0fbe e11f 973e
00000060: d443 e7bc b341 613d 8fc9 49be b04a 5ebc
00000070: cc3b ea3c 8360 b6bd 617b 133d c17e a1be
