rl/spin_model_11231518/23.pt (torch_old, 159601 bytes, 12 tensors)

log_std f4 [51]
00000000: fee2 e53c fd51 b23d ecf3 353c 627c b93d
00000010: d092 c53d 27b7 43bb 7ad3 c03d 5ed0 6f3d
00000020: cf62 d83d 96fe 653d 4dca 1d3e 5424 473c
00000030: 2e68 783d 74cf f93d e31b 173e 9dbd 1d3e
00000040: a042 bd3d 6dfe f23d 3cd6 8c3d f96b 113e
00000050: fff3 8c3d df1d ac3d 7c1f f43d 33e8 783d
00000060: 6765 1d3e f3f8 743d 6f9e 4b3e 1d4d 2c3e
00000070: 2878 be3d 656b 0b3e 0990 413d 6e64 643d
00000080: faba 943d 30c8 79bd 2b82 803d d701 c43d
00000090: 1cd8 4c3e 48fe 4b3d 758d 953c b8c7 1f3e
000000a0: 3ce6 12bb a3a2 2b3e 4344 b43d 492c 3b3d
000000b0: 915c b93c af0a 8b3d 6140 cc3c 7a6f 0f3e
000000c0: 12e2 aa3d 6d55 b53d 6816 d83d
0.02806234 0.08707044 0.011105519 0.09056927 0.09647143 -0.0029863806 0.09415336 0.058548324
0.10565721 0.056150995 0.15409203 0.012154657 0.06064623 0.12197772 0.14756732 0.15404363
0.09241223 0.11864934 0.068767995 0.14201345 0.06882476 0.08404135 0.11920068 0.060768317
0.15370713 0.05980773 0.19884656 0.16826291 0.09300262 0.13615187 0.047256503 0.05575984
0.072622254 -0.06098193 0.062748276 0.095706634 0.20004314 0.04980305 0.018255929 0.1560353
-0.0022415062 0.1676126 0.088020824 0.04569653 0.022627147 0.06789147 0.024933042 0.14007369
0.08343901 0.08854184 0.10551149

policy_fc1.weight f4 [64, 261]
00000000: a35e 47bc 240f 223d ad7b e1bd 6596 033e
00000010: ce8c c9bd 539d 353d 9c7f 06be eac7 103e
00000020: 237a fc3d 19e2 49bd 015e 8abd 3d47 81bd
00000030: cfe5 05be eaee c6bd 716a e8bd 7bb6 f0bd
00000040: f256 d0bd 4459 9a3d 6dee e43d f380 a1bc
00000050: 83b9 6b3d 35bf edbd 4619 293d 3303 e3bd
00000060: 8662 b33d 6fc7 ecbd db57 b23d 4ca3 94bc
00000070: 5045 413d 0170 b2bd 609b 6b3c baac c23b
00000080: 0eaf 743a a633 b93c 87a8 c6bd 9ee8 683d
00000090: 617a bfbc c495 113e e39e bbbc 87f5 d33d
000000a0: e13d 0a3d 7872 0e3e dfe9 243e 48f7 4bbd
000000b0: 5cc5 be3d 4b54 58bd 7b76 7fbd 1395 37bd
000000c0: dd98 f5bd 141a 313b 5929 07be 39d1 ed3d
000000d0: 6283 ff3c 0bba e1bc eea4 153e 9f34 30bc
000000e0: d0ea ca3d 0611 93bd 9e11 d9bd 1ebf 3a3d
000000f0: c472 953d 9ef4 2fbd 0cc2 8e3d 50ce d03d
00000100: e673 d33d 2692 96bd 0e1f 97bc b593 8f3a
00000110: a465 733d 73b5 0abe 35ed 7abd 4544 a5bd
00000120: b9a2 cb3d f945 e83b e5cf 1dbe 4a23 033d
00000130: 9179 063e cdf2 073e d6cc dfbc 9fec 803c
00000140: cbfc e13d 7a52 debd d8be 313d 86be 84bd
00000150: a5a7 98bd 2a69 cfbd 4f4e d93d 773f e2bc
00000160: e2bc c9bd 8720 20bd 4157 ab3d c1d7 613c
00000170: 17d2 ee3c 3f44 abbc fcf5 023d c208 813d
00000180: 0d30 2f3e fe9c 773d fff1 d73d 2bcb 233e
00000190: 8547 2ebe 8d1e d2bd 1559 9abd f6be a2bd
000001a0: 359e 0d3e ef2f 82bd 46fd 883e 7f6d dbbb
000001b0: 3dc7 6fbd 382b f03d 676d fbbc b9b8 c53d
000001c0: b8d8 633d 979d 0cbc bf4b 543b f743 0d3e
000001d0: 8a23 bf3d 63f6 b13d 9b22 f73c 30df 483e
000001e0: 6da4 8bbd 419b 5abd e345 c8bd bfeb 363e
000001f0: a5bc f6bd 6b99 dd3b a57d b8bc 64a2 023e
00000200: 112b bdbd 51c2 07bd a0de 3fbd bfa3 0abe
00000210: fb12 c9bd 9df4 87bd 4e41 08be 8b08 debd
00000220: 32cd 513d 7952 40bd 8e18 2c3d 6a2c e0bd
00000230: b4fb 0abe 4101 15be 8008 48bd a9a2 d23d
00000240: 65dc 87bd 5cc3 a03c 3ef1 1c3d 2556 b03d
00000250: bd76 4dbd 8785 113d 9dd8 27bd afd7 a93d
00000260: 8cd9 953c c340 7dbd 8048 04be 18fd 9e3d
00000270: 2b95 9abd 4250 48bc 57d8 d53d a252 06be
00000280: c3cd cd3c 3ad0 693c d149 d93c beba 0e3e
00000290: 3f35 d83d 4fae 1fbc 6cd5 2b3e 26ac bcbd
000002a0: cec6 10be e31d efbd ca51 0e3e 95da c2bd
000002b0: 0e38 5cbd b8a1 a53c 9fb1 893b 27df febd
000002c0: 977e a9bd 836e 64bc 0374 873d 1971 d63d
000002d0: 2a1b 7f3d 0a0a 343d 8f89 3cbe 9907 943d
000002e0: 23e0 f43d 6016 14be 5c2e 4c3d 3192 043d
000002f0: 747f a5bd 22a8 813d 24e6 c13d 3f68 f3bd
00000300: 9e31 063e ff04 d33d 94c5 7cbd 6ee1 2fbe
00000310: 536b a53d 2099 903d 3b0d efbd ce09 973d
00000320: dd3c 873d 4938 48be 0c63 073e ede2 0cbe
00000330: 8c4d f4bd 328d f0bd cf35 b53d 3ba7 78bd
00000340: fe0f 41be 479d 03be 123b debd 2627 05be
00000350: aaba 8ebd cc73 d9bc 3650 5b3d 75cc f1bb
00000360: ba59 8a3c 3c10 983d 33c2 2d3d ce47 3fbc
00000370: 0020 2cbe 8db8 90bd 7d49 eabd 1e0e ecbc
00000380: df09 abbd 3957 9ebc 13e7 4cbd 6d1d 80bd
00000390: 5c73 f6bc f799 c2bd 0e22 fbbd 282a fd3c
000003a0: be08 19bd 7914 d2bd 723b dbbd 2bf9 b23d
000003b0: 5fb1 473d cede 823d d37f b2bc 1c03 e3bd
000003c0: ad43 99bd 46c9 683d a7a2 38be e0b3 b5bd
000003d0: aab1 af3d 5ad5 b4bc 28f2 0abe 4f46 0d3e
000003e0: 3355 1abc a9c7 c8bd b91e 05be ad3a 6dbd
000003f0: 12c1 843d 4bbd 69bd be1f b8bd e96d ae3d
-0.012168559 0.03956522 -0.110099174 0.1285034 -0.098413095 0.04433949 -0.13134617 0.14138761
0.12327983 -0.04928789 -0.06756211 -0.06312416 -0.13075946 -0.09713538 -0.11348427 -0.117535554
-0.101728335 0.07536557 0.111782886 -0.019714808 0.057549965 -0.116087355 0.04128387 -0.110845946
0.08759026 -0.115614764 0.08708163 -0.018144272 0.047185242 -0.08712769 0.014380306 0.0059410008
0.00093339465 0.022607636 -0.09700113 0.056862466 -0.023373784 0.14217287 -0.022902912 0.10349565
0.03375042 0.13910854 0.1610484 -0.049796373 0.09314987 -0.052814763 -0.06236885 -0.044819903
-0.11992047 0.00270236 -0.13199367 0.11612172 0.031190578 -0.027554533 0.14613697 -0.010754733
0.09908068 -0.07180981 -0.10599063 0.04559242 0.072972804 -0.042957895 0.06970605 0.10195601
0.1032484 -0.07352094 -0.018447425 0.0010954054 0.059423104 -0.1354578 -0.061261375 -0.08069662
0.09943146 0.0070884195 -0.15411337 0.032016076 0.13132311 0.13276215 -0.027319353 0.01573783
0.110345446 -0.10855575 0.043394893 -0.06481652 -0.07453851 -0.1012748 0.10610639 -0.027618153
-0.0985048 -0.03909352 0.08366252 0.01378435 0.029152913 -0.020906566 0.03197287 0.063004985
0.17108174 0.060452454 0.10544204 0.15995471 -0.1701947 -0.10259733 -0.07536522 -0.07946579
0.13829882 -0.06356799 0.26755732 -0.0066964026 -0.058539618 0.11726993 -0.030691816 0.09654374
0.0556266 -0.008582494 0.003239378 0.13795458 0.093329504 0.08689573 0.030167868 0.1961639
-0.06818471 -0.053370718 -0.09778955 0.17863367 -0.120477 0.0067626736 -0.02252085 0.1275726
-0.0923673 -0.0331443 -0.04684317 -0.13539027 -0.09818073 -0.06638453 -0.13306162 -0.10841473
0.05122108 -0.046953652 0.042015605 -0.10945971 -0.1357258 -0.1455126 -0.04883623 0.10284931
-0.06633834 0.019624405 0.038316004 0.08610181 -0.050162066 0.035527732 -0.040978063 0.082930915
0.018292211 -0.06182934 -0.12918282 0.077631176 -0.07547983 -0.012226166 0.10441654 -0.1311746
0.025122529 0.0142708365 0.026524456 0.13938424 0.10557031 -0.009746148 0.16780633 -0.09212522
-0.14138338 -0.11675622 0.13898388 -0.095143475 -0.053764395 0.020218715 0.0042020823 -0.12444907
-0.08276098 -0.013942364 0.06613924 0.104707904 0.062281765 0.043954886 -0.1841185 0.07228012
0.11956813 -0.1446166 0.0498489 0.03236598 -0.080809504 0.06330897 0.09467724 -0.11885118
0.13104865 0.10303687 -0.061711863 -0.17175838 0.08077111 0.07060456 -0.116724454 0.07374917
0.066034056 -0.19552721 0.13221377 -0.1375844 -0.119288534 -0.11745681 0.08848154 -0.06070636
-0.18853757 -0.12852965 -0.108511105 -0.13003215 -0.06969197 -0.026544474 0.053543292 -0.0073791095
0.016888488 0.074249715 0.04242153 -0.011674834 -0.16809082 -0.0706645 -0.11439798 -0.028815325
-0.08351492 -0.0193287 -0.050025057 -0.062556125 -0.030084305 -0.09502023 -0.12262355 0.03090389
-0.037361853 -0.10257811 -0.10704698 0.08738931 0.04875314 0.06390153 -0.021789467 -0.110845774
-0.07483611 0.056832574 -0.18030797 -0.08872199 0.085788086 -0.02207439 -0.13568938 0.13796352
-0.009419727 -0.09803707 -0.13000001 -0.057917286 0.06482138 -0.05706529 -0.08990429 0.085170574

policy_fc1.bias f4 [64]
00000000: acf9 6cbb bf16 9cbb 1fd9 21bc cc3c 64bc
00000010: 2dd5 8e3b 1c01 3fbc 02e8 203c 817f a5bc
00000020: feac 18bd dd0a 443a faef 703c 4d7c 6bbb
00000030: 05a5 89bc 6a9d 0e3c b038 66bc 8449 83bb
00000040: 1676 22bc ae2e 9bbb 38d7 e9ba f981 36bc
00000050: af03 05bc df75 91bc b8b6 fd3a b7c1 97bc
00000060: 312f 80bc bad0 f0bb 3ed7 12bc 262b fd3b
00000070: 3a01 aebc 71bd 10bc 9146 d8ba d98e 09bd
00000080: 394b a2bc 56a7 bebb 3a7b e8ba 4b68 1fbc
00000090: 50d7 ec3b dc9d a3bb 56bc 4e3b 2eb3 2abc
000000a0: 3ec8 6abc 349d babc 7c3e 55bd 7954 f33b
000000b0: aaf1 67bc d95f 513b d6c5 8fba 01ff 0fbc
000000c0: 81b7 0dbc 5ebe c5bc 5fc7 3fbc 5f29 9cbc
000000d0: a159 e7bb 2a43 703c 3a00 7fbc cbfa 36bb
000000e0: 764c 81bc 7eaa 923b 6fff a3bb 1d13 41bd
000000f0: cf58 14bd c92e 253a 3afa 4ebc 7964 42bb
-0.0036159558 -0.0047634537 -0.009878426 -0.013930511 0.0043589086 -0.011657979 0.00982094 -0.0202024
-0.037274353 0.00074784254 0.014705652 -0.0035932243 -0.01680232 0.008704523 -0.014051601 -0.0040065665
-0.009915849 -0.0047357893 -0.001784063 -0.011139386 -0.008118554 -0.0177564 0.0019356823 -0.018524988
-0.015647503 -0.007349101 -0.008962451 0.007726091 -0.02124082 -0.008834229 -0.0016500523 -0.033583496
-0.01981126 -0.005818288 -0.001773692 -0.009729455 0.0072278157 -0.0049931835 0.0031545362 -0.010418696
-0.014329968 -0.022780038 -0.052061543 0.0074258414 -0.014156738 0.0031947999 -0.0010968994 -0.008788825
-0.008649708 -0.024138626 -0.011705249 -0.019062696 -0.007060245 0.014664451 -0.015564019 -0.002792048
-0.01578353 0.0044758907 -0.0050048153 -0.04713737 -0.036217507 0.0006301222 -0.012632901 -0.0029661937

policy_fc2.weight f4 [32, 64]
00000000: ae15 01be eb8d c43d 5ff2 5abd 9c2d 1cbe
00000010: 192f a13d b10c 15be 6a87 ccbd 4b4f 06be
00000020: 6b5a f5bd e855 2c3e 69a0 873d 2988 a8bd
00000030: e1ab 9cbd e4f1 f63d ff9f efbc 2db0 9fbd
00000040: bd49 65be 25ff 5dbe 191b af3d 647b 3c3e
00000050: 66d6 8fbe e2c8 253e 550a 7f3d 03d3 04be
00000060: 01da 0ebd b8f6 2ebe 2317 223e 6e41 b7bd
00000070: 8619 883e d511 2abd 74fd f6bd 646e febd
00000080: 3f57 28bd 1c74 523e e312 133e c76e 1abe
00000090: 3ce9 38bd 3719 3bbe 606f 54be 9cd3 ca3d
000000a0: ea30 96bc 5f96 823e 4145 7f3e 0566 85be
000000b0: c442 443e a5fa 5fbe ad32 56be efaa 89bd
000000c0: 8f50 623e 6ca9 b7bd a15c d93d 3896 8e3e
000000d0: b2b7 b03c 3008 bd3d aabf 1a3e 9f57 42bd
000000e0: d373 04bd 24c2 d0bd c3ea 3a3e 7e85 3b3d
000000f0: 4587 fcbd 1e44 2dbc 9dac 56be 4b4a 0bbd
00000100: 15c3 613e 866e f43c e3ba d5bd 86ba 1cbe
00000110: e75d 313e d8f6 1bbe 2a3c ad3d 1157 9f3d
00000120: 0352 f5bc 1490 61be 5ea4 f63d 0574 21be
00000130: ceb1 4cbe 49f7 893e 1590 d4bd 0469 3b3e
00000140: 52ac 12bd d098 4e3d 7fbe 3abd d345 563e
00000150: b543 38be 7058 0c3d 8020 443e aedd 36bd
00000160: 21dd 6a3d 386b b23d db57 0d3d 0a0b 0fbd
00000170: 56b0 42be 3545 e03d e351 19be 002b fdbd
00000180: 5943 1f3d 4621 413e 33e1 0e3e 68e7 0ebc
00000190: 7980 0abe 2f61 e13d 8815 2a3e c33b d7bd
000001a0: 7f04 e33d 42c2 49be 3f4e f2bd 07c0 1c3e
000001b0: 3d60 31be 79d3 4dbe fdca dfbc a1ca 49be
000001c0: e700 f7bb c6fc e4bd 1e4b 5fbd a35c d6bc
000001d0: d874 cfbd 8c1a e5bc e863 0abd f0c0 98ba
000001e0: 681c 2abe bdbc aabd 2468 8abd 07da e0bb
000001f0: b688 d53d 4cad 323e 617e 1e3d 08eb 843c
00000200: 56b8 40bd adb1 2bbe 143d 69be e8a7 9bbc
00000210: 84c0 8cbe 96fd 963c c2d2 e73d 74eb ce3b
00000220: b5db 1c3e bec3 9ebd 83f3 febd 13cb 6a3d
00000230: e870 00bd def9 bbbd af0c 333d 67eb 5bbe
00000240: 541f cc3d 59b3 f5bd 85a0 08be a813 96be
00000250: 3e58 413b 6fbb cabd df92 5f3e 865c 90be
00000260: b225 d7bd 28d4 2c3e 62ff e2bd 162d c33c
00000270: 77ef f73d 51e1 6ebe ec7a 143e 63fb 6e3d
00000280: 8346 b4bd 8a8d ccbd e9b2 84be 58b5 343d
00000290: 909d 5dbe 583b 92be 767c 07be 46fd 1f3e
000002a0: f076 debd 177d c53d 34a5 823d ed5c 553e
000002b0: 008f 7bbd 1230 1c3e ee1b 60bd ea2d 353e
000002c0: e6e0 42bd 7879 3bbe c0ff 513e 1c50 323e
000002d0: 1e03 3dbe a451 293d 155d 4cbe fcf9 e73d
000002e0: 16c0 3f3d 2322 143e ffb4 093e e1c4 84bd
000002f0: 3c6e ac3c 1203 22bd a721 5f3e 9051 7a3e
00000300: cd40 0fbe d171 2abe 8140 04be cbc4 413e
00000310: a98d b73d a018 0cbc 8fcc 243c eef7 cbbd
00000320: e88c 8f3c 2484 563e b83e 4ebe a18b 543e
00000330: 5239 c7bd bd73 dfbd 31e9 1cbe 1baa 41be
00000340: 6bc5 13be e45b 2a3e 9516 68be 5846 98bd
00000350: 2945 73bd 7421 043e ee88 e03d b80f c83d
00000360: b0a7 933d f2eb 393e 3dd8 e83d fd91 37be
00000370: 2095 c4bd d607 6abc d8a8 1b3e d12d 2a3e
00000380: 082c f0bd a519 c5bc 39ac 263e f317 203e
00000390: 4eee c0bd 7a3e 6abe 81a4 a5be 71a8 c8bd
000003a0: fcb1 2dbe af9b 72be ddc7 923d 96d5 0e3d
000003b0: 3a77 0b3e de52 603e e4f8 173e 74c2 aabd
000003c0: abc0 8bbd 74de 0ebd 0f43 5ebe cfa0 abbd
000003d0: 5438 343d 7da2 5d3e 9f02 243e 26bb 67be
000003e0: 788f 3bbd 6091 5ebe 3498 5ebe aae3 febd
000003f0: 14ec 183e 327b 2fbe 954f 10be c264 fa3c
-0.12605926 0.09597381 -0.0534538 -0.15251774 0.07870311 -0.14555623 -0.09986766 -0.13116185
-0.119801365 0.16829646 0.06622393 -0.082290955 -0.07649971 0.12057856 -0.029251097 -0.07797275
-0.2239141 -0.21679361 0.0855009 0.18406445 -0.2809326 0.16189912 0.062265713 -0.1297112
-0.034875873 -0.17086303 0.15829138 -0.089480266 0.26581973 -0.041520912 -0.12060061 -0.12423399
-0.04109883 0.20552105 0.14362673 -0.1508132 -0.045144305 -0.18271337 -0.20745611 0.099036425
-0.01833387 0.2550535 0.24928762 -0.26054397 0.19166094 -0.21872957 -0.20917769 -0.06722056
0.22101043 -0.089678615 0.10613371 0.27848983 0.021571968 0.09230077 0.15112177 -0.047446843
-0.03233702 -0.101932794 0.18253617 0.045781605 -0.12330488 -0.010575322 -0.20964284 -0.0340064
0.22047074 0.029837858 -0.104360364 -0.15305528 0.17320977 -0.15230882 0.08458741 0.077802785
-0.029946333 -0.22027618 0.12043069 -0.15766914 -0.19989702 0.26946476 -0.10379044 0.18301779
-0.03580887 0.050438702 -0.045591827 0.20925073 -0.17994578 0.034264028 0.19153023 -0.044645004
0.05733979 0.087118566 0.034507614 -0.034922637 -0.1901258 0.109507 -0.14972644 -0.12361717
0.038882587 0.18860349 0.13953094 -0.008722164 -0.13525571 0.110048644 0.16609776 -0.105094455
0.11084842 -0.1970301 -0.118313305 0.15307628 -0.17321868 -0.20100202 -0.027318472 -0.19706203
-0.0075379494 -0.11181025 -0.054514997 -0.02616722 -0.10129708 -0.02796676 -0.033786684 -0.001165418
-0.16612399 -0.0833678 -0.067581445 -0.0068619284 0.10426466 0.1744892 0.038694743 0.016225353
-0.047050796 -0.16766997 -0.22777206 -0.019000962 -0.27490628 0.018431466 0.11319496 0.0063146893
0.15318187 -0.077521786 -0.1244879 0.057322573 -0.031357676 -0.09178518 0.043713268 -0.21476518
0.09966913 -0.119970985 -0.13342483 -0.29311872 0.002950206 -0.09899031 0.2183337 -0.2819559
-0.10505237 0.16877806 -0.11083867 0.02382521 0.12106221 -0.23328139 0.14500016 0.05834521
-0.088025115 -0.09987934 -0.25917748 0.044118255 -0.21642137 -0.285609 -0.13231072 0.1562396
-0.10862529 0.096429996 0.06379166 0.2083623 -0.061415672 0.15252712 -0.054714136 0.17693296
-0.04757776 -0.18308055 0.20507717 0.17413372 -0.1845822 0.041337624 -0.19957383 0.113269776
0.046814047 0.14466147 0.13447951 -0.06482864 0.021048658 -0.03955371 0.21790181 0.24445176
-0.13989563 -0.1664498 -0.12915231 0.18922727 0.089625664 -0.008550793 0.010058536 -0.09959398
0.017523244 0.20948845 -0.20141113 0.20756389 -0.0972773 -0.10910747 -0.1532333 -0.18912546
-0.14430778 0.16636616 -0.22664864 -0.07435292 -0.05939213 0.12903386 0.10963617 0.09768623
0.07209718 0.18156412 0.11369369 -0.17926784 -0.09598756 -0.014284095 0.15201128 0.1661904
-0.11727148 -0.02406008 0.16276635 0.15634136 -0.09420453 -0.22875395 -0.3235207 -0.09797753
-0.16962427 -0.23692201 0.07167027 0.03487166 0.136197 0.21906611 0.14841038 -0.0833787
-0.06823858 -0.034880117 -0.21705268 -0.08380281 0.04399903 0.21644016 0.16016625 -0.22629985
-0.04579112 -0.21735144 -0.21737748 -0.12445767 0.14933807 -0.17136839 -0.14092858 0.030565623

policy_fc2.bias f4 [32]
00000000: 2721 1ebc d35b 153d c9b1 84bc 0db9 f63c
00000010: 2eee 993a 5409 b43a c0cc c3bb 3564 0b3d
00000020: 388d 14bc 472f aa3c c9d5 74bc a884 133d
00000030: 6fb6 de3c 325e 90bb 2b50 85bc 0c64 41bd
00000040: e6e1 883c b55a 123c 357f 473c 69cf c23c
00000050: 4936 e3bc 5ddd 493c 5935 ef3c 196b 0ebc
00000060: 3d4e 013d fc5f 523c 086b 1dba 279c a3bb
00000070: ba73 c6bc 5026 bb3b e342 e3bc 4b95 c33b
-0.009651459 0.036464524 -0.016198056 0.030117536 0.0011743957 0.001373569 -0.005975336 0.03403111
-0.009066872 0.020774497 -0.0149435485 0.036015183 0.0271866 -0.00440576 -0.016273579 -0.047214553
0.01670928 0.008932759 0.012176325 0.023780541 -0.027735846 0.0123208435 0.029200243 -0.008692526
0.031568754 0.012840267 -0.00060050236 -0.00499298 -0.024225105 0.0057113543 -0.027741855 0.005968725

policy_fc3.weight f4 [51, 32]
00000000: c38f 833c 9e19 723d 70df 88be 3355 013e
00000010: 91b5 27be 6153 e33d bcdd 583d 7fd0 083e
00000020: 8c72 aa3e beaf 813e 2d06 243e 1701 debc
00000030: 6088 29bd 911d 1ebe 8515 5fbe ff41 9c3d
00000040: 3f05 e43d 474c 673e 2601 213d 8d3e 3cbe
00000050: f81c 82be 4dd3 e8bd 1630 283e c0fa 08be
00000060: 45cf 373e 2193 7ebd febc 30be 8e75 10bc
00000070: 0b53 5a3d 6a2d 02be 947f 0cbe 655a 12be
00000080: b89f 483e b145 813d fadf 2c3e 4742 1b3e
00000090: 02a4 3c3e e640 40be 84c3 45be a228 f1bd
000000a0: da2d 3bbe 478d 7d3c 98ac 373e 4f33 1e3e
000000b0: 99cb 98bd 62ad 2ebd e501 1c3e 44d9 c8bd
000000c0: b1dd 8f3e b2d4 473d b814 c53d b5bd 933c
000000d0: 8f02 20be 96f5 d2bc eb18 823e cf9e 053e
000000e0: 071a 71bd 6bca 0a3e 78d6 143d 065f b3bb
000000f0: 182a 6ebe df39 25be 4106 5bbd 7bd2 073e
00000100: 140e 28bb 1336 913d f2a9 6abe f3b1 113e
00000110: 59b6 3bbe fcf7 363e 7006 353e 620b 23be
00000120: fef9 10be d97f f93d 5196 08be 486d 37be
00000130: 6c3e aabd 9e4b 163e 1665 e4bd 4792 41be
00000140: da82 55be f489 7d3e 8159 4f3e e8fc ec3c
00000150: 3ea5 cfbd 4611 363e 1a8b 3f3d 87f0 783c
00000160: ed97 383d e107 9a3e d68e 953e 6e73 e0bd
00000170: bc57 7d3e 0abc 193e 0e8e 6e3e 3717 143c
00000180: 805e 48be f161 713d 6b36 e53d c829 69be
00000190: cf8c 2c3e 4dc7 273e 5ebd cb3d 5e07 12bd
000001a0: 029f 5d3e 53c4 e83d 926b c33d ebdf 2e3c
000001b0: c08e 24be 408f 303e a7c6 533e 055d 9fbd
000001c0: a511 4abe 950a bcbd 1367 643e 04d0 333e
000001d0: 00bc 0abe d8ae a0bd 6dac 3bbe f65d 973d
000001e0: d152 693e 4309 82bd 346b 45be 8f6b 853e
000001f0: 5cda b7bd 90e8 82bc b8bb 89be a3ad 0fbd
00000200: f8cc ddbd 965b 523e eaac febc 24e0 153e
00000210: c7ac 803d 6ade f03d 0708 763e df2a e73d
00000220: 9eea 7dbe c9be 493e b3a9 0d3e da0f a83d
00000230: 9647 cb3d 6c34 98be 713e c43d 3dd7 2dbe
00000240: 7171 47be 86ac 4bbe a0ee 52be 654e 7e3e
00000250: f67d 54be c4f8 133e 5e30 1a3d 785c d43d
00000260: c0ff 3d3e cbd8 793e 314c 40be afbf 593e
00000270: 9e0a dabd 0c7f c4bd 1aef 06bd 2286 40be
00000280: 0597 643e 24b8 613e 2ae2 313e 9a8b 593e
00000290: 35b0 5ebe 14f5 8ebd 7290 8bbe 815e 0a3e
000002a0: e1ee 28bd c0f1 6bbe 729f 9a3d aa5f 843d
000002b0: 967f 893c 100a 863d 46a6 6f3e 088e e7bd
000002c0: 1dd6 46bd 6364 e83d 0da2 97be 823e 0f3e
000002d0: 1dd4 e9bd b0d2 063e 6bcd eb3d edd4 193e
000002e0: 9419 693e 5645 65be 8cd3 183d bb72 94be
000002f0: 1057 503e 4872 233c 38e6 883d 22f4 82be
00000300: 8d87 043e 34d6 d13d 99c9 c83d 60ee 5a3e
00000310: 6d41 02be 5add ee3d 322d 12be 81cb ecbd
00000320: 93db 73be e5b9 8f3e 5427 0ebe 2406 9fbd
00000330: f98d 1f3d e17f 643e 87d3 e3bd 46fe 09be
00000340: 8c7c 8dbb 9b1e 38bc 7625 36bd 9a4e 31be
00000350: 2bb1 4ebe b9a5 63be 2cb4 1b3d c58a 033d
00000360: 13e1 7abd adf4 cf3d 251c 0a3e d6e9 f9b9
00000370: f84d f83d 032b 383e 8e0e 853e b95c 77bd
00000380: cda1 06be ff3f b63d 2fc1 573e a51e 49be
00000390: ce30 07be fab1 0f3d 72ae 4c3e b726 643e
000003a0: ca5e 723d 3e5c f6bd 1278 6dbd e870 40be
000003b0: 0664 cc3d 5430 79be 5b0d 343e 047c d9bd
000003c0: 9676 2fbe cff8 c33c 0e7c 823e 12d4 363e
000003d0: fb36 a93c 5a93 e83c 7459 a43d 7c24 58be
000003e0: 34f5 a3bd 18b7 f4bc 0c2c e9bd d084 8cbe
000003f0: fac8 a53c 619a 003e 8e86 94be 03fb 07be
0.016059762 0.05910646 -0.2673297 0.12630157 -0.16377856 0.11099888 0.052945837 0.13360785
0.33290517 0.25329393 0.16017981 -0.027100129 -0.041389823 -0.15440966 -0.21785553 0.07629775
0.11133813 0.22587691 0.039307736 -0.18383236 -0.25412726 -0.113684274 0.16424593 -0.13376904
0.17950161 -0.06215203 -0.17259595 -0.00881709 0.053301852 -0.12712637 -0.13720542 -0.14292295
0.19592178 0.06312121 0.16882315 0.15162002 0.18421939 -0.18774757 -0.19312865 -0.11775328
-0.1827921 0.015475578 0.17936933 0.1544926 -0.07460708 -0.04264582 0.15235098 -0.09807065
0.28098825 0.048786826 0.096230924 0.018034795 -0.15625976 -0.02575187 0.25409636 0.13048862
-0.058862712 0.13553779 0.036337346 -0.005473974 -0.23258245 -0.16135357 -0.05347276 0.13263886
-0.0025643157 0.07090392 -0.22916391 0.14228038 -0.18331279 0.17868036 0.17678237 -0.15922311
-0.14157864 0.12182588 -0.13338591 -0.17912781 -0.08312687 0.14677283 -0.11152093 -0.18903457
-0.20850697 0.24759656 0.20248987 0.028929189 -0.10138939 0.17780027 0.046763517 0.015194065
0.045066763 0.30084136 0.29210538 -0.109595165 0.247405 0.15013137 0.23296377 0.009038738
-0.19567299 0.058931295 0.1119202 -0.22769845 0.16850589 0.16384621 0.09948228 -0.035651557
0.21642688 0.11365571 0.09542002 0.010673503 -0.1607008 0.17242146 0.20681249 -0.07781414
-0.19733293 -0.09181706 0.22304945 0.1755982 -0.13548279 -0.07845849 -0.18327494 0.073909685
0.22785498 -0.06349423 -0.19279176 0.26058623 -0.089771956 -0.015980035 -0.2690103 -0.035077702
-0.1083011 0.2054275 -0.031088311 0.14636284 0.06282955 0.11761172 0.240265 0.11287474
-0.2479653 0.19701685 0.13834266 0.082061484 0.09925763 -0.29727495 0.09582222 -0.16976638
-0.19476868 -0.19890031 -0.2059884 0.24834593 -0.20751175 0.14450365 0.037643783 0.103691995
0.18554592 0.24399106 -0.18779065 0.21264528 -0.10646556 -0.09594545 -0.03294287 -0.18801168
0.22323234 0.220429 0.17371431 0.2124466 -0.21746905 -0.06980339 -0.2725864 0.13512613
-0.041243438 -0.23041439 0.07549943 0.06463559 0.01678447 0.06544888 0.23403272 -0.11306387
-0.048544038 0.11347272 -0.29615822 0.13988689 -0.114174105 0.13166308 0.1151379 0.15022631
0.22763664 -0.22389731 0.03731112 -0.28993782 0.20345712 0.009975977 0.06684536 -0.25576884
0.12942334 0.10245934 0.09804077 0.21379995 -0.1272027 0.11663313 -0.14275053 -0.11562253
-0.2381423 0.28071514 -0.1388219 -0.07764843 0.038953755 0.22314407 -0.1112433 -0.13475904
-0.0043178257 -0.011237766 -0.04446932 -0.1731514 -0.20184772 -0.22231187 0.038013622 0.032114763
-0.061249804 0.1015409 0.13487299 -0.00047667202 0.12124246 0.17985158 0.25987667 -0.06039116
-0.1314766 0.08898925 0.21069787 -0.19640596 -0.13202211 0.03508184 0.1998842 0.22280394
0.05917243 -0.120293126 -0.057975836 -0.1879307 0.099800155 -0.24334842 0.1758322 -0.10619357
-0.1713508 0.023922352 0.2548527 0.17854336 0.0206561 0.028390575 0.08024874 -0.21107668
-0.08005753 -0.029872462 -0.113853544 -0.27445078 0.020237435 0.12558891 -0.29008907 -0.13279347

policy_fc3.bias f4 [51]
00000000: 562d 06bd aca8 f93b 35fa 96bd 1e51 983d
00000010: 8b7f 113d faef cdb9 b57f db3b 1e85 85bd
00000020: 6642 563c b12b 19bd 8164 52bd 6082 473d
00000030: 77ae 25bd 7a2a 693c 4e4a 033d 7fca 17bc
00000040: eaf3 4a3d 5442 90bd 1c6e 423d 3025 d73b
00000050: 54d4 bc3b 90ad b13d 567f 15bb f661 7bbd
00000060: 846f 89bc be99 903c c585 a4bc 3761 74bd
00000070: f425 5abc dfeb c33c e84c ab3c 6418 b0bc
00000080: 3637 853c de01 d7bc 2ca0 e63c 1af7 33bd
00000090: 8922 3fbd acb6 3e3d ee32 713c 66d4 67bd
000000a0: b253 86bb a021 87bd 7161 ebbb dd7a cdbc
000000b0: 329a 853d b688 013d 76ae ccbc efcb 6dbd
000000c0: 69c4 da3b 9392 aeba cd98 febb
-0.03275808 0.007618984 -0.07371942 0.07437347 0.035522025 -0.00039279443 0.0066985735 -0.06519531
0.013077354 -0.037395183 -0.05136538 0.04870832 -0.040449586 0.014231319 0.032053284 -0.009264587
0.04954902 -0.07043901 0.04746829 0.0065657124 0.005762616 0.086756825 -0.0022811494 -0.06137272
-0.016776808 0.017651435 -0.020083318 -0.059663024 -0.013314713 0.023916183 0.020910695 -0.021496005
0.016261678 -0.026246008 0.028152548 -0.043936826 -0.046663795 0.04656093 0.014721615 -0.056599043
-0.0040993327 -0.0659821 -0.007183247 -0.025083 0.06523551 0.03162452 -0.024985533 -0.058055814
0.006676246 -0.0013318829 -0.00776968

value_fc1.weight f4 [64, 261]
00000000: b244 773d 4041 7dbb 3366 cabd 3b0b 87bd
00000010: 0b67 2dbb 5086 003e 6454 c53b 2ad1 cabd
00000020: 1f1b 26bc 9fdf 9abd d46b 9abe 6a26 cc3d
00000030: 5b36 54bc 5b19 76be ad03 0a3d cc2a 82be
00000040: 2a77 19be 79a4 103e e62f 463d 1985 d3bd
00000050: 2620 4cbd 5440 1b3e f635 0bbe 580d 013d
00000060: 21cd 32bd 2eb7 33be c0a8 3ebc da60 dfbc
00000070: fb21 d9bc 538f 43bd 76f1 bc3d 6020 1fbe
00000080: 6b7c b2bd eb05 543e d154 00be 134f c0bd
00000090: d01c d73d aa5c 703c cffe 24bc 9f92 763e
000000a0: 8524 383d c312 963c 10d8 f33d 51d1 833d
000000b0: 1e69 723d 49db ecbd d7d8 b9bd 7093 8abd
000000c0: adb2 ccbc 5ed7 8c3d a7ef 223d a044 083e
000000d0: 0c71 eb3d a8e6 fc3c 7708 793d 5a66 0bbd
000000e0: a5c7 ecbd f158 b1bd d1f1 2cbe 18ec d4bd
000000f0: aff9 f83d 427e eebc 00d5 8ebb 3687 debd
00000100: 1024 ab3c eaf1 9abd 3912 ff3d e03f 383c
00000110: b82a b33d 6a8c 9ebd efe1 743e 8d43 2b3d
00000120: ee4e b83a 3ccc 253e e258 3a3d 9e84 74bc
00000130: 7df9 01be d5c6 0b3e 9b8f fc3d a263 543e
00000140: 8610 3d3c 36c0 e23d 36b1 12be fd26 58be
00000150: bac2 19be c723 573e 9e19 61be a2d4 14be
00000160: cdbf 92be 342d 2ebd 2c50 933d f817 a4bc
00000170: 1424 743c 5ad4 7abd 3c1a 0b3e 1caa cf3c
00000180: 030c e4bc 78dc 1c3e fc1c 703d 5400 a3be
00000190: 7e18 e6bd c20c 3a3e 1cc7 813c 87ed 09be
000001a0: 6a69 0cbe e664 473c 1e03 1f3c a9ca 8bbd
000001b0: 76d4 263e 86d7 013e d8ea 35be 8b45 7d3b
000001c0: 0b3c 453d 7daf 343d 0bf0 373e c5d6 8e3d
000001d0: f274 493e 274c ec3a d9d0 323e f24c 88bc
000001e0: 1858 813d b904 c03c 58e7 223e c7c4 753d
000001f0: 2b0e 1c3d 8507 6dbd 132c b33b ff2b d0bb
00000200: 8801 7abb 9fe0 6dbe f891 c4bc 61c7 9e3d
00000210: e173 03bd be64 bcbd df6a 54bc fbd7 173d
00000220: b553 38be 339d a43d 8594 a93c 0c36 56be
00000230: 3da3 03bd f747 a23d 1a44 7bbd 8467 ca3d
00000240: 88f5 06be 8cdb 9dbd 929f 593d 4b5a d93d
00000250: f4ed 113e c7c6 02be 0ba7 903d 94d8 d33d
00000260: 9f73 d83d f176 14be b6d4 f7bd 5f19 eebc
00000270: f895 49bd 9ab5 5dbd 11c7 0c3e cb11 083e
00000280: d7ce dabd 5a5c 723d f414 c73d 7dbd 093d
00000290: 1170 c8bd f155 023e a6ad 23bd b170 a23d
000002a0: 08d3 c43d 60d3 9f3d 7f9e 533d e6da 423d
000002b0: 3232 4f3b c599 823d 3498 3dbd 038d 6d3d
000002c0: 9df7 d23d c552 85bc d35e b93d fc2f 03be
000002d0: db99 5bbd fd12 c8bd 9fa5 59bd 4c37 d73d
000002e0: e19a be3b 5a43 703d 922f 84bb 6763 d13d
000002f0: 8323 8dbd 1197 95bc 549a 6e3b a883 dcbd
00000300: 81cc 193d 7dd4 ccbd c007 acbd 49e5 053e
00000310: c2dd 73bc 0823 58bd 739b 1b3e 2999 213d
00000320: 3f02 17be 7877 e9bd d917 bc3d f21b 683d
00000330: 1958 b23d 2e13 b83d 79ac 973d 903a af3c
00000340: 6c41 453d 7c3d 1a3d 8d0f 823d 2cc4 ec3d
00000350: 55d0 85bc 5f83 aabc 950b 83bc 6668 b53c
00000360: cc17 e5bc d9e6 5a3d f840 a03d 7f37 ee3c
00000370: a16f 72bc 7030 9dbd 88b2 eb3d 521b 113e
00000380: b9ac 033e c942 d9bd 9d5e 513d 8107 00bd
00000390: 295e 1dbe 69f7 2f3d 47a1 dfbc d513 7239
000003a0: 8244 923c da43 173d 1b0c 90bc 19cd 393c
000003b0: f156 8cbd 86f4 0dbd 82d4 523e 1869 a0bc
000003c0: 1fa9 fabd 8b26 3f3d 45f1 f2bd 2cd7 52bc
000003d0: 237a 683d 6115 27be 74d7 4b3d 6de7 603e
000003e0: 6e67 a83d 3438 65bd 465e 81bd a87c ea3d
000003f0: 2464 06be 0588 303d 5817 bd3d 1312 cabd
0.060368247 -0.0038643628 -0.09882774 -0.06593939 -0.0026459123 0.12551236 0.006022023 -0.09903176
-0.010138302 -0.075621836 -0.3016039 0.099682644 -0.0129524125 -0.2403311 0.03369491 -0.25423276
-0.14986864 0.14125241 0.048385523 -0.10328121 -0.049835347 0.15161258 -0.13594803 0.031506866
-0.043652657 -0.17550346 -0.011636913 -0.027267862 -0.026505461 -0.047744107 0.092257425 -0.15539694
-0.08715137 0.20705383 -0.12532355 -0.09390082 0.105035424 0.01467053 -0.010070517 0.24079369
0.044956703 0.018319493 0.11906445 0.06436408 0.05918228 -0.11565263 -0.09074562 -0.06766403
-0.024987543 0.068770155 0.03977933 0.13307428 0.11496171 0.030871704 0.06079909 -0.034033157
-0.11561517 -0.08659542 -0.1688912 -0.10396594 0.12156998 -0.029112939 -0.0043588877 -0.10865633
0.02089122 -0.07565673 0.124546476 0.011245698 0.08748382 -0.077416256 0.23914312 0.04181247
0.0014061609 0.1619119 0.04549492 -0.0149241965 -0.12692828 0.13650067 0.12332078 0.20741132
0.011539584 0.110718176 -0.14325413 -0.21108623 -0.15015689 0.21009742 -0.21982428 -0.14534238
-0.28661957 -0.042523578 0.07193026 -0.02003096 0.01490118 -0.06123767 0.13584226 0.02534967
-0.027837759 0.15318477 0.05862139 -0.31836188 -0.1123514 0.18168929 0.015842013 -0.13469516
-0.13712087 0.012170052 0.009705333 -0.06825764 0.16291985 0.12679872 -0.17765367 0.0038646187
0.048152965 0.04411267 0.17962663 0.06974558 0.19673517 0.0018028066 0.17462482 -0.016638253
0.06315631 0.023439752 0.15908563 0.060002115 0.03809945 -0.0578685 0.0054679005 -0.006352901
-0.0038147885 -0.23230217 -0.023995385 0.07752872 -0.032092933 -0.091989025 -0.012964933 0.03707121
-0.18000682 0.08037796 0.020700702 -0.20919055 -0.032138098 0.079238825 -0.061344244 0.09883025
-0.131796 -0.07707891 0.053130694 0.10612925 0.14250928 -0.1277114 0.07063111 0.103440434
0.10568928 -0.14498498 -0.12101118 -0.029064832 -0.049215287 -0.054128267 0.13747813 0.13288037
-0.10683983 0.059170105 0.09720793 0.033627976 -0.09787 0.12728097 -0.039960526 0.079316504
0.096105635 0.078039885 0.051664826 0.04757204 0.0031615612 0.063769855 -0.04628773 0.057995807
0.10301135 -0.01627482 0.090512894 -0.12811273 -0.053613525 -0.09769247 -0.053136464 0.10508594
0.005816803 0.05865798 -0.004033991 0.102240376 -0.06891539 -0.01826051 0.0036407905 -0.10767299
0.037548546 -0.100014664 -0.08399916 0.13075747 -0.014884414 -0.052767783 0.15196018 0.039452706
-0.1474695 -0.1139974 0.09184236 0.056667276 0.087082095 0.08988033 0.074059434 0.02139023
0.048158094 0.037656292 0.06350622 0.11560854 -0.016334692 -0.020814596 -0.015996734 0.022144508
-0.027965449 0.05344281 0.07824892 0.029079197 -0.014797122 -0.07675254 0.115086615 0.14170578
0.12858857 -0.106084414 0.05111562 -0.031257156 -0.1536795 0.042960558 -0.027298583 0.00023086306
0.017854933 0.036929943 -0.017583897 0.011340403 -0.0685252 -0.034657024 0.20588878 -0.019581363
-0.122392885 0.046667617 -0.11862425 -0.012868684 0.056757104 -0.16316749 0.04976602 0.21963282
0.08222853 -0.055961803 -0.06316809 0.114495575 -0.13124138 0.04309847 0.09232968 -0.09866729

value_fc1.bias f4 [64]
00000000: 25e0 80bc 1830 1e3c 5508 193e c0cd c4bc
00000010: 0512 aabd 6b85 04bd 5ec6 ab3d a62d 473b
00000020: 4f4c 8b3d 98ae 533c 9bf8 c73c 3f4a 843d
00000030: c7f0 71bd 38f8 20bd 2357 353d d74a 433d
00000040: 50cf c13c 73e2 70bc 1893 9d3d 5cb8 01be
00000050: 52bb 80bd 465e 88bd 8e9f 8a3d fd8f 0c3e
00000060: dfa2 943d e80d 10be 7a4e 013e 60a4 8a3d
00000070: ff13 d23d f709 a33d 75b4 d93b 8554 103e
00000080: 766d 723d ae54 a73d a259 dc3d b186 133d
00000090: e49f 003b 6392 7b3d 8336 af3d 3db2 163e
000000a0: 2c7b 9f3d 51ec 8bbd 7453 76bc b546 f1bc
000000b0: 39d2 cb3d d400 dfbd e423 803c b85a 29bd
000000c0: 7d70 78bd 0399 ac3d cffa e83d d69a a43c
000000d0: 0935 14be 0e99 053e 4e19 413a 83ce fe3b
000000e0: 482d 1abd 9d70 353e 683e f33c 4fe3 1cbd
000000f0: 3f03 113e d1c8 fcbd 8ca8 69bd 941d 7a3e
-0.01573188 0.009655021 0.14944585 -0.02402389 -0.08304218 -0.0323538 0.08387445 0.0030392199
0.06801664 0.012920044 0.024410537 0.06459474 -0.059067514 -0.03929922 0.044272553 0.047678795
0.023658425 -0.014702427 0.076940715 -0.12667984 -0.062857285 -0.06658606 0.06768714 0.13726802
0.07257628 -0.14067805 0.12627593 0.06769633 0.1025772 0.07960885 0.0066438266 0.14094742
0.05918642 0.08170448 0.107592836 0.036017124 0.0019626552 0.061418902 0.08555319 0.1471643
0.07787165 -0.06832183 -0.015034545 -0.029452661 0.09952206 -0.1088883 0.015642114 -0.04134628
-0.060654152 0.08427622 0.11375963 0.020093363 -0.14473356 0.13046667 0.00073661364 0.007776083
-0.03764084 0.1771874 0.029692844 -0.038302716 0.14161395 -0.1234299 -0.057045504 0.24425346

value_fc2.weight f4 [32, 64]
00000000: 3f36 363e 63db bebd e600 3d3e 2e69 303d
00000010: 7811 703e 26dd 16be 336b 83be 3002 1a3e
00000020: 4049 663b b4c9 b93c 7258 9c3e 451a 143e
00000030: 3d2e 0e3e e6c1 4f3e 35e0 2b3e aa75 ab3e
00000040: 710b 04be ec2e 03be 4c79 9e3e 7d11 ca3d
00000050: 63e7 153e fc4f 573e e2d8 a73d 055a a23c
00000060: 209a 8f3e 6b7d 953e 9fee 07be b448 3c3e
00000070: 1b63 ca3c bf4c 8a3c c347 21be 2298 933b
00000080: 0b93 31bd 8a39 6d3e 94d1 c43e 73dd 1dbe
00000090: b1ce b63d 94a2 9c3d dd42 13bd 80f1 e13c
000000a0: a18c 78be ad7d f83c 935f 253e 944d 983e
000000b0: 0b03 d6bd e15f 0f3e c2eb 123e 92d2 3e3e
000000c0: cf94 c33e b85e febd 8cf3 9c3e bc7c 83be
000000d0: a6ac 6ebd 5a96 5a3e 20cc 41be 1005 25be
000000e0: 3a3d 913d edbc 95bd eb82 ae3d 3bea 6b3e
000000f0: 3a86 573e 45ab 00be 3302 3c3e 2364 97bd
00000100: 32e2 cc3b b96c 4e3d 9751 f3bd 39e0 60be
00000110: 52d0 66be cf1d 8fbd b141 4a3d ba6c 40be
00000120: c03a 363e fe95 76be 72b5 0cbe f60b b0bd
00000130: 3a52 1c3e 73ff f93d 2540 b3bd e0c9 36be
00000140: 4379 433e 9c86 7abe 84d9 093e ada1 6fbe
00000150: 8664 8fbc b10d 09be eab4 5e3e bf7b 143e
00000160: d772 4a3e de17 5bbe e1ff 513e 9fc9 5cbe
00000170: 6cdd 58be 35de 5cbd a511 c03d e5e4 a8bd
00000180: 657a 1d3e 190a 23bc ea2c d4bc 5508 8abc
00000190: 19cd 33be 43f6 7cbe d6f9 abbd eb82 e8bc
000001a0: a6ea af3d a107 aa3c 31d4 ff3c a938 b03d
000001b0: 3d87 a0bd 9b88 843e 06d4 913d e397 a83d
000001c0: 73a9 883d ca82 0f3d eedb 9bbd fa86 313e
000001d0: e93a 39be 43ca 7fbd 05c6 9abe 08c3 63be
000001e0: 64e1 fb3d 0561 46be 9883 113d fdac 5bbd
000001f0: 7373 dfbd c0bd 843d ecb1 54be 8976 863e
00000200: 6a98 4b3e b612 a3bb 35a6 15be 7348 d9bd
00000210: 6910 0f3e 57fa 00be 2433 69be 453b 693e
00000220: 1068 fb3d 1491 a83d b0b5 68bd 2c17 303d
00000230: 7932 4abe 9a19 1abd 9256 ac3d 144a 5eba
00000240: febe 36bc 07c0 55be be28 27be b4d4 debd
00000250: 71b2 a0bc 80bb 97bd 6d26 1e3d a4e3 82be
00000260: d28f 14bb 283d 113e 995b 85be 34b9 77be
00000270: 1597 a8bc 0cca 1c3e e65f 563e dd1a 38be
00000280: 7a1c 3fbe e8ad bc3d 7dfa 05bd 77e2 8ebd
00000290: 8b35 08bd 0ea7 9dbd 5f9e 5c3e f166 3d3d
000002a0: 5efb 2d3e 6d77 9cbe 175d 3d3e a222 8dbe
000002b0: 8bf9 38be 612f 773d 80f5 a73d 1db9 463d
000002c0: a86c 673d 2e7c 13bd db10 1c3e fc82 6abe
000002d0: 1399 2d3d 1bc3 1dbe 8922 2ebe ed73 2abe
000002e0: 49a9 41be f8aa 153e 4eeb da3d 1dde 213e
000002f0: bec5 823d a630 58be 5805 3c3d 6f68 74bc
00000300: ed62 04be 3ee2 3b3d f90d 4a3e a944 153e
00000310: 2176 1cbe cf48 423e 3449 ed3d 4e7c 193e
00000320: 73d4 ecbc ad2c ed3d 2084 503e ecc2 57be
00000330: 41eb fa3d 035a 043e 6bb0 c43d 670a 43bc
00000340: 59b9 81be 803b c3be a720 45be 15b1 9fbe
00000350: 8140 6b3d 17cb 7e3e 78d5 34be 66d9 a13d
00000360: 8f0d 9d3d 535c 313d 5bab 813e e446 223e
00000370: 48cb 2c3e 4d34 613e e485 1dbe 09d3 c83d
00000380: 3756 6e3e 3a70 11be b448 3dbe f07e 85bd
00000390: 05f6 0e3e 4ddd cdbd a17a 573d a989 89bd
000003a0: 0961 9e3d 005d 6bbe 7b9b 723e b01a a7bd
000003b0: 3513 403e 90d9 343e 25c3 9f3d 7189 8d3c
000003c0: 6284 5cbe fbeb 14bd 8a34 26be b2ab 813d
000003d0: ee0e 53be 9d88 70be f066 2b3e e274 dfbd
000003e0: abe2 3f3d 15d5 2fbd 9ddd 92bd b8e8 c0bd
000003f0: e0c7 563e 250e 23be 4b6e fbbd d568 dc3d
0.1779413 -0.093191884 0.18457374 0.043069057 0.23444164 -0.14732799 -0.25667724 0.15039897
0.0035138875 0.022679187 0.30536228 0.14463146 0.13884826 0.2028881 0.16784747 0.33488208
-0.1289499 -0.12810868 0.30951917 0.09866617 0.14639048 0.21026605 0.08195664 0.019818315
0.28047276 0.2919725 -0.1327462 0.18387109 0.02470546 0.016882299 -0.15750031 0.0045042196
-0.04335312 0.2316648 0.38441145 -0.15416507 0.08926142 0.07648197 -0.035952438 0.027580976
-0.24272396 0.030333364 0.1614974 0.29746687 -0.10449799 0.14001419 0.14347747 0.18635014
0.3819947 -0.1242041 0.30654562 -0.25681102 -0.05827012 0.21346417 -0.18925524 -0.16115212
0.07091756 -0.07311425 0.08521064 0.2303857 0.21047297 -0.12565334 0.18360214 -0.073921464
0.0062525505 0.050396655 -0.118807964 -0.21960534 -0.22540405 -0.069881074 0.049379054 -0.18791476
0.17795849 -0.24080655 -0.13741091 -0.08596031 0.15265742 0.12206926 -0.08752469 -0.17850447
0.19089226 -0.24465412 0.13461882 -0.23401518 -0.017503988 -0.13384129 0.217487 0.1450033
0.1977037 -0.21395823 0.20507766 -0.21561287 -0.21178216 -0.05392285 0.093783654 -0.08246783
0.15378721 -0.009951138 -0.025900323 -0.016849676 -0.17558707 -0.24703316 -0.08397262 -0.028382739
0.085896775 0.02075559 0.03122911 0.08604557 -0.07838295 0.25885472 0.071205184 0.08232095
0.06672945 0.03503684 -0.07610308 0.17336646 -0.18088879 -0.06244875 -0.30229202 -0.22242367
0.12298849 -0.19372948 0.03552589 -0.05363177 -0.10910692 0.064815044 -0.20770997 0.2626231
0.1988236 -0.0049765958 -0.14614184 -0.10609522 0.13971104 -0.12595497 -0.22773415 0.22776516
0.12275708 0.082307965 -0.056813896 0.04299085 -0.19745816 -0.03762207 0.084149495 -0.00084796664
-0.0111539345 -0.20874034 -0.16324136 -0.10880414 -0.019616337 -0.0740881 0.038610864 -0.255643
-0.0022668731 0.14183486 -0.26046446 -0.24191743 -0.020579854 0.1531145 0.2093502 -0.17978998
-0.18663207 0.092128575 -0.032709587 -0.069767885 -0.033254188 -0.07697879 0.21544789 0.04624075
0.1699042 -0.30559865 0.18492542 -0.27565485 -0.18063943 0.06034792 0.08201122 0.04851638
0.056500107 -0.0360071 0.15240805 -0.22901529 0.04238231 -0.15406458 -0.17005362 -0.16645785
-0.18912233 0.14616 0.10689412 0.15807386 0.063853726 -0.21112308 0.045903534 -0.014917477
-0.12928362 0.04587006 0.19731893 0.14576973 -0.15279438 0.18973087 0.11586228 0.14988825
-0.028909897 0.11580787 0.20362902 -0.2107045 0.12251902 0.12924962 0.096039616 -0.011904336
-0.25336722 -0.38131332 -0.19250737 -0.3118979 0.057434563 0.2488216 -0.17659557 0.079027936
0.07668602 0.043300938 0.25326046 0.15847355 0.1687442 0.21992607 -0.15383106 0.09805877
0.23275076 -0.14202967 -0.18484765 -0.06518352 0.13961037 -0.100519754 0.052607182 -0.0671571
0.07733352 -0.22984695 0.23692124 -0.08159387 0.18757327 0.17661119 0.07800893 0.017277451
-0.21534875 -0.03635786 -0.1623098 0.063315764 -0.20611164 -0.23489614 0.16738486 -0.109109655
0.046847027 -0.04292782 -0.07171176 -0.094193876 0.20974684 -0.15923364 -0.12276896 0.107621826

value_fc2.bias f4 [32]
00000000: fd84 133e d483 013e 1af3 99bc 6ab7 85bd
00000010: 16a5 06bc 402e 313e d00b 8fbd 8d39 52be
00000020: 4f40 023e d61d 2f3e 8987 b9bd dd06 58bd
00000030: 5dab 5bbd 4e01 e1bd e2bb 883e 9d8c 613d
00000040: 202f 263e a38d 3bbb adda f0bd 99bf 413d
00000050: 07ed 893c 1b24 d03d e8a2 2e3e cc2d 893d
00000060: 5ada 4f3e bd83 32be 850f 9fbd a066 1a3e
00000070: 08ef b9bd 775b 4d3e 1358 00bd 2f67 09bd
0.144062 0.12647945 -0.018792678 -0.06529124 -0.0082180705 0.17302799 -0.06984675 -0.20529766
0.12719844 0.17101225 -0.090590544 -0.05274092 -0.05363022 -0.10986577 0.26705843 0.05506574
0.16228914 -0.0028618358 -0.11760459 0.047301862 0.016836656 0.101631366 0.17054331 0.06698188
0.20298138 -0.17433067 -0.07766632 0.15078211 -0.09078795 0.20054422 -0.031333994 -0.03354567

value_fc3.weight f4 [1, 32]
00000000: c0b6 32bd 71c5 9cbd d3c4 15be ba76 e83d
00000010: cee7 92be fd80 cebd a7b5 533d bff3 003d
00000020: 49a0 80bd 2d22 bbbd 51c3 303e 7ef6 403d
00000030: 1940 d03e 73bd 813d 23d0 f1bb ff3d 833f
00000040: cfde 873c 31eb 7ebe dd28 903e 841b 0dbe
00000050: 3df5 023f 4393 debc c7e3 ebbd d87b 733e
00000060: ff58 7cbc e9ba 263d f66b 4bbe 67e1 df3c
00000070: 4bd7 883c 1e4f a2bd 50c8 373d 8db4 a0be
-0.043631315 -0.076548465 -0.14625864 0.1135077 -0.28692478 -0.10083196 0.05168691 0.031482454
-0.06280572 -0.09137378 0.17262007 0.047110073 0.40673903 0.06334963 -0.007379548 1.0253295
0.016585736 -0.24894406 0.28156176 -0.13780028 0.51155454 -0.02716983 -0.115180545 0.23777711
-0.015402078 0.040705595 -0.19865403 0.02732916 0.016704222 -0.07925247 0.044868767 -0.3138775
