rl/spin_model_11231518/37.pt (torch_old, 159601 bytes, 12 tensors)

log_std f4 [51]
000000 fd 85 9b bc d5 7c f0 3d 0b b9 37 bd fc 56 5f 3c
       -0.018984789 0.1174256 -0.044854205 0.013631579
000010 60 63 78 3d 64 94 6f 3a 4e cc d3 3d 6e 06 67 3d
       0.060641646 0.00091392384 0.103417024 0.056402616
000020 11 e3 ad 3b 97 b6 a0 3d e4 d9 0a 3e 92 c9 11 3d
       0.0053066094 0.07847326 0.13559681 0.035592623
000030 da dc 70 3d 20 50 14 3e b0 23 1f 3e 10 c0 e0 3d
       0.05880437 0.1448369 0.15540957 0.10974133
000040 6f 39 f5 3d 24 f3 12 3e 9a 71 42 3d da 7f 13 3e
       0.11973845 0.14350563 0.04747162 0.1440424
000050 5c a5 18 3d 71 3c 9b 3d 99 e5 0f 3e 04 2e 10 3e
       0.037267074 0.07579888 0.14052428 0.14080054
000060 dd c8 4c 3e 20 f5 b4 3c 67 0b 43 3e 01 48 47 3e
       0.19998498 0.022089541 0.19047318 0.19461061
000070 2f a7 08 3e 9d 88 31 3e 03 50 0b 3d 92 33 42 3d
       0.13345025 0.1733727 0.034011852 0.047412463
000080 6c 3f b4 3c cc dc 52 bd 11 52 3b 3d c5 7a f7 3d
       0.022002898 -0.0514801 0.04573256 0.12083963
000090 a7 1f 5b 3e c6 b5 49 3d 3e c5 a4 bd 60 e6 0b 3e
       0.21398793 0.04924562 -0.080454335 0.136621
0000a0 e3 34 14 bd 1b ad 3a 3e 7f 45 91 3d 63 50 6a bd
       -0.03618325 0.18230097 0.070933335 -0.05720557
0000b0 64 66 68 3d 91 28 e6 3d 06 80 8d 3d 37 f2 df 3d
       0.056738272 0.11238206 0.06909184 0.10934871
0000c0 f0 4b b7 3d 64 c8 9b 3d 2b 0c 51 3d
       0.08950031 0.07606581 0.051036995

policy_fc1.weight f4 [64, 261]
000000 32 d8 1a bd 24 0f 22 3d ad 7b e1 bd 65 96 03 3e
       -0.037803836 0.03956522 -0.110099174 0.1285034
000010 45 46 ca bd 3d 10 37 3d dc 22 06 be ec c1 c6 3d
       -0.09876684 0.04469322 -0.13099235 0.097049564
000020 18 d9 ff 3d e6 36 7c bd 98 66 cc bd ee eb 70 bd
       0.12492579 -0.061575793 -0.09980506 -0.05881875
000030 16 c8 18 be 63 80 05 be 33 4c e0 bd 6e c7 0c be
       -0.14920077 -0.13037257 -0.10952034 -0.13747951
000040 69 10 d1 bd c6 12 9b 3d f7 34 e4 3d 8c ea 79 bc
       -0.10208208 0.0757194 0.11142915 -0.015253674
000050 49 8c 6e 3d b6 33 d5 bd 51 a2 fb 3c e1 56 e1 bd
       0.058239255 -0.10410254 0.030717047 -0.11002899
000060 8a d3 d2 3d 0c b0 01 be b5 df b3 3d a3 5b 1b bb
       0.10294254 -0.12664813 0.08782903 -0.0023705743
000070 50 45 41 3d 81 29 b3 bd 60 9b 6b 3c 87 a4 ed 3c
       0.047185242 -0.087481506 0.014380306 0.029009117
000080 aa 76 44 3b 26 b2 8d 3d 72 6f b9 bd 30 61 75 3d
       0.0029977956 0.06918745 -0.0905446 0.05990714
000090 7b 2a 30 bc f6 34 29 3e 8f b5 aa bc 5e ad 19 3e
       -0.010752316 0.16524109 -0.020838527 0.1500754
0000a0 20 e8 68 bc ad 67 14 3e ee c4 28 3e b1 3a ea bd
       -0.014215499 0.14492674 0.16481373 -0.11436976
0000b0 04 f8 d8 3d 41 03 72 bd 5f a0 e8 bd af 59 d3 bc
       0.1059418 -0.059085134 -0.11358713 -0.0257996
0000c0 f6 6b 07 be 99 1c d3 3c 38 0c 05 be 37 9b 26 3e
       -0.13224778 0.025770472 -0.12992942 0.16270147
0000d0 3e e6 18 3d 25 f5 cd bc 7f 25 1f 3e 93 dc 3d 3b
       0.03732895 -0.025141308 0.15541647 0.0028970584
0000e0 48 d1 d1 3d 0d e3 6f bd c2 1d 01 be d8 07 3f 3d
       0.10244995 -0.058566142 -0.12609008 0.04663834
0000f0 35 e4 b4 3d 8d 67 31 bd 0c c2 8e 3d 50 ce d0 3d
       0.088325895 -0.043311644 0.06970605 0.10195601
000100 e6 73 d3 3d f9 87 2f bd 55 9c 7d 3b c5 14 ad 3a
       0.1032484 -0.042854283 0.0038697917 0.0013205042
000110 ee 73 b5 3d ff f9 00 be b9 7e 08 bd 83 9d a4 bd
       0.088600025 -0.12595366 -0.033323977 -0.080378555
000120 a7 42 05 3e 6c f0 32 3c 70 20 b3 bd 5f 3d 03 3d
       0.13013707 0.010921579 -0.08746421 0.03204095
000130 1d 00 f8 3d a3 df 0b 3e 71 18 21 3d ab 20 81 3c
       0.121093966 0.1365953 0.03932995 0.015762648
000140 c0 09 cd 3d fc 1c e2 bd ad 8f ea 3c 06 9d af bc
       0.10011625 -0.110406846 0.028632963 -0.02143718
000150 b8 e7 83 bd 5c 42 d0 bd 30 03 c1 3d 96 76 af bc
       -0.06440681 -0.10168907 0.09424436 -0.02141885
000160 bc d4 ee bd 7f 02 27 bd 95 4f 5d 3d 60 f6 20 bc
       -0.116616696 -0.040773865 0.054030973 -0.009824365
000170 28 f5 22 3d 0a 08 b9 bc fa 71 19 3b 09 5e 21 3d
       0.03978458 -0.022586841 0.0023413883 0.03939632
000180 1a 13 3a 3e 13 47 7e 3d 3a b9 14 3e c8 21 2f 3e
       0.18171349 0.0620795 0.14523783 0.1710273
000190 82 f7 4c be 11 0b ce bd 23 2c 9a bd 8d a2 51 bd
       -0.20016292 -0.100607045 -0.0752795 -0.05118041
0001a0 75 60 10 3e c1 1c 76 bd 9e ca 83 3e c3 af 85 ba
       0.14099295 -0.060086016 0.25740522 -0.0010199476
0001b0 7f e0 97 bd 17 a8 f4 3d 52 80 5a bd 67 6d dc 3d
       -0.07415866 0.11946123 -0.053345032 0.10763054
0001c0 7b 0d c2 3d 8f ce eb bb 28 2f ad 3c 58 e3 72 3e
       0.094752274 -0.0071962546 0.02114065 0.23719537
0001d0 b5 19 df 3d 70 af b4 3d f7 bf 31 3d ce 6e 8b 3e
       0.10893575 0.088225245 0.043395963 0.27232975
0001e0 27 1a a8 bd 0a 6f 52 bd 58 e9 ac bd a6 75 7b 3e
       -0.08208113 -0.051375426 -0.08442944 0.24556598
0001f0 ee 8b 0c be 19 91 17 3c 35 61 90 bc 8a b3 0d 3e
       -0.13725254 0.009250903 -0.017624477 0.1383802
000200 ef db be bd 24 6e 00 bd 92 3e 8d bd 99 a8 13 be
       -0.09319293 -0.03135504 -0.068967 -0.14419784
000210 a9 d4 d5 bd 51 ab 83 bd 95 38 19 be c4 8c f3 bd
       -0.10440952 -0.064291604 -0.1496299 -0.11892083
000220 a8 e6 0b 3d 26 51 40 bd 59 66 b3 3c da 6c f1 bd
       0.034155518 -0.04695239 0.02189939 -0.1178834
000230 54 f3 23 be 8f 7f 13 be 44 ef 77 bd b4 99 bd 3d
       -0.16010791 -0.14404128 -0.060530916 0.09257832
000240 95 46 7c bd 53 11 09 3c cd 09 f2 3c 96 de e8 3d
       -0.06159075 0.008365947 0.029545689 0.1137058
000250 98 9e 31 bd 49 70 66 3d d6 45 5d 3b 30 49 d1 3d
       -0.043364137 0.056259427 0.003376355 0.102190375
000260 b9 3e f2 3c 2f 47 a0 bc ff 37 e3 bd 08 cf b2 3d
       0.029570924 -0.019565193 -0.11094665 0.08730894
000270 c8 3e 9e bd 5d 17 ce bc 19 e2 c3 3d ee 68 e0 bd
       -0.07726818 -0.025157625 0.09564609 -0.10957514
000280 6e f5 d0 3c 4c 4d 66 3c d2 61 d8 3c 95 27 05 3e
       0.025507655 0.014056515 0.026413832 0.1300338
000290 42 88 be 3d f9 e9 66 bc 39 47 23 3e 83 0b d4 bd
       0.09303333 -0.014093869 0.15945138 -0.10353758
0002a0 20 5f 0e be 99 88 03 be 01 8c 03 3e 5d 62 9e bd
       -0.13903475 -0.12845077 0.12846376 -0.07733605
0002b0 f6 f3 4f bd ea 6b 3f bb 2c 45 c1 3c 85 00 e8 bd
       -0.05076977 -0.002920861 0.023592554 -0.11328224
0002c0 5e da da bd 62 4b 7d 3b 14 96 8d 3d 4f 0d a7 3d
       -0.106861815 0.0038649668 0.06913391 0.08156835
0002d0 94 8b 9f 3d 90 20 1f 3d 91 4e 70 be 30 cc e0 3d
       0.07790294 0.038849413 -0.2346747 0.10976446
0002e0 1b fc bd 3d 4e 94 33 be 36 a2 d3 3d 05 bd 7f bc
       0.09276601 -0.17537042 0.10333674 -0.015609031
0002f0 5d 0e c9 bd 51 20 a6 3d 37 08 c8 3d 17 66 11 be
       -0.09817193 0.081116326 0.09767192 -0.141991
000300 95 ba 10 3e 1d 1a df 3d cc b7 b7 bd a0 bf 2f be
       0.14133675 0.108936526 -0.08970603 -0.17162943
000310 b3 5f ad 3d 3d c0 58 3d 3a 06 f1 bd 8e e4 b1 3d
       0.08465519 0.052917708 -0.11768766 0.086861715
000320 6d 26 61 3d 76 1e 49 be b3 9a f1 3d f4 40 0c be
       0.054968286 -0.19640526 0.11797085 -0.13696653
000330 43 10 ad bd 48 b3 46 be 2f 78 69 3d c1 81 c6 bc
       -0.08450367 -0.19404328 0.05699938 -0.024231793
000340 f7 dc 7a be 98 80 19 be 2f 0f 9e bd 0b 21 e7 bd
       -0.24498354 -0.14990461 -0.0771774 -0.11285599
000350 8c f5 b5 bd d7 ee 9c 3b 85 d5 90 3d 8a 5e d9 bc
       -0.08884725 0.004789214 0.070719756 -0.026534338
000360 eb e0 64 3b 55 70 0e 3d 2e 99 a0 3d 74 d9 0f 3c
       0.00349241 0.034775097 0.07841717 0.008779872
000370 69 1e 58 be 8d 74 6d bd d2 91 e3 bd 18 46 98 bd
       -0.2110535 -0.05797248 -0.111117974 -0.07435244
000380 2f 70 b8 bd f3 78 83 bc 1e b6 c3 bd bc 83 8d bd
       -0.09005772 -0.016048884 -0.095562205 -0.06909892
000390 12 f0 3b bd 0b 21 f3 bd f2 88 09 be 3f 0e dd 3c
       -0.045883246 -0.11871537 -0.13431147 0.026984332
0003a0 4f 27 92 bd e3 38 b8 bd 76 b1 ec bd 26 56 32 3d
       -0.07136404 -0.08995225 -0.115572855 0.04353919
0003b0 f9 aa 45 3d 6a 18 53 3d 2b 93 87 bd 4a 31 b1 bd
       0.048258755 0.051536955 -0.06619867 -0.08651979
0003c0 af c6 9d bd f4 7e 19 3c 09 42 11 be 69 74 eb bd
       -0.077039115 0.009368647 -0.14185347 -0.11496813
0003d0 b2 61 0e 3d d1 db 68 3c 46 74 21 be a8 26 a7 3d
       0.03476114 0.014212565 -0.15767011 0.0816167
0003e0 0f 0a 50 3c e7 ad c8 bd a9 94 29 be 5f d0 10 bd
       0.012697711 -0.09798794 -0.16560616 -0.03535497
0003f0 ff cf 96 3d 91 a8 bc bd 24 ae 95 bd 72 e0 b8 3d
       0.07363891 -0.09211839 -0.07308605 0.090271845

policy_fc1.bias f4 [64]
000000 3d 14 82 bb e2 67 8d bc da 32 a2 bc 1b b6 a3 bb
       -0.0039696977 -0.01726145 -0.019799639 -0.004996074
000010 76 fc bc bb ed af 59 bb a9 34 d4 3b c3 5f 89 bc
       -0.0057674004 -0.0033216432 0.006476004 -0.016769296
000020 74 40 54 bd ed 3a c4 ba 05 a7 99 3c 77 4e a9 bb
       -0.05181928 -0.0014971175 0.018756399 -0.0051668244
000030 38 bc cf bc a4 a3 da 3b fd 4b ba bc 58 27 4a bc
       -0.025358304 0.0066723395 -0.022741312 -0.012338482
000040 11 df 2b bc f0 a3 25 bc 91 de dc 3a 3d 11 50 bc
       -0.010490195 -0.0101098865 0.0016850998 -0.012699422
000050 a3 4f 3c bc 13 77 0e bd ef 45 18 3c d8 1b 9a bc
       -0.011493596 -0.034781527 0.009294017 -0.018812105
000060 45 0e 8b bc 37 f8 4d bd d4 cd 7e bc aa 4f de 3b
       -0.016974578 -0.050285544 -0.015552003 0.006784399
000070 51 26 cd bc 20 17 a1 bb 62 f0 84 3a 52 28 0e bd
       -0.025042685 -0.004916087 0.001014244 -0.03470642
000080 32 83 30 bd f8 da 23 3c c8 73 87 bb f7 cd 4b bc
       -0.043093868 0.010000937 -0.0041336752 -0.012439243
000090 cd 8e 82 3a c8 93 b2 bb 51 39 99 3b 76 b5 46 bc
       0.0009960771 -0.005449746 0.004676022 -0.012128225
0000a0 98 06 97 bc 24 67 02 bc 5d ff 76 bd 71 d1 06 3c
       -0.018435761 -0.007959161 -0.060302127 0.008228646
0000b0 3e 7b d4 bc ad 38 e9 bb 04 ab ca bc 78 fa 10 bc
       -0.025937673 -0.007117352 -0.02473975 -0.008848779
0000c0 88 cb be bc 8e ab 6f bc d8 f0 72 bc 1e d8 08 bd
       -0.02329041 -0.014628304 -0.014827929 -0.03340923
0000d0 40 50 4a b7 cb 9d c1 3b 17 3c 5f bc 79 4a d5 bc
       -1.2058823e-05 0.005908703 -0.013625166 -0.026036488
0000e0 36 fc 9b bc aa 2a a0 3b df 8a a6 bc f2 fb 38 bd
       -0.019041162 0.0048878985 -0.02032989 -0.04516215
0000f0 e3 de ad bb bf 79 8d 3c 2a f8 85 bc be 0f ff 3b
       -0.005306111 0.017269967 -0.016353685 0.007783859

policy_fc2.weight f4 [32, 64]
000000 e1 7d 1f be e5 6e d8 3d c7 7c c7 bd 16 0a 49 be
       -0.15575363 0.105680265 -0.09740596 -0.19632754
000010 93 0e 8a 3d 98 f3 03 be 51 ff f3 bd eb b5 17 be
       0.06741061 -0.12885892 -0.11913932 -0.1481549
000020 69 6b 0d be 47 02 14 3e 23 8a ce 3d b3 c5 67 bd
       -0.13810505 0.14453994 0.10084941 -0.056585025
000030 d0 ec b7 bd a1 cd d3 3d ff 05 25 bd 5d c4 c6 bd
       -0.08980715 0.10341955 -0.04028892 -0.09705422
000040 1b 29 96 be 84 33 66 be 67 49 6e 3d e1 ea 2c 3e
       -0.29328236 -0.22480589 0.05817547 0.16886474
000050 5f ea ad be d7 29 27 3e 11 bd 68 3d 70 a7 1a be
       -0.33967873 0.16324554 0.056820933 -0.15102935
000060 a7 b0 e1 bc 50 b3 2e be 74 fe f0 3d 52 2a e9 bd
       -0.027550055 -0.1706059 0.11767283 -0.11385025
000070 da 37 8f 3e 39 56 4a bd 34 f8 04 be a3 c3 05 be
       0.279723 -0.049398635 -0.12985307 -0.1306291
000080 e9 57 89 bd 1f d9 20 3e 95 5c 03 3e 0b b8 27 be
       -0.06706221 0.15707825 0.12828286 -0.163788
000090 75 ae 7e bd 39 33 46 be 6a 46 53 be 53 43 ad 3d
       -0.062178094 -0.19355477 -0.2063233 0.08460107
0000a0 4d 0e 9e bc 7f d7 81 3e 13 85 7d 3e 69 57 89 be
       -0.019293929 0.25359723 0.24757795 -0.268245
0000b0 92 75 46 3e df fa 86 be b0 80 70 be 13 ed 76 bd
       0.19380787 -0.26363274 -0.2348659 -0.060284685
0000c0 fd dd 73 3e 39 89 8f bd 41 9f f5 3d 41 8f 8f 3e
       0.2381515 -0.07008595 0.11993266 0.28038982
0000d0 be 0c 5c 3c 42 da 3b 3d 1a f7 18 3e 3d cd a2 bc
       0.013430772 0.045862444 0.14938012 -0.019873256
0000e0 89 aa 3e bd 7a ef 0e be b5 4f 30 3e 5d f7 ac bc
       -0.046549354 -0.1395854 0.17217906 -0.021114046
0000f0 03 21 10 be 4b 9c ea bc d9 a3 36 be 92 a6 7d bd
       -0.14075093 -0.02863898 -0.1783594 -0.061926432
000100 84 f3 58 3e 4c c0 eb b9 58 c3 f1 bd b0 d7 0c be
       0.21186644 -0.00044965965 -0.11804837 -0.13754153
000110 76 6f 5e 3e 7b 6c 2b be 9d fa 90 3d 9c ea 51 3d
       0.21722206 -0.16740601 0.07079051 0.05124913
000120 b5 5a be bc 20 bc 69 be 6d 32 be 3d 5c ca 3e be
       -0.023236612 -0.2282567 0.09286962 -0.18631881
000130 6d e7 42 be 99 95 93 3e c8 be 02 be 72 6e 3d 3e
       -0.19033594 0.2882507 -0.1276809 0.18499163
000140 20 d6 76 bd 63 4b 70 3d c3 4f 8c bd b2 1b 5b 3e
       -0.0602628 0.058665644 -0.06851151 0.21397284
000150 aa 67 42 be dc df 81 bb d7 ae 35 3e 47 bd 9c bc
       -0.18984857 -0.0039634537 0.17742477 -0.019133223
000160 74 db 0a 3d e0 93 ba 3d 12 f7 04 bd c6 76 c7 bc
       0.033900693 0.09110236 -0.032462187 -0.024348628
000170 07 04 46 be 7c b7 e3 3d e6 58 08 be 2a a1 e8 bd
       -0.19337474 0.11118981 -0.13315162 -0.113588646
000180 4d 24 16 3d 40 fe 4b 3e 8b 32 16 3e 5e 33 9d bc
       0.036655713 0.19921207 0.14667718 -0.019189533
000190 a7 22 df bd 23 91 dc 3d b0 34 00 3e 88 90 d7 bd
       -0.10895281 0.1076987 0.12520099 -0.10525614
0001a0 f9 4c e2 3d 3f 41 53 be b7 a7 fa bd da af 11 3e
       0.110498376 -0.20630358 -0.1223902 0.14227238
0001b0 a6 71 63 be 89 b3 4d be 93 08 cb bc 53 ef 78 be
       -0.22211322 -0.20088018 -0.024784362 -0.24310045
0001c0 b5 e3 9b bc 37 6e 16 be 31 aa 9f bd d6 d6 8d bd
       -0.019029478 -0.14690481 -0.07796133 -0.06925742
0001d0 21 c7 b9 bd 36 dc 1e bd 03 89 45 bd cc e7 32 bd
       -0.09071184 -0.03878423 -0.048226368 -0.04367809
0001e0 04 24 2b be a5 97 03 be e2 8a ab bd 70 4e cd bc
       -0.16712958 -0.12850817 -0.08376099 -0.025061816
0001f0 5c df 93 3d 89 4c 30 3e 8a 83 0f 3d 9a 92 f1 bc
       0.07220337 0.17216696 0.035037555 -0.02948885
000200 db fb 49 bc 24 cd 16 be b2 6a 90 be f1 ab 9a 3c
       -0.012328113 -0.14726692 -0.28206402 0.018880816
000210 48 2b 63 be 9c 44 a0 3c 6e e6 f5 3d 17 5c 96 3c
       -0.22184479 0.019563965 0.120068416 0.018354459
000220 38 9c 30 3e bf a7 ab 3b 48 67 bc bd 2c 70 a2 3d
       0.17247093 0.0052385028 -0.09199387 0.07931551
000230 3c 85 fe bc 4e eb e9 bd 7f 46 b4 3c 43 ae 80 be
       -0.03106939 -0.11421834 0.022006271 -0.2513295
000240 bb 34 b5 3d 04 ae c9 bd ef 43 04 be 3f 9f a1 be
       0.08847948 -0.09847644 -0.1291654 -0.31566808
000250 37 a0 d0 bb f6 e5 1f be 47 b2 7f 3e 2e 34 a5 be
       -0.0063667553 -0.15615067 0.24970351 -0.32266372
000260 36 5e 81 bd c1 c0 32 3e fe 0d c7 bd 58 49 38 3d
       -0.063167974 0.17456342 -0.09719466 0.04499182
000270 0c 19 3e 3e 38 fc 82 be 8d 11 30 3e 6f fb 3e 3d
       0.18564242 -0.25583053 0.17194195 0.046626505
000280 1d cc f0 bd f7 a4 dd bd 05 c2 a9 be 39 39 7e 3d
       -0.117576815 -0.1082248 -0.33155838 0.06206629
000290 ac 18 8b be 93 a2 b2 be 91 a6 02 be d7 46 1a 3e
       -0.2716726 -0.3488966 -0.12758853 0.15066086
0002a0 c5 2a b5 bd 60 09 58 3d cb 9c 42 3d 0c cc 36 3e
       -0.08846048 0.052743316 0.04751281 0.17851275
0002b0 09 00 09 bd b0 b1 23 3e 8d 62 80 bd 9f f7 4a 3e
       -0.0334473 0.15985751 -0.06268797 0.19821022
0002c0 fd 9e 20 bd 78 cd 47 be 79 79 50 3e 73 81 28 3e
       -0.039214123 -0.19511974 0.20358838 0.16455631
0002d0 7c e2 7e be 12 bc b6 3c 84 16 20 be 86 20 2b 3e
       -0.24891084 0.022306476 -0.15633589 0.16711625
0002e0 75 ec 85 39 68 4b 29 3e 18 82 09 3e ef 55 2a bd
       0.0002554391 0.16532671 0.13428533 -0.04158586
0002f0 ca b0 7e 3d a9 b8 a5 bc e6 dc 54 3e 2c 20 76 3e
       0.062180318 -0.020229654 0.20787391 0.2403571
000300 ae e0 1a be f1 9c 40 be 3f 6f 0e be 29 9e 34 3e
       -0.15124771 -0.18809868 -0.13909625 0.17638458
000310 59 7a d0 3d 8e 71 12 bd f3 90 31 3b 11 5a cf bd
       0.10179586 -0.035752825 0.0027094453 -0.10124601
000320 3a 69 67 3d c3 c5 80 3e 9f 97 3b be 18 cc 6a 3e
       0.056496836 0.2515088 -0.18319558 0.22929418
000330 60 14 f6 bd c2 91 f5 bd 71 20 26 be 3a 66 81 be
       -0.12015605 -0.11990692 -0.16223313 -0.25273305
000340 b8 e7 31 be fc e5 1d 3e a4 a8 5e be f6 7b b2 bd
       -0.1737355 0.15419763 -0.21744019 -0.0871505
000350 33 93 89 bd c9 a2 e1 3d 57 b0 1b 3e 31 75 09 3e
       -0.06717529 0.11017377 0.15203987 0.13423611
000360 5f 86 62 3d ca d9 4f 3e 13 68 15 3e 7c 35 1b be
       0.055303928 0.20297924 0.14590482 -0.15157121
000370 7a 33 a3 bd d6 b2 59 bd 46 b4 d1 3d 13 95 20 3e
       -0.07968803 -0.053149067 0.102394626 0.15681867
000380 37 ed 91 bd f9 35 ac bc 65 51 2c 3e 57 89 ff 3d
       -0.07125323 -0.02102183 0.16827925 0.12477367
000390 c3 d9 a6 bd 22 81 50 be 2f d5 a6 be c4 1b d7 bd
       -0.081470035 -0.2036176 -0.3258452 -0.10503343
0003a0 5f 00 0e be 08 ab 6e be 04 e0 8c 3d 21 6e 1f bc
       -0.13867329 -0.2330743 0.06878665 -0.009730847
0003b0 8b 7e 01 3e b6 ab 68 3e 91 65 22 3e fe 0b 2a bd
       0.12645929 0.22721753 0.15859057 -0.041515343
0003c0 46 8d 05 bd 22 e4 72 bc ec bf 87 be fa cd 95 bd
       -0.032605432 -0.014824899 -0.26513612 -0.073146775
0003d0 ad ab 39 3d e8 a5 5c 3e d2 84 44 3e 28 46 41 be
       0.04532974 0.21547663 0.19191292 -0.18874419
0003e0 5f 7d 94 bd bf 85 30 be 3f fe 5d be a2 3b 05 be
       -0.07250475 -0.1723852 -0.21679018 -0.1301103
0003f0 07 cc 19 3e f3 b6 08 be 1c 66 57 be 3f b3 26 3d
       0.15019237 -0.1335104 -0.21035045 0.040698286

policy_fc2.bias f4 [32]
000000 06 7e 2f bd 40 a6 33 3d 14 a6 fb bb bb 2c 04 3d
       -0.042844795 0.04385972 -0.00767971 0.03226922
000010 9b f4 7b bb 02 b9 a3 3c 77 8a 87 3c 7b ec 31 3d
       -0.0038445357 0.01998568 0.016545517 0.043438416
000020 bf aa 9e bc bd d9 9e 3c 4b 5a 4e 3b 7e 78 85 3d
       -0.019368527 0.019390935 0.0031486924 0.06517123
000030 f3 84 1b 3d 85 0d a1 bc 57 2d 59 bd 0b 90 8f bb
       0.037968587 -0.019659767 -0.053021755 -0.004381185
000040 aa eb e5 3c 01 3a 29 3d 75 86 af bb 55 33 f7 3c
       0.028066475 0.041315082 -0.0053566047 0.030175844
000050 4a aa 34 bd b4 23 05 3c 33 1a 1d bc 67 e1 93 bc
       -0.044107713 0.008126188 -0.009588766 -0.018051816
000060 6f 0a 23 ba 7f c8 00 3d 8e 52 5a 3c 57 b1 0c 3c
       -0.0006219511 0.031441208 0.013325347 0.008587203
000070 f6 38 e1 bc 4e d6 37 3d b7 78 65 bd 14 a4 d3 3c
       -0.027492981 0.04488211 -0.056023326 0.025835074

policy_fc3.weight f4 [51, 32]
000000 8d 27 2c 3d 99 30 cd 3c 7f 2b 8b be fe cf e1 3d
       0.042029906 0.025047587 -0.27181622 0.110259995
000010 ad b1 2e be 89 20 33 3e 43 58 06 3d 08 a2 63 3e
       -0.17059965 0.1749288 0.032799017 0.22229779
000020 19 02 c9 3e a9 53 6c 3e 08 a4 29 3e c3 5a 00 bc
       0.39259413 0.23078789 0.16566479 -0.007834139
000030 d8 0a d9 bc 34 5e 02 be 60 d1 6d be df 6f fc 3d
       -0.026494429 -0.12731248 -0.23224401 0.12326025
000040 a7 a0 d1 3d 8a 8c ab 3e e6 2d e5 3b 49 95 46 be
       0.1023572 0.3350566 0.006993997 -0.19392885
000050 c1 eb 80 be a3 22 ae bd 68 f8 e7 3d 3b de 00 be
       -0.25179866 -0.085027 0.113266766 -0.12584774
000060 03 b2 0b 3e 96 63 71 bd 30 a9 4c be 57 33 5e bc
       0.13642125 -0.058932863 -0.19986415 -0.013562045
000070 f4 d2 cd 3b 3b bd 1f be 39 88 02 be b6 af d4 bd
       0.006281251 -0.1559953 -0.12747277 -0.10385077
000080 e6 53 89 3e 3f df 60 3d c5 07 75 3e 11 c1 3b 3e
       0.26821822 0.054900404 0.23928745 0.18335368
000090 91 e0 5a 3e 4b 70 5c be 1f 95 54 be 51 46 ba bd
       0.21374728 -0.21527211 -0.2076001 -0.09095443
0000a0 6e 1e 30 be 52 54 1b bc 94 4f 47 3e 80 3f 86 3e
       -0.17199108 -0.009480553 0.1946395 0.26220322
0000b0 14 47 c3 bd 3c d8 53 bc c0 d5 06 3e 3c 77 a1 bd
       -0.095350415 -0.012929972 0.13167477 -0.0788407
0000c0 82 fa 80 3e fe 0c af bc 8d cf 1f 3e a7 9d 39 3c
       0.25191122 -0.0213685 0.15606518 0.011329091
0000d0 07 aa 06 be 76 db 0d 3c 6b 42 8e 3e 4c 22 0c 3e
       -0.13150798 0.008658281 0.27785048 0.13684958
0000e0 b1 f2 98 bd 82 f4 eb 3d 81 f1 29 3d 0f 6f 1c 3d
       -0.07468165 0.115212455 0.04149008 0.03819185
0000f0 93 7a 66 be 99 c1 1d be 23 1e 87 bd 9b a0 0c 3e
       -0.22507696 -0.15405883 -0.06597545 0.13733141
000100 43 da 85 bd 30 db 90 3c 57 8a 80 be 6f 5a 22 3e
       -0.06535771 0.017682642 -0.25105545 0.1585481
000110 9f 20 2c be eb 57 3b 3e a1 c5 49 3e eb 5a ba bd
       -0.16809319 0.18295257 0.19704296 -0.090993725
000120 7f a2 42 be 79 ce c3 3d 84 84 13 be a8 5a 83 be
       -0.190073 0.09560866 -0.1440602 -0.25655103
000130 21 05 e8 bd 78 b5 13 3e 9d 75 ec bd 1a 31 51 be
       -0.11329103 0.14424694 -0.115458705 -0.20428887
000140 b5 4d 84 be 9f ff 99 3e 52 51 59 3e f3 c5 0a 3d
       -0.25840536 0.30077836 0.21222427 0.033880185
000150 16 80 c3 bd 47 a6 28 3e 4f 98 6a 3d e6 28 4b 3d
       -0.09545915 0.1646968 0.05727416 0.04959955
000160 3b 3b a1 3d ab 5a bd 3e d8 cc 84 3e ee 12 1d be
       0.078726254 0.36983237 0.25937533 -0.15339252
000170 32 1d 66 3e 71 ef 5a 3e 1e 8c 7e 3e 2c 70 66 3c
       0.22472075 0.21380402 0.24858138 0.01406483
000180 2b 93 12 be 78 1b 50 3d 7c ba 34 3e 08 67 35 be
       -0.14313953 0.050807446 0.17649263 -0.17715085
000190 da a3 1d 3e 86 60 3d 3e 13 3b ed 3d e7 ba e3 bc
       0.15394536 0.18493852 0.11583533 -0.027799083
0001a0 d2 68 68 3e cc a0 0a 3e 2b a5 87 3d 72 33 91 3c
       0.22696236 0.13537902 0.066233 0.017724726
0001b0 1b fc af bd 6d 5e 5b 3e 65 74 49 3e 03 f2 48 bd
       -0.08593007 0.2142274 0.19673307 -0.049058925
0001c0 5a 88 1a be 41 c3 2a bd ec 3a 4f 3e 26 7c 50 3e
       -0.15091076 -0.041690115 0.2023732 0.20359859
0001d0 1f 67 29 be f6 b1 cd bd 47 55 38 be 39 db 06 3e
       -0.16543244 -0.10043709 -0.1800128 0.13169564
0001e0 f2 6f 5e 3e 62 79 32 3c 2b a2 26 be 37 ac 9d 3e
       0.21722391 0.010893198 -0.162728 0.30795452
0001f0 82 5c b7 bd 06 c3 da bc e7 a9 91 be d2 21 b9 3a
       -0.08953191 -0.026704323 -0.28449938 0.0014124459
000200 8a c6 23 be 42 bc 59 3e 54 59 d5 bd 1d 90 f0 3d
       -0.15993705 0.21263221 -0.104174286 0.117462374
000210 0b 36 f9 3c c0 7d b7 3d 8c 9f 88 3e 52 05 04 3e
       0.030421278 0.08959532 0.26684225 0.12892655
000220 3e 1e 84 be ad df 36 3e d3 c5 0c 3e ff 5b 8f 3d
       -0.25804323 0.17858763 0.13747339 0.06999969
000230 58 b3 79 3d fa 04 9a be 77 63 82 3d 0d 6d 31 be
       0.06096205 -0.30081922 0.06366628 -0.17326756
000240 1b fd 5c be fb 11 21 be 06 c8 52 be 42 41 7c 3e
       -0.21580927 -0.15729515 -0.20584115 0.24634269
000250 cd 3e 6e be 1c 02 3f 3e 99 44 d1 bc d7 15 ab 3d
       -0.23266144 0.18653148 -0.025545405 0.08353775
000260 4a ce f6 3d 9d c2 5d 3e c8 fa 0e be af e1 89 3e
       0.12051065 0.2165627 -0.13962853 0.26929995
000270 b8 1d f6 bd 58 51 1c be 8c 00 41 bd fe c2 24 be
       -0.12017387 -0.15265405 -0.047119662 -0.16090009
000280 3f b7 65 3e ae 68 38 3e 2a 22 65 3e e7 f2 0b 3e
       0.22433184 0.18008682 0.22376314 0.13666879
000290 72 3b 63 be 0f 88 88 bd 17 1c 8e be 13 eb 13 3e
       -0.22190645 -0.06666576 -0.27755806 0.14445142
0002a0 2f d7 fc bc c7 9a 4f be e0 9e 6d 3d 42 52 50 3d
       -0.030864326 -0.20273887 0.058012843 0.050859697
0002b0 73 c5 a0 3d 30 19 9e 3d bd fd 7c 3e 24 67 00 be
       0.078501604 0.07719648 0.24706168 -0.12539345
0002c0 37 41 10 bc 96 d1 18 3e cc 6f 96 be e8 63 1c 3e
       -0.008804611 0.149237 -0.2938217 0.15272486
0002d0 52 6f d6 bd af 65 0f 3e 99 66 ce 3d 09 6f 23 3e
       -0.104704514 0.14003633 0.10078163 0.15960325
0002e0 16 6e 8e 3e c4 93 73 be 6c fe 68 3d 98 6b 80 be
       0.27818364 -0.23786837 0.05688326 -0.25082088
0002f0 bc 13 7a 3e 65 3f 27 bc 65 8e a7 3d ab e1 7f be
       0.2442159 -0.0102079855 0.081814565 -0.24988429
000300 a0 b0 f0 3d b5 38 cc 3d d8 6c 85 3d c3 18 43 3e
       0.117524385 0.099717535 0.06514901 0.19052415
000310 56 30 fc bd 94 0c e3 3d 05 a0 ca bd b6 aa 1a be
       -0.12313907 0.110863835 -0.098938026 -0.15104184
000320 6a af 74 be 80 99 a1 3e db e0 d5 bd d1 1a 9e bd
       -0.2389504 0.31562424 -0.104432784 -0.077199586
000330 4f 67 4b 3d 01 b9 7b 3e 47 55 d8 bd 15 59 e6 bd
       0.04965907 0.24582292 -0.1056314 -0.1124746
000340 51 ee b0 3c 42 c2 80 bc 11 0b 01 be 0e 62 58 be
       0.021598013 -0.01571763 -0.12601878 -0.21131155
000350 20 24 18 be f8 a4 84 be 64 34 44 3d 48 46 e9 bc
       -0.1485753 -0.2590711 0.047901526 -0.028475896
000360 41 b2 9c bd 2f 58 89 3d 21 65 b8 3d 8b 95 ac 3c
       -0.07651187 0.06706273 0.09003664 0.021067401
000370 f5 0f bd 3d dd 58 2c 3e 6a 4a 8a 3e 4e 72 c4 bd
       0.09231559 0.16830774 0.27009898 -0.095921144
000380 d8 7d f9 bd c7 ac 02 3e 0a fd 76 3e ad 8a 70 be
       -0.12182206 0.12761222 0.24119964 -0.234904
000390 59 d9 ca bd aa 09 56 3d 89 d6 3a 3e 99 ac 68 3e
       -0.09904737 0.05225531 0.18245901 0.22722091
0003a0 99 ee 8e 3d 4e 56 c4 bd 2d 36 08 bd 8c fe 16 be
       0.06979103 -0.09586774 -0.03325479 -0.1474554
0003b0 bc 56 1a 3e 96 cb 71 be 66 bb 25 3e a1 c0 f3 bd
       0.15072149 -0.23612818 0.16184768 -0.119019754
0003c0 e0 13 26 be 22 29 59 3c 56 1c 6c 3e 40 9e 2c 3e
       -0.16218519 0.013254436 0.23057684 0.16857243
0003d0 fe 9d d4 3d f2 f5 c0 ba 2f 6e 8e 3d 6b dc 32 be
       0.10381697 -0.0014721735 0.069546096 -0.17466895
0003e0 39 d8 ae bd de 56 aa bd 05 b9 0a be 45 82 57 be
       -0.08537335 -0.0831735 -0.13547142 -0.21045788
0003f0 e6 94 26 3c e6 0b ed 3d dd 46 ae be 8e e4 0a be
       0.010167336 0.11574535 -0.3403844 -0.13563749

policy_fc3.bias f4 [51]
000000 68 ea a8 3c b2 16 3c bc c2 54 a6 bd 64 d2 0c 3e
       0.020619586 -0.01148002 -0.08121635 0.13752133
000010 bd 4e 6c 3d 82 16 82 3c dc 2c 84 bc 7e 57 bd bd
       0.05769228 0.015879873 -0.016134672 -0.092452034
000020 d8 69 8e bb da cd 0a bd 1c 2f 4d bd 1a 79 8a 3d
       -0.0043461137 -0.03388772 -0.050093755 0.067613795
000030 9a 4d d7 bc 6d cc c9 3c 6d e6 79 bc 4c b3 35 bd
       -0.02628212 0.02463361 -0.015252692 -0.044360444
000040 19 7b 5d 3d ca f4 03 be a0 af 85 3d 37 69 be bc
       0.054072473 -0.12886348 0.065276384 -0.02324353
000050 2f 8a 15 3c a7 45 98 3d 7b a5 ae bc f2 00 c5 bd
       0.009127184 0.0743516 -0.021319142 -0.09619321
000060 9b 9b 94 bd ab 63 09 bd c6 67 88 3b 3b 92 86 bd
       -0.07256242 -0.033542316 0.0041627614 -0.0657086
000070 4d 7b 2e bb 18 24 32 3d 18 d9 e8 ba e9 53 81 bd
       -0.0026623786 0.043491453 -0.0017764894 -0.06314833
000080 4e 5b ed 3b f2 61 c8 bc e1 13 27 3c cd 66 fa bc
       0.0072435504 -0.024460766 0.010197611 -0.030566597
000090 a8 ad d5 bc d6 37 31 3d 2a 81 d4 bc 6f fa d6 bd
       -0.026083782 0.04326614 -0.025940496 -0.10496985
0000a0 2e 17 92 bc 8c 1d 05 bd 29 96 91 3b 7f a3 00 bd
       -0.017833319 -0.03249888 0.0044429493 -0.031405922
0000b0 b0 4e 29 3d f8 ae 66 3d 1e 9f e7 bc 7b 5e e0 bd
       0.041334808 0.056319207 -0.028274115 -0.10955521
0000c0 04 15 48 3d 19 fe e2 bb 32 7d 91 3c
       0.048848167 -0.0069272635 0.017759893

value_fc1.weight f4 [64, 261]
000000 f9 9b 7a 3d 40 41 7d bb 33 66 ca bd 3b 0b 87 bd
       0.061183903 -0.0038643628 -0.09882774 -0.06593939
000010 2b f5 22 bb 48 2b 00 3e 0e 38 b5 3b 9e 9c b3 bd
       -0.002486537 0.1251651 0.005530364 -0.08770107
000020 ff 69 14 ba 35 b1 9f bd 1d 37 8f be 99 13 de 3d
       -0.00056615466 -0.077974714 -0.27971736 0.10843582
000030 72 bf 64 bc 6e c0 63 be a6 d1 30 3d b3 3a 82 be
       -0.01396166 -0.22241375 0.043168686 -0.2543541
000040 65 4d 19 be 74 49 10 3e 77 33 48 3d 0c 90 f3 bd
       -0.1497093 0.1409052 0.048877206 -0.11892709
000050 54 50 42 bd e8 2b 22 3e cf 16 27 be c1 4c 12 3d
       -0.047439888 0.15837061 -0.16317295 0.03571773
000060 83 01 19 bd 92 4f 4f be 86 9c f5 bb 5e 6a b9 bc
       -0.037354957 -0.20245197 -0.0074954657 -0.022633728
000070 fb 21 d9 bc 2a 2b 42 bd 76 f1 bc 3d 5d 49 0f be
       -0.026505461 -0.047404446 0.092257425 -0.1399283
000080 30 43 b4 bd f0 87 4d 3e 9e 27 de bd 40 42 ca bd
       -0.088018775 0.20071387 -0.108474 -0.098759174
000090 ef dc ca 3d 25 e6 f6 3c 30 35 33 bc a4 14 70 3e
       0.09905421 0.030139038 -0.010937974 0.23445374
0000a0 7a 55 51 3d fc c0 15 3c 1c 80 e4 3d 45 35 75 3d
       0.051106907 0.009140249 0.111572474 0.059865255
0000b0 1a cd 60 3d 74 8b ff bd e0 a8 d2 bd bc 67 93 bd
       0.0548831 -0.124777704 -0.102861166 -0.0719752
0000c0 aa 7e 11 bd 3e 85 ac 3d 10 62 1f 3d a5 c6 01 3e
       -0.035521187 0.084238514 0.03891188 0.12673433
0000d0 cb 16 03 3e 54 bf e1 3c 6f e7 38 3d 55 60 0f bd
       0.12801664 0.027557053 0.045142587 -0.03500398
0000e0 72 8d da bd 30 03 aa bd 05 5b 46 be 58 d6 bb bd
       -0.1067151 -0.08301389 -0.19370659 -0.09171742
0000f0 86 90 0b 3e d8 ce e3 bc 00 d5 8e bb 36 87 de bd
       0.1362935 -0.027808592 -0.0043588877 -0.10865633
000100 10 24 ab 3c 45 70 99 bd b8 86 07 3e 04 86 9e 3b
       0.02089122 -0.07492117 0.13234985 0.0048377533
000110 0e f2 9b 3d cd 71 9b bd 3a d4 7a 3e d0 c0 8b 3d
       0.07614528 -0.07590065 0.2449502 0.068238854
000120 3e e5 89 3b a3 61 19 3e c5 f7 48 3d 87 1d 7d 3c
       0.004208236 0.14978652 0.049064416 0.015448934
000130 90 67 04 be 7e b8 fe 3d 85 ef 01 3e bd 7d 73 3e
       -0.12930131 0.12437533 0.12689026 0.23778434
000140 18 2e 16 3c 06 9b c7 3d 06 ee 1a be 03 2d 5a be
       0.009166263 0.09746365 -0.15129861 -0.21306233
000150 16 cd 21 be 70 7a 3a 3e e4 fe 64 be b7 db 27 be
       -0.1580089 0.18210769 -0.22362858 -0.16392408
000160 71 3f 97 be 62 97 6d bd ad 7b a4 3d bf f5 b1 bd
       -0.2954059 -0.058005698 0.08031402 -0.086894505
000170 23 5f c7 3b 2c 1f 9d bd e9 af 13 3e 90 0a 2a bd
       0.006084339 -0.07671961 0.14422573 -0.04151398
000180 14 23 16 bd 9a 11 1d 3e 2f e1 3f 3d 99 91 ae be
       -0.036654547 0.15338746 0.04684561 -0.34095457
000190 b0 99 11 be a4 fb 37 3e d7 5f a6 3c dc 91 1f be
       -0.14218783 0.17967087 0.020309372 -0.15582985
0001a0 84 a2 17 be e3 6e 40 3c dd 37 ff 3c f1 63 9a bd
       -0.14808089 0.011745187 0.031154567 -0.075385936
0001b0 fc d4 16 3e 2c 9b ef 3d e9 ca 37 be 9c d1 89 3b
       0.14729685 0.116995186 -0.17948498 0.0042058956
0001c0 40 d5 6c 3d 5d 70 19 3d 92 6b 39 3e 78 e8 b5 3d
       0.05782056 0.037460674 0.18107441 0.088822305
0001d0 e4 14 47 3e d3 4e 71 3b 9f b4 34 3e 0c 45 78 bb
       0.19441563 0.0036820665 0.17647026 -0.0037882952
0001e0 6e 51 55 3d 85 4b e6 3c bf 09 1b 3e 37 88 94 3d
       0.05207961 0.028112182 0.15140437 0.072525434
0001f0 16 1a 18 3d 96 f2 77 bd 2b d1 54 bb 91 a4 37 bc
       0.037134252 -0.060534082 -0.0032473307 -0.011208669
000200 03 24 7f bc 3f fb 7a be e0 73 08 bd 4a db 47 3d
       -0.015572551 -0.24509905 -0.033313632 0.048793115
000210 01 73 23 bd 93 8e d4 bd 17 bd 04 bd 62 0b 7a 3b
       -0.0399046 -0.103787564 -0.032406893 0.0038153757
000220 fa db 61 be 28 e3 8e 3d cd de 88 3b 3e 55 7b be
       -0.2205657 0.0697692 0.0041769505 -0.24544236
000230 c8 bd 7c bd 2d d1 92 3d 22 81 60 bd d9 3e e2 3d
       -0.061704427 0.07168803 -0.05481065 0.110471435
000240 48 0a 15 be 7f 42 90 bd a2 61 81 3d 43 8c dc 3d
       -0.14554703 -0.07043933 0.0631745 0.1076894
000250 ed 05 12 3e b3 03 d4 bd 33 c6 8c 3d 89 b5 cb 3d
       0.14260073 -0.10352268 0.06873741 0.099467345
000260 e2 ae 01 3e a5 6f 17 be 28 77 00 be 45 8f e2 bb
       0.12664369 -0.14788683 -0.12545455 -0.0069140517
000270 04 13 36 bd a0 28 42 bd fe 0f 17 3e a0 9e 0b 3e
       -0.04445173 -0.047402024 0.14752194 0.1363473
000280 78 9b ca bd 0d 1c 91 3d 93 5e e2 3d e1 6f 2e 3d
       -0.098929346 0.070854284 0.11053195 0.042587165
000290 ca e6 ad bd da 2d 14 3e 02 fc fd bc 72 4b c3 3d
       -0.08491285 0.14470616 -0.031003956 0.095358744
0002a0 96 73 af 3d d8 34 ad 3d 2e 14 7f 3d 86 e9 3d 3d
       0.08566968 0.08457345 0.062275104 0.046365283
0002b0 2c 17 1b 3c 37 c3 99 3d a0 9c 17 bd 46 40 87 3d
       0.009465974 0.075079374 -0.037014604 0.06604056
0002c0 e7 ae d3 3d 91 35 8f bc 1f 48 c6 3d 73 36 ef bd
       0.10336094 -0.017481597 0.09681725 -0.11680307
0002d0 a1 8c 37 bd 40 4c ba bd 69 a8 35 bd c5 a3 e4 3d
       -0.04481185 -0.09096575 -0.04435006 0.11164049
0002e0 86 4f 38 39 97 6a 86 3d f7 7d d4 bb c9 54 af 3d
       0.00017577232 0.06563299 -0.0064847427 0.08561093
0002f0 43 fc a3 bd e0 79 9f bc 33 f1 22 3c 36 5a c5 bd
       -0.080070995 -0.019467294 0.009945202 -0.09636347
000300 a4 d0 21 3d 09 ad af bd d5 c1 b9 bd 28 5f eb 3d
       0.039505616 -0.08577926 -0.09070174 0.11492759
000310 67 dc 40 3c c4 19 5f bd 85 91 fc 3d d7 4a a9 3d
       0.011771298 -0.05446793 0.12332443 0.08266228
000320 1b 3d 27 be 25 4c 00 be 02 0f ce 3d 9b 40 7e 3d
       -0.16331904 -0.12529047 0.10061456 0.06207333
000330 51 9b 8a 3d 7e d1 80 3d 09 43 94 3d 3c 0c 1c 3c
       0.067679055 0.062899575 0.072393484 0.009524401
000340 75 0c e6 3c 0d a8 21 3d 37 ac 63 3d 6e e2 e3 3d
       0.028082112 0.039466906 0.05558416 0.111271724
000350 29 ab 10 bc c9 68 eb bc 6c 92 a6 bc 30 e3 f2 3c
       -0.00882987 -0.028736489 -0.020333491 0.029649347
000360 5a 70 2e bd 29 23 8f 3d 68 ae 99 3d 47 85 3f 3c
       -0.042587616 0.06989128 0.075039685 0.011689491
000370 f3 c5 ed 38 44 ea a0 bd fc db cc 3d 1a 55 29 3e
       0.000113379116 -0.078571826 0.10002896 0.1653637
000380 ce a6 f4 3d 54 19 f8 bd d6 22 99 3d 06 6d 25 bd
       0.11945878 -0.12114206 0.074773476 -0.040387176
000390 12 12 18 be 36 16 41 3d ad 11 de bc 18 24 82 bc
       -0.14850643 0.047140323 -0.027108038 -0.015886351
0003a0 a8 30 e7 3c 38 d7 02 3d 11 12 e4 bc 29 69 9b 3c
       0.028221443 0.03194353 -0.027840646 0.018971043
0003b0 e3 70 8a bd 56 52 52 bd 52 e2 54 3e c1 85 dd bc
       -0.06759813 -0.051348053 0.2078946 -0.027041318
0003c0 95 52 12 be 7d 79 58 3d 52 4f 04 be 05 b6 ee bc
       -0.14289315 0.052850235 -0.12920883 -0.029139528
0003d0 96 fa 8e 3d 20 b2 2e be 4d 39 19 3d eb da 73 3e
       0.06981389 -0.17060137 0.037408162 0.2381398
0003e0 db ce 90 3d 09 dd 9b bd b1 49 62 bd f2 73 f5 3d
       0.070707045 -0.076105185 -0.05524606 0.119850054
0003f0 cb b0 1c be ff 8b 51 3d c4 e4 c3 3d 96 35 f0 bd
       -0.15301816 0.0511589 0.09565118 -0.11728971

value_fc1.bias f4 [64]
000000 a7 61 6c bc a2 0a 70 3c ba 30 1c 3e 82 53 c7 3b
       -0.014427579 0.014650973 0.15252963 0.006082953
000010 4e 60 99 bd ab b0 13 bd dc 94 90 3d ef 6c 08 bc
       -0.07489072 -0.036057156 0.07059643 -0.008326753
000020 81 c6 66 3d fe 69 51 3b 51 28 7f ba c6 43 96 3d
       0.05634165 0.0031954045 -0.00097334856 0.073371455
000030 ce 38 56 bd 1b cc 15 bd a2 c2 14 3d 42 07 41 3d
       -0.052300267 -0.036571603 0.03631843 0.047126062
000040 a4 41 5f 3c 87 9e d9 bb a8 73 9c 3d 75 32 03 be
       0.01362649 -0.0066412124 0.07639247 -0.12812217
000050 11 be 54 bd cb 89 6c bd 1a 83 52 3d d8 b3 04 3e
       -0.051939074 -0.057748597 0.05139456 0.1295923
000060 69 03 90 3d 07 36 0d be bf d6 0c 3e ef 99 5f 3d
       0.070319004 -0.13790141 0.13753794 0.054590162
000070 26 a8 e5 3d e9 fd 98 3d b2 29 7e 3c 58 43 10 3e
       0.112137124 0.074703045 0.015512871 0.1408819
000080 71 a4 73 3d 5a 41 9f 3d 2d ec c9 3d 4a b4 10 3d
       0.059482995 0.07776137 0.098595 0.035328187
000090 6e 8e db 3b 78 24 70 3d 8e a9 8a 3d b2 22 0b 3e
       0.0067003286 0.05862853 0.06770621 0.13587454
0000a0 60 a3 a5 3d fb d8 ad bd cf f8 83 bc 14 fa 24 bd
       0.08087802 -0.08488651 -0.016109852 -0.040277556
0000b0 ed 57 b8 3d bd 1e e5 bd 9e a0 d1 3c 68 9a 41 bd
       0.090011455 -0.111875035 0.025589284 -0.047266394
0000c0 e0 67 88 bd 31 41 c2 3d 71 f9 da 3d eb fa 80 3c
       -0.066604376 0.094850905 0.106921084 0.015744647
0000d0 e9 35 1f be 30 93 00 3e 84 59 b2 bb fe f6 d0 3b
       -0.15547909 0.12556148 -0.0054428 0.0063771
0000e0 c1 43 3e bd 4f 15 54 3e 59 93 2d 3c 16 cd 1a bd
       -0.046451334 0.20711254 0.010594212 -0.03779324
0000f0 2f 1b 13 3e 95 8f fb bd 1b a9 52 bd 1a 50 6e 3e
       0.14365838 -0.122832455 -0.051430803 0.23272744

value_fc2.weight f4 [32, 64]
000000 ea 37 33 3e fa ce bb bd b9 85 2b 3e e4 cf 13 3d
       0.17501798 -0.09170337 0.1675023 0.03608693
000010 a8 ee 69 3e b6 df 20 be 84 cc 8d be 15 30 04 3e
       0.22844946 -0.15710339 -0.27695096 0.12908967
000020 30 22 b3 bb 9f 44 25 3c dd 12 8a 3e 7b 2c 06 3e
       -0.005466722 0.010087161 0.26967517 0.13102905
000030 60 7f 09 3e 29 fe 63 3e 79 33 33 3e f4 97 9f 3e
       0.13427496 0.22264923 0.17500104 0.3117062
000040 50 c0 23 be 73 3c e8 bd f5 3a 93 3e 03 5f b4 3d
       -0.1599133 -0.11339655 0.28755918 0.088071845
000050 9d 31 16 3e a1 9d 62 3e 3d 82 cc 3d e5 80 23 3c
       0.14667363 0.22130443 0.099857785 0.009979461
000060 a6 f2 87 3e 8f a8 95 3e 36 0a 04 be 5b 6d 25 3e
       0.26552314 0.29230163 -0.1289452 0.16154997
000070 bf 54 cb bb f4 c2 43 3c 50 97 2a be fc 08 a6 ba
       -0.006205171 0.011948336 -0.16659284 -0.0012667472
000080 7d 73 27 bd 1c 69 58 3e b8 2a b0 3e 34 9b 31 be
       -0.040881623 0.21133846 0.34407592 -0.17344362
000090 03 a8 31 3d 86 59 9d 3d ae f1 12 bd dd 48 e8 3c
       0.04337312 0.07683091 -0.035875015 0.028355056
0000a0 39 9c 83 be bb 5b 1c 3d 61 55 2c 3e 8a cd 95 3e
       -0.25705126 0.03817342 0.16829444 0.29258376
0000b0 9c 8b ba bd 02 cd 0d 3e 55 74 16 3e f2 b0 3f 3e
       -0.091086596 0.13847736 0.14692815 0.18719843
0000c0 42 65 ae 3e f3 3b fd bd 5b 24 91 3e e7 2c 8c be
       0.3406163 -0.1236495 0.2834805 -0.27378008
0000d0 f8 ae a1 bd 7d b9 46 3e d4 52 54 be 7a 4d 3c be
       -0.07894701 0.19406696 -0.20734721 -0.1838893
0000e0 0b a5 60 3d 3b 87 71 bd f5 3a a8 3d c2 71 61 3e
       0.054844897 -0.058966856 0.0821437 0.22016051
0000f0 a1 dd 53 3e 53 93 19 be af da 2e 3e 24 55 a3 bd
       0.20690013 -0.14997606 0.17075609 -0.07975224
000100 6c 01 89 3c 12 69 b2 3d f7 ab 08 be 90 c4 5e be
       0.01672431 0.08711447 -0.1334685 -0.2175467
000110 e8 18 72 be 00 7e 5e bd 23 9d 60 3d 2b 13 46 be
       -0.23642313 -0.05431938 0.054837357 -0.1934325
000120 38 2d 2e 3e 31 d2 6b be 7b f1 18 be 36 88 87 bd
       0.17009437 -0.230294 -0.14935867 -0.06617777
000130 22 18 0d 3e b5 bb 1c 3e 7f 96 bb bd d7 b8 1e be
       0.13778737 0.1530598 -0.09159564 -0.15500198
000140 21 1f 32 3e 51 df 6e be bf e8 08 3e 3a ba 72 be
       0.17394687 -0.23327376 0.13370036 -0.23703852
000150 ba 17 02 3c cb 37 f9 bd 83 35 37 3e 81 7b 28 3e
       0.007940227 -0.12168845 0.17891507 0.16453363
000160 4c 16 68 3e 56 2b 65 be 28 08 43 3e 91 d3 56 be
       0.22664756 -0.22379813 0.1904608 -0.20979144
000170 e9 29 46 be 7f 10 54 bd 9a ec a6 3d 2e 98 02 be
       -0.19351925 -0.051773544 0.08150597 -0.12753364
000180 12 e4 10 3e 53 03 86 3a 3a 52 3b bc f0 bc ab bc
       0.14149502 0.0010224379 -0.011433179 -0.020964116
000190 12 8d 34 be 77 60 68 be 7d 8c ad bd ef 8b 0c bd
       -0.17631939 -0.22693048 -0.08474062 -0.03431314
0001a0 12 07 a2 3d a7 d4 c0 3c 9f c8 a0 3d 7e 1e b4 3d
       0.07911505 0.0235389 0.078507654 0.087948784
0001b0 31 e4 55 bd 55 8c 78 3e a3 19 94 3d 57 03 cf 3d
       -0.052219573 0.24272282 0.07231452 0.10108059
0001c0 76 57 5d 3d 2b cf 21 3d 8f 5f d2 bd 2d c0 1f 3e
       0.054038487 0.03950421 -0.102721326 0.15600653
0001d0 19 85 56 be af 25 c9 bd e2 f5 9a be 5b a8 67 be
       -0.2094921 -0.09821641 -0.3026572 -0.22622816
0001e0 57 7b dc 3d a0 73 45 be d1 f3 b4 3c 8c 69 6f bd
       0.10765713 -0.19282389 0.022088917 -0.058450267
0001f0 08 cc 08 be 7e 7d 12 3d 38 74 52 be e5 72 87 3e
       -0.13359082 0.03576421 -0.20552146 0.26454845
000200 26 2b 3b 3e 0d c1 2c bc 59 24 3b be 65 8c b2 bd
       0.18278179 -0.010544074 -0.18275584 -0.087181844
000210 f1 c4 f4 3d 83 80 f0 bd c6 20 67 be 2d 54 60 3e
       0.11951626 -0.11743262 -0.22571096 0.2190711
000220 d9 0f 04 3e ee a8 73 3d b9 c1 85 bd 5e ed 46 ba
       0.1289667 0.059487276 -0.0653109 -0.0007588471
000230 37 47 62 be a1 6d 88 bd 6d e8 64 3d 15 57 0a bd
       -0.22097479 -0.06661535 0.05588572 -0.033774454
000240 4b e1 b3 bc ec cd 5d be 7e 9c 42 be 38 f2 19 be
       -0.021958014 -0.21660584 -0.1900501 -0.15033805
000250 b7 19 76 bd d5 26 ce bd 04 1f e5 3c 5c 30 85 be
       -0.060083117 -0.10066 0.027968891 -0.26013458
000260 c2 24 52 bc 58 34 05 3e 57 25 82 be 5a c0 89 be
       -0.012826147 0.13008249 -0.25419113 -0.26904565
000270 d2 e0 1a bd 94 a5 14 3e b2 8a 4a 3e 81 f7 3c be
       -0.03781206 0.14516288 0.1977947 -0.1845379
000280 88 6d 66 be 5d 5f 8b 3d 2a 7c 6d bd 1f 53 ac bd
       -0.2250272 0.068052985 -0.05797974 -0.084142916
000290 f2 89 30 bd d0 e3 c3 bd 76 59 69 3e b3 b9 31 3d
       -0.043100305 -0.09564936 0.22788033 0.043389987
0002a0 e3 99 2f 3e 9d d4 a6 be 62 ff 34 3e 37 8c 91 be
       0.17148547 -0.32584086 0.17675546 -0.28427288
0002b0 92 b2 2d be 82 5f fe 3c 37 a3 a3 3d 3b 61 e9 3c
       -0.1696265 0.031051401 0.07990115 0.028488746
0002c0 22 35 1e 3d a4 a6 eb bc b8 38 08 3e ea a7 54 be
       0.03862489 -0.028765984 0.13302886 -0.20767179
0002d0 57 b1 d5 3c a3 74 38 be 41 35 52 be 7a c0 35 be
       0.026085539 -0.18013243 -0.20528127 -0.17749205
0002e0 8a 65 6d be 90 65 dc 3d a7 27 d0 3d ef be 14 3e
       -0.23183265 0.10761559 0.10163813 0.1452596
0002f0 b8 87 56 3d 6a 2c 6e be a8 f1 ad 3c 76 4e f5 bc
       0.052375525 -0.2325913 0.021233395 -0.02994464
000300 65 e1 08 be 41 5b d4 3c 14 84 4c 3e c5 19 c3 3d
       -0.13367231 0.02592242 0.19972259 0.095263995
000310 cf d3 35 be 5e f7 1b 3e 20 36 b8 3d 25 de 17 3e
       -0.1775658 0.15231082 0.089946985 0.14830835
000320 aa ac 0d bd bc 75 a5 3d 72 84 3d 3e 7a b3 67 be
       -0.034588493 0.08079097 0.18507555 -0.22627059
000330 a7 dc ef 3d ab ce c1 3d 1b 67 9a 3d 0a e5 08 bc
       0.11712008 0.09463247 0.07539197 -0.008355388
000340 41 49 75 be f6 ef cc be 05 a2 40 be 7c 5e a1 be
       -0.23953725 -0.40026826 -0.18811806 -0.31517398
000350 3d 6e 6b 3d 6e 5b 67 3e 49 42 50 be 0e bf 78 3d
       0.05747818 0.22593471 -0.20337786 0.06072908
000360 0c 81 60 3d fb c1 af 3c 01 b0 6d 3e 69 a4 2a 3e
       0.05481057 0.021454802 0.23211671 0.1666428
000370 70 cd 1d 3e 42 8e 5f 3e 09 21 25 be de 2a a1 3d
       0.154104 0.21831611 -0.16125883 0.078695044
000380 67 ca 5a 3e 53 70 07 be 75 a2 31 be da 0c b9 bd
       0.21366273 -0.13226442 -0.17347129 -0.09035654
000390 1c f2 08 3e 7a 2b c8 bd 6d a1 15 3d 2f e1 8d bd
       0.13373607 -0.097739175 0.0365309 -0.06927716
0003a0 12 c7 aa 3d 7d 6e 80 be 14 ee 4c 3e fe 39 c2 bd
       0.08338751 -0.25084296 0.20012695 -0.094837174
0003b0 70 1a 36 3e c7 96 27 3e 75 a9 76 3d 87 24 92 bc
       0.17783523 0.1636611 0.0602202 -0.017839683
0003c0 4f b9 56 be c3 b0 2c bd c7 9a 20 be b7 f0 6e 3d
       -0.20969127 -0.04216076 -0.15684043 0.058335032
0003d0 a0 31 46 be 69 ef 53 be fd 14 25 3e 7e 5f 32 be
       -0.19354868 -0.20696796 0.16121288 -0.1741924
0003e0 54 0e df 3c e0 ef 74 bd 3a 45 9c bd 08 40 ea bd
       0.027228512 -0.059799075 -0.076303914 -0.11437994
0003f0 e5 d0 43 3e e8 a1 2d be e3 70 f7 bd d8 87 d1 3d
       0.19122656 -0.16956294 -0.12082078 0.10230988

value_fc2.bias f4 [32]
000000 39 22 0b 3e 6b b4 f4 3d 84 e7 06 bd 55 92 6b bd
       0.13587274 0.119484745 -0.032935634 -0.0575126
000010 cc 4e 1b bc 4e 8e 34 3e 91 39 87 bd fe a2 52 be
       -0.009479236 0.1763241 -0.06602777 -0.20569989
000020 0a 5f fd 3d fa e4 21 3e f3 1b 8a bd 43 05 b3 bb
       0.12371643 0.15810004 -0.06743612 -0.0054632737
000030 70 3d 5f bd d3 6a c9 bd ac 9b 87 3e cf 41 29 3d
       -0.05450195 -0.09834828 0.26485956 0.041322526
000040 01 6c 29 3e b9 93 6c 3c e7 0d b5 bd 2a 6b 52 3d
       0.16545106 0.014439517 -0.08840542 0.05137173
000050 42 e9 7e bb b6 70 ce 3d 7d ea 21 3e f9 38 bc 3d
       -0.0038896357 0.10080092 0.15812106 0.09190554
000060 6c c4 4e 3e f1 3d 2e be 93 b9 a6 bd d0 aa 19 3e
       0.20192116 -0.17015816 -0.08140864 0.15006566
000070 6e 73 b9 bd 29 6d 42 3e fe 91 b6 bc 0f 39 23 bd
       -0.090552196 0.18986954 -0.022286411 -0.039849337

value_fc3.weight f4 [1, 32]
000000 a6 fb 45 bd 41 7e 32 bd 63 2a 01 be 75 ac 9e 3d
       -0.048335694 -0.043577436 -0.12613826 0.07747737
000010 9d 6c 92 be f3 06 b2 bd e8 b4 da 3c 73 1d e1 3b
       -0.2859849 -0.08692732 0.026697591 0.0068699657
000020 ce 68 ef bc 60 8f 93 bd 77 f5 fa 3d fb 99 f2 3c
       -0.02922478 -0.07205081 0.1225385 0.02961444
000030 f2 cf 03 3f 99 8a 3d 3d 3e 21 b6 bb c1 49 8e 3f
       0.51489174 0.046274755 -0.005558162 1.1116258
000040 24 72 b4 3c c3 a0 69 be 6e 92 47 3e 93 0b c7 bd
       0.022027083 -0.22815232 0.19489452 -0.097190045
000050 d4 9a 39 3f a1 b8 a4 bc 66 2e c1 bd 7a 5f 47 3e
       0.72501874 -0.02010757 -0.09432678 0.19470015
000060 95 64 fe bb 59 d0 ab 3c ee eb 44 be fb 1d 06 3c
       -0.007763455 0.020973371 -0.19230625 0.008185859
000070 73 c9 2e bb e5 ea 8f bd 05 bc d5 3d 98 98 94 be
       -0.0026670366 -0.070272245 0.104362525 -0.2902267
