rl/spin_model_11231518/41.pt (torch_old, 159601 bytes, 12 tensors)

log_std f4 [51]
0.028705772 0.13222168 -0.04956628 -0.003215284 0.070683636 0.001486316 0.086108424 0.06829883
-0.04388667 0.08471854 0.1515739 0.02911227 0.083273135 0.14524956 0.13302732 0.12680313
0.11820716 0.16476022 0.0339492 0.1536975 0.07718354 0.046248376 0.14552587 0.16833283
0.20721534 -0.009931336 0.17445876 0.17723012 0.104937404 0.17804693 -0.0044536595 0.046886154
0.026163466 -0.05560599 0.031466637 0.107083656 0.17227161 0.03523936 -0.069568865 0.14277032
-0.048006978 0.17602533 0.077032834 -0.07538608 0.047306128 0.09819716 0.046566643 0.14474276
0.10001789 0.06251362 0.033326246
00000000: 5e28 eb3c 1f65 073e 0306 4bbd 84b7 52bb
00000010: 95c2 903d 7dd0 c23a 9d59 b03d 42e0 8b3d
00000020: 82c2 33bd ea80 ad3d 3036 1b3e db7c ee3c
00000030: 1b8b aa3d 4dbc 143e 5038 083e aed8 013e
00000040: 9816 f23d e7b6 283e 510e 0b3d e162 1d3e
00000050: 6712 9e3d f06e 3d3d bc04 153e 715f 2c3e
00000060: 4230 543e 0bb7 22bc 51a5 323e d07b 353e
00000070: 6ce9 d63d ef51 363e 01f0 91bb b20b 403d
00000080: c454 d63c 1bc3 63bd 29e3 003d ad4e db3d
00000090: f867 303e 2657 103d 1f7a 8ebd 6232 123e
000000a0: f7a2 44bd fc3f 343e 64c3 9d3d 0464 9abd
000000b0: 12c4 413d 981b c93d aabc 3e3d 7237 143e
000000c0: 2ed6 cc3d 2407 803d 1a81 083d

policy_fc1.weight f4 [64, 261]
-0.032738063 0.03956522 -0.110099174 0.1285034 -0.09837478 0.044301085 -0.13138443 0.056259952
0.12748128 -0.062937155 -0.13462767 -0.056041256 -0.1510968 -0.16553986 -0.10668956 -0.13924351
-0.10169002 0.07532725 0.111821294 -0.028662143 0.0578761 -0.10391028 0.016038366 -0.1090878
0.10545399 -0.1408018 0.088748604 -5.2289615e-05 0.047185242 -0.087089375 0.014380306 0.021885693
0.002883818 0.10903158 -0.08974237 0.05892125 0.012968687 0.15811776 -0.020952484 0.18991974
-0.0064072777 0.14677292 0.18079372 -0.11581611 0.11283327 -0.055463925 -0.11938049 -0.010030884
-0.13053851 0.018647037 -0.1300436 0.2025458 0.044183034 -0.028076706 0.16300687 0.030102286
0.09713388 -0.056414742 -0.09886875 0.03272303 0.08832255 -0.042919546 0.06970605 0.10195601
0.1032484 -0.037551872 0.028252095 0.0010110666 0.09914344 -0.11443276 -0.0010012547 -0.08646873
0.13274911 0.010043688 -0.062208448 0.026511157 0.08398942 0.13571751 0.06458564 0.01023282
0.0630117 -0.10836144 0.02453111 -0.01760228 -0.08227908 -0.100968555 0.08660875 -0.018804789
-0.11556613 -0.040865738 0.053936943 -0.012761719 0.023699656 -0.022678738 0.0022473724 0.036458988
0.16562869 0.062004384 0.17936516 0.15143035 -0.19906469 -0.100489244 -0.06652724 -0.07075392
0.13472544 -0.059762456 0.30052638 -0.021686891 -0.06593364 0.12145401 -0.036471173 0.104536496
0.094958365 -0.008879507 0.030298546 0.232285 0.10127239 0.086495645 0.048027486 0.2749608
-0.08912124 -0.05329142 -0.077419154 0.23632169 -0.14117217 0.0069418037 -0.011347854 0.13706917
-0.104023404 -0.031523418 -0.0601142 -0.13551357 -0.10382885 -0.064682744 -0.13853219 -0.10956512
0.041578397 -0.04776029 0.031482667 -0.10528505 -0.15021613 -0.16268034 -0.056029636 0.08199994
-0.079300165 0.0047909906 0.022468124 0.10122134 -0.047077205 0.031753056 0.0026532128 0.08922549
0.008142386 -0.019031527 -0.124346755 0.06594166 -0.09668519 -0.014774219 0.088568546 -0.12268642
0.057399306 0.027783664 0.0131029785 0.15814444 0.09525156 -0.02814225 0.1863961 -0.106427744
-0.15628196 -0.12394961 0.114635736 -0.08771711 -0.043276113 -0.012712543 0.031414177 -0.11766139
-0.11151224 -0.0065161306 0.076627575 0.071776755 0.073844835 0.06267064 -0.23300642 0.104561016
0.12469324 -0.19336388 0.09454603 0.011079597 -0.121923134 0.07073527 0.105165586 -0.1517827
0.14357764 0.10766497 -0.10024668 -0.17523141 0.09408552 0.053454567 -0.121082164 0.09368768
0.058832783 -0.22005397 0.12033333 -0.15413596 -0.08453317 -0.18161337 0.033492696 -0.025324516
-0.23537013 -0.16599046 -0.07506039 -0.09733916 -0.09963991 0.0069062114 0.08623659 -0.037326988
-0.025154527 0.035397053 0.07256884 0.00802768 -0.20346868 -0.07656613 -0.07971751 -0.06935606
-0.10740771 0.015351568 -0.09056582 -0.0864489 -0.0403132 -0.11670463 -0.15354317 0.012327325
-0.09365817 -0.12225878 -0.13572712 0.016569823 0.023031112 0.06321826 -0.09300895 -0.11383463
-0.07356041 -0.008049207 -0.1693027 -0.118123904 0.03264665 -0.014780284 -0.16534406 0.07404722
-0.020623725 -0.12767114 -0.1746472 -0.06995859 0.058058932 -0.09809712 -0.11985785 0.07557173
00000000: 5918 06bd 240f 223d ad7b e1bd 6596 033e
00000010: b778 c9bd 0e75 353d a489 06be d670 663d
00000020: 748a 023e 32e5 80bd d6db 09be 848b 65bd
00000030: 1fb9 1abe 4883 29be 0e80 dabd da95 0ebe
00000040: db42 d0bd 2c45 9a3d 9002 e53d dfcc eabc
00000050: 7d0f 6d3d eace d4bd e462 833c 6d69 dfbd
00000060: 43f8 d73d 592e 10be d4c1 b53d 8c51 5bb8
00000070: 5045 413d ea5b b2bd 609b 6b3c a049 b33c
00000080: 70fe 3c3b f34b df3d d9ca b7bd 6957 713d
00000090: 9e7a 543c 9fe9 213e 8ba4 abbc 527a 423e
000000a0: 24f4 d1bb a44b 163e fd21 393e ff30 edbd
000000b0: 2115 e73d 242e 63bd c27d f4bd 9458 24bc
000000c0: e3ab 05be acc1 983c 262a 05be 2b68 4f3e
000000d0: 45f9 343d 1f01 e6bc 46eb 263e 1299 f63c
000000e0: 21ee c63d 2513 67bd b37b cabd 9508 063d
000000f0: 74e2 b43d 68cc 2fbd 0cc2 8e3d 50ce d03d
00000100: e673 d33d fecf 19bd f070 e73c c485 843a
00000110: b70b cb3d b95b eabd 883c 83ba 8416 b1bd
00000120: 62ef 073e 488e 243c 49ce 7ebd ed2d d93c
00000130: a502 ac3d 88f9 0a3e 7a45 843d 8fa7 273c
00000140: 470c 813d 9aec ddbd 77f5 c83c a832 90bc
00000150: ef81 a8bd 9ac8 cebd ee5f b13d 800c 9abc
00000160: efad ecbd d562 27bd fcec 5c3d 8716 51bc
00000170: c825 c23c c3c8 b9bc a748 133b 0556 153d
00000180: 919a 293e 4ff8 7d3d 80ab 373e 8f10 1b3e
00000190: 9dd7 4bbe 4ecd cdbd 6f3f 88bd 6ee7 90bd
000001a0: 77f5 093e 7ac9 74bd 98de 993e b5a8 b1bc
000001b0: 3708 87bd e1bc f83d cc62 15bd 3b17 d63d
000001c0: 8879 c23d 5a7b 11bc a834 f83c 1edc 6d3e
000001d0: e667 cf3d a124 b13d 78b8 443d a9c7 8c3e
000001e0: 3285 b6bd 1b48 5abd ef8d 9ebd 50fe 713e
000001f0: 708f 10be 1278 e33b 59ec 39bc dc5b 0c3e
00000200: 390a d5bd b31e 01bd 4f3a 76bd 12c4 0abe
00000210: 38a4 d4bd 6378 84bd 62db 0dbe ad63 e0bd
00000220: 1c4e 2a3d 4ba0 43bd f8f3 003d b09f d7bd
00000230: 42d2 19be ad95 26be 557f 65bd 96ef a73d
00000240: 2068 a2bd befd 9c3b 120f b83c 224d cf3d
00000250: 07d4 40bd 7e0f 023d 86e1 2d3b dbbb b63d
00000260: a467 053c 01e8 9bbc 83a9 febd 6c0c 873d
00000270: e302 c6bd 910f 72bc 6d63 b53d 0543 fbbd
00000280: 891b 6b3d 919a e33c e0ad 563c 9ef0 213e
00000290: 4013 c33d 938a e6bc 9fde 3e3e caf6 d9bd
000002a0: 6108 20be 4bd9 fdbd 24c6 ea3d 07a5 b3bd
000002b0: 4b42 31bd 4548 50bc 27ac 003d 74f8 f0bd
000002c0: 8760 e4bd 4485 d5bb ebee 9c3d b1ff 923d
000002d0: f63b 973d 7759 803d 3c99 6ebe 1624 d63d
000002e0: 2b5f ff3d 2e01 46be 59a1 c13d 3387 353c
000002f0: d6b2 f9bd a7dd 903d 0e61 d73d ed6c 1bbe
00000300: 0406 133e 747f dc3d 224e cdbd dd6f 33be
00000310: e9af c03d 2df3 5a3d edf9 f7bd 54df bf3d
00000320: a5fa 703d d455 61be 5271 f63d d1d5 1dbe
00000330: ba1f adbd dbf8 39be a32f 093d 5c75 cfbc
00000340: de04 71be 67f9 29be 43b9 99bd c159 c7bd
00000350: 0210 ccbd 804d e23b cf9c b03d 2fe4 18bd
00000360: de10 cebc 80fc 103d f99e 943d 8886 033c
00000370: 185a 50be b4ce 9cbd ef42 a3bd 8d0a 8ebd
00000380: 93f8 dbbd 2585 7b3c 937a b9bd 1f0c b1bd
00000390: 741f 25bd d602 efbd 6c3a 1dbe 8cf8 493c
000003a0: dbcf bfbd d062 fabd 0dfc 0abe 70bd 873c
000003b0: beab bc3c 9378 813d 7a7b bebd 2122 e9bd
000003c0: d7a6 96bd d2e0 03bc b05d 2dbe f2ea f1bd
000003d0: 7eb8 053d 0129 72bc f44f 29be 12a6 973d
000003e0: 16f3 a8bc 39bc 02be b7d6 32be 7346 8fbd
000003f0: 34cf 6d3d 25e7 c8bd 0878 f5bd 5ac5 9a3d

policy_fc1.bias f4 [64]
-0.0035775714 -0.012572919 -0.033019044 -0.012391155 -0.01138209 -0.00536204 0.010558593 -0.013731926
-0.04996821 0.0012226303 0.02088723 -0.0016519176 -0.018544855 0.004622918 -0.02122213 -0.0075206533
-0.013049168 -0.0033907657 0.00017863195 -0.008154889 -0.011688867 -0.03245029 0.008414421 -0.018489057
-0.020322539 -0.04874309 -0.016720168 0.009808354 -0.025941089 -0.006006385 -0.0028614267 -0.037199855
-0.04497437 0.014374337 -0.008822458 -0.0076176035 -0.0034667097 0.001599684 0.0049059177 -0.013082826
-0.020934576 -0.012735092 -0.06727443 0.012891238 -0.020329678 -0.0002911017 -0.031449866 -0.012444282
-0.019486608 -0.019344933 -0.0153671075 -0.03329535 0.0007143913 0.0063585015 -0.014006896 -0.022653399
-0.019147005 -0.00121003 -0.018281765 -0.04852414 -0.0035689624 0.013761425 -0.016527394 0.009718185
00000000: b075 6abb a5fe 4dbc fa3e 07bd 4504 4bbc
00000010: f27b 3abc 0db4 afbb f3fd 2c3c dffb 60bc
00000020: 77ab 4cbd aa40 a03a b21b ab3c 2885 d8ba
00000030: 61eb 97bc d97b 973b 08da adbc d06f f6bb
00000040: 2dcc 55bc 9c37 5ebb 264f 3b39 159c 05bc
00000050: a982 3fbc 98ea 04bd a4dc 093c 5d76 97bc
00000060: 747b a6bc d6a6 47bd bcf8 88bc 38b3 203c
00000070: 6882 d4bc 36d1 c4bb c686 3bbb e05e 18bd
00000080: 0c37 38bd 5782 6b3c 128c 10bc 179d f9bb
00000090: bd31 63bb 7dac d13a d2c1 a03b 5959 56bc
000000a0: fd7e abbc d9a6 50bc 2dc7 89bd c535 533c
000000b0: 6d8a a6bc 029f 98b9 93d1 00bd 1ae3 4bbc
000000c0: 61a2 9fbc 4479 9ebc 52c6 7bbc b460 08bd
000000d0: fd45 3b3a fa5a d03b 2e7d 65bc 9f93 b9bc
000000e0: 2eda 9cbc df99 9eba a4c3 95bc 40c1 46bd
000000f0: 41e5 69bb 9a77 613c 7564 87bc 0639 1f3c

policy_fc2.weight f4 [32, 64]
-0.16953917 0.104577474 -0.10047872 -0.1901497 0.08062542 -0.14150266 -0.10474047 -0.1496922
-0.12206925 0.13958248 0.11942566 -0.055382743 -0.07127045 0.09129628 -0.046873417 -0.120597
-0.31616083 -0.22934026 0.06969199 0.17595866 -0.34912077 0.15980764 0.06968822 -0.17179485
-0.032301225 -0.17009322 0.12435817 -0.107250825 0.27790132 -0.054631684 -0.18277267 -0.15026408
-0.06371555 0.14598829 0.09736983 -0.18318796 -0.042009488 -0.19076674 -0.22806744 0.07739953
-0.01651941 0.2728161 0.25349426 -0.2712566 0.17061876 -0.25781763 -0.23456295 -0.067145765
0.22955005 -0.07608097 0.09565204 0.27962172 0.031333406 0.056288216 0.15252352 -0.020333936
-0.044396207 -0.12823144 0.17958365 -0.01827958 -0.12758447 -0.014753967 -0.19913997 -0.07161789
0.2201602 -0.01037583 -0.119668566 -0.14967223 0.21832134 -0.15316184 0.078407444 0.055665385
-0.0018810784 -0.2228901 0.10448687 -0.19092578 -0.1926736 0.27399924 -0.1538726 0.18514852
-0.07700737 0.09711052 -0.07474438 0.20262194 -0.174689 0.0014819914 0.17356816 0.0024531086
0.035612497 0.096681066 -0.024626609 -0.02297891 -0.21049571 0.09956039 -0.13142283 -0.10495652
0.035440736 0.209838 0.15578137 -0.009242793 -0.13323963 0.115769565 0.14046444 -0.12644447
0.10083955 -0.26164398 -0.10732608 0.16696157 -0.21359278 -0.20535615 -0.037263867 -0.22985509
-0.0013717094 -0.15154447 -0.07796267 -0.057410654 -0.10689944 -0.03747285 -0.07129327 -0.049627624
-0.19168326 -0.11857835 -0.0764449 -0.020926379 0.07733551 0.16485137 0.043361846 -0.03536793
-0.026666636 -0.13928033 -0.31310788 0.020676268 -0.20854317 0.030004462 0.11591218 0.0100020785
0.18783186 -0.018593092 -0.081255466 0.084364146 -0.04448554 -0.12015549 0.021099502 -0.28448397
0.07710354 -0.09868536 -0.12065372 -0.30017686 0.010101417 -0.15452233 0.25498593 -0.35049766
-0.05983016 0.17406139 -0.09528636 0.046397585 0.1714656 -0.2725173 0.17349651 0.052147254
-0.12774873 -0.12152769 -0.34181336 0.05589822 -0.27088317 -0.3458585 -0.12964395 0.15324295
-0.11880337 0.0672274 0.034371737 0.16011943 -0.03342053 0.15604685 -0.07073777 0.19235872
-0.06038853 -0.18791293 0.20576726 0.17106837 -0.21812247 0.022472842 -0.14657694 0.1697292
-0.005847816 0.18115732 0.1437543 -0.04147797 0.05169434 -0.022958636 0.21797065 0.2426647
-0.16471894 -0.17426029 -0.13696437 0.1812259 0.105603725 -0.039897468 -0.017489076 -0.115279384
0.06218513 0.26185808 -0.17411304 0.23406494 -0.12720144 -0.123823546 -0.16533688 -0.25605348
-0.16855328 0.15848745 -0.23404479 -0.09134262 -0.061758075 0.12348991 0.1438937 0.14132515
0.06539239 0.21288198 0.1510168 -0.17648007 -0.08214956 -0.030767715 0.09481329 0.1598076
-0.06914019 -0.039951716 0.17870714 0.12410858 -0.07342153 -0.1906697 -0.30913916 -0.110368334
-0.14215967 -0.2171485 0.06935502 0.0033625977 0.12721282 0.23766229 0.15915154 -0.025684174
-0.03891706 0.0105581265 -0.26963657 -0.06781182 0.039359126 0.201275 0.19468868 -0.18955217
-0.07203079 -0.17221107 -0.21488571 -0.12152484 0.15243946 -0.14242621 -0.21339105 0.037306953
00000000: ad9b 2dbe b72c d63d cac7 cdbd 9ab6 42be
00000010: f11e a53d 13e6 10be 2c82 d6bd e948 19be
00000020: 71ff f9bd b6ee 0e3e 7195 f43d 04d9 62bd
00000030: 3ef6 91bd 8bf9 ba3d 57fe 3fbd 8ffb f6bd
00000040: d5df a1be 2cd8 6abe adba 8e3d 822e 343e
00000050: f5bf b2be 9da4 233e b3b8 8e3d fdea 2fbe
00000060: 4a4e 04bd eb2c 2ebe 7faf fe3d 52a6 dbbd
00000070: 1549 8e3e 79c5 5fbd c228 3bbe d4de 19be
00000080: 4c7d 82bd f47d 153e d569 c73d a095 3bbe
00000090: 2412 2cbd 5b58 43be 838a 69be a583 9e3d
000000a0: b753 87bc 8dae 8b3e 00ca 813e 25e2 8abe
000000b0: afb6 2e3e ac00 84be 4531 70be b883 89bd
000000c0: 2b0f 6b3e 57d0 9bbd 37e5 c33d 942a 8f3e
000000d0: 7557 003d 798e 663d 202f 1c3e 5b93 a6bc
000000e0: ccd8 35bd 1a4f 03be c7e4 373e 0fbf 95bc
000000f0: 81a5 02be 9fba 71bc 59eb 4bbe 66ac 92bd
00000100: ad71 613e 63ff 29bc cb14 f5bd ad43 19be
00000110: a18f 5f3e 75d6 1cbe 1594 a03d 6301 643d
00000120: 848e f6ba 4d3d 64be 36fd d53d 0c82 43be
00000130: 3a4c 45be a149 8c3e c790 1dbe 9397 3d3e
00000140: 0ab6 9dbd e1e1 c63d 9513 99bd 207c 4f3e
00000150: ace1 32be 613f c23a dabb 313e 55c4 203b
00000160: 69de 113d b900 c63d bebd c9bc 443e bcbc
00000170: 308c 57be 51e6 cb3d b593 06be 72f3 d6bd
00000180: 4e2a 113d c6df 563e 2785 1f3e 156f 17bc
00000190: f86f 08be 9818 ed3d e9d5 0f3e a97a 01be
000001a0: f784 ce3d 33f6 85be c7cd dbbd f9f7 2a3e
000001b0: 11b8 5abe e248 52be ffa1 18bd 225f 6bbe
000001c0: eeca b3ba 792e 1bbe e4aa 9fbd 6f27 6bbd
000001d0: 18ee dabd 227d 19bd 3502 92bd 5646 4bbd
000001e0: 9e48 44be 35d9 f2bd 258f 9cbd cc6d abbc
000001f0: 1462 9e3d ccce 283e 319c 313d f6dd 10bd
00000200: fd73 dabc 819f 0ebe ad4f a0be 4761 a93c
00000210: 578c 55be ebcb f53c 5d63 ed3d c2df 233c
00000220: ff56 403e 8a50 98bc 4469 a6bd 1cc7 ac3d
00000230: 7836 36bd 1514 f6bd ddd8 ac3c e2a7 91be
00000240: 76e8 9d3d 8d1b cabd 4c19 f7bd c8b0 99be
00000250: 6a80 253c 1a3b 1ebe 848d 823e 6e74 b3be
00000260: 7810 75bd 263d 323e 7f25 c3bd 650b 3e3d
00000270: ae94 2f3e 6387 8bbe 12a9 313e 5c98 553d
00000280: 90d0 02be 82e3 f8bd 2902 afbe 88f5 643d
00000290: 33b1 8abe 5e14 b1be 62c1 04be b8eb 1c3e
000002a0: 2e4f f3bd 85ae 893d 61c9 0c3d 59f6 233e
000002b0: f7e3 08bd bfca 1f3e f7de 90bd aff9 443e
000002c0: f759 77bd 3f6c 40be a7b4 523e 8c2c 2f3e
000002d0: 7f5b 5fbe f718 b83c 4418 16be 7ecd 2d3e
000002e0: 099f bfbb 4e81 393e 5434 133e cee4 29bd
000002f0: 72bd 533d c013 bcbc b333 5f3e 187d 783e
00000300: 15ac 28be 4a71 32be 6340 0cbe 4893 393e
00000310: c446 d83d 876b 23bd 4045 8fbc 9917 ecbd
00000320: d6b5 7e3d 4312 863e b04a 32be b8ae 6f3e
00000330: 1841 02be 3397 fdbd 124e 29be 7119 83be
00000340: 3b99 2cbe 894a 223e 70a9 6fbe d711 bbbd
00000350: 09f6 7cbd 47e8 fc3d df58 133e 8ab7 103e
00000360: 72ec 853d bcfd 593e 26a4 1a3e 31b7 34be
00000370: 073e a8bd 930c fcbc 782d c23d 9aa4 233e
00000380: 5f99 8dbd 69a4 23bd 01ff 363e a42c fe3d
00000390: 075e 96bd eb3e 43be 7d47 9ebe cb08 e2bd
000003a0: 4e92 11be 2d5c 5ebe 010a 8e3d 075f 5c3b
000003b0: 1444 023e be5d 733e 9ff8 223e 9e67 d2bc
000003c0: 7f67 1fbd fefb 2c3c ce0d 8abe ece0 8abd
000003d0: 0937 213d 091b 4e3e 785c 473e f719 42be
000003e0: e184 93bd 1958 30be 000b 5cbe 04e2 f8bd
000003f0: 1719 1c3e 2dd8 11be 2f83 5abe 2dcf 183d

policy_fc2.bias f4 [32]
-0.043529987 0.043491077 -0.0037437065 0.021541575 0.004586097 0.024761444 0.029554777 0.030181265
-0.022489918 0.01784231 -0.00019908312 0.060801264 0.02983129 -0.004932146 -0.057202905 0.009629624
0.02793035 0.04144118 -0.0033184674 0.019084204 -0.036457837 0.00822359 -0.010320704 -0.018226702
0.0034045526 0.024078673 0.017127896 0.015070922 -0.04133479 0.040660977 -0.055520315 0.02313627
00000000: 804c 32bd b323 323d f958 75bb f577 b03c
00000010: f846 963b 83d8 ca3c dc1c f23c b33e f73c
00000020: c73c b8bc 092a 923c f8c0 50b9 bf0a 793d
00000030: c060 f43c d79d a1bb 984d 6abd 92c5 1d3c
00000040: 30ce e43c 3abe 293d a57a 59bb 7a56 9c3c
00000050: d054 15bd 3dbc 063c 2c18 29bc 2a50 95bc
00000060: ea1e 5f3b a340 c53c cd4f 8c3c 07ec 763c
00000070: ab4e 29bd 208c 263d 4569 63bd 4688 bd3c

policy_fc3.weight f4 [51, 32]
0.033022072 0.0076331827 -0.25312257 0.12374979 -0.17477222 0.17774846 0.041026264 0.21760616
0.42093584 0.2452244 0.17679891 -0.020073693 -0.012982127 -0.1130003 -0.22684057 0.12984115
0.117591955 0.34733105 -0.011722262 -0.18364091 -0.2583935 -0.066666156 0.10985322 -0.15116757
0.13361347 -0.048814327 -0.19928807 -0.022785181 0.015949873 -0.1518564 -0.115645334 -0.09424709
0.28480384 0.065143056 0.29573137 0.1671381 0.24339862 -0.24543384 -0.19209166 -0.06505237
-0.17486341 0.00502361 0.20216233 0.31569803 -0.11601773 0.0057146545 0.13897263 -0.09945227
0.24449322 -0.0033449072 0.16979033 0.027155897 -0.11913724 -0.0019500571 0.28487837 0.13692337
-0.07913315 0.106247984 0.07509305 0.035443615 -0.21211651 -0.16294916 -0.06959645 0.15503961
-0.110069014 0.036694095 -0.22983901 0.13054202 -0.18574347 0.18857692 0.20778905 -0.10503067
-0.20398049 0.095049985 -0.13144551 -0.26399073 -0.0924038 0.15187535 -0.114752986 -0.22246523
-0.23974837 0.26916197 0.19460952 0.015893325 -0.08495538 0.16068791 0.057483338 0.055556327
0.09189814 0.37229472 0.23325074 -0.15615238 0.25393748 0.16196308 0.24262577 0.033942383
-0.13778563 0.032417435 0.17348635 -0.1911299 0.1283473 0.19735394 0.087581426 -0.048781406
0.22735427 0.11355055 0.10055067 0.045314975 -0.07302161 0.21975866 0.20325197 -0.06459229
-0.14052892 -0.058268502 0.169799 0.20597872 -0.19505344 -0.072965786 -0.18109415 0.10746666
0.21567972 -0.031013558 -0.15801689 0.31240076 -0.09494753 -0.03136299 -0.28413343 0.0037478574
-0.16826718 0.17094989 -0.12560436 0.11332676 0.010089723 0.07759844 0.28156838 0.120468125
-0.26703608 0.17264798 0.15067932 0.043345813 0.036523487 -0.29864287 0.05250274 -0.16819105
-0.21937816 -0.19146666 -0.22604646 0.23287548 -0.24219197 0.15390478 -0.031115865 0.09815471
0.116910554 0.2146454 -0.15620416 0.23862244 -0.13835952 -0.14669935 -0.04556705 -0.17171147
0.22746108 0.18867505 0.2527765 0.1280131 -0.2248762 -0.061171327 -0.2499803 0.14241423
-0.03744454 -0.20754713 0.072794944 0.017553892 0.06594296 0.08771859 0.25645292 -0.12683536
-0.01548034 0.15590796 -0.31198743 0.15786704 -0.123267144 0.13243829 0.10727256 0.14719859
0.27548087 -0.2616135 0.06955341 -0.25308347 0.24383837 -0.01778439 0.07759365 -0.22718574
0.10310116 0.12490397 0.060887337 0.21835403 -0.10008211 0.09899807 -0.11009897 -0.17582776
-0.23624842 0.31888157 -0.09924579 -0.05388646 0.03053951 0.2647347 -0.104072236 -0.13094975
0.012210176 -0.037226282 -0.08502342 -0.19494565 -0.14412223 -0.2607505 0.058371447 -0.022425847
-0.07990367 0.07584614 0.09254346 0.008576149 0.082432695 0.1568505 0.26343837 -0.116954245
-0.09159342 0.1389047 0.2411679 -0.2598772 -0.11538034 0.04841381 0.16409102 0.2301193
0.09076251 -0.10899816 -0.012143871 -0.11285277 0.13987732 -0.2368344 0.13764797 -0.1028504
-0.13307786 0.027314689 0.23401275 0.17250106 0.051657308 0.022099104 0.0651142 -0.22155058
-0.082230456 -0.09928829 -0.13864996 -0.22840029 0.009890228 0.07203534 -0.33486283 -0.16406612
00000000: 2742 073d c71f fa3b 4899 81be 8870 fd3d
00000010: 7df7 32be b103 363e 280b 283d 26d4 5e3e
00000020: e784 d73e 1b1c 7b3e c60a 353e 9671 a4bc
00000030: fdb2 54bc b46c e7bd e548 68be 14f5 043e
00000040: 0dd4 f03d 60d5 b13e bb0e 40bc 5d0c 3cbe
00000050: 274c 84be 4488 88bd bafa e03d accb 1abe
00000060: f8d1 083e 88f1 47bd 2c12 4cbe fda7 babc
00000070: 4fa9 823c 3e80 1bbe 76d7 ecbd 9e04 c1bd
00000080: cfd1 913e b969 853d 1a6a 973e 4026 2b3e
00000090: 7d3d 793e 0253 7bbe adb3 44be 2d3a 85bd
000000a0: 650f 33be 189d a43b a403 4f3e 2ca3 a13e
000000b0: b49a edbd ff41 bb3b d74e 0e3e a2ad cbbd
000000c0: 6e5c 7a3e 3b36 5bbb 84dd 2d3e 0b76 de3c
000000d0: 3afe f3bd 0f99 ffba 94db 913e a435 0c3e
000000e0: 9010 a2bd 8b98 d93d 63ca 993d 532d 113d
000000f0: 1235 59be 25dc 26be 9588 8ebd b4c2 1e3e
00000100: dd6b e1bd 8c4c 163d eb5a 6bbe cfac 053e
00000110: 8933 3ebe 4f1a 413e a7c6 543e 521a d7bd
00000120: 43e0 50be 91a9 c23d a799 06be cb29 87be
00000130: 343e bdbd 3685 1b3e 9d03 ebbd edcd 63be
00000140: 9980 75be 99cf 893e b847 473e b832 823c
00000150: 16fd adbd 5f8b 243e a673 6b3d 088f 633d
00000160: 1835 bc3d 6a9d be3e 48d9 6e3e 69e6 1fbe
00000170: 1804 823e a6d9 253e e472 783e 2b07 0b3d
00000180: ad17 0dbe 25c8 043d 68a6 313e 8eb7 43be
00000190: 7a6d 033e 2717 4a3e e45d b33d 03cf 47bd
000001a0: 8fcf 683e 318d e83d 82ed cd3d 329c 393d
000001b0: 5b8c 95bd 6a08 613e 4921 503e f648 84bd
000001c0: d0e6 0fbe f4aa 6ebd cadf 2d3e 16ec 523e
000001d0: 17bc 47be 166f 95bd bf70 39be 7b17 dc3d
000001e0: 25db 5c3e 2510 febc 2ecf 21be fef2 9f3e
000001f0: da73 c2bd 7b76 00bd f079 91be 9d9e 753b
00000200: 3b4e 2cbe 7d0d 2f3e 6e9e 00be dc17 e83d
00000210: 5e4f 253c eeeb 9e3d bb29 903e feb7 f63d
00000220: f4b8 88be a2ca 303e ae4b 1a3e 618b 313d
00000230: a799 153d b8e7 98be 1d0d 573d 463a 2cbe
00000240: aba4 60be d60f 44be b978 67be e976 6e3e
00000250: 2c01 78be 3799 1d3e b3e6 febc 5605 c93d
00000260: cd6e ef3d 01cc 5b3e fcf3 1fbe 7159 743e
00000270: 1eae 0dbe 5b38 16be 84a4 3abd 22d5 2fbe
00000280: 8feb 683e 0834 413e ec6b 813e de15 033e
00000290: f245 66be c98e 7abd d6fa 7fbe 09d5 113e
000002a0: 725f 19bd 3c87 54be 8415 953d 2ecd 8f3c
000002b0: 1a0d 873d cea5 b33d cc4d 833e 21e1 01be
000002c0: 41a1 7dbc 56a6 1f3e d1bc 9fbe e6a7 213e
000002d0: 7c73 fcbd e79d 073e b7b1 db3d 3abb 163e
000002e0: d40b 8d3e 34f2 85be 0572 8e3d 2894 81be
000002f0: c4b0 793e 92b0 91bc 6be9 9e3d 61a3 68be
00000300: b326 d33d a7cd ff3d 0065 793d 3398 5f3e
00000310: d9f7 ccbd 80bf ca3d 927b e1bd 310c 34be
00000320: 1beb 71be 7244 a33e 6041 cbbd 0cb8 5cbd
00000330: ff2d fa3c 4e8b 873e d323 d5bd b117 06be
00000340: 310d 483c 967a 18bd c220 aebd d59f 47be
00000350: c794 13be 1781 85be e616 6f3d 69b6 b7bc
00000360: 89a4 a3bd 3955 9b3d 6d87 bd3d fa82 0c3c
00000370: 79d2 a83d 6b9d 203e 65e1 863e b585 efbd
00000380: 5595 bbbd 093d 0e3e b8f4 763e a00e 85be
00000390: 874c ecbd 8f4d 463d 7a07 283e 65a4 6b3e
000003a0: b2e1 b93d 6d3a dfbd 16f7 46bc 5a1f e7bd
000003b0: 003c 0f3e b884 72be 97f3 0c3e 3ba3 d2bd
000003c0: 9045 08be 0ec3 df3c 0aa1 6f3e 1ea4 303e
000003d0: 9d96 533d 2e09 b53c 985a 853d 28de 62be
000003e0: 7168 a8bd a957 cbbd 41fa 0dbe c4e1 69be
000003f0: 9f0a 223c 4487 933d 2473 abbe f300 28be

policy_fc3.bias f4 [51]
0.01654171 0.0007742525 -0.08943848 0.1254737 0.017886614 0.012963131 -0.02639573 -0.076317884
0.0028175716 -0.01807948 -0.047019828 0.084524065 -0.01612936 0.035157617 -0.02590966 -0.050345466
0.040679798 -0.120653585 0.033658184 -0.02927619 0.015050808 0.06392599 -0.042033125 -0.0920243
-0.06523965 -0.05396064 0.01033036 -0.057804428 -0.027726296 0.017427864 -0.005065763 -0.07820168
0.011551027 -0.05591527 0.01731069 -0.052719735 -0.024456644 0.03955 -0.012869895 -0.114678994
-0.023763651 -0.037560746 -0.0067095184 -0.01710251 0.05105593 0.060809933 -0.020008123 -0.11300015
0.04234971 0.010521815 0.015005107
00000000: 7b82 873c 35f7 4a3a 862b b7bd 2d7c 003e
00000010: f386 923c 5063 543c dc3b d8bc 8d4c 9cbd
00000020: 02a7 383b 6b1b 94bc dd97 40bd f41a ad3d
00000030: b821 84bc 6f01 103d 7f40 d4bc 0c37 4ebd
00000040: dc9f 263d 3a19 f7bd 2add 093d 9fd4 efbc
00000050: aa97 763c a1eb 823d ed2a 2cbd 3c77 bcbd
00000060: 5e9c 85bd d505 5dbd ac40 293c 56c4 6cbd
00000070: 4222 e3bc e1c4 8e3c b3fe a5bb 3428 a0bd
00000080: 8540 3d3c 6907 65bd 26cf 8d3c a6f0 57bd
00000090: 4d59 c8bc 2eff 213d 41dc 52bc d2dc eabd
000000a0: fdab c2bc 4cd9 19bd 85db dbbb 901a 8cbc
000000b0: 0620 513d d613 793d 13e8 a3bc 9f6c e7bd
000000c0: e476 2d3d b163 2c3c fbd7 753c

value_fc1.weight f4 [64, 261]
0.061637506 -0.0038643628 -0.09882774 -0.06593939 -0.002056475 0.12424767 0.0042644534 -0.07807819
0.0018326963 -0.08052691 -0.26368496 0.10966029 -0.0133370655 -0.20852968 0.044483714 -0.25390878
-0.1492793 0.13998757 0.050143097 -0.1262547 -0.049191657 0.15897179 -0.18086696 0.033806108
-0.039669104 -0.22139448 -0.009286366 -0.025811993 -0.026505461 -0.046506602 0.092257425 -0.13876934
-0.08633721 0.19674914 -0.10709633 -0.09781428 0.09354851 0.031298064 -0.009256476 0.230489
0.047815252 0.0062727025 0.10318478 0.050463982 0.047151256 -0.1256163 -0.11272992 -0.08471393
-0.033707965 0.08539752 0.040593363 0.12276949 0.13204123 0.029118577 0.03750698 -0.03297332
-0.102589555 -0.083099045 -0.19465289 -0.08833398 0.13966273 -0.02498846 -0.0043588877 -0.10865633
0.02089122 -0.06825916 0.12845378 0.0016838545 0.07579624 -0.07110451 0.23991418 0.07112254
0.004230764 0.14946209 0.049856134 0.0223201 -0.122512795 0.12405073 0.12768209 0.24465556
0.01595472 0.09753411 -0.15077534 -0.21616247 -0.16727059 0.1789749 -0.22296213 -0.17249006
-0.30794635 -0.061419725 0.08238722 -0.105221 -0.010073401 -0.08013359 0.14629881 -0.059840545
-0.052812252 0.15590781 0.040901087 -0.34623516 -0.14390554 0.18176484 0.016252333 -0.15944715
-0.14943013 0.0140333725 0.029681517 -0.074004285 0.14855865 0.11431463 -0.19173808 0.009527605
0.060262322 0.04127303 0.16874965 0.09572983 0.18945527 0.009454712 0.1670906 -0.0040072296
0.04704175 0.03508021 0.13682762 0.07286281 0.035368413 -0.058374655 -0.009700825 -0.0060389265
-0.021472368 -0.24577972 -0.03481535 0.04730818 -0.04060491 -0.10429075 -0.039256897 0.0017422528
-0.22305065 0.07014509 -0.0016282747 -0.24844722 -0.060468256 0.07148769 -0.055035587 0.1110913
-0.14562729 -0.07090306 0.06395724 0.10966363 0.1399075 -0.09957714 0.06868315 0.095299706
0.13060477 -0.14745012 -0.12958819 -0.0027777373 -0.043358844 -0.04696566 0.14830485 0.13842013
-0.09833024 0.07229702 0.1200349 0.046577565 -0.07952216 0.15539497 -0.026882479 0.10212109
0.08479355 0.08434838 0.062628396 0.046389926 0.008246047 0.07798533 -0.03518097 0.06283203
0.10295805 -0.017456984 0.09559731 -0.113897115 -0.045573376 -0.09430532 -0.04224184 0.10587106
-0.0063229813 0.068828166 -0.014325833 0.079220384 -0.07730485 -0.019442683 0.008725277 -0.09345751
0.04175898 -0.08785875 -0.0912771 0.1188131 0.01266338 -0.052105013 0.12499225 0.08610652
-0.16389269 -0.12607625 0.101833805 0.064181164 0.0643912 0.05761511 0.07168852 0.008445672
0.025908584 0.04089841 0.055975825 0.118227154 -0.0047330647 -0.02834478 -0.0133780325 0.03374614
-0.04395298 0.06856077 0.07659645 0.008097883 0.00043122077 -0.074340336 0.09486205 0.16785042
0.12362351 -0.12630905 0.07726012 -0.036222532 -0.1461992 0.04950635 -0.027866287 -0.017248966
0.030436074 0.03048768 -0.026956415 0.02173451 -0.06542697 -0.052630447 0.20940657 -0.0284805
-0.14409438 0.0538269 -0.13168101 -0.02731304 0.069312066 -0.1731714 0.039575424 0.23764804
0.06677944 -0.077282704 -0.05400266 0.116895184 -0.15478623 0.05243597 0.09539301 -0.11887459
00000000: 9c77 7c3d 4041 7dbb 3366 cabd 3b0b 87bd
00000010: edc5 06bb 9075 fe3d d4bc 8b3b 75e7 9fbd
00000020: 1537 f03a 4beb a4bd b701 87be 9395 e03d
00000030: b583 5abc ce88 55be 8e34 363d 5500 82be
00000040: acdc 18be e758 0f3e d962 4d3d e948 01be
00000050: 317d 49bd 80c9 223e 3035 39be 4678 0a3d
00000060: 127c 22bd 3cb5 62be d825 18bc ac73 d3bc
00000070: fb21 d9bc b57d 3ebd 76f1 bc3d 8d19 0ebe
00000080: 90d1 b0bd 9b78 493e 5255 dbbd da52 c8bd
00000090: 5c96 bf3d 6632 003d 79a8 17bc 4f05 6c3e
000000a0: edd9 433d 3e8b cd3b 8b52 d33d 52b3 4e3d
000000b0: ad21 413d 8fa1 00be f2de e6bd 7f7e adbd
000000c0: 5d11 0abd e5e4 ae3d 3a45 263d 926e fb3d
000000d0: d135 073e 158a ee3c eba0 193d 080f 07bd
000000e0: 791a d2bd d52f aabd 1653 47be 72e8 b4bd
000000f0: bf03 0f3e 99b4 ccbc 00d5 8ebb 3687 debd
00000100: 1024 ab3c 75cb 8bbd 6389 033e c8b4 dc3a
00000110: 0f3b 9b3d 3e9f 91bd 10ac 753e b2a8 913d
00000120: 39a2 8a3b 970c 193e f235 4c3d a4d8 b63c
00000130: fde7 fabd 4f0e fe3d 18bf 023e fd86 7a3e
00000140: 79b3 823c f7bf c73d da64 1abe b259 5dbe
00000150: fb48 2bbe 3245 373e 2f50 64be 3ca1 30be
00000160: 25ab 9dbe 4093 7bbd a1ba a83d 1c7e d7bd
00000170: e80a 25bc 141d a4bd 5bcf 153e 5c1b 75bd
00000180: a951 58bd 4ca6 1f3e e687 273d bc45 b1be
00000190: f95b 13be 9020 3a3e 9d23 853c 1d46 23be
000001a0: 3604 19be 3bec 653c a726 f33c 8f8f 97bd
000001b0: c21f 183e ca1d ea3d fd56 44be ac19 1c3c
000001c0: a0d5 763d e90d 293d b5cc 2c3e 000e c43d
000001d0: 9000 423e f0e7 1a3c cc19 2b3e 144f 83bb
000001e0: daae 403d 44b0 0f3d 8a1c 0c3e 1939 953d
000001f0: 78de 103d 431a 6fbd 36f0 1ebc 30e2 c5bb
00000200: d2e6 afbc aead 7bbe 8a9a 0ebd 39c6 413d
00000210: 5651 26bd 6496 d5bd d7cb 20bd 4e5c e43a
00000220: 6467 64be 3ba8 8f3d d56b d5ba f368 7ebe
00000230: 90ad 77bd 2368 923d ff6c 61bd d683 e33d
00000240: 521f 15be a035 91bd 03fc 823d 5397 e03d
00000250: e943 0f3e 19ef cbbd c0a9 8c3d 7e2c c33d
00000260: 42bd 053e 2afd 16be c4b2 04be b30a 36bb
00000270: 0b99 31bd 105f 40bd 3add 173e 02be 0d3e
00000280: 5d61 c9bd 7610 943d dcd4 f53d 1ec8 3e3d
00000290: 84dc a2bd dc1f 1f3e a538 dcbc dd24 d13d
000002a0: 3ea8 ad3d d8be ac3d 5143 803d 5d03 3e3d
000002b0: 6e1a 073c c6b6 9f3d ec19 10bd 14ae 803d
000002c0: acdb d23d f301 8fbc 86c8 c33d e442 e9bd
000002d0: 26ab 3abd 2623 c1bd c805 2dbd edd2 d83d
000002e0: 0331 cfbb c8f5 8c3d e6b6 6abc 4c3e a23d
000002f0: 0152 9ebd 4346 9fbc 77f4 0e3c a766 bfbd
00000300: 770b 2b3d 4aef b3bd 7def babd 4854 f33d
00000310: 117a 4f3c 116c 55bd f0fb ff3d 9d58 b03d
00000320: 7cd3 27be 221a 01be 3e8e d03d 6a71 833d
00000330: 89df 833d d2fd 6b3d 6ed1 923d b75f 0a3c
00000340: 3d3e d43c 1785 273d e846 653d 1421 f23d
00000350: d317 9bbb 5033 e8bc 892f 5bbc 6439 0a3d
00000360: 0a08 34bd 9769 8c3d 99de 9c3d fcac 043c
00000370: 7915 e239 bf3f 98bd 0947 c23d fbe0 2b3e
00000380: 532e fd3d 2957 01be 8e3a 9e3d 145e 14bd
00000390: 3eb5 15be 2cc7 4a3d d747 e4bc b44d 8dbc
000003a0: 1355 f93c 4dc1 f93c b3d3 dcbc 920c b23c
000003b0: 93fe 85bd 0693 57bd ad6e 563e f04f e9bc
000003c0: 7a8d 13be 9879 5c3d 63d7 06be 99bf dfbc
000003d0: 7cf3 8d3d d853 31be d719 223d 025a 733e
000003e0: a9c3 883d 6546 9ebd e531 5dbd be66 ef3d
000003f0: 4880 1ebe 1ac7 563d 695d c33d 8574 f3bd

value_fc1.bias f4 [64]
-0.011607436 0.016890414 0.15339787 0.0077790637 -0.084847346 -0.03582943 0.0665135 -0.011940456
0.05144466 0.0037820167 -0.0023531362 0.08048947 -0.050420053 -0.035268046 0.04068151 0.040055193
0.012987801 -0.005760677 0.07279951 -0.12853217 -0.05101769 -0.050487466 0.04717227 0.12788063
0.068893805 -0.13690557 0.14062956 0.052556947 0.11651757 0.07289771 0.012382667 0.14004043
0.06117216 0.08243477 0.09518299 0.034799896 0.007358031 0.059819564 0.06547008 0.13172556
0.07934727 -0.08209397 -0.020506669 -0.043427028 0.084397465 -0.11083314 0.026084399 -0.051674724
-0.067218594 0.09545667 0.11737752 0.012549651 -0.15568613 0.12316946 -0.004574358 0.0032656915
-0.05019283 0.20919274 0.008743659 -0.03743572 0.14604251 -0.12322529 -0.046361562 0.2291587
00000000: 1e2d 3ebc c45d 8a3c 5514 1d3e 84e7 fe3b
00000010: 72c4 adbd e1c1 12bd 3b38 883d e7a1 43bc
00000020: a3b7 523d b6db 773b 1337 1abb aad7 a43d
00000030: 4285 4ebd 3a75 10bd a8a1 263d ea10 243d
00000040: c9ca 543c 10c4 bcbb e917 953d f09d 03be
00000050: edf7 50bd f2cb 4ebd b637 413d 24f3 023e
00000060: 3218 8d3d f930 0cbe 3201 103e f445 573d
00000070: c4a0 ee3d 654b 953d abe0 4a3c c266 0f3e
00000080: a98f 7a3d 90d3 a83d 4def c23d 568a 0e3d
00000090: a31b f13b 5c05 753d 2d15 863d 11e3 063e
000000a0: d280 a23d e220 a8bd 9afd a7bc 8ae0 31bd
000000b0: 94d8 ac3d 7cfc e2bd f3ae d53c e0a8 53bd
000000c0: e7a9 89bd c97e c33d a063 f03d 0d9d 4d3c
000000d0: 2f6c 1fbe 4540 fc3d 7fe4 95bb 3605 563b
000000e0: ff96 4dbd 9f36 563e 9041 0f3c 3356 19bd
000000f0: 2b8c 153e 8a5d fcbd 9fe5 3dbd 94a8 6a3e

value_fc2.weight f4 [32, 64]
0.1740596 -0.093114264 0.16694017 0.03539621 0.22728606 -0.15907599 -0.27619374 0.12912408
-0.008721858 0.007880283 0.26973498 0.13262193 0.13371806 0.22140604 0.17341377 0.31089768
-0.15837874 -0.11452298 0.28932458 0.08648194 0.14618683 0.22188182 0.09923193 0.011061109
0.26535574 0.29351515 -0.12971051 0.1597086 -0.0056746174 0.009461763 -0.16593732 -0.0021915168
-0.040675078 0.21337397 0.34496623 -0.174177 0.041532867 0.07731722 -0.037432604 0.025677286
-0.25969106 0.039442275 0.16869184 0.29082838 -0.09338378 0.1393193 0.14514661 0.18575294
0.3390553 -0.1240406 0.28140885 -0.27464184 -0.080734424 0.19388726 -0.20960328 -0.18169855
0.05639092 -0.05956051 0.08212262 0.21847126 0.20514241 -0.15016818 0.16854826 -0.08346188
0.013644468 0.085355 -0.12937815 -0.21875265 -0.23609664 -0.052222434 0.06282011 -0.19421995
0.17026803 -0.22783677 -0.14798102 -0.059246205 0.13877073 0.15300527 -0.09180687 -0.15548494
0.17337969 -0.23138326 0.13475293 -0.23682919 0.01059587 -0.11629646 0.18432312 0.16939871
0.23239425 -0.2216304 0.19401407 -0.20637643 -0.18991458 -0.045123696 0.08156824 -0.12734826
0.14107594 0.0038338373 -0.009714293 -0.01900732 -0.17576881 -0.22189166 -0.08410546 -0.029945021
0.08009453 0.023478637 0.08062366 0.089208394 -0.04540466 0.24308807 0.07066544 0.10201611
0.053484775 0.04260435 -0.10229598 0.15630752 -0.20923236 -0.097647205 -0.30135322 -0.22557282
0.10753716 -0.18084612 0.025342863 -0.057230875 -0.12994729 0.034806374 -0.20499164 0.28784364
0.18378441 -0.009036969 -0.18453059 -0.084412344 0.11932077 -0.11547258 -0.24006793 0.22182173
0.1311833 0.06292449 -0.06898304 -0.0017165085 -0.22097747 -0.07074422 0.058320366 -0.034291018
-0.021118008 -0.21744135 -0.1938882 -0.14863689 -0.05970815 -0.10158372 0.025262132 -0.24980484
-0.0180552 0.13009903 -0.249303 -0.26974675 -0.035941187 0.14671446 0.19793026 -0.17763737
-0.22432618 0.068586 -0.055694167 -0.08357498 -0.04286034 -0.08995297 0.22616662 0.048387468
0.1751108 -0.32981184 0.17607963 -0.2849456 -0.16611494 0.030904436 0.08034315 0.027845554
0.03805001 -0.021493306 0.13440414 -0.20742634 0.026083047 -0.17581567 -0.20582132 -0.17533325
-0.23223968 0.13027179 0.10420789 0.1452596 0.05828883 -0.2325913 0.020752115 -0.01311323
-0.12708583 0.02701747 0.19753578 0.09658522 -0.17446856 0.1529383 0.0862293 0.1483821
-0.025411364 0.08045414 0.18394533 -0.22992371 0.1187094 0.095303304 0.077920586 -0.012539559
-0.24182922 -0.3964418 -0.19250655 -0.31324166 0.054566305 0.22438458 -0.20279509 0.064641036
0.054008055 0.021206763 0.23381546 0.16827545 0.15182479 0.21891391 -0.16073228 0.07867291
0.21156196 -0.13043205 -0.17458023 -0.08631392 0.13217327 -0.0964243 0.038327638 -0.067686535
0.08817097 -0.25124305 0.19701572 -0.09053486 0.17800342 0.16289185 0.060580324 -0.017772602
-0.21120724 -0.040828187 -0.15719682 0.060090765 -0.19275975 -0.20639053 0.16323385 -0.17371087
0.025062336 -0.062388368 -0.07474169 -0.11888027 0.1933497 -0.16998939 -0.12122204 0.10146134
00000000: ae3c 323e b1b2 bebd 5df2 2a3e 9efb 103d
00000010: adbd 683e d1e4 22be 4469 8dbe 1a39 043e
00000020: 20e6 0ebc 4d1c 013c b41a 8a3e 0bce 073e
00000030: 63ed 083e 44b8 623e 6193 313e fb2d 9f3e
00000040: 092e 22be 068b eabd 5a22 943e 711d b13d
00000050: 00b2 153e fd34 633e 1c3a cb3d a739 353c
00000060: b5dc 873e 9e47 963e d5d2 04be a78a 233e
00000070: 24f2 b9bb 8305 1b3c 79eb 29be 8d9f 0fbb
00000080: e99a 26bd b57e 5a3e 6a9f b03e 755b 32be
00000090: 5e1e 2a3d 7e58 9e3d ee52 19bd 2c59 d23c
000000a0: 3af6 84be 398e 213d 8ebd 2c3e 75e7 943e
000000b0: ff3f bfbd b8a9 0e3e 50a1 143e 0536 3e3e
000000c0: a898 ad3e 0009 febd d214 903e db9d 8cbe
000000d0: 1758 a5bd 628a 463e 3ea2 56be 2f0f 3abe
000000e0: 2afa 663d b9f5 73bd e72f a83d eeb6 5f3e
000000f0: da10 523e b0c5 19be ea97 2c3e 10ee aabd
00000100: 0c8d 5f3c 9ace ae3d b57b 04be b200 60be
00000110: 51c3 71be 31e7 55bd d4a7 803d 98e1 46be
00000120: be5a 2e3e 0b4e 69be 5688 17be 26ac 72bd
00000130: ea19 0e3e 6aad 1c3e 3e05 bcbd 7237 1fbe
00000140: 728a 313e bcef 6cbe acfc 093e 5a83 72be
00000150: 4d9a 2d3c d72c eebd 33bf 3c3e db76 2d3e
00000160: c2f8 6d3e 14f3 62be a0ab 463e 5854 53be
00000170: f878 42be a0d3 38bd 400d a73d 9567 02be
00000180: 3676 103e 1e41 7b3b b328 1fbc 3db5 9bbc
00000190: bdfc 33be 9137 63be 7c3f acbd 434f f5bc
000001a0: 9a08 a43d 4556 c03c 041e a53d e4b2 b63d
000001b0: 3dfa 39bd 14ec 783e 0bb9 903d d3ed d03d
000001c0: da12 5b3d e681 2e3d 8e80 d1bd 140f 203e
000001d0: 0241 56be 42fb c7bd f84a 9abe 90fc 66be
000001e0: 713c dc3d ba2f 39be d69b cf3c ec6a 6abd
000001f0: e710 05be 2191 0e3d 54e9 51be 3e60 933e
00000200: fb31 3c3e cc0f 14bc 96f5 3cbe 61e0 acbd
00000210: 735e f43d e37c ecbd 5ed4 75be 3c25 633e
00000220: ea54 063e 8ede 803d fb46 8dbd 78fc e0ba
00000230: eb47 62be 58e2 90bd 56e1 6e3d bd74 0cbd
00000240: acff acbc f2a8 5ebe a18a 46be 4534 18be
00000250: 8890 74bd 200b d0bd 88f2 ce3c d7cc 7fbe
00000260: 80e8 93bc ae38 053e 4949 7fbe 3f1c 8abe
00000270: 1137 13bd 513c 163e 3bae 4a3e 92e6 35be
00000280: c3b5 65be d176 8c3d 911f 64bd 5c29 abbd
00000290: 538e 2fbd 4339 b8bd 3998 673e f031 463d
000002a0: 3f50 333e 19dd a8be 384e 343e 64e4 91be
000002b0: 091a 2abe 4d2b fd3c f38a a43d 5c1c e43c
000002c0: 54da 1b3d bb12 b0bc 3da1 093e 9267 54be
000002d0: 1dac d53c 0609 34be d3c2 52be 8f8a 33be
000002e0: 3dd0 6dbe f865 053e f26a d53d efbe 143e
000002f0: 45c0 6e3d 6a2c 6ebe 5700 aa3c dfd8 56bc
00000300: ca22 02be be53 dd3c d246 4a3e 79ce c53d
00000310: e3a7 32be dc9b 1c3e fd98 b03d 7af1 173e
00000320: 7e2b d0bc 24c5 a43d 2a5c 3c3e 1f71 6bbe
00000330: ea1d f33d 612e c33d d494 9f3d b972 4dbc
00000340: 14a2 77be 6bfa cabe 7020 45be 3661 a0be
00000350: eb80 5f3d 12c5 653e 84a9 4fbe 8562 843d
00000360: 8d37 5d3d ceb9 ad3c 526d 6f3e 6650 2c3e
00000370: f577 1b3e f82a 603e 0197 24be 431f a13d
00000380: b3a3 583e fb8f 05be 29c5 32be 5ac5 b0bd
00000390: 6e58 073e 1a7a c5bd 71fd 1c3d 3d9f 8abd
000003a0: fb92 b43d eea2 80be 7dbe 493e 576a b9bd
000003b0: 8746 363e 1fcd 263e 1323 783d d997 91bc
000003c0: b646 58be 753b 27bd 34f8 20be bc21 763d
000003d0: d062 45be 0a58 53be c626 273e 43e1 31be
000003e0: 874f cd3c f28a 7fbd 2c12 99bd 8077 f3bd
000003f0: 77fd 453e b311 2ebe 4343 f8bd f7ca cf3d

value_fc2.bias f4 [32]
0.13497491 0.12201365 -0.027772557 -0.056201372 -0.009479236 0.18102373 -0.066223375 -0.20610316
0.12840651 0.1568339 -0.060540594 0.031358626 -0.056057043 -0.0978535 0.26400223 0.039550878
0.16648395 0.016412973 -0.09604398 0.0584943 -0.008725078 0.10081554 0.15674938 0.09397444
0.2015312 -0.16811188 -0.08184565 0.14933236 -0.09050498 0.18842442 -0.026913928 -0.039849337
00000000: dd36 0a3e 4be2 f93d 4683 e3bc 6933 66bd
00000010: cc4e 1bbc 495e 393e 1fa0 87bd b50c 53be
00000020: ff7c 033e 1199 203e 6af9 77bd e771 003d
00000030: 129c 65bd 6a67 c8bd 4d2b 873e 1a00 223d
00000040: c57a 2a3e 8074 863c b5b2 c4bd b897 6f3d
00000050: a1f3 0ebc 6178 ce3d e982 203e ac75 c03d
00000060: 325e 4e3e 8525 2cbe b19e a7bd 95ea 183e
00000070: ad5a b9bd 55f2 403e 997a dcbc 0f39 23bd

value_fc3.weight f4 [1, 32]
-0.048486464 -0.048000783 -0.1262751 0.0696056 -0.2859849 -0.09282745 0.017383467 0.015380892
-0.023601621 -0.06562263 0.11130083 0.053104896 0.5679619 0.050104626 -0.009038388 1.1363637
0.018858114 -0.23731987 0.19127634 -0.09783462 0.79100233 -0.02399379 -0.0905877 0.19340299
0.0063324417 0.018147374 -0.19230476 0.013714274 -0.004785375 -0.06933228 0.12539133 -0.2902267
00000000: be99 46bd 789c 44bd 434e 01be 618d 8e3d
00000010: 9d6c 92be 511c bebd c667 8e3c 2300 7c3c
00000020: 3058 c1bc 2865 86bd b1f1 e33d 8584 593d
00000030: f365 113f 823a 4d3d bf15 14bc 5e74 913f
00000040: 557c 9a3c fb03 73be f2dd 433e 845d c8bd
00000050: 217f 4a3f a08e c4bc 0b86 b9bd 6f0b 463e
00000060: 5f80 cf3b cda9 943c 8aeb 44be d6b1 603c
00000070: a3ce 9cbb 15fe 8dbd 9666 003e 9898 94be
