rl/spin_model_11231518/51.pt (torch_old, 159601 bytes, 12 tensors)

log_std f4 [51]
-0.024791053 0.15278047 -0.0754273 -0.021980643 0.07666151 0.031563755 0.109763734 0.048393693
-0.12043297 0.068729974 0.15556861 0.0795388 0.089115374 0.13350706 0.12728445 0.13384695
0.14901163 0.17909867 0.044350874 0.07424308 0.06654189 0.09880591 0.14554787 0.21023001
0.14264458 -0.013324901 0.15072417 0.18874359 0.043716595 0.17168626 -0.013192713 0.047525797
0.03434359 -0.021490127 0.006738455 0.08775293 0.1712776 0.05312507 -0.04734811 0.10113051
-0.035565034 0.18269275 0.053528983 -0.060253184 0.02590835 0.091886796 -0.03379884 0.13145997
0.07393082 0.031232165 0.0007211971
00000000: 9b16 cbbc 7c72 1c3e a179 9abd c010 b4bc
00000010: b600 9d3d ff48 013d cfcb e03d 7738 463d
00000020: 90a5 f6bd 4dc2 8c3d 614d 1f3e 3de5 a23d
00000030: 1f82 b63d 13b6 083e db56 023e 2d0f 093e
00000040: 8196 183e a465 373e 43a9 353d c20c 983d
00000050: 1d47 883d c15a ca3d 800a 153e 8946 573e
00000060: 6c11 123e b050 5abc 7057 1a3e 0046 413e
00000070: 2c10 333d 86ce 2f3e 4026 58bc 69aa 423d
00000080: ddab 0c3d 100c b0bc 42ce dc3b cfb7 b33d
00000090: 6563 2f3e ac99 593d 17f0 41bd 831d cf3d
000000a0: a4ac 11bd cf13 3b3e 3541 5b3d 0bcc 76bd
000000b0: bf3d d43c 252f bc3d a770 0abd 719d 063e
000000c0: 0b69 973d 99da ff3c b80e 3d3a

policy_fc1.weight f4 [64, 261]
-0.052035443 0.03956522 -0.110099174 0.1285034 -0.10887501 0.054801382 -0.120884456 0.050607763
0.14196353 -0.062280163 -0.12832537 -0.04090054 -0.15143572 -0.15811023 -0.09180342 -0.13964249
-0.11219025 0.08582757 0.10132092 -0.05484245 0.07042264 -0.11538536 0.0032677364 -0.09652435
0.09267423 -0.15250655 0.10138341 -0.012989537 0.047185242 -0.0975897 0.014380306 0.027575469
-0.007707882 0.045718923 -0.09004393 0.04869389 -0.029827025 0.16380756 -0.031544156 0.12660736
-0.018307071 0.13465114 0.17143591 -0.133188 0.097276494 -0.047560945 -0.14239718 -0.028786058
-0.12122458 0.02433679 -0.14063546 0.13923341 0.039682068 -0.036167495 0.13886108 0.04594093
0.10143642 -0.06581644 -0.10118812 0.054503042 0.083083466 -0.05341988 0.06970605 0.10195601
0.1032484 -0.02601028 0.02566446 -0.009632533 0.10621012 -0.12456089 -0.016899435 -0.09921821
0.1469376 0.00047134847 -0.05756674 0.020949334 0.14455865 0.12614533 0.06922733 0.0046710083
0.12358093 -0.11793529 0.025746524 0.018436702 -0.13688716 -0.1096363 0.09328225 0.0020439038
-0.14447239 -0.056462303 0.06441747 -0.0021362035 0.013561305 -0.038275294 0.012727904 0.0470845
0.15549055 0.051325817 0.1145452 0.16716425 -0.19670734 -0.11094131 -0.09056771 -0.07787166
0.13465779 -0.07082777 0.27205944 -0.022864653 -0.067434825 0.10867744 -0.042113457 0.094731174
0.104462996 -0.01871529 0.012521147 0.26857558 0.12053689 0.07838423 0.032436337 0.31718498
-0.10214927 -0.06090601 -0.093901284 0.27957368 -0.15775733 -0.0025500548 -0.035605285 0.097580835
-0.09655431 -0.046473846 -0.06316699 -0.15274778 -0.10138915 -0.079891175 -0.13309926 -0.12302158
0.028116 -0.06256088 0.036604375 -0.11301675 -0.16655745 -0.18526357 -0.012560278 0.09022744
-0.1012756 0.048253812 0.028953139 0.0922102 -0.007039131 0.042953055 0.0362957 0.11989595
0.016250193 0.022642098 -0.09608255 0.07144918 -0.11472903 0.026983837 0.09505349 -0.13989174
0.08450246 0.03824925 -0.001776027 0.13964884 0.09398276 -0.043268792 0.16874665 -0.107990585
-0.18069868 -0.08048024 0.1241674 -0.099585585 0.0088522015 -0.0070263534 0.03493637 -0.071203224
-0.10819557 -0.018384766 0.12875605 0.07746297 0.061622553 0.07636926 -0.2635014 0.08591699
0.12661234 -0.22297014 0.08426731 0.0125901 -0.16145773 0.058866758 0.15729381 -0.14609651
0.14251801 0.15141772 -0.08389007 -0.19138896 0.12607326 0.05035917 -0.13973345 0.11841992
0.04839988 -0.20895629 0.12696117 -0.15225692 -0.07014582 -0.20738126 0.069629505 -0.017447863
-0.24999492 -0.12092309 -0.05542476 -0.08275343 -0.061861917 0.02654199 0.10082232 0.00045104226
-0.012249333 -0.001158786 0.07110951 0.04858214 -0.21967939 -0.10153327 -0.0635123 -0.08094633
-0.1321705 0.03155692 -0.102156095 -0.111211546 -0.041131593 -0.12192301 -0.17146869 0.008432965
-0.09714244 -0.14408475 -0.09751773 0.01376814 -0.014120333 0.029433496 -0.10396133 -0.120686986
-0.0949678 -0.0001716328 -0.18184602 -0.124736555 0.034993384 -0.012044355 -0.15316379 0.07653116
-0.01975231 -0.11585688 -0.18324369 -0.094499834 0.07829651 -0.1271499 -0.14988235 0.091201134
00000000: 1e23 55bd 240f 223d ad7b e1bd 6596 033e
00000010: dcf9 debd 6a77 603d 4592 f7bd 164a 4f3d
00000020: e35e 113e 7c19 7fbd ba67 03be 5387 27bd
00000030: f711 1bbe a6e7 21be 6e03 bcbd 71fe 0ebe
00000040: 00c4 e5bd 5dc6 af3d 5881 cf3d 7aa2 60bd
00000050: bf39 903d 294f ecbd 8527 563b 8fae c5bd
00000060: fdcb bd3d ad2a 1cbe 1ba2 cf3d 11d2 54bc
00000070: 5045 413d 1cdd c7bd 609b 6b3c f3e5 e13c
00000080: 6792 fcbb c443 3b3d f468 b8bd 3f73 473d
00000090: ce57 f4bc 2bbd 273e 7234 01bd 5ca5 013e
000000a0: b6f8 95bc fde1 093e e58c 2f3e 6f62 08be
000000b0: e638 c73d 44cf 42bd 91d0 11be bdd0 ebbc
000000c0: 9844 f8bd f35d c73c be02 10be 3493 0e3e
000000d0: aa89 223d 5e24 14bd 9931 0e3e 8e2c 3c3d
000000e0: e6bd cf3d c5ca 86bd b83b cfbd 953e 5f3d
000000f0: aa27 aa3d cece 5abd 0cc2 8e3d 50ce d03d
00000100: e673 d33d 8313 d5bc 463e d23c c6d1 1dbc
00000110: b184 d93d c819 ffbd af70 8abc eb32 cbbd
00000120: cf76 163e 521f f739 1acb 6bbd f09d ab3c
00000130: 2f07 143e 3e2c 013e 0fc7 8d3d 420f 993b
00000140: 0018 fd3d 0f88 f1bd 60ea d23c 9108 973c
00000150: 262c 0cbe ff88 e0bd c40a bf3d 04f3 053b
00000160: 92f0 13be 0445 67bd 4eed 833d 8cff 0bbb
00000170: 3c30 5e3c 8ec6 1cbd b388 503c addb 403d
00000180: ea38 1f3e 053b 523d ac96 ea3d 1b2d 2b3e
00000190: a66d 49be 3335 e3bd 907b b9bd 2d7b 9fbd
000001a0: bbe3 093e 260e 91bd 604b 8b3e a74e bbbc
000001b0: 451b 8abd 4792 de3d 297f 2cbd 6b02 c23d
000001c0: b2f0 d53d cf50 99bc 7f25 4d3c bd82 893e
000001d0: 0cdc f63d e987 a03d f7db 043d 1266 a23e
000001e0: a333 d1bd 9578 79bd 514f c0bd 4824 8f3e
000001f0: 238b 21be d21e 27bb d9d6 11bd 76d8 c73d
00000200: 44be c5bd 5c5b 3ebd b25d 81bd ea69 1cbe
00000210: 1da5 cfbd fc9d a3bd 2c4b 08be bdf2 fbbd
00000220: 8753 e63c eb1f 80bd 78ee 153d 5375 e7bd
00000230: 098e 2abe bcb5 3dbe a0c9 4dbc 2ac9 b83d
00000240: 9569 cfbd caa5 453d 222f ed3c b4d8 bc3d
00000250: 83a8 e6bb 8bef 2f3d cdaa 143d 028c f53d
00000260: 201f 853c ec7b b93c eec6 c4bd f353 923d
00000270: 0ef7 eabd 350d dd3c 67ab c23d c83f 0fbe
00000280: a00f ad3d 3fab 1c3d 94c9 e8ba 1b00 0f3e
00000290: 097a c03d 9e3a 31bd eccb 2c3e 2b2a ddbd
000002a0: 1309 39be d3d2 a4bd 7a4b fe3d 87f3 cbbd
000002b0: d308 113c 533d e6bb 7019 0f3d ffd2 91bd
000002c0: a495 ddbd a69b 96bc a0d8 033e e8a4 9e3d
000002d0: ee67 7c3d 7d67 9c3d a8e9 86be 3ff5 af3d
000002e0: aaa6 013e 4952 64be 5794 ac3d b546 4e3c
000002f0: 2d55 25be 451e 713d a111 213e 539a 15be
00000300: 3ef0 113e 3f0d 1b3e 8fce abbd 78fb 43be
00000310: 5919 013e 6b45 4e3d 4916 0fbe 2586 f23d
00000320: f43e 463d a3f8 55be 1c02 023e 3de9 1bbe
00000330: 9da8 8fbd c15b 54be ea99 8e3d d2ee 8ebc
00000340: abfe 7fbe 86a6 f7bd 1305 63bd a17a a9bd
00000350: ec62 7dbd 966e d93c ef7b ce3d de79 ec39
00000360: 6db1 48bc 68e2 97ba dda1 913d 11fe 463d
00000370: a2f3 60be adf0 cfbd bd12 82bd 31c7 a5bd
00000380: b457 07be d441 013d 3737 d1bd e1c2 e3bd
00000390: 9a79 28bd c5b2 f9bd 7d95 2fbe 6b2a 0a3c
000003a0: 9ef2 c6bd f48a 13be 60b7 c7bd c493 613c
000003b0: f858 67bc 841e f13c aee9 d4bd bd2a f7bd
000003c0: 7a7e c2bd 54f8 33b9 d835 3abe e175 ffbd
000003d0: 3955 0f3d b055 45bc f8d6 1cbe 5ebc 9c3d
000003e0: 99cf a1bc 5f46 edbd 3ca4 3bbe 2189 c1bd
000003f0: ec59 a03d 9533 02be c27a 19be a9c7 ba3d

policy_fc1.bias f4 [64]
-0.014077892 -0.021237032 -0.028043734 -0.024807608 -0.030655101 -0.013059892 0.017348422 -0.008608387
-0.056332406 -5.6891287e-05 0.020932304 0.0010334573 -0.020141115 0.007157694 -0.026276603 -0.002930588
-0.008316055 -0.0029644978 -0.0053950483 -0.008381243 -0.01709005 -0.032029964 0.009268495 -0.030255945
-0.026989419 -0.05308121 -0.033992223 0.0055445484 -0.021070931 -0.00837124 -0.013632833 -0.039557718
-0.032976054 0.007842362 -0.009018106 -0.023189731 -0.009301775 0.00061975914 0.006072421 -0.006413075
-0.04143688 -0.0071761846 -0.07023559 0.009816987 -0.014401643 0.0118284 -0.03635248 -0.018523822
-0.024955384 -0.02714965 -0.013637647 -0.035327427 0.0031131222 0.0033452606 -0.023958815 -0.023423152
-0.030990027 -0.005548046 -0.016254602 -0.06540228 0.00029260007 0.0005954085 -0.016478375 0.006591423
00000000: f5a6 66bc 49f9 adbc f9bb e5bc 5339 cbbc
00000010: 6820 fbbc 28f9 55bc 471e 8e3c 310a 0dbc
00000020: cfbc 66bd 8e9e 6eb8 397a ab3c 1375 873a
00000030: fbfe a4bc 178b ea3b 0842 d7bc 1c0f 40bb
00000040: 1040 08bc 0548 42bb f2c8 b0bb 7b51 09bc
00000050: 6f00 8cbc da31 03bd e3da 173c 51db f7bc
00000060: ea18 ddbc af6b 59bd 6e3b 0bbd 0baf b53b
00000070: f29c acbc 8727 09bc 3f5c 5fbc 4607 22bd
00000080: e611 07bd 407d 003c aec0 13bc 64f8 bdbc
00000090: 7966 18bc 5577 223a 29fb c63b c624 d2bb
000000a0: b8b9 29bd 3326 ebbb add7 8fbd 6ed7 203c
000000b0: def4 6bbc e8cb 413c 57e6 14bd 45bf 97bc
000000c0: 3c6f ccbc f168 debc 7070 5fbc 7eb3 10bd
000000d0: 8605 4c3b 293c 5b3b 4745 c4bc e9e1 bfbc
000000e0: ccde fdbc 62cc b5bb 5f28 85bc a1f1 85bd
000000f0: 1e68 9939 3015 1c3a a8fd 86bc ddfc d73b

policy_fc2.weight f4 [32, 64]
-0.15884364 0.12182553 -0.096883394 -0.18892081 0.067663334 -0.14079219 -0.10813753 -0.17740478
-0.15765627 0.16898537 0.09556534 -0.054128848 -0.02607002 0.108586505 -0.05336276 -0.14724424
-0.30835006 -0.22995268 0.05944819 0.14587964 -0.34250647 0.14764896 0.05384252 -0.13166477
-0.033288483 -0.18773875 0.1318793 -0.15984878 0.2720521 0.0015842845 -0.20468679 -0.16376543
-0.06141131 0.14202762 0.120331675 -0.19020768 -0.026553512 -0.14626205 -0.24802239 0.075096965
-0.021450723 0.27498424 0.25082698 -0.2634239 0.16921932 -0.29457223 -0.24437994 -0.04406094
0.19908945 -0.0378497 0.107789725 0.28217897 0.014307866 0.038759537 0.14568189 -0.047966357
-0.039617147 -0.15548788 0.16645522 0.015034213 -0.11890658 -0.00831297 -0.19803268 -0.100541346
0.22705601 0.010919663 -0.12328428 -0.18991527 0.21259391 -0.14034252 0.08306967 0.07674405
-0.007916855 -0.2113702 0.059925497 -0.18318845 -0.20157523 0.3048725 -0.14813538 0.19690777
-0.032054428 0.06790414 -0.11601772 0.18517277 -0.23635471 -0.022049371 0.17588021 -0.0051134666
0.038517974 0.12162372 -0.006782983 -0.01841475 -0.18121451 0.12730417 -0.109216034 -0.10157289
0.069234185 0.20790085 0.1408032 0.022432044 -0.109260514 0.11674695 0.14610985 -0.13070562
0.11739055 -0.27185315 -0.09771199 0.18236588 -0.20944718 -0.18842262 -0.031119257 -0.24769814
0.030215766 -0.13251318 -0.08272504 0.0025101537 -0.105195805 -0.051595315 -0.035755407 -0.009011964
-0.21776158 -0.13134304 -0.07435624 -0.028059453 0.07292368 0.19907486 0.037166405 -0.027214978
-0.03637232 -0.14776786 -0.3187654 0.009611195 -0.17482942 0.051345598 0.09369398 -0.0119163
0.17246254 -0.042393193 -0.08270417 0.088795096 -0.040344756 -0.12194047 -0.032271292 -0.28732032
0.071247526 -0.05390643 -0.10920963 -0.2537623 0.038966097 -0.16200362 0.26553154 -0.31132206
-0.08018 0.18101323 -0.123765565 0.022550756 0.16706249 -0.25483376 0.20969036 0.083498165
-0.14721143 -0.038853962 -0.34317616 0.048241567 -0.28774437 -0.30829468 -0.14894713 0.13310201
-0.17145771 0.042717177 0.008329784 0.17317474 -0.06439814 0.11245819 -0.08495704 0.123743154
-0.030355172 -0.20951082 0.20655055 0.19151591 -0.25582898 0.014331279 -0.1774898 0.18832576
-0.031567175 0.18729241 0.14201114 -0.06979841 0.07222233 -0.016854338 0.22691944 0.2199959
-0.18143544 -0.13110629 -0.1433009 0.18090692 0.08782649 -0.049047876 -0.020743268 -0.13973373
0.044887487 0.2787945 -0.18355002 0.2575121 -0.108373754 -0.06884271 -0.19043727 -0.25185633
-0.17516673 0.14817145 -0.2334958 -0.17682023 -0.07300816 0.10162573 0.15442662 0.11624615
0.054984245 0.18388903 0.12003032 -0.20648374 -0.06628889 -0.043818742 0.069756456 0.1673565
-0.070518024 -0.0315561 0.13571265 0.11899568 -0.049955726 -0.18812394 -0.3460311 -0.1550107
-0.1279937 -0.24671832 0.06747787 0.041955367 0.12093751 0.23302567 0.13803594 -0.05817845
-0.05308107 -0.019372052 -0.29026067 -0.076425985 0.033934243 0.21168315 0.16334327 -0.1758112
-0.08445768 -0.21770525 -0.22869027 -0.17678022 0.12990333 -0.16151325 -0.2205722 0.021789256
00000000: e8a7 22be aa7f f93d cd6a c6bd 7574 41be
00000010: 1393 8a3d d42b 10be 3677 ddbd 99a9 35be
00000020: a570 21be 800a 2d3e c3b7 c33d 36b6 5dbd
00000030: cb90 d5bc 9a62 de3d e992 5abd 32c7 16be
00000040: 0fe0 9dbe b778 6bbe f27f 733d 7961 153e
00000050: 025d afbe 4a31 173e f989 5c3d 21d3 06be
00000060: 8159 08bd 963e 40be 5e0b 073e 66af 23be
00000070: 6a4a 8b3e c4a7 cf3a 6a99 51be 20b2 27be
00000080: 6d8a 7bbd b06f 113e 7470 f63d cdc5 42be
00000090: c086 d9bc b8c5 15be 95f9 7dbe 70cc 993d
000000a0: 6db9 afbc bcca 8c3e 656c 803e 7fdf 86be
000000b0: d447 2d3e 2cd2 96be bc3e 7abe 3f79 34bd
000000c0: 1bde 4b3e 4908 1bbd dcc0 dc3d c379 903e
000000d0: 8a6b 6a3c 52c2 1e3d a22d 153e 5f78 44bd
000000e0: 9745 22bd 3738 1fbe 3d73 2a3e 0f52 763c
000000f0: 4b85 f3bd 2033 08bc 14c9 4abe 9fe8 cdbd
00000100: 5f81 683e 63e8 323c 787c fcbd 2679 42be
00000110: 38b2 593e f3b5 0fbe 6e20 aa3d fc2b 9d3d
00000120: b2b5 01bc 6e71 58be 7074 753d c195 3bbe
00000130: bd69 4ebe 4018 9c3e cdb0 17be 31a2 493e
00000140: 814b 03bd 5311 8b3d b39a edbd ee9d 3d3e
00000150: f806 72be e2a0 b4bc f119 343e de8e a7bb
00000160: 06c5 1d3d db15 f93d c943 debb 88da 96bc
00000170: 4c90 39be 065c 023e a8ac dfbd 7305 d0bd
00000180: a7ca 8d3d f6e3 543e b72e 103e 68c3 b73c
00000190: fac3 dfbd 0619 ef3d d29d 153e b2d7 05be
000001a0: 756a f03d 5630 8bbe 391d c8bd 1fbe 3a3e
000001b0: 5279 56be dcf1 40be d0ed febc 95a4 7dbe
000001c0: 0e87 f73c 89b1 07be bf6b a9bd 6481 243b
000001d0: e670 d7bd 9c55 53bd 4374 12bd eba6 13bc
000001e0: e4fc 5ebe ca7e 06be 1648 98bd f0dc e5bc
000001f0: 0359 953d 48da 4b3e cd3b 183d f2f1 debc
00000200: 24fb 14bd 7550 17be 3835 a3be 4678 1d3c
00000210: 7c06 33be c34f 523d a1e2 bf3d 963c 43bc
00000220: 059a 303e 7ca4 2dbd ce60 a9bd 34da b53d
00000230: 8b40 25bd edbb f9bd e72e 04bd a61b 93be
00000240: 39ea 913d fdcc 5cbd 4ca9 dfbd 22ed 81be
00000250: ea9a 1f3d 47e4 25be c0f3 873e 9b65 9fbe
00000260: 6935 a4bd 885b 393e cd78 fdbd 5dbc b83c
00000270: 6e12 2b3e 9279 82be 12b9 563e 1601 ab3d
00000280: 98be 16be 5525 1fbd c9b4 afbe f398 453d
00000290: 3b53 93be cdd8 9dbe 9985 18be e54b 083e
000002a0: 9c92 2fbe 35f8 2e3d a579 083c b854 313e
000002b0: 2ce3 83bd 7b50 e63d f5fd adbd 0d6d fd3d
000002c0: 69ab f8bc 018a 56be fd81 533e bf1c 443e
000002d0: 04fc 82be becd 6a3c e3bf 35be 78d8 403e
000002e0: 954c 01bd 95c9 3f3e 5e6b 113e 78f2 8ebd
000002f0: 4de9 933d 1c12 8abc 925d 683e 9b46 613e
00000300: 36ca 39be ba40 06be 79bd 12be aa3f 393e
00000310: 60de b33d 6de6 48bd c9ed a9bc 5c16 0fbe
00000320: f1db 373d 27be 8e3e 89f4 3bbe a0d8 833e
00000330: 0ff3 ddbd 68fd 8cbd fd01 43be 50f3 80be
00000340: e85e 33be 42ba 173e 8619 6fbe 5d10 35be
00000350: 4d85 95bd 2721 d03d 0322 1e3e 7612 ee3d
00000360: 2937 613d 684d 3c3e 75d2 f53d 7970 53be
00000370: 78c2 87bd 487b 33bd 79dc 8e3d 815f 2b3e
00000380: c16b 90bd f840 01bd 42f8 0a3e 02b4 f33d
00000390: 609e 4cbd 90a3 40be fd2a b1be 20bb 1ebe
000003a0: c810 03be baa3 7cbe d631 8a3d 64d9 2b3d
000003b0: 16ae f73d 489e 6e3e 4b59 0d3e 874c 6ebd
000003c0: 896b 59bd 23b2 9ebc 0c9d 94be 3a85 9cbd
000003d0: a2fe 0a3d 78c3 583e 7543 273e da07 34be
000003e0: 26f8 acbd 20ee 5ebe c82d 6abe e005 35be
000003f0: 6105 053e bb63 25be aedd 61be 627f b23c

policy_fc2.bias f4 [32]
-0.050411984 0.048459373 -0.0013239395 0.035931714 -0.0091138175 0.025224255 0.044529725 0.017742895
-0.00945121 0.0013012 -0.0077779563 0.07164487 0.056415107 -0.005755903 -0.068720154 0.038846277
0.03331066 0.062218223 -0.021598667 0.014971719 -0.042612243 -0.009739379 0.0059530297 -0.008814304
-0.013859008 0.0248836 0.02582523 0.019030368 -0.028646538 0.04156033 -0.03467833 0.029553179
00000000: cc7c 4ebd 567d 463d 0a88 adba 222d 133d
00000010: 1f52 15bc 19a3 ce3c cd64 363d 8c59 913c
00000020: 3fd9 1abc 078d aa3a 3ade febb 8cba 923d
00000030: 8713 673d 049c bcbb 27bd 8cbd 461d 1f3d
00000040: c270 083d 89d8 7e3d b0ef b0bc f14b 753c
00000050: 2d8a 2ebd eb91 1fbc a211 c33b df69 10bc
00000060: e510 63bc b1d8 cb3c 6f8f d33c 93e5 9b3c
00000070: 25ac eabc 2a3b 2a3d dd0a 0ebd 8219 f23c

policy_fc3.weight f4 [51, 32]
-0.008848898 -0.046681415 -0.30747792 0.13514253 -0.22873409 0.16410817 0.049977574 0.27013826
0.47652313 0.25983602 0.18133503 -0.037042875 0.012837607 -0.1061485 -0.20832872 0.15456104
0.13118531 0.4068619 0.006164539 -0.18416677 -0.3725142 -0.10637818 0.117533594 -0.1707535
0.13929048 -0.09581217 -0.19651918 0.00815699 0.09580852 -0.14422442 -0.031133156 -0.08579472
0.28358534 0.07475172 0.3499769 0.1771354 0.25069892 -0.24504 -0.18898639 -0.09223094
-0.15603903 0.008629023 0.18573898 0.28416932 -0.088671915 0.0015457517 0.13658394 -0.07957641
0.26885355 -0.044604197 0.22115944 0.03874827 -0.09112872 -0.02219909 0.30948138 0.156678
-0.063377954 0.085766725 0.09147658 0.047192384 -0.19990183 -0.18009774 -0.057721473 0.13793015
-0.021778297 0.012553131 -0.23889582 0.15036102 -0.18034515 0.22535524 0.19009204 -0.11369632
-0.22310357 0.097581096 -0.16451749 -0.3113037 -0.040608183 0.14746636 -0.10307669 -0.28303528
-0.21020518 0.2635069 0.18182898 0.011305904 -0.117159516 0.1439225 0.02156843 0.06699018
0.11008721 0.38829628 0.22870827 -0.19628102 0.26791123 0.14695229 0.24256758 0.013732123
-0.088786915 0.09064616 0.14431213 -0.21557438 0.11590777 0.22695841 0.13555549 -0.020836996
0.25708932 0.09229307 0.11369452 0.02507435 -0.065992385 0.23778424 0.19999398 -0.04480495
-0.1315067 -0.029391143 0.1975261 0.19914465 -0.119865365 -0.064584546 -0.15047228 0.11256845
0.19105782 -0.06256134 -0.17870517 0.28741133 -0.07934177 -0.046324175 -0.2448463 0.012956933
-0.19138107 0.17726284 -0.110408284 0.13121839 -0.0090662595 0.09500543 0.2759783 0.111240976
-0.22104059 0.19499174 0.120529175 0.0382546 0.04999659 -0.334931 0.079290375 -0.21710905
-0.18918228 -0.17837493 -0.18251489 0.21929865 -0.25812027 0.13751736 -0.01020187 0.1348418
0.120738685 0.22294752 -0.1110196 0.24574508 -0.15986216 -0.19278245 -0.06626979 -0.15700251
0.27305666 0.14212385 0.2272455 0.13292733 -0.23688024 -0.07768838 -0.24622971 0.13336581
-0.03838691 -0.21645679 0.07491761 0.062288534 0.039137743 0.09481542 0.2504017 -0.08104836
0.00689635 0.18268755 -0.28543958 0.16807158 -0.19749714 0.12750216 0.098243736 0.13116516
0.27446133 -0.2834516 0.07297156 -0.27985084 0.23388349 -0.020304779 0.062341116 -0.25430086
0.10420291 0.10240079 0.04663335 0.20717597 -0.09506118 0.1236354 -0.15928626 -0.1813782
-0.22101183 0.31297538 -0.1161772 -0.068266414 0.08199975 0.27731413 -0.13996518 -0.13610002
0.03354887 -0.022263967 -0.052863188 -0.1731346 -0.16344763 -0.22539982 0.08427349 -0.053922433
-0.074099004 0.039611828 0.07747404 0.07136166 0.09572795 0.1574739 0.29830182 -0.15907618
-0.10286857 0.11741244 0.22403288 -0.27304363 -0.12536654 0.052744526 0.16753046 0.23176222
0.0764395 -0.13876009 0.0034845 -0.12870286 0.23954777 -0.2221914 0.15549238 -0.08194254
-0.1810688 0.025350807 0.22760263 0.17391118 0.10468766 0.05261304 0.09207695 -0.24088986
-0.08547311 -0.18882069 -0.16804731 -0.29807505 -0.00489646 0.09086025 -0.3533716 -0.13821508
00000000: f8fa 10bc 0335 3fbd bf6d 9dbe ce62 0a3e
00000010: 4539 6abe f90b 283e 49b5 4c3d 904f 8a3e
00000020: d7fa f33e 3a09 853e e4af 393e 45ba 17bd
00000030: d454 523c 6364 d9bd 2054 55be 4045 1e3e
00000040: 7155 063e 3450 d03e e7ff c93b 3796 3cbe
00000050: 2eba bebe cedc d9bd 74b5 f03d 01da 2ebe
00000060: 2aa2 0e3e 2c39 c4bd 533c 49be e5a4 053c
00000070: 4237 c43d 91af 13be f60a ffbc 24b5 afbd
00000080: 1932 913e 6e17 993d 2c30 b33e fb62 353e
00000090: 9c5b 803e c4eb 7abe a685 41be 93e3 bcbd
000000a0: b2c8 1fbe bf60 0d3c 5c32 3e3e a47e 913e
000000b0: 9f99 b5bd d29a ca3a a9dc 0b3e f5f8 a2bd
000000c0: 2ca7 893e e4b2 36bd 9f77 623e 82b6 1e3d
000000d0: b2a1 babd deda b5bc 5874 9e3e 3370 203e
000000e0: 4dcc 81bd 77a6 af3d 1358 bb3d cd4c 413d
000000f0: 11b3 4cbe 8b6b 38be 5a6d 6cbd 903d 0d3e
00000100: 6668 b2bc a6ab 4d3c 1ba1 74be 3df8 193e
00000110: 66ac 38be 86c3 663e 7da7 423e 9ed9 e8bd
00000120: 4375 64be 99d8 c73d 4677 28be 3363 9fbe
00000130: c454 26bd 6c01 173e df19 d3bd 00ea 90be
00000140: 0740 57be 60ea 863e 6031 3a3e 663c 393c
00000150: 54f1 efbd 6b60 133e 47b0 b03c 2632 893d
00000160: 6775 e13d c5ce c63e 8032 6a3e e4fd 48be
00000170: a92b 893e a97a 163e a363 783e b3fc 603c
00000180: ead5 b5bd b2a4 b93d 8fc6 133e 88bf 5cbe
00000190: 0e61 ed3d c967 683e 0fcf 0a3e 59b2 aabc
000001a0: 36a1 833e 2604 bd3d acd8 e83d b968 cd3c
000001b0: 0427 87bd b67d 733e 39cb 4c3e 6585 37bd
000001c0: b1a9 06be b2c5 f0bc 4844 4a3e 93ec 4b3e
000001d0: f97b f5bd e744 84bd 6815 1abe 4a8a e63d
000001e0: a9a4 433e 2920 80bd 7dfe 36be 9427 933e
000001f0: f07d a2bd 6bbe 3dbd fdb8 7abe 5149 543c
00000200: 66f9 43be 6484 353e bd1d e2bd 1d5e 063e
00000210: a68a 14bc 3592 c23d 074d 8d3e 4fd2 e33d
00000220: 7758 62be eaab 473e 00d8 f63d dbb0 1c3d
00000230: 39c9 4c3d 137c abbe fe62 a23d d651 5ebe
00000240: 00b9 41be eba7 36be 2fe5 3abe d38f 603e
00000250: 5728 84be 5ad1 0c3e bf25 27bc f813 0a3e
00000260: d845 f73d 5b4c 643e 3e5e e3bd 99a4 7b3e
00000270: e8b2 23be c368 45be 75b8 87bd 44c5 20be
00000280: 15ce 8b3e ea88 113e 0bb3 683e 1a1e 083e
00000290: bc90 72be 161b 9fbd a423 7cbe 0c91 083e
000002a0: 983b 1dbd d9a6 5dbe 676e 993d 4322 7f3d
000002b0: e64e 203d 962e c23d a734 803e affc a5bd
000002c0: c7fa e13b 7212 3b3e 2325 92be f51a 2c3e
000002d0: b13c 4abe ed8f 023e 0334 c93d 2950 063e
000002e0: 3286 8c3e 9120 91be 1d72 953d 9c48 8fbe
000002f0: 277f 6f3e 3556 a6bc 6659 7f3d b933 82be
00000300: 5668 d53d 81b7 d13d 9d02 3f3d f025 543e
00000310: 70af c2bd 8e34 fd3d f01b 23be 35bb 39be
00000320: ed50 62be 4f3e a03e 50ee edbd 43cf 8bbd
00000330: 7cef a73d 1efc 8d3e 0853 0fbe ce5d 0bbe
00000340: 8a6a 093d ec62 b6bc 1287 58bd 324a 31be
00000350: d15e 27be 36cf 66be 9497 ac3d c5dd 5cbd
00000360: 38c1 97bd 0340 223d b6aa 9e3d 1026 923d
00000370: 040d c43d d740 213e 04bb 983e dee4 22be
00000380: c2ac d2bd ef75 f03d e068 653e 60cc 8bbe
00000390: 1660 00be a50a 583d 1b8d 2b3e 1353 6d3e
000003a0: 508c 9c3d 2017 0ebe 365c 643b afca 03be
000003b0: 034c 753e 2486 63be 6539 1f3e 7ed1 a7bd
000003c0: 196a 39be 7fac cf3c aa10 693e c615 323e
000003d0: 7c66 d63d c580 573d d792 bc3d d5ab 76be
000003e0: 870c afbd 365a 41be 9814 2cbe 4b9d 98be
000003f0: 7c72 a0bb f014 ba3d 1fed b4be 4188 0dbe

policy_fc3.bias f4 [51]
0.019047193 -0.012255584 -0.09323701 0.12447267 0.013525124 0.013447291 0.009216293 -0.06878431
-0.012064214 -0.02633514 -0.06098248 0.09943992 -0.013530979 0.05294058 -0.0064276922 -0.052499313
0.080924556 -0.1253951 0.03623509 -0.027215324 -0.020273987 0.07871465 -0.04768 -0.06931478
-0.11654356 -0.055522036 0.010667829 -0.072750956 -0.02104164 0.025768463 0.000734393 -0.085471645
0.01687176 -0.045003235 0.04324576 -0.054801997 -0.029728424 0.018546922 -0.019678459 -0.13251291
-0.02202172 -0.04077951 0.016326237 -0.02638162 0.05146578 0.054747608 0.018493956 -0.124799445
0.056093823 0.030314364 -0.0039836173
00000000: dc08 9c3c a5cb 48bc 0cf3 bebd 87eb fe3d
00000010: 7b98 5d3c 0752 5c3c efff 163c cade 8cbd
00000020: fba8 45bc cbbc d7bc c4c8 79bd 28a7 cb3d
00000030: 0ab1 5dbc 39d8 583d 649f d2bb 8509 57bd
00000040: c6bb a53d 9367 00be 3f6b 143d acf2 debc
00000050: a215 a6bc 2535 a13d 1b4c 43bd e8f4 8dbd
00000060: 64ae eebd 136b 63bd 1ec8 2e3c 74fe 94bd
00000070: 845f acbc 6218 d33c 4884 403a c20b afbd
00000080: a536 8a3c 5055 38bd 7722 313d 0f78 60bd
00000090: 0689 f3bc b7ef 973c b834 a1bc 77b1 07be
000000a0: e566 b4bc 6a08 27bd 9abe 853c 441e d8bc
000000b0: c8cd 523d 073f 603d a380 973c da96 ffbd
000000c0: a3c2 653d d455 f83c 0189 82bb

value_fc1.weight f4 [64, 261]
0.06363827 -0.0038643628 -0.09882774 -0.06593939 -0.00028356412 0.12093659 0.00020936911 -0.04912496
0.0063729924 -0.085590154 -0.22068946 0.1111235 -0.009296646 -0.1715005 0.046077542 -0.24994996
-0.14750636 0.13667606 0.054198172 -0.13216329 -0.05002744 0.1640047 -0.21028696 0.03289895
-0.04125205 -0.2518825 -0.010227426 -0.030221146 -0.026505461 -0.043245587 0.092257425 -0.13762005
-0.082087494 0.1882483 -0.097787775 -0.09528287 0.0939029 0.032447223 -0.005006811 0.22198817
0.057972096 0.0034751473 0.086873 0.03296246 0.03344134 -0.12717815 -0.12475654 -0.11327123
-0.03083284 0.08654687 0.044843093 0.114268795 0.14079218 0.03396593 0.03076213 -0.053570684
-0.091461055 -0.08214654 -0.22082141 -0.0760866 0.14461473 -0.019621072 -0.0043588877 -0.10865633
0.02089122 -0.08033529 0.10774445 0.003789584 0.0834205 -0.066025816 0.21812968 0.07950175
0.0038290322 0.1527482 0.046031646 0.02919119 -0.116091445 0.12733671 0.12385738 0.25152642
0.02237601 0.10028694 -0.1486637 -0.21112782 -0.18081935 0.17878233 -0.22337791 -0.17812736
-0.34491676 -0.06389962 0.10606555 -0.13129559 -0.070636176 -0.08261341 0.16997717 -0.08591507
-0.11337511 0.16095649 0.025776325 -0.37588933 -0.14560454 0.18693583 0.025645979 -0.18418907
-0.1658015 0.019910662 0.015447984 -0.07281218 0.13862894 0.11243669 -0.20582287 0.015205951
0.04239371 0.048445906 0.15115215 0.09859165 0.16497126 0.020799994 0.1560604 -0.03766984
0.029860582 0.046252847 0.12037591 0.036325175 0.02874954 -0.052934926 -0.01627397 -0.014916724
-0.037914146 -0.24227539 -0.035127033 0.03787468 -0.059254713 -0.10188559 -0.048054423 -8.375672e-05
-0.24024168 0.07314786 -0.008798519 -0.25616568 -0.06353068 0.07636045 -0.055785388 0.1093132
-0.1417031 -0.07392625 0.063330725 0.10593569 0.12920888 -0.07472347 0.069844164 0.08151745
0.16120116 -0.14636168 -0.14317596 0.029159388 -0.03492463 -0.044784438 0.14767836 0.14724684
-0.080228455 0.09014835 0.13327388 0.069566965 -0.045193717 0.17321382 -0.0017189734 0.13967319
0.08840567 0.08359832 0.05935425 0.051498033 0.0101733785 0.07690534 -0.029492455 0.061895464
0.10176652 -0.012348902 0.09752459 -0.11497711 -0.038367156 -0.088220805 -0.04557787 0.10640272
-0.010258938 0.057585496 -0.01400799 0.07321507 -0.09175028 -0.014334601 0.01065261 -0.0945375
0.042019874 -0.08340736 -0.09486021 0.12105944 0.02246103 -0.053017538 0.11662243 0.10550731
-0.17723016 -0.12684911 0.1025634 0.064179845 0.0476837 0.021932041 0.056572035 0.0022835387
0.00032627955 0.03584995 0.04955903 0.12347102 0.0064401296 -0.034761574 -0.0081341695 0.044919334
-0.05331601 0.0662281 0.07772027 -0.002771442 -0.0004982869 -0.06875584 0.07992648 0.17980646
0.1289509 -0.14124446 0.08921636 -0.030895103 -0.14084242 0.045693398 -0.033822075 -0.020420976
0.017177727 0.020723684 -0.020649025 0.0026556735 -0.053062413 -0.049741503 0.19882274 -0.03229078
-0.14060593 0.057446696 -0.13903107 -0.014184018 0.0691517 -0.18825671 0.05732273 0.24645475
0.05011171 -0.08187408 -0.06423597 0.11204781 -0.16523372 0.0459865 0.10737653 -0.12533519
00000000: c854 823d 4041 7dbb 3366 cabd 3b0b 87bd
00000010: 55ab 94b9 9aad f73d 188a 5b39 4137 49bd
00000020: 89d4 d03b e449 afbd 6bfc 61be b894 e33d
00000030: f650 18bc d49d 2fbe cebb 3c3d e2f2 7fbe
00000040: e80b 17be cff4 0b3e e7fe 5d3d d055 07be
00000050: 93e9 4cbd d9f0 273e 7755 57be 0dc1 063d
00000060: e9f7 28bd bef6 80be ef90 27bc 5692 f7bc
00000070: fb21 d9bc 4922 31bd 76f1 bc3d 45ec 0cbe
00000080: 7d1d a8bd 2ac4 403e f544 c8bd aa23 c3bd
00000090: 2a50 c03d 61e7 043d 2d10 a4bb de50 633e
000000a0: 2674 6d3d 4cbf 633b 79ea b13d a503 073d
000000b0: c9f9 083d fd3a 02be 5b80 ffbd bffa e7bd
000000c0: 2795 fcbc 7c3f b13d 64ad 373d c205 ea3d
000000d0: d32b 103e dc1f 0b3d dd00 fc3c ef6c 5bbd
000000e0: ef4f bbbd 723c a8bd 021f 62be 4bd3 9bbd
000000f0: e215 143e 5fbc a0bc 00d5 8ebb 3687 debd
00000100: 1024 ab3c d486 a4bd 1fa9 dc3d ab5a 783b
00000110: 5ed8 aa3d 8b38 87bd 635d 5f3e d0d1 a23d
00000120: 80f0 7a3b 066a 1c3e ae8b 3c3d 5d22 ef3c
00000130: 5ac1 edbd 8e64 023e f0a8 fd3d 12c8 803e
00000140: e54d b73c 3d63 cd3d 4c3b 18be e431 58be
00000150: b528 39be b712 373e 2ebd 64be 0567 36be
00000160: ee98 b0be cedd 82bd e538 d93d 5a72 06be
00000170: b3a9 90bd 3831 a9bd 7f0e 2e3e 3df4 afbd
00000180: 3631 e8bd c7d1 243e df28 d33c 9174 c0be
00000190: 5b19 15be 1b6c 3f3e 8417 d23c 0f9c 3cbe
000001a0: dec7 29be af1b a33c 8b19 7d3c 8d1e 95bd
000001b0: bff4 0d3e 3545 e63d 3bc3 52be 6222 793c
000001c0: 07a5 2d3d 376f 463d a1c7 1a3e 6bea c93d
000001d0: 3aee 283e c064 aa3c 4cce 1f3e b14b 1abd
000001e0: 2e9e f43c a073 3d3d a587 f63d b5c9 143d
000001f0: 2884 eb3c 4bd2 58bd fd50 85bc 4665 74bc
00000200: dd4b 1bbd 0a17 78be 5de1 0fbd 7b22 1b3d
00000210: 12b5 72bd 64a9 d0bd b7d4 44bd 8ca6 afb8
00000220: ea01 76be 8cce 953d aa27 10bc 2628 83be
00000230: 601c 82bd de62 9c3d 387f 64bd 99df df3d
00000240: 9e1a 11be a566 97bd 8ab3 813d d0f4 d83d
00000250: 554f 043e 9e08 99bd 750a 8f3d 9ff2 a63d
00000260: eb11 253e d6df 15be b89c 12be abdf ee3c
00000270: 210d 0fbd e36f 37bd ff38 173e e0c7 163e
00000280: d14e a4bd b39f b83d f378 083e 2079 8e3d
00000290: 0c1d 39bd f75e 313e 2d4f e1ba 7d06 0f3e
000002a0: 080e b53d 9935 ab3d 711d 733d 9aef 523d
000002b0: 3eae 263c 8c80 9d3d 299a f1bc 1986 7d3d
000002c0: f76a d03d 0d53 4abc f9ba c73d 1e79 ebbd
000002d0: e126 1dbd 1cad b4bd dcaf 3abd abe9 d93d
000002e0: 1b15 28bc c5de 6b3d c581 65bc c8f1 953d
000002f0: 92e7 bbbd addb 6abc 4988 2e3c e09c c1bd
00000300: 081d 2c3d 7ad1 aabd 1246 c2bd 03ee f73d
00000310: 3200 b83c eb28 59bd bed7 ee3d 3714 d83d
00000320: d37b 35be bce4 01be c30c d23d b970 833d
00000330: fc4f 433d d3aa b33c 14b8 673d 6ca7 153b
00000340: 8010 ab39 66d7 123d 69fe 4a3d 60de fc3d
00000350: b907 d33b 2762 0ebd 2e45 05bc 56fd 373d
00000360: e361 5abd 99a2 873d ce2b 9f3d 15a1 35bb
00000370: 789f 02ba ddcf 8cbd 7fb0 a33d 2f1f 383e
00000380: b40b 043e 63a2 10be 11b7 b63d ba17 fdbc
00000390: ff38 10be 0029 3b3d 0489 0abd e449 a7bc
000003a0: 4eb8 8c3c b7c4 a93c 2528 a9bc cf0a 2e3b
000003b0: f957 59bd bfbd 4bbd 3098 4b3e 5643 04bd
000003c0: 00fb 0fbe 3a4d 6b3d 295e 0ebe 1564 68bc
000003d0: 689f 8d3d 5ec6 40be 3dcb 6a3d a25e 7c3e
000003e0: f041 4d3d 99ad a7bd 268e 83bd 5279 e53d
000003f0: 0733 29be 575c 3c3d 3ae8 db3d de57 00be

value_fc1.bias f4 [64]
-0.006240095 0.022479152 0.15423304 0.020828133 -0.095007464 -0.036133397 0.06076698 -0.01629878
0.06704359 -2.3457414e-05 -0.004467369 0.0859072 -0.052445047 -0.031809676 0.034918196 0.026570091
0.020382807 -0.0032656917 0.07523031 -0.13541685 -0.046059065 -0.040046047 0.040822003 0.12304091
0.070575945 -0.14302957 0.1436744 0.058038756 0.12009087 0.06739213 0.012921432 0.13692413
0.056316912 0.0698732 0.08772299 0.03911938 0.0006863027 0.061002903 0.06591269 0.12159698
0.078310385 -0.088611424 -0.022540126 -0.035988268 0.07725916 -0.10169998 0.027227197 -0.059970386
-0.07506291 0.099130966 0.11075594 0.011438238 -0.16063422 0.123182885 -0.006330937 0.00046661706
-0.04630785 0.20986025 0.002400003 -0.039290026 0.1451058 -0.124032274 -0.053831603 0.22307445
00000000: b679 ccbb 3326 b83c 44ef 1d3e c39f aa3c
00000010: 4693 c2bd 9d00 14bd cce6 783d 0585 85bc
00000020: 264e 893d 6ac6 c4b7 0263 92bb 1df0 af3d
00000030: 9ed0 56bd dd4a 02bd 6206 0f3d 85a9 d93c
00000040: d8f9 a63c 3705 56bb 5912 9a3d b7aa 0abe
00000050: 6ea8 3cbd 5307 24bd f934 273d dffc fb3d
00000060: 1f8a 903d 5876 12be 621f 133e 0cba 6d3d
00000070: 34f2 f53d e304 8a3d 6ab4 533c d735 0c3e
00000080: 90ac 663d ae19 8f3d 1ca8 b33d a53b 203d
00000090: ffe8 333a 2ede 793d 3bfd 863d d607 f93d
000000a0: 3261 a03d e879 b5bd 12a6 b8bc 6f68 13bd
000000b0: 0d3a 9e3d 1448 d0bd 920b df3c 82a3 75bd
000000c0: 95ba 99bd 2d05 cb3d 03d4 e23d 7367 3b3c
000000d0: 4c7d 24be 4f47 fc3d c073 cfbb 48a4 f439
000000e0: 4dad 3dbd 9be5 563e 5e49 1d3b 94ee 20bd
000000f0: 9d96 143e a204 febd 877e 5cbd a16d 643e

value_fc2.weight f4 [32, 64]
0.17717455 -0.070991516 0.1672039 0.049362395 0.22712709 -0.16185775 -0.26829565 0.1251856
-0.009157175 0.008478287 0.2644264 0.12186714 0.12438542 0.22814186 0.180668 0.31679946
-0.1580481 -0.09351601 0.2951788 0.10127017 0.15343194 0.22199816 0.10035664 0.01878682
0.2702505 0.29874247 -0.12512527 0.15619582 -0.00427575 0.0056074015 -0.17071109 0.004046267
-0.04827167 0.21569677 0.35801038 -0.17013831 0.04990018 0.061628833 -0.03760022 0.014016444
-0.25598544 0.04360157 0.18938135 0.29577437 -0.09984366 0.15011276 0.15282051 0.19655557
0.34404147 -0.11550751 0.27804464 -0.27340043 -0.07612082 0.1922809 -0.21593706 -0.17480384
0.06771388 -0.0645307 0.0927826 0.22721972 0.18828487 -0.14970307 0.17362735 -0.0936428
0.0088880565 0.09521417 -0.1571136 -0.23511362 -0.22538379 -0.039673895 0.09738012 -0.20712703
0.19404536 -0.20053354 -0.15073425 -0.07771277 0.13803619 0.15613541 -0.10602751 -0.14845593
0.14841153 -0.19896695 0.11802373 -0.23464349 0.027182361 -0.1212318 0.17009823 0.19145979
0.22559717 -0.23035106 0.21205138 -0.23355882 -0.16201514 -0.06262572 0.0709337 -0.15348056
0.11840531 0.0042389603 0.01377807 -0.0031764936 -0.149687 -0.2354225 -0.07672226 -0.08221121
0.094092004 0.038647465 0.09320318 0.1106664 -0.03278993 0.23046874 0.05607911 0.10971775
0.0537736 0.04128204 -0.14261498 0.16500181 -0.1899821 -0.09166025 -0.29606616 -0.21983282
0.10679923 -0.20542073 0.01861691 -0.05360048 -0.13405198 0.046492297 -0.20954156 0.28517303
0.16976243 0.0066397265 -0.20936418 -0.06957035 0.11923594 -0.09337988 -0.32772288 0.22779511
0.12831786 0.075266 -0.062069558 0.0034067521 -0.21150456 -0.087561265 0.056732118 -0.043799102
-0.01936437 -0.21810606 -0.22467905 -0.12608062 -0.05528365 -0.0991756 -0.018941196 -0.24823266
-0.017768553 0.12952656 -0.21529447 -0.26569623 -0.022099119 0.15330227 0.19418892 -0.17651498
-0.22157398 0.04244688 -0.05965269 -0.058469087 -0.02837597 -0.09479449 0.23334591 0.015595576
0.1724812 -0.32422203 0.18156627 -0.29166734 -0.19716337 0.03230015 0.06495239 0.0312651
0.0394537 0.030269034 0.11069689 -0.21888553 0.03283818 -0.18532172 -0.19881913 -0.1688274
-0.2295478 0.087852314 0.12813771 0.15088986 0.04442955 -0.2325913 0.025197392 -0.012948925
-0.12122339 0.02579294 0.18997595 0.0879155 -0.17417149 0.15111694 0.08073232 0.14671904
-0.028880505 0.073082544 0.18260512 -0.22434048 0.13100085 0.102365464 0.0733406 -0.02689145
-0.23439877 -0.38597485 -0.19879402 -0.3134408 0.048415884 0.22995496 -0.20598747 0.0757862
0.051618334 0.02707557 0.23643054 0.17191705 0.13837 0.21725532 -0.14868131 0.079381526
0.20762776 -0.13105094 -0.164051 -0.07523017 0.13744089 -0.0945719 0.03853484 -0.065252684
0.08857188 -0.26339316 0.18480633 -0.08922731 0.17839307 0.15149395 0.046084423 -0.011876921
-0.20607491 -0.05691463 -0.16041124 0.046900496 -0.19036222 -0.19467409 0.16797443 -0.18178676
0.0113869915 -0.0709681 -0.075975366 -0.12286589 0.19162932 -0.16916285 -0.12176204 0.09209339
00000000: 3f6d 353e 0064 91bd 8037 2b3e 3930 4a3d
00000010: 0194 683e 0abe 25be 0c5e 89be a730 003e
00000020: fa07 16bc 83e8 0a3c e662 873e 7b95 f93d
00000030: c8bd fe3d 059e 693e 0801 393e 8a33 a23e
00000040: 5cd7 21be 5285 bfbd ad21 973e bc66 cf3d
00000050: 431d 1d3e 7c53 633e c887 cd3d d1e6 993c
00000060: 465e 8a3e c6f4 983e d720 00be ccf1 1f3e
00000070: 971b 8cbb 4bbe b73b e3ce 2ebe 8c96 843b
00000080: 84b8 45bd 9ddf 5c3e 234d b73e bd38 2ebe
00000090: 2264 4c3d 846e 7c3d b002 1abd 3aa5 653c
000000a0: 8610 83be 8f97 323d 2fed 413e bd6f 973e
000000b0: d57a ccbd 29b7 193e fb7c 1c3e dd45 493e
000000c0: 3426 b03e 348f ecbd de5b 8e3e 24fb 8bbe
000000d0: 3ce5 9bbd 49e5 443e 9b1e 5dbe c7ff 32be
000000e0: 93ad 8a3d ac28 84bd ce04 be3d 49ac 683e
000000f0: c0cd 403e c34b 19be 5ecb 313e ccc7 bfbd
00000100: 369f 113c a6ff c23d 63e2 20be a0c1 70be
00000110: 02cb 66be 1881 22bd 3a6f c73d 1c19 54be
00000120: d4b3 463e aa58 4dbe 145a 1abe df27 9fbd
00000130: 5c59 0d3e f6e1 1f3e f324 d9bd d504 18be
00000140: 31f9 173e febd 4bbe 6db6 f13d 6246 70be
00000150: 8bad de3c 6148 f8bd 3b2e 2e3e 090e 443e
00000160: f202 673e 26e1 6bbe ff23 593e 0b2a 6fbe
00000170: 4ce7 25be ea41 80bd b045 913d 022a 1dbe
00000180: 7c7e f23d fae6 8a3b 6abd 613c b82c 50bb
00000190: 8d47 19be 9912 71be 8f20 9dbd 5a5e a8bd
000001a0: 4fb3 c03d ce4c 1e3d 4fe1 be3d 11a5 e23d
000001b0: bc4e 06bd ffff 6b3e 35b3 653d b3b3 e03d
000001c0: b541 5c3d 5b17 293d a909 12be 3cf6 283e
000001d0: ab8a 42be 5fb8 bbbd fc95 97be db1b 61be
000001e0: 8eb9 da3d d059 52be 7d82 983c 2d8c 5bbd
000001f0: ec44 09be b56e 3e3d 1092 56be 3302 923e
00000200: 34d6 2d3e 1092 d93b 9063 56be e67a 8ebd
00000210: f931 f43d f33d bfbd 4bcb a7be 1f43 693e
00000220: c265 033e 1025 9a3d a63c 7ebd d143 5f3b
00000230: a794 58be 5253 b3bd f05f 683d b066 33bd
00000240: 07a2 9ebc 3257 5fbe 4412 66be 471b 01be
00000250: 1c71 62bd 941c cbbd 912a 9bbc b430 7ebe
00000260: 5b8f 91bc 9ca2 043e 2776 5cbe 5609 88be
00000270: 3609 b5bc 45fb 1c3e 76d9 463e 58c0 34be
00000280: 4ae4 62be c8dc 2d3d 6156 74bd 487d 6fbd
00000290: b974 e8bc 9d23 c2bd 3bf2 6e3e 9684 7f3c
000002a0: e99e 303e 6e00 a6be 82ec 393e 6c55 95be
000002b0: 32e5 49be 294d 043d c205 853d d50f 003d
000002c0: 349a 213d c4f6 f73c 0db5 e23d 8723 60be
000002d0: 5481 063d fac4 3dbe 3e97 4bbe 17e1 2cbe
000002e0: 940e 6bbe eaeb b33d 8836 033e df82 1a3e
000002f0: c3fb 353d 6a2c 6ebe c36a ce3c ba27 54bc
00000300: f843 f8bd b74b d33c 0e89 423e 0b0d b43d
00000310: 035a 32be 66be 1a3e fd56 a53d 843d 163e
00000320: cf96 ecbc 4dac 953d d6fc 3a3e 83b9 65be
00000330: 1625 063e fca4 d13d 9933 963d 754b dcbc
00000340: 3b06 70be 7f9e c5be a990 4bbe 507b a0be
00000350: bc4f 463d 5079 6b3e 61ee 52be cc35 9b3d
00000360: bf6d 533d 96cd dd3c d91a 723e 060b 303e
00000370: deb0 0d3e 2e78 5e3e ea3f 18be c892 a23d
00000380: 5f9c 543e 3832 06be fcfc 27be 4612 9abd
00000390: 4ebd 0c3e eaae c1bd b5d6 1d3d 33a3 85bd
000003a0: 2c65 b53d 78db 86be df3d 3d3e cfbc b6bd
000003b0: acac 363e 3b21 1b3e 05c3 3c3d 6b97 42bc
000003c0: 4d05 53be 511f 69bd d842 24be bc1a 403d
000003d0: 50ee 42be a558 47be 7d01 2c3e 4f26 3abe
000003e0: 8190 3a3c b957 91bd f998 9bbd 1da1 fbbd
000003f0: 7a3a 443e 0739 2dbe 605e f9bd 769b bc3d

value_fc2.bias f4 [32]
0.14058758 0.13469352 -0.026191108 -0.060920026 -0.012249992 0.18445714 -0.07126298 -0.20643343
0.14723161 0.15347974 -0.04949094 0.06413365 -0.053541597 -0.10091973 0.2591752 0.03673646
0.15787989 0.021917718 -0.10391764 0.056043502 -0.013071823 0.09904974 0.16586569 0.09133375
0.19814599 -0.1674574 -0.08184565 0.14584865 -0.0906013 0.19592373 -0.028611591 -0.039849337
00000000: 31f6 0f3e 19ed 093e bc8e d6bc 4787 79bd
00000010: 31b4 48bc 55e2 3c3e 53f2 91bd 4963 53be
00000020: e2c3 163e cb29 1d3e 03b7 4abd 8158 833d
00000030: 6f4e 5bbd 01af cebd 9db2 843e f878 163d
00000040: 44ab 213e c98c b33c c6d2 d4bd df8d 653d
00000050: 332b 56bc 97da ca3d b2d8 293e 300d bb3d
00000060: c8e6 4a3e f479 2bbe b19e a7bd 5959 153e
00000070: 2d8d b9bd 3ba0 483e db62 eabc 0f39 23bd

value_fc3.weight f4 [1, 32]
-0.032801658 -0.054766197 -0.11246733 0.057899218 -0.28339064 -0.08936223 0.012354268 0.005921699
-0.023159929 -0.051920556 0.10108499 0.034641735 0.6200703 0.045675077 -0.011424105 1.1674329
0.029171774 -0.22727007 0.17869364 -0.09621505 0.9078676 -0.024567243 -0.088236906 0.18951948
0.012384297 0.007147438 -0.19230476 0.013222997 0.0034660252 -0.071862474 0.18480481 -0.2902267
00000000: 085b 06bd 8552 60bd 4655 e6bd bb27 6d3d
00000010: 9418 91be 8b03 b7bd 8e69 4a3c d00a c23b
00000020: e4b9 bdbc a6aa 54bd a605 cf3d 7ee4 0d3d
00000030: edbc 1e3f ca15 3b3d 2b2c 3bbc 716e 953f
00000040: a5f9 ee3c 7cb9 68be 77fb 363e 650c c5bd
00000050: 036a 683f 3e41 c9bc 8db5 b4bd 6511 423e
00000060: 82e7 4a3c 0e35 ea3b 8aeb 44be 45a5 583c
00000070: 4126 633b a22c 93bd 793d 3d3e 9898 94be
