rl/spin_model_11231518/71.pt (torch_old, 159601 bytes, 12 tensors)

log_std f4 [51]
-0.08133619 0.08657931 -0.10777929 -0.0112904385 0.14298935 -0.05284381 0.013721799 -0.038274843
-0.120199166 0.057025008 0.11363062 0.07713461 0.006427842 0.05678447 0.16131334 0.15068829
0.16373812 0.13193959 0.0030666993 -0.06936317 0.061121155 0.1497905 0.10386592 0.27099073
0.1636801 -0.030044416 0.17374846 0.16915229 0.03136228 0.07484504 -0.16324593 0.01650032
0.009630991 -0.045242216 0.0095077185 -0.008089075 0.23216024 0.06853132 -0.09341915 0.09819393
-0.1279058 0.14377625 0.023972375 -0.08821092 0.047632296 0.0918638 -0.087237604 0.09889222
0.07011439 0.045324467 -0.022623766
00000000: 9793 a6bd 7e50 b13d 63bb dcbd 88fb 38bc
00000010: cd6b 123e c072 58bd 65d1 603c 15c6 1cbd
00000020: fb2a f6bd 0e93 693d 2cb7 e83d c0f8 9d3d
00000030: a6a0 d23b d596 683d 532f 253e 084e 1a3e
00000040: f7aa 273e 2c1b 073e adfa 483b 470e 8ebd
00000050: 2d5a 7a3d ae62 193e a8b7 d43d 4cbf 8a3e
00000060: c29b 273e b51f f6bc 1eeb 313e 4236 2d3e
00000070: bc75 003d 5b48 993d f129 27be ae2b 873c
00000080: 4ecb 1d3c e74f 39bd 43c6 1b3c 0a88 04bc
00000090: 6abb 6d3e 265a 8c3d 8a52 bfbd e619 c93d
000000a0: bdf9 02be 153a 133e b761 c43c eda7 b4bd
000000b0: 151a 433d 1723 bc3d a1a9 b2bd 0188 ca3d
000000c0: 2298 8f3d 26a6 393d 7a55 b9bc

policy_fc1.weight f4 [64, 261]
-0.089415446 0.03956522 -0.110099174 0.1285034 -0.12911786 0.07504441 -0.10064145 0.046228208
0.1623945 -0.043943234 -0.120729156 -0.02499101 -0.13251185 -0.1513914 -0.076811686 -0.1204843
-0.1324331 0.1060705 0.08107791 -0.064725414 0.088392116 -0.117214814 -0.0022584833 -0.08387918
0.11001977 -0.15853095 0.11331344 0.0041967887 0.047185242 -0.11783264 0.014380306 -0.0206569
-0.025943311 0.027026223 -0.13203807 0.034536928 -0.057826113 0.115575336 -0.04977954 0.10791483
-0.094101585 0.1164904 0.1774538 -0.13371849 0.06904251 -0.032356225 -0.13029586 -0.062766105
-0.1061513 -0.023895573 -0.15887055 0.120540634 0.0069092046 -0.048562124 0.124703236 0.017419267
0.09845961 -0.079431355 -0.10122097 0.099670716 0.073678255 -0.06256223 0.06970605 0.10195601
0.1032484 0.024635263 0.07228731 -0.017209882 0.08863763 -0.10328272 -0.036123697 -0.097658895
0.13728404 -0.016630594 -0.13418283 0.03418423 0.15736324 0.109043725 -0.007388695 0.017905822
0.13638535 -0.12331832 -0.004377597 0.039633695 -0.16550703 -0.11555362 0.0739744 -0.012389473
-0.1645477 -0.06460286 0.08258837 -0.00546416 0.0048700743 -0.046415918 0.030898707 0.043756545
0.14679931 0.04248048 0.07903002 0.17150937 -0.1428401 -0.11683719 -0.11928303 -0.09755472
0.1639341 -0.077609435 0.21922226 -0.050960265 -0.03226315 0.10030212 -0.08809091 0.06751192
0.15063772 -0.025868714 -0.010991943 0.27620658 0.18067525 0.06851495 0.015069094 0.39121532
-0.05836145 -0.06979689 -0.112640776 0.3511996 -0.11033504 -0.009362073 -0.05951013 0.09330287
-0.073335014 -0.058611907 -0.059465732 -0.18242064 -0.08356695 -0.09100365 -0.14809223 -0.13361755
0.018416908 -0.07403706 0.024151584 -0.12960912 -0.17804156 -0.20284498 -0.028612494 0.12090814
-0.10970837 0.027129516 0.063534096 0.10514912 0.015509551 0.10079754 0.05427519 0.13667294
0.06455473 0.04159009 -0.08287873 0.11766262 -0.14158505 0.010602725 0.12963454 -0.14883605
0.018080588 0.04888919 -0.006637593 0.061513513 0.074130885 -0.044946775 0.08356204 -0.13276248
-0.19570062 -0.09653236 0.15374438 -0.12995097 0.003641176 0.019440431 0.034921303 -0.08123243
-0.08715067 -0.048750143 0.12354478 0.10392976 0.056100637 0.086001545 -0.23671563 0.06351567
0.11584677 -0.17080364 0.065789156 0.0058953864 -0.105969295 0.028501328 0.15208231 -0.11962928
0.1407717 0.12182602 -0.08622696 -0.1896423 0.15289779 0.047771186 -0.15149245 0.15807423
0.04442652 -0.21867076 0.11931774 -0.14517592 -0.11654407 -0.21273744 0.09705955 -0.0835197
-0.2236306 -0.061766144 -0.08821368 -0.047651112 0.0020318907 -0.00624701 0.13592471 0.06434474
0.006282527 0.03970812 0.10119401 0.07169053 -0.17585586 -0.065700695 -0.026841333 -0.03416244
-0.10104644 0.06822803 -0.055372186 -0.08008767 -0.07281982 -0.1396539 -0.15484747 -0.032227866
-0.10504381 -0.13898268 -0.128306 -0.0037309753 0.014123423 0.012967675 -0.12540425 -0.11561522
-0.12405494 -0.031156683 -0.17660804 -0.12146274 -0.00031478345 0.009579203 -0.1695962 0.054020587
-0.013703996 -0.17952779 -0.18489069 -0.07677115 0.025604887 -0.13498992 -0.13120225 0.03445579
00000000: 721f b7bd 240f 223d ad7b e1bd 6596 033e
00000010: 7937 04be e2b0 993d 1b1d cebd ca59 3d3d
00000020: be4a 263e d2fd 33bd d940 f7bd f2b9 ccbc
00000030: 30b1 07be 5906 1bbe 724f 9dbd 79c0 f6bd
00000040: 8b9c 07be 7e3b d93d 2d0c a63d c28e 84bd
00000050: ed06 b53d 520e f0bd 1003 14bb d9c8 abbd
00000060: 0c52 e13d f055 22be e010 e83d 3785 893b
00000070: 5045 413d 3d52 f1bd 609b 6b3c a938 a9bc
00000080: 1187 d4bc 1966 dd3c fd34 07be 9876 0d3d
00000090: 13db 6cbd c3b2 ec3d a2e5 4bbd 7302 dd3d
000000a0: 55b8 c0bd 8592 ee3d 73b6 353e 80ed 08be
000000b0: 2966 8d3d f687 04bd 476c 05be 848b 80bd
000000c0: da65 d9bd a6c0 c3bc f6ae 22be 02de f63d
000000d0: 9c66 e23b 14e9 46bd 6964 ff3d dab2 8e3c
000000e0: 31a5 c93d e8ac a2bd f14c cfbd 2920 cc3d
000000f0: a0e4 963d a020 80bd 0cc2 8e3d 50ce d03d
00000100: e673 d33d e4cf c93c 5f0b 943d bdfb 8cbc
00000110: a587 b53d e485 d3bd 71f6 13bd 6301 c8bd
00000120: 3094 0c3e e23c 88bc 3967 09be c304 0c3d
00000130: d423 213e 5152 df3d de1c f2bb 3baf 923c
00000140: 9aa8 0b3e 518e fcbd f271 8fbb f156 223d
00000150: ad7a 29be 60a7 ecbd e47f 973d 37fd 4abc
00000160: 317f 28be 814e 84bd 1724 a93d b20c b3bb
00000170: 2595 9f3b 9e1e 3ebd 491f fd3c 103a 333d
00000180: 8f52 163e 0300 2e3d 7eda a13d 27a0 2f3e
00000190: ad44 12be 5648 efbd a94a f4bd c5ca c7bd
000001a0: 57de 273e b2f1 9ebd cd7b 603e b6bb 50bd
000001b0: 5d26 04bd 336b cd3d 0269 b4bd b143 8a3d
000001c0: c640 1a3e a0ea d3bc 8d17 34bc f36a 8d3e
000001d0: ef02 393e 9151 8c3d 5ce4 763c 604d c83e
000001e0: 6a0c 6fbd acf1 8ebd 35b0 e6bd 6fd0 b33e
000001f0: 56f7 e1bd 6163 19bc e5c0 73bd 9315 bf3d
00000200: ab30 96bd 0a13 70bd 5792 73bd 7acc 3abe
00000210: 2625 abbd 1f60 babd 7da5 17be 0ad3 08be
00000220: 0edf 963c bea0 97bd 8bd9 c53c 41b8 04be
00000230: 8750 36be 98b6 4fbe c064 eabc b09e f73d
00000240: c8ae e0bd b83e de3c 2a1e 823d 6c58 d73d
00000250: c61b 7e3c f16e ce3d a94f 5e3d fef3 0b3e
00000260: 4535 843d 5f5a 2a3d 53bc a9bd 1af9 f03d
00000270: acfb 10be 0db7 2d3c ebbe 043e 7a68 18be
00000280: be1d 943c 0840 483d 2a80 d9bb 98f5 7b3d
00000290: efd1 973d 1c1a 38bd 9322 ab3d e3f2 07be
000002a0: be65 48be c2b2 c5bd 2b6f 1d3e de11 05be
000002b0: cca0 6e3b 8a41 9f3c a409 0f3d 305d a6bd
000002c0: 0d7c b2bd 3bae 47bd 0c05 fd3d 20d9 d43d
000002d0: c8c9 653d 9421 b03d 9565 72be 8114 823d
000002e0: 1241 ed3d 26e7 2ebe 77bc 863d 162e c13b
000002f0: 6e06 d9bd 9e7b e93c 77bb 1b3e 3200 f5bd
00000300: 7526 103e ec7f f93d c397 b0bd 9731 42be
00000310: 3d91 1c3e b8ab 433d d620 1bbe 36de 213e
00000320: 95f8 353d 3aeb 5fbe dc5c f43d ffa8 14be
00000330: a8ae eebd d8d7 59be 28c7 c63d 600c abbd
00000340: 6cff 64be 7ffe 7cbd 60a9 b4bd d02d 43bd
00000350: 7829 053b b8b3 ccbb d92f 0b3e 2dc7 833d
00000360: a8dd cd3b fba4 223d ce3e cf3d 7cd2 923d
00000370: 8f13 34be 168e 86bd 5be2 dbbc eaed 0bbd
00000380: 70f1 cebd 23bb 8b3d f2cd 62bd 0105 a4bd
00000390: 8f22 95bd 6f01 0fbe 5690 1ebe 5e01 04bd
000003a0: 3621 d7bd 7a51 0ebe a662 03be 6183 74bb
000003b0: ee65 673c 5f76 543c f969 00be acc7 ecbd
000003c0: 8410 febd 4d3c ffbc bdd8 34be 75c1 f8bd
000003d0: 8509 a5b9 17f2 1c3c a0aa 2dbe b144 5d3d
000003e0: ba86 60bc 22d6 37be fc53 3dbe 313a 9dbd
000003f0: 57c1 d13c cc3a 0abe e259 06be 8421 0d3d

policy_fc1.bias f4 [64]
-0.023220278 -0.034873337 -0.049177535 -0.014206848 -0.053001117 -0.015474594 0.010270737 -0.019908028
-0.09810861 0.0059884526 0.011645697 -0.0052935886 -0.02853019 0.01496292 -0.026838822 -0.0026012794
0.0021294535 0.0007779321 -0.026531888 -0.008327664 -0.0065749413 -0.039337445 0.0041384776 -0.027052708
-0.026245967 -0.050907824 -0.038716912 -0.014060366 -0.022839177 -0.012669838 -0.03707431 -0.030915147
-0.0019292667 0.008797565 -0.024296286 -0.01733419 -0.011358638 0.0033104287 0.00813562 -0.032931454
-0.029661415 -0.012593314 -0.062889084 0.016560117 -0.027682452 0.0047743777 -0.038363215 -0.022294581
-0.03566516 -0.02652798 -0.015023415 -0.0786278 0.008180788 0.0073691783 -0.037665125 -0.032569505
-0.03267044 0.007009116 -0.012564336 -0.07218169 0.0015099277 -0.019723976 -0.028046701 0.00036621577
00000000: 7438 bebc 58d7 0ebd 626e 49bd d7c3 68bc
00000010: b317 59bd 2789 7dbc 9846 283c 2916 a3bc
00000020: 2bed c8bd c83a c43b 98cd 3e3c d775 adbb
00000030: 25b8 e9bc 0927 753c 17dd dbbc 3a7a 2abb
00000040: 4d8e 0b3b 24ee 4b3a 6759 d9bc c170 08bc
00000050: 9b72 d7bb 4d20 21bd 119c 873b a49d ddbc
00000060: c801 d7bc b984 50bd a095 1ebd 735d 66bc
00000070: 3a19 bbbc 2795 4fbc 3bdb 17bd c341 fdbc
00000080: 73df fcba a923 103c 0109 c7bc 6e00 8ebc
00000090: 9519 3abc c7f3 583b 434b 053c 22e3 06bd
000000a0: 7ffc f2bc 3054 4ebc fecb 80bd 15a9 873c
000000b0: 4fc6 e2bc 6272 9c3b bf22 1dbd 20a3 b6bc
000000c0: a115 12bd 3551 d9bc c524 76bc 9d07 a1bd
000000d0: b608 063c 2679 f13b bf46 1abd 9a67 05bd
000000e0: 70d1 05bd baac e53b a5da 4dbc fed3 93bd
000000f0: c4e8 c53a 2d94 a1bc 32c2 e5bc a600 c039

policy_fc2.weight f4 [32, 64]
-0.10801435 0.1441661 -0.07787676 -0.20214918 0.063485935 -0.16469416 -0.07705642 -0.15557593
-0.18964061 0.17805678 0.057706524 -0.047245327 0.015148191 0.13941154 -0.04867417 -0.085611045
-0.3233617 -0.23514093 0.018149925 0.1400881 -0.38270947 0.12808181 0.07606956 -0.1112934
-0.021068802 -0.20370573 0.1267152 -0.17890286 0.3027988 0.023169117 -0.19527933 -0.13034537
-0.00982337 0.18155944 0.12534599 -0.18831702 -0.01294193 -0.15817979 -0.255031 0.050744195
0.026439425 0.27660313 0.30333486 -0.28102425 0.14526081 -0.3197001 -0.23212384 0.016734526
0.24290083 -0.06000979 0.12661503 0.30571303 0.011236457 0.051024932 0.1558794 -0.037497353
0.008116109 -0.11177434 0.16423275 -0.024274189 -0.1276807 0.018830681 -0.15441866 -0.064146765
0.17200774 0.015322505 -0.12856399 -0.24774718 0.23402494 -0.13795134 0.082091585 0.07689114
-0.030992262 -0.2283056 0.059612397 -0.23336917 -0.22038469 0.29173565 -0.16206756 0.21400322
-0.04942764 -0.013380066 -0.16301613 0.19161448 -0.27397385 -0.018928215 0.13383621 0.01079566
0.00110092 0.07307064 -0.030275414 -0.010541572 -0.179681 0.124012664 -0.10891606 -0.08557067
0.0736345 0.23719317 0.07021501 -0.054149296 -0.1018251 0.1010888 0.12298551 -0.07212127
0.12492664 -0.26623374 -0.115136296 0.1499218 -0.17731188 -0.18622112 -0.04373348 -0.21285208
0.09188582 -0.14095992 -0.09608679 0.032210063 -0.1590821 -0.05437322 -0.05140974 -0.018710606
-0.20272239 -0.12429716 -0.06771188 -0.04528115 0.10250801 0.24212654 0.03203041 -0.013267604
-0.024300793 -0.12697181 -0.33788967 -0.005046764 -0.19786984 0.06403915 0.10340267 -0.025656661
0.18123014 -0.0523134 -0.117149636 0.09243006 -0.05058773 -0.12581384 -0.059051316 -0.28168374
0.07877522 -0.092535846 -0.04690374 -0.27747744 0.052506123 -0.1786429 0.2511927 -0.30171558
-0.04570221 0.17261283 -0.13209395 -0.015621969 0.12501974 -0.21457493 0.23705128 0.045793753
-0.18086754 -0.075833775 -0.30428898 0.037388805 -0.24281451 -0.29118186 -0.20210676 0.09788444
-0.15646094 0.033546146 -0.014051373 0.11174822 -0.085546985 0.03682076 -0.07636638 0.11887919
-0.06732768 -0.18879266 0.20711751 0.17711933 -0.254041 -0.038026456 -0.18500106 0.18349634
-0.053774748 0.18740487 0.15902622 -0.083618894 0.097925246 0.022221116 0.21910734 0.171488
-0.18504223 -0.08260549 -0.12862477 0.16999422 0.10011262 -0.001077962 -0.013555315 -0.06511999
0.056124046 0.2928097 -0.18313637 0.30099985 -0.0740144 -0.046311524 -0.24015234 -0.23097382
-0.18795824 0.186851 -0.21262337 -0.17095597 -0.0665868 0.11622855 0.17173013 0.13330747
0.07645964 0.20599465 0.119533956 -0.2049331 -0.044216726 -0.053952176 0.13552684 0.19825448
-0.10005306 -0.07279638 0.17104748 0.076022044 -0.077170976 -0.19292453 -0.31919116 -0.2060024
-0.08018709 -0.2787714 0.07614284 -0.04464731 0.1129077 0.18312986 0.17838605 -0.047057293
-0.09650767 -0.0018547863 -0.28506467 -0.08999966 0.0024050153 0.19009884 0.13699591 -0.09155104
-0.10371845 -0.23473525 -0.17144264 -0.17868432 0.11296621 -0.08952758 -0.2051584 -0.020602496
00000000: a136 ddbd 47a0 133e da7d 9fbd 3200 4fbe
00000010: ea04 823d 96a5 28be c2cf 9dbd 4c4f 1fbe
00000020: 2631 42be 8454 363e ad5d 6c3d 5184 41bd
00000030: 1e30 783c e6c1 0e3e 915e 47bd d854 afbd
00000040: aa8f a5be c9c8 70be 27af 943c 4173 0f3e
00000050: 7ff2 c3be e127 033e 5cca 9b3d cbed e3bd
00000060: 7b98 acbc 3c98 50be a1c1 013e 5032 37be
00000070: 7208 9b3e 29cd bd3c 4ef7 47be 4279 05be
00000080: 33f2 20bc b8ea 393e b35a 003e 2dd6 40be
00000090: 640a 54bc e2f9 21be 6c93 82be 25d9 4f3d
000000a0: 7e97 d83c ed9e 8d3e b54e 9b3e 69e2 8fbe
000000b0: 40bf 143e bbaf a3be dfb1 6dbe d816 893c
000000c0: ffba 783e d3cc 75bd 5fa7 013e 6b86 9c3e
000000d0: 1e19 383c 85ff 503d d99e 1f3e d396 19bd
000000e0: 6ef9 043c f2e9 e4bd a12c 283e aada c6bc
000000f0: bbbe 02be cd42 9a3c ed1f 1ebe 615f 83bd
00000100: cc22 303e 3e0b 7b3c 47a6 03be 70b1 7dbe
00000110: 3ca4 6f3e 1e43 0dbe a21f a83d 1a79 9d3d
00000120: 7ce3 fdbc f1c8 69be 212c 743d 54f8 6ebe
00000130: 86ac 61be 605e 953e 0af5 25be a923 5b3e
00000140: a374 4abd 1038 5bbc b3ed 26be 9636 443e
00000150: 4d46 8cbe 580f 9bbc 5c0c 093e 48e0 303c
00000160: bf4c 903a 0fa6 953d 2504 f8bc 8fb6 2cbc
00000170: 4cfe 37be 5afa fd3d 620f dfbd ad3f afbd
00000180: afcd 963d c4e2 723e e3cc 8f3d a7cb 5dbd
00000190: ae89 d0bd a507 cf3d d4df fb3d 51b4 93bd
000001a0: 8ad9 ff3d ca4f 88be 94cc ebbd 1a85 193e
000001b0: 3f91 35be c0b0 3ebe e121 33bd e5f5 59be
000001c0: a22e bc3d cc57 10be 27c9 c4bd b3ee 033d
000001d0: 6be6 22be 74b6 5ebd 0593 52bd fc46 99bc
000001e0: 7596 4fbe 828f febd 87ac 8abd ba78 39bd
000001f0: b8ef d13d 05f0 773e 5232 033d 5d60 59bc
00000200: 7512 c7bc e604 02be e0ff acbe 535f a5bb
00000210: 649e 4abe f526 833d c7c4 d33d eb2d d2bc
00000220: 6594 393e 9346 56bd 26ec efbd f94b bd3d
00000230: 1435 4fbd 58d5 00be cbdf 71bd da38 90be
00000240: e754 a13d 6f83 bdbd 231e 40bd 8611 8ebe
00000250: a910 573d 2aee 36be 549c 803e 777a 9abe
00000260: 3e32 3bbd 6bc1 303e a343 07be 49f3 7fbc
00000270: 2d05 003e 88b9 5bbe 92bd 723e 3b92 3b3d
00000280: 5735 39be bd4e 9bbd c4cb 9bbe 0125 193d
00000290: 5ea4 78be ca15 95be 13f5 4ebe a377 c83d
000002a0: 4c37 20be af67 093d bb37 66bc 40dc e43d
000002b0: 4233 afbd 5ed1 163d fa65 9cbd ef76 f33d
000002c0: 18e3 89bd dd52 41be 9d16 543e c55e 353e
000002d0: a911 82be a1c1 1bbd eb70 3dbe 77e6 3b3e
000002e0: e942 5cbd 10e7 3f3e c5d7 223e 6240 abbd
000002f0: 088d c83d 0f09 b63c ad5d 603e 8d9a 2f3e
00000300: b67b 3dbe 112d a9bd 36b6 03be f712 2e3e
00000310: d807 cd3d 674a 8dba 1d17 5ebc a15d 85bd
00000320: 54e2 653d 27eb 953e 1a88 3bbe a71c 9a3e
00000330: dd94 97bd 27b1 3dbd 7fea 75be 6784 6cbe
00000340: 2078 40be de55 3f3e f1b9 59be 150f 2fbe
00000350: a95e 88bd 3c09 ee3d 06da 2f3e c181 083e
00000360: df96 9c3d 43f0 523e 38ce f43d fcd9 51be
00000370: 991c 35bd f5fc 5cbd 8cc7 0a3e 3903 4b3e
00000380: 9ee8 ccbd 4516 95bd 1227 2f3e 72b1 9b3d
00000390: d10b 9ebd 028e 45be 066d a3be 4bf2 52be
000003a0: 2139 a4bd 20bb 8ebe c7f0 9b3d 19e0 36bd
000003b0: 273c e73d 6586 3b3e d5aa 363e 26bf 40bd
000003c0: d0a5 c5bd 4d1c f3ba fff3 91be be51 b8bd
000003d0: 769d 1d3b 45a9 423e a848 0c3e 1d7f bbbd
000003e0: 576a d4bd 705e 70be a98e 2fbe 06f9 36be
000003f0: d45a e73d 3c5a b7bd 0b15 52be 91c6 a8bc

policy_fc2.bias f4 [32]
-0.03255166 0.04050485 -0.01849982 0.038876545 -0.02098938 0.03328694 0.047817085 0.026981315
0.007102579 0.018278379 -0.030978873 0.075565 0.09414709 -0.005914026 -0.046809994 0.09049911
0.06000684 0.083736345 -0.023105437 0.01396853 -0.037303902 -0.019778185 0.02270604 -0.019067243
-0.0363098 0.02831882 0.04936518 0.030735495 -0.038778737 0.046494104 -0.054340154 0.038149454
00000000: e454 05bd 6ae8 253d ef8c 97bc 033d 1f3d
00000010: ecf1 abbc e357 083d d9db 433d eb07 dd3c
00000020: c0bc e83b 8abc 953c 68c7 fdbc d3c1 9a3d
00000030: 31d0 c03d 72ca c1bb d6bb 3fbd 9957 b93d
00000040: bbc9 753d f67d ab3d 9d47 bdbc 43dc 643c
00000050: facb 18bd dc05 a2bc 0402 ba3c e832 9cbc
00000060: 96b9 14bd dffc e73c 2533 4a3d 01c9 fb3c
00000070: 74d6 1ebd 9a70 3e3d c893 5ebd 9a42 1c3d

policy_fc3.weight f4 [51, 32]
-0.06618369 -0.035082955 -0.3161977 0.20904443 -0.21084058 0.094495535 0.0353359 0.2942997
0.4837642 0.2630217 0.17828527 -0.046176698 -0.0025735225 -0.08703808 -0.20895514 0.14079002
0.12418945 0.36596075 0.021644814 -0.15948364 -0.43648717 -0.05098376 0.06489579 -0.13760743
0.1337207 -0.07368384 -0.2272415 0.020144057 0.16731021 -0.08326392 -0.04492407 -0.06516998
0.24105056 0.020729754 0.29648104 0.1021978 0.261598 -0.2507281 -0.24268457 -0.10185403
-0.18133672 -0.05136734 0.25442246 0.2767316 -0.0042449017 -0.0053600804 0.16186525 -0.04263465
0.24187374 -0.10082137 0.20118053 0.01648517 -0.117163606 0.018202525 0.3201664 0.19512755
-0.07345351 0.022111982 0.070970625 0.07639861 -0.19121143 -0.11941236 -0.029096896 0.17931864
-0.02137243 -0.07382851 -0.20511863 0.14658746 -0.21344106 0.26842648 0.21176757 -0.15303902
-0.15596427 0.045993518 -0.21101825 -0.33909324 0.0014893158 0.14833942 -0.14470592 -0.46998364
-0.29057905 0.34089804 0.23692502 0.05637707 -0.07811988 0.12634458 0.027935613 0.1181621
0.13977192 0.34326962 0.19209515 -0.22891547 0.23047182 0.14222945 0.20280151 -0.049770653
-0.101887934 0.116876855 0.094608955 -0.19969676 0.14996365 0.28229287 0.16991964 -0.042218722
0.25835514 0.06830549 0.09283977 0.012069539 0.11149242 0.2042847 0.25829268 -0.06073311
-0.10707499 -0.045621216 0.2454171 0.19833162 -0.119013205 -0.09567185 -0.16589451 0.13648154
0.19649296 0.028324902 -0.14180347 0.35470915 -0.13619453 0.073154725 -0.2664811 0.005329474
-0.201934 0.21919198 -0.11029793 0.0749733 -0.041824494 0.13978228 0.2736761 0.08275278
-0.2360334 0.21571745 0.16104075 0.06671521 0.09562194 -0.3630084 0.08947703 -0.13869908
-0.12506036 -0.11348314 -0.19482215 0.21932687 -0.31550238 0.13097234 -0.01924153 0.1274207
0.14824374 0.2746118 -0.101224005 0.21505304 -0.15469277 -0.18614699 -0.11807573 -0.13297984
0.2663988 0.13425168 0.13321425 0.18847321 -0.21520387 -0.015425309 -0.18090712 0.06637111
-0.02084348 -0.19880426 0.044808608 0.036260102 0.16644455 0.06587786 0.23452094 0.03455813
-0.008743021 0.23164369 -0.21924375 0.22968997 -0.19360833 0.09915332 0.057539992 0.17617269
0.3049776 -0.20438166 0.052769624 -0.18851607 0.22672346 -0.049997102 0.09423346 -0.29367682
0.017764585 0.1500058 0.10373674 0.2051918 -0.10748146 0.05606331 -0.16483301 -0.16860425
-0.19838439 0.33999154 -0.056884762 -0.0396996 0.060788672 0.2657589 -0.1179159 -0.07773857
0.057537865 -0.058408093 -0.040327974 -0.18344492 -0.2287048 -0.3422736 0.106153466 -0.06596854
-0.06926937 0.033203013 0.115832545 0.11077445 0.15727152 0.2006716 0.28960103 -0.14989002
-0.04187108 0.14343223 0.22652976 -0.20868973 -0.17073774 0.018216617 0.16400307 0.21367429
0.033709396 -0.17240642 0.029084938 -0.108620256 0.28764758 -0.15897024 0.10472418 -0.10327291
-0.12398727 -0.03988054 0.19531251 0.11704948 0.114189595 0.074879654 0.10062058 -0.21678734
-0.073540255 -0.18592434 -0.17981946 -0.32057154 -0.006417565 0.115477845 -0.35913756 -0.1544017
00000000: 518b 87bd 25b3 0fbd aae4 a1be be0f 563e
00000010: 98e6 57be e086 c13d 60bc 103d 73ae 963e
00000020: f1af f73e c8aa 863e 6a90 363e c723 3dbd
00000030: 8ba8 28bb 0541 b2bd 56f8 55be 422b 103e
00000040: 0a57 fe3d 355f bb3e 7750 b13c ae4f 23be
00000050: 3f7b dfbe 59d4 50bd 15e8 843d f6e8 0cbe
00000060: 14ee 083e 8ee7 96bd ffb1 68be 2605 a53c
00000070: 5e53 2b3e 4686 aabd 4d02 38bd d777 85bd
00000080: f5d5 763e 72d1 a93c 5dcc 973e 154d d13d
00000090: 2cf0 853e 6f5f 80be 4e82 78be d898 d0bd
000000a0: 55b0 39be 8f66 52bd a943 823e c4af 8d3e
000000b0: d118 8bbb 9da3 afbb 01c0 253e aca1 2ebd
000000c0: c0ad 773e 6f7b cebd 4502 4e3e e80b 873c
000000d0: 79f3 efbd 761d 953c daec a33e 84cf 473e
000000e0: cb6e 96bd 3024 b53c 0c59 913d e076 9c3d
000000f0: eecc 43be 788e f4bd 9d5c eebc 4e9f 373e
00000100: 3c15 afbc 6733 97bd 9e0a 52be 061b 163e
00000110: 4b90 5abe 326f 893e 99d9 583e 43b6 1cbe
00000120: 19b5 1fbe b363 3c3d 2b15 58be a19d adbe
00000130: 2535 c33a 4ae6 173e ca2d 14be b2a1 f0be
00000140: c7c6 94be 308a ae3e 799c 723e a4eb 663d
00000150: 51fd 9fbd 7960 013e 3ad9 e43c f9fe f13d
00000160: 5f20 0f3e 09c1 af3e 97b4 443e d168 6abe
00000170: ce00 6c3e 99a4 113e 33ab 4f3e 50dc 4bbd
00000180: 9faa d0bd 225d ef3d 57c2 c13d 4f7d 4cbe
00000190: 1290 193e b188 903e 6aff 2d3e 8aed 2cbd
000001a0: 2047 843e c0e3 8b3d c722 be3d 51bf 453c
000001b0: 2356 e43d 0230 513e f03e 843e 48c3 78bd
000001c0: 224a dbbd 50dd 3abd 9f4e 7b3e 7217 4b3e
000001d0: 32bd f3bd 9aef c3bd 40e0 29be d1c1 0b3e
000001e0: 7335 493e a009 e83c ee34 11be 709c b53e
000001f0: 9476 0bbe 25d2 953d 3670 88be dea2 ae3b
00000200: c9c7 4ebe dd73 603e e2e3 e1bd 9a8b 993d
00000210: 2950 2bbd 1623 0f3e 461f 8c3e 4a7a a93d
00000220: bdb2 71be 09e5 5c3e dee7 243e fca1 883d
00000230: 70d5 c33d 3ddc b9be bc3f b73d 2207 0ebe
00000240: d30f 00be d969 e8bd 757f 47be 3997 603e
00000250: 8789 a1be 9d1d 063e 6aa0 9dbc 927a 023e
00000260: 35cd 173e eb99 8c3e 884e cfbd dd36 5c3e
00000270: c867 1ebe 519d 3ebe b0d1 f1bd de2b 08be
00000280: 6c65 883e 4679 093e 5169 083e 1fff 403e
00000290: 675e 5cbe 6fba 7cbc b73f 39be 94ed 873d
000002a0: f2bf aabc 5893 4bbe 3b89 373d 7985 143d
000002b0: 7170 2a3e f9ea 863d 4226 703e d38c 0d3d
000002c0: e33e 0fbc 0134 6d3e 6f81 60be d933 6b3e
000002d0: 4341 46be e510 cb3d 0eaf 6b3d 9d66 343e
000002e0: 0626 9c3e 6d49 51be f624 583d 5b0a 41be
000002f0: 322a 683e c3c9 4cbd 79fd c03d cf5c 96be
00000300: 0987 913c 1f9b 193e ee73 d43d cd1d 523e
00000310: 3d1f dcbd a4a2 653d fcc9 28be 98a6 2cbe
00000320: 4725 4bbe 5f13 ae3e ffff 68bd 0c9c 22bd
00000330: 8bfd 783d 8d11 883e e47d f1bd 6635 9fbd
00000340: d3ac 6b3d 533d 6fbd f22e 25bd fcd8 3bbe
00000350: 9731 6abe 7c3e afbe fd66 d93d 841a 87bd
00000360: 19dd 8dbd e2ff 073d 9d39 ed3d b7dd e23d
00000370: c90b 213e db7c 4d3e 9646 943e c57c 19be
00000380: 0281 2bbd e6df 123e 6bf7 673e c3b2 55be
00000390: e0d5 2ebe 043b 953c 6cf0 273e 6fcd 5a3e
000003a0: dd12 0a3d 4f8b 30be 8943 ee3c 4c74 debd
000003b0: 8b46 933e 18c9 22be a279 d63d bf80 d3bd
000003c0: 0aed fdbd c759 23bd 0100 483e a3b7 ef3d
000003d0: 3cdc e93d 815a 993d 2a12 ce3d 80fd 5dbe
000003e0: 469c 96bd f362 3ebe 9822 38be f421 a4be
000003f0: 704a d2bb a67f ec3d e1e0 b7be 7b1b 1ebe

policy_fc3.bias f4 [51]
0.016658468 -0.02329132 -0.08765256 0.13311662 0.06137422 0.05150616 0.012152494 -0.065657444
-0.00786741 0.019894537 -0.054605383 0.12043037 0.019830907 0.08601168 -0.013877777 -0.030484749
0.093687825 -0.1073528 0.001891969 -0.016917916 -0.0241127 0.107573494 -0.06430221 -0.12061157
-0.15211254 -0.015266955 -0.019365238 -0.060368784 -0.07664893 0.033466503 -0.022304531 -0.05571793
0.041748665 -0.043424733 0.11595654 -0.060147997 0.013143242 0.053596597 -0.02777448 -0.11223959
-0.06972786 -0.03805099 0.063005604 -0.07270684 0.028440682 0.044067446 -0.011412062 -0.097837746
0.015000978 0.0015202892 0.02081477
00000000: 5777 883c 70cd bebc 2f83 b3bd b94f 083e
00000010: 8963 7b3d 20f8 523d 411b 473c 6977 86bd
00000020: 4fe6 00bc def9 a23c e5a9 5fbd 33a4 f63d
00000030: 6d74 a23c e426 b03d 9e5f 63bc 27bb f9bc
00000040: 67df bf3d c9db dbbd f2fb f73a 7197 8abc
00000050: ff87 c5bc 7e4f dc3d e1b0 83bd 3303 f7bd
00000060: 64c3 1bbe 4022 7abc d9a3 9ebc 4245 77bd
00000070: 1dfa 9cbd 2c14 093d feb7 b6bc 7c38 64bd
00000080: a600 2b3d 22de 31bd 9f7a ed3d bf5d 76bd
00000090: c156 573c 1b88 5b3d 4e87 e3bc dfdd e5bd
000000a0: 7bcd 8ebd 5bdb 1bbd 1509 813d 53e7 94bd
000000b0: 6ffc e83c 1180 343d a8f9 3abc 285f c8bd
000000c0: a9c6 753c 7144 c73a bd83 aa3c

value_fc1.weight f4 [64, 261]
0.06593309 -0.0038643628 -0.09882774 -0.06593939 -0.0010235339 0.12142282 0.00066729076 0.05845123
0.018385755 -0.087095365 -0.033732884 0.12060138 -0.0034183287 -0.005492117 0.055510975 -0.24419667
-0.14824645 0.13716306 0.053740323 -0.16979818 -0.039955143 0.17220452 -0.24751015 0.045891207
-0.036668397 -0.2930977 0.0023134009 -0.030323436 -0.026505461 -0.04373572 0.092257425 -0.06473278
-0.08472926 0.13505991 -0.06325296 -0.09832562 0.055538252 0.10533453 -0.007648482 0.16879977
0.038435843 -0.0044191047 0.059561275 0.020011812 0.0076786876 -0.11982755 -0.1281878 -0.17085361
-0.016624536 0.15943415 0.042201385 0.061080158 0.15321526 0.034586027 0.008111163 -0.09833598
-0.0858168 -0.08640672 -0.28228772 -0.07742956 0.1471445 -0.020102091 -0.0043588877 -0.10865633
0.02089122 -0.02576742 0.08641027 0.00031266606 0.09115076 -0.042506043 0.15382373 0.07238539
0.008313122 0.14805937 0.02395108 0.038048882 -0.073615216 0.12264798 0.101777025 0.2603842
0.06485211 0.09829484 -0.16793837 -0.21475111 -0.21165505 0.16896138 -0.23300487 -0.19139513
-0.33397758 -0.08231489 0.1466265 -0.19191854 -0.19861706 -0.101028696 0.21053803 -0.14653827
-0.24135603 0.16105783 -0.057553444 -0.38068885 -0.23261383 0.18650606 0.007226757 -0.22085905
-0.16914554 0.018640133 0.0011837889 -0.08490645 0.072222166 0.107770406 -0.23852253 0.003736833
0.10240038 0.05353844 0.1163962 0.21351422 0.20788796 0.031426363 0.1159514 0.007937448
0.037711892 0.055840362 0.0810388 0.083384775 0.03987035 -0.051037606 -0.03162022 -0.040653553
-0.01658094 -0.24453934 -0.038110577 -0.0067426544 -0.062622316 -0.10392571 -0.05484508 -0.020839224
-0.2588287 0.07214062 -0.009408381 -0.27406603 -0.06825144 0.083145075 -0.049878273 0.124181226
-0.13327636 -0.06598504 0.07673967 0.106546775 0.13039306 -0.056511577 0.07612658 0.09259974
0.16438042 -0.14327955 -0.13326667 0.030894775 -0.0323468 -0.0434699 0.16108741 0.13745883
-0.069031686 0.10538906 0.1348022 0.09025661 -0.046183556 0.17983136 0.018160062 0.13753952
0.09649754 0.08950534 0.07590553 0.059801545 0.016239595 0.09032042 -0.015074334 0.07062248
0.10019915 -0.0040454483 0.10359069 -0.10156202 -0.030964477 -0.08364022 -0.043669563 0.119181536
-0.012873695 0.06403316 -0.002146942 0.064878516 -0.08153605 -0.006031172 0.016718818 -0.08112241
0.048580408 -0.07539985 -0.0969564 0.12622732 0.037787307 -0.039258916 0.10358295 0.122311026
-0.17893285 -0.11364621 0.08525292 0.039475232 0.038358644 0.039182484 0.029107988 0.018333526
-0.005362812 0.022639133 0.03532831 0.1399814 -0.0029047362 -0.048992347 0.008376422 0.03557453
-0.072446994 0.07384676 0.050547812 -0.015205893 -0.012449558 -0.07762152 0.04996434 0.1841379
0.12663026 -0.17120704 0.09354815 -0.033215653 -0.15331618 0.04722842 -0.052489962 -0.08266586
0.011991674 -0.0041792947 -0.04663298 -0.017807053 -0.047399208 -0.08278783 0.19829817 -0.054836035
-0.15486643 0.03542495 -0.14164273 -0.01622996 0.05515567 -0.19073154 0.10020337 0.25558442
0.017014598 -0.12412781 -0.08562333 0.09146201 -0.18606097 0.042319283 0.0937816 -0.124976024
00000000: ee07 873d 4041 7dbb 3366 cabd 3b0b 87bd
00000010: 1928 86ba 87ac f83d 20ed 2e3a 8f6a 6f3d
00000020: b99d 963c 0e5f b2bd 7e2b 0abd dbfd f63d
00000030: 0a06 60bb 37f7 b3bb 7a5f 633d b10e 7abe
00000040: ebcd 17be 7974 0c3e d01e 5c3d 93df 2dbe
00000050: 01a8 23bd 6256 303e 4d73 7dbe 6bf8 3b3d
00000060: 9a31 16bd e710 96be 6d9c 173b db68 f8bc
00000070: fb21 d9bc 3a24 33bd 76f1 bc3d 9f92 84bd
00000080: 8986 adbd 254d 0a3e c58a 81bd f15e c9bd
00000090: 147c 633d a1b9 d73d 1ea0 fabb d9d9 2c3e
000000a0: e76e 1d3d 23ce 90bb 86f6 733d d0ef a33c
000000b0: 809d fb3b 2668 f5bd aa43 03be 40f4 2ebe
000000c0: 2e30 88bc b542 233e 5cdb 2c3d 302f 7a3d
000000d0: 76e4 1c3e 14aa 0d3d afe4 043c 6064 c9bd
000000e0: b8c0 afbd 02f6 b0bd 0488 90be 6493 9ebd
000000f0: 0cad 163e 24ad a4bc 00d5 8ebb 3687 debd
00000100: 1024 ab3c 3216 d3bc def7 b03d 54ed a339
00000110: 40ad ba3d d11a 2ebd f883 1d3e cb3e 943d
00000120: c333 083c e09c 173e 0e35 c43c 25d9 1b3d
00000130: 93c3 96bd dd2e fb3d 7970 d03d 1451 853e
00000140: 2fd1 843d ce4e c93d 09f8 2bbe b7e7 5bbe
00000150: 1abc 58be 3604 2d3e d498 6ebe 16fd 43be
00000160: 1cff aabe b694 a8bd 4225 163e 4b86 44be
00000170: 4562 4bbe 22e8 cebd 4897 573e 210e 16be
00000180: 0926 77be 58ec 243e 29bd 6bbd a6e9 c2be
00000190: 5232 6ebe 72fb 3e3e 6ece ec3b e028 62be
000001a0: 7d34 2dbe 31b3 983c 5d29 9b3a 6fe3 adbd
000001b0: 37e9 933d bbb6 dc3d 403f 74be a8e5 743b
000001c0: 4ab7 d13d 204b 5b3d 2261 ee3d 79a3 5a3e
000001d0: 95e0 543e eeb8 003d ed77 ed3d 120c 023c
000001e0: c977 1a3d ddb8 643d acf7 a53d a3c5 aa3d
000001f0: 184f 233d cf0c 51bd 3484 01bd 5784 26bd
00000200: c0d4 87bc 8568 7abe d619 1cbd 7cf1 dcbb
00000210: 2140 80bd 01d7 d4bd 3ca5 60bd 05b7 aabc
00000220: 3285 84be 76be 933d 9c25 1abc 6252 8cbe
00000230: 69c7 8bbd f747 aa3d 294d 4cbd ba52 fe3d
00000240: 9979 08be 2a23 87bd b029 9d3d 3235 da3d
00000250: c285 053e af78 67bd 41e8 9b3d efa4 bd3d
00000260: 5753 283e e0b7 12be 0f77 08be 0a17 fd3c
00000270: 147e 04bd 7e0d 32bd 19f4 243e 02c2 0c3e
00000280: 7c60 8dbd 38d6 d73d 9709 0a3e 75d8 b83d
00000290: f82a 3dbd b625 383e 69c4 943c 29d7 0c3e
000002a0: 81a0 c53d 934e b73d 5c74 9b3d 77f2 743d
000002b0: e608 853c eaf9 b83d 57fa 76bc 85a2 903d
000002c0: 3635 cd3d ae8f 84bb 5b27 d43d c0ff cfbd
000002d0: 37a9 fdbc 904b abbd dbde 32bd 7315 f43d
000002e0: 31ec 52bc d123 833d b6b3 0cbb 07df 843d
000002f0: 5ffc a6bd 23a1 c5bb e7f5 883c 8223 a6bd
00000300: 40fc 463d 3d6b 9abd 1491 c6bd bc41 013e
00000310: ddc6 1a3d f5cd 20bd 4c23 d43d 347e fa3d
00000320: 2c3a 37be 58bf e8bd 1599 ae3d c8b0 213d
00000330: f41d 1d3d d07d 203d e073 ee3c 3130 963c
00000340: 87ba afbb b475 b93c 6bb4 103d 4957 0f3e
00000350: 635d 3ebb 33ac 48bd 433d 093c 99b6 113d
00000360: 175f 94bd f83c 973d 390b 4f3d 2322 79bc
00000370: 3bf9 4bbc 08f8 9ebd 68a7 4c3d a58e 3c3e
00000380: 5dab 013e e650 2fbe 2c96 bf3d 230d 08bd
00000390: ebfe 1cbe 9672 413d b7ff 56bd b84c a9bd
000003a0: ba78 443c 77f2 88bb 3902 3fbd 19e0 91bc
000003b0: ac25 42bd aa8c a9bd ad0e 4b3e c09b 60bd
000003c0: 4e95 1ebe c119 113d cb0a 11be b1f4 84bc
000003d0: e9ea 613d 214f 43be 6d37 cd3d f6db 823e
000003e0: 3362 8b3c b936 febd 495b afbd 6f50 bb3d
000003f0: c486 3ebe fc56 2d3d 9110 c03d 6ef3 ffbd

value_fc1.bias f4 [64]
-0.00672111 0.014089897 0.15490535 0.033272218 -0.080080815 -0.036397237 0.050673634 -0.019214947
0.069111295 -0.0075435783 0.008554269 0.10226525 -0.042608075 -0.0033935073 0.022086125 0.043006707
0.024137346 0.0054713376 0.09207306 -0.14392509 -0.03181399 -0.021366939 0.033827133 0.10423843
0.07300943 -0.1589787 0.15300678 0.059398424 0.12737522 0.05176614 0.008495509 0.13398273
0.058520693 0.08413224 0.06819862 0.054256603 0.0027150768 0.060268734 0.06422461 0.11177462
0.076550655 -0.10466417 -0.044097226 -0.03472453 0.07049946 -0.13409643 0.02585261 -0.07460186
-0.08101397 0.09222555 0.109048896 -0.00273579 -0.1536296 0.116240546 -0.032777414 0.010557893
-0.05277678 0.20876557 -0.0014119018 -0.024467003 0.13954055 -0.11239402 -0.05607726 0.21327852
00000000: c23c dcbb 50d9 663c 829f 1e3e 7348 083d
00000010: 6901 a4bd 4515 15bd 288f 4f3d aa68 9dbc
00000020: 398a 8d3d 1f30 f7bb 3427 0c3c 7270 d13d
00000030: ce85 2ebd 9b65 5ebb f6ed b43c cd27 303d
00000040: afbb c53c e848 b33b cd90 bc3d 1961 13be
00000050: 634f 02bd b809 afbc 528e 0a3d f57a d53d
00000060: f885 953d 50cb 22be cfad 1c3e c34b 733d
00000070: a66e 023e bb08 543d bf30 0b3c c532 093e
00000080: 65b3 6f3d 864d ac3d b8ab 8b3d 2c3c 5e3d
00000090: 6eef 313b 59dc 763d 3188 833d 18ea e43d
000000a0: 97c6 9c3d 2b5a d6bd 4b9f 34bd 4f3b 0ebd
000000b0: 0562 903d 9350 09be dac8 d33c dcc8 98bd
000000c0: a7ea a5bd c0e0 bc3d 0755 df3d f14a 33bb
000000d0: 1451 1dbe 860f ee3d 9c41 06bd 03fb 2c3c
000000e0: 772c 58bd a4c6 553e 900f b9ba 066f c8bc
000000f0: b8e3 0e3e d62e e6bd 45b1 65bd af65 5a3e

value_fc2.weight f4 [32, 64]
0.15548669 -0.046328496 0.17525199 0.051194325 0.22089382 -0.16078746 -0.26919642 0.11410603
-0.019854128 -0.006046689 0.25432658 0.108766265 0.11030309 0.25030637 0.19386756 0.31358936
-0.1587843 -0.09105605 0.28425357 0.12011012 0.14152943 0.22657518 0.09973296 0.016272789
0.25618732 0.30269095 -0.1306491 0.128886 -0.0044731046 0.010623275 -0.15483192 -0.01741544
-0.06365786 0.21073785 0.35480583 -0.17733333 0.030584788 0.061436985 -0.034435842 0.0031515914
-0.25204483 0.04364624 0.21412829 0.2836643 -0.09125913 0.1686991 0.16136435 0.19374011
0.34807414 -0.12944502 0.26638788 -0.26878494 -0.08328086 0.18700384 -0.2016048 -0.17418669
0.06949976 -0.069921345 0.09299827 0.22763745 0.18227258 -0.15645973 0.18331426 -0.10215707
-0.021803685 0.10081901 -0.0644453 -0.21928485 -0.22777525 -0.0456253 0.099253535 -0.20897403
0.19043823 -0.21211281 -0.14108075 -0.062493823 0.10528613 0.15876287 -0.0870141 -0.13531001
0.113740705 -0.19364537 0.11111352 -0.22490934 0.021587191 -0.07139334 0.19393069 0.20138225
0.23751867 -0.21418978 0.208453 -0.24261543 -0.1431074 -0.017262746 0.070988424 -0.16254506
0.10461474 0.018537171 0.03778717 0.007254459 -0.13749701 -0.1929842 -0.060610875 -0.095432535
0.09290295 0.036880344 0.10115086 0.10820626 -0.004872494 0.23878701 0.036431737 0.12490644
0.07972785 0.03889264 -0.129498 0.14609085 -0.19215068 -0.07397623 -0.3046518 -0.20654877
0.10784405 -0.20121048 -0.028537344 -0.019495092 -0.12364718 0.051328663 -0.1924347 0.3102979
0.13184132 0.042736255 -0.22060893 -0.07374403 0.13039836 -0.10201208 -0.34412888 0.27393755
0.1335034 0.16013989 -0.085159115 -0.014063271 -0.21588494 -0.09676929 0.029550577 -0.04231157
-0.009562153 -0.22332254 -0.25900453 -0.13947763 -0.10697029 -0.121773876 -0.03667001 -0.21624427
-0.05523812 0.09967951 -0.19149569 -0.29574138 0.035168394 0.15696914 0.15495445 -0.09726374
-0.23953335 -0.002477163 0.0023956967 -0.11789056 -0.041573543 -0.06251651 0.2078908 0.008001235
0.15620537 -0.33325183 0.189132 -0.29834965 -0.20913544 0.041243646 0.096131735 0.03478859
0.051401164 0.12191729 0.09416157 -0.2456564 0.02149973 -0.14530003 -0.18457074 -0.15309182
-0.20712517 0.07613834 0.15537645 0.14837709 0.048576307 -0.23523979 0.010351135 -0.01575939
-0.10782955 0.03581077 0.1718796 0.0981021 -0.15626495 0.1646978 0.07047934 0.16777912
0.0009614378 0.08698825 0.17442372 -0.21646169 0.15175793 0.10494505 0.07852473 -0.00794792
-0.2128782 -0.38330093 -0.20578013 -0.30342162 0.043419745 0.22412808 -0.20822856 0.09971476
0.07857871 0.020595226 0.25590748 0.16931586 0.1646177 0.21615277 -0.13459048 0.08957702
0.21148555 -0.12611619 -0.14071019 -0.06484459 0.14966822 -0.079627484 0.046655133 -0.063310064
0.08319291 -0.24268547 0.16857824 -0.07904561 0.16716982 0.140126 0.04016338 -0.0010162657
-0.1995679 -0.035831623 -0.15227968 0.05367543 -0.1724364 -0.18676575 0.17533933 -0.17154069
0.022471651 -0.06379719 -0.034751635 -0.14117837 0.18678309 -0.14443041 -0.12667748 0.09049032
00000000: e737 1f3e f3c2 3dbd 4275 333e 24b1 513d
00000010: fd31 623e 78a5 24be 1dd4 89be 6cb0 e93d
00000020: 20a5 a2bc 4e23 c6bb 1837 823e d9c0 de3d
00000030: 96e6 e13d 2828 803e 3885 463e c98e a03e
00000040: 5a98 22be 987b babd af89 913e 4bfc f53d
00000050: 17ed 103e 5303 683e cb40 cc3d 834e 853c
00000060: fc2a 833e 4ffa 9a3e e1c8 05be b1fa 033e
00000070: 1f93 92bb 3f0d 2e3c 428c 1ebe d3aa 8ebc
00000080: 0d5f 82bd aacb 573e 1ca9 b53e de96 35be
00000090: f38c fa3c 59a5 7b3d 990c 0dbd ee8a 4e3b
000000a0: 050c 81be 66c6 323d 7244 5b3e 723c 913e
000000b0: 11e6 babd 75bf 2c3e b23c 253e cf63 463e
000000c0: c636 b23e 3c8d 04be fe63 883e 2e9e 89be
000000d0: 288f aabd ef7d 3f3e 7d71 4ebe ff5d 32be
000000e0: e455 8e3d ec32 8fbd e175 be3d cb19 693e
000000f0: aaa5 3a3e fb36 20be bcb6 3b3e ba37 d1bd
00000100: a49d b2bc 327a ce3d e6fb 83bd 358c 60be
00000110: ea3d 69be 98e1 3abd 7045 cb3d 4afd 55be
00000120: 3d02 433e 1a34 59be 7977 10be 86f9 7fbd
00000130: 41a0 d73d bc92 223e 7334 b2bd b58e 0abe
00000140: e3f0 e83d f94a 46be 7c8f e33d a24e 66be
00000150: 9fd7 b03c ac36 92bd c495 463e 2637 4e3e
00000160: 1838 733e 9154 5bbe b474 553e 2e70 78be
00000170: bf8a 12be 9a6a 8dbc 6162 913d 3672 26be
00000180: 4140 d63d 44db 973c b8c6 1a3d d0b6 ed3b
00000190: 04cc 0cbe a69d 45be 1c43 78bd 2272 c3bd
000001a0: e743 be3d d80f 173d 2f28 cf3d 3e9b dd3d
000001b0: 71a9 9fbb 9584 743e 7239 153d f3ce ff3d
000001c0: 5b48 a33d e44d 1f3d 209b 04be d798 153e
000001d0: 26c3 44be da80 97bd 52fb 9bbe 8581 53be
000001e0: 57dd dc3d 1f0a 4ebe 26c7 e9bc 2cb4 9fbc
000001f0: bc3a fdbd 013e 523d 9a0d 45be 5edf 9e3e
00000200: 6901 073e 360c 2f3d 4fe7 61be 1c07 97bd
00000210: 2687 053e b6eb d0bd a931 b0be 8b41 8c3e
00000220: 1eb5 083e b6fb 233e e767 aebd a269 66bc
00000230: f110 5dbe fa2e c6bd 0d14 f23c e64e 2dbd
00000240: 94aa 1cbc aaae 64be 3e9c 84be 39d3 0ebe
00000250: 3d13 dbbd 9564 f9bd 4b33 16bd 236f 5dbe
00000260: 5e41 62bd c524 cc3d 7217 44be 6a6b 97be
00000270: bc0c 103d 85bc 203e 61ac 1e3e 3632 c7bd
00000280: 3b48 75be e657 22bb 1f01 1d3b 9b70 f1bd
00000290: 0549 2abd a808 80bd 53e1 543e 9d17 033c
000002a0: 4df4 1f3e fc9f aabe d2ab 413e 49c1 98be
000002b0: 9a27 56be 19ef 283d b7e0 c43d 7b7e 0e3d
000002c0: 078a 523d c6af f93d c8d7 c03d 5a8d 7bbe
000002d0: 3420 b03c 88c9 14be 1d00 3dbe 1ac4 1cbe
000002e0: 9f18 54be 6bee 9b3d 011b 1f3e 2af0 173e
000002f0: f3f7 463d b3e2 70be cf97 293c d619 81bc
00000300: bdd5 dcbd 50ae 123d 3501 303e c1e9 c83d
00000310: eb03 20be 8aa6 283e 7957 903d 4ace 2b3e
00000320: 0009 7c3a e526 b23d 229c 323e 22a8 5dbe
00000330: 6e66 1b3e 6eed d63d 93d1 a03d fe37 02bc
00000340: befc 59be 0540 c4be 07b8 52be 145a 9bbe
00000350: e7d8 313d d581 653e de39 55be 4137 cc3d
00000360: e0ed a03d 52b7 a83c 4e06 833e 2361 2d3e
00000370: 8b91 283e 2757 5d3e 16d2 09be 2874 b73d
00000380: ab8f 583e 9a24 01be 5516 10be 3ecd 84bd
00000390: a042 193e bc13 a3bd 7419 3f3d b5a8 81bd
000003a0: 0b61 aa3d 8a82 78be c69f 2c3e aae2 a1bd
000003b0: 912e 2b3e 317d 0f3e 5b82 243d 3834 85ba
000003c0: 875b 4cbe 2ec4 12bd 34ef 1bbe c5da 5b3d
000003d0: 2b93 30be 853f 3fbe 278c 333e 5da8 2fbe
000003e0: 7816 b83c 1aa8 82bd bb57 0ebd 1091 10be
000003f0: 1144 3f3e 91e5 13be beb7 01be fd52 b93d

value_fc2.bias f4 [32]
0.123502076 0.1092782 0.017641325 -0.036979817 -0.012249992 0.17985544 -0.07435953 -0.2098079
0.16926199 0.12141058 -0.027400253 0.1543921 -0.053357188 -0.08658326 0.25334027 0.029071001
0.1836692 0.021150908 -0.06851734 0.050283734 -0.020478148 0.085476 0.1447783 0.12087858
0.21638139 -0.16497894 -0.081780046 0.116001934 -0.09055472 0.17174037 -0.023591187 -0.059284102
00000000: a8ee fc3d 40cd df3d 8a84 903c 2678 17bd
00000010: 31b4 48bc 062c 383e cf49 98bd e2d7 56be
00000020: 0453 2d3e 1ca6 f83d 7f76 e0bc f618 1e3e
00000030: 118d 5abd 9052 b1bd d1b5 813e 4f26 ee3c
00000040: c713 3c3e ab44 ad3c d252 8cbd 51f6 4d3d
00000050: cac1 a7bc 0b0e af3d c340 143e 308f f73d
00000060: 1593 5d3e 3df0 28be 4c7c a7bd 6c92 ed3d
00000070: c174 b9bd b5dc 2f3e 4e42 c1bc e3d3 72bd

value_fc3.weight f4 [1, 32]
-0.032843392 -0.0374079 -0.09801859 0.0401131 -0.28339064 -0.14279838 -0.008603347 0.024098774
-0.030180657 -0.04319076 0.0673995 0.026434857 0.7379938 0.049376756 -0.02270394 1.2028732
0.006345279 -0.32537708 0.17631929 -0.15356009 0.99548876 -0.023692043 -0.061710652 0.18346581
0.017708201 -0.00087583566 -0.18603912 0.015528732 -0.0037836202 -0.07332888 0.3263432 -0.2684504
00000000: cb86 06bd 0739 19bd f8bd c8bd a24d 243d
00000010: 9418 91be bd39 12be 0ef5 0cbc cb6a c53c
00000020: 6d3d f7bc cbe8 30bd c008 8a3d ea8d d83c
00000030: 29ed 3c3f 483f 4a3d 9dfd b9bc c0f7 993f
00000040: 0fec cf3b d397 a6be 0b8d 343e db3e 1dbe
00000050: 5ad8 7e3f d115 c2bc 4fc4 7cbd 76de 3b3e
00000060: ca10 913c 5698 65ba 0a81 3ebe 396c 7e3c
00000070: 9df6 77bb 742d 96bd 7516 a73e 5572 89be
