rl/spin_model_11301046/20.pt (torch_old, 159601 bytes, 12 tensors)

log_std f4 [51]
000000 75 46 20 3d f8 9c 11 3e b5 77 e3 bd 75 2f 88 3d
       0.039129693 0.14220035 -0.11106817 0.06649677
000010 6a e8 3d 3d b3 fa e1 3d 39 51 91 3d 84 09 8c 3c
       0.046364225 0.11034145 0.0709557 0.017094381
000020 83 b8 a7 3d d4 0c d0 3d e1 4a 20 3e fb d1 dd 3d
       0.0818949 0.10158697 0.15653564 0.10831066
000030 30 bd e8 3d 99 b0 94 3d 12 8b 06 3e 64 e5 c9 3d
       0.1136421 0.07260246 0.13138989 0.09858206
000040 87 1c bb 3d 7e 6d fe 3d 49 9a a8 3d ff 3c 79 3d
       0.091363005 0.12423228 0.082325526 0.060849186
000050 b6 b9 95 3d f9 5d a0 3d 40 6f 67 3d d3 8e 7e 3d
       0.07310812 0.07830424 0.05650258 0.062147927
000060 73 39 cc 3d c6 9e b8 3d 98 c2 e0 3c a6 ef 0f 3e
       0.09971895 0.09014659 0.02743654 0.14056262
000070 31 39 88 3c 53 fc f2 3d b3 71 09 3d 80 23 a6 3d
       0.016628833 0.11864533 0.033555698 0.0811224
000080 29 47 cc 3c 6a 30 94 3d 21 47 01 3e 0c 33 16 3e
       0.024936276 0.07235797 0.1262479 0.1466791
000090 12 a0 66 3d f6 41 c1 3c c9 20 74 3d aa c1 e2 3d
       0.056305 0.023591023 0.05960158 0.11072095
0000a0 91 a6 1a 3d ba fa e0 3d 2e 3a cf 3d 56 a1 f0 3c
       0.037756506 0.10985322 0.10118519 0.029373806
0000b0 c9 59 99 3d 99 ac e8 3d 7d 6b fc 3d 6d d7 53 3d
       0.07487828 0.113610454 0.12325189 0.051719118
0000c0 70 03 dd 3d b9 24 07 3e 57 e5 07 3e
       0.10791671 0.13197602 0.1327108

policy_fc1.weight f4 [64, 261]
000000 81 b7 3b 3d dc 3d c0 bc 6a 5b 44 bd d8 97 c1 3c
       0.0458293 -0.023466997 -0.04793874 0.023631975
000010 fa 5c fc bd 4d 63 3b 3c 2e f4 b0 3c 47 8a af bd
       -0.12322421 0.011437249 0.021600809 -0.08571296
000020 7a 29 bf bd 99 2e 35 3d 4b b7 1a bd 49 ae d2 3d
       -0.09334083 0.044233892 -0.037772458 0.102871485
000030 88 ff 33 3c 8b 52 5c bd 3a e9 55 bd 37 a0 51 3d
       0.010986216 -0.053789657 -0.052224375 0.051178183
000040 62 d0 27 bc c4 39 bb 3d 26 85 d4 bc e6 09 e4 bd
       -0.010242553 0.09141877 -0.025942396 -0.111347005
000050 b3 85 98 bd 05 ee 62 bc 72 1d bc bd 26 a4 31 3d
       -0.07447376 -0.013850694 -0.09185304 0.043369435
000060 60 9e 80 3d 3c 77 11 be 11 2a 99 3c 49 55 ee 3d
       0.06280208 -0.1420564 0.018696817 0.116373606
000070 68 cf e1 bd 2d 90 70 bd 90 a4 71 bc 11 ca 5f 3d
       -0.11025888 -0.058731247 -0.014748707 0.054636065
000080 e9 19 cd 3d 61 79 9d 3d a8 2d 18 bc 69 a4 db 3d
       0.100147076 0.07689167 -0.009288229 0.10724718
000090 13 dc ea bd 75 f3 bc 3d 4a 7f fd 3d cd 44 a9 3d
       -0.11467757 0.09226123 0.12377794 0.08265076
0000a0 f1 04 e2 bc fc 04 02 3e 7c 35 d3 bd d9 80 d7 bd
       -0.027590247 0.12697214 -0.10312936 -0.105226226
0000b0 a2 98 f9 bd 13 1f 12 3e 77 9e cd 3d 87 32 17 bc
       -0.121873155 0.14269666 0.100399904 -0.009228355
0000c0 40 6a f9 bd 9d 34 2b bd b7 dd a9 bd cd 0a ab 3d
       -0.12178469 -0.041798223 -0.08294242 0.083516695
0000d0 64 0c 20 3d bb a4 c3 3d f5 bd 27 3a 58 25 1e bd
       0.039074317 0.09552904 0.000639885 -0.038609833
0000e0 21 26 55 3d 0d e7 13 bd b5 dc de bd 77 d5 07 be
       0.052038316 -0.03610902 -0.1088194 -0.13265024
0000f0 4e 23 ad 3d 9e 87 44 3d 34 dd 33 3d 1d 44 04 3e
       0.084539995 0.047980897 0.043912128 0.12916608
000100 f0 76 b3 3d f8 6d ea ba 0f 5f a3 bd a1 da 87 bd
       0.0876292 -0.0017885556 -0.07977115 -0.06633497
000110 9e ea 31 3d 69 79 17 be 72 5d 1d bd bb 70 c7 bd
       0.04343664 -0.14792408 -0.038419195 -0.097382985
000120 9b bd 78 3d 57 21 bc bd be b8 d1 bd 73 be fe 3c
       0.060727697 -0.091860466 -0.10240315 0.031096673
000130 74 a5 a4 bd c9 2d 75 bc 7c de 8e 3d f8 b3 c5 bd
       -0.0803937 -0.014964529 0.06976029 -0.09653467
000140 b1 f8 ad bd ce 6a 84 3d f6 a0 f5 3a e5 d4 0f be
       -0.084947 0.06465684 0.0018739987 -0.14046057
000150 85 9d 5b bc 66 b8 4a 3d 82 0e a2 bd 40 fc 13 3d
       -0.013404255 0.049492262 -0.079129234 0.036129236
000160 69 15 01 bd aa 3d f3 bd ac b3 d9 3a 8a 26 64 bc
       -0.03151456 -0.11876996 0.0016609333 -0.013925204
000170 34 2f be bd a4 07 ac 3d 2a bd f0 3d 0d 0f 0f bd
       -0.09286347 0.08399895 0.1175483 -0.034926463
000180 58 dc db bd aa 4b 2a bd 8f 89 04 3d bc 03 02 bd
       -0.107353866 -0.041576065 0.03235775 -0.031741843
000190 6a 16 b5 3d 7a 78 a3 bd 90 ad 02 3e 07 00 c3 bd
       0.08842166 -0.079819635 0.12761521 -0.095214896
0001a0 fd fb 37 bd 65 3f a8 3d d6 80 4e bd 4a d2 26 3d
       -0.04491805 0.082152165 -0.050415836 0.04072789
0001b0 03 6a 5f bd 79 0c 83 bd a3 33 11 3e ff b9 a1 3d
       -0.05454446 -0.06398863 0.14179854 0.07896804
0001c0 66 4f 4d be 40 d3 62 3d 80 35 55 bd 5e aa 2f be
       -0.2004982 0.055377245 -0.052052975 -0.17154834
0001d0 df 20 6b bc a7 ec 28 bd 45 24 3d 3d ba b2 bd bd
       -0.014351099 -0.041241314 0.046177167 -0.09262605
0001e0 fe bf 00 3d 7b e1 8a 3d a7 9f 07 be 77 1c 41 be
       0.031433098 0.06781288 -0.13244496 -0.18858515
0001f0 5b 2e b3 bd 97 00 e9 3d 7f 57 38 bd 28 ec 2f 3d
       -0.08749076 0.11377066 -0.045005318 0.042949826
000200 32 c2 1e be f5 06 81 bb 09 65 e2 bd f0 90 c0 3d
       -0.15503767 -0.003937597 -0.11054427 0.09402645
000210 d0 b2 27 be b0 7d af bd 37 19 b8 bd 36 02 d0 3d
       -0.16376805 -0.08568895 -0.08989184 0.10156672
000220 c0 ca 98 bc e3 a8 fd 3d 5f 0e 61 3b a0 9f ba bd
       -0.018651366 0.12385728 0.0034340841 -0.09112477
000230 d1 c2 8b 3c 6d 82 b7 bd 26 ac 81 bd b3 3b ca bd
       0.01706067 -0.089604236 -0.06331663 -0.09874668
000240 3e 5e 8f 3d 3b d4 b8 bd ad 44 f9 ba e7 18 98 bd
       0.07000397 -0.09024855 -0.0019017659 -0.07426625
000250 52 75 79 bd 07 fb fe bd 7f f0 f1 bd 9b 14 b7 bd
       -0.0609029 -0.124502234 -0.11813449 -0.08939477
000260 60 b2 94 bc f4 a5 02 be 3a ea 83 3d e3 71 b7 bd
       -0.018151462 -0.12758619 0.064411595 -0.08957269
000270 37 42 9a bd ed bb b6 3d 9a 3e 21 3a e5 6e 2b 3e
       -0.07532161 0.08922563 0.0006150991 0.16741522
000280 52 f8 b3 3b e1 4b dd bd 99 57 5e bd e8 f2 ee bd
       0.0054922486 -0.108054884 -0.05428276 -0.116674244
000290 42 69 71 3d 39 43 07 bd 1f bc 95 bc 35 7c 19 3b
       0.058938272 -0.033023093 -0.01827818 0.002341998
0002a0 52 db fa bd e6 87 98 bd a9 29 81 bd f2 aa 83 3d
       -0.12248863 -0.074477956 -0.06306774 0.064290896
0002b0 e2 2f 5e 3d e3 4e 01 3e d4 ae 96 3d 7f 83 93 bd
       0.054244883 0.12627749 0.073575646 -0.07202815
0002c0 34 23 4d 3d 66 58 8f 3c 25 d4 16 3e 08 0a ee 3d
       0.0500824 0.017498206 0.14729364 0.11623007
0002d0 85 89 f3 3c a6 13 3d bd 54 e7 d6 3d ad 4f 03 3e
       0.02972866 -0.046161316 0.10493341 0.12823363
0002e0 b3 8c da 3d 12 a2 2e bd dc 7b ec 3c e5 e1 9d 3d
       0.106713675 -0.04263503 0.028867655 0.077091016
0002f0 d7 68 41 bc a1 d5 a6 bc 37 60 29 3e 2e 8e db 3d
       -0.011804781 -0.020365538 0.1654061 0.10720478
000300 ab 97 dc bd 08 b5 cb 3d c7 77 ae 3d 54 a1 a8 bd
       -0.10771116 0.09946638 0.085189395 -0.08233896
000310 83 a7 c3 bc 99 b6 f6 bd 7b 8c e1 bd 45 0d f1 bb
       -0.023883587 -0.120465465 -0.11013123 -0.007356318
000320 84 d0 b7 bb 76 5c de bd 36 7f ef 3d c6 dd 0d 3e
       -0.005609574 -0.10857479 0.116941854 0.13854131
000330 62 b6 ee bd cc b8 28 3e 93 9e 7c bd 82 22 82 bd
       -0.116558805 0.16476744 -0.061674666 -0.06354238
000340 86 f6 ec bc e0 36 67 3d 10 aa cf bc d2 63 47 bd
       -0.028926145 0.056448817 -0.025349647 -0.04867918
000350 2d 4c 6b 3d e8 6e 16 3e ed fc b6 3d 96 27 b5 3d
       0.057445694 0.14690745 0.089349605 0.08845441
000360 16 52 02 3e 99 00 29 3e 32 51 96 3d b8 3a 9b bd
       0.12726626 0.16504134 0.073397055 -0.07579559
000370 42 65 30 3e 33 bb a7 bd 4c f9 e5 bd 8c 94 32 3e
       0.17226127 -0.08190002 -0.1122919 0.17439479
000380 91 dd ac bd 30 a0 b7 bc 9e 2d 30 3e 06 28 f3 3d
       -0.08440698 -0.02241525 0.17204902 0.11872868
000390 da fe 01 be 02 20 e3 bb 38 af b3 3c 75 2d 09 3d
       -0.12694874 -0.006931306 0.021934137 0.033490617
0003a0 c5 8c 91 3d 32 35 bd bd b5 d9 86 3d 7f d3 b8 3d
       0.07106928 -0.09238662 0.06584493 0.09024715
0003b0 fb 99 84 bd 44 cb dd 3d c8 8e 23 bd 78 a2 2e be
       -0.06474682 0.108297855 -0.03993109 -0.17054164
0003c0 eb 94 3c 3d e3 f7 de bd 98 62 29 be 7d d2 a6 3d
       0.046040457 -0.108871244 -0.16541517 0.08145616
0003d0 5a 04 4e 3d 8e 7c 2c be 71 8e 21 bd 22 66 2c be
       0.05029712 -0.16844389 -0.039442483 -0.16835836
0003e0 ac 2c 07 be 46 84 f3 3d 55 24 fb bd 34 11 0c 3e
       -0.13200635 0.118904635 -0.12262789 0.13678437
0003f0 10 e6 1c be b8 4f 50 bc af 89 8f bb 1e ad 62 bd
       -0.15322137 -0.012714319 -0.004380427 -0.05534088

policy_fc1.bias f4 [64]
000000 cd dc c1 bb e0 37 30 bb 33 69 ba bb 8a 5d 01 3c
       -0.005916214 -0.0026888773 -0.0056888103 0.007895837
000010 6c c2 25 ba f5 29 c4 3b 2f 21 17 3c a1 aa 14 3b
       -0.00063232216 0.005986447 0.00922422 0.002268471
000020 7d 1a 2b ba 86 a1 d4 bb 76 55 8c bb 20 08 9f 3c
       -0.00065270794 -0.0064889817 -0.0042826487 0.019413054
000030 72 7e 58 bb d8 2e 44 bc 2b a2 df 3b d6 5d b2 ba
       -0.0033034352 -0.011974059 0.006824752 -0.0013608288
000040 84 89 6e 3b d4 1e a9 bc 2c 9c 31 bc 28 00 0c bc
       0.0036397884 -0.020644583 -0.010840457 -0.008544959
000050 e0 bf 01 bb 32 b4 c0 bc 4b 5e 30 3b 2c ff 67 bb
       -0.0019798204 -0.023523424 0.0026911672 -0.0035399897
000060 55 0a 0e 3b 06 d4 25 bc 63 ba 2f bd bc a0 bf 3b
       0.002167364 -0.010121351 -0.04290236 0.0058480185
000070 21 57 eb bb 0e 9e 76 ba 9a d2 9b bb ef 3d 76 bc
       -0.0071820174 -0.0009407707 -0.0047553303 -0.015029415
000080 e1 96 4e bc 59 78 ed bb 3f ac ad bb c5 b5 b9 3b
       -0.0126092145 -0.0072470126 -0.0053000744 0.0056674206
000090 ae 7d ff 3b 22 3c 19 bd f5 fc ae 3a 4a 0a 5d bb
       0.0077969646 -0.037410863 0.0013350534 -0.0033728057
0000a0 85 99 5a bc 99 bd 87 bc 29 07 99 bc 50 12 f0 bb
       -0.013342266 -0.0165699 -0.018680172 -0.007326402
0000b0 86 13 61 bc 6e df 35 bc a3 c2 f3 bc c6 74 a5 bc
       -0.013737565 -0.011100633 -0.029755896 -0.020197283
0000c0 d4 f3 51 bb d7 35 cf bb 41 76 44 bb 30 31 c0 b9
       -0.0032036202 -0.006323557 -0.0029977711 -0.0003665774
0000d0 fd da 87 bc 4c d8 00 3a e0 38 6c bb bf 80 41 bc
       -0.016583914 0.0004915043 -0.0036044642 -0.011810481
0000e0 cb ec 62 bc 01 c0 e0 bc 14 b4 e1 3a bc 08 2a 3b
       -0.013850401 -0.027435305 0.0017219805 0.0025945147
0000f0 27 ee 2e 39 17 f3 08 bc 02 67 96 ba 02 c0 93 bb
       0.00016682652 -0.008358738 -0.001147479 -0.004508973

policy_fc2.weight f4 [32, 64]
000000 c4 01 67 3e 48 84 d1 3d 9a 9c c9 3d e1 c0 24 3d
       0.22559267 0.10230309 0.098443225 0.040223006
000010 5a 85 21 3e cf c6 4a be b3 8e 6f be 8d 72 12 bd
       0.15773526 -0.19802402 -0.23394279 -0.035753775
000020 62 43 b0 bd 0c db 85 3d e6 54 3a 3e 95 3a 27 be
       -0.08606602 0.065359205 0.18196449 -0.16330941
000030 62 36 9e bd e8 17 45 be f6 d4 4e be 32 d0 40 bd
       -0.077252164 -0.19247401 -0.20198426 -0.04707355
000040 cc b9 5f bd 2f c9 05 be f1 79 5e 3e a5 46 06 be
       -0.05462055 -0.13065027 0.21726204 -0.13112886
000050 f9 c1 61 3c f8 5a e9 3d 0c aa c9 3d 6e 83 b8 3d
       0.013779157 0.11394304 0.09846887 0.09009443
000060 0b 98 59 3e fe f2 81 bc b3 e4 38 be da c0 77 3d
       0.21249406 -0.015862938 -0.18055992 0.060486652
000070 31 8e 56 bd b4 11 17 be f6 2a ab bc 7b 39 fa 3d
       -0.052381698 -0.14752847 -0.020894509 0.12217995
000080 35 a4 54 bd 85 c5 af bc be 53 df 3d 6a 94 b6 3c
       -0.051914413 -0.02145649 0.109046444 0.022287566
000090 65 a7 5c 3e 9b 18 7e be 6a d6 69 3e 9d 70 87 be
       0.21548231 -0.24814074 0.22835699 -0.26453105
0000a0 af 86 b2 3d e9 67 c4 3d 2a 53 cf 3b 45 bf 25 3e
       0.08717095 0.09590132 0.0063270526 0.16186245
0000b0 91 19 bf 3a e8 e9 09 bd 80 11 0d be 62 65 d9 bd
       0.0014579763 -0.033670336 -0.13776207 -0.1061504
0000c0 5c 89 63 3d e2 60 4b 3e 1d 40 62 be c8 1c 59 3e
       0.055550918 0.19861177 -0.2209477 0.21202385
0000d0 b4 f7 3b be ae 78 1a be 40 8f e5 bc 65 47 1b be
       -0.1835621 -0.15085098 -0.028022408 -0.15163954
0000e0 f5 da c7 bd 61 a4 8a be 19 c4 2f 3e f0 67 50 3e
       -0.097585596 -0.27078536 0.17164649 0.20352149
0000f0 9b 38 02 be d4 93 43 bc 1b 4b 30 3e 44 cf 43 be
       -0.12716906 -0.0119371 0.1721615 -0.19122034
000100 5d aa 39 bd 49 8d 8c 3c 61 8b 53 be f7 e4 52 be
       -0.045328487 0.017157214 -0.20658638 -0.20595156
000110 fd 15 2b 3e b8 ce e5 3d 52 a6 fd 3d 28 0e 45 3c
       0.16707607 0.11221069 0.12385239 0.012027301
000120 3e 93 19 be de 8e 56 be 38 41 c2 3d 26 f2 16 bb
       -0.14997575 -0.20952937 0.09485096 -0.0023032515
000130 12 66 9f 3d 09 ad 04 be 0a 1e ab bd ac 56 15 3e
       0.0778314 -0.12956633 -0.08355339 0.14583844
000140 7a 38 2b be 31 64 73 bd b9 d1 1f 3e fc 89 d3 bc
       -0.16720763 -0.05942172 0.15607347 -0.025822632
000150 d4 2a 01 be 89 1e 96 bc 84 93 52 3c 0f a5 2f 3e
       -0.12613994 -0.018325107 0.012852553 0.17152809
000160 77 58 69 bd c5 6f d1 3d e2 ac 38 be e3 d2 b2 3d
       -0.056969132 0.102263965 -0.180347 0.0873163
000170 dd bb 7f 3d f5 00 de 3d 2b ef 22 3e 54 91 2a 3e
       0.06243502 0.10840026 0.15911548 0.16657001
000180 8e cb 90 3e e4 f7 a7 bd c3 f4 35 bd 44 f8 58 3e
       0.282803 -0.08201578 -0.044422876 0.21188456
000190 c7 c5 0f be 64 c5 14 3e db 9f 18 3d 5c 01 6a be
       -0.1404029 0.14528424 0.037261825 -0.22852081
0001a0 71 6a 39 bd 99 02 91 3d c3 43 cc 3d 94 3e 99 3d
       -0.045267526 0.070805736 0.09973862 0.07482639
0001b0 13 90 2f 3e 47 e7 6a be 19 d8 38 3e 18 44 03 3e
       0.17144804 -0.22939788 0.18051185 0.12818944
0001c0 67 70 de bd ae eb 20 be 55 dd 36 be 12 58 4f 3e
       -0.10861283 -0.15714905 -0.17857869 0.2024844
0001d0 e1 25 18 be 76 e7 3b be 7e ff d4 bd 21 8f 3f bd
       -0.148582 -0.18350014 -0.10400294 -0.046767358
0001e0 14 de 76 3e 9e 35 25 3e 93 72 88 3e 56 26 a3 3d
       0.24108154 0.16133735 0.26649913 0.079662964
0001f0 f6 23 50 bd dd a7 93 bd 11 f5 e1 3d d3 29 03 be
       -0.050815545 -0.07209752 0.11033071 -0.12808923
000200 5e 98 1e 3b f1 39 36 3e 57 5e 11 3e f7 02 5d be
       0.0024199705 0.1779554 0.14196144 -0.21583162
000210 54 6f 2b be cd 46 74 bd 2c 08 54 3e 7e 89 26 3e
       -0.16741687 -0.059637833 0.20706242 0.16263387
000220 1c fa 0c be 98 c2 5e be 1d 54 08 3d 46 a9 22 be
       -0.13767284 -0.21753919 0.03328334 -0.15884885
000230 d4 57 1c be e5 65 a3 3d 04 2d 29 3e 9e b9 e7 3a
       -0.15267879 0.07978419 0.16521078 0.001767922
000240 5b 6b 21 3e 3d 05 e0 bd 82 ec f5 3b 99 a4 93 bc
       0.15763609 -0.10938499 0.0075050006 -0.018022822
000250 db 94 cd 3c 68 cc 1e 3e 93 77 91 bd 8e da f5 bc
       0.025095394 0.15507662 -0.07102885 -0.030011442
000260 76 94 40 bd dd 4b 1e be 3a 6a 65 be de 7f ac 3d
       -0.047016583 -0.15458627 -0.22403803 0.08422826
000270 05 e6 01 3e 1b ea 7f be c5 14 a6 3d a3 80 b8 3d
       0.12685402 -0.24991648 0.0810943 0.090089105
000280 f5 c7 4d be fd 80 c4 39 0e d7 50 be ef d3 c3 bd
       -0.20095809 0.00037480137 -0.20394537 -0.095619075
000290 8e 5e 6f be c2 68 eb 3d 1f 24 40 3e ab 5b a7 bd
       -0.23375914 0.1149459 0.18763779 -0.08171781
0002a0 e7 a7 65 be 64 f1 2e be 5e eb 75 be 2b ab c7 3d
       -0.22427331 -0.1708427 -0.24015567 0.097494446
0002b0 21 6c 37 be 9b 9f 98 be 61 b9 48 3e a1 04 0b be
       -0.17912342 -0.2980927 0.19601966 -0.13575985
0002c0 f2 ae 35 3e 74 68 62 be c3 c2 27 bd 9e 3e 6d 3d
       0.17742518 -0.22110158 -0.040957224 0.057921045
0002d0 b5 19 46 be 13 76 00 3e ff d6 3e 3e a2 f9 3c be
       -0.19345744 0.12545042 0.18636702 -0.18454602
0002e0 12 03 64 3e 98 e3 65 be 1d b8 40 be 93 99 7a be
       0.22266796 -0.22450101 -0.18820234 -0.24472646
0002f0 b5 f0 ca bd f3 16 0e be 11 34 af bd bc 1a 24 3e
       -0.099091925 -0.13875942 -0.08554853 0.16025823
000300 c6 85 4c 3d eb d1 91 bc f9 0e ce 3d 99 1e 8d 3e
       0.049932264 -0.017800292 0.100614496 0.27562407
000310 f7 84 82 be 96 7c 26 be 1a 2e 43 3e 4d 6d 19 3e
       -0.2549207 -0.16258463 0.19060555 0.14983101
000320 b6 4c cb 3c ca 7c 2f 3d 23 4b b1 3d 98 f2 64 be
       0.024816852 0.042843617 0.08656909 -0.22358167
000330 0b b3 14 be db 35 59 be 19 a7 92 bd 8e bf fa bd
       -0.14521424 -0.2121195 -0.071607776 -0.122435674
000340 a1 3d 1c be 3b a3 d0 bd 28 07 54 be 1a e2 15 3e
       -0.15257885 -0.10187384 -0.20705855 0.14637032
000350 9a af 1f 3e 70 5c 4f 3e 97 0b 70 3e c5 52 da bd
       0.1559433 0.20250106 0.23441921 -0.10660318
000360 7a f0 03 3e 39 06 4c be dc fd 68 be 44 77 e8 3d
       0.12884703 -0.19924249 -0.2275309 0.11350873
000370 6b 50 24 be 45 6b b6 3d 49 ca 33 3e 58 23 92 be
       -0.16046302 0.08907179 0.17557634 -0.2854259
000380 0a 6b 5b be 0b 20 54 be 44 e5 78 3e fe 30 4a be
       -0.21427551 -0.20715348 0.24306208 -0.19745252
000390 f0 95 cf bd e1 29 52 3e 47 5c dc bd 2d 47 08 bd
       -0.1013602 0.20523788 -0.10759788 -0.033271004
0003a0 d8 39 55 3d ed b7 6e be ca 1d fe 3d 53 7c 81 be
       0.052057117 -0.2331235 0.124080256 -0.25290164
0003b0 f8 86 08 bd c3 75 82 be 0d 62 96 bd ae 6e 41 be
       -0.03333184 -0.2548047 -0.073429205 -0.18889877
0003c0 5a 68 85 3d 8d a8 08 bd 39 80 14 be f1 4f 6f 3e
       0.06514044 -0.033363868 -0.14502038 0.23370339
0003d0 8e 0a 9f be fe cb c1 3c 0b 81 21 bd 14 26 e9 3d
       -0.3106274 0.023656841 -0.039429706 0.11384216
0003e0 22 3a 28 3e 39 ae 84 be ad 83 8f bd 01 d5 2b 3e
       0.16428426 -0.2591417 -0.07007537 0.16780473
0003f0 cd 23 c5 bd b5 0b 3a bd 91 b8 56 be a6 be ab bc
       -0.09625969 -0.04542132 -0.20968844 -0.020964932

policy_fc2.bias f4 [32]
000000 e5 8a 1f bc 43 08 d3 3c b4 09 ce 3c eb ec 29 3d
       -0.009737705 0.025760775 0.025151111 0.04148571
000010 3c 39 30 3a ad 75 a7 3c c4 25 c9 bc 8b 17 48 3c
       0.0006722396 0.020441854 -0.02455414 0.012212644
000020 7a 52 75 3d b3 1c 2b bc d6 ad 2e 3c b8 d8 19 3c
       0.05989311 -0.010443854 0.010661563 0.009390049
000030 d8 0c 19 bc d0 a8 83 3c 3c 3b 99 bc 6d c4 5d bc
       -0.009341441 0.016071707 -0.018705003 -0.013535601
000040 f4 e9 2b 3c 94 3c 86 bc ca 8a 0b bb de 6d ab bc
       0.0104927905 -0.016386308 -0.0021292442 -0.020926412
000050 f5 cf a8 3b d9 4f d6 3c ac 85 02 bd 74 6c 51 3c
       0.0051517435 0.026161121 -0.03186576 0.012782205
000060 5f 11 4b bc 3e 68 6a 3a 6a 2a c8 3a 9d 18 c9 bb
       -0.012394278 0.0008941925 0.001527143 -0.0061369673
000070 2f 1e d1 3d 85 2a ad bc be a2 5a 3c 40 15 39 3d
       0.10210835 -0.021138439 0.013344465 0.04518628

policy_fc3.weight f4 [51, 32]
000000 e0 a8 02 be 61 0c a7 bc dd 00 47 bd ab ee b1 3e
       -0.12759733 -0.020391645 -0.048584808 0.34752402
000010 f7 2a e4 bd c6 bb ba 3e 59 d1 73 bd ea e6 b7 3d
       -0.111410074 0.36471385 -0.05952582 0.0897959
000020 66 84 ce 3e 6e 8a 21 3c 1d b5 0b 3e 04 a2 05 3e
       0.40335387 0.009859664 0.13643308 0.13050085
000030 c0 80 35 be 8f 6d 5d 3e 1c 81 d7 3d b9 29 fe 3d
       -0.17724895 0.21623825 0.105226725 0.12410302
000040 8b 65 62 3e 0b 67 12 3e cd 3a a7 bd 4f d5 88 be
       0.22109048 0.1429712 -0.08165512 -0.26725242
000050 42 c0 7d 3e 9a 4b 54 3e 73 fe da 3d 9f 00 8e 3e
       0.24780372 0.20731965 0.106930636 0.2773485
000060 5e 00 f3 3d 4d 25 9a be f2 ab dc bd f8 f0 57 3e
       0.118653044 -0.30106583 -0.107749835 0.21088016
000070 38 4b 4a be 7b e0 3c be af e2 c0 3c 2d 30 19 bd
       -0.19755256 -0.18445008 0.023545591 -0.03739946
000080 32 2f 4b 3e 98 3a 5d be 06 c3 08 3e eb 1a b1 3c
       0.19842222 -0.21604383 0.13355646 0.02161928
000090 e3 42 be bd e3 ab 4c 3d df 3c 60 bd 84 90 82 3d
       -0.092901014 0.04996861 -0.05474555 0.063752204
0000a0 04 bb 6f 3e 07 4d ca bd e6 fe 35 bb 25 da 45 be
       0.23411185 -0.09877973 -0.002777034 -0.19321497
0000b0 c2 a3 35 bd 7b c8 ee bd b2 4f 51 3e 84 ce 68 be
       -0.044345625 -0.11659332 0.20440558 -0.2273503
0000c0 55 fe 60 3d 64 47 40 be 92 ef dd bc 3c 37 3d bb
       0.05493005 -0.18777233 -0.027091775 -0.0028872034
0000d0 79 0a 47 3d af cb 46 3e ae e3 c6 bd a8 84 4d 3d
       0.048593972 0.19413637 -0.09711395 0.05017534
0000e0 70 aa 6b 3a 06 b0 94 be af 98 63 be 03 22 77 be
       0.0008989936 -0.29040545 -0.22226213 -0.24134068
0000f0 6c 8d 47 3e 61 d4 24 3c 7e 9a 63 3e 55 73 17 bb
       0.19487542 0.010060401 0.22226903 -0.0023109515
000100 2c 5e 3d 3e 30 fe 73 3e f0 21 fb 3d db 6a 19 3d
       0.18492955 0.23827434 0.122623324 0.03745542
000110 52 52 41 3e d4 e8 be 3c c0 9a e5 3b 7e 35 7a 3e
       0.18879059 0.02330438 0.007006973 0.24434468
000120 31 18 8a bd fa fe 05 3e aa 87 22 3d 90 77 49 be
       -0.067428954 0.13085547 0.03968016 -0.19674516
000130 06 ee 3f bc 92 11 8a 3e bc 27 1d 3e 0f d6 19 3e
       -0.011714464 0.2696653 0.15347189 0.15023063
000140 7b bc 44 3e 03 ca 66 3e 59 f8 04 3e 80 83 3e be
       0.19212525 0.22537999 0.12985362 -0.18604851
000150 c8 52 6b bd 69 89 d7 bd 3b ca 34 3e 9f 57 4f bd
       -0.057451993 -0.10524256 0.1765527 -0.05062067
000160 a5 67 31 3e 64 8c d0 bd 50 31 41 3e 07 d0 2f 3e
       0.17324694 -0.101830274 0.18866467 0.171692
000170 8e ee 7a 3e 94 52 27 be 40 81 97 3d 10 3f 0a bc
       0.24505064 -0.16340095 0.07397699 -0.008437887
000180 18 8e 9c be 57 5e af 3d 31 61 37 be c0 19 b7 3e
       -0.3057716 0.08562916 -0.1790817 0.35761833
000190 26 8c 8e 3e 01 34 31 be 1f 21 4a 3e a8 be 53 3e
       0.278413 -0.17304994 0.19739197 0.20678198
0001a0 64 e2 0d 3e 9f ec bd 3d 7c df c6 bd 9e 10 86 be
       0.13855892 0.092736475 -0.09710595 -0.26184553
0001b0 94 de d0 bd f6 aa 67 be ff 8c 93 3e 89 46 6a 3e
       -0.101987034 -0.2262381 0.2881851 0.2287847
0001c0 8a b2 74 3d 6b 60 72 bc a6 c4 28 3e c3 c1 c8 bd
       0.05974058 -0.014793496 0.16481265 -0.09802582
0001d0 4f 68 ae 3d 21 77 f7 bd ba 33 22 be 7d 85 f7 3d
       0.08515989 -0.12083269 -0.15840045 0.12086008
0001e0 64 4e b0 bd 8f 10 78 be d4 c1 1d be 37 ba d6 3d
       -0.08608702 -0.24225067 -0.15405971 0.104847364
0001f0 06 f6 db 3b 88 cb 57 3e df 45 80 3d cb b4 ad bd
       0.006712678 0.21073735 0.06263327 -0.08481749
000200 62 01 ab 3d 9d ee fc 3d dd 82 41 3c fd ad 12 be
       0.08349873 0.12350199 0.011810985 -0.14324184
000210 ed e7 c8 3e cc dc b2 bd 76 03 00 3e 30 4f 8c 3d
       0.39239445 -0.0873352 0.1250132 0.06851041
000220 77 be 47 3e 7c ea 1c 3e f5 65 78 be 8c 3c 69 3d
       0.1950625 0.15323824 -0.24257644 0.056942508
000230 7a 4b df bd 0d 13 49 be e8 a0 31 be e7 d0 c4 bb
       -0.10903068 -0.19636174 -0.17346537 -0.0060063484
000240 c6 35 34 bc 7c 95 33 be d5 56 08 be e3 73 1c 3e
       -0.010999149 -0.17537493 -0.13314374 0.15278582
000250 6e a1 8f bd 90 12 02 be de 3c 38 be 2b 4d 6f bd
       -0.07013212 -0.12702394 -0.17991969 -0.058423202
000260 cf dc 1e 3d 79 98 89 3d 82 78 4e 3e 5e 56 cd 3d
       0.0387848 0.06718535 0.20163158 0.10026239
000270 f3 ed 2b bc f3 84 1a 3d bf b2 3c be fd 14 25 be
       -0.010493743 0.037724447 -0.18427561 -0.16121288
000280 1f 21 61 be 98 1b a2 be 7d 8c 8a 3d 6d 15 c5 3e
       -0.21985291 -0.31661677 0.06765077 0.3849291
000290 9b 22 70 3e df 44 8c 3e 29 fc 1f 3e d6 c0 26 be
       0.23450701 0.27396294 0.15623535 -0.16284499
0002a0 c0 d9 3e 3b 8a 99 2a 3e d6 55 a3 be 6e e7 20 be
       0.0029121488 0.16660133 -0.31901425 -0.15713283
0002b0 ea ff 99 3d 71 98 8b 3e 4e 0d 96 3e b9 c0 0a bb
       0.07519515 0.2726474 0.29307026 -0.0021172
0002c0 d8 ee 6b be af e1 02 be 24 7e 13 3e f8 0c 40 3e
       -0.2304033 -0.12781404 0.14403588 0.18754947
0002d0 0b b5 1b 3e e9 c9 0b be 8b 92 6d bd 28 46 32 be
       0.15205781 -0.13651241 -0.058001082 -0.17409575
0002e0 48 89 51 3e d5 82 86 be 1b 8e 89 3d 3f f5 1b 3d
       0.20462525 -0.26271692 0.067165576 0.03807568
0002f0 15 95 96 bc 01 c2 93 3e e1 9e 16 3e a3 53 71 be
       -0.018381635 0.2885895 0.14709045 -0.23567061
000300 78 06 8b 3d a7 de df bc c3 de 8d bd 23 5a f4 3c
       0.06788343 -0.027327849 -0.06927254 0.029828137
000310 6f 7a 3b be 74 cc f5 bd a4 bb e3 bd 5c bc 24 3d
       -0.18308423 -0.12001887 -0.11119774 0.040218696
000320 aa 82 0b be ba 5a d3 bd a2 03 12 be 7e b3 0b 3e
       -0.13624063 -0.10320039 -0.14259198 0.1364269
000330 fa c8 6b bd c3 e6 5c 3e de f4 4f bd e3 bc e1 ba
       -0.057564713 0.21572404 -0.050770633 -0.001722243
000340 71 2d e7 bc 09 64 65 be f0 29 de 3d f0 f9 44 3e
       -0.02821991 -0.22401442 0.10847843 0.19235969
000350 62 1e 01 3e 2e a7 89 be 37 db 66 be 0d d3 0c 3d
       0.12609246 -0.2688536 -0.22544561 0.03438096
000360 4b 4b 05 bd a2 91 34 be c7 7b 33 be 48 68 52 be
       -0.032542508 -0.1763368 -0.17527686 -0.20547593
000370 14 ce 5f 3e 7b a6 93 3d 92 a1 38 bd 21 72 0b 3e
       0.21855956 0.07209488 -0.04507596 0.13617755
000380 df 4a 53 3e 9c c0 5f 3e e6 31 44 3c df 02 f2 3d
       0.2063403 0.21850818 0.011974787 0.11816954
000390 ca a5 c5 3d eb 95 ae 3d fd ef a5 bd 80 f9 e2 3d
       0.096507624 0.08524688 -0.08102415 0.110827446
0003a0 9f 59 1c be 08 81 77 bc 09 e7 16 3e a6 d0 d8 3d
       -0.15268563 -0.015106447 0.1473657 0.105866715
0003b0 7c b6 bd bd f1 28 f8 bc d3 4b a9 bd ce f1 20 be
       -0.09263322 -0.03029296 -0.082664154 -0.15717241
0003c0 66 59 3a be ce 6f 21 3d 0c 2a 93 bd 21 03 31 3d
       -0.18198165 0.039413266 -0.07185754 0.043215875
0003d0 62 b8 93 3d 22 13 de bd f0 58 98 bd ee 18 86 3d
       0.072129026 -0.10843493 -0.074388385 0.06547724
0003e0 da e1 0d bd db e2 ab bc ce 98 0f 3e 21 7d fc bd
       -0.034639217 -0.020982197 0.14023134 -0.12328554
0003f0 99 b0 64 3e a6 66 30 3e 30 1e 46 3e 6d a0 0e 3e
       0.22332992 0.17226657 0.19347453 0.13928385

policy_fc3.bias f4 [51]
000000 e9 06 1d 3d 1b 63 13 3d a5 4b 28 3d d6 f7 0b 3c
       0.03833667 0.035983186 0.041087765 0.008542975
000010 64 80 20 3d c3 44 23 bd 10 e3 ed 3b 9d 60 ec 3c
       0.039184943 -0.0398605 0.007259734 0.028854663
000020 6b b0 00 3d 23 b7 2a bd 09 f0 bf 3c 89 2d 97 bc
       0.031418245 -0.04167856 0.023429887 -0.01845433
000030 9b 0f 5f 3d 6d c0 15 bb ac 4d 52 bd 7f be 94 3c
       0.054458242 -0.002285029 -0.051343605 0.018157242
000040 d0 06 51 bb f1 15 47 bd e5 bf 8d 3c 3c a9 54 3d
       -0.003189493 -0.04860491 0.017303417 0.051919207
000050 a0 08 30 bc 17 fa fb 3c 0b ab 6f ba 73 45 93 3c
       -0.010744244 0.0307589 -0.0009142614 0.017977452
000060 e5 2b 81 bc 91 c4 2a 3c c0 65 35 3d 42 2c f6 b9
       -0.015768 0.010422842 0.04428649 -0.0004695375
000070 f5 54 89 3b 16 45 34 3d 73 89 c1 3b 45 67 49 bd
       0.004191036 0.044011198 0.005906278 -0.04917075
000080 0e 45 03 3c bc 23 00 bc 9b 4d 1d bc 39 ff 00 bd
       0.008012069 -0.00782102 -0.009601022 -0.0314934
000090 66 30 7e 3d 37 6e ed 3c 56 74 26 bd 7c 8b 7d bd
       0.062057875 0.028983219 -0.04063829 -0.0619006
0000a0 c2 e6 b5 bc de 5c 00 3d c0 29 4f b5 9d ba 60 3a
       -0.02220476 0.031338565 -7.7174263e-07 0.00085727294
0000b0 d3 99 00 bd 36 f3 4b 3c de d2 57 3c 03 a3 28 3b
       -0.0313967 0.012448123 0.013172833 0.0025731928
0000c0 d2 ea be bc 71 8e ee 3b e1 9d 2f 3c
       -0.02330533 0.007280164 0.010718794

value_fc1.weight f4 [64, 261]
000000 c6 f3 a4 3c 60 f0 92 bb 04 5a b0 bd 8a c5 fd 3d
       0.020135771 -0.0044842213 -0.08610919 0.12391193
000010 ca a2 97 3c 69 8e b1 3c 51 11 0b 3d c6 17 d9 3d
       0.018510241 0.021674352 0.03395206 0.106002375
000020 fb cd 9c 3d 1b e6 67 3b fb 8f 1e 3e c1 75 ab bd
       0.07656475 0.0035384956 0.15484612 -0.08372069
000030 a0 68 6d 3d 2e 9f 28 bc 6b e6 f8 3d 53 64 07 bc
       0.057961106 -0.010291858 0.12153324 -0.008263665
000040 c0 92 5c 3d 4f c6 eb bd f8 9a d2 3d 73 b5 ef bd
       0.05385089 -0.11512434 0.10283464 -0.117045306
000050 56 37 72 bc 63 b9 96 bd 85 cc df b9 af e4 bf bd
       -0.014783701 -0.073595785 -0.00042686253 -0.0936979
000060 b6 5f f3 3d 32 39 48 bd cc 4b c2 3d 5d 40 bb 3d
       0.1188349 -0.04888267 0.09487113 0.09143136
000070 0a 9a 18 bd ae 0c f1 bd 2b 1e e1 bd 53 31 db 3d
       -0.037256278 -0.117699966 -0.10992082 0.10702767
000080 ea 95 7f 3d ac 34 8b bd 54 22 1b 3e ac 85 bc 3d
       0.06239883 -0.06797156 0.15149814 0.092051834
000090 db 1e 16 bc 54 a2 2e bc be 60 e2 3d 67 ca 98 3d
       -0.00916263 -0.010658819 0.11053608 0.0746048
0000a0 40 a4 15 be 45 18 99 bd 62 0f e8 3d ca 67 a0 bd
       -0.14613438 -0.07475332 0.11331059 -0.07832296
0000b0 50 93 e2 bd 90 a4 93 3d a9 20 b9 3c 5a 52 1d bd
       -0.11063254 0.07209122 0.022598581 -0.038408615
0000c0 90 9b c2 bc 77 d6 1b 3e 38 2d 16 3d bd fc 1f bd
       -0.023755819 0.1521853 0.036664218 -0.03905939
0000d0 84 f3 d0 39 5d be b0 bd 40 03 64 bc 06 f8 ea 3d
       0.00039854285 -0.08630059 -0.0139167905 0.11473088
0000e0 03 d4 05 bd 0d 23 f7 bb de bd e9 3d 7f 21 3e bd
       -0.032672893 -0.00754202 0.114131674 -0.046418663
0000f0 b0 80 de 3d c6 8a c1 bd 14 31 ad 3d f4 a5 6d 3d
       0.10864389 -0.09450297 0.084566265 0.058019593
000100 34 c0 2a bd 77 ed c2 3d 66 3e 4b 3e bd ea 77 bd
       -0.041687205 0.09517949 0.19848022 -0.0605266
000110 62 60 03 be fb 67 03 3b 78 49 bf 3d c7 90 f5 bd
       -0.12829736 0.002005099 0.09340185 -0.11990505
000120 62 ca 46 bc e6 9f 87 bc fa f6 a5 bc 12 28 6b 3d
       -0.012133213 -0.016555738 -0.02025937 0.05741126
000130 23 89 0a be 5b 5a d4 bc 44 fe 64 3c de 74 8a 3d
       -0.13528876 -0.025921991 0.013976637 0.06760572
000140 00 23 9e bd 6f 18 62 bd 48 e9 e9 3d 02 6f a3 bd
       -0.077215195 -0.055199083 0.11421448 -0.079801574
000150 37 1b 66 be 2c fc 4e 3d 3b 79 3a 3d a1 ac 6b 3d
       -0.22471319 0.05053346 0.04552577 0.05753768
000160 b5 f5 00 be ca 36 8a bd 3d 3b f3 bd ef 41 d5 3d
       -0.1259373 -0.067487314 -0.11876533 0.104129665
000170 f4 2b 6d 3d a2 a4 09 bd 0e 61 ee bc ed a1 77 3d
       0.057903245 -0.03360427 -0.029099014 0.06045716
000180 e6 28 87 3c 75 ba d1 3c b1 14 09 3d 29 cd 87 ba
       0.016498994 0.025601605 0.033467 -0.0010360825
000190 38 b6 09 be 6a 16 03 be 91 a3 ac bd b4 c2 02 3e
       -0.13448417 -0.12801519 -0.08429635 0.12769586
0001a0 08 0f 53 3d e4 46 b9 3d 46 38 c5 bd 89 84 11 3e
       0.051528007 0.090467244 -0.09629874 0.14210714
0001b0 af 52 06 be a7 e8 5d bc e2 6f aa 3d 7b 82 63 3d
       -0.13117479 -0.013544238 0.08322121 0.055544358
0001c0 25 1f 98 3d 64 4b 2f 3e 0c c5 31 be f0 b9 01 3e
       0.07427815 0.17118603 -0.17360324 0.12668586
0001d0 b4 0a 47 bb 04 33 17 bd 6a 89 02 be 6e c2 6a bd
       -0.003037137 -0.036913887 -0.12747732 -0.05731433
0001e0 3e d3 ed bc 22 26 34 bc 9e a0 f9 bd 66 da 00 3e
       -0.029031392 -0.01099542 -0.121888384 0.12583312
0001f0 77 a7 82 3c 10 03 b4 3d 3c 32 8e 3c c9 61 58 3d
       0.015948994 0.087896466 0.017357938 0.05282763
000200 4c 17 01 be 6c 57 9f 3c aa 2e be 3d 42 ed b3 3c
       -0.12606543 0.019450866 0.09286244 0.02196372
000210 fd 04 8b 3c 17 3d cc 3d 4b 87 c0 bc 7a 3c 68 bd
       0.016970152 0.099725895 -0.023502013 -0.0566983
000220 f6 8f e2 3c ec f6 24 bd 9d 20 f2 3c 08 57 97 bd
       0.027656537 -0.040274546 0.029556567 -0.07389647
000230 5e 52 10 3e 85 3d a0 bd 94 34 0f bd 02 5f 4e be
       0.1409392 -0.07824234 -0.03496225 -0.2015343
000240 5c 3b 84 3d 99 fb 60 3d f8 ea 80 bd 3f 0c 7f bd
       0.064566344 0.054927442 -0.06294817 -0.06226754
000250 bf 37 f8 3d 6e 3a 85 3d e1 ac 81 be 20 b6 7f 3b
       0.12120008 0.06505285 -0.2532721 0.0039018467
000260 cf 8b 52 3d 8e 1d 95 be de 66 ec bd 3e 25 27 3e
       0.051402863 -0.2912411 -0.11543058 0.163228
000270 a6 6a fa bd 21 82 3e bd 3b 8a 33 bd 4c 3f 5a be
       -0.12227373 -0.04651082 -0.043833 -0.21313208
000280 df 0c 0c 3d f6 6d 1e bd e7 d9 ff bd bd ce 6c bd
       0.034191962 -0.038679086 -0.124927334 -0.05781435
000290 65 40 37 be 33 84 68 be 83 cd d2 3d 0b f5 0f be
       -0.17895658 -0.2270668 0.102931045 -0.1405832
0002a0 4c 60 05 3e 27 fa 8b bc eb 54 46 3d ca c9 00 3e
       0.13025016 -0.017087055 0.048420828 0.12576976
0002b0 8a 3e 3b bd 70 80 c7 bd e4 ce 94 3d 0d 40 69 bd
       -0.04571394 -0.097412944 0.07266024 -0.05694585
0002c0 fa 48 be bd 4f e2 84 3d 09 36 da bd 52 1e 11 bd
       -0.09291263 0.064884774 -0.10654838 -0.035429306
0002d0 e3 7b e5 bc 37 6b 0e 3e c1 b7 ab 3b e8 15 1e 3e
       -0.028013175 0.13908087 0.005240411 0.15438044
0002e0 c5 97 fc bd 0b ce 62 bd 59 b5 c5 3d 81 b3 b6 3d
       -0.12333635 -0.05537228 0.0965373 0.089209564
0002f0 d6 d3 1a 3e 7f 91 cf 3c 0b 4a 90 bd 7c ba 93 bd
       0.15119871 0.025337933 -0.070453726 -0.072133034
000300 d6 25 5d bd 2d 8a ca bc 1c 68 0d 3e 1d 74 22 3d
       -0.05399116 -0.02472409 0.13809246 0.039661516
000310 fe 00 e1 3c 5c d9 ba bd 77 50 15 3e 1d df d5 bd
       0.027466293 -0.09123489 0.14581476 -0.10442946
000320 84 3e 11 3e 24 51 39 3d 3d 3f eb bd c4 a6 b5 bc
       0.14184004 0.045243397 -0.11486671 -0.022174247
000330 73 2b 7e 3d 51 78 f0 3d 1b a6 4d 3d 94 7e 14 be
       0.062053155 0.117416985 0.05020724 -0.1450141
000340 95 78 a4 3d b3 18 e8 3c 39 a0 55 3d 28 bc 78 3d
       0.08030812 0.02833209 0.052154753 0.060726315
000350 aa a1 6f 3c 4f 40 fe 3c 3f ba a3 3d 20 4d 65 3d
       0.014625946 0.031036524 0.07994508 0.055981755
000360 95 cc 05 3d f3 22 ff bd 85 b4 9d ba af f5 e2 bd
       0.032665808 -0.12457838 -0.0012031948 -0.11082017
000370 1d 7b 11 3d 78 2a 9e bd ac 5f 59 3d 9a 30 82 bd
       0.0355178 -0.07722944 0.053069755 -0.06356926
000380 3b ac 01 3e 5d 07 d4 bd b2 0f 7c 3b 8f 8c 78 3c
       0.12663357 -0.10352967 0.0038461504 0.0151702305
000390 53 71 85 3d 35 ad 4d be e0 c0 99 3d 46 42 b1 bd
       0.065157555 -0.20085604 0.07507491 -0.08655219
0003a0 f2 95 f0 bd a7 d8 3e 3d 72 e8 84 bd e8 8e c2 3c
       -0.1174735 0.046593335 -0.06489648 0.023749784
0003b0 89 85 87 3d 08 6c 93 bd ac b3 72 bd 66 ae ee bd
       0.06617267 -0.0719834 -0.05925338 -0.116543576
0003c0 d5 85 ee 3c 59 a1 0a be bf cb b1 bc 67 7e 96 3d
       0.02911655 -0.13538112 -0.021703599 0.07348328
0003d0 84 3e 82 bd fe c0 88 bd 01 96 c5 bc 2d 21 92 bd
       -0.0635958 -0.06677435 -0.024119379 -0.07135234
0003e0 ce 77 3a bd ab 2e d8 3d 91 84 0b be c5 b0 84 bd
       -0.04552441 0.10555776 -0.13624789 -0.064790286
0003f0 01 2e 89 bd fc 9b 44 3d d9 84 01 3d 15 fb a8 bd
       -0.06698228 0.04800032 0.031620834 -0.08251015

value_fc1.bias f4 [64]
000000 1d 6f 1f 3c bb 90 5d 3c 2b cd f8 bc 39 00 bf 3b
       0.009731081 0.013523276 -0.03037127 0.005828884
000010 f7 30 2f 3c 3b 93 0a 3c 0f 8b 54 3d f3 30 ef bb
       0.0106928265 0.008457954 0.05189043 -0.0072995364
000020 46 a4 f7 3c 12 4c 7c 3c 8a 4f 96 3b 89 f8 b4 3c
       0.030229699 0.015398996 0.0045871185 0.022091167
000030 ed ec 05 3d e1 8f 1f 3c 7a c6 77 bb 54 bb 99 3c
       0.032696653 0.009738893 -0.003780751 0.018766083
000040 81 70 0f bb a3 34 01 bd 1e 21 ab bc e2 04 ca bc
       -0.0021887126 -0.03154434 -0.020889815 -0.024660531
000050 fd be 32 bc dd 13 33 3c f3 29 6a bb 2d 24 d9 3c
       -0.010909793 0.010930029 -0.003573057 0.026506508
000060 fe bc 2b 39 85 9e f1 3b d2 28 2d bc 36 9c 8f 3a
       0.00016378236 0.0073736333 -0.010568814 0.0010956589
000070 0c e5 b3 b9 71 1f 77 bc 8b 72 c5 3c a2 e6 85 bc
       -0.00034312194 -0.01508318 0.02410247 -0.016345326
000080 2e b7 fa 3c fe d4 a7 3b 1c ff 56 bb 43 9a 87 3b
       0.030604925 0.005121826 -0.0032805866 0.0041382625
000090 52 c3 cb 3c 61 66 07 bc 7f 70 83 bc 67 c1 87 3b
       0.02487341 -0.008264155 -0.016044853 0.0041429284
0000a0 5f 83 98 3c 23 58 86 3b 8b 1b 92 bc 45 3d f5 3c
       0.01861733 0.004099862 -0.0178354 0.029936442
0000b0 65 6f c6 3c c7 10 0d 3d b0 48 24 bb 7d db 15 3d
       0.024223039 0.03443983 -0.002506774 0.036586273
0000c0 1c 7a fc 3b cd ba d0 3c ac 48 ed 3c de b4 08 3b
       0.0077049863 0.025479699 0.028965317 0.0020859758
0000d0 2c 3e 44 3c d6 43 ee 3c f8 57 d0 ba 1c 6a 19 bc
       0.011977714 0.029085081 -0.0015895357 -0.009363677
0000e0 63 08 f1 3b f2 4f e5 3b 45 fc 8b bc 59 ea b3 3c
       0.007355736 0.0069980556 -0.017088065 0.021962332
0000f0 bc f0 22 3c af 5a 84 3c 24 5d 63 3b ec 00 c9 bc
       0.009945091 0.016156523 0.0034692967 -0.024536572

value_fc2.weight f4 [32, 64]
000000 26 f6 cc be 32 d1 07 be 0b df 94 be be e2 59 bd
       -0.40031546 -0.13263395 -0.29076418 -0.053194754
000010 74 4d a9 be 48 a9 01 3c 1c 70 1e bd bd 3c 93 be
       -0.33066905 0.007913895 -0.038681135 -0.28757277
000020 86 00 93 3e e8 ee 8b be 76 23 32 bc b0 4e b3 bd
       0.28711337 -0.27330709 -0.010872712 -0.08755243
000030 a1 38 75 bd 4c bb 17 bf 81 e3 91 be b4 7b 51 3e
       -0.05986846 -0.5927017 -0.28493884 0.20457345
000040 4c db 16 be 0c b3 aa 3d 64 c6 e8 bd 70 0e 1e 3e
       -0.14732093 0.08334932 -0.11365965 0.15435195
000050 23 22 ae bd ba 47 52 3e 59 52 9d be 4f e1 0d bf
       -0.08502605 0.20535174 -0.3072689 -0.5542192
000060 09 c1 d1 3d 80 30 e1 bd 70 c7 b6 3d 20 fb e3 be
       0.10241897 -0.10995579 0.089247584 -0.4452753
000070 33 8c a3 be 8e 35 97 bd c9 1b 84 3e 2a 6f 62 be
       -0.319429 -0.073832616 0.25802448 -0.22112718
000080 cb 97 f4 be 51 07 69 be 6f 8c 03 be 62 ac 30 3e
       -0.4777206 -0.22756697 -0.1284654 0.17253259
000090 13 05 9f be 9f 28 c4 bd d3 24 ad bd 97 95 f0 3d
       -0.3105856 -0.0957806 -0.08454289 0.11747282
0000a0 e7 d2 96 be e8 2d 06 bf 7a 43 ac 3e c9 2d b6 3d
       -0.2945778 -0.524138 0.3364523 0.088954516
0000b0 83 5b cc 3d 84 1b 65 be 81 c1 76 3d aa 06 c1 be
       0.09978392 -0.22373778 0.060243133 -0.37700397
0000c0 01 65 e6 be 1e df e8 3d f6 c4 7d 3e 18 18 1c 3e
       -0.44998935 0.11370681 0.24782166 0.15243566
0000d0 03 ec 38 bd 27 b0 00 bf 83 42 8b be 5f ba 0b 3e
       -0.045146953 -0.5026879 -0.27199182 0.13645314
0000e0 06 e3 7e be 66 fc 3a be b8 17 d3 bd 65 b5 85 be
       -0.2489129 -0.18260345 -0.10307258 -0.26114956
0000f0 33 16 21 be c4 3a 67 3e d4 cc b4 be a6 76 86 3b
       -0.15731125 0.22581011 -0.3531252 0.0041034995
000100 45 0c d1 bd 2b ea 85 3d be 57 15 bd d4 6d 19 3e
       -0.10207418 0.065388046 -0.03646063 0.14983302
000110 c3 90 a4 bd aa 70 3a ba 8c cd 3f be f9 bd 3f be
       -0.080354236 -0.0007112125 -0.18730754 -0.18724813
000120 4f 09 c2 bc 37 f0 02 be fb b7 05 be 44 2e 3c 3e
       -0.02368608 -0.12786947 -0.13058464 0.18377024
000130 ae f8 28 3e 01 e8 fd 3c f3 ec 2f 3e a0 3c af bd
       0.16501114 0.030994417 0.17180233 -0.08556485
000140 87 59 7b 3e 6c 6b 0e be e0 28 73 bd 45 f8 e5 bc
       0.2454587 -0.13908166 -0.059365153 -0.028072486
000150 d6 e8 e8 3c 12 f8 2a bd a4 ab 83 3d ec 0b eb 3d
       0.028431337 -0.041740485 0.06429222 0.11476883
000160 e5 72 91 3c b5 66 95 bd 04 7e ae bd b3 be 07 be
       0.017754981 -0.072949804 -0.08520129 -0.1325634
000170 31 d8 9a 3e fb 4d c1 bd 78 4c 87 3d 0b 62 8f bd
       0.30243066 -0.09438702 0.06606382 -0.07001122
000180 10 56 0a 3e ff 29 3e 3e eb 1d 08 3e 5e 1b d6 3c
       0.13509393 0.18570708 0.13292663 0.026136097
000190 71 3c 59 3e 29 f1 e1 3d 42 b7 57 3d 2c 6d 05 3e
       0.21214463 0.11032326 0.052665003 0.13029927
0001a0 04 94 7d bc a3 93 ac 3c e6 89 b0 bc 74 ae 07 3c
       -0.015477184 0.021066492 -0.02155013 0.008281339
0001b0 a9 95 78 be 87 a9 83 bc 4c 24 da 3b 99 0d 97 3d
       -0.24275841 -0.016072048 0.006657159 0.073756404
0001c0 59 98 d8 bd 6a 23 65 be 55 a6 24 bb 56 4c 65 3e
       -0.10575933 -0.2237679 -0.0025123556 0.22392401
0001d0 ef 48 9d bd 5f 72 87 3e 50 b0 f4 bc 4b b7 0a bb
       -0.076799266 0.26454446 -0.029869229 -0.002116638
0001e0 38 db a4 bc 1e 92 eb bb c9 6f 5e 3d 5f 70 f8 bd
       -0.020124063 -0.0071890494 0.054305825 -0.12130808
0001f0 78 f3 c5 3d 8e 3b e9 3d cf ad 81 bc a2 70 09 3e
       0.096655786 0.11388312 -0.015829949 0.13421872
000200 44 9c e5 3d cb 2b 6b 3e dd 7a 48 be 98 13 8f 3c
       0.11211446 0.22965924 -0.19578119 0.017465398
000210 b5 83 ee bc b9 9b 6d 3e 04 e8 da 3c 20 2b 00 be
       -0.029115537 0.23203935 0.026721962 -0.12516451
000220 bf 91 9b bb 2c e5 8a bc 73 51 b5 3d 0d 51 20 be
       -0.004747599 -0.01695498 0.08853426 -0.15655918
000230 3d b3 a6 be ee ff 11 3e 99 aa 9b bd 67 1c 52 be
       -0.32558623 0.14257786 -0.07600898 -0.20518647
000240 f1 00 fb 3d 87 6c 0e be 00 93 91 3d 74 2c 3a 3e
       0.12256039 -0.13908587 0.07108116 0.1818102
000250 e0 2c 95 bd 5c 16 8f 3e d3 43 66 3e e0 73 88 bd
       -0.0728395 0.27946746 0.2248681 -0.066627264
000260 3a fd 0c 3e 7f a6 61 3e c4 79 3c 3d 13 bb 02 3e
       0.13768473 0.2203617 0.046014562 0.12766676
000270 ad 91 1c 3d 42 80 41 3e 08 71 04 bd a6 49 4d bd
       0.038224865 0.18896583 -0.032334358 -0.050119065
000280 0a e6 80 3b de 84 ca 3b 8a 83 87 be d2 9e bd 3d
       0.003933673 0.00618039 -0.26467544 0.09258808
000290 8b e8 09 3d 84 31 24 be c1 e8 21 be 0f fa ff 3c
       0.033669036 -0.16034514 -0.15811445 0.031247167
0002a0 c8 a7 2a be 3b c6 88 bd 28 4f 30 3d e9 0f 3c be
       -0.16665566 -0.066784345 0.04304424 -0.18365444
0002b0 3a cf 01 be 7e 6a 5a be 27 7a 06 be 92 cd 42 bd
       -0.12676707 -0.21329686 -0.13132535 -0.04755933
0002c0 fc 35 e5 3d c7 42 ba 3c 74 7e d2 bd 83 66 84 3e
       0.11191937 0.02273692 -0.10278025 0.2585946
0002d0 79 f6 58 3d 72 16 ec bd e7 2d 7c 3d 7b 4e d1 bd
       0.05296943 -0.115277186 0.061567213 -0.10220047
0002e0 8a ca 26 bd df db c1 3d a6 e4 aa 3d 47 f4 27 3e
       -0.0407205 0.09465765 0.083443925 0.16401778
0002f0 6c 54 5e bd 5f 9e c7 3d 7b 4c 34 be cb e8 b1 bc
       -0.05427973 0.09747004 -0.176073 -0.02171745
000300 a2 81 38 be 6f ca 87 bc 97 98 3f bb 88 17 27 3c
       -0.18018201 -0.01657602 -0.0029235238 0.010198481
000310 37 20 18 3e 3e 6b 06 3e 84 53 3c 3e 19 3e 0f 3e
       0.14856039 0.13126847 0.18391234 0.13988532
000320 2a a2 47 3e c7 ac 6c be 37 6a 27 be 5a e3 07 3e
       0.19495454 -0.23112784 -0.16349111 0.13270321
000330 98 2e 5c be d5 c1 27 be 29 ff 12 bd 04 bc 14 bd
       -0.21502149 -0.16382535 -0.03588787 -0.03631212
000340 81 af 44 3e b7 ab 6d be 91 e8 95 be 4e 2c 63 be
       0.19207574 -0.23210035 -0.29278997 -0.2218487
000350 5f c9 ab 3d f4 9d 67 3e 7c 8d 5f bd c8 ad 37 3d
       0.08388018 0.22618848 -0.05457829 0.044843465
000360 c9 56 e8 bd 68 fb e8 bd ee 2c d0 3c 04 90 26 3e
       -0.11344678 -0.11376077 0.02541205 0.16265875
000370 dd 5c 80 be 6d 60 85 be c3 34 88 3d b6 f0 bd 3d
       -0.2507085 -0.2605013 0.066506885 0.092744276
000380 5e 02 b6 bd bc 20 89 be 3c e0 5d be 64 b9 03 bd
       -0.0888717 -0.26782787 -0.2166757 -0.032159224
000390 c8 e3 10 bd 91 b4 40 3e 5d bf 2d bd 45 cc 9d bd
       -0.03537348 0.1881888 -0.042418826 -0.07704977
0003a0 8d ef 96 3d 08 36 92 bc b6 9d 8f bd 06 a9 2f 3e
       0.073699094 -0.01784803 -0.07012503 0.17154321
0003b0 46 19 45 be 43 f6 44 be a3 2e 82 be 4d 80 54 be
       -0.19247922 -0.19234566 -0.25426206 -0.20752068
0003c0 a6 7c c6 bd 56 1b 4d 3e fb 85 38 bc 87 38 08 be
       -0.096917436 0.20029959 -0.011262412 -0.13302813
0003d0 59 73 e4 3d db 9b 67 be 2e b8 84 3c 14 d4 08 3e
       0.11154813 -0.22618048 0.016201105 0.13362151
0003e0 92 f3 13 bd ef bc 50 be bd be 22 3e 66 a3 25 bd
       -0.03612096 -0.20384572 0.15893073 -0.040439032
0003f0 d8 ec 5c 3e 05 ee 71 bd b1 61 12 3e c4 b7 0b be
       0.21574724 -0.059064884 0.14295079 -0.1364432

value_fc2.bias f4 [32]
000000 ce 18 ee bc 17 d4 bf 3c f5 a3 3b 3d 91 37 53 bc
       -0.029064562 0.023416562 0.04581066 -0.012891666
000010 3c ed 26 3d a2 8d de 3c 17 ff a3 3d bb 2e c6 bc
       0.040753588 0.027167145 0.08007639 -0.024192205
000020 8d 0e fe 3d 10 18 8d bb 77 bc 57 3c 7d 2f 38 3d
       0.12405119 -0.004305847 0.013167492 0.044967163
000030 46 82 a9 3c 48 21 34 ba b9 bd 01 bd 27 d1 36 bb
       0.020692002 -0.00068714144 -0.031675074 -0.002789566
000040 82 c4 dd bc be a9 4c 3c 9b 15 64 3b 11 91 a4 bb
       -0.027071241 0.012491642 0.0034802917 -0.005022176
000050 7d 93 37 ba 9d 94 2c bc 62 ff c7 bc f3 d7 80 3b
       -0.00070028735 -0.010533479 -0.024413768 0.003931993
000060 0e ad 4e 39 9b c7 d3 3d a4 24 57 3d e1 5f 7c 3d
       0.00019710159 0.10340806 0.052525178 0.061614875
000070 44 65 85 3b 9d e8 89 3b 3f 5a be bb ef ae 68 3c
       0.0040709097 0.004208638 -0.005809098 0.014201864

value_fc3.weight f4 [1, 32]
000000 8b 27 45 3f 3d 07 34 3e d5 33 0c be f1 b6 84 be
       0.7701346 0.17580886 -0.13691647 -0.25920823
000010 61 6d 1a 3f 74 be a2 3e ab 56 cd 3d 6a 1d 1e bd
       0.6032315 0.3178593 0.10026296 -0.03860227
000020 7d e3 b5 3d 8d cb 7a be 82 56 6c be 11 c9 4b 3c
       0.088812806 -0.24491711 -0.23079875 0.012438075
000030 29 43 00 3f 00 9f 09 bf 06 8c a2 bd 21 f8 67 be
       0.5010248 -0.5375824 -0.079368636 -0.22653247
000040 68 94 87 bc 15 37 51 3f 6c dc 31 3f 59 76 59 be
       -0.016550258 0.81724674 0.6947696 -0.21236552
000050 e1 90 3f 3d 70 71 10 3e 09 1d 8b be 83 6e 91 bd
       0.046769027 0.14105773 -0.2717059 -0.071011566
000060 0a 8d 2a 3f 86 c2 8f 3d ce bd 26 3e 57 93 9a 3e
       0.6662146 0.07019524 0.16283342 0.30190536
000070 3f 92 ba be bb d2 25 be 9a ba 24 3e 8c 1f 46 3f
       -0.36439702 -0.16193669 0.16086808 0.77391887
