rl/spin_model_11292127/21.pt (torch_old, 159601 bytes, 12 tensors)

log_std f4 [51]
00000000: a486 5fbd e045 5a3c 5fea 013d 840d ca3d
00000010: 2339 a73d 6457 de3b cc55 e03d 2ef1 8c3d
00000020: 9f42 ff3d 268f 343d 58e3 5f3d 3718 0a3e
00000030: e1b4 913c 44f5 803d c38f d53d 1204 823d
00000040: a8c5 073e ab0e 223e 79da 2e3e 6fdb 1d3d
00000050: 49b7 d23d 506c 3dbc cbf8 103e 5625 143d
00000060: 7706 cc3d 0774 813d 1082 de3d 927d d23d
00000070: cc25 c73d 1765 8e3d 436e d23d 264d e73d
00000080: f848 093e e3de 0e3d e0c3 e93d 0fb9 0d3e
00000090: 3425 cc3d 56c7 2b3d f8bc 593d fc6a 533d
000000a0: 06eb d13d 2750 c23d 98b0 fd3d af06 1c3d
000000b0: 8fdf af3d 3844 53bd b63e 8a3d 4884 0c3e
000000c0: 6695 0a3e 8a1d 9e3d aba2 df3d
-0.054571763 0.013322324 0.031717654 0.09865859 0.08165195 0.00678532 0.109538645 0.06881939
0.12463879 0.04408183 0.05466017 0.134858 0.017786445 0.06296781 0.10427811 0.063484326
0.13258994 0.15825908 0.17075528 0.038539346 0.10288865 -0.011561468 0.14157407 0.03616842
0.099621706 0.063209586 0.10864651 0.10277857 0.09724006 0.06952875 0.10274937 0.11294012
0.13406742 0.03488053 0.11414313 0.13840126 0.099680334 0.04193815 0.05315873 0.0516157
0.10249905 0.09487944 0.12387198 0.03809231 0.08587562 -0.05157873 0.067502424 0.13722336
0.13533553 0.07720478 0.10919698

policy_fc1.weight f4 [64, 261]
00000000: bdea e93c 68fa e3bd 38cc 05bd c081 47bb
00000010: 446b 46bd 0758 1dbd 1d2b 35bd 693c 8c3d
00000020: 8fc8 833d 56cb f53d 4a1a 74bd a111 d4bd
00000030: 6878 07bd 1763 8a3d 600a b03d e272 1ebd
00000040: 381f 8c3b a8bd 2abc 9da8 3bbd 23a3 10bd
00000050: 8e85 92bd c91b 0bbe 6643 25be 1e76 babd
00000060: 26da 5f3d f4e5 c8bd 1875 133e d07c 343d
00000070: 904e 76bc 038a 27bd 4443 233d 75c4 583d
00000080: cc62 cb3d 005e e23d 5981 02be 89d0 75bd
00000090: 2465 9dbb 4259 ad3d d8a4 b2bc ba5e fcbd
000000a0: f144 f33d a831 7a3c c603 a2bd 7f45 f83d
000000b0: a455 c8bd 9ebe c3bd 7087 babd 147f 1cbe
000000c0: 68ad e3ba 1468 58bd dac9 68bd a290 60bd
000000d0: 7312 53bb 33ef 47bd 5992 063d a781 143e
000000e0: 4666 613d c558 43bd 82b5 7a3c 3d86 1e3d
000000f0: 67bf a83d da40 883d 7d59 00be de2d cdbd
00000100: 3afb de3d f9ba 8b3d fbd6 b5bd 1460 09be
00000110: 5f62 97bd dfab b9bd e937 39be 2ab2 73bc
00000120: 8202 cf3d 7270 cebd 5da2 253d 811e 05be
00000130: 560b 293d 9a36 c7bd 291b 2f3d afd1 aabd
00000140: 174e 903d efb2 e73d f68f 0cbe 25d3 b4bd
00000150: eeb3 39be 06fb e3bd 6c61 f03d 0860 0e3d
00000160: 5f8b 4bbd 5608 38bd b1a0 12bd 5b92 98bc
00000170: 0f14 59bc 2e17 6c3d 684b 983d 22c1 e5bb
00000180: 7ff6 3bbd 35f7 403d 36ef aebd ced7 973d
00000190: 5e9b 87bd 8747 ed3d 5643 9c3c 9ce2 463d
000001a0: ff4f 333c 5dd0 d43d da24 47bd 52a5 043d
000001b0: 6073 adbd 0740 523d 13f3 c33d 9eb0 883d
000001c0: f95d de3d 22a5 5dbd b931 a7bd a288 54bc
000001d0: 86fb 233d e478 9f3d 259f 663d 3573 e33d
000001e0: f44c 853c 7802 7c3d 06eb 633d ea4a bbbd
000001f0: 9549 523d 58d6 ffbd 06d8 e63d c108 fb3d
00000200: b84e 613c 0e17 433d 616a 35bd 082d c63d
00000210: 34fd 9f3c 8e02 54bd 4500 e1bb 339b eb3d
00000220: 8f7c e63d f6a6 c93d 5143 bc3c c535 c23d
00000230: f813 7d3d 48c4 91bd aa14 ce3d edfb afbd
00000240: 27aa 2dbd 6701 acbd 3422 b6bc 3eb7 b4bc
00000250: ddcb 603d 1ea8 52bc 3d72 83bd 8e71 3dbd
00000260: 6d67 d9bd a9af ca3d c28c a8bd 5c5b d9bd
00000270: ad0f d9bd c192 3ebd 3810 acbd 6369 bfbc
00000280: 9169 d63d e2cd 143e 25af 1bbd e3db 86bd
00000290: 93ff a03c f760 423c 264a 913d 22d4 c63b
000002a0: c0a9 b23a 31a6 82bd bf70 ff3d 198d 99bd
000002b0: 1fd3 d03d 12f3 bb3d 5643 063e e3ae 21be
000002c0: 38ce febd 4512 f3bd 742a 44bd 208b a1bd
000002d0: 7e8b 1d3d 1369 6f3c 4959 0a3e 84f1 d4bd
000002e0: 9463 a83d 7b65 6cbd 48ea fb3c 7085 cd3d
000002f0: a8d9 66b9 b704 f4bd 145e 47bd 4c4a c7bc
00000300: 683c 9b3d b5f6 0abe 5f31 94bc 4c27 893d
00000310: 9beb ce3d 9080 06bd d0c8 c53d 8256 90bd
00000320: 3cfa fd3c 38da e6bb 8b7b c1bd 4895 64b9
00000330: 4110 603c 92db f63d 30f8 0ebd 78b6 61bd
00000340: fbb5 20bd 7198 a83c 6315 7abd 86b3 ba3d
00000350: ad28 87bd b878 e13d c642 f53c b220 173e
00000360: b6bc 023e 9365 7cbd 7167 a93d 865c d8bd
00000370: 7e29 8eba d419 6dbb e37d c3bd fe5d a73d
00000380: 542c 82bd bdaa afbd 62c2 d73d 9c64 a13d
00000390: 593a dbbd 18e7 283c 4ee8 03be 52cb 63bd
000003a0: 9bd5 fa3d 0330 873d 7197 fb3d 8325 a33b
000003b0: b4f9 15be 42d1 c13d 0de9 f1bc e8b5 23bd
000003c0: 4ef3 31bb a215 7eba f8a7 76bd 2cc9 983d
000003d0: 4bc7 553d 0403 e8bd 2385 90bd 244b 2d3b
000003e0: f4b2 4d3d 5fcf 243d 4587 69bd 9a23 a93d
000003f0: 34d8 0fbd 8c3c 70bc 3dcb 68bc e21a f9bd
0.028554315 -0.111317456 -0.03266546 -0.0030442327 -0.04844214 -0.038414028 -0.04423057 0.0684746
0.06434738 0.12001674 -0.059595384 -0.10354925 -0.033073813 0.06757181 0.08595729 -0.03868378
0.0042761825 -0.010421194 -0.0458151 -0.03531183 -0.0715438 -0.13584818 -0.16138992 -0.0910456
0.054651402 -0.09809485 0.14400136 0.044064343 -0.015033379 -0.040903103 0.03985907 0.05292173
0.099309534 0.11053085 -0.12744655 -0.060013328 -0.0048033167 0.0846429 -0.02180712 -0.12322755
0.11878384 0.015270628 -0.07910876 0.1212263 -0.0978196 -0.09557842 -0.09107864 -0.15282851
-0.0017370405 -0.05283363 -0.056833126 -0.054825433 -0.0032207042 -0.048812103 0.03285441 0.14502583
0.055029176 -0.04769208 0.015302064 0.03870224 0.08239632 0.066529945 -0.12534137 -0.10018514
0.108877614 0.068227716 -0.08878895 -0.13415557 -0.0739181 -0.09065985 -0.18087734 -0.014874021
0.101079 -0.10080041 0.040438045 -0.12999918 0.041270576 -0.09727211 0.04275051 -0.08340775
0.070461445 0.11313426 -0.13726792 -0.08829335 -0.18135044 -0.11131863 0.11737332 0.03475955
-0.04969346 -0.044929825 -0.03579778 -0.018624475 -0.013249411 0.057639293 0.074362576 -0.0070115486
-0.045889374 0.047110755 -0.085417196 0.07414208 -0.06621431 0.115859084 0.019075077 0.048555955
0.0109443655 0.10391305 -0.04861913 0.032384224 -0.08469272 0.051330592 0.09567847 0.06674312
0.108577676 -0.05411256 -0.08163781 -0.012972029 0.040034793 0.0778673 0.056304116 0.11105958
0.016272046 0.061525792 0.055644058 -0.09145148 0.051339705 -0.12492055 0.11271672 0.12257529
0.013751678 0.04762941 -0.044290904 0.09676558 0.019529916 -0.05176025 -0.006866487 0.11504211
0.112542264 0.098462984 0.022981318 0.09482912 0.06178662 -0.07117516 0.10062535 -0.08592973
-0.042398598 -0.08398705 -0.022233106 -0.022060033 0.05488192 -0.012857465 -0.064182736 -0.046250872
-0.1061543 0.09896786 -0.082299724 -0.106131285 -0.10598693 -0.046526674 -0.08401531 -0.023365682
0.10469354 0.14531663 -0.038008828 -0.06584909 0.019653117 0.0118639385 0.07094221 0.0060677687
0.0013630912 -0.06379355 0.124726765 -0.07497615 0.10196518 0.09177221 0.13111624 -0.1578937
-0.12441677 -0.11868719 -0.04789205 -0.07887864 0.03846311 0.014612454 0.13510622 -0.10397628
0.08222118 -0.057713967 0.030751362 0.10035217 -0.00022015593 -0.11914962 -0.048673704 -0.02432742
0.07579881 -0.13570674 -0.018089948 0.066969484 0.10103532 -0.03283745 0.096574426 -0.0704775
0.03100311 -0.0070450567 -0.09447392 -0.00021799386 0.01367575 0.120535985 -0.03490466 -0.055105656
-0.03923605 0.020580502 -0.061055552 0.09116273 -0.06599555 0.110093534 0.029939067 0.14758566
0.127673 -0.061620306 0.08271683 -0.105645224 -0.0010846106 -0.0036178725 -0.09545495 0.081722245
-0.06356111 -0.085774876 0.105351225 0.07880518 -0.10704488 0.010309003 -0.12881586 -0.055613823
0.12247773 0.066009544 0.122847445 0.004978837 -0.14646035 0.09463741 -0.029530073 -0.0399684
-0.0027153078 -0.00096925546 -0.06021878 0.074602455 0.052192014 -0.113287 -0.07056644 0.0026442492
0.05021949 0.040236827 -0.05701377 0.082587436 -0.035118297 -0.014662873 -0.014208612 -0.121633306

policy_fc1.bias f4 [64]
00000000: 42b4 49bc b7ec 4abc e440 a73b 570d d7bb
00000010: 13b4 8fbb eb64 2cbc 2d45 d7bb d38c b5b9
00000020: 5c96 b0bb 166a d13a 9ce5 0bbc dcd6 87ba
00000030: d891 f43b 50f8 68bb 10f8 6dbb 3a66 80bb
00000040: 971d a1bb 19b1 52bc a23c acbb e21a 90b9
00000050: 6d14 e2ba e81e 85bc 26e0 483c 1e39 f0bb
00000060: 756f 6a3a f851 ef3b 93d9 39bb eaea 00bd
00000070: 82fd 99bb ed3b 8739 ce13 8e3c 2441 b6ba
00000080: d1f9 a53b 4342 b0bc c665 36bb 1480 b3bc
00000090: bff7 463c 4bc6 f3bc 5d28 82ba be03 753b
000000a0: dfc6 52bb cdc1 6ebb 714e 433c d94e c1bc
000000b0: 8aed 46bc 4085 a6bc 6cef 5cbc 7c08 52ba
000000c0: dcfe 22bc 0eb6 04bd 51bc 57bc ef83 87bb
000000d0: aa76 b7bc 6cbd 4a3c 3846 81bc 9437 153b
000000e0: b348 cfbb a242 9038 5a1c 45bb 0b2a 1f3b
000000f0: 26ff 56ba cfe5 76bc 9695 92bb cc2c b93b
-0.012311043 -0.012385539 0.005104171 -0.0065628695 -0.00438548 -0.010522108 -0.0065695257 -0.00034627932
-0.005389018 0.0015977051 -0.00853863 -0.0010363716 0.007463675 -0.0035548396 -0.0036311187 -0.0039184364
-0.0049168575 -0.012859606 -0.0052562514 -0.0002748585 -0.0017248519 -0.016250089 0.012260472 -0.0073310276
0.0008943 0.0073034726 -0.0028358444 -0.03147403 -0.00469941 0.00025793855 0.017343428 -0.0013904911
0.005065181 -0.021515971 -0.0027831658 -0.021911658 0.012144028 -0.02975764 -0.0009930242 0.0037386264
-0.0032161993 -0.0036431432 0.011920557 -0.023597168 -0.012141595 -0.02032721 -0.013484817 -0.00080121285
-0.0099484585 -0.032400183 -0.013167457 -0.0041356008 -0.02239545 0.012374263 -0.015780553 0.0022768723
-0.006325805 6.8788664e-05 -0.0030076713 0.0024286534 -0.0008201472 -0.015069439 -0.0044733984 0.005651092

policy_fc2.weight f4 [32, 64]
00000000: 5c5c 8fbd c07c 753d 141e 57be b044 6f3e
00000010: aa37 55be 4a27 0bbd 62b9 53be cf5b ddbb
00000020: e07d 58be 66cd d7bc 47b4 7f3d 7189 ef3d
00000030: 152c 353e 3a6d 20ba 0b11 07be 2a7a 17be
00000040: 9288 74be c03f 903c 913a fabd cd56 52bd
00000050: 99b4 12be 817d 783e 2dc2 2e3e ec4b a43c
00000060: 3423 783e 4afd 983d e530 1dbe f8e9 26be
00000070: 5fad 08be f2e5 23be 8f76 7b3e 5cc4 463e
00000080: 3c92 0d3e 51b9 69bc 3663 203e 823a 4abe
00000090: 3ad5 f93d 084f b83d e153 03bd aafe 22be
000000a0: 2ae4 80be 75e3 c0bc 7da4 64bb c093 3a3c
000000b0: d432 88be 9d2d 85be d7ea 49be e668 37ba
000000c0: 3a88 94bd 80e0 f1bd 44ad 803d 432e 52be
000000d0: f002 d039 ad28 1bbe 24b0 d43d 53d8 82be
000000e0: 9747 933d cf5c f5ba 8134 663d afde 2bbd
000000f0: c0b6 453e 9dda ac3d 6579 3d3e 9a64 473e
00000100: b29b 03bd 7c0e be3c d962 413e 726f 35bd
00000110: 096c 693e f651 263e a94c debd 259c fc3c
00000120: 9488 44be a07b 3f3e 88a2 2ebc 75a2 9bbd
00000130: 681f d73d 3ee1 f23d e9d2 d23d bf33 4c3d
00000140: f0f2 6ebe e861 183e 7198 9ebd de01 02be
00000150: 4818 58bd ae59 003d 1631 363e b7fe 2cbe
00000160: 00e1 24be 1057 80be e301 5dbe 4fa0 68be
00000170: ce52 07bd ded8 403e a830 433e 90da 88bb
00000180: 1e0c 49be d2c9 38be 3d43 7a3e c040 713c
00000190: 24dd ee3d 29c1 6ebd 4e6e debd d851 5dbe
000001a0: d8aa 083e bd6f 473e 99f5 7d3d bf21 83bd
000001b0: efbe 32be 903c d63b 7b2c d63d 4a50 533e
000001c0: d514 01be cdff 3f3e ed50 313e ae04 b23d
000001d0: b7bb 05be 003c 7d3d 55c8 2abe 0e8d c9bd
000001e0: 3a80 0a3e a1cb ff3d 1dd6 6b3e 0178 4a3e
000001f0: 6cdf 1b3e 3866 77be 0de1 8d3c 6a5c 2dbe
00000200: 9453 d7bd f1b8 1dbe d769 87be fefe 2b3e
00000210: 22f2 31bd c294 1a3e 47b8 a03d f1e7 79bd
00000220: a667 613e 0591 ef3d 9734 f23b ae4d f33d
00000230: 3781 4b3e 56a5 dfbd 6587 e3bd c304 1cbe
00000240: b8e6 353e db6a 433e f022 a93d b36d b9bd
00000250: 82b0 bf3d 07e5 11bd 6bf9 96bd ea1c 5f3d
00000260: 8385 1f3e 6be6 883c b981 a4be 1976 d6bd
00000270: 6efa 863e c578 15be 2e4c 1dbe b02b 28be
00000280: 38ca 263d c296 093e e66d 283e ae6c 5f3e
00000290: 5c05 27bc bd5c 4fbd 47aa cb3d 40ab 203e
000002a0: b8fd bf3d 9a95 533e c198 e9bd 756e 2bbd
000002b0: 083c 83bd f570 1d3e b995 ff3d 8779 1bbe
000002c0: ed3d f93d c041 c8bd 4667 613e dbaf 76bc
000002d0: 783c 5b3e b645 9fbc c071 903c ddf3 57be
000002e0: 69c4 003e 5014 17be f999 da3d b488 b33d
000002f0: f17d 833e c3ce 98bd f6fd 50bc 40cb c4bd
00000300: 5edd 293e 4204 153e b690 453e e297 87be
00000310: 2ea1 5abe 461d 06bd 407b 15be 8f8e dc3d
00000320: 7e0d ddbd 6d9a dfbc da20 74be 825d 763e
00000330: 78cb 9cbd 5d6b 033e d247 81bd 3439 90be
00000340: e847 133e 5435 183e c0f1 cebd aff1 2f3e
00000350: 89d6 bdbd 254e 3cbc 3620 fd3d cdf1 3abd
00000360: 8420 1c3d ced2 48bc f735 27be 6a71 4b3e
00000370: 0be5 303e 4e18 65be cc40 233e 5254 f63d
00000380: ff9b 6fbe a8ba eabd c8d6 d03d 189a 5abd
00000390: cd69 1e3e 847d b2bd e905 17be d758 e33c
000003a0: 05d0 933d 3a50 76be cd31 06bc 4b6d f5bd
000003b0: b360 34be 0b16 f23d c8d2 303e e6fa f3bc
000003c0: e3ec bfbd 0e85 85bc 887c 0e3e 0b02 0dbe
000003d0: 84da 91be 1005 bc3d e39b 383e 4db6 c2bd
000003e0: 0c28 0b3e b58c c6bd 4f01 b0bc aee5 2d3d
000003f0: a06f 383e 0d80 4cbe a2dc 0bbd 51d0 5f3e
-0.07000038 0.059933424 -0.21007568 0.23366046 -0.20822015 -0.033973016 -0.20676187 -0.006755329
-0.21141768 -0.026343059 0.062427785 0.11696137 0.17692597 -0.00061197917 -0.13190095 -0.14792696
-0.23880222 0.017608523 -0.12218202 -0.05135231 -0.14326705 0.24266626 0.1706626 0.020055734
0.24232179 0.07470186 -0.15350683 -0.1630019 -0.13347386 -0.16005686 0.24556945 0.19410843
0.13825315 -0.014265374 0.15662846 -0.19748881 0.12198873 0.08999449 -0.032062415 -0.15917459
-0.25174075 -0.02354596 -0.0034888082 0.011387765 -0.2660128 -0.26011363 -0.1971849 -0.0006996527
-0.07252546 -0.11810398 0.06283048 -0.2052546 0.0003967504 -0.15152235 0.10385159 -0.25555667
0.07191389 -0.0018719676 0.056202415 -0.041960414 0.19307995 0.08440135 0.1850334 0.1947197
-0.032130904 0.023200266 0.18885364 -0.044295736 0.22795118 0.16242203 -0.108544655 0.030836174
-0.19192725 0.18699503 -0.010658868 -0.075993456 0.10504037 0.11859368 0.10294134 0.049854036
-0.23334861 0.14881098 -0.0774392 -0.12696025 -0.05275753 0.031335525 0.17792162 -0.16894041
-0.16101456 -0.25066423 -0.21582751 -0.22717403 -0.033037953 0.18832728 0.1906153 -0.0041764453
-0.19633529 -0.18045738 0.24439712 0.01472491 0.11663273 -0.05828968 -0.10860883 -0.21613252
0.13346422 0.19476219 0.0620018 -0.06402921 -0.17455648 0.0065379813 0.10457703 0.20636097
-0.12605603 0.18749924 0.17316027 0.08692299 -0.13059889 0.0618248 -0.16677983 -0.09841357
0.13525477 0.12490011 0.23030896 0.1977234 0.15221947 -0.24160087 0.017319227 -0.16929784
-0.10513988 -0.15402581 -0.26447937 0.1679649 -0.043443806 0.15095809 0.07847648 -0.061012212
0.22012195 0.11697582 0.007391523 0.118800506 0.1987351 -0.10920207 -0.11109809 -0.15236191
0.17763793 0.19083731 0.08258617 -0.090541266 0.09359838 -0.035618808 -0.073717915 0.054470934
0.15578274 0.016711434 -0.3213022 -0.10471744 0.26362938 -0.14596851 -0.15361091 -0.16422915
0.040720195 0.13436416 0.16448173 0.21818802 -0.010194149 -0.05062555 0.09944587 0.15690327
0.09374565 0.20662537 -0.114060886 -0.041853387 -0.064079344 0.15375121 0.12479729 -0.15183078
0.121700145 -0.09778166 0.22012052 -0.015056576 0.21409786 -0.01944242 0.017632365 -0.2108912
0.12574925 -0.14753842 0.10673899 0.087663084 0.25682023 -0.07461312 -0.0127558615 -0.09609079
0.16588351 0.14552405 0.19293484 -0.26483065 -0.21350548 -0.03274276 -0.14597797 0.107693784
-0.10793589 -0.027295316 -0.23840657 0.24059108 -0.07655996 0.12833925 -0.06312527 -0.28168643
0.14382899 0.14864093 -0.10104704 0.17182039 -0.09269435 -0.0114932405 0.123596594 -0.045640755
0.038116947 -0.012257291 -0.1632918 0.19867483 0.17274873 -0.22372553 0.15942687 0.120278016
-0.23399352 -0.11461383 0.10197216 -0.05336961 0.15470047 -0.087153465 -0.14748348 0.027752323
0.07217411 -0.24054042 -0.008190584 -0.119837366 -0.17615013 0.118206106 0.17267907 -0.029782724
-0.093713544 -0.016298797 0.13914692 -0.1377031 -0.28487027 0.09180653 0.18028216 -0.09507427
0.13589495 -0.096948065 -0.021484999 0.042455368 0.18011332 -0.19970722 -0.03414596 0.2185681

policy_fc2.bias f4 [32]
00000000: 0be6 b23c 43fc bd3c ea7c 61bc ace3 c1bb
00000010: b872 8c3c 4816 8b3c e815 6fbb 30e5 05bd
00000020: 8640 643b 9189 8b3c 940d 883c f6f2 ed3c
00000030: 2283 c2bb fa61 09bc 15ac 723c d208 08bc
00000040: ee48 5a3b 4944 5dbc 7171 9ebd 1fd5 c33b
00000050: d7f3 953c 5ee6 0f3c 7d56 1b3d e709 ffbc
00000060: 306b 52bb c235 4c3c 0dd3 fc3b 7e36 f83b
00000070: fe20 27bd db48 233d 2f74 883c 2034 4f3c
0.021838209 0.023191577 -0.013762692 -0.005917033 0.017144546 0.016978398 -0.0036481563 -0.032689273
0.0034828498 0.01703337 0.016608037 0.029046517 -0.0059360424 -0.008385176 0.014811535 -0.008302884
0.003330763 -0.01350505 -0.07736481 0.0059763337 0.018304748 0.008782951 0.03792428 -0.031132651
-0.0032107346 0.012463989 0.007715589 0.0075748553 -0.04080295 0.039864402 0.016656963 0.012646705

policy_fc3.weight f4 [51, 32]
00000000: 41ef a63e 1d39 4b3e b865 cd3d 1044 2cbd
00000010: 7e49 abbd c7cd 2fbe 3e46 363e 7feb ff3d
00000020: 7300 973d f9c8 633d d865 52bd 048d 003e
00000030: 3f94 693e 8a42 8fbe 82d5 1e3e a116 943d
00000040: 56d2 913d 41b1 0dbe 1664 1abd 8807 f33d
00000050: 8ea2 883d c1d0 6ebe 0ee0 7b3d f909 933e
00000060: 740b d6bd ea2f 813e 3c35 3e3e 6536 a63d
00000070: c8cb 643e 81ed 34be 97d9 2fbe ac27 1a3d
00000080: 729f 36be b42b 153e c598 46be f986 8b3e
00000090: f8dd 09be 01fe 883e d80b 6d3d 06a9 34bd
000000a0: 41af 1dbd fc86 7fbe 65ba bcbd 74a5 443c
000000b0: 24f2 9cbd f1d2 d7bd 6bf9 8bbd e17a fd3c
000000c0: 6d03 29be 7051 b3bd c7da 6bbd 2ce3 01be
000000d0: 6fd7 96bd 85cd 3d3e 6751 8cbe d4b5 363d
000000e0: 5764 22bd cfeb 1f3e 6336 073e d043 f33c
000000f0: cb55 1c3d 604a 4c3e 4aaf 5cbe c1b5 b13d
00000100: 753b ccbd 7b5e c0bd c8d2 163d 338b 283e
00000110: a85a 5cbd 6a88 e5bc 2824 d13c 5a74 00be
00000120: cc42 683d 8735 483e 356c 95be facb 17be
00000130: be7a 923e 6e7e 36bd 57e2 fe3c 52d0 a23d
00000140: ecd3 ce3c d2a0 e53d 9979 9d3d d8ee 01be
00000150: b81b a2bc 0712 fd3d 9b8c 2dbe be6f 7bbe
00000160: a2e9 743d 3bda 33be 4f1e 4a3e 107a 803e
00000170: 5eea f53d 2be4 26be 9d02 09be 2d2c 793e
00000180: 5a24 62be be1f dd3d 81b6 783d 067e 07be
00000190: 6860 d93b 6e61 4b3e dcea e53d bc97 77be
000001a0: f19e 07bc 4fbb 033e a987 86be 8867 fa3b
000001b0: 5985 91be 9d30 463e 799b 08be 4721 593e
000001c0: 5254 303e 9c39 4e3e ee58 463e aff5 c6bd
000001d0: 55e8 0a3e e78c 9fbe 4bcc 493e 93db 093e
000001e0: 3717 b9be e8ee 253e efc0 5d3e f777 2abe
000001f0: ea0a 44be 7df0 443e 2481 37be 191d 933e
00000200: 4ecf 4bbe 1132 523e 8729 563e bd67 113e
00000210: 4c83 8d3d 1f3d 94be b9fb a53d 87e6 7abe
00000220: dac7 80bd eb75 503d 795b 453e e2d0 033d
00000230: 696b a5bc 999d b13c f5e5 a1be 580c 013e
00000240: 98c2 163e 3124 433d a0a1 32be c775 36be
00000250: 4c6f 253e 0c53 76bc 4e25 a8bd e362 cd3d
00000260: ce2c dc3d de80 6a3d 0909 f53d c86e 553e
00000270: eac0 513d cf02 2c3e d78a 4c3e 3420 a53e
00000280: 835a 4c3e 1715 8d3a 7c3b 58be b15c bfbd
00000290: 5381 8c3d 2323 b03d a1e1 08be 6168 833e
000002a0: 0bef 8bbe b5da b33d 2232 863e 8dbe 54bb
000002b0: 3569 d7bd 02f2 803e eed8 87bd 9cdf cc3d
000002c0: 8ad0 6a3c 753d 14be 1522 72be 9560 753d
000002d0: d69f 02be 32cc a1bd b4ea 26bd 1f06 96bd
000002e0: 7c56 41be b7c1 0dbe d2fb d1bd 7129 aa3d
000002f0: ec9c fa3d 771e 233e 5b57 bbbd e892 31bd
00000300: 3b7f 4ebe 09cc 8d3e 193a 193e ae57 2d3e
00000310: 3979 8dbe c92c 4c3e 2bbf 393e decc 183e
00000320: f341 1d3e a47c 9f3d 6c4e 643e 2aa5 00bd
00000330: 4111 153e 1ee4 f73d 75a4 8b3e b6f6 5dbe
00000340: 78a0 c4bd f862 c7bd a868 04be 444f e33c
00000350: a85b ad3d 4abc 4f3e 440e 99be 6f1c 79bd
00000360: 6c08 87bd 9776 563e d602 94be a127 023e
00000370: 6c5e 88be f4d3 e3bc ba07 383e b36b 1d3e
00000380: 317d 86bc ab91 7a3e df04 3e3e 9f98 163e
00000390: dd4f 1b3d 418c 673e 12c8 e4bc fdb4 0c3e
000003a0: 71e9 6c3e dfe6 1e3e 4939 a03b 9edc 613e
000003b0: 01b0 49be 1e6d 253e 48ac d73d 6a3e aa3d
000003c0: 56c2 043c b961 66bd de6c f13d 2578 debd
000003d0: 2e00 afbd 1a69 1b3e 2705 38bb 949b 9bbd
000003e0: 1d47 fabd c96b 983d 1534 083e ded7 e9bd
000003f0: 04b0 6f3e 982d 113e fc7f 253d 71b5 97bd
0.3260441 0.19846006 0.10029167 -0.042057097 -0.08363627 -0.17168342 0.17800233 0.12496089
0.073731326 0.055611584 -0.051366657 0.12553793 0.22810458 -0.27980453 0.15511134 0.072308786
0.071201965 -0.13837148 -0.037693106 0.11866671 0.0667163 -0.23321821 0.061492972 0.28718546
-0.10451403 0.25231868 0.18574995 0.08115844 0.22343361 -0.17668726 -0.17172848 0.03763549
-0.17834261 0.14567453 -0.19394214 0.27251413 -0.1346358 0.2675629 0.057872623 -0.044106506
-0.038497213 -0.24953836 -0.092152394 0.012002338 -0.07663372 -0.10538281 -0.06834682 0.030942382
-0.16505213 -0.08755767 -0.05758169 -0.12684315 -0.073653094 0.1853543 -0.27405855 0.044607
-0.039646473 0.15617298 0.1320434 0.029695421 0.038167756 0.19950247 -0.21551242 0.08677245
-0.09972278 -0.09393021 0.03682211 0.1645935 -0.053797394 -0.028019149 0.025529936 -0.12544385
0.056704327 0.19551669 -0.29184118 -0.14823905 0.2860927 -0.044554166 0.031113787 0.0794989
0.025247537 0.11212315 0.076892085 -0.12688768 -0.019788608 0.12356954 -0.16948168 -0.24554345
0.059793122 -0.17563717 0.19738124 0.25093126 0.120075926 -0.16297977 -0.13379903 0.24333258
-0.2208418 0.1079707 0.060720924 -0.13231668 0.006633807 0.19861385 0.112264365 -0.24178976
-0.008277641 0.12864421 -0.26275375 0.0076417364 -0.2842205 0.19354482 -0.13340558 0.212041
0.17219666 0.20139164 0.19369861 -0.09714829 0.1356519 -0.31162187 0.19706838 0.13462667
-0.36150524 0.16204417 0.2165563 -0.16647325 -0.19144788 0.19232364 -0.17920357 0.28733137
-0.19903299 0.20526911 0.20914279 0.1419973 0.069098085 -0.28952882 0.08104653 -0.24502002
-0.06288119 0.050893705 0.19273175 0.032181628 -0.020192819 0.021681594 -0.31620756 0.12602365
0.14722669 0.047641937 -0.17444468 -0.17818366 0.16155738 -0.015034448 -0.0821024 0.10028627
0.10750733 0.057251804 0.11964614 0.20843041 0.051209368 0.16797946 0.19974838 0.32251132
0.19956402 0.0010763732 -0.21116441 -0.09343851 0.06860604 0.08600452 -0.1336732 0.25665572
-0.27330813 0.087819494 0.26210123 -0.003246221 -0.105181135 0.25184637 -0.06633173 0.100035876
0.014331946 -0.14476569 -0.23645814 0.05990656 -0.12756285 -0.07900275 -0.040751174 -0.07325386
-0.18880647 -0.13843428 -0.10253109 0.083086856 0.12236962 0.1592959 -0.09147521 -0.04335299
-0.20165722 0.2769473 0.14963569 0.16927978 -0.27631548 0.19938959 0.18139331 0.149219
0.15357189 0.07787445 0.2229554 -0.031407513 0.14557363 0.12104057 0.27273908 -0.21676144
-0.096009195 -0.09735674 -0.12930548 0.027747758 0.08464748 0.2028667 -0.29893696 -0.060818132
-0.06593403 0.20943676 -0.28908414 0.1271043 -0.26634538 -0.027811028 0.17971697 0.15373115
-0.016417118 0.2446963 0.18556546 0.14706658 0.03791796 0.22612096 -0.027927432 0.13740917
0.23135926 0.15517758 0.0048896414 0.22056815 -0.19696046 0.16154906 0.10530907 0.08312686
0.008102974 -0.05624554 0.11788343 -0.108627595 -0.08544956 0.15176812 -0.0028079243 -0.075980335
-0.12220595 0.074424334 0.13301118 -0.114181265 0.23406988 0.14177549 0.04040526 -0.07407654

policy_fc3.bias f4 [51]
00000000: 9e29 ee3c 872f db3c 44b4 98bc 20d5 40bc
00000010: 9f61 363d 1a7b 13bd dae2 013d 0160 5e3c
00000020: a6f9 f03c 6df8 fbbb b937 15bc 2b3f 703c
00000030: 3d5a 813c 6791 ef3c 7d0a 77bd 1ee2 92bd
00000040: 954e 0f3d 3c86 e8bc b69d 1f3c 00d2 33bd
00000050: 86b2 8bbd 7392 b8bc 8169 d5bc 9410 a3bc
00000060: 8b11 3f3c 914d af3c 4ece 483d f0fd ba3a
00000070: d00d 15bc 1819 e0bb 7fee dbba 6439 90bc
00000080: 4301 16bc 3232 9f3b e151 febc 9d05 a13c
00000090: 3549 7ebc 7fc1 d9bc c02a 36bc 49e8 24bd
000000a0: c447 d53c 481f 38bd e529 cf3b 211b 683b
000000b0: a6c0 9a3b 0d05 e03c b341 db3b 3f13 babb
000000c0: 0da6 85bc 15b2 28bd c976 d03c
0.029072579 0.026756061 -0.018640645 -0.011769563 0.044526692 -0.03600607 0.031710483 0.013572694
0.029415917 -0.007689527 -0.009107524 0.014663498 0.0157901 0.029244138 -0.060312737 -0.07172035
0.03498705 -0.02838432 0.009742191 -0.043901443 -0.0682116 -0.02253077 -0.026051285 -0.019905366
0.011661897 0.021399291 0.049024872 0.0014266353 -0.009097531 -0.006838929 -0.0016779451 -0.017605491
-0.009155574 0.0048582787 -0.031044902 0.019655997 -0.015520384 -0.026581524 -0.011118591 -0.040260587
0.026035197 -0.044951707 0.006322133 0.003541656 0.0047226725 0.027346158 0.0066911816 -0.005678564
-0.01631453 -0.041185457 0.025447266

value_fc1.weight f4 [64, 261]
00000000: ea29 59bb 018b c6bd 7666 fe3d ba88 afbd
00000010: 6bc0 f73d 19fe 06be 1ce7 2e3d 88cf 40be
00000020: 5aea 35bc f150 d73d f708 61be 6a8a 14be
00000030: d856 12bc fc60 62be fce7 24be 10fc 033e
00000040: 40c7 ac3c b704 913d 8f1d b8bd b86d 69bd
00000050: e281 893b 5b91 6b3d 53f9 bbbc e881 b43c
00000060: 1372 9e3d 2832 353d 5de9 353d 0518 bc3c
00000070: 0817 c7bc 830a e33d 0022 9ebb 1585 d93d
00000080: f22e ccbd ac95 713c d146 84ba f4aa 3ebc
00000090: 316f e0bd fb17 283e ee83 743d 9cec 073e
000000a0: 3aea eabd 77ae 0f3e 1190 4ebd b4ad 813d
000000b0: 877c 8c3c bd14 0dbe e900 313e 45a0 a53c
000000c0: 67d7 cb3c 697d 0c3e cd23 aa3c 3b67 fd3d
000000d0: 8702 ddbd 8d55 41bd 19c4 103e f9aa 2c3d
000000e0: 0e18 89bd fe98 11bd 0fd6 adbc f738 dfbd
000000f0: 5adb da3d ff95 d0bd 30fa 0abd b876 303d
00000100: 8ab3 ea3d a6ee d13b 55b2 983d 4789 84bd
00000110: 2621 1e3e 8c2b 16be 7a03 443d d56d 4abd
00000120: f703 e7bc 5d68 d43d c449 a0bc 1768 e43b
00000130: ed64 e0bc 9e8f 743d 3bb5 11be 0ea6 743c
00000140: ad0f 99bc d578 343d 3baa 263e 972e 063e
00000150: 1232 a9bd 6e47 033e d34b 13bc a242 5139
00000160: 4515 463d 954e abbc cad0 8b3d e27a d3bd
00000170: c452 4b3d 208c e93d 0b54 e63c e82b 8d3d
00000180: f6aa acbd 5fba 0d3e f347 6a3d d3d1 9d3e
00000190: 66f1 8a3d 7853 193e 2ecc 0fbe d3a6 8f3e
000001a0: cb6e 84bc f4b2 1e3d 1e60 bdbe 6a04 a13d
000001b0: ce82 adbe 5417 103e 64ab a0bd 69e7 133d
000001c0: df3f a9bd 4ba1 a03d 3721 9ebd b27d d43d
000001d0: 2b26 a83d ae49 84bd c0b3 163d 6fba 2fbd
000001e0: 2b20 b53b e500 c4bd 20ef f2bd 916b f3bd
000001f0: 49ad 46bd 1299 d2bd d301 a63d 507f 96bc
00000200: 7ff6 18b9 4738 5c3c 27b7 a93d 277c c3bd
00000210: cda3 5c3d b10e 79bc 2060 233b 5898 b23d
00000220: 5c23 40ba ac1d 0c3e bf7d 83bb f778 11bd
00000230: a243 fabd c134 e4bc 6ff0 553d 48f4 02be
00000240: 1eaa c73c 2311 063b b263 ee3d 4adf 82bd
00000250: 1cbf 093d 9d02 68bd de7f 35be 4597 b1bd
00000260: ec20 7f3d 6292 6b3d fe92 12bd fb5d 6abb
00000270: 8b62 38bd 3c89 da3c a139 403c 4403 92bd
00000280: c80f eb3d aa9d 1c3d dfcb 28bc ee2a d93c
00000290: c502 673c 0e70 c13c 6d12 263d 800e 13bc
000002a0: 5cff 49bd 6015 b33d 2632 4f3c ca84 723d
000002b0: 2fbd 1abe 20f5 29bb feef 6f3d 04c8 c23d
000002c0: b1bf debd ef1c 7c3c 13eb 16be 6705 efbd
000002d0: 9c62 a33d 01d6 af3d d731 1d3e 9e12 83bc
000002e0: 33e0 ca3d 30e9 be3d ee27 3e3d 0597 0a3e
000002f0: 95ad 35bc cd61 c03d 792d c0bd 80b7 0e3a
00000300: 23b6 d73c 32bb 9bbc 20df 0b3e 1f66 173e
00000310: afcf 5abc 6b44 9dbd 1df6 ef3d 5914 e1bd
00000320: 2ca7 be3d 83ab 9a3c 38c7 2ebe 63ee cfbd
00000330: 4767 d33d 1485 043e dc6f 16bd db39 02bd
00000340: 0e88 853b b764 8e3d 3bda dcbc d5aa 23bd
00000350: d840 33bd ff14 473c 243c 173c 908b b53d
00000360: 246a 7e3e a186 1c3d b6d5 59be ebc4 273e
00000370: 7375 8bbc aeb3 1fbe b5f0 403e b15b fd3c
00000380: 444f 403b 1500 493d 5b39 c33d 76af 263b
00000390: 2daf 9dbd 9f15 8b3c 5ac0 1fbe c360 0e3e
000003a0: b501 783d 0248 ed3c 98da 4e3d be93 f6bd
000003b0: 29e4 fcbd f3c2 0b3e 48c1 d5bc 4fa2 b63d
000003c0: 846a 09bc b90c ac3d 2e4a cbbd 2604 093e
000003d0: a804 40bc ddaa a2bd 0950 a33c 8cbc 073e
000003e0: 3f94 cd3d 3779 9c3c d2ef 9a3d 2031 b83d
000003f0: 07f7 0a3e d2d4 05be a787 d83b 4d7b 8d3c
-0.0033136555 -0.09694482 0.124218866 -0.085710004 0.12097248 -0.13182868 0.04270087 -0.18829167
-0.011103237 0.10513485 -0.21976076 -0.14505926 -0.008931838 -0.22107309 -0.1610412 0.12889123
0.021091104 0.070809774 -0.08990013 -0.0569894 0.0041963914 0.05751167 -0.022946035 0.0220346
0.07736602 0.044237286 0.044412006 0.022960672 -0.024302974 0.11085989 -0.0048258305 0.106210865
-0.099698916 0.014745157 -0.0010091906 -0.011637438 -0.10958708 0.16415398 0.05969613 0.13273853
-0.114704564 0.14031397 -0.05043036 0.06331959 0.017149223 -0.13777442 0.17285503 0.020218024
0.024882985 0.13719715 0.020769024 0.12373205 -0.10791498 -0.04720073 0.14137305 0.04215524
-0.06694041 -0.035546295 -0.021220235 -0.10899537 0.10686369 -0.101848595 -0.033930004 0.04308197
0.114600256 0.006406623 0.07455889 -0.06471496 0.15442333 -0.1466505 0.047854878 -0.04942115
-0.028200133 0.10371468 -0.019566424 0.0069704163 -0.027391875 0.059707277 -0.1422929 0.014932169
-0.018684233 0.044060547 0.16275875 0.1310371 -0.08261503 0.12820217 -0.008990246 0.00019956616
0.048360128 -0.020911494 0.06826933 -0.103261724 0.04963948 0.1140368 0.028116247 0.0689314
-0.08431046 0.13840626 0.057197522 0.30824146 0.06784324 0.14973247 -0.14042732 0.28056964
-0.016166111 0.03874488 -0.36987394 0.0786217 -0.3388886 0.14071399 -0.0784519 0.03610936
-0.082641356 0.07843264 -0.07721179 0.10375537 0.08210405 -0.06459366 0.036792517 -0.042902406
0.0055275164 -0.09570483 -0.11862016 -0.11885751 -0.0485051 -0.10283102 0.08105817 -0.018371254
-0.00014587677 0.013441152 0.08286887 -0.095451646 0.05386715 -0.015201257 0.002492912 0.087204635
-0.00073294877 0.13683194 -0.004012793 -0.03551575 -0.12219931 -0.027857186 0.05223125 -0.12788498
0.02437311 0.0020456992 0.11640109 -0.06390245 0.03362952 -0.056643117 -0.17724559 -0.086714305
0.062287256 0.05751265 -0.035784714 -0.0035761583 -0.045015853 0.026676767 0.01173249 -0.07129529
0.114776194 0.038236298 -0.010302513 0.026509728 0.014099781 0.023613002 0.040544916 -0.008975625
-0.049315795 0.08744311 0.012646234 0.05920867 -0.1511123 -0.002593346 0.058578484 0.09510806
-0.10876406 0.015387758 -0.14738111 -0.11670952 0.079777926 0.0858574 0.15351044 -0.016000088
0.09906044 0.09321821 0.0464248 0.13534172 -0.011088748 0.09393654 -0.09383673 0.0005444214
0.026331967 -0.01901016 0.13659334 0.1478505 -0.01335518 -0.07679065 0.11716864 -0.10990209
0.09309229 0.018880611 -0.17068183 -0.101528905 0.10322433 0.1294139 -0.03672777 -0.031793457
0.004075057 0.069528036 -0.02695953 -0.03995784 -0.04376301 0.012151002 0.009230647 0.0886451
0.24845177 0.03821433 -0.2127293 0.16383712 -0.017023778 -0.15595886 0.18841822 0.030927511
0.002934412 0.049072344 0.09532424 0.0025434173 -0.07699428 0.016978083 -0.1560072 0.13904099
0.060548503 0.028965 0.050501436 -0.12039898 -0.123482056 0.13648586 -0.02609314 0.08917677
-0.008387212 0.08400864 -0.09926258 0.13380489 -0.01171986 -0.07942746 0.019935625 0.13255519
0.10038041 0.019100768 0.07565273 0.08993745 0.13570796 -0.13069466 0.006607968 0.017270708

value_fc1.bias f4 [64]
00000000: 890a a53c 987e c1bc d28c 183c 1dbe c33b
00000010: f348 e23b 6c0d 10bd 36d0 b13c 62d0 b33c
00000020: db32 843c 52f0 d1ba cd5b cf3c eb60 a73c
00000030: dd2c ae3b f6df a13c 7bdc 1b3d d552 1f3d
00000040: 2019 a13b a7d3 2e3c 05dc 45bd 5c71 56bb
00000050: 94c4 aa3c 0bb6 a23c c0a7 f13c e405 16bd
00000060: 7ce2 313d 2457 a63b 3253 52b9 6ec3 f43a
00000070: ca03 8f3c 6c30 d03c 25a6 cd3c 019a 53bc
00000080: 920d 4c3b 19e9 6f3c a561 233c 2245 f33c
00000090: 5b3a f83b 7514 35bb fa04 933c 46a0 323c
000000a0: 88fd 0e3d 8161 9e3c c5a3 843c 01bb 50bb
000000b0: aff3 423a f993 4fbb c719 1fbc b040 cdbb
000000c0: 020d 91bc a861 473c 475e bd3b c045 06bc
000000d0: 5e2a 88bd 141e 153d f96f a1ba 29e0 1f3c
000000e0: 677e c23b 9e2d 22bc a062 a23b 7179 1d3c
000000f0: 8915 663c be4e 3cbc 7dfb ebbc 3745 4fbc
0.020146625 -0.023619935 0.009310918 0.005973591 0.006905669 -0.03516905 0.021705728 0.02194995
0.016137531 -0.0016017056 0.025312329 0.020431956 0.0053154067 0.019760113 0.038052063 0.038897354
0.004916325 0.010670579 -0.04830553 -0.0032721376 0.020845689 0.019862195 0.029498935 -0.03662671
0.043428883 0.005076306 -0.00020058153 0.0018673965 0.017457861 0.025413714 0.025103638 -0.012915135
0.0031136018 0.014642977 0.009972011 0.029696051 0.007575316 -0.0027630602 0.017946709 0.01090247
0.034909755 0.019333603 0.016191373 -0.0031849744 0.00074368244 -0.0031673892 -0.009710736 -0.006263815
-0.017706398 0.012169279 0.005779061 -0.008195341 -0.06648706 0.036405638 -0.0012316696 0.009758034
0.0059354785 -0.009898571 0.0049556047 0.009611473 0.01404322 -0.011493383 -0.028806442 -0.012650779

value_fc2.weight f4 [32, 64]
00000000: 997e 34be 9d9a 64bd 76e1 0fbe 0df6 e7bd
00000010: f753 d73d e8bd 1d3e 2d37 19be cf18 5d3d
00000020: bd2d 593d 0c7f 8ebe f16a 2bbe 4b8e 7ebd
00000030: f383 a83c 7365 853d 0a7d 7c3e 8374 103c
00000040: d1d2 babd 7238 463e 2ed0 f73d 2eba 2abd
00000050: b986 f53d 7952 053e 71ff edbd 4b3a 083e
00000060: 7e85 3f3e 873f 8bbe 8eee 323e 99c4 5f3b
00000070: eaef a1be ca9f 83be 7708 2bbe aff8 3cbd
00000080: 1b10 78bd c5dc 2f3e ba04 503e 58ad cabc
00000090: a586 42be a32d 103e e0cd b73d c648 cb3c
000000a0: 306a 1cbd 5598 ed3d 2152 95be 99ce 783d
000000b0: ca02 acbd 6c8b a63d a124 49bd e131 04be
000000c0: 8eb2 1abd f8bc bf3d dfed 573e fa0a 8ebe
000000d0: 8ccf fb3d 1676 37be 16c3 18bd 8459 0f3e
000000e0: bf57 393e 07d3 27be d11d 35be 78d2 4abe
000000f0: f63a 973c c1f0 713e c135 67be db14 18be
00000100: be1c 76be bcf3 2d3e 8e13 c93c 07ee f93d
00000110: 149b efbd b26e 84bc b9ea 253e 0c67 8ebd
00000120: 839d bf3d 9572 0bbd aa84 e13c 3705 09be
00000130: 0dac a7bd 4513 83be d0ea 373e 5e6a a83d
00000140: 5c7a f63c 42e4 6cbe 650d 8a3d 48a9 f8bc
00000150: 33df 4ebe 157e b63c ef5e 793d b9eb fdbd
00000160: 1c28 45bd 5c7a 1fbe 4d47 283e e64e 0e3e
00000170: 9df6 37bc 6a16 573c a280 04be 2431 21be
00000180: aeff e2bd 7fb6 b2be 3ff8 8bbe b555 b93d
00000190: 86a1 82be bc7e 8fbd 68bf 39be 53ef ffbd
000001a0: e0ec 85bd 3c04 1fbd b112 aabe 72d2 2d3d
000001b0: e6f4 69bd b377 dc3c 4858 143e 896a 4fbe
000001c0: d80d 3cbc cfb1 393e 674e 87be f761 c63d
000001d0: bccd f2bb 1c19 573e 5397 693e 4ad3 01be
000001e0: ea2b 81be cef9 ec3a 76a0 61bd 4c17 473e
000001f0: 54d1 1a3e 7c36 c2bd 8ddd f9bd 0b0f 43be
00000200: 4cd8 17be 9bed debe 4be1 06be 5965 bcbd
00000210: dcde 28bf c2c8 cabb 27cf 1ebf 7264 3d3e
00000220: e7fc cebd ce73 48be 2fa2 c2be 6e59 28bf
00000230: c059 45be 9694 463e 31ed dfbd 95e6 7a3e
00000240: d258 4c3c adf0 8fbd 7569 98bc 2bce 29be
00000250: 7281 70be b50e 98be a79e 72be 1345 3a3e
00000260: 48f5 d6be 3fa9 303b 03e9 03be b629 b6bd
00000270: 2506 3abe a605 8ebe 2b2a 04bf 8b5d d7be
00000280: 5078 05be ee08 c23c 9755 d8bd df7b 2d3e
00000290: 115b debe 4484 44be dfe4 093e 7fa2 c5be
000002a0: 52d4 77be 47b5 6c3e dd0f a83d 0043 fbbe
000002b0: 314f e1bd bbcd 9bbd 60f7 2ebe 9569 8d3e
000002c0: 508c 20bb 5022 52bd e12c 033e 18ef 3f3d
000002d0: 0470 bc3d 30f0 7e3e 66ad 8a3e 278a 753e
000002e0: 8339 8a3e 2fc4 693d 6317 0abd 62ee 3bbe
000002f0: 0cbe d5be daa2 01be b483 4b3e e3c6 8fbe
00000300: 4bd9 52be 14d1 023e 832f 083e 512f 86be
00000310: a453 043e 7184 b5bc 1ea7 9f3c 88f7 57bd
00000320: 595d 05be 6302 2ebd cdba 253e f49e bdb9
00000330: 20ad 69bb 6aae 1fbe 5476 a53b f73b f03c
00000340: 468c 203d 60d9 c1bc b930 8bbe 785a 1a3e
00000350: 965a d53d 94bd bbbd 2625 1ebe efb2 efbc
00000360: 720c 3cbe b017 a3bd 7059 6ebe f362 5cbe
00000370: 3e7d 3e3c c789 023d 08d3 c63c f662 223e
00000380: 6a04 acbe c5db 6dbd 0c5e 0abc 77e3 8d3d
00000390: 37c8 073d 36bd 013d 582f e6bd 0ae9 40bb
000003a0: df5c abbd fab1 24bd ca16 2a3d 6d8a 2dbe
000003b0: faa0 103e b982 0f3e 9f59 8c3e 6081 143c
000003c0: 619c 56be 1512 e1bd 8df9 f63d ac2f 013d
000003d0: 9c1c 2bbe 8996 4a3c 8893 353d bc8f 9b3d
000003e0: 5604 013e d4c2 0dbd b5e3 2abe acb1 80be
000003f0: f6fb 493e 4f13 14bd 5971 34be 5c9c eb3c
-0.17626418 -0.055811513 -0.1405085 -0.11326227 0.10514062 0.15404475 -0.14962454 0.053978737
0.053022135 -0.27831304 -0.16740014 -0.06214742 0.02057073 0.065134905 0.24657074 0.008816841
-0.09122241 0.1935747 0.12100254 -0.04168146 0.11988587 0.13019742 -0.11620987 0.13303487
0.18703267 -0.27196905 0.17473814 0.003414428 -0.31628352 -0.25707847 -0.16702448 -0.0461356
-0.060562234 0.1717406 0.20314303 -0.02474086 -0.18996675 0.14079909 0.089748144 0.024814975
-0.038187206 0.11601321 -0.29164222 0.060743902 -0.083989695 0.08132061 -0.049107198 -0.12909652
-0.03776794 0.09362215 0.21086834 -0.2774275 0.12295446 -0.1791614 -0.037295423 0.13998991
0.18099879 -0.16389094 -0.17687155 -0.1980685 0.018460732 0.23626997 -0.22579099 -0.14851706
-0.24034402 0.16987509 0.024545457 0.12203603 -0.11699501 -0.016166065 0.16202821 -0.069532484
0.09356215 -0.03404482 0.02752908 -0.13380896 -0.08187113 -0.2560064 0.17960668 0.08223413
0.030087642 -0.23133948 0.06740836 -0.030354157 -0.20202331 0.022276917 0.06088155 -0.12398476
-0.048133954 -0.1557402 0.16433449 0.13897285 -0.011228231 0.0131279025 -0.12939695 -0.15741402
-0.11083923 -0.34904858 -0.27337834 0.090495504 -0.25513858 -0.070065945 -0.18139422 -0.12496819
-0.06539321 -0.038822398 -0.33217385 0.042437024 -0.05711832 0.026912546 0.14486802 -0.20255484
-0.01147791 0.18134235 -0.26427004 0.09686654 -0.0074097794 0.21005672 0.22811632 -0.12678257
-0.25228816 0.0018079819 -0.055084668 0.19442481 0.15118915 -0.09483048 -0.122004606 -0.19048707
-0.14828604 -0.43540654 -0.1317188 -0.09199018 -0.65965056 -0.006188483 -0.6203484 0.18495348
-0.10106831 -0.19575426 -0.3801436 -0.6576146 -0.19272518 0.19392619 -0.109339125 0.24502023
0.012472348 -0.07028327 -0.018604973 -0.16582553 -0.2348688 -0.2969872 -0.23693334 0.18190412
-0.4198401 0.0026956347 -0.12881856 -0.088946745 -0.18166406 -0.27738684 -0.51626843 -0.42063555
-0.13034177 0.023685899 -0.105632 0.16941784 -0.43428853 -0.1919108 0.13466214 -0.38600537
-0.24202088 0.23116027 0.08206151 -0.49074554 -0.11001433 -0.07607599 -0.17086554 0.27619615
-0.0024497695 -0.051302254 0.12810089 0.046858877 0.09201053 0.24896312 0.27085418 0.23978482
0.26997003 0.05707186 -0.03371371 -0.18352655 -0.41746557 -0.12659779 0.1987446 -0.28081426
-0.20590703 0.1277507 0.13299374 -0.26207975 0.12922531 -0.02215788 0.019488867 -0.0527263
-0.1302389 -0.042482745 0.1618454 -0.00036167318 -0.003565617 -0.15593877 0.005049506 0.029325468
0.039196275 -0.023663223 -0.2718561 0.15073574 0.104176685 -0.091670185 -0.15443859 -0.029260127
-0.18364123 -0.079635024 -0.23276305 -0.21522121 0.01162654 0.031869676 0.02427055 0.15858063
-0.33597118 -0.058070917 -0.008445274 0.06928151 0.033149924 0.031674586 -0.11239499 -0.0029435777
-0.08367323 -0.040208794 0.04152564 -0.16947336 0.14123908 0.1401471 0.27412125 0.0090640485
-0.20958091 -0.10989777 0.12059317 0.031539604 -0.16710132 0.012364992 0.04433015 0.075957745
0.1259931 -0.03460963 -0.16688426 -0.25135553 0.19725022 -0.036151227 -0.17621364 0.028761081

value_fc2.bias f4 [32]
00000000: 6645 cebc 2f04 513d 997b 7f3c 1b8c 32bd
00000010: 092b 063d d004 b4bc 8f59 68bc d765 8dbc
00000020: 1489 27ba 8b6c 0c3c d1ab 763c ed02 0e3d
00000030: 5857 7a3c 4e44 3bbc eeee 353c 08ad f23c
00000040: 1213 7d3d ea01 cb3d 4c4c e9ba ad2e e03c
00000050: 94db 4c3c 69a2 ea3c 46a1 963d 773e 163d
00000060: 6376 3a3c b2ac 8a3c 53d6 223d 59b2 6a3b
00000070: 3063 c03c 00e9 103d 0ccf e0bc a966 233c
-0.025179576 0.05102938 0.015593433 -0.043590646 0.032755885 -0.021974951 -0.014181509 -0.017260475
-0.00063909707 0.008570801 0.015055613 0.03467076 0.015279613 -0.011429859 0.011104329 0.029623523
0.061785765 0.099124745 -0.0017799227 0.027366007 0.012503523 0.028641896 0.07354979 0.036680665
0.011380765 0.01692805 0.039755177 0.003581187 0.023484796 0.035378456 -0.027442478 0.009973207

value_fc3.weight f4 [1, 32]
00000000: 23b5 bbbd fb7b 613d 83fc 433f fc09 913e
00000010: a437 ccbd 2f45 033f 1ac7 8fbe 7cba fe3e
00000020: 43c2 d5be 92f9 c6be 4a31 60be a76b 3b3f
00000030: 80ef 583e a9dd 0dbe d912 ca3e 7eeb 473e
00000040: 37b1 8a3d 128d a43e fe95 9ebd 4805 77bd
00000050: 27c3 48be 8c3e 6e3e 2a3a 0d3e 1a23 8b3e
00000060: 085f 8f3d 7c84 a8be c67d 0b3f 0ac3 88be
00000070: 9e63 ae3e 724f 263f dcb3 de3e cbf7 f93e
-0.091654085 0.055049878 0.7655718 0.2832793 -0.0997155 0.5127744 -0.2808159 0.4975165
-0.41749772 -0.38862282 -0.21893802 0.7321114 0.21185112 -0.13854088 0.39467505 0.19523427
0.06772082 0.32138878 -0.077434525 -0.06030777 -0.19605695 0.23266047 0.13791719 0.27175218
0.07000548 -0.32913578 0.5448879 -0.26711303 0.34060377 0.64964974 0.43496597 0.48821864
