rl/spin_model_11292127/4.pt (torch_old, 159601 bytes, 12 tensors)

log_std f4 [51]
00000000: c782 ab3d c9e4 4f3d fe6e d43d 66b9 ae3d
00000010: ab17 9b3d aee6 d03d b5fe c33d 513f b73d
00000020: 1166 b43d 8b92 c23d a878 dc3d 94a9 ef3d
00000030: f960 c53d 6b9e e23d b5b9 dc3d de29 bc3d
00000040: 9746 b33d 5403 d63d c008 cf3d c33b c33d
00000050: 9141 e53d 0c80 ba3d 5e05 8a3d 1af3 843d
00000060: ad83 e63d a837 bb3d 8289 c23d e213 233e
00000070: 754e d23d 7bac d23d ca5d d23d e47a fa3d
00000080: 6595 d43d fa59 b43d 14ea a03d aaf4 923d
00000090: 0fe3 fb3d 78d4 b73d d2a5 8b3d 1e55 a43d
000000a0: 5b92 003e ecbf 093e e874 3e3d 7eb0 a33d
000000b0: 5762 993d f5b3 5c3d 4716 dd3d d8ba 1a3e
000000c0: f5db f53d 4bef e43d b1bf ea3d
0.08374553 0.050755296 0.103727326 0.08531456 0.07572874 0.10200249 0.09570066 0.089476235
0.0880853 0.09500607 0.10765201 0.11702266 0.09637637 0.11065372 0.10777608 0.09187673
0.08753698 0.104498535 0.10109091 0.09532883 0.111941464 0.09106454 0.06739305 0.064916804
0.11255584 0.09141475 0.09498884 0.15925553 0.10268871 0.10286804 0.10271795 0.12230471
0.10380057 0.08806224 0.07857147 0.07175572 0.12299167 0.08976072 0.06818737 0.08024047
0.1255583 0.13452119 0.04649821 0.079926476 0.0748946 0.053882558 0.10795265 0.15110338
0.12004844 0.11178454 0.114623435

policy_fc1.weight f4 [64, 261]
00000000: c50d 2a3d 68fa e3bd 38cc 05bd c081 47bb
00000010: 441d 1fbd 42a6 44bd 5679 5cbd 062d 233d
00000020: 6372 543d acf0 e63d fe55 c6bd c1ee edbd
00000030: fb36 29bd fbe9 e63c e7af 963d 5efd 40bd
00000040: a047 633c 32fb a3bc 645a 14bd 9677 613c
00000050: debb a9bd a918 00be d2f9 f8bd 5978 d1bd
00000060: 2030 843d 2cad 77bd a9eb 073e 3346 5d3d
00000070: 904e 76bc ce3b 00bd 4443 233d f1c9 613d
00000080: 7a29 df3d e225 fd3d 42af ffbd c35d 4bbd
00000090: ddf5 a23c ecdb b13d 9213 47bc e896 e1bd
000000a0: 261c f83d 2d8c dd3c ad71 b1bd ec69 cc3d
000000b0: 4fd6 abbd 428f dbbd db04 b4bd 98b7 08be
000000c0: 4f6b 66bc 9a62 4fbd 573c 41bd 1a01 2bbd
000000d0: c582 03bb 8f0f 1cbd 6649 413d ee4c c43d
000000e0: 278a 833d df20 15bd 6eb9 88bb 9613 543d
000000f0: 6ef8 c13d dce7 9b3d 7d59 00be de2d cdbd
00000100: 3afb de3d ebd2 883d 620f 3cbd 8ff0 0bbe
00000110: 9e8a 99bd 7040 84bd 891e f9bd ee1c dfbb
00000120: 5d9f ba3d 5049 c4bd 4166 0c3d da97 fbbd
00000130: a731 d53c 770f bdbd 11df 153d c62c 9cbd
00000140: a629 623d 4284 ff3d abf1 08be 00f2 c1bd
00000150: 9bf0 e3bd 528e cabd 6e5b f23d 20d5 ea3c
00000160: 1973 29bc b526 10bd 9e2f 0dbd 85aa 8ebc
00000170: 4d6f 3e3d 69fc 893d da03 9b3d bc21 bebb
00000180: 8cf7 623c dc6b 663d 9a3a a0bd 9471 1b3d
00000190: 7979 96bd a8c7 013e 9438 233d 667a f93c
000001a0: 9af9 2d3c 6303 ec3d 1c96 ef3c 2537 b33c
000001b0: b2c5 2fbd ab69 833d e520 b63d d4fd 893d
000001c0: 1695 e23d 02f1 32bd c07f 86bd b603 b7bc
000001d0: c69f e73c cb15 b23d b284 943d 631a ab3d
000001e0: 405f cc3c 6334 903d ac61 953d db88 febd
000001f0: ae10 803d d34e e9bd 161b 003e 6552 a93d
00000200: 20f8 183c 4e98 763d 8fe0 67bd b841 c03d
00000210: bcee 3f3c 16ed 27bd 0bea f3bc 5721 ea3d
00000220: 2b1d e33d c33f e03d c5c6 5eba e268 ba3d
00000230: bee1 773d a8a7 28bd 1c0b f63d bca2 99bd
00000240: ec43 92bc 74c2 83bd 4019 39bc d687 8fbb
00000250: 9f15 423d 35f9 47bc d588 37bd a4a7 3abd
00000260: 9352 e3bd 56e5 e53d 5cdf a1bd 9b06 e7bd
00000270: 132f aabd ae9d f5bc e2aa 95bd 8749 c33a
00000280: 32c4 d03d fa01 093e 1200 b9bc bbc2 aebd
00000290: 332b 36bb 46b7 f43c ffe0 493d f8f4 93bc
000002a0: 5b08 0f3d 9f5f 35bd ce4a 0b3e b3dd 9dbd
000002b0: 68e7 fe3d 3fad e13d 1875 e83d a73c febd
000002c0: 7566 d8bd f562 f7bd a503 d0bc 02a2 77bd
000002d0: f6c7 983c e4f0 2c3d a2ce 073e 00b6 c8bd
000002e0: eaf2 b23d a672 4bbd 47c0 393d c112 ce3d
000002f0: 43d0 5c3c 6955 f8bd e56a d6bc b487 c1bb
00000300: a789 743d aee0 c9bd 332a 2abc 1691 203d
00000310: d4d1 ed3d 4742 40bd ea9d 673d 8a33 97bd
00000320: a338 b53b 60cb 1ebc 0cbb cebd 4c73 c3bc
00000330: 2fe1 9d3a 3975 b53d ab23 73bd 659b 38bd
00000340: 9ef5 8dbd 45f8 a43a a658 a7bd 0593 b03d
00000350: 1795 bdbd b82a b73d d8c0 cc3c 24d5 f73d
00000360: 12af e33d 0403 d1bd 1145 fa3d 2fcf f1bd
00000370: 3569 41bd ba0f e23b 297a e4bd 0886 523d
00000380: 097a ecbc 07a7 d0bd 75a7 993d 3d72 e83d
00000390: be60 cabd 1e3d f539 e05a afbd 698b 90bd
000003a0: aaa0 f13d 2f87 ca3d 3cd9 e33d c9ee c2bc
000003b0: 48ab bbbd ed39 703d 11e3 12bd 6896 523c
000003c0: 9fa2 80bc ba79 fa3a ee56 193c bc63 a43d
000003d0: 7481 0a3d 3caf 9dbd d36e 96bd 8e4f 6b3c
000003e0: a6d4 aa3d 916a b738 0cdd 78bd 9c45 ee3d
000003f0: 0ca6 59bd b40c 90bc b524 6cbc d370 03be
0.041517038 -0.111317456 -0.03266546 -0.0030442327 -0.03884627 -0.04801012 -0.053826652 0.03983786
0.0518669 0.11276373 -0.096843705 -0.11617804 -0.0413122 0.028187742 0.073577695 -0.04711663
0.013872057 -0.02001724 -0.036219016 0.013761422 -0.08287786 -0.12509407 -0.121570244 -0.102280326
0.064544916 -0.060467884 0.13273491 0.054022025 -0.015033379 -0.031307034 0.03985907 0.055124227
0.10896583 0.12360741 -0.124846 -0.049649965 0.019892627 0.08684525 -0.012150662 -0.11015111
0.12114744 0.02704438 -0.0866426 0.099811405 -0.083904855 -0.10720684 -0.087899886 -0.13351285
-0.01406367 -0.050631143 -0.047176685 -0.041749097 -0.0020066958 -0.038100775 0.04718914 0.09584986
0.06422835 -0.0364083 -0.0041724956 0.05177649 0.09471212 0.07612583 -0.12534137 -0.10018514
0.108877614 0.066808544 -0.045913108 -0.13665985 -0.07497142 -0.06457603 -0.12164027 -0.0068088686
0.091124274 -0.09584296 0.034277204 -0.12284823 0.026024653 -0.09231465 0.036589686 -0.07625727
0.0552155 0.12476398 -0.13373439 -0.09469986 -0.11129876 -0.09890427 0.11833845 0.028666079
-0.010342383 -0.035193164 -0.03446924 -0.017415294 0.046492863 0.067375965 0.07569094 -0.0058023613
0.013852965 0.056255206 -0.07823677 0.037950113 -0.07347388 0.12673819 0.03984888 0.030453872
0.010618592 0.115240835 0.029246382 0.02187688 -0.042913146 0.06416639 0.08892993 0.06737867
0.11063592 -0.043686874 -0.06567335 -0.022340637 0.028274428 0.08695563 0.07251872 0.08354642
0.024947762 0.07041242 0.0729402 -0.12428447 0.062531814 -0.11391988 0.12510332 0.08267669
0.009336501 0.060203843 -0.05661064 0.09387535 0.011714634 -0.040997587 -0.029774686 0.1143214
0.11089548 0.109496616 -0.0008498247 0.09102036 0.06051802 -0.041175514 0.12013838 -0.07501742
-0.017854653 -0.06433573 -0.011297524 -0.0043802066 0.0473839 -0.012205412 -0.044808228 -0.04557003
-0.11099734 0.11225383 -0.079039305 -0.11280557 -0.0830976 -0.029982414 -0.07307984 0.0014899232
0.10193671 0.1337966 -0.022583041 -0.08533236 -0.0027796745 0.029872548 0.04928684 -0.018061146
0.034920078 -0.044280645 0.13602754 -0.077083014 0.12446481 0.11019372 0.11350459 -0.12413912
-0.10566417 -0.120794214 -0.025392363 -0.060457237 0.018650036 0.04222192 0.13262418 -0.09800339
0.087377384 -0.049669884 0.045349386 0.10062171 0.013477388 -0.12125666 -0.026174018 -0.0059060697
0.059701588 -0.098573074 -0.010386038 0.039200865 0.11612287 -0.046938207 0.056547083 -0.07382877
0.0055304333 -0.009692043 -0.1009427 -0.023858689 0.0012045259 0.08860249 -0.059360188 -0.04507007
-0.069316134 0.0012586197 -0.08171205 0.08621792 -0.09256952 0.08943695 0.024994299 0.121012
0.111173764 -0.10205653 0.122202046 -0.11807095 -0.047219474 0.0068988474 -0.11156113 0.051397353
-0.028866785 -0.10188108 0.07502643 0.11349914 -0.09881733 0.00046775577 -0.08562255 -0.070578404
0.11798222 0.098890655 0.111254185 -0.023795502 -0.09163529 0.058648992 -0.03586108 0.012853242
-0.015702544 0.0019109764 0.009359105 0.08026835 0.033814862 -0.07699439 -0.07345357 0.014362229
0.08341341 8.7459695e-05 -0.06075768 0.11634371 -0.05313687 -0.017584182 -0.0144130485 -0.12836008

policy_fc1.bias f4 [64]
00000000: a2ed 31bb b57b 8fbb b407 743a 383c fa3a
00000010: 9775 8b39 ca51 06bc 8644 373b 9e3d 4aba
00000020: 59e1 fb3a 2d1b 403a 5bc9 0abc a812 7e3a
00000030: 8cbd 093c 8bf7 8339 2158 38bb 0c8a 9bbb
00000040: 7144 3c3b f92e 84bb bb59 dcbb d8a0 483b
00000050: 5f17 40ba 2991 95bb f4a1 513b abdf 3dbb
00000060: 956d 47bb 6f48 00bb 0992 133b cd9f 26bc
00000070: c02a 09bb 4d2a d53a a7e5 ec3b e866 ac3a
00000080: 95de 233b bfc4 593a 286b f9ba aeb3 0dbb
00000090: f7d6 02ba 1110 7dbc dd45 80ba 00c8 cb3b
000000a0: 2959 70bb 8894 8aba 3311 c33b 0d4f 0fbc
000000b0: 8c57 1f3a eddf 26ba 66c9 9338 97ff a63b
000000c0: 30d5 febb 537c 15bc 9ede 643a 0b9c a6ba
000000d0: 5739 29bc 79b6 213c b6eb 1bbc 785c 08bb
000000e0: 45ba b93b a463 043c 5c44 9abb e5a7 c5ba
000000f0: 4372 253a c92a d3bb 4567 9dbb 16ee ddba
-0.0027149697 -0.0043787607 0.0009309009 0.0019091433 0.00026599757 -0.008198211 0.0027964427 -0.000771487
0.0019216939 0.0007328268 -0.008470858 0.0009692111 0.008407008 0.000251707 -0.00281287 -0.004746681
0.0028727318 -0.00403392 -0.006724564 0.0030613448 -0.00073277013 -0.0045644236 0.00319874 -0.0028972428
-0.0030430306 -0.0019574424 0.0022517464 -0.010169935 -0.0020930022 0.0016263217 0.007229525 0.0013153227
0.0025004495 0.00083072105 -0.0019029127 -0.002162199 -0.00049911387 -0.015445725 -0.0009786446 0.00621891
-0.0036674237 -0.001057283 0.005952978 -0.0087468745 0.0006078414 -0.0006365765 7.0470196e-05 0.0050963867
-0.007776879 -0.0091238795 0.00087306823 -0.0012711299 -0.010328612 0.009870165 -0.009516647 -0.0020807069
0.005667957 0.008080397 -0.004707856 -0.0015079944 0.0006311277 -0.0064443094 -0.0048035705 -0.0016931917

policy_fc2.weight f4 [32, 64]
00000000: 430e 6dbd c8f3 a03d 482e 35be befe 383e
00000010: 64d3 84be 0493 89bd c8ec 31be ab80 fcbc
00000020: 2183 54be e9d5 183d 95b8 a03d c885 103e
00000030: 979d 1e3e c0af 643d 5c72 afbd f1a2 13be
00000040: a517 ddbd 40d1 4d3d 1e8e 7dbd b502 9fbc
00000050: 51d4 48be c2f0 4c3e 701a 393e a924 233d
00000060: 2b5f 593e c228 a33d b78e 42be df22 2abe
00000070: 746a 1dbe 0f88 27be e208 7c3e c71a 4f3e
00000080: ccb8 313e a1be cf3c 63d4 273e e9c6 23be
00000090: 8554 1e3e 19be a13d 4320 e53c 2230 01be
000000a0: 8b3d 56be dd01 eabd 240e f5ba 68de 863c
000000b0: e6b9 72be f26a 2ebe 0e73 1abe 4606 0fbd
000000c0: d353 cbbd 5fb3 bebd 13a3 e43d 758c 2fbe
000000d0: 1397 93bc 4d41 09be 959d 393e cea6 32be
000000e0: a128 903d 192e ae3c 5909 0a3b 6326 123c
000000f0: ef7a 333e 17ad dc3d a3be 003e 300b 553e
00000100: cad6 12bd 0c92 3a3d 3da6 653e 106f 85bd
00000110: 5327 833e de36 123e 2bab a7bd 88af 663d
00000120: b70c 74be a466 3c3e 7002 0cbd 30f2 d0bd
00000130: 51b0 1a3e fd72 0e3e c691 173e 2257 023e
00000140: 9e5c 58be 2acb 203e 289b e5bc 4ac7 8fbd
00000150: 61ec 03bd 3717 2a3c 96b6 5c3e c178 e6bd
00000160: 2378 07be f8e4 7abe ac97 43be fbc5 5abe
00000170: b8c7 cd3c 7a87 423e 4b06 513e cc6a c93a
00000180: 8a9a 1fbe 5d98 21be 6b59 8a3e fc6f 0a3d
00000190: fc62 de3d 3e61 8a3c ae60 b4bd be7f 64be
000001a0: 600c f43d 516f 4f3e 1abe b73d 7119 41bd
000001b0: 0c75 2abe 0333 6b3c 4bd8 f33d 1a41 3c3e
000001c0: 1621 cabd 9236 573e 7a90 4b3e 7d7f c83d
000001d0: 790d 84bd 2354 8cbc 82c2 27be a608 c9bd
000001e0: 2494 273e 0b73 1c3e fedc 563e 32dc 503e
000001f0: fa7a 243e ead0 62be 5ea4 413d 6a6b 0dbe
00000200: 29c8 cbbd 215b 18be 8f31 81be 1b36 4b3e
00000210: ce76 cb3a 3545 d43d 43ab 933d 6006 30bd
00000220: 2449 673e d3e9 b33d 6547 ee3c b7cb 053e
00000230: 84d5 463e c71a 01be 0657 e1bd fe74 48be
00000240: 5be4 453e 7448 243e 7247 8e3d f8ac c6bd
00000250: 82df b23d 9deb 32bd e2a0 dcbd a24c 073d
00000260: 90bd 283e 82f7 89bc 8d1d 90be cb16 92bd
00000270: 6d8b 573e e62c 19be e00a 2abe b2c0 28be
00000280: 12fa a73d 678c 153e 4cf0 023e 53b4 683e
00000290: 8368 14bd 6f9c acbd 2a6e ee3d 82fa 263e
000002a0: 3981 e33d f2d4 723e 9a46 1fbe 92ad 8fbd
000002b0: 1021 fdbd 9b3d 0b3e 9618 f93d 7dc1 28be
000002c0: 373d 0d3e d4f3 c9bd f48d 463e 1baa 28bd
000002d0: 792d 2c3e 99da 78bc ecb4 403b 0a1c 7cbe
000002e0: 7a79 ea3d 7551 f8bd ce73 e93d 5655 be3d
000002f0: 1147 713e d489 97bd 01bd 233c 9b0e 62bd
00000300: 3089 273e d72c 0b3e 96b0 683e 0956 73be
00000310: c400 4bbe 6033 4abd 7947 e9bd 57aa 0d3e
00000320: 103c 16be a84e acbc 629a 36be 09a9 7f3e
00000330: 8115 22bd 7065 423e aa2f 4fbd 3a63 7abe
00000340: 84c8 3f3e bc6b de3d e5cb febd 4b81 f23d
00000350: 4981 8abd 69c6 fe3c 1ae3 273e 0e3f 69bd
00000360: 4045 8f3d 0454 503c 8e55 2bbe 2210 0d3e
00000370: e46c 623e b4ea 6abe d06e 343e 4e93 283e
00000380: 1c09 19be d4ea edbd a600 f83d 4dd1 7c3b
00000390: 9588 1b3e c7b9 8cbd aae9 0abe 73d9 983d
000003a0: 4d9c 9c3d b1e3 69be b7f7 fc3c 2767 e6bd
000003b0: 5d96 f9bd a6d7 d93d e834 473e d494 46bb
000003c0: 1823 e3bd 4583 36bd 83f3 2a3e 6658 dabd
000003d0: 1444 6abe 6c6e 353d 7eea 113e 1faa e9bd
000003e0: 8630 293e 7916 e7bd 5900 9cbc a9e5 603d
000003f0: 1a2f 583e 73b6 48be 2db5 5f39 0d44 313e
-0.05787493 0.078589976 -0.17693436 0.18065926 -0.25942528 -0.06717494 -0.17375481 -0.030823072
-0.20753147 0.037313376 0.07847706 0.14113533 0.15489803 0.05583167 -0.08566734 -0.14417626
-0.107955255 0.050248384 -0.06190311 -0.01941047 -0.19612242 0.20013717 0.18076491 0.039829884
0.2122771 0.07966758 -0.18999754 -0.16614865 -0.1537264 -0.16360496 0.24612764 0.20225058
0.1735565 0.025359454 0.16389613 -0.15993847 0.15461929 0.078975864 0.027969485 -0.12616017
-0.20921914 -0.11426137 -0.0018696231 0.016463473 -0.23703727 -0.17032984 -0.15082952 -0.034918092
-0.099280976 -0.09311556 0.111639164 -0.17143424 -0.018016374 -0.13403817 0.18126519 -0.17446443
0.07038999 0.021262215 0.00210627 0.008920285 0.17527364 0.10775202 0.12572722 0.20805049
-0.03584937 0.045549437 0.22426696 -0.06515324 0.2561594 0.14278743 -0.081869446 0.056319743
-0.23832975 0.1839853 -0.034182012 -0.102024436 0.15106322 0.13911052 0.14801702 0.12728551
-0.2112908 0.15702501 -0.028028086 -0.07020433 -0.03220785 0.010381511 0.21554026 -0.11253501
-0.13229422 -0.24501407 -0.19100827 -0.21364586 0.025119647 0.18996993 0.20412557 0.0015366911
-0.15586296 -0.15780778 0.27021345 0.033798203 0.108587235 0.016892072 -0.08807503 -0.22314355
0.11916423 0.20257308 0.08971806 -0.047143403 -0.16646212 0.014355424 0.11906489 0.1838421
-0.09869592 0.2101691 0.19879332 0.097899415 -0.06447882 -0.017129963 -0.16382793 -0.09816103
0.16365105 0.1527826 0.2098274 0.20396498 0.16062537 -0.22150007 0.047275893 -0.13810506
-0.09950287 -0.14878513 -0.25233123 0.19844858 0.0015523077 0.10364763 0.072104 -0.04297483
0.22586495 0.08784833 0.029086778 0.13065992 0.19417387 -0.12607871 -0.110029265 -0.19575879
0.19325392 0.16043264 0.06947221 -0.0970096 0.08734037 -0.04368173 -0.107728735 0.033032067
0.16478562 -0.016841654 -0.28147545 -0.07133254 0.2104928 -0.14958534 -0.16605711 -0.16479757
0.08201994 0.1460434 0.12786978 0.22725038 -0.036232483 -0.08428275 0.11642106 0.16306499
0.11108632 0.23714045 -0.15554276 -0.07015528 -0.12359822 0.1359772 0.121628925 -0.1648006
0.13792883 -0.0986096 0.19390088 -0.04117785 0.16814221 -0.0151888365 0.0029404713 -0.24620071
0.11448951 -0.12124912 0.11399041 0.0929362 0.23562266 -0.073993355 0.0099937925 -0.05518971
0.16360927 0.13591324 0.22723612 -0.23763289 -0.19824511 -0.0493654 -0.113905855 0.1383451
-0.1467135 -0.0210336 -0.1783233 0.24966826 -0.03957129 0.18984008 -0.050582565 -0.24451914
0.18728834 0.108603925 -0.124412335 0.11841067 -0.067629404 0.031100469 0.16395226 -0.0569449
0.0699563 0.012715343 -0.16731855 0.13775685 0.22111851 -0.22941095 0.17620397 0.16462442
-0.14944881 -0.116170555 0.12109499 0.0038576901 0.1518882 -0.06871372 -0.13565698 0.0746335
0.076469995 -0.22840764 0.030879838 -0.112501435 -0.12186883 0.10636835 0.19453776 -0.003030111
-0.11090678 -0.044558782 0.16694455 -0.10661392 -0.22877532 0.04429476 0.14249608 -0.11409401
0.16522416 -0.11283583 -0.019043135 0.05490652 0.21111718 -0.19600849 0.0002133443 0.17311116

policy_fc2.bias f4 [32]
00000000: d988 4739 53c6 853b e5a0 fcba 7db3 2fba
00000010: 6fbd d73a 017b 1cbb 8a66 99bb e64e 64bb
00000020: 647d 0f3c 5cc7 5f3c 1b8f 8c3b 5044 843c
00000030: 205e c6bb 952a bbbb 6dc7 1d3b f8ce 56bc
00000040: 479b 5d3b 83f8 b13b d65e e8bb e018 8dba
00000050: b32b 5f3b 275f 5f3b df77 033b ffb8 dbbb
00000060: 439c b2bb 16f2 3ebb 8754 00bb 5d15 9aba
00000070: c518 0bbc b32a 4abb 1e24 70bb 5629 95ba
0.00019029099 0.00408248 -0.0019274025 -0.0006702466 0.0016459654 -0.0023877027 -0.004681413 -0.0034837066
0.008757923 0.013658371 0.0042895204 0.016145855 -0.006053701 -0.0057118633 0.0024075166 -0.013110869
0.0033814476 0.0054312362 -0.0070913834 -0.001076486 0.0034053146 0.0034083815 0.0020060462 -0.006705403
-0.0054507568 -0.0029135994 -0.0019581632 -0.0011755634 -0.008489792 -0.0030848205 -0.0036642621 -0.0011380117

policy_fc3.weight f4 [51, 32]
00000000: 0d09 583e 4112 443e 3266 d73d 8905 50bd
00000010: 1e97 c9bc eb49 cfbd dbbd 593e 1aeb 183e
00000020: 30fc 973c f5af 75bb 59d9 53bd 7803 003e
00000030: 3c2b 803e 735d 72be 28a6 233e 8c80 023e
00000040: 9370 cf3d f7eb 5bbe b7e4 d5bc ea90 c53d
00000050: 4e5e 0d3d dc10 7fbe 1796 fc3d bce4 7c3e
00000060: 75f4 12be b3fe 883e d1ab 523e 9464 c53d
00000070: b5fe 903e cba5 4abe 4633 12be c55f 473b
00000080: 8b7e 2fbe de57 1e3e 8036 83be a47d 773e
00000090: 2441 35be 489a 6e3e 538f 193d 4fd4 3bbd
000000a0: f0f6 02bc 27cc 2dbe 510c 9dbd 0f6e 6d3d
000000b0: a9bd b8bd 637d ddbd 61fe 8bbd 3640 ea3c
000000c0: d81f 43be f8c1 07be a26e 64bd 2b95 17be
000000d0: 2465 16bd 310c 2d3e 565b 86be c313 353d
000000e0: 7857 e4bc 6a27 053e 0b7b d33d c1b3 1a3b
000000f0: ae4e a23d 01ba 743e 4372 5fbe 79ac 913d
00000100: d302 ddbd f648 cdbd befc 8b3d dea2 363e
00000110: 9f72 9cbd 7a7c 023d 1acd 943d 98bb c3bd
00000120: 6584 ce3d f309 0b3e 0ee1 4dbe d04c 0ebe
00000130: f619 6c3e 36dd 70bd 09f5 a8bb c52a c73d
00000140: f65c 983c 392e 333e b0a6 993d 5544 58be
00000150: 7c66 eebd 108a 1c3e 04b6 3abe 3796 3ebe
00000160: 7695 233d 37cb 2abe 3c3a 733e 2938 733e
00000170: dde9 cbbc 2a1e dcbd affd 11be 1488 783e
00000180: 4215 69be d3f0 fb3d d8f2 a23d e11b 4bbe
00000190: 2a11 c8bb d360 173e 8aa9 db3d b865 7bbe
000001a0: 88aa a939 9877 203e d5b2 3cbe 1225 dbbc
000001b0: 13d1 48be 2011 643e 1f28 c2bd 78df 503e
000001c0: 355a 023e 1336 7a3e 09a9 623e 94fa 143d
000001d0: 0f7d 5f3e 10df 79be 4144 443e 4ca2 383e
000001e0: 654d 85be 1b08 673e 0cf2 283e 0f54 15be
000001f0: c261 47be dd3f f93d 413c acbd d387 823e
00000200: 5ca1 2dbe 2967 383e 9fff 5a3e 527d 2a3e
00000210: f180 563d 073e 83be 297f fc3d a5ae 4cbe
00000220: d92c 2cbd 3804 67bd 8c41 653e 20e8 803d
00000230: d422 9fbd b9d8 023d 3220 8ebe 7049 103e
00000240: 6063 0b3e 532d cf3d db97 ffbd e7be 66be
00000250: ae30 483e fa87 233c 2611 4bbd de42 923d
00000260: dc0c d83d 7f35 013d 5342 583e e394 713e
00000270: a83d 3bba 9e9b ce3d c826 743e c358 8c3e
00000280: 0cd7 6f3d d8cc 653d 9e20 43be e49f 91bd
00000290: 79ad 533d 3903 a63d 6051 d1bd 0680 663e
000002a0: eebd 6dbe 6494 393b 10c3 813e fc7b d2ba
000002b0: adb1 45be 63e0 5f3e edaf 27bd a0aa 9abc
000002c0: 0da5 5b3d ce9d 95bd 8d06 84be dd33 983d
000002d0: c236 0bbe 560c d8bd ffa1 393c 289a 68bd
000002e0: 20d9 70be a073 fdbd 92fa debd 3dd8 d43d
000002f0: cd63 763d d9bc 563e 8161 44be 340b e53c
00000300: b4ee dabd fa77 883e 1a82 2d3e fee9 283e
00000310: da29 82be 01dc 3e3e b267 453e 2751 253e
00000320: 1509 503e cb3c b03d d5d4 713e e701 36bd
00000330: b01f b73d bc3f f13d b70f 973e aee7 30be
00000340: 8840 babd 7e6b adbd a558 17be 8343 c13d
00000350: 2a1a b73d dfa7 493e 58e0 86be f69b e8bd
00000360: 9749 f3bd 5f15 623e a2d4 58be fe47 323e
00000370: 6cc4 6ebe dbbc 40bd 3a1e 203e 40dd 0d3e
00000380: c455 c03d cefb 603e 4519 123e b1a0 2f3e
00000390: 36d9 593d 9d0b 453e bc6e d8bc ecdd 4c3e
000003a0: 2a17 7d3e e07b 3e3e 0acc 193d b0f2 343e
000003b0: c11a 23be 5bcc 303e 2546 253e 94e4 443e
000003c0: 50c4 10bc 42bd d0bb 38d8 1b3e 1b8c bebd
000003d0: a4fd cfbd 072d be3d 5a31 44bc ed62 ebbd
000003e0: de89 1ebe e329 2a3d a8ee 403d 1ac6 1cbe
000003f0: 8ec9 8c3e 672e 093e 579b a83c 0947 f1bd
0.21097203 0.19147588 0.10517539 -0.05078653 -0.024608191 -0.101215206 0.2126383 0.14933434
0.01855287 -0.0037488912 -0.05172095 0.12501323 0.25032985 -0.2366846 0.15981352 0.12744349
0.10128894 -0.21476732 -0.026110036 0.09646781 0.034513764 -0.24908775 0.12333315 0.2469663
-0.14351065 0.2675682 0.20573355 0.096383244 0.28319326 -0.19789807 -0.14277372 0.0030422073
-0.17138116 0.15463206 -0.25627518 0.24169022 -0.1770063 0.23301041 0.0374902 -0.04585677
-0.007993445 -0.16972409 -0.07668365 0.05796629 -0.0902055 -0.10814931 -0.06835628 0.028595071
-0.19055116 -0.13257587 -0.05576957 -0.14802997 -0.03671755 0.16899182 -0.2624156 0.0442083
-0.02787374 0.13003317 0.10326203 0.0023605677 0.07925163 0.2389908 -0.21820931 0.07112975
-0.10791554 -0.10023682 0.06835316 0.17835566 -0.0763905 0.03185699 0.072656825 -0.09557265
0.10083846 0.13578014 -0.20105383 -0.13896489 0.23056778 -0.058804713 -0.0051561636 0.097249545
0.018599015 0.17498101 0.07502496 -0.21119817 -0.11640641 0.15287042 -0.18233496 -0.1861199
0.03993746 -0.16679083 0.23752683 0.23751892 -0.024891788 -0.10747941 -0.14256929 0.2427066
-0.22762015 0.12301793 0.07956475 -0.19834854 -0.0061055617 0.1478303 0.107256964 -0.24550521
0.00032361248 0.15670621 -0.18427594 -0.026751075 -0.19611005 0.22272158 -0.09480309 0.20397747
0.12729724 0.2443469 0.22134794 0.036371782 0.2182505 -0.24401498 0.19166662 0.18030661
-0.2603561 0.22561686 0.16498584 -0.14582847 -0.19470885 0.12170384 -0.0840993 0.2549425
-0.16956085 0.18008102 0.21386574 0.16649368 0.05236906 -0.2563326 0.123289414 -0.19988497
-0.042034958 -0.056400508 0.22388285 0.06294274 -0.07770315 0.031944964 -0.27758938 0.14090514
0.13612127 0.10116067 -0.12480136 -0.22533761 0.1954982 0.00998115 -0.0495769 0.0714166
0.10549328 0.03154516 0.2111905 0.23591952 -0.00071426714 0.100882754 0.23842919 0.2741147
0.058554694 0.056103557 -0.19055411 -0.07110575 0.05167911 0.081060834 -0.10220599 0.22509775
-0.23216984 0.0028317207 0.25344133 -0.0016058679 -0.19306059 0.2186294 -0.04093926 -0.018880188
0.0536242 -0.073054895 -0.25786248 0.07431767 -0.13595107 -0.10549228 0.011330127 -0.05678764
-0.23520327 -0.12375569 -0.10887636 0.10392807 0.06015377 0.20970477 -0.1917782 0.027959444
-0.1069006 0.26654035 0.16944161 0.16495511 -0.25422555 0.18638612 0.19277838 0.16144238
0.20315965 0.08605345 0.23616345 -0.044435408 0.08941591 0.117797345 0.29504177 -0.17275879
-0.090943396 -0.08467768 -0.14779909 0.09436705 0.08940537 0.19692944 -0.26343036 -0.11357872
-0.118792705 0.22078465 -0.21174863 0.17410275 -0.23317116 -0.047055107 0.1563653 0.13853931
0.093913585 0.21971056 0.14267452 0.17151143 0.053185664 0.19242711 -0.02641999 0.20006531
0.24715868 0.18601942 0.037548102 0.17670703 -0.15928175 0.17265455 0.1614004 0.1922782
-0.008835867 -0.0063702175 0.152192 -0.09304067 -0.101558 0.09285932 -0.011974657 -0.11493478
-0.1548228 0.041543853 0.0471026 -0.15309945 0.27497524 0.13396607 0.020581884 -0.11781127

policy_fc3.bias f4 [51]
00000000: e1e7 c1b9 3f70 ac3b 2331 e9ba 1eda 94ba
00000010: d38a 7b3a dc40 fe3b 4839 c63b a8f9 8239
00000020: a171 8d3c 5b80 203b f0ca d5bb c153 a7bb
00000030: 2210 c0bb 68df ff3b 02e3 46bc da4f aebb
00000040: a6e4 733c 67f4 30bc 962c 373c 28f4 a9bc
00000050: f4ae e3bb 3a9f 0c3c 6fb3 d7bb 29b0 9a3c
00000060: 91a4 0abb e9b5 b33b 8e44 953c c923 513c
00000070: 34d1 4f3c d033 9dba 7116 e13b c971 78bb
00000080: fe8b 383c 5ad7 e7b8 83ba 813c 80bf 1bbc
00000090: b8b3 843b 38df 6fbc 799b a2bc 6392 2dbc
000000a0: 84f6 90bc e1c4 c63c 23bd 593c 88e7 323c
000000b0: 5cc3 53bc e24e 123b c2ce 923c 19df aa3c
000000c0: b64e d4bb ad6b a5bc 3bfb 123c
-0.00036984592 0.005262404 -0.0017791133 -0.0011356508 0.00095955766 0.0077591967 0.006049309 0.0002498154
0.017266097 0.0024490568 -0.006524436 -0.00510642 -0.005861298 0.0078086145 -0.012139084 -0.0053195776
0.014886057 -0.010800458 0.011180064 -0.020746306 -0.0069483463 0.008582884 -0.0065826694 0.018882828
-0.0021155218 0.005484332 0.018221166 0.0127648795 0.012684155 -0.0011993591 0.0068691303 -0.0037909618
0.0112638455 -0.00011055051 0.015836006 -0.009506106 0.0040497445 -0.014640622 -0.019849526 -0.010593983
-0.017695673 0.024263801 0.013289723 0.010919459 -0.012924995 0.002232485 0.017920855 0.020858334
-0.0064791096 -0.020192945 0.008971031

value_fc1.weight f4 [64, 261]
00000000: b0d3 3d3d 018b c6bd 7666 fe3d ba88 afbd
00000010: 1532 f63d 0f37 06be 5a03 323d 6b2a 8bbd
00000020: e1d8 873c 01e5 0b3e a13c e7bd 60fe eabd
00000030: 986a be3c 6c64 f1bd 8553 05be 3061 243e
00000040: 738e a63c ee92 923d d6ab b9bd 8f66 583c
00000050: 11e6 513b e456 8a3d 1d3e 0cbc 5691 f23c
00000060: 9d8c d03d 02bf 673d 6b6d 533d c356 3e3d
00000070: 0817 c7bc 487c e13d 0022 9ebb 8584 743d
00000080: a9ed c9bd a114 e7bd 20bb b6bc da52 36bc
00000090: 49c7 13be 02ed f03d 7a06 793d d11b a93b
000000a0: c10c edbd 9032 083e 2faa 8ebd b59e 3c3d
000000b0: 23af d13a 090f f0bd b0d2 523e 25e7 86bc
000000c0: 598c 743d fcb7 b93d c228 b33c a103 7cbb
000000d0: 1fdb 81bd ec83 53bd ede8 a23d 5e7b 233e
000000e0: 53dd 95bd 9256 82bd 24b4 c23d b41a 00be
000000f0: 971b ac3d 2524 d2bd 30fa 0abd b876 303d
00000100: 8ab3 ea3d a5ae a53d 1f70 c63d 95de 05bd
00000110: 60d6 d13d 5f5f 3ebd 4936 c63d 5363 6fbd
00000120: ae36 1bbd 13d9 d03d e327 2a3c 88ae 58bd
00000130: 3d07 75bd 1371 6d3d 1613 e6bd 0812 38bd
00000140: a05c 51bd b133 2b3d 9d47 073e acb3 803d
00000150: b08f 243d 0ff0 0d3e d56f 50bd e515 38bd
00000160: aec7 ab3d 3230 e9bc 59e5 973d 781b 77bd
00000170: 7605 51bb b813 da3d 3153 0b3d 0e19 e53d
00000180: 486e 0cbe d2ab 093e ef65 efbd 625d df3d
00000190: c39d d13d 2da2 1c3e e8c1 13be 7c06 163e
000001a0: 3af4 8fbb dd3d 343d 2938 6ebe c500 68bd
000001b0: 245c 45be b845 113e b96d 9bbd b6e6 8cba
000001c0: 784a aebd dc5e a23d fe96 e1bd c126 4dbc
000001d0: 7228 8e3d a903 6cbd 0e40 02bc 6928 abbd
000001e0: c4a1 0b3d bb10 bbbd c4e0 1cbe 77ae 45be
000001f0: b0ea b039 82cc d7bd 1111 533d 3828 683d
00000200: 0431 f8bc bad3 8abb 44cc e03d 7ca3 a1bd
00000210: 302e ce3d 4da4 10bd 4d45 d2bc b321 c63d
00000220: 6335 923d 5f6b d33d 5f2d 39bd 4ff2 1cbd
00000230: c951 e2bb f849 c9bb dbe9 8c3d 0907 12be
00000240: a34e d93c f5f1 b83c e741 bf3d 82b8 93bd
00000250: 643b ab3b 8786 79bd d65a 22be 027d e9bd
00000260: 9288 9a3d 9f2d a73d 0002 78bd 95fc 963c
00000270: 9605 2abc 9b29 2c3d 90d4 38bc ae0a 87bd
00000280: 7609 fe3d 6de1 313c e861 c0b9 1829 d43c
00000290: 24c2 6dbb 3120 fa3c fc8d 153d 226b 0abd
000002a0: 9c85 dfbc 0b07 d53d abd0 5c3b 1d6b 443d
000002b0: c717 07be f30f ccba 6df0 363d 9f8c f23d
000002c0: 50ff efbd 066c 873b ae45 03be fbe5 ecbd
000002d0: 78a5 9e3d e31b c33d c24e 123e 1684 cd3c
000002e0: 7a25 be3d 0b97 b33d 6b1f a23d e5d2 153e
000002f0: 06ef 0bbd 0055 a93d 8fe2 98bd 1136 cf3a
00000300: 9618 c33c 34d6 3a3b 9e41 0b3e 88cf e13d
00000310: 446a 9e3c 6b14 89bd 392b 973d fce5 85bd
00000320: 5c41 be3d b9d9 623d af24 20be 049c 2cbd
00000330: 457b ad3d b14e 193e 8ef8 8d3b dec2 e1bc
00000340: a0db 423c 7cbc ca3d d59f 19bd 7ec3 bc3b
00000350: ae91 52bd d450 d23a 5412 613d 20e3 a53d
00000360: b231 5c3e 049d f4bb 4223 2cbe 4fd0 1e3e
00000370: c048 55bd b948 c4bd 5fd2 6a3e 645d 263b
00000380: b87b ea3b 7543 b83d 5815 893d e5ab dd3b
00000390: c16f 4bbd 4b1e 033d adf2 81bd aff9 123e
000003a0: 5077 5e3d d176 de3d 0f12 8b3d 5a29 00be
000003b0: 05a3 6fbd adc2 fc3d 9ca1 7ebd cc2c 093e
000003c0: 8587 02bd e08d 333d 4ec2 9bbc 6b84 0b3e
000003d0: 0aae e6bc d75b 0dbd baba 5e3c c112 d33d
000003e0: 55d7 0e3e 623d 0a3d cc91 5f3d fb95 193e
000003f0: 0167 063e 972b 1ebe 16eb bf3c 3da8 313d
0.04634446 -0.09694482 0.124218866 -0.085710004 0.12021271 -0.1310694 0.043460228 -0.067952
0.016582908 0.13661577 -0.11290861 -0.114742994 0.023244187 -0.11786732 -0.13020141 0.16052699
0.020331597 0.07156931 -0.09065978 0.013208046 0.0032028 0.06754854 -0.008559731 0.029610317
0.1018307 0.056578644 0.05161802 0.04646946 -0.024302974 0.11010033 -0.0048258305 0.059696693
-0.09859783 -0.112832315 -0.022306025 -0.011128152 -0.1443149 0.11763956 0.060797192 0.0051607867
-0.11574698 0.13300538 -0.06966054 0.046049792 0.0015997629 -0.11721618 0.20588183 -0.01646764
0.05970416 0.09068295 0.02187002 -0.0038454311 -0.06340622 -0.051639482 0.07954583 0.1596503
-0.07317605 -0.06364168 0.09507015 -0.12510186 0.084037 -0.102608 -0.033930004 0.04308197
0.114600256 0.080899514 0.09689354 -0.032682974 0.10245967 -0.04647767 0.09678323 -0.058444332
-0.037893943 0.101976536 0.010385486 -0.05290082 -0.059821356 0.057969164 -0.11234109 -0.04493907
-0.051113725 0.041797344 0.13210912 0.0628427 0.040176094 0.13861106 -0.0508879 -0.044942755
0.08387695 -0.028465364 0.074167915 -0.06032893 -0.0031894124 0.10648292 0.034014884 0.111864194
-0.13713944 0.1344445 -0.11689364 0.10906483 0.10235169 0.1529624 -0.14429438 0.14650911
-0.0043931277 0.04400431 -0.23263611 -0.05664136 -0.1927343 0.14186752 -0.07589287 -0.001074991
-0.085102975 0.07928249 -0.110151276 -0.012521447 0.06941308 -0.057620678 -0.007949842 -0.08357317
0.03408982 -0.091340505 -0.15320116 -0.19304834 0.00033744192 -0.10537054 0.051529948 0.05667898
-0.03029681 -0.0042366656 0.109764606 -0.0789251 0.10067403 -0.03531294 -0.02566781 0.09674396
0.07139089 0.10323214 -0.045209285 -0.03831702 -0.006906722 -0.006142851 0.06880542 -0.14260496
0.026526755 0.022576312 0.09338742 -0.072129264 0.005225586 -0.06091931 -0.15854964 -0.114007965
0.0754558 0.081629984 -0.060548782 0.018430987 -0.010377308 0.042031866 -0.011281148 -0.06593834
0.12404148 0.010856968 -0.0003669404 0.025898501 -0.0036279047 0.030532928 0.03651236 -0.033793576
-0.02728539 0.10401734 0.0033693712 0.047953714 -0.13192664 -0.0015568718 0.04466288 0.118432276
-0.11718619 0.0041327504 -0.1281955 -0.11567303 0.077464044 0.09526803 0.14287856 0.025087398
0.09284492 0.087690435 0.07916149 0.14631231 -0.034163497 0.082681656 -0.074650876 0.001580896
0.023815434 0.0028509023 0.1359925 0.110259116 0.01933778 -0.066933475 0.07381291 -0.06538007
0.0928981 0.055383418 -0.15638994 -0.042140976 0.084707774 0.14971425 0.0043326085 -0.02755874
0.011893183 0.09899232 -0.037505943 0.005760609 -0.051408462 0.0016045817 0.05494912 0.08099961
0.21503332 -0.007465007 -0.16810325 0.15509151 -0.052071333 -0.09584183 0.22931813 0.0025385255
0.0071558617 0.089972414 0.06693524 0.006764876 -0.049667124 0.03201131 -0.06345115 0.14353059
0.054313004 0.10862506 0.06790554 -0.12515774 -0.058505077 0.12341819 -0.06216584 0.13395995
-0.031867523 0.043836474 -0.01901355 0.13624732 -0.02815916 -0.034511413 0.013594324 0.103063114
0.1394933 0.033749945 0.054582402 0.1499862 0.1312523 -0.15446316 0.023427527 0.043373335

value_fc1.bias f4 [64]
00000000: b3d1 9e3c fa24 a5bc 83a4 823c da79 673c
00000010: 16f7 0d3c ccdb fabc 68fc 9e3c b122 023d
00000020: 5386 753c 4783 2e3b 218a 873c 0d57 723c
00000030: a1ed 513c bd59 dc3b 869d d33c f067 fd3c
00000040: 27e7 16bc 909e 8a3c 5393 01bc f142 2f3c
00000050: 3383 543c 8c33 353c b7d4 d73c 6e70 65bc
00000060: a2df 1d3d 6eed ecbb 7b4e 503c f96d 2a3b
00000070: 175a 993c be36 f33c 9a13 a33c 3614 17bb
00000080: 2f0d b83c 2ef3 d03c 1d4d 0b3a c6d6 cc3c
00000090: 29ce 513b e193 2db9 6925 5a3c 6172 973b
000000a0: 9501 943c 4eb7 cd3c e336 963c d00f 553c
000000b0: a430 08bb 5b95 83bc 66b5 3dbb 79b3 b33a
000000c0: f2e1 ce3b 605b efbb afcd db3b d0a1 33bb
000000d0: 092e cfbc 8a63 f73c 7aa0 82ba 72da eb3c
000000e0: acda 173c d237 07bb 383c b03c 1d31 903c
000000f0: c548 7bba a757 41bc c7b1 83bb 00e1 8bbc
0.019387102 -0.020159233 0.015947586 0.014128173 0.008664867 -0.030622385 0.019407466 0.031771366
0.014985639 0.002662854 0.016545357 0.014791262 0.012813003 0.006724565 0.025831949 0.03093335
-0.009210384 0.016921312 -0.00790866 0.010697112 0.012970733 0.011059653 0.026346548 -0.014003856
0.03854335 -0.0072304523 0.012714024 0.002600549 0.018719716 0.029689189 0.019906808 -0.0023052818
0.022467224 0.025506582 0.000531392 0.025004756 0.003201375 -0.00016553655 0.013314583 0.0046217893
0.01806716 0.02511182 0.018336719 0.013004258 -0.0020780945 -0.01606243 -0.0028947233 0.0013710103
0.006313556 -0.007304594 0.006707869 -0.002740968 -0.025290506 0.030198831 -0.0009966039 0.028790686
0.009268444 -0.0020632637 0.02151309 0.017601544 -0.00095857336 -0.011800683 -0.0040189954 -0.017075062

value_fc2.weight f4 [32, 64]
00000000: 2ad4 55be e56f a0bb 8e83 f7bd 6d50 e4bd
00000010: 7cb5 233e 01dc 393e 7d60 0fbe 74de 813d
00000020: 8c73 8f3d 6d94 90be 99a5 00be 1cc8 26bc
00000030: 6c48 3f3d 80ec b13d 9451 863e 426e 2c3c
00000040: 7e62 cfbd 01f9 523e 19fd fa3d 5f48 15bd
00000050: 123c 0b3e bfbb 243e f0ac fabd 0c60 073e
00000060: bd27 653e 61fa 88be 247a 243e 0da9 2e3c
00000070: 392a 91be 065f 70be d08d 00be 794c 82bd
00000080: 6ec4 70bd d8ab 3a3e 68de 723e 996e cdbc
00000090: fdf1 1dbe 6dda 353e dd62 d13d 75b8 793d
000000a0: 396b ecbc 0af0 fc3d a99d 8fbe 481c c63d
000000b0: 6761 61bd 0ea8 983d 5cff 18bd 9fc4 febd
000000c0: c94c 97bb 5da0 013e 27a3 583e a4e1 88be
000000d0: a24b 243e 9cfb 32be 8d21 9eba e5cd 053e
000000e0: b99d 423e 3624 2ebe b44f edbd 6c46 41be
000000f0: 8289 6fbc 39b2 7b3e b873 49be 872d 23be
00000100: 6930 70be cd14 df3d 03d2 643d 3e3c ec3d
00000110: f3f1 063e 8854 e23c 6fc6 053e 6975 77bd
00000120: 6295 563d bbbb f4bc ab94 62be f3d9 5cbe
00000130: c93e 3fbd 7cbc 2bbe 80a6 013e 3666 4ebc
00000140: 8b99 be3d a3e0 67be 7050 233e b862 ebbd
00000150: 501f e4bd 62f7 7d3d 24ca 3a3c 31ef e1bd
00000160: 3ed7 283c cecf 223d 1091 1c3e 534c a83d
00000170: 4409 1e3d 0069 76bc a63a 1bbe 5593 40be
00000180: 01e8 c6bd f42d 70be ecfe 2dbe a260 6d3d
00000190: 8114 47be c14e 37be 4ea7 e4bd 5a5c aabd
000001a0: 0b36 e4bc b86e 5ebd 471a 4fbe ee09 0b3e
000001b0: daa0 8e3c f24a 79bb a1d1 4dbd f073 54be
000001c0: 4fae 38bd 2b73 583e 9a27 86be 0edb fa3c
000001d0: 3f40 3e3d 4d95 1d3e 8e27 613e 1533 65be
000001e0: 7dcf 7bbe 53c7 acbb 706a c1bd 24af 213e
000001f0: 5672 4b3e ab5f 8dbd 1cfb f53b af82 65be
00000200: d9b8 3fbe 1664 a7bd b27f 01be 1a71 d5bd
00000210: 32a4 40be 0964 493d ee3b 95be 2ae4 cf3d
00000220: b2c0 4abe 43d2 78be be84 b9bd 348c 7cbe
00000230: a03a cebd 8e98 243e 912c 8f3e 5bc2 463e
00000240: 630f 02bd 6ab6 19be 63c8 793d 4130 23be
00000250: 3f6a 0ebe 6b43 d7bd 71aa 35bd 0673 023e
00000260: 3cc0 8cbe 3755 3b3e 6ccf 75be e0c5 31be
00000270: f847 2f3d 7e11 5abe d747 2ebe 0ad3 82be
00000280: ea20 3ebe 8936 03be 843e b1bd c33b f13d
00000290: 5801 31be 199b d6bd 3b15 4a3e 8299 51be
000002a0: e862 2fbc 4054 8d3d 57c1 013e ecab e6bd
000002b0: 62fa e5bd 125e 3fbe 61d7 1f3e 82ec 533e
000002c0: aff8 a9bd f058 3d3e 8973 913d 0462 9cbd
000002d0: 1d6d c53d d95b 523e 6b84 583e 9778 183e
000002e0: ff48 733e 5235 3a3b b464 eabd 7f69 51be
000002f0: 29a7 0dbe 0b25 263e b483 4b3e 7491 62be
00000300: 5c3f 26be 51fe 943d 25e5 003e 5f7b 13be
00000310: 55ac bd3d 16de dc3c 38a3 afbc 367a 5fbd
00000320: 3fb7 03be 2ef6 3bbc 7286 ee3d 1584 9f3d
00000330: be03 d1bc 1cf2 2dbe 58f7 8ebc 1a1c 8c3d
00000340: 4b72 a63d 8d89 debb 59cf 3ebe f302 203e
00000350: 2662 cc3d f612 a7bd b355 2bbe 1b6d fcbc
00000360: f0a1 55be fde1 a9bd 823a 6ebe 886a 5fbe
00000370: 8d93 8dbc 48d0 933d d006 e3bd a8ee 2b3e
00000380: 846a b4be 2c4a 97bb d175 57bc fd88 713d
00000390: 66fb 4d3d 627c eebc b814 f6bd bd6c 89bc
000003a0: 1608 f7bd 421d 63bc 7709 b23d 85cd 0dbe
000003b0: 742b 043e e16f 163e 4837 7f3e 6668 223d
000003c0: 727c 49be 579a 52be 94a3 f83d cb56 353d
000003d0: e073 30be d17a 903c e390 0f3d 882a a73d
000003e0: b70a 3a3e 0650 2bbc 5ecb 47be 24d7 93be
000003f0: c788 903e 9e7f a4bd 3b62 2ebe 8ae4 1c3d
-0.20881715 -0.0048961514 -0.12085639 -0.111481525 0.159872 0.18150331 -0.14001651 0.06341258
0.07004461 -0.2823824 -0.1256317 -0.010179546 0.046699926 0.08687687 0.26234114 0.010524334
-0.10126208 0.206028 0.12255306 -0.03644597 0.13597134 0.16087244 -0.122400165 0.13220233
0.2237844 -0.26753524 0.16062218 0.010660422 -0.28352526 -0.23473749 -0.12554097 -0.06362242
-0.05878108 0.18229616 0.23717654 -0.025077151 -0.15424342 0.17759104 0.10223935 0.060966928
-0.028859721 0.12350471 -0.28049973 0.09673363 -0.05502453 0.07453929 -0.037352905 -0.12439846
-0.004617308 0.1265883 0.21155988 -0.2673465 0.16044477 -0.17478794 -0.0012064442 0.13066824
0.19005479 -0.17006001 -0.11587468 -0.1887452 -0.014620187 0.24579705 -0.1967305 -0.15935336
-0.23455967 0.10892639 0.055864345 0.11534928 0.13178234 0.027628198 0.13063978 -0.060414705
0.052388556 -0.029874673 -0.22127025 -0.21567516 -0.046690736 -0.1677112 0.12661171 -0.012597611
0.0930663 -0.22644286 0.15948653 -0.114934385 -0.11138785 0.0620035 0.011400733 -0.1103195
0.010305224 0.03974896 0.15289712 0.08217683 0.038583055 -0.015039682 -0.15159091 -0.18806203
-0.0971222 -0.2345503 -0.16991776 0.057953484 -0.19441415 -0.17901136 -0.11164723 -0.08318396
-0.027857801 -0.05430481 -0.20224868 0.13578007 0.017410684 -0.0038039056 -0.050248746 -0.20747352
-0.04508811 0.21137683 -0.2620209 0.030622032 0.04644799 0.15388985 0.21987745 -0.22382767
-0.24590869 -0.0052727847 -0.094441295 0.15789467 0.19867834 -0.06903013 0.007506741 -0.22413133
-0.18722858 -0.08173387 -0.12646368 -0.10421963 -0.18812636 0.049167667 -0.29147285 0.10150941
-0.1980007 -0.24298958 -0.09058522 -0.24662858 -0.100697756 0.1607382 0.2796369 0.19410078
-0.031752955 -0.15010992 0.06098212 -0.15936376 -0.13907717 -0.10510906 -0.044352 0.1273919
-0.27490413 0.18294226 -0.24004906 -0.1736064 0.042793244 -0.21295735 -0.17019592 -0.25551635
-0.18567243 -0.12813772 -0.08654502 0.11778977 -0.17285669 -0.10478801 0.19734661 -0.20468715
-0.010704733 0.06900835 0.1267141 -0.1126326 -0.11229397 -0.18688229 0.15609504 0.2069569
-0.08299386 0.18490958 0.07102115 -0.076358825 0.09639952 0.2054285 0.21144263 0.14889751
0.23758315 0.002841313 -0.11444989 -0.204504 -0.13833298 0.16225068 0.1987446 -0.22125798
-0.16235107 0.072750695 0.12587412 -0.14402531 0.09261385 0.026961368 -0.021440133 -0.05455991
-0.12862872 -0.011472268 0.11646737 0.077888645 -0.02551448 -0.16986889 -0.017451927 0.068412974
0.081272684 -0.0067912997 -0.18633784 0.15626125 0.09979658 -0.081579134 -0.1673191 -0.030813744
-0.20862556 -0.08295057 -0.23264506 -0.21817982 -0.017282272 0.07217461 -0.11085284 0.16790259
-0.35237515 -0.0046169963 -0.013150648 0.058968533 0.05028858 -0.029112045 -0.120156705 -0.016775483
-0.12062089 -0.013861956 0.086932115 -0.1384793 0.12907201 0.14691116 0.24923432 0.039650343
-0.19676378 -0.20566688 0.12140575 0.044272225 -0.17231703 0.017636688 0.035050284 0.08162409
0.1816815 -0.010456091 -0.19511172 -0.28875077 0.28229353 -0.080321535 -0.1702966 0.03830389

value_fc2.bias f4 [32]
00000000: 93f3 0fbc e796 81bc 1787 80bc 41b8 d2bc
00000010: b712 843b 6187 ae3c 1826 a53b f492 6bb8
00000020: 4c62 463c 1530 89bb 738c d83c ec46 e53c
00000030: 3cce 1ebb 944c ad3a bccb a13c dc04 9a3c
00000040: ad46 053d 4422 4f3d 174d b7bb d205 273d
00000050: 7727 19bc 4419 25ba cb1e 0c3d d486 ae3c
00000060: a215 4d3c 7bd7 213c 5721 e43c 34d3 083b
00000070: 8891 393c 9a89 d23c 1421 1bbc e6ec 093c
-0.0087861 -0.015819026 -0.015689416 -0.025722625 0.0040305513 0.021304788 0.0050399415 -5.6165227e-05
0.012108397 -0.00418664 0.026434159 0.02798792 -0.0024231812 0.0013221675 0.019750468 0.018801145
0.032538105 0.050569788 -0.0055939066 0.040777035 -0.009347788 -0.00062980154 0.034209054 0.021304525
0.012517365 0.009878035 0.027847929 0.002087784 0.011326201 0.02570038 -0.009468336 0.008418297

value_fc3.weight f4 [1, 32]
00000000: 5d05 1abe 4be1 073d f38b 813e aadd d23e
00000010: bc4e 10be c7a3 b63e 2865 9ebe 03ba d03e
00000020: a2df e1be 7ba7 c6be cc73 81be 8239 0a3f
00000030: 71ce 8e3e 704a 32be 9b0b e63e 7fd5 633e
00000040: f899 a83d 0ff4 173e 246f 01be 3b36 aabd
00000050: c567 81be d2ee 943e 9980 203e 2a46 6c3e
00000060: 5f0c 8a3d 4726 9fbe 4d68 aa3e f981 88be
00000070: 1a5c 923e b21b fa3e df54 ac3e 4cb4 b63e
-0.15041108 0.03317384 0.25302085 0.4118474 -0.14092535 0.35671827 -0.3093655 0.40766916
-0.4411593 -0.38799652 -0.25283659 0.53994 0.27891877 -0.17411208 0.4493073 0.22249411
0.08232492 0.14839195 -0.12640053 -0.08311125 -0.25274482 0.29088455 0.15674056 0.2307364
0.06740641 -0.3108389 0.332827 -0.2666166 0.28585893 0.48849255 0.33658502 0.3568443
