rl/spin_model_11301424/23.pt (torch_old, 160417 bytes, 12 tensors)

log_std f4 [57]
0.042405922 0.070190534 0.18132268 0.049544953 0.055930596 0.08147874 -0.05642394 0.10851371
-0.002031104 0.13554198 0.090395495 -0.014159982 -0.008595516 0.055773642 0.08165719 0.1172178
0.048947327 0.10662859 0.17665803 0.1397228 0.05889161 0.06809212 0.12228453 0.04944949
0.11310155 0.11121451 0.08319506 0.061787937 0.07895749 0.17584525 0.17290677 0.13655332
0.11117107 0.101385474 0.04935399 0.07698711 0.03356788 0.07030122 0.042022116 -0.014000254
0.1128263 0.079141065 0.095295034 0.16297029 0.09214463 0.09296194 0.23258214 0.07976553
0.09364483 0.10400939 0.08998664 0.015893355 0.116578005 0.12259573 0.096952654 0.20689406
0.032777682
00000000: d5b1 2d3d 0ec0 8f3d a7ac 393e a6ef 4a3d
00000010: 7b17 653d 53de a63d ca1c 67bd 703c de3d
00000020: 451c 05bb 84cb 0a3e 4621 b93d 45ff 67bc
00000030: 35d4 0cbc e772 643d e33b a73d e30f f03d
00000040: fe7c 483d 1760 da3d d8e5 343e 7e13 0f3e
00000050: 5438 713d e273 8b3d 5070 fa3d 8c8b 4a3d
00000060: c9a1 e73d 6fc4 e33d 2c62 aa3d 5915 7d3d
00000070: 77b4 a13d c710 343e 790e 313e a2d4 0b3e
00000080: a8ad e33d 30a3 cf3d 6927 4a3d 6bab 9d3d
00000090: 797e 093d 16fa 8f3d 621f 2c3d 5261 65bc
000000a0: 7a11 e73d b614 a23d 0b2a c33d afe1 263e
000000b0: 53b6 bc3d d462 be3d 032a 6e3e 1c5c a33d
000000c0: dcc8 bf3d e002 d53d ea4a b83d c832 823c
000000d0: 73c0 ee3d 7813 fb3d 1d8f c63d 09dc 533e
000000e0: e441 063d

policy_fc1.weight f4 [64, 261]
0.05503192 -0.009727135 0.09956561 -0.018548936 0.12178485 0.023355568 0.13852271 0.051477384
0.030309184 -0.08666999 0.0051555047 0.095891096 0.09347106 0.0316648 0.03314946 -0.0067515248
-0.034947276 -0.028448364 -0.044352684 0.069722176 0.10852171 0.10823341 0.05974038 0.048152186
-0.14954801 -0.1676126 0.08389041 0.0061763115 -0.048209332 0.023409052 0.098930925 0.03096667
0.07396941 0.11933984 -0.08426825 0.11372118 0.14060992 -0.07673005 0.028579691 0.012553239
0.11430116 0.11060243 -0.027048351 0.010161611 -0.094356924 0.027594559 0.07044467 0.054010287
0.047421042 0.0643209 -0.0042064213 -0.05990792 -0.14232136 0.002965986 -0.06754907 -0.096738115
0.013436409 -0.14131525 0.10669129 -0.08548007 0.10654168 -0.1065634 0.011281773 0.12951364
-0.05577234 -0.005465016 0.048410185 -0.12242869 -0.060596533 -0.12741958 -0.121672995 -0.061731584
-0.035188925 -0.0008465323 -0.047167983 -0.051715326 0.06228385 0.016896028 -0.15029265 -0.099800415
-0.06743977 -0.005503252 0.09500628 0.016091743 -0.1537709 0.04750522 0.15741272 0.052285332
-0.047531057 0.029630203 0.0012463696 0.12813006 0.040277425 -0.0384811 0.0041188253 -0.04398102
0.037075385 -0.02669689 -0.09401758 -0.064812526 0.12106558 -0.11009582 -0.09424448 -0.058080014
-0.058444843 0.084583335 -0.09147498 -0.12098696 -0.05257433 0.017870123 0.03015332 -0.030388325
-0.10257014 0.037668847 -0.12763804 -0.07307348 0.1055314 0.10542878 0.041024018 0.11702068
0.14771701 0.034157604 0.06110822 0.0074414825 0.016856696 0.0498808 0.08951961 0.09639003
0.11312452 -0.029448548 -0.02824451 0.024100684 -0.09899682 0.073784605 0.047884714 0.081113555
0.0121396305 0.12099462 0.069576755 0.08154592 0.18015474 0.08182284 0.015414902 -0.016995553
0.09714567 -0.07429624 0.046224896 -0.014946516 0.07384124 -0.04721609 -0.025997002 0.0059549636
-0.06373287 0.030662326 -0.091273524 0.105614506 0.13494126 -0.12970454 0.0749206 0.06215173
-0.080851495 0.017314304 0.177588 -0.06408194 0.06707716 0.070289336 -0.037261996 -0.033715487
0.10245366 -0.046740595 -0.077764496 0.07118872 0.0008346738 0.086617336 0.08771365 0.104419395
0.15578797 0.019053966 -0.12067894 0.071452454 0.045072652 0.1279878 0.14974391 0.13493116
-0.055897184 -0.0924555 0.22896491 -0.050764672 -0.031859417 0.03445035 0.073218144 0.17788354
-0.055672225 0.07543496 -0.004843375 -0.07718909 0.100843295 -0.0010423836 -0.06448119 -0.043677837
0.028485987 0.063984975 -0.04850792 -0.01672146 0.08006686 0.020346439 -0.14589074 0.09033281
-0.003947132 0.081490695 0.013940374 -0.11522472 0.037865464 0.11221345 0.0053088483 0.05635154
-0.035853237 -0.05937004 -0.11776505 -0.13363072 0.12795232 0.06584448 0.00494477 -0.02188265
-0.08803976 -0.05940634 0.16203831 -0.16384955 0.07986355 -0.08947003 0.060763035 0.10483151
-0.024169965 -0.003551987 0.06256071 -0.03976905 -0.052807998 0.08437098 -0.12432657 -0.09835948
-0.008622456 0.012208922 0.006352083 0.11056876 0.07375242 0.062158093 0.11804524 0.056736317
0.04367597 0.025049087 -0.05178651 -0.08973595 0.026376152 0.107313365 -0.09520963 -0.0630306
00000000: 2769 613d 905e 1fbc 0ee9 cb3d f0f3 97bc
00000010: 566a f93d 2d54 bf3c e6d8 0d3e f3d9 523d
00000020: f74a f83c 0980 b1bd 82ef a83b 8d62 c43d
00000030: c16d bf3d f3b2 013d bac7 073d e53b ddbb
00000040: e024 0fbd 8b0c e9bc 29ab 35bd 80ca 8e3d
00000050: a140 de3d 7aa9 dd3d 54b2 743d 3a3b 453d
00000060: 1d23 19be a3a2 2bbe bcce ab3d a862 ca3b
00000070: 2677 45bd 57c4 bf3c 4c9c ca3d d0ad fd3c
00000080: 467d 973d 7268 f43d d594 acbd a6e6 e83d
00000090: 0cfc 0f3e a524 9dbd f51f ea3c 1aac 4d3c
000000a0: ba16 ea3d 8783 e23d 8194 ddbc e37c 263c
000000b0: 343e c1bd fc0d e23c 4c45 903d e439 5d3d
000000c0: 913c 423d adba 833d 05d6 89bb 0262 75bd
000000d0: b1bc 11be fd60 423b 2b57 8abd a21e c6bd
000000e0: 6224 5c3c f2b4 10be f780 da3d 2d10 afbd
000000f0: 8632 da3d e93d dabd 30d7 383c 399f 043e
00000100: 8a71 64bd e013 b3bb c249 463d e5bb fabd
00000110: 1234 78bd 477a 02be b12f f9bd 42da 7cbd
00000120: 4322 10bd d2e9 5dba 3733 41bd 73d3 53bd
00000130: 5a1d 7f3d 8a69 8a3c 51e6 19be 2964 ccbd
00000140: dd1d 8abd a054 b4bb a792 c23d d5d2 833c
00000150: 1e76 1dbe d594 423d cd30 213e 2529 563d
00000160: edaf 42bd 0abb f23c 395d a33a 8734 033e
00000170: f1f9 243d 5c9e 1dbd 36f7 863b 7125 34bd
00000180: 5cdc 173d 70b3 dabc 4a8c c0bd 6ebc 84bd
00000190: 3bf1 f73d eb79 e1bd 4003 c1bd 4fe5 6dbd
000001a0: dc63 6fbd 073a ad3d 3c57 bbbd 03c8 f7bd
000001b0: 2e58 57bd 5d64 923c 1804 f73c f0f0 f8bc
000001c0: 4b10 d2bd a64a 1a3d 8cb3 02be 8ca7 95bd
000001d0: d920 d83d 0beb d73d cd08 283d 8aa8 ef3d
000001e0: 2143 173e d8e8 0b3d 9d4c 7a3d aed7 f33b
000001f0: 0e17 8a3c cf4f 4c3d 0f56 b73d 2368 c53d
00000200: d4ad e73d 153e f1bc 0861 e7bc cc6e c53c
00000210: d8be cabd 621c 973d c322 443d dd1e a63d
00000220: 4de5 463c 07cc f73d 427e 8e3d 8c01 a73d
00000230: 7c7a 383e bc92 a73d c98e 7c3c 423a 8bbc
00000240: 4ff4 c63d a128 98bd 5156 3d3d 3be2 74bc
00000250: 133a 973d a965 41bd aaf7 d4bc db21 c33b
00000260: 6186 82bd 8f2f fb3c 9ded babd 6b4c d83d
00000270: 0b2e 0a3e 44d1 04be f96f 993d d092 7e3d
00000280: 7895 a5bd bad6 8d3c a1d9 353e 643d 83bd
00000290: c05f 893d dbf3 8f3d 09a0 18bd 4019 0abd
000002a0: 39d3 d13d 1173 3fbd fe42 9fbd 64cb 913d
000002b0: 03ce 5a3a 6e64 b13d 37a3 b33d d6d9 d53d
000002c0: e286 1f3e 1017 9c3c 8526 f7bd aa55 923d
000002d0: 1a9e 383d 3c0f 033e 7856 193e 652b 0a3e
000002e0: 72f4 64bd 4f59 bdbd c775 6a3e 9eee 4fbd
000002f0: 057f 02bd cf1b 0d3d 65f3 953d 1a27 363e
00000300: 8f08 64bd a57d 9a3d 2db5 9ebb 5015 9ebd
00000310: ee86 ce3d 97a0 88ba b70e 84bd 88e7 32bd
00000320: 725b e93c 8e0a 833d 3eb0 46bd 71fb 88bc
00000330: 18fa a33d 93ad a63c 6264 15be 6900 b93d
00000340: f156 81bb 98e4 a63d 2b66 643c f0fa ebbd
00000350: d118 1b3d 2ad0 e53d d9f5 ad3b dfd0 663d
00000360: d8da 12bd 002e 73bd cd2e f1bd 7ed6 08be
00000370: ef05 033e 79d9 863d bd07 a23b 3e43 b3bc
00000380: 314e b4bd 1054 73bd 5fed 253e 2dc8 27be
00000390: 808f a33d 103c b7bd a9e2 783d e7b1 d63d
000003a0: 1700 c6bc 74c8 68bb d41f 803d dfe4 22bd
000003b0: 334d 58bd b1ca ac3d ee9e febd b270 c9bd
000003c0: 3445 0dbc ee07 483c 2225 d03b e071 e23d
000003d0: 820b 973d 7c99 7e3d b4c1 f13d 5764 683d
000003e0: 93e5 323d be33 cd3c 171e 54bd 7bc7 b7bd
000003f0: cd12 d83c 1cc7 db3d 44fd c2bd 3016 81bd

policy_fc1.bias f4 [64]
-0.013369419 0.0049092523 0.0034781545 -0.008341516 0.0030583842 0.01848497 0.00044414875 -0.008771242
-0.011225562 -0.0019090807 -0.014838609 -0.009758338 -0.012586814 -0.012305509 0.007179204 -0.00037085178
0.0052639027 -0.0016207127 -0.01437171 -0.02353787 -0.0037705852 -0.005214774 -0.0009967054 -0.0057835327
-0.012667241 -0.012177815 -0.0062953304 -0.016104294 0.009631576 0.008334392 0.008982341 -0.015915118
0.0069025466 -0.02067678 -0.0021913145 -0.0068551255 -0.06982847 0.0026053938 -0.023226473 -0.016639575
-0.049473204 -0.013996858 -0.0016372502 -0.03235511 0.0028312656 -0.001515102 -0.002652821 -0.00327399
-0.031835206 0.0004821291 -0.005267427 -0.025421172 -0.008040557 -0.025894256 -0.0040031825 -0.021307774
0.0038183688 -0.029239718 -0.040848017 -0.024894547 -0.023801474 -0.019652475 0.0029136806 -0.012338251
00000000: 680b 5bbc cbdd a03b c0f1 633b dbaa 08bc
00000010: 2c6f 483b cb6d 973c a3dc e839 41b5 0fbc
00000020: 6beb 37bc 1e3a faba a31d 73bc 70e1 1fbc
00000030: ed38 4ebc 0c9d 49bc 873f eb3b e26e c2b9
00000040: d17c ac3b 186e d4ba 5277 6bbc 7ed2 c0bc
00000050: ec1b 77bb b2e0 aabb e2a3 82ba ca83 bdbb
00000060: 428a 4fbc 7585 47bc 0f49 cebb 27ed 83bc
00000070: c2cd 1d3c f98c 083c ab2a 133c 6c60 82bc
00000080: c22e e23b 5a62 a9bc 289c 0fbb f6a0 e0bb
00000090: 3b02 8fbd 41bf 2a3b 7245 bebc b84f 88bc
000000a0: 6aa4 4abd 1453 65bc 0099 d6ba cb86 04bd
000000b0: c18c 393b 6396 c6ba f3da 2dbb 7090 56bb
000000c0: a265 02bd 46c6 fc39 619a acbb 1040 d0bc
000000d0: 8abc 03bc 3120 d4bc 212d 83bb a48d aebc
000000e0: 993d 7a3b 2288 efbc 4050 27bd a6ef cbbc
000000f0: 4ffb c2bc 3afe a0bc 73f3 3e3b 6026 4abc

policy_fc2.weight f4 [32, 64]
-0.16063066 0.19918886 -0.24648853 0.22269937 -0.15421 -0.13625397 0.10076086 0.20452495
0.10550868 -0.17531821 -0.06802071 -0.024998056 -0.123421855 -0.011013839 0.25612256 0.22698237
0.15679364 -0.057346582 0.14217938 0.22161059 0.009738929 -0.11912433 0.12426611 -0.016197179
-0.0035077622 -0.16253991 0.007685304 0.12620966 0.09113646 -0.19211054 0.04602315 0.028894546
0.095108256 -0.09238626 -0.12997158 0.07474714 0.22185944 -0.07926538 -0.15626417 0.13690092
-0.009989355 0.17605065 0.2235588 0.1906366 -0.031778697 0.18341696 -0.046945587 0.039736122
0.23591281 0.06844257 0.18315609 0.047517914 0.0360486 -0.050047465 -0.20224923 -0.0019118207
-0.23060542 -0.018223833 0.08870213 -0.23346028 0.08647773 -0.010847203 -0.25656667 0.14456554
0.20813294 -0.16206688 -0.15366223 -0.11155856 0.12228042 -0.14349012 0.12991816 0.09834023
-0.00658153 -0.06098142 0.10371993 0.026835838 -0.22687949 0.10996569 -0.062747836 -0.15243103
0.091313474 -0.1298191 -0.1758616 0.038869552 -0.15132782 -0.19134189 -0.1648554 0.16080092
0.20480655 -0.11924781 -0.12221884 0.101282924 0.047156792 -0.17150028 -0.08854855 -0.051471163
0.23140386 0.047229107 0.19171283 0.2112179 0.17550772 0.059117805 0.094382755 -0.120258264
0.046810467 0.11331916 -0.16478561 -0.17321932 0.13434133 -0.10515515 0.14558485 -0.25497624
0.21742098 -0.26400116 0.19316468 -0.0028687979 0.24142973 0.027684636 0.25899848 -0.15118629
0.10928301 0.16670677 -0.015475222 0.09533291 0.023229904 0.004212203 -0.07695005 -0.17853901
-0.17582895 -0.12933409 -0.013426648 0.05084074 -0.06906869 0.17503583 0.06957165 0.14273019
0.08304405 0.07092497 0.23052827 0.035368428 -0.0060421554 0.08389665 -0.047673646 -0.05618544
-0.09273566 -0.23707105 -0.21665908 0.16753796 0.05673546 0.09666006 0.11020435 -0.046439834
-2.3512519e-05 0.07074916 -0.21380176 -0.040592983 0.17609215 0.015163387 -0.07401339 0.073108315
0.2271188 0.11594038 0.18074772 -0.27538335 -0.017010441 -0.053184092 -0.018101314 -0.14224578
0.07639044 0.16417862 -0.13544811 0.07861925 -0.15242103 -0.050411023 0.112875655 -0.0014550701
-0.023823926 0.15812616 -0.17679138 0.093753405 0.23569226 0.0965972 -0.070288174 -0.24166134
0.046903104 -0.05547726 -0.09009748 -0.22329594 -0.15088634 0.03387722 0.20986843 -0.0052643106
-0.25392756 -0.20950581 0.1647791 0.06174504 -0.055931218 -0.24118549 0.24929458 0.21491374
-0.095223874 0.12881239 0.23424564 -0.013419541 -0.1780568 0.19100088 0.22586371 0.029191764
0.030580586 -0.025978057 0.21441908 -0.19841857 0.099240586 -0.18640606 -0.09773336 0.10872531
0.16690543 0.1004059 0.004853195 0.0020785718 -0.2348635 -0.17278343 -0.3000535 -0.02557432
0.21396823 -0.043681413 -0.1478741 0.13640958 -0.02792292 -0.3182747 0.23790121 0.2067039
-0.16006577 -0.22013287 0.1941418 -0.14570236 -0.16190533 -0.057273444 0.026517747 0.06017782
-0.19496872 0.18241364 -0.034743804 -0.17083855 -0.10434253 -0.043244664 0.022327596 -0.01410925
-0.10544904 0.051084276 -0.0865461 0.04884138 0.070760995 0.07671641 -0.01129446 0.03364356
00000000: 5d7c 24be 2af8 4b3e 7d67 7cbe 4e0b 643e
00000010: 3ae9 1dbe 2986 0bbe b65b ce3d fd6e 513e
00000020: ef14 d83d 9e86 33be 714e 8bbd b9c8 ccbc
00000030: 99c4 fcbd 6473 34bc 7f22 833e 116e 683e
00000040: 838e 203e 40e4 6abd 7997 113e e3ed 623e
00000050: 0790 1f3c 75f7 f3bd 3b7f fe3d f2af 84bc
00000060: 7ce2 65bb dd70 26be 01d5 fb3b 1b3d 013e
00000070: c1a5 ba3d a0b8 44be c582 3c3d 41b4 ec3c
00000080: 1ec8 c23d 0235 bdbd 4517 05be 0715 993d
00000090: 1f2f 633e e355 a2bd b703 20be c12f 0c3e
000000a0: 64aa 23bc 9f46 343e 99ec 643e 3e36 433e
000000b0: 612a 02bd a8d1 3b3e 044a 40bd 58c2 223d
000000c0: 2193 713e 9e2b 8c3d 458d 3b3e 25a2 423d
000000d0: b2a7 133d 92fe 4cbd 6c1a 4fbe 0f96 faba
000000e0: d423 6cbe 264a 95bc 76a9 b53d 3610 6fbe
000000f0: 3c1b b13d 78b8 31bc b55c 83be fd08 143e
00000100: cd20 553e dcf4 25be a259 1dbe d078 e4bd
00000110: 286e fa3d 13ef 12be 4409 053e 9a66 c93d
00000120: e0a9 d7bb a7c7 79bd 1d6b d43d d5d6 db3c
00000130: 1953 68be b135 e13d f081 80bd e116 1cbe
00000140: 8f02 bb3d 4cef 04be 1015 34be ae35 1f3d
00000150: aef5 1abe 21ef 43be dbcf 28be ffa8 243e
00000160: cfb8 513e 3238 f4bd df4d fabd 6c6d cf3d
00000170: 7b27 413d c59d 2fbe f158 b5bd 6dd3 52bd
00000180: 22f5 6c3e 4f73 413d 5e50 443e 8149 583e
00000190: 4cb8 333e 8325 723d bf4b c13d f749 f6bd
000001a0: 55bc 3f3d e013 e83d 8fbd 28be 6860 31be
000001b0: c690 093e 955b d7bd 3214 153e 3f8c 82be
000001c0: 9ba3 5e3e 292b 87be f6cc 453e 7102 3cbb
000001d0: 5b39 773e e4ca e23c 739b 843e 94d0 1abe
000001e0: c5cf df3d 2eb5 2a3e c98b 7dbc e73d c33d
000001f0: a44c be3c 8506 8a3b fd97 9dbd eed2 36be
00000200: 810c 34be 2870 04be 72fb 5bbc 613e 503d
00000210: e373 8dbd 983c 333e 957b 8e3d dd27 123e
00000220: 0013 aa3d 1c41 913d 9a0f 6c3e 7cde 103d
00000230: 46fd c5bb 02d2 ab3d 7145 43bd b422 66bd
00000240: 32ec bdbd c1c2 72be e1db 5dbe 128f 2b3e
00000250: 7163 683d b6f5 c53d d1b2 e13d b237 3ebd
00000260: c03c c5b7 f0e4 903d d9ee 5abe d444 26bd
00000270: 8051 343e db6f 783c 5594 97bd d0b9 953d
00000280: d591 683e 2672 ed3d ee15 393e 0cff 8cbe
00000290: 7b59 8bbc 90d7 59bd 3549 94bc e1a8 11be
000002a0: 9772 9c3d 711e 283e e9b2 0abe 2103 a13d
000002b0: 4214 1cbe ca7b 4ebd 5a2b e73d 0db8 beba
000002c0: 652a c3bc d3eb 213e cd08 35be c901 c03d
000002d0: 5059 713e c1d4 c53d 3ff3 8fbd 1276 77be
000002e0: 781d 403d 203c 63bd 0785 b8bd b1a7 64be
000002f0: f381 1abe d7c2 0a3d c0e7 563e 3d80 acbb
00000300: cb02 82be b188 56be dabb 283e 5ee8 7c3d
00000310: 2218 65bd 54f9 76be 1447 7f3e 5912 5c3e
00000320: bc04 c3bd 65e7 033e 17de 6f3e a2dd 5bbc
00000330: 8654 36be bc95 433e d148 673e 9123 ef3c
00000340: 2384 fa3c efcf d4bc ad90 5b3e 3d2e 4bbe
00000350: a63e cb3d 3be1 3ebe 6e28 c8bd 60ab de3d
00000360: 42e9 2a3e 9ca1 cd3d 8d07 9f3b a638 083b
00000370: 0f80 70be 24ee 30be 9da0 99be 3d81 d1bc
00000380: 7d1a 5b3e 48eb 32bd 4f6c 17be f4ae 0b3e
00000390: 9cbe e4bc e7f4 a2be 609c 733e 30aa 533e
000003a0: 48e8 23be 836a 61be 1ccd 463e 0033 15be
000003b0: 83ca 25be 8f97 6abd bf3b d93c 057d 763d
000003c0: e1a5 47be a4ca 3a3e 854f 0ebd 4df0 2ebe
000003d0: 89b1 d5bd 5121 31bd 5de8 b63c 7c2a 67bc
000003e0: abf5 d7bd bf3d 513d 153f b1bd e60d 483d
000003f0: 24eb 903d 7e1d 9d3d 660c 39bc d4cd 093d

policy_fc2.bias f4 [32]
-0.029589698 -0.008868466 0.02631575 -0.010038506 -0.016664976 -0.047192574 0.006155747 -0.05301522
-0.02021532 -0.020535149 -0.044419922 0.03498778 -0.0074976995 -0.036636557 0.024494618 0.02957135
-0.0235484 0.035925716 -0.017074445 0.017504593 -0.01755242 -0.06754622 0.009520849 0.02767353
-0.009529602 0.022433948 0.006181524 0.012858888 -0.024592359 0.028005298 0.017037116 -0.0003005163
00000000: 1866 f2bc 0b4d 11bc 2194 d73c 8c78 24bc
00000010: fd84 88bc 004d 41bd 26b6 c93b 7d26 59bd
00000020: 999a a5bc 5439 a8bc aaf1 35bd 594f 0f3d
00000030: 43af f5bb 3710 16bd f0a8 c83c 9e3f f23c
00000040: 93e8 c0bc d826 133d b5df 8bbc cb65 8f3c
00000050: 18ca 8fbc ac55 8abd 56fd 1b3c 99b3 e23c
00000060: 0c22 1cbc 66c7 b73c 628e ca3b 16ae 523c
00000070: ea75 c9bc 5e6b e53c 6c91 8b3c 9d8e 9db9

policy_fc3.weight f4 [57, 32]
0.14223006 0.021445673 -0.022348344 -0.07266742 0.01609456 -0.024322435 0.093000434 -0.2552326
0.08362308 0.0655785 0.14396007 -0.09393039 0.16442934 -0.08333105 -0.23514959 -0.1899902
-0.20298533 -0.19728826 -0.07172197 0.13510923 0.17054155 -0.2943718 -0.06245083 0.08002981
-0.21626092 -0.28253692 -0.10598565 0.08449743 0.003165951 0.021453122 0.040038172 0.1576671
0.025896823 0.011492918 0.004828622 -0.0664244 -0.12452807 0.074789226 0.25077304 -0.010191037
0.207521 0.1981558 0.05040394 -0.23329648 0.20365463 -0.02593247 0.10769198 0.089345634
-0.2321016 0.15440682 -0.06642029 0.22512081 -0.13492984 0.10082791 -0.24443272 0.231571
-0.13443173 -0.13452902 -0.13906842 -0.10816151 0.25565445 -0.051829964 -0.05968786 -0.21739951
0.07412981 0.13304463 -0.1750304 0.18723667 0.21340969 -0.1210184 -0.20095997 0.017032573
-0.20610753 -0.1080876 0.071661025 0.054242797 0.082979426 0.2675356 -0.3230564 0.027539494
0.2301207 -0.08924405 -0.08462916 -0.0030683777 0.017385488 -0.2043992 -0.32484788 -0.20779388
0.20419426 -0.11410708 -0.023648934 0.046885222 -0.009594811 0.15057111 -0.23615882 0.15606757
-0.019745983 -0.19293444 0.00030403087 0.14272985 -0.19496098 -0.029751709 -0.31625265 -0.006504781
-0.29908058 0.13745262 0.24233599 -0.23683488 0.21174738 -0.32299292 0.15795505 -0.13578182
-0.007666741 -0.040970415 -0.061133035 0.18314742 -0.07695699 0.14894828 0.24454162 -0.014087056
-0.11429429 0.014933263 0.021525748 -0.21198387 0.020130007 -0.1267933 0.17986958 -0.26250353
-0.054508664 0.012981825 0.053432196 -0.13293917 0.03637993 -0.1359867 0.26799262 0.19588906
-0.02238039 -0.067198314 -0.17441082 0.0016731198 0.22328803 0.23083156 -0.04969875 0.15312624
0.025624013 -0.12576748 0.03788772 -0.20682226 -0.081648566 0.021767564 0.11789151 0.2456879
0.090290785 0.033730697 0.04355838 -0.14203225 0.22920297 -0.1860666 -0.186371 -0.068218246
0.027485128 0.04554091 -0.16067201 -0.12746291 -0.08462805 0.22033478 -0.1430181 -0.17033085
-0.13974865 0.18292437 -0.120554075 -0.23438483 0.010877327 0.021244593 0.16976053 0.032883126
0.06398546 0.22429647 0.18664363 -0.053354353 0.116947554 0.27123305 -0.061291594 0.008225781
0.034204073 0.025090171 0.056709744 0.11709929 0.102174036 -0.038244307 0.014158449 -0.0017195595
0.17772269 -0.23478305 -0.19024193 0.11956025 0.07008414 0.014561045 0.038495038 0.059645418
-0.079588 -0.14140742 -0.19563875 0.029301014 -0.10234671 -0.23165315 0.047386605 -0.04524432
-0.07022228 0.05410129 0.117003985 0.30704406 0.028574986 0.06305844 0.014659469 0.08700091
0.14535537 0.010158399 0.094800696 -0.18482822 0.18944424 -0.30371967 0.28592002 0.06566642
0.18264489 0.17167625 -0.14064144 -0.0017541758 -0.19056809 -0.067770444 0.07625299 -0.0008934381
-0.014899416 0.03249121 0.17268157 0.040750913 0.148092 -9.8000964e-05 -0.084926024 -0.15380502
0.22777425 0.127648 -0.10809358 -0.05048032 0.12898974 0.0011242565 0.19520296 0.016003415
0.22774702 -0.021310125 0.16576385 -0.19875789 -0.22051199 0.08097553 -0.03119987 0.10971704
00000000: c2a4 113e d6ae af3c e013 b7bc a8d2 94bd
00000010: bdd8 833c d83f c7bc 0377 be3d d9ad 82be
00000020: 9442 ab3d 054e 863d 456a 133e 945e c0bd
00000030: 2a60 283e 78a9 aabd 0ecb 70be ca8c 42be
00000040: 63db 4fbe ef05 4abe f8e2 92bd 135a 0a3e
00000050: 72a2 2e3e e7b7 96be 71cc 7fbd abe6 a33d
00000060: 8173 5dbe aea8 90be 010f d9bd fd0c ad3d
00000070: d87b 4f3b 75be af3c 11ff 233d 7c73 213e
00000080: 9325 d43c cb4c 3c3c 6b39 9e3b 8409 88bd
00000090: 9308 ffbd 182b 993d 5365 803e 4ff8 26bc
000000a0: 6380 543e 5be9 4a3e 5d74 4e3d 46e5 6ebe
000000b0: d78a 503e 5570 d4bc 9d8d dc3d d8fa b63d
000000c0: 0bac 6dbe d21c 1e3e 5c07 88bd 1286 663e
000000d0: 0c2b 0abe dd7e ce3d 924c 7abe f320 6d3e
000000e0: 79a8 09be fac1 09be f467 0ebe c883 ddbd
000000f0: 24e5 823e a84b 54bd 427b 74bd fa9d 5ebe
00000100: 5fd1 973d da3c 083e 2b3b 33be f8ba 3f3e
00000110: 1288 5a3e 7fd8 f7bd 73c8 4dbe e587 8b3c
00000120: da0d 53be 085d ddbd 04c3 923d b22d 5e3d
00000130: 1ef1 a93d 6dfa 883e a667 a5be 819a e13c
00000140: c3a4 6b3e 96c5 b6bd 0e52 adbd d616 49bb
00000150: 036c 8e3c 064e 51be 7652 a6be ebc7 54be
00000160: 4d18 513e f9b0 e9bd 69bb c1bc b80a 403d
00000170: 8e33 1dbc 502f 1a3e 9ed3 71be 2dd0 1f3e
00000180: 54c2 a1bc 9b90 45be 5566 9f39 c627 123e
00000190: daa3 47be dbb9 f3bc deeb a1be 0f26 d5bb
000001a0: 1721 99be 61c0 0c3e ed26 783e d884 72be
000001b0: 4ed4 583e 545f a5be f8be 213e 640a 0bbe
000001c0: 4939 fbbb 98d0 27bd a266 7abd ff8a 3b3e
000001d0: a09b 9dbd e685 183e 1e69 7a3e 65cd 66bc
000001e0: 2013 eabd a5aa 743c c456 b03c 4d12 59be
000001f0: afe7 a43c 1ad6 01be bb2f 383e dd66 86be
00000200: 7a44 5fbd b8b1 543c b8db 5a3d 3521 08be
00000210: 1f03 153d 1940 0bbe 5436 893e 2497 483e
00000220: 1457 b7bc 459f 89bd c098 32be 964c db3a
00000230: 9ea5 643e 1c5f 6c3e eb90 4bbd 20cd 1c3e
00000240: 73e9 d13c 31c9 00be 2730 1b3d 37c9 53be
00000250: 5d37 a7bd e451 b23c 1b71 f13d 9c95 7b3e
00000260: 60ea b83d 3329 0a3d 466a 323d e770 11be
00000270: 2fb4 6a3e 3e88 3ebe 0ad8 3ebe 02b6 8bbd
00000280: 7e28 e13c 1b89 3a3d 3487 24be a385 02be
00000290: 7951 adbd 719f 613e 5673 12be 366b 2ebe
000002a0: 451a 0fbe 8750 3b3e 0ee5 f6bd 9402 70be
000002b0: d136 323c 2409 ae3c b4d5 2d3e 75b0 063d
000002c0: cf0a 833d f9ad 653e 821f 3f3e 188a 5abd
000002d0: 3382 ef3d 0fdf 8a3e e50c 7bbd 6dc5 063c
000002e0: 9219 0c3d e789 cd3c 7a48 683d c1d1 ef3d
000002f0: 9f40 d13d 10a6 1cbd d7f8 673c d862 e1ba
00000300: f0fc 353e f86a 70be c8ce 42be 01dc f43d
00000310: 4688 8f3d 7391 6e3c f9ac 1d3d c14e 743d
00000320: 09ff a2bd 1bcd 10be 8655 48be ae08 f03c
00000330: 279b d1bd 7c36 6dbe 7518 423d 1c52 39bd
00000340: b3d0 8fbd 5099 5d3d c99f ef3d e134 9d3e
00000350: 1716 ea3c c924 813d 452e 703c 882d b23d
00000360: 0ad8 143e 6a6f 263c de26 c23d 9c43 3dbe
00000370: acfd 413e 2581 9bbe 1c64 923e 1e7c 863d
00000380: 4307 3b3e e6cb 2f3e 4f04 10be 5fec e5ba
00000390: 4824 43be 3bcb 8abd 872a 9c3d 9e35 6aba
000003a0: ae1c 74bc 8115 053d 70d3 303e 6eea 263d
000003b0: 6ea5 173e de85 cdb8 b2ed adbd 107f 1dbe
000003c0: a73d 693e 28b6 023e 2b60 ddbd 74c4 4ebd
000003d0: e315 043e ca5b 933a 49e3 473e 9819 833c
000003e0: 8436 693e 9292 aebc 00be 293e 3087 4bbe
000003f0: e5cd 61be 80d6 a53d df96 ffbc 54b3 e03d

policy_fc3.bias f4 [57]
0.028627466 -0.020374525 -0.036948703 -0.041235387 0.016871834 -0.067508884 0.009384865 0.011740737
0.03295352 0.0025846332 0.0063731074 0.023003435 0.010763043 0.05638583 0.05397672 0.028386451
-0.03854831 -0.074413374 -0.040637933 0.0024593521 0.016435612 0.011956624 -0.007996469 0.014917106
0.0048954566 -0.022414876 0.030845148 -0.054083407 0.01547138 -0.016152073 -0.022269536 -0.026864106
0.03853103 -0.007996492 0.013411137 0.012761149 -0.030024178 0.0029938256 0.017334599 0.0107490225
0.02072694 -0.009284467 0.012996195 -0.060246725 -0.025878739 0.006684346 0.00038217302 0.009787327
-0.0036209829 0.0024705073 -0.017830066 -0.042173535 0.005805178 -0.008232296 -0.041332178 0.06261887
-0.06898926
00000000: 2684 ea3c 7ae8 a6bc 8657 17bd 70e6 28bd
00000010: cd36 8a3c 1942 8abd fac2 193c 385c 403c
00000020: 45fa 063d f362 293b 80d5 d03b b371 bc3c
00000030: 7957 303c d4f4 663d b116 5d3d b48a e83c
00000040: d5e4 1dbd 0a66 98bd f673 26bd 152d 213b
00000050: faa3 863c b7e5 433c 9f03 03bc e166 743c
00000060: 116a a03b 679f b7bc f7ae fc3c 9086 5dbd
00000070: ac7b 7d3c 5a51 84bc 9a6e b6bc 1d12 dcbc
00000080: b7d2 1d3d b803 03bc 63ba 5b3c 2314 513c
00000090: 44f5 f5bc 0f34 443b 4a01 8e3c ab1c 303c
000000a0: 8bcb a93c e11d 18bc feed 543c 45c5 76bd
000000b0: a6ff d3bc 5c08 db3b 655e c839 065b 203c
000000c0: 034e 6dbb 3ce8 213b 5c10 92bc 28be 2cbd
000000d0: 5d39 be3b c1e0 06bc ee4b 29bd 523e 803d
000000e0: 3e4a 8dbd

value_fc1.weight f4 [64, 261]
0.14995493 -0.11806226 -0.089139104 -0.102518305 0.0763824 -0.0735365 0.061052814 0.41477215
-0.08487375 0.15724485 0.4834636 0.020856034 0.17533658 0.48700526 0.07766922 0.06745769
-0.0116360765 -0.11300719 0.07275849 -0.05707933 0.05649241 0.10558988 0.17595457 -0.12033131
0.05337326 0.037324775 0.072783254 -0.121088 -0.014742717 0.028650098 -0.004848495 0.15311058
-8.327236e-05 0.16051778 0.20482251 0.09464957 0.09177675 0.17235519 0.053954057 -0.06769249
0.13954917 0.09153757 -0.170871 -0.03743209 -0.0059340047 -0.015007514 0.07259583 -0.09942654
-0.10958851 0.23420326 -0.074055575 -0.047254942 -0.09403545 0.0152334655 0.104495846 0.08595587
-0.019754693 0.05929518 0.03998222 0.0022181745 0.088922136 -0.10584412 0.061034158 0.036962256
-0.13030195 0.12920356 -0.12846272 0.053159308 -0.41003036 0.08407541 -0.19141385 0.10955681
-0.07879988 0.13135834 -0.19729659 0.052052956 0.080293596 -0.10902116 -0.23452434 -0.04244836
-0.03301971 -0.15430348 0.18320855 0.074773416 0.02724573 -0.09100917 0.05517698 -0.1108706
0.17092794 0.055199824 0.14957346 -0.01843227 0.17303912 0.045262687 0.0345548 0.13098128
0.13276465 0.082235724 0.04735111 -0.081413485 -0.21876784 -0.06092638 0.024213687 -0.1722513
-0.049490564 0.14080901 0.28201914 -0.0807783 -0.26655754 0.02969531 -0.08632898 -0.04769171
-0.0016624624 -0.040771674 0.06380379 -0.05552435 -0.1109832 -0.119644985 0.041525953 -0.17258948
0.06887316 -0.07161165 0.107831515 -0.13625404 0.05412348 -0.055767734 -0.101971835 -0.044923346
-0.039274924 0.11778314 -0.055960104 0.11161262 -0.027271146 0.091877155 -0.14661907 0.0097796405
0.2742863 -0.046939246 -0.008516249 0.081544235 0.17751983 -0.1267339 -0.06866709 0.11717873
-0.037966605 -0.015480607 0.04040647 -0.15636235 0.10257674 0.007447552 -0.14254463 0.08776893
0.12310769 0.022220587 0.014475285 0.14072242 -0.047587436 0.06967752 -0.019427784 -0.02403157
0.027080543 0.045063492 0.13234417 0.018028982 -0.081034526 -0.024667112 0.018043825 0.06796597
-0.07425169 0.04461374 0.06407606 -0.028066989 0.017138265 -0.06800687 0.093646824 0.14630929
-0.0713791 -0.090572454 0.14710842 -0.008440555 -0.09298327 0.06674514 0.080989055 0.02284617
0.14662097 -0.028747184 0.08757608 0.03808368 -0.10774335 -0.11818568 0.061892714 -0.06634037
0.11992281 0.13071726 0.004431587 -0.041578732 0.14859714 0.06789161 -0.026356338 0.124332346
-0.11230021 -0.15405226 0.07912182 0.21098667 -0.13901164 0.04449411 0.0344086 0.019554714
-0.13943447 0.12529978 0.03351028 -0.052038614 0.05428621 -0.037350263 -0.06898239 0.10084602
0.060884334 0.11474786 -0.0013529079 -0.115918934 -0.008994559 -0.076625794 -7.774345e-05 0.027664721
0.032233354 -0.03872971 0.055311307 0.02171359 -0.13172205 0.122821994 0.16079567 -0.07982882
0.006534403 -0.062152293 0.06523798 0.15258646 0.07730327 -0.056083877 -0.16259627 0.077459276
-0.1385121 0.00058374566 0.07522257 -0.12745897 -0.094559416 0.04124829 0.06074127 -0.105478466
-0.054114286 -0.1287131 0.109372176 0.028188009 -0.086349964 0.09663803 0.0013024914 0.08043656
00000000: c98d 193e a0ca f1bd 908e b6bd 1ef5 d1bd
00000010: 606e 9c3d 4e9a 96bd 8412 7a3d 045d d43e
00000020: 4ad2 adbd cb04 213e 8a88 f73e 46da aa3c
00000030: 6f8b 333e c158 f93e 0a11 9f3d 4227 8a3d
00000040: 3ea5 3ebc 5070 e7bd 6702 953d 04cc 69bd
00000050: 9664 673d 823f d83d 6f2d 343e 4370 f6bd
00000060: eb9d 5a3d dde1 183d 630f 953d fcfc f7bd
00000070: 708b 71bc 9cb3 ea3c 20e0 9ebb 05c9 1c3e
00000080: 82a2 aeb8 c65e 243e febc 513e a2d7 c13d
00000090: 73f5 bb3d e17d 303e eefe 5c3d 5ca2 8abd
000000a0: fae5 0e3e 0d78 bb3d cff8 2ebe 6452 19bd
000000b0: 0a72 c2bb 13e2 75bc 1fad 943d 24a0 cbbd
000000c0: f16f e0bd fbd2 6f3e 73aa 97bd 668e 41bd
000000d0: a895 c0bd c995 793c eb01 d63d a209 b03d
000000e0: 98d4 a1bc 81df 723d 65c4 233d cb5e 113b
000000f0: cf1c b63d cdc4 d8bd f4fe 793d bc65 173d
00000100: e06d 05be f04d 043e bb8b 03be 93bd 593d
00000110: 80ef d1be bb2f ac3d fe01 44be 525f e03d
00000120: d561 a1bd cd82 063e 1e08 4abe 7b35 553d
00000130: f870 a43d 7c46 dfbd 2627 70be 55de 2dbd
00000140: ad3f 07bd bb01 1ebe 069b 3b3e ce22 993d
00000150: 7032 df3c 0463 babd 4201 623d 2010 e3bd
00000160: bc07 2f3e 3619 623d c929 193e 46ff 96bc
00000170: 2b31 313e 5e65 393d 5589 0d3d f51f 063e
00000180: 75f3 073e 346b a83d 3df3 413d 1dbc a6bd
00000190: ad04 60be f18d 79bd c85b c63c a562 30be
000001a0: 9eb6 4abd 3d30 103e d064 903e 186f a5bd
000001b0: 3b7a 88be 9443 f33c 40cd b0bd 6258 43bd
000001c0: fbe6 d9ba 3300 27bd 90ab 823d 806d 63bd
000001d0: 294b e3bd 6e08 f5bd 1e17 2a3d 4cbb 30be
000001e0: 5f0d 8d3d 21a9 92bd c5d6 dc3d 2e86 0bbe
000001f0: 95b0 5d3d b56c 64bd 9cd6 d0bd 8b01 38bd
00000200: bede 20bd 4938 f13d 6c36 65bd 2895 e43d
00000210: bd67 dfbc 172a bc3d 4f23 16be c93a 203c
00000220: 416f 8c3e 5e43 40bd bd87 0bbc aa00 a73d
00000230: c2c7 353e 88c6 01be 55a1 8cbd 67fb ef3d
00000240: df82 1bbd 5fa2 7dbc 4181 253d 741d 20be
00000250: c113 d23d 980a f43b 38f7 11be 32c0 b33d
00000260: e21f fc3d f307 b63c bf29 6d3c 8a19 103e
00000270: 0beb 42bd 16b3 8e3d 0427 9fbc dbdd c4bc
00000280: 04d8 dd3c 7f94 383d 3b85 073e 84b1 933c
00000290: 6ef5 a5bd af12 cabc a5d0 933c be31 8b3d
000002a0: 4511 98bd e6bc 363d 4f3a 833d beec e5bc
000002b0: 8c65 8c3c 3047 8bbd e8c9 bf3d 1ad2 153e
000002c0: 352f 92bd 0d7e b9bd 97a3 163e 414a 0abc
000002d0: 036e bebd adb1 883d 97dd a53d e427 bb3c
000002e0: cf23 163e 377f ebbc 165b b33d a2fd 1b3d
000002f0: 8ca8 dcbd 550b f2bd 3783 7d3d 76dd 87bd
00000300: 179a f53d bfda 053e d936 913b 764e 2abd
00000310: d929 183e c20a 8b3d 3fe9 d7bc f5a1 fe3d
00000320: a7fd e5bd e0bf 1dbe 9f0a a23d e40c 583e
00000330: 1159 0ebe 753f 363d 08f0 0c3d 3531 a03c
00000340: e9c7 0ebe 964e 003e 1342 093d 7126 55bd
00000350: 385b 5e3d 97fc 18bd a446 8dbd 5c88 ce3d
00000360: da61 793d ed00 eb3d 0e54 b1ba e866 edbd
00000370: ea5d 13bc fced 9cbd 320a a3b8 20a1 e23c
00000380: 1f07 043d 0ba3 1ebd 1c8e 623d b3e0 b13c
00000390: 25e2 06be 198a fb3d 9fa7 243e 4b7d a3bd
000003a0: 8c1e d63b 6793 7ebd 7d9b 853d a03f 1c3e
000003b0: 2d51 9e3d 35b8 65bd a37f 26be f8a2 9e3d
000003c0: 1ed6 0dbe 8206 193a 4a0e 9a3d 9b84 02be
000003d0: 5ea8 c1bd f8f3 283d d7cb 783d 1805 d8bd
000003e0: f1a6 5dbd 5ecd 03be 85fe df3d 8aea e63c
000003f0: 40d8 b0bd 29ea c53d 5cb8 aa3a ecbb a43d

value_fc1.bias f4 [64]
0.0029008333 0.02299098 0.025965286 -0.014117431 -0.020380778 0.002637729 0.004219838 -0.0035263398
-0.02119758 0.026585368 -0.005923251 -0.002315668 0.034846276 0.013325122 0.0063649784 -0.01569338
0.021197224 -0.0013852092 -0.0271963 0.037904657 -0.007639757 -0.0044076666 0.03199105 0.02256397
-0.004495353 0.021369325 0.00630536 0.01888842 -0.0023497758 0.010109166 -0.0025637364 -0.012482662
-0.008310101 0.009911986 0.028575173 0.044265933 -0.020038132 0.0019562396 0.0032628947 0.018089468
0.036408357 0.031503364 -0.0009646407 -0.06276646 0.02501596 0.043721944 -0.031028463 0.004999503
0.0050193095 0.014319961 0.018401224 0.02226577 0.0070128087 -0.011749745 0.024384387 -0.014164734
0.004289001 -0.009401142 -0.0024106132 0.030586643 0.007767196 -0.02146706 0.010608509 0.002620806
00000000: e81b 3e3b 9457 bc3c 27b5 d43c cc4c 67bc
00000010: 97f5 a6bc c0dd 2c3b 9146 8a3b 2a1a 67bb
00000020: 8ca6 adbc 8fc9 d93c d517 c2bb 76c2 17bb
00000030: f8ba 0e3d 9d51 5a3c 4f91 d03b 678f 80bc
00000040: cda5 ad3c e88f b5ba c6ca debc ea41 1b3d
00000050: ed56 fabb 306e 90bb 0c09 033d 13d8 b83c
00000060: c14d 93bb b90e af3c 319d ce3b e3bb 9a3c
00000070: b2fe 19bb eaa0 253c 5c04 28bb 1484 4cbc
00000080: 1727 08bc e265 223c 7b16 ea3c 3250 353d
00000090: 0227 a4bc 4134 003b 4ad6 553b 5d30 943c
000000a0: ee20 153d ac09 013d f1df 7cba b48b 80bd
000000b0: 45ee cc3c c815 333d 672f febc dfd2 a33b
000000c0: 0579 a43b 459e 6a3c 2abe 963c b466 b63c
000000d0: b4cb e53b 0182 40bc c4c1 c73c 3313 68bc
000000e0: c08a 8c3b 3f07 1abc 61fb 1dbb d790 fa3c
000000f0: f683 fe3b b0db afbc 50cf 2d3c d4c1 2b3b

value_fc2.weight f4 [32, 64]
-0.1741726 0.081557795 -0.1557341 0.007888538 -0.091758296 0.21254277 0.009411617 -0.16497703
-0.09557834 0.026427228 -0.05670272 -0.085556276 0.14616717 -0.029653542 -0.15797532 -0.06790217
0.0776545 -0.21026595 0.1795398 0.0427201 -0.14931726 -0.05935328 -0.00161773 0.06335351
0.21382882 0.06787557 -0.039037816 0.090780735 0.19969875 0.13138789 -0.123304896 0.003768375
-0.12218751 0.09434928 0.19074811 0.23353048 -0.11074091 0.09656633 0.041086953 0.0097449105
0.07920312 0.21234201 -0.067668825 0.16327362 0.21552381 -0.065171845 0.012629285 -0.18373278
0.003726891 -0.107500486 -0.04618202 -0.10357174 0.16818096 0.085222624 -0.083049744 0.024789717
0.09811163 -0.1990761 -0.22649142 0.25974858 0.11930996 -0.148487 -0.16943192 0.14552772
-0.025000932 -0.42570508 -0.24107629 0.09226482 0.24340294 -0.424971 -0.13207424 -0.28610715
0.11048936 0.13528411 -0.25405136 -0.40710843 -0.32823044 -0.0020125806 -0.39479244 -0.07834476
-0.22370201 -0.16975726 -0.16837059 -0.32996616 -0.10089108 -0.015230542 -0.25038433 -0.06827442
-0.2705674 -0.07519969 -0.1932575 0.20159215 -0.06843631 -0.41094297 -0.31998146 -0.10695752
0.133495 0.09570446 -0.0625769 -0.20280229 0.30706862 -0.23164833 0.15172331 0.2917554
-0.12137842 -0.2854779 -0.026749495 0.12784632 -0.39632687 -0.34954095 0.08598673 0.25716102
-0.050213132 -0.3609732 -0.11296213 -0.018945536 -0.051422 -0.120997645 -0.019434785 0.028790914
0.0036070563 0.090298764 0.22070423 -0.53840834 -0.10160299 -0.08779559 0.28231788 -0.1256635
0.20851459 0.15648425 -0.08073159 0.21978365 0.032251094 0.06223788 -0.28522155 -0.06862804
0.07170388 -0.13399671 -0.22812048 0.0862668 -0.22780702 -0.057652876 -0.18166947 0.1573133
-0.2331468 0.11265579 -0.027775282 0.004110007 0.027176887 -0.23010987 0.09995117 -0.044259656
-0.15019442 0.057041317 0.10326424 -0.028288977 -0.07802226 -0.17895389 0.121040426 -0.2277171
-0.24322306 0.0846761 -0.15445793 -0.05772124 -0.15632093 -0.21395583 -0.16881102 0.22072382
0.12012194 0.095352404 -0.26779604 0.11988366 -0.03740037 0.17624456 0.26870403 0.19468522
0.28672487 -0.11471809 -0.095698595 0.13637961 -0.061336905 -0.15135464 0.05898916 -0.17433774
0.1891429 0.12674318 -0.0961052 0.09526385 -0.086529374 -0.10056896 -0.26200873 -0.2147837
-0.034509692 -0.24925688 -0.13004248 -0.07035239 -0.09362483 -0.02843502 0.00080640113 -0.21969992
-0.06439382 0.15279499 -0.13911964 0.18320717 0.17189382 0.088797554 -0.12488787 -0.18464789
-0.13045628 -0.20186852 -0.1809203 0.0020627733 -0.030860407 -0.14186588 0.07169215 0.054118566
0.10731186 0.17494254 0.13493846 -0.179156 -0.22321062 0.13279818 -0.13305958 -0.06695999
-0.2667864 -0.24588567 0.010477323 -0.050263125 -0.10142302 -0.0034970546 -0.064930096 -0.18089743
0.09589865 -0.21091606 0.22603805 -0.2671388 -0.0006811941 -0.24359801 0.06849215 0.14862147
-0.12880282 -0.09571985 -0.13606976 -0.036336537 0.18932322 0.19824478 -0.2879595 0.088029735
0.046761226 -0.04206128 0.018456325 0.14622205 0.16715582 0.2341595 -0.09793348 0.14733651
00000000: 4d5a 32be c607 a73d c378 1fbe ed3e 013c
00000010: c6eb bbbd d0a4 593e 2f33 1a3c bdef 28be
00000020: 94be c3bd ea7d d83c 1c41 68bd 2138 afbd
00000030: d9ac 153e fceb f2bc 48c4 21be 4b10 8bbd
00000040: 5309 9f3d f54f 57be 48d9 373e 46fb 2e3d
00000050: a0e6 18be 6d1c 73bd 030a d4ba 7cbf 813d
00000060: f1f5 5a3e 5902 8b3d 1ee6 1fbd 40eb b93d
00000070: d47d 4c3e 8c8a 063e 4787 fcbd d7f6 763b
00000080: 723d fabd 323a c13d 7953 433e 9d22 6f3e
00000090: 21cc e2bd 91c4 c53d cb4a 283d 1ea9 1f3c
000000a0: 3f35 a23d 2f70 593e f495 8abd 3331 273e
000000b0: 46b2 5c3e d178 85bd 10eb 4e3c 7224 3cbe
000000c0: db3e 743b 3729 dcbd 5c29 3dbd 6c1d d4bd
000000d0: a137 2c3e 3389 ae3d fc15 aabd ce13 cb3c
000000e0: c0ee c83d 9bda 4bbe 5eed 67be c4fd 843e
000000f0: c858 f43d fa0c 18be 907f 2dbe 3805 153e
00000100: c1ce ccbc 04f6 d9be b4dc 76be 57f5 bc3d
00000110: 9f3e 793e cd95 d9be 783e 07be a37c 92be
00000120: 3f48 e23d eb87 0a3e 0513 82be 8470 d0be
00000130: d20d a8be 80e5 03bb 3c22 cabe 3873 a0bd
00000140: 2412 65be d9d4 2dbe 5769 2cbe 53f1 a8be
00000150: fc9f cebd 8689 79bc 6032 80be 76d3 8bbd
00000160: cf87 8abe 4c02 9abd 4be5 45be 2c6e 4e3e
00000170: 5628 8cbd 1e67 d2be 9cd4 a3be 8b0c dbbd
00000180: eab2 083e b300 c43d 5128 80bd 67ab 4fbe
00000190: 1938 9d3e 3835 6dbe 5b5d 1b3e f760 953e
000001a0: 4095 f8bd 292a 92be c221 dbbc 25ea 023e
000001b0: 5beb cabe 08f7 b2be d019 b03d 9caa 833e
000001c0: 49ac 4dbd 7bd1 b8be b058 e7bd ab33 9bbc
000001d0: e09f 52bd 9dcd f7bd b335 9fbc ecda eb3c
000001e0: 5d64 6c3b 8fee b83d 4a00 623e 21d5 09bf
000001f0: 3a15 d0bd 2dce b3bd f88b 903e efad 00be
00000200: d984 553e 683d 203e 9b56 a5bd f70e 613e
00000210: b919 043d 26ed 7e3d 8f08 92be dc8c 8cbd
00000220: 7cd9 923d 6f36 09be 6a98 69be a6ac b03d
00000230: 3e46 69be 6c25 6cbd 9007 3abe bd16 213e
00000240: 09be 6ebe 14b8 e63d fd88 e3bc 3dad 863b
00000250: 10a2 de3c eca1 6bbe 33b3 cc3d 9d49 35bd
00000260: 91cc 19be 28a4 693d 347c d33d 49be e7bc
00000270: 22ca 9fbd b03f 37be 0be4 f73d ac2e 69be
00000280: 770f 79be aa6a ad3d 382a 1ebe 1b6d 6cbd
00000290: 9812 20be 3d17 5bbe ccdc 2cbe 6d05 623e
000002a0: 7e02 f63d 1f48 c33d 901c 89be 9085 f53d
000002b0: 2131 19bd 7479 343e 9393 893e 905b 473e
000002c0: 9acd 923e 51f1 eabd a0fd c3bd 19a7 0b3e
000002d0: 683c 7bbd b6fc 1abe 9e9e 713d 9885 32be
000002e0: adae 413e f7c8 013e ced2 c4bd b219 c33d
000002f0: 5036 b1bd 19f7 cdbd 0226 86be 42f0 5bbe
00000300: 095a 0dbd 323d 7fbe db29 05be ea14 90bd
00000310: 60be bfbd 8ff0 e8bc aa64 533a 04f9 60be
00000320: e8e0 83bd 4a76 1c3e 6175 0ebe a99a 3b3e
00000330: ef04 303e 7edb b53d 36c5 ffbd 5614 3dbe
00000340: 5596 05be 9fb6 4ebe 2c43 39be 982f 073b
00000350: f7ce fcbc 4a45 11be 55d3 923d 6eab 5d3d
00000360: 52c6 db3d 2324 333e 4f2d 0a3e ac74 37be
00000370: 5391 64be 3ffc 073e c540 08be 5222 89bd
00000380: 3a98 88be 74c9 7bbe 14a9 2b3c b5e0 4dbd
00000390: dfb6 cfbd d72e 65bb 12fa 84bd 2d3d 39be
000003a0: 8366 c43d 61fa 57be 8576 673e 6bc6 88be
000003b0: 2a92 32ba c271 79be 9d45 8c3d 3a30 183e
000003c0: e3e4 03be c508 c4bd df55 0bbe 9fd5 14bd
000003d0: f2dd 413e ae00 4b3e 6d6f 93be ef48 b43d
000003e0: b388 3f3d 7348 2cbd b831 973c 3cbb 153e
000003f0: e52a 2b3e 82c7 6f3e 5991 c8bd 62df 163e

value_fc2.bias f4 [32]
0.028059298 0.010684997 -0.037227128 -0.04831391 0.038039926 0.07174443 0.045364268 0.046154767
0.024316257 -0.07861114 -0.021657007 0.05400171 -0.013130605 0.04048622 0.02408278 0.010471522
-0.00907353 -0.025258388 0.001769254 -0.005277728 0.0031103163 0.0670699 0.029590312 0.12760487
-0.078889705 -0.024352396 -0.0123419 0.020850303 0.012150342 -0.046769902 -0.06441949 0.051780872
00000000: 9ddc e53c 2010 2f3c 797b 18bd cee4 45bd
00000010: c1cf 1b3d beee 923d e2cf 393d c80c 3d3d
00000020: e332 c73c e1fe a0bd 096a b1bc e630 5d3d
00000030: c021 57bc e1d4 253d 4049 c53c bf90 2b3c
00000040: 25a9 14bc aeea cebc 50e6 e73a cbf0 acbb
00000050: 73d6 4b3b f25b 893d 6267 f23c daaa 023e
00000060: ed90 a1bd ad7e c7bc ae35 4abc 41ce aa3c
00000070: 3a12 473c cc91 3fbd 5eee 83bd 2e18 543d

value_fc3.weight f4 [1, 32]
0.23827153 0.59715647 -0.1224449 0.23143686 0.69055974 0.00023214209 0.9253425 0.0651361
0.36855963 0.19924432 -0.26044595 0.45045087 -0.30193046 0.36658242 -0.30881092 0.7098592
-0.10811297 -0.20028254 0.16832687 -0.027218927 -0.3096253 0.45893455 0.070991725 -0.04485122
-0.28398407 -0.0985709 -0.10116906 -0.15131555 0.8110318 0.17086425 0.18168338 0.13865511
00000000: 74fd 733e 3fdf 183f 64c4 fabd c9fd 6c3e
00000010: 86c8 303f 2b6b 7339 3fe3 6c3f 1366 853d
00000020: d9b3 bc3e b406 4c3e 2c59 85be 7fa1 e63e
00000030: a196 9abe b1b0 bb3e 771c 9ebe 55b9 353f
00000040: 556a ddbd de16 4dbe e15d 2c3e 3afa debc
00000050: 3587 9ebe 78f9 ea3e 1c64 913d eab5 37bd
00000060: 5c66 91be 8adf c9bd b931 cfbd 77f2 1abe
00000070: c89f 4f3f 0af7 2e3e 350b 3a3e 9bfb 0d3e
