rl/spin_model_11301424/6.pt (torch_old, 160417 bytes, 12 tensors)

log_std f4 [57]
000000 3c 35 02 3e a7 fd be 3d c0 46 ab 3d e7 53 c0 3d
       0.1271562 0.09325724 0.08363104 0.09391003
000010 02 48 a8 3d 50 95 d3 3d 1d 70 85 3d 15 78 b8 3d
       0.082168594 0.103312135 0.065155245 0.09007279
000020 b0 14 94 3d 9a ed 02 3e 33 1e 9b 3d da a0 a3 3d
       0.07230508 0.1278595 0.075741194 0.079896644
000030 ec 32 e3 3d 34 08 03 3e ee ad 92 3d e5 92 d9 3d
       0.11093697 0.12796098 0.07162081 0.10623721
000040 dc 16 92 3d c2 17 f8 3d 60 b3 d6 3d 14 71 ec 3d
       0.07133266 0.121139064 0.10483432 0.115450054
000050 96 6f a5 3d 23 cf a4 3d 70 c9 c3 3d 6a b7 c7 3d
       0.08077924 0.08047321 0.095599055 0.0975178
000060 25 23 fa 3d 91 b8 e3 3d b1 b6 e2 3d c3 06 c0 3d
       0.122137345 0.111191876 0.11070002 0.0937629
000070 b2 53 bd 3d 1e b9 02 3e 07 94 f9 3d 71 e3 e7 3d
       0.09244479 0.12765929 0.12186437 0.11322678
000080 2e f7 fb 3d cd c6 18 3e 86 b9 b0 3d 31 b4 e5 3d
       0.12303005 0.14919586 0.08629136 0.112160094
000090 ef a1 c2 3d 66 fc bf 3d c8 cb 4c 3d 70 c5 d1 3d
       0.09503543 0.09374313 0.04999903 0.10242736
0000a0 f9 c4 fe 3d a8 2a ae 3d 17 f5 ee 3d 5d 9a 0e 3e
       0.12439913 0.0850423 0.11667841 0.13926072
0000b0 79 4c 8e 3d 79 d2 c0 3d ca 23 c0 3d 36 43 c4 3d
       0.0694818 0.094151445 0.09381826 0.09583132
0000c0 e6 25 e6 3d 79 75 d1 3d 32 94 03 3e 5b c2 b3 3d
       0.11237697 0.10227484 0.12849501 0.08777305
0000d0 19 f4 f6 3d 30 bd f1 3d e7 c3 bb 3d 4f b3 fe 3d
       0.12058277 0.11803663 0.09168225 0.12436544
0000e0 26 17 c6 3d
       0.09672384

policy_fc1.weight f4 [64, 261]
000000 03 ce 81 3d 90 5e 1f bc 0e e9 cb 3d f0 f3 97 bc
       0.06338122 -0.009727135 0.09956561 -0.018548936
000010 b3 ad ff 3d 62 46 a6 3c 2e b7 0a 3e 9e 07 bb 3d
       0.12484302 0.020297233 0.1354644 0.09132312
000020 a7 bf fb 3c aa e3 e6 bd 1d aa 4a 3d 7e 0f c8 3d
       0.030731035 -0.11273892 0.04947864 0.0976858
000030 01 19 78 3d 9d 86 97 3d 93 c6 10 3d 22 35 23 bd
       0.06057072 0.07398722 0.035345625 -0.039845593
000040 03 9e 02 bd 2c 0d 01 bd 48 24 29 bd 1a 65 ef 3d
       -0.031888973 -0.031506702 -0.041294366 0.116892055
000050 11 a0 da 3d 43 b1 eb 3d 93 7c c5 3d 6a 0a 3d 3d
       0.106750615 0.11508419 0.09642901 0.04615251
000060 15 89 10 be 86 52 06 be 02 7d a7 3d 1e d6 6d 3c
       -0.14114793 -0.13117418 0.0817814 0.014516382
000070 26 77 45 bd 2e d2 d8 3c 4c 9c ca 3d f9 41 06 3d
       -0.048209332 0.026467409 0.098930925 0.03277776
000080 00 9e 9d 3d 11 12 d1 3d 16 b0 b5 bd 1a fe ea 3d
       0.07696152 0.10208524 -0.08871476 0.11474247
000090 d2 49 f5 3d 1d 6f 99 bd 5a 51 01 3d ba 0f 9a bb
       0.11976971 -0.07491896 0.031571724 -0.004701582
0000a0 c1 b6 c4 3d 2a b2 e9 3d 19 dc ab bc 88 02 28 bd
       0.0960517 0.11410935 -0.020978974 -0.04101804
0000b0 55 a8 9d bd 7d 98 f4 3c ab 28 f9 3c ba 43 9e 3d
       -0.076981224 0.029857868 0.0304149 0.077277616
0000c0 d5 8d 3e 3d 2c 70 87 3d 49 2c 9f ba 7f 07 9e bd
       0.04652198 0.06613192 -0.0012143935 -0.077162735
0000d0 ea 6e 0a be bd e3 11 3c c3 7a a4 bd 61 ed fe bd
       -0.13518873 0.008904395 -0.080312274 -0.1244762
0000e0 56 09 1b 3d b4 cf 11 be 9a d4 9e 3d 01 25 49 bd
       0.0378507 -0.14239389 0.07755394 -0.049107555
0000f0 94 6e dd 3d 6c fa d3 bd 30 d7 38 3c 39 9f 04 3e
       0.10812107 -0.103504986 0.011281773 0.12951364
000100 8a 71 64 bd e0 f7 5f bc 87 6f c2 3c 58 d0 c5 bd
       -0.05577234 -0.013669938 0.023734821 -0.09658879
000110 21 01 fa 3b 52 0a f5 bd ab d8 53 bd b1 43 86 bd
       0.007629529 -0.11964859 -0.051720303 -0.0655588
000120 cb 5d a6 bb 14 d6 fd 3a 5b e3 a5 bc f8 f6 5f bd
       -0.005077099 0.0019366168 -0.020250013 -0.054678887
000130 a8 cb 69 3d 3e 36 a1 3c e2 ab fc bd f1 75 d2 bd
       0.057078987 0.019679185 -0.123374715 -0.10276402
000140 b0 c6 94 bd 7b 51 a0 3a 47 45 b9 3d 5d 96 64 3c
       -0.07264459 0.0012231314 0.09046417 0.013951865
000150 dc 8e f4 bd d4 a3 4d 3d f8 7b 14 3e 9c 0b 7f 3d
       -0.11941311 0.050205067 0.14500415 0.06226693
000160 64 54 c5 bc 79 d2 c2 3c 5e d0 e4 bb 64 15 05 3e
       -0.024088092 0.023782002 -0.006982847 0.12996441
000170 dc 11 a2 3d b3 92 35 bd 92 b0 86 bb e7 a1 2c bd
       0.07913563 -0.044329356 -0.0041104043 -0.04214659
000180 18 83 9b 3d 5b 34 c3 bc bb e1 fb bd 1f 8f 13 bd
       0.075933635 -0.023828676 -0.12298914 -0.036025163
000190 15 32 f4 3d 99 6d ec bd 6c b9 e1 bd 23 85 d1 bc
       0.11923615 -0.115443416 -0.110216945 -0.02557618
0001a0 4e 5f 96 bd 36 80 9b 3d 0d 43 14 be 5a f7 be bd
       -0.07342397 0.07592814 -0.14478703 -0.09324522
0001b0 ed 5e 9c bd 9e b6 90 3c ec 76 32 3d 7b a2 6f bc
       -0.07635293 0.017665204 0.043570444 -0.014626141
0001c0 09 a0 bc bd 04 24 04 3d 36 6c da bd 50 45 6b bd
       -0.09210212 0.03226091 -0.10665171 -0.05743915
0001d0 f1 43 97 3d 40 23 dc 3d e0 fe 1a 3d 4c 7a 0b 3e
       0.07386006 0.10748911 0.037840724 0.13620871
0001e0 2e ac d4 3d 6c 8d 16 3d d6 d0 76 3d 76 5e 01 3d
       0.10384403 0.036755964 0.060257755 0.031584226
0001f0 1b d5 d4 bb d0 54 59 3d 92 71 8d 3d 14 d2 4a 3d
       -0.0064951307 0.0530594 0.069064274 0.049516752
000200 7e d0 d2 3d 73 40 20 bd 55 7f d3 bc 6a a8 f5 3c
       0.10293673 -0.039123964 -0.025817553 0.029987533
000210 77 c8 d0 bd 1e 03 90 3d 6a 73 1b 3d b1 a5 bb 3d
       -0.10194486 0.070318446 0.037951864 0.091624625
000220 52 80 99 bb 6c a8 f9 3d ec 46 83 3d de 8c df 3d
       -0.0046844864 0.12190327 0.06410012 0.1091554
000230 19 63 fa 3d 5e 17 5e 3d 0c ee 95 3a 7b c1 11 bd
       0.12225933 0.054221503 0.0011438741 -0.035584908
000240 b5 65 84 3d c2 fd b7 bd 27 d5 04 3d 7d e9 ba bc
       0.064647116 -0.08983947 0.03242984 -0.022816414
000250 8a cc 1c 3d 0a 64 0e bd d0 e6 36 bc 7b 56 84 bc
       0.038281 -0.034763373 -0.011163428 -0.016154518
000260 23 5c 67 bd 05 1a 5b 3d 61 64 eb bd 00 45 e6 3d
       -0.056484353 0.05349161 -0.11493755 0.112436295
000270 ab e2 dd 3d a5 4d 11 be e2 5e 7a 3d ff 9a 06 3d
       0.10834249 -0.14189775 0.061125644 0.03286266
000280 bc 95 aa bd cf 16 36 bb 16 b6 10 3e e7 57 88 bd
       -0.08329341 -0.002778459 0.1413196 -0.06657391
000290 b8 42 06 3d 97 b4 0b 3d 65 13 23 bd ae b1 8e bd
       0.03277847 0.03410777 -0.039813418 -0.069674835
0002a0 d9 ab 9f 3d 5d e7 79 bd 6c e6 ce bd d4 e8 73 3d
       0.07796449 -0.06101166 -0.10102543 0.059548214
0002b0 07 41 43 bc 3c 6b 4f 3d 48 e5 a8 3d 0b 14 c2 3d
       -0.011917359 0.050639376 0.08246857 0.09476479
0002c0 a6 e2 d7 3d 65 ed f2 3b 1c a2 08 be 9d 4d 11 3d
       0.10541277 0.0074135535 -0.1334309 0.03547441
0002d0 db 59 2c 3c 68 75 ee 3d 61 16 d4 3d 58 a2 9e 3d
       0.01051947 0.11643487 0.10355831 0.07745808
0002e0 d8 76 ab bd 38 54 01 be 17 60 27 3e ea 78 b5 bd
       -0.08372277 -0.12629783 0.16345249 -0.08860953
0002f0 92 c4 8e bd f8 db ba 3c 5a ab 77 3d 94 4f 11 3e
       -0.069710866 0.022809967 0.060466148 0.14190513
000300 3c 89 58 bd 21 f2 80 3d 19 66 78 bd 24 3f 9c bd
       -0.052865252 0.062961824 -0.060644243 -0.076292306
000310 0f 3b b8 3d 10 a3 dc bc 72 1e 2e bd 82 04 28 bd
       0.089956395 -0.026933223 -0.042509504 -0.041019924
000320 1a d9 9e b9 2c 0e a5 3d 25 58 90 bd f0 c2 3d bd
       -0.00030297862 0.08059344 -0.07048062 -0.046328485
000330 bb ef c3 3d 7c c1 19 bb f9 ba cf bd de 86 b6 3d
       0.09567209 -0.0023461273 -0.10143084 0.089124426
000340 2c b5 45 bd 75 8a fc 3d eb 03 92 3c f1 c2 ea bd
       -0.048268482 0.12331096 0.017824134 -0.11462963
000350 e9 a7 04 3d 38 c4 ed 3d a5 74 c1 3b f2 5f 50 3d
       0.032386694 0.116096914 0.0059037977 0.05087275
000360 b2 86 fe bb ed 0c bf bd f6 85 aa bd 9d 3d cb bd
       -0.007767522 -0.09328637 -0.08326332 -0.09923861
000370 61 20 a6 3d d9 27 cd 3d a6 4b 12 3d 21 ce 92 bd
       0.081116445 0.10017366 0.035716675 -0.07168222
000380 d3 ec 35 bd 8e 92 ea bc 85 dd e5 3d a1 38 f6 bd
       -0.044415306 -0.028634336 0.11223892 -0.1202252
000390 4d a4 cc 3d 86 b1 f8 bd f2 15 dc 3c 74 63 e8 3d
       0.099922754 -0.12143235 0.026865933 0.11347094
0003a0 a9 cc 85 bd 5e de 5c bb 9c 96 81 3d 46 01 a1 bd
       -0.065331765 -0.0033701877 0.063275546 -0.07861571
0003b0 0c ca 76 bd c1 b3 c9 3d 1c 9b f0 bd ca cf b6 bd
       -0.06025128 0.098487385 -0.11748335 -0.08926351
0003c0 53 6a ab bb d5 28 ca 3c b1 60 d8 3b d4 9a de 3d
       -0.0052311807 0.024677673 0.0066033234 0.10869375
0003d0 e7 d8 9f 3d f3 2f d7 3c d4 d4 c4 3d be b3 85 3d
       0.07805043 0.026267981 0.09610906 0.06528424
0003e0 93 8a cf 3c c7 23 1b 3d b1 77 6b bd 19 ac cc bd
       0.025334632 0.037875917 -0.057487193 -0.099937625
0003f0 cc fa 4d 3d a9 d2 a4 3d 9b b9 a7 bd 47 a0 31 bd
       0.050288007 0.08047993 -0.08189698 -0.043365743

policy_fc1.bias f4 [64]
000000 de ef 28 bc 2d 15 c8 3b c6 4d 85 bb 43 b7 e0 bb
       -0.010311095 0.00610604 -0.004068109 -0.006857784
000010 5a ec 3a bc f9 de 90 3b 50 24 18 3b 1f 60 90 3a
       -0.01140889 0.0044211117 0.0023215003 0.0011014974
000020 34 0e 00 3c a5 e6 06 bb a8 71 15 bc 21 d1 04 3b
       0.007815886 -0.0020584252 -0.009121336 0.0020266252
000030 9f 8f a1 bb e4 74 d6 bb a8 c7 b7 3a 61 85 ea bb
       -0.004930451 -0.006544696 0.0014021294 -0.0071570133
000040 3c 32 13 b9 48 42 9c 3a 25 8d d9 bb fb 90 02 bc
       -0.00014037726 0.0011921609 -0.00663914 -0.007969136
000050 d6 fb 23 3a f6 29 60 b9 40 de de 39 76 95 80 bb
       0.0006255483 -0.00021377936 0.0004250873 -0.003924067
000060 2c d2 38 bb e7 8e da bb 63 57 16 bb 8f 17 88 bb
       -0.0028201444 -0.0066698673 -0.002294027 -0.004153199
000070 50 21 81 3c fa 8f dd 39 00 cb 10 3c 37 ab 83 3b
       0.015762955 0.00042259676 0.0088374615 0.004018213
000080 74 30 27 bc 05 7c 9c ba 44 8a 7c ba ee 26 c1 bb
       -0.010204423 -0.0011938816 -0.00096336403 -0.0058945334
000090 5b 5c 83 bc f9 20 0d 3b 62 91 8b bb cc b0 2d b8
       -0.01603525 0.0021534546 -0.0042592743 -4.141107e-05
0000a0 01 aa 86 bb 7d de 0f bb 3a 23 48 bb af 4a c9 bb
       -0.0041096215 -0.0021952682 -0.0030538575 -0.006142936
0000b0 0d 15 b5 3b fa 72 75 ba 8f 44 34 3b 83 bf b9 3b
       0.005526191 -0.0009363141 0.0027506684 0.005668582
0000c0 5b 2a 60 bb 2d 2a 2d bb 8e 00 28 3b 2d 1a 38 bc
       -0.0034204933 -0.0026422844 0.0025635096 -0.01123671
0000d0 50 8d 65 bb ed ee 48 bc 32 11 08 bb 15 76 a7 bc
       -0.0035026856 -0.012263996 -0.0020762202 -0.020442048
0000e0 dd 0a 51 3b 4d 6a 74 bb 51 8e b4 bc 91 4b c4 3a
       0.0031897344 -0.0037294806 -0.022040518 0.0014976134
0000f0 d8 93 66 b8 6a c7 8f 3b 00 e4 c2 ba b0 80 04 bc
       -5.4973963e-05 0.0043877857 -0.0014868975 -0.008087322

policy_fc2.weight f4 [32, 64]
000000 34 ba 3d be bc ff 4b 3e 01 17 70 be 8c 61 44 3e
       -0.18528062 0.19921774 -0.23446275 0.19177836
000010 0a d8 17 be 53 ce ea bd 88 6d b9 3d 26 15 58 3e
       -0.14828506 -0.114651345 0.090540946 0.21101817
000020 e1 89 fa 3d 2f 55 6b be cf ce 8b bd fa 19 b6 bb
       0.122333296 -0.22981714 -0.06826555 -0.005557296
000030 d7 e3 06 be 3e 89 ac bd 0c b9 7b 3e 8e 27 56 3e
       -0.13172852 -0.08424614 0.24582309 0.20913526
000040 44 bc 1b 3e 60 ae b2 bd 83 80 c8 3d e5 16 51 3e
       0.15208536 -0.08724666 0.09790137 0.2041889
000050 84 49 1c 3b d9 93 09 be 69 05 e6 3d 0e ac 18 bd
       0.002384753 -0.13435306 0.11231501 -0.03727346
000060 96 08 80 bd 23 b8 3c be 52 6a b0 bc e6 5c dd 3d
       -0.06251638 -0.18429618 -0.021535072 0.108087346
000070 0b 57 0e 3e 5d c2 5f be 54 fd 1a 3d 56 c0 da 38
       0.13900392 -0.21851487 0.03783925 0.000104308754
000080 6f e2 60 3d 0b 46 f3 bd 93 27 0d be c0 63 ed bb
       0.054903444 -0.11878594 -0.13784628 -0.007244557
000090 99 65 5e 3e 8a ee 7c bd 9e fc 10 be b8 b0 02 3e
       0.21718444 -0.061750926 -0.14158866 0.12762725
0000a0 cf 94 85 bd 35 73 ff 3d fe e3 71 3e d0 97 24 3e
       -0.065225236 0.12473146 0.23622128 0.16073537
0000b0 6a 95 99 3b 0c ac 3f 3e c9 f0 a2 bd 9b 29 23 bc
       0.004687001 0.18717974 -0.079560824 -0.00995865
0000c0 40 36 4b 3e 67 64 42 3d 48 7d 23 3e 38 64 fa 3c
       0.19844913 0.047459032 0.1596576 0.030565366
0000d0 4b 74 9b 3c e7 0e a7 bd 89 35 33 be bc 99 9b bc
       0.018976351 -0.08157139 -0.17500891 -0.018994205
0000e0 92 1c 67 be 0f cc 60 bc 64 94 04 3e 26 31 81 be
       -0.22569492 -0.013720526 0.12947232 -0.2523281
0000f0 21 e0 78 3d 02 47 da bc 33 77 78 be 70 21 13 3e
       0.06076062 -0.026645187 -0.24264221 0.14368224
000100 3a 8b 57 3e 80 76 2d be ff 67 66 be 34 50 e8 bd
       0.21049204 -0.16939735 -0.22500609 -0.113434225
000110 46 dd df 3d d7 aa dd bd 87 3c 1a 3e 94 42 c9 3d
       0.109308764 -0.10823601 0.15062152 0.09827152
000120 71 dc ba bc 0a 37 7e bc dc 4b bc 3d a0 23 62 3d
       -0.022810193 -0.015516052 0.091941565 0.055209756
000130 57 c0 85 be 39 75 da 3d fc 0d 8c bd bd 31 62 be
       -0.26123306 0.1066689 -0.06838605 -0.22089286
000140 9d 50 a2 3d f0 43 b2 bd 55 4a 35 be 14 c0 33 3c
       0.07925532 -0.08704364 -0.17704137 0.010971088
000150 4d 10 1a be c3 a1 47 be 25 2e 14 be f5 f1 33 3e
       -0.15045281 -0.19495301 -0.14470728 0.17572768
000160 76 93 71 3e 90 bd 29 be b7 f1 95 bd 16 51 eb 3d
       0.23591408 -0.16576219 -0.07321494 0.11490075
000170 31 89 6d 3d d9 6f 3f be b7 0e af bd 7d 10 4d bd
       0.057992164 -0.1869501 -0.085477285 -0.050064553
000180 06 26 70 3e 38 5b 40 3d ec b2 2d 3e d4 a4 66 3e
       0.23452005 0.046961993 0.16962785 0.22523814
000190 14 86 31 3e a3 9f a3 3d a8 95 ea 3d 7c b2 ab bd
       0.17336303 0.07989433 0.11454326 -0.083836526
0001a0 e8 99 7d 3d c3 7b f9 3d c8 cf f3 bd 20 27 69 be
       0.061914355 0.12181809 -0.119048655 -0.22768831
0001b0 74 fd ec 3d f4 39 eb bd a6 a5 23 3e f3 cf 65 be
       0.1157178 -0.11485663 0.15981159 -0.22442608
0001c0 fa f9 72 3e 23 6c 53 be a8 0e 51 3e 87 a4 6f 3c
       0.23728171 -0.2064672 0.20415747 0.014626629
0001d0 fa 40 59 3e 68 74 e7 3c 3e 33 75 3e 15 12 0f be
       0.21216193 0.028253749 0.23945329 -0.13971741
0001e0 9e 73 db 3d 96 36 2d 3e b5 bf 29 bd ee 51 ef 3d
       0.107154116 0.16915354 -0.04144259 0.11685549
0001f0 fb fb 3c 3d ee 2b cc 3c 10 5e cd bd 4c f2 30 be
       0.046138745 0.024923291 -0.100277066 -0.17279929
000200 61 b6 3c be f7 c2 01 be 2f 0b cf 3c 69 c1 92 3d
       -0.18428947 -0.1267203 0.025273887 0.07165796
000210 cf dc 95 bd 0c 46 1e 3e c0 15 d0 3d 01 ae 1e 3e
       -0.073175065 0.15456408 0.101603985 0.15496065
000220 3a 55 a8 3d b0 69 ee 3d 90 88 73 3e ff 31 b9 3d
       0.08219381 0.11641252 0.23782563 0.09042739
000230 ce ac 71 3c 01 bf f0 3d a3 03 99 b9 ce 38 0c bd
       0.0147506725 0.11755181 -0.00029185144 -0.03423386
000240 b4 69 c1 bd e8 b7 58 be f7 8f 5c be f9 b0 31 3e
       -0.094439894 -0.21163905 -0.21539293 0.17352666
000250 57 54 75 3d ea 87 bd 3d f3 a1 9c 3d cb 54 a5 bc
       0.059894886 0.09254439 0.07648077 -0.020182034
000260 9b 1e 83 3b bb ff c6 3d ea ff 67 be 1b 31 0c bd
       0.004001451 0.097167455 -0.22656217 -0.034226518
000270 38 a1 29 3e 35 21 11 3d 94 86 88 bd 82 18 80 3d
       0.16565406 0.03543206 -0.06666294 0.062546745
000280 46 ef 81 3e 44 dc c1 3d b4 ca 39 3e 6f fa 84 be
       0.25377864 0.094658405 0.18143731 -0.25972316
000290 bd ca 6f 3a 48 db 86 bd 24 a5 1f 3c 75 db cf bd
       0.0009147337 -0.06584793 0.009743962 -0.1014928
0002a0 b8 b1 df 3d e0 34 34 3e cf 3f f4 bd 75 7c c7 3d
       0.10922569 0.17598295 -0.11926233 0.09740535
0002b0 c2 3a 12 be bb 87 14 bd b6 c6 92 3d 48 6e 60 3d
       -0.14280227 -0.036262255 0.07166807 0.054792672
0002c0 78 78 ea bb 01 81 3d 3e 3d e9 0f be c2 92 30 3e
       -0.0071554743 0.18506242 -0.14053817 0.17243484
0002d0 59 cb 70 3e f9 ad 9c 3d 65 f1 97 bd a6 a9 85 be
       0.23515071 0.0765037 -0.07419089 -0.26105994
0002e0 a4 b2 ac 3d 77 34 48 bd cc c5 dc bd f4 fb 5b be
       0.084325105 -0.04887816 -0.10779914 -0.21482831
0002f0 77 58 16 be eb e9 b7 3c 1b 97 51 3e 47 97 cf 3b
       -0.14682184 0.022450408 0.20467798 0.0063351723
000300 2a 97 68 be 4d e9 75 be 2e 1b 3f 3e 7f de 68 3d
       -0.22713915 -0.24014778 0.18662712 0.056852814
000310 8a 80 aa bd ef ce 58 be c3 c1 6e 3e 79 d5 7b 3e
       -0.08325298 -0.21172689 0.23316102 0.24593152
000320 75 f1 ee bc 29 7b 22 3e ce b3 68 3e 9c 74 3f 3c
       -0.02916787 0.15867294 0.2272484 0.011685517
000330 68 fe 19 be f5 9b 57 3e c7 00 5e 3e 59 6b 39 3d
       -0.15038455 0.21055587 0.21679984 0.04526839
000340 c7 0c 4d 3d a9 0c a2 3c ba 55 52 3e 25 ca 33 be
       0.050061014 0.019781427 0.20540515 -0.17557581
000350 7a 3e 00 3e 75 1c 18 be 8c cd 7a bd ca a8 13 3e
       0.12523833 -0.14854605 -0.06123118 0.14419857
000360 a3 9a 41 3e 03 e2 c8 3d 9f fd 57 3c 62 1d 8d 3c
       0.18906645 0.09808733 0.013183027 0.017225925
000370 40 85 58 be 91 af 19 be d2 42 6e be bb 24 46 3c
       -0.21144581 -0.1500838 -0.23267677 0.012093718
000380 27 63 63 3e a7 60 4b bc 8d e6 24 be 5b 47 2a 3e
       0.22205792 -0.01241318 -0.16103573 0.16628782
000390 20 28 59 bb da 4f 8d be c5 6e 69 3e 29 4d 40 3e
       -0.0033135489 -0.27599984 0.22796161 0.18779434
0003a0 05 f4 32 be 97 59 52 be af f8 52 3e 4e cd e3 bd
       -0.17475899 -0.20541988 0.20602678 -0.11123143
0003b0 2c db 52 be cc ee 09 bd 4e a5 0e 3d 47 7e bb 3d
       -0.2059142 -0.033675 0.034825616 0.09154945
0003c0 8a 41 36 be 62 19 50 3e 42 ce 95 bb 8b 31 f6 bd
       -0.17798439 0.20322183 -0.004571707 -0.12021168
0003d0 66 c5 c9 bd ef 60 00 bd ef ec 96 3d 1e 50 8a ba
       -0.09852104 -0.031342443 0.0736941 -0.0010552441
0003e0 03 e8 4b bd fb 4f 8b 3d 75 a4 c7 bd 9e f9 c7 3c
       -0.04978181 0.068023644 -0.097481646 0.024411019
0003f0 b5 85 b5 3d 58 40 c0 3d eb dd 21 3d 7e fd 29 3d
       0.08863393 0.093872726 0.039518278 0.041501515

policy_fc2.bias f4 [32]
000000 90 c2 4b 38 aa 46 3a bc 82 b8 14 bc ca 4d 94 ba
       4.8580172e-05 -0.011369387 -0.009077193 -0.0011314687
000010 a4 2c b0 ba 52 5d fb bc 76 f2 92 3b 8e 0e bf bc
       -0.0013441038 -0.030684147 0.00448447 -0.02332237
000020 ea 38 99 bb bb cc 18 3b c4 9e be bc c6 60 53 3c
       -0.004675974 0.0023315388 -0.023269065 0.012901491
000030 5a 7b 38 bb e7 81 b0 bc 22 21 6c 3c 7b 81 a8 3a
       -0.0028149695 -0.021546317 0.014412196 0.0012855971
000040 ef 41 88 3b e9 a4 8c 3c 78 87 34 bc cb ee ec 3b
       0.0041582505 0.017168479 -0.011018626 0.007230615
000050 43 db 10 3b f9 23 87 bc b8 55 84 ba a0 14 19 3c
       0.0022103346 -0.016496645 -0.0010096347 0.009343296
000060 bb d6 ef 3b 0a 7d ca 3c 80 bf 16 3c 14 25 55 3b
       0.007319299 0.024717826 0.009200931 0.003252332
000070 63 92 9a bc d7 3e f7 3b a2 c2 66 3c f1 4a 0d bc
       -0.01886863 0.007545333 0.01408449 -0.008623824

policy_fc3.weight f4 [57, 32]
000000 ef e5 f8 3d 35 db cb 3c 74 7d a1 bc a6 7d 6e bd
       0.12153231 0.0248848 -0.019713141 -0.058225296
000010 c1 29 1d 3d c2 27 30 bd fc 25 03 3e 6e 66 6c be
       0.038369898 -0.043006666 0.12807459 -0.23085949
000020 39 2a 22 3e ca 6f f0 3c 73 f4 06 3e 00 70 db bd
       0.15836419 0.02935018 0.13179187 -0.10714722
000030 24 0e 35 3e 3e 40 0c be fe b2 4d be 0c cc 5b be
       0.17681175 -0.13696381 -0.20087811 -0.21464556
000040 d7 56 4e be b9 06 34 be 43 1d 7b bd f4 73 2b 3e
       -0.20150314 -0.1758069 -0.061307203 0.16743451
000050 26 86 76 3e 7b db 71 be b3 49 84 bd 14 3e 6b 3d
       0.24074611 -0.23618881 -0.064593695 0.05743225
000060 28 a3 40 be 24 6f 80 be 8f ce dd bd 35 2b b3 3b
       -0.18812239 -0.25084794 -0.108304136 0.005467797
000070 d2 49 4c 3d e3 ab 36 3d 56 16 20 bb 98 f2 3e 3e
       0.049875088 0.044597518 -0.0024427376 0.1864723
000080 02 89 06 3d a4 2e 49 3c 73 00 01 bd 5e b0 8d bd
       0.032845505 0.012279186 -0.03149457 -0.06918405
000090 19 d1 24 be e1 0b 03 3e 9a d9 60 3e 29 21 85 bd
       -0.1609539 0.127975 0.21958008 -0.065004654
0000a0 b0 a9 33 3e 09 22 5b 3e f8 f3 6e 3d 96 bb 7c be
       0.175452 0.21399702 0.058338135 -0.24680933
0000b0 c0 df 45 3e 44 71 18 3d db 4a c5 3d 4b a8 b4 3d
       0.19323635 0.037217394 0.09633418 0.08821162
0000c0 e4 96 80 be 0f 1a e8 3d 7b f4 35 bd 1d ff 48 3e
       -0.2511512 0.11333095 -0.044422608 0.19628568
0000d0 b3 7e e5 bd 06 8f 40 3d eb 0e 52 be 1f 9d 68 3e
       -0.112058066 0.047011398 -0.20513503 0.22716187
0000e0 2e e2 13 be 0f 54 d6 bd 0c 25 bb bc 8b 27 b8 bd
       -0.1444175 -0.10465252 -0.022844814 -0.08991917
0000f0 11 49 5e 3e c5 56 8c 3d 24 be a2 bd f7 82 6b be
       0.2170756 0.068524875 -0.07946423 -0.22999178
000100 33 4c b3 3d d1 39 10 3e 9e dc 3b be 8a a5 22 3e
       0.08754768 0.14084555 -0.18345878 0.1588346
000110 87 1b 56 3e 16 b0 1a be 88 bf 37 be ab 91 0e 3d
       0.20908938 -0.15106234 -0.17944157 0.03480689
000120 0e 21 19 be 72 e8 23 be b7 99 84 3d 1a 7c 8e 3d
       -0.14954016 -0.1600664 0.06474631 0.06957264
000130 49 c4 d2 3d 24 97 8f 3e 16 dd 7d be 5b e9 8e bc
       0.10291345 0.28045 -0.24791369 -0.017445257
000140 7b 60 44 3e 5d c4 6a bd c9 4d ee bd 56 fc cf 3d
       0.1917743 -0.057316173 -0.1163593 0.10155551
000150 a7 60 53 3d ec 92 80 be c6 65 77 be 8b c3 6e be
       0.051605847 -0.25112092 -0.24159917 -0.23316781
000160 02 65 50 3e e0 84 99 bd a3 a4 5f 3c ea 0a d1 3d
       0.20351031 -0.07496047 0.013650092 0.1020716
000170 63 58 08 bd 8e d9 bd 3c 44 70 7f be 0f 15 4e 3e
       -0.033287417 0.023175027 -0.2494517 0.2012522
000180 57 01 a3 bd 41 40 44 be 96 ae 10 bd ba e1 0c 3e
       -0.0795924 -0.19165136 -0.035322748 0.13757983
000190 19 9a 2c be 31 7f 6b bd a0 a7 96 be 95 fe 8a bc
       -0.16855659 -0.057494346 -0.29424763 -0.016967097
0001a0 2b d2 86 be 2f 32 f6 3d a2 81 74 3e 0e 74 7c be
       -0.2633222 0.120212905 0.23877576 -0.24653646
0001b0 ed c6 1f 3e 44 af 9c be 33 c8 2c 3e 6c 5c 7b be
       0.15603228 -0.30602467 0.16873245 -0.24546975
0001c0 82 60 dd 3b 79 7f 6b bd df 36 e3 bd ad a7 33 3e
       0.0067558894 -0.057494614 -0.1109445 0.17544432
0001d0 3a c7 9f bd 2f c4 41 3e 84 97 63 3e 62 a2 9d 3d
       -0.07801671 0.18922494 0.22225767 0.07696988
0001e0 c1 1a 10 be 9f 55 58 3d 74 6d f5 3d bc 41 4e be
       -0.14072706 0.05281603 0.11983767 -0.20142263
0001f0 81 e3 24 3d 1c a2 17 be 24 0f 46 3e 5b a5 7f be
       0.040256027 -0.14807934 0.19341713 -0.24965422
000200 16 e9 90 bd e8 65 4a bd f2 2a 53 3d 70 b4 52 be
       -0.070757076 -0.04941359 0.051554628 -0.20576644
000210 36 89 52 3d 46 ca 47 be 18 47 86 3e 34 59 1f 3e
       0.051400386 -0.19510755 0.26226115 0.15561372
000220 6f 47 cf 3c 94 e8 d3 bd 84 23 3a be 8c 12 1b bd
       0.025302617 -0.10347095 -0.1817761 -0.037859485
000230 7a 69 46 3e 12 2b 41 3e 33 cf cf bc 0d e9 16 3e
       0.19376174 0.18864086 -0.025367355 0.1473734
000240 84 6d 17 bb 78 38 48 be 6a 3a 05 bb 11 3a 66 be
       -0.0023106048 -0.19552791 -0.0020329007 -0.22483088
000250 f7 e4 c9 bd 7e 91 ca bc 74 20 16 3e 8b 35 65 3e
       -0.09858125 -0.02472758 0.14660817 0.22383706
000260 87 8e 48 3d bd 2a 3a 3d e4 52 95 3d d4 2b 02 be
       0.04896405 0.045450915 0.07291201 -0.12712032
000270 e5 1f 35 3e 97 78 4b be 06 47 63 be b2 36 26 be
       0.17687948 -0.1987022 -0.22195062 -0.16231802
000280 cf a0 21 3d 8b a0 03 3a 3f 2b df bd a1 e0 0f be
       0.03946 0.0005021176 -0.108969204 -0.14050533
000290 35 fd b2 bd 49 3a 7a 3e 0a 0c 15 be 9a 10 2f be
       -0.08739702 0.24436297 -0.14555374 -0.17096177
0002a0 44 aa f8 bd 84 42 46 3e 22 71 e2 bd 02 9c 4d be
       -0.121418506 0.19361311 -0.110567346 -0.20079044
0002b0 27 9b 8b 3d af bf 10 3c 62 62 2f 3e b5 2e b7 3d
       0.06816702 0.008834763 0.17127374 0.089444555
0002c0 32 ee 2e 3d 46 3a 5d 3e b8 72 4c 3e 0c 7f a8 bc
       0.04270763 0.21604261 0.19965637 -0.020568393
0002d0 47 79 f6 3d ed b3 85 3e dc 38 1a 3d 42 5d 78 bd
       0.120348506 0.26113835 0.03765188 -0.060635813
0002e0 09 7a a3 bb 48 63 a6 3d cb 69 c4 3d f3 0e 12 3e
       -0.004988913 0.08124405 0.09590491 0.14263515
0002f0 93 38 83 3d ba 38 bb bc cf 9e fc 3a cd 58 87 bc
       0.06407275 -0.022854198 0.0019273403 -0.016521836
000300 ed 17 5d 3e 45 47 53 be d1 ba 46 be c2 a2 8c 3d
       0.21591158 -0.20632656 -0.19407202 0.06866981
000310 ae 79 6b 3d 3f ff 67 3d e7 17 69 3c 81 df 51 3d
       0.05748909 0.056639906 0.01422689 0.05123854
000320 e6 6e 11 be 23 11 9c bd a9 aa 52 be f4 29 b8 3c
       -0.1420246 -0.07620456 -0.20572914 0.022480942
000330 60 dd a6 bd 0c e0 68 be c2 57 2b bc da 33 47 bd
       -0.08147693 -0.22741717 -0.010457935 -0.048633434
000340 41 72 4b bd d7 05 91 3d 1a 97 31 3e 2b 4e 5e 3e
       -0.049669508 0.07081192 0.17342797 0.21709506
000350 26 b1 0d 3d 84 5d 9e 3d 42 9a 27 bd 23 c8 ca 3d
       0.03459277 0.077326804 -0.040918596 0.09901454
000360 9f ba f1 3d 6a 1b a5 bd 5f 7b d9 3d e8 cf 58 be
       0.11803173 -0.080618694 0.10619234 -0.2117306
000370 99 c8 3a 3e ad 50 6a be a4 82 50 3e d5 cb 9b 3d
       0.18240584 -0.22882338 0.20362335 0.07607237
000380 30 80 65 3e 1e 3d 33 3e 6d 68 13 be 15 f7 cc 3c
       0.22412181 0.17503783 -0.14395304 0.025020162
000390 01 0b 5b be 60 38 83 bd 43 98 af 3d 68 b3 98 3c
       -0.21390916 -0.06407237 0.085739635 0.018640235
0003a0 9a 6b 3c bd d2 23 b9 3c d5 e9 30 3e ab dc 48 3d
       -0.046001054 0.022600088 0.172767 0.04903857
0003b0 4a a5 17 3e 55 0d ae 3b 98 5d c5 bb 7e 87 63 be
       0.14809147 0.005311648 -0.00602312 -0.22219655
0003c0 0b fe 74 3e ea 33 1b 3e 38 5c f3 bd f0 49 25 bd
       0.23925035 0.15156522 -0.11882824 -0.040353715
0003d0 00 76 f6 3d 96 4a 6d bd 7e 81 62 3e 7f 03 67 bd
       0.120342255 -0.05793246 0.2211971 -0.05639982
0003e0 ed 8f 6d 3e b6 ae 20 bc 15 fc 1d 3e 97 da 2f be
       0.23199435 -0.009807279 0.15428193 -0.17173229
0003f0 3f bc 4a be 55 99 28 3d 78 ed 8c bd 48 39 02 3e
       -0.19798373 0.041161854 -0.06881231 0.12717164

policy_fc3.bias f4 [57]
000000 03 65 de bb cf 27 70 3b 69 0f c4 ba 03 e7 de bc
       -0.006786944 0.0036644822 -0.0014958206 -0.027209764
000010 61 3b d4 3a b8 bd 02 3c 1b 4f 8a 3c 2e 82 c5 3c
       0.0016192013 0.007979803 0.016883424 0.024109926
000020 cb 2c 79 bc 73 9b 22 bb a8 8d 6f bb 20 d8 a2 3c
       -0.015208433 -0.0024811893 -0.003655294 0.019878447
000030 38 d1 4a ba 45 54 11 3d 26 0e 12 3d 84 94 22 3d
       -0.00077368645 0.035480756 0.035658024 0.039692417
000040 d6 c2 3c 3a 4b 2d e4 bc a1 08 84 bc 94 14 91 bc
       0.00072006637 -0.027853629 -0.016117396 -0.017710008
000050 d4 f2 25 bc fe 3f ad bb c9 15 f7 bb b7 28 59 3b
       -0.0101286955 -0.0052871695 -0.007540439 0.003313584
000060 6a 24 f1 3b d9 af aa 3b 44 b3 e6 bb 6b e6 00 3c
       0.007359077 0.005208951 -0.007040413 0.007867436
000070 8f 83 d6 3b 9b 9c 89 3b 6e 80 c4 bc d9 3e 18 3b
       0.0065464447 0.004199577 -0.023987021 0.002323082
000080 96 68 c8 3c 82 0f b0 3c 97 60 86 bc 6c c4 97 3c
       0.024463933 0.02149177 -0.01640348 0.018526278
000090 4d f9 16 bb cb 45 97 bc 74 77 a9 3b 07 39 73 bc
       -0.0023036778 -0.018465897 0.0051717106 -0.014845139
0000a0 b5 e4 bd 38 76 b7 80 3c 57 f0 20 3d 46 3e 8b 3b
       9.054822e-05 0.015712481 0.039291706 0.004249367
0000b0 39 0b 2e bb 27 97 97 3c 6a 1c fc bc 27 75 c3 3c
       -0.0026556982 0.018504692 -0.030775268 0.023859574
0000c0 e4 18 ac 3c 55 ea be 3b e6 a1 b7 bb 20 c7 ac bc
       0.021007963 0.0058262744 -0.0056040166 -0.021091044
0000d0 29 e5 7b 3c 1b e3 ef 3c 5c b7 4e bc 6f c9 53 3c
       0.01537446 0.029283097 -0.0126169585 0.0129264435
0000e0 d5 f1 4b bc
       -0.012447794

value_fc1.weight f4 [64, 261]
000000 4a 8c cd 3d a0 ca f1 bd 90 8e b6 bd 1e f5 d1 bd
       0.10036524 -0.11806226 -0.089139104 -0.102518305
000010 c6 db 8b 3d 92 07 86 bd 01 9c 8d 3d ab 90 16 3e
       0.06829028 -0.06544413 0.06914521 0.14703624
000020 46 0a 84 bd e0 a7 dd 3d df 07 61 3e ed e2 2f 3d
       -0.06447272 0.10823035 0.21975659 0.042941023
000030 65 1e fe 3d 72 5e 5e 3e 94 ab ca 3d e0 17 86 3c
       0.12408141 0.21715716 0.09896007 0.016368806
000040 84 9d a1 bc 95 dd d6 bd ac 6f 84 3d de 60 a2 bd
       -0.01972843 -0.10491482 0.06466612 -0.07928632
000050 d0 0e 85 3d a7 70 e6 3d a4 f1 c6 3d 97 14 e6 bd
       0.06496966 0.112519555 0.09714058 -0.11234396
000060 7c f0 6c 3d 5b 85 31 bd d6 32 a6 3d a9 cf ee bd
       0.05784653 -0.04334007 0.08115165 -0.11660702
000070 70 8b 71 bc 79 68 a8 3c 20 e0 9e bb 0c 64 a1 3d
       -0.014742717 0.020557629 -0.004848495 0.078804106
000080 6b 0c e1 bb 93 ea 14 3e 7e 0c 1f 3e 40 99 ba 3d
       -0.0068679354 0.14542608 0.15532109 0.09111261
000090 fa 05 e7 3d cc cd c8 3d b7 34 41 3d fa 8a a9 bd
       0.11280437 0.09804878 0.047169413 -0.08278461
0000a0 a6 88 56 3d a8 21 cb 3d f2 b1 0f be ab 9e a2 bd
       0.05237641 0.09918529 -0.14032724 -0.0794042
0000b0 77 1c 51 3c 78 bf 75 bc 72 dd 1c 3d 53 43 86 bd
       0.012763134 -0.014999263 0.038297124 -0.0655581
0000c0 fc 3a ec bd fc bb 23 3e 8d 8f a5 bd 94 5f 7f bd
       -0.11534688 0.15989679 -0.08084021 -0.06234701
0000d0 85 b2 ce bd 1d 62 ef 3b e3 bc da 3d 5c fe e5 3b
       -0.10092644 0.007305397 0.106805585 0.0070188474
0000e0 2a 22 8d bc 38 f5 82 3d 62 5c 63 bd 60 84 86 3b
       -0.017228205 0.06394428 -0.055508025 0.004105136
0000f0 b2 a6 ca 3d 8a 57 e9 bd f4 fe 79 3d bc 65 17 3d
       0.09895076 -0.1139365 0.061034158 0.036962256
000100 e0 6d 05 be fa a9 f4 3d 84 62 f9 3c 53 96 ae 3d
       -0.13030195 0.11946483 0.030442484 0.08524766
000110 90 ec 84 be 31 f6 26 3d a9 ce 3a bd 83 ae d1 3d
       -0.25961733 0.04076213 -0.045607243 0.102383636
000120 03 a6 91 bc 4f ec e6 3d 76 9d 04 be db 3b 80 3d
       -0.017779356 0.11275541 -0.12950692 0.062614165
000130 e0 64 3b 3b e1 af 02 be 7d bc 2a be 08 9c 02 bd
       0.0028594062 -0.12762405 -0.16673465 -0.031887084
000140 98 35 e2 bd 09 01 0b be 3a ea 17 3e 80 e5 b4 3d
       -0.110453784 -0.13574614 0.14835444 0.08832836
000150 63 05 9b bc ca 89 92 bd be dc 3d ba ed cd de bd
       -0.018923467 -0.071551874 -0.0007242671 -0.10879121
000160 d6 38 d5 3d 9f b5 44 3d 9a d3 eb 3d 3f 69 10 bc
       0.10411231 0.04802477 0.11514969 -0.008814155
000170 61 b3 ff 3c c7 01 1c 3d 96 65 09 39 4b f9 0f 3e
       0.031213464 0.038087633 0.00013103182 0.14059941
000180 46 75 14 bc 08 1d 95 3d 9b 6d 76 3d 71 2a d7 bb
       -0.009061163 0.07280928 0.06016312 -0.0065663387
000190 8a c9 14 be 62 4e 8c bd 31 ed 3c 3d d1 b7 e5 bd
       -0.14530006 -0.06850888 0.04612464 -0.11216701
0001a0 27 72 54 bc 06 a0 02 3e 13 62 3e 3e bd 23 04 bd
       -0.012966669 0.12756357 0.185921 -0.032260645
0001b0 ea b4 07 be d6 7f de 3c af af 7c bd 05 97 95 bc
       -0.13252607 0.027160566 -0.061690982 -0.018260488
0001c0 1a c0 e8 3c a6 7b 3e bd 63 f8 a9 3d 3b 0f 13 3d
       0.028411914 -0.04650464 0.08299329 0.035903197
0001d0 6e c1 0c bd f6 54 03 be 1f 9a 24 3d 21 2d 74 bd
       -0.034364156 -0.12825379 0.040186044 -0.05961335
0001e0 24 a2 f0 3d 4b 15 9c bd 7f c4 cd 3d 75 d7 d3 3b
       0.11749676 -0.07621249 0.10047244 0.0064648935
0001f0 55 f5 e0 3d b0 14 8c bd d3 85 cf bd c5 3b 57 bd
       0.10984293 -0.06839883 -0.10132947 -0.052547235
000200 e5 7a 50 bd aa ba df 3d a7 a5 80 bd 13 ea ef 3d
       -0.05089845 0.10924275 -0.06281596 0.11714568
000210 8b e0 8f bd fa e6 d5 3d 65 89 0e be 63 4d 1c 3b
       -0.0702525 0.10444446 -0.139196 0.0023849837
000220 2b 7f 3d 3e 64 dc d6 bc d9 54 56 3c 21 da a7 3d
       0.18505542 -0.026228137 0.013081753 0.08195902
000230 97 32 df 3d 19 19 d6 bd a8 b9 4e bd 96 34 e0 3d
       0.10898321 -0.10454006 -0.050470024 0.1094753
000240 8e 16 8b bc ab 5e 7d 3b 88 f1 f7 3c fe 79 07 be
       -0.016978528 0.0038661163 0.030266538 -0.1323013
000250 b8 14 03 3e 24 e0 0b bd d8 31 02 be bf f0 e5 3d
       0.12800872 -0.034149304 -0.12714326 0.11227559
000260 b0 30 92 3d a6 8b 19 3d 6c 27 1c 3d 16 56 b2 3d
       0.07138193 0.037486695 0.038123533 0.08707826
000270 7a d0 c5 bc d3 2b b5 3d 1f 38 f2 bc e1 61 55 bc
       -0.024147261 0.088462494 -0.029567776 -0.013023824
000280 62 c0 2a 3d d0 2b dd 3c c5 bc fb 3d b5 88 05 3d
       0.041687377 0.02699843 0.12291864 0.032601077
000290 16 55 e0 bd 2c f8 16 bd 95 f7 02 3d 9c 11 1b 3d
       -0.10953729 -0.03685777 0.031974394 0.03785859
0002a0 b3 6e 56 bd f6 a2 80 3d a6 8f 72 3d 3d 7d 17 bc
       -0.052351665 0.06281082 0.059219025 -0.009246168
0002b0 0d 6b 14 3d e1 de 95 bd 04 0f dd 3d 6d 73 2b 3e
       0.036234904 -0.073179014 0.1079388 0.1674325
0002c0 01 75 78 bd 7d f2 92 bd 9e 31 2a 3e 89 08 5f bc
       -0.06065846 -0.07175157 0.1662049 -0.013612875
0002d0 e3 31 97 bd ac 25 c9 3d 52 f8 b0 3d ae b9 fa 3c
       -0.07382562 0.098216385 0.08641113 0.030606117
0002e0 ea 8e 3a 3e e2 13 e9 bc 00 a0 d0 3d d9 7a 93 3d
       0.1821858 -0.028451864 0.101867676 0.07201166
0002f0 04 29 e8 bd c3 7f cb bd be dd a5 3d 2f 75 92 bd
       -0.11335948 -0.09936478 0.080989346 -0.07151257
000300 62 10 0b 3e dc e1 0c 3e 91 45 83 3c 6e 78 2c bd
       0.13580468 0.13758034 0.016024383 -0.04210704
000310 96 1d 14 3e 88 18 9a 3d 2b 04 e9 bc 00 0c d8 3d
       0.14464411 0.0752421 -0.02844437 0.10549164
000320 7e 97 cf bd 81 83 18 be 97 fc ea 3d 0c f9 28 3e
       -0.10136317 -0.14893915 0.11473959 0.16501254
000330 b6 f8 fc bd 16 11 f4 3d f7 1c 80 3d 45 9a 1f 3d
       -0.12352125 0.119173214 0.062555246 0.038965482
000340 d6 45 a1 bd 41 6b da 3d 16 d1 27 3d ec e9 66 bd
       -0.07874648 0.10664988 0.040970884 -0.05637543
000350 b5 35 c7 3c 4a db f4 bc 74 28 96 bd 14 28 91 3d
       0.024317602 -0.029889721 -0.073319346 0.070877224
000360 37 bf 73 3d b8 74 b9 3d f8 74 f4 3c ef 59 e3 bd
       0.05950853 0.090554655 0.029840931 -0.11101138
000370 6c 9d 62 3c 3f c4 b5 bd 4e e6 30 39 cd 69 64 3d
       0.013831478 -0.088753216 0.00016870463 0.055764962
000380 56 63 5f bb ae a0 1d bd a0 d3 aa 3d da 33 64 bc
       -0.0034086308 -0.038483314 0.083411455 -0.013928378
000390 a3 2d 03 be 88 ba 90 3d f2 4d e7 3d ba 8c 72 bd
       -0.12810378 0.07066828 0.11294164 -0.05921624
0003a0 28 83 4e bd 87 ce cd bd b0 24 b0 3d 1d 32 e5 3d
       -0.05041805 -0.100491576 0.086007476 0.11191199
0003b0 66 d3 8b 3d 11 21 00 bd bb 58 a2 bd f1 22 75 3d
       0.068274304 -0.031281535 -0.0792708 0.059847776
0003c0 63 d8 ee bd d0 5c d3 3d e0 fa a8 3d 0b c3 f5 bd
       -0.11662366 0.10320437 0.082509756 -0.12000092
0003d0 91 e1 a6 bc 69 16 b8 3d 75 94 98 3d 86 74 0e bd
       -0.02037123 0.089886494 0.07450191 -0.034779094
0003e0 dc 4b a7 3c 74 d7 d6 bd 21 68 84 3d cd 64 4d 3b
       0.020421915 -0.10490313 0.064651735 0.00313406
0003f0 5f ec 9e bd f4 a8 43 3d 26 9a 92 bd 1c 84 b1 3d
       -0.07759928 0.047768548 -0.07158308 0.08667776

value_fc1.bias f4 [64]
000000 4b 1f aa bb 30 51 fb 3c 04 90 cc 3c 30 89 94 bc
       -0.0051917187 0.030678362 0.024971016 -0.018131822
000010 2d 24 9e bc 73 0d c5 3a fd 7a 35 bb e3 f7 ce bb
       -0.01930436 0.0015033915 -0.0027691715 -0.0063161715
000020 3e 1e 48 bb ab 41 bf 3c 12 66 8c 3b 4d 90 17 bb
       -0.0030535604 0.023346743 0.0042846287 -0.0023126781
000030 d2 4a d5 3c a4 f8 ca 3c 54 f3 23 3a ab 2e 7d bc
       0.026036654 0.024776764 0.0006254215 -0.015453021
000040 b6 41 19 3c 1a 1a 6c 3c 19 77 03 bc 44 7d a9 3c
       0.009354046 0.01441052 -0.008024001 0.020689614
000050 a5 e9 31 bc 32 a3 92 3c 33 2f a9 3c bb 62 ea 3c
       -0.010858928 0.017900083 0.02065239 0.028611531
000060 64 a5 0e bb 12 d9 80 3c 3a da 8a ba 02 0a bb 3c
       -0.002176606 0.015728507 -0.0010593601 0.02283192
000070 0b 5e aa 3c 4a ae 3a 3b 09 5a c0 bb 0e 4a 19 3c
       0.020796796 0.0028485232 -0.005870108 0.009356035
000080 f9 db f2 bb e1 b0 0a 3c b1 1a d3 3c 17 8b 0a 3d
       -0.0074114767 0.008465023 0.025769563 0.033824053
000090 21 74 95 bb 2b 74 83 bc 8a 53 9b 3c e1 17 99 3c
       -0.004560963 -0.016046604 0.018960733 0.018688144
0000a0 85 0a 33 3d 11 00 dd 3c 5f 31 a5 3b 64 40 18 bd
       0.043711204 0.02697757 0.005041286 -0.037170783
0000b0 64 dd bc 3c 12 ac 1b 3d 9f 80 62 bc 4c 0b 82 3c
       0.023054786 0.038005896 -0.013824611 0.015874527
0000c0 d4 13 38 bb e8 62 3e 3c ea 7a e6 3c a2 f6 0a 3d
       -0.002808799 0.011620261 0.028134782 0.033926614
0000d0 7a 74 8c bb 29 06 4e bc df 39 e4 3c 82 a9 22 3b
       -0.004286346 -0.012574711 0.027859626 0.0024820273
0000e0 0d e7 94 3c cb 5f 45 3c d5 9a 77 3c d3 68 f7 3c
       0.01817658 0.012046765 0.015112598 0.030201351
0000f0 75 72 96 3c ef e2 95 bc 46 5d 82 3c ca 6a e9 3b
       0.018365124 -0.018296687 0.015913617 0.007123326

value_fc2.weight f4 [32, 64]
000000 19 86 2c be b4 84 d6 3d ca 82 28 be cf 80 10 bd
       -0.16848029 0.1047453 -0.16456142 -0.03527909
000010 9e 7c cb bd 9b 3d 67 3e c1 33 e9 bb 2f 7a 03 be
       -0.09935878 0.22582094 -0.0071167652 -0.12839578
000020 34 18 ae bd b4 bb 80 3c ad a1 87 bd ec 38 cf bd
       -0.0850071 0.015714504 -0.06622634 -0.10118279
000030 3a c9 2f 3e 0c e5 a3 bc 80 d3 45 be 96 ce 92 bd
       0.17166606 -0.020006679 -0.19318962 -0.071683094
000040 19 b9 a5 3d db 57 54 be 20 e2 4a 3e fb 3e 13 bc
       0.08091945 -0.20736639 0.19812822 -0.008987184
000050 1a 63 27 be e2 75 91 bd 90 e4 26 3c ee 6a 3e 3d
       -0.16346398 -0.071025625 0.0101863295 0.046488695
000060 94 a8 51 3e 78 a8 7b 3d 78 a0 53 bd d1 d2 91 3d
       0.20474464 0.06143996 -0.051666707 0.07120288
000070 1b 40 48 3e 06 f7 08 3e 45 17 15 be 28 50 2a 3c
       0.19555704 0.13375482 -0.14559658 0.010395087
000080 9e a4 fb bd 1e 23 c6 3d aa d1 50 3e 07 5e 6b 3e
       -0.122872576 0.09674667 0.2039248 0.22985087
000090 40 76 d3 bd 54 ec 11 3e 09 13 12 3d 55 b0 1f 3d
       -0.10325289 0.14250308 0.035662685 0.038986523
0000a0 65 e4 a3 3d 41 11 80 3e f3 b5 9c bd 25 2c 33 3e
       0.08002547 0.25013164 -0.076518916 0.17497309
0000b0 04 d6 70 3e ce ea 20 bd 97 0f 90 3c 13 73 5c be
       0.2351914 -0.039286427 0.017585559 -0.21528272
0000c0 60 ee 35 3d de 35 dd bd 2b 9d 09 bd e8 b0 95 bd
       0.044416785 -0.1080129 -0.033597153 -0.07309133
0000d0 38 a2 28 3e 8f 3c b1 3d c1 32 fc bc 97 7b 5e 3d
       0.16468132 0.08654129 -0.03078592 0.054317083
0000e0 b1 32 c9 3d ec 77 40 be e3 89 6e be a3 ac 7c 3e
       0.09824122 -0.18795747 -0.23294787 0.2467523
0000f0 1c b3 06 3e e4 70 14 be 1d 26 2f be fb 83 23 3e
       0.13154262 -0.1449619 -0.17104383 0.15968315
000100 e0 d7 27 3d d8 d6 a3 be 84 0f 9e bd 2d 2b 19 3e
       0.04097736 -0.3199985 -0.07717803 0.14957877
000110 4e 14 36 3e 9b c1 a0 be 56 f3 b4 bd 8b 85 5a be
       0.17781183 -0.3139771 -0.08835475 -0.21340005
000120 be 87 dc 3d 21 6a bd 3d bc 09 3e be 22 94 aa be
       0.10768078 0.09248758 -0.18558401 -0.3331614
000130 b0 f4 a3 be ba 7a 47 bb b4 20 91 be d7 4a 3f bc
       -0.3202262 -0.003043814 -0.28345263 -0.011675558
000140 76 61 07 be 33 66 1f be 67 36 20 be 7c 45 89 be
       -0.13220772 -0.1556633 -0.15645753 -0.26810825
000150 b8 0a 7f bd e4 1a b9 bc c8 c8 39 be 75 be bb bd
       -0.06226608 -0.02259583 -0.18142998 -0.09167186
000160 6a 24 4d be 4f 26 10 bd b7 f3 bb bd 74 44 3e 3e
       -0.20033422 -0.035192784 -0.09177344 0.185808
000170 33 22 55 bd 50 7c ad be 83 64 9b be c6 5d fc bc
       -0.052034568 -0.33883905 -0.30350122 -0.030806433
000180 0c c7 d7 3d 88 da a4 3d 79 7f 86 3c b8 e0 4b be
       0.10536012 0.08049494 0.016418206 -0.19909942
000190 e4 8f 82 3e 65 c0 49 be 2b 8a 14 3e cc 01 8e 3e
       0.25500405 -0.19702299 0.14505832 0.27735746
0001a0 4c d9 db bd bf e7 63 be 7f 62 b9 3c b0 d2 0f 3e
       -0.107348055 -0.22256373 0.022629974 0.14045215
0001b0 61 2b c2 be 7f 6d 89 be f6 3f d7 3d d6 96 71 3e
       -0.3792372 -0.2684135 0.105102465 0.23592696
0001c0 e1 de e4 3c 82 bb 48 be 22 bb 28 be c0 a3 00 bd
       0.027938308 -0.19602779 -0.16477636 -0.031406164
0001d0 19 06 2f bb 22 df 12 ba 76 bf e8 bb 4a 0e 2a 3d
       -0.0026706515 -0.00056027074 -0.007102902 0.041517533
0001e0 30 15 00 3d c2 be bb 3d f5 d7 3f 3e f6 73 de be
       0.031270206 0.091672435 0.18734725 -0.43447846
0001f0 0a a9 a5 bb 17 81 02 be a1 a3 8c 3e 60 4f 89 bd
       -0.0050555514 -0.12744556 0.2746859 -0.06704593
000200 59 49 5e 3e 5c ea 1b 3e d4 2e ba bd a4 f7 63 3e
       0.21707667 0.1522612 -0.09090963 0.22262436
000210 78 bd a5 3d 74 39 9c 3d 11 91 83 be 22 83 67 bd
       0.08092779 0.07628146 -0.25696614 -0.056521542
000220 b7 58 03 3d 87 b8 e4 bd 10 e3 58 be 57 f8 da 3d
       0.032067027 -0.11168008 -0.21180367 0.10691898
000230 86 7b 46 be d5 73 ab bd 30 52 17 be 46 51 4e 3e
       -0.19383058 -0.083717026 -0.14777446 0.20148191
000240 76 bb 5d be 59 1d dd 3d 06 cb 0f bc 45 59 10 3c
       -0.21653542 0.10796613 -0.008776432 0.008810346
000250 bb cd 7c 3d b7 f7 3e be af bf f4 3d 95 91 01 bd
       0.061719637 -0.18649183 0.11950623 -0.03163298
000260 aa 69 10 be a7 50 f1 3d b0 9a 04 3e 99 2c 49 bc
       -0.14102808 0.11782961 0.12949634 -0.012278699
000270 7e 30 15 bd 1f 90 29 be 32 13 a0 3d 00 d0 42 be
       -0.0364232 -0.16558884 0.07816161 -0.19024658
000280 d7 f0 83 be 26 b9 d8 3d 94 6f 39 be bf 59 ea bd
       -0.25769684 0.10582189 -0.1810897 -0.11442899
000290 0c 1f 26 be f8 52 59 be ff 1e 4e be 37 2b 7e 3e
       -0.16222781 -0.21223056 -0.20129012 0.24821173
0002a0 29 10 9e 3d 9e 3f f6 3d 7a 56 73 be a4 71 20 3e
       0.07717926 0.12023853 -0.23763457 0.1566835
0002b0 b2 55 33 bd 5a f3 25 3e 3f 34 80 3e bb 41 62 3e
       -0.043782897 0.16206113 0.2503986 0.22095387
0002c0 17 be 8a 3e 85 9b 08 be 58 70 c5 bd 25 0d 28 3e
       0.27098152 -0.13340576 -0.096405685 0.16411264
0002d0 9b e7 11 bd af 7c 06 be 7b ff bc 3d f8 0e ea bd
       -0.035621267 -0.131335 0.092284165 -0.11428636
0002e0 6a 24 15 3e 84 0a 17 3e 40 20 77 bd fc 3b c7 3d
       0.14564672 0.14750105 -0.06033349 0.09728238
0002f0 93 02 f2 bd 53 54 e4 bd 14 1d 74 be b8 14 34 be
       -0.11816897 -0.11148896 -0.23839217 -0.17586029
000300 90 93 d3 bd ac b7 73 be 6b c1 1a be ff c9 f1 bd
       -0.1033088 -0.23800534 -0.15112846 -0.11806106
000310 d4 5e d5 bd 52 a8 d1 bc 8c 55 9f 3c ed f0 5b be
       -0.10418478 -0.025592957 0.019449972 -0.21478625
000320 9c 57 63 bd 3d 68 19 3e f9 39 3d be f6 2e 25 3e
       -0.055503473 0.1498117 -0.18479146 0.16131195
000330 31 67 44 3e 55 e1 d9 3d 77 d2 06 be 38 d5 41 be
       0.1917999 0.10638682 -0.13166223 -0.18928993
000340 a3 b5 40 be 9e bf 50 be db 89 55 be bb 5c 3e bc
       -0.18819289 -0.20385596 -0.20853369 -0.011618788
000350 b3 c6 96 bc f3 fb 00 be ae 06 a4 3d 88 13 5b 3d
       -0.018405294 -0.12596111 0.080090865 0.053485423
000360 45 f3 b5 3d fc f6 44 3e 4b a3 17 3e 41 fd 51 be
       0.088842906 0.19234842 0.14808385 -0.20506765
000370 9c e5 6f be ca c1 17 3e 6a a5 17 be 95 69 7c bd
       -0.23427433 0.14820018 -0.14809194 -0.06162413
000380 41 a6 81 be 89 bc 6d be fa 2a 5d bc e1 97 e5 bc
       -0.25322154 -0.23216452 -0.013499016 -0.028026523
000390 8d ee e9 bd 6f 15 2a 3d 4b 83 85 bd e5 81 48 be
       -0.11422453 0.041524347 -0.06519183 -0.19580801
0003a0 1a 1b e5 3d d4 f7 77 be 29 77 4b 3e c3 5e 79 be
       0.1118681 -0.24215633 0.19869675 -0.24352555
0003b0 09 e2 35 3c 7d 08 62 be c1 e6 a3 3d 3d 54 04 3e
       0.011101254 -0.2207355 0.08002997 0.1292276
0003c0 89 fe 0e be 1e ad a8 bd 4b 48 11 be e6 87 a4 ba
       -0.13964285 -0.082361445 -0.14187734 -0.0012552708
0003d0 c3 a9 62 3e 1e 2f 6c 3e 67 15 83 be 96 37 cc 3d
       0.22135071 0.23064849 -0.25602266 0.0997154
0003e0 0a e8 6e 3d 63 28 9a bc 98 7c 68 bb f1 8b 2e 3e
       0.05832676 -0.018818086 -0.0035474654 0.17045571
0003f0 07 61 3e 3e 21 ca 6c 3e 95 94 97 bd b3 8b 20 3e
       0.185917 0.23123981 -0.07401387 0.15678291

value_fc2.bias f4 [32]
000000 f9 4a 24 3c cf f8 73 3c 0b 7e 00 bc 9e 7d 0a bd
       0.0100276405 0.014890864 -0.007842551 -0.033811204
000010 18 7b 8f 3c 79 b9 36 3d 76 35 20 3d 37 ce 30 3c
       0.01751475 0.044610474 0.039113484 0.010791353
000020 14 2d 98 3c 47 6e e3 bc 45 7a 34 bb 3c 31 d6 3c
       0.018576182 -0.027762545 -0.0027538699 0.026146524
000030 e5 40 07 bc 59 c8 0e 3d 10 b2 88 3c 07 69 d0 3c
       -0.008255218 0.034859035 0.01668647 0.025440706
000040 32 80 01 bc 10 31 a6 bc 2e 29 8f bb d5 35 2b bc
       -0.007904099 -0.020287067 -0.0043689227 -0.010449846
000050 e3 74 4f 3c a7 ed 4d 3d 4d 46 ac 3c b7 be 0a 3c
       0.012662145 0.05027547 0.021029616 0.0084683215
000060 a9 8d 44 bd c8 2b f8 bc 9a de a0 bc 04 64 0f bc
       -0.04798666 -0.030294314 -0.019637395 -0.008751873
000070 df c7 a5 3c 2f cc 13 3b eb bd 80 bc e7 ed 6e 3d
       0.020236908 0.0022552123 -0.01571556 0.05833235

value_fc3.weight f4 [1, 32]
000000 91 ad a0 3e bc 74 c8 3e c5 c1 0e be 1d bc a7 3e
       0.3138242 0.3915156 -0.13941105 0.32760707
000010 aa 30 0a 3f f1 84 f9 bc cb 9b 17 3f 70 6f a4 3d
       0.53980505 -0.0304589 0.59222096 0.080290675
000020 01 83 c1 3e ba 57 83 3e dd 09 9b be 3f f4 a6 3e
       0.3779526 0.25652868 -0.30280963 0.3260822
000030 e0 ca bd be a5 3d e0 3e 70 1c d3 be 3e 53 04 3f
       -0.37068844 0.4379703 -0.41232634 0.5168952
000040 e1 21 06 be d9 f4 52 be 3d 51 68 3e b2 78 ff bc
       -0.13098861 -0.20601214 0.2268724 -0.031185482
000050 ba 24 bd be 75 cf 9c 3e 59 32 69 3d f9 f4 16 bd
       -0.36942083 0.30627027 0.05693278 -0.036854718
000060 f1 5c a6 be 4a 8d dd bd 96 3c e7 bd 2a a3 22 be
       -0.32492784 -0.108179644 -0.11290853 -0.15882555
000070 48 94 1e 3f 3a 03 3b 3e e9 3c 43 3e 7d ed 4c 3e
       0.6194501 0.1826295 0.19066204 0.2001247
