rl/spin_model_11301424/63.pt (torch_old, 160417 bytes, 12 tensors)

log_std f4 [57]
000000 3f e2 ad 3d 2e e0 a7 3d bf 74 6d 3e 8f 7e 9e 3d
       0.08490419 0.08197056 0.23189066 0.07738983
000010 aa db cc 3d 25 a2 cc 3d 46 e9 36 be a1 0f c6 3d
       0.10002835 0.09991864 -0.17862424 0.0967095
000020 03 40 88 be 1d 11 9f 3d 7e 37 cf 3d e8 84 ac bd
       -0.26611337 0.07766936 0.10118006 -0.08423787
000030 85 5c 14 bd fa 6a eb 3d ac 52 90 3d ef 76 a3 3d
       -0.036221046 0.114950135 0.070470184 0.07981669
000040 1a 79 83 bd 3b 2f 16 3e 80 93 8d 3d f6 44 6a 3e
       -0.06419583 0.14666454 0.06912899 0.22877869
000050 3e 83 0a bc 2e 19 33 3c db 3d de 3d 76 f2 d0 3d
       -0.008454142 0.010931296 0.10851642 0.10202496
000060 c3 c8 27 3c 7a d9 af 3d 28 d2 ac 3c 30 30 ac bb
       0.010240736 0.08586402 0.021096304 -0.005254768
000070 e4 c9 09 3d 4c 28 48 3e f8 93 1e 3e eb f8 27 3e
       0.033639804 0.19546622 0.15486133 0.16403548
000080 60 67 27 3e 93 79 f8 3d ea b8 21 3d 04 8a b8 3d
       0.16348028 0.121325634 0.03948299 0.090106994
000090 7a 35 bc 3b 66 d8 35 3d b5 46 fe bc c6 a1 4d bb
       0.0057436796 0.044395827 -0.031039575 -0.0031376942
0000a0 34 b4 7d 3d 52 1f f4 3d c2 ae 3d bc d9 17 11 3e
       0.061939433 0.119200364 -0.01157731 0.14169253
0000b0 fe ca 10 3e 06 2f 88 3e 8a 7a 30 3e ea 4d f5 3d
       0.14139935 0.26598376 0.17234245 0.119777516
0000c0 e7 37 cd 3d c0 36 8b bd 7a f9 82 3d 9d fd 1e 3d
       0.10020428 -0.06797552 0.0639524 0.038816083
0000d0 93 4c 0c 3e dc 6b d8 3d 88 3e 0b 3e 8d 03 2f 3e
       0.13701086 0.105674475 0.13598073 0.17091198
0000e0 fd 0b 42 bd
       -0.047374714

policy_fc1.weight f4 [64, 261]
000000 1f d5 b1 3d 90 5e 1f bc 0e e9 cb 3d f0 f3 97 bc
       0.08683228 -0.009727135 0.09956561 -0.018548936
000010 33 cc d4 3d d6 e6 28 3d 4e 28 20 3e 76 65 7c 3d
       0.103905104 0.041235767 0.15640375 0.0616202
000020 ad b9 56 3d c0 3d 6b bd b8 48 6d 3c 23 1d f9 3d
       0.052423168 -0.057431936 0.0144826695 0.121637605
000030 3b 5e d9 3d a7 de 1a 3d 3d 41 6f 3d 39 fc df 3b
       0.10613676 0.037809994 0.058411825 0.006835487
000040 22 61 58 bd c8 25 2d bc ef e7 7e bd dc 2e f1 3c
       -0.052827008 -0.01056809 -0.062232908 0.02944129
000050 72 87 01 3e 06 f7 bc 3d 4b 8b 8a 3d 9f 90 8d 3d
       0.12649325 0.092268035 0.06764849 0.0691235
000060 d5 e8 22 be 27 ba 20 be ce 2d d7 3d a8 0e 27 bb
       -0.15909131 -0.15696011 0.105067834 -0.0025490914
000070 26 77 45 bd ec 2b b5 3b 4c 9c ca 3d 82 b9 14 3d
       -0.048209332 0.0055289175 0.098930925 0.036309727
000080 76 26 63 3d a9 09 18 3e d8 c4 43 bd c7 c9 bb 3d
       0.0554566 0.14847435 -0.047795147 0.09169345
000090 cd 13 32 3e 44 33 92 bd 13 ef 24 3c 72 c0 2a 3d
       0.17390366 -0.071386844 0.010066765 0.041687436
0000a0 e8 6a 3f 3e 2d c7 b1 3d 15 2b b9 3b cb a2 da 3c
       0.18693125 0.08680568 0.0056508877 0.026688954
0000b0 95 dc ef bd 7a 58 30 3d 81 ba 34 3d 5e 84 2d 3d
       -0.117119946 0.043053128 0.044123176 0.042362563
0000c0 10 fc 6c 3d 20 ac 8e 3d df 1d ba bc 38 19 fc bc
       0.057857573 0.06966424 -0.022719322 -0.030773744
0000d0 45 d9 cb bd e8 8e 8d bc 60 f5 a2 bd cc 27 1e be
       -0.0995355 -0.017280057 -0.07956958 -0.15444869
0000e0 bf 45 a8 3b 1a 30 1b be 74 50 3b 3d 03 3e 9e bd
       0.0051352675 -0.15155068 0.045731023 -0.077266715
0000f0 a3 5a c5 3d 6c dc fe bd 30 d7 38 3c 39 9f 04 3e
       0.09636428 -0.12444386 0.011281773 0.12951364
000100 8a 71 64 bd 42 fd 25 be ef e0 51 bc fe 2e af bd
       -0.05577234 -0.16209891 -0.012809976 -0.08553885
000110 c9 b3 7e bd 98 85 6c be 67 9e 16 be f8 76 f5 bc
       -0.062183175 -0.23097837 -0.14708863 -0.029963955
000120 99 ed 5a 3c 58 3d bd bc a3 19 14 bd 6e f1 58 bd
       0.013362312 -0.02310054 -0.03615726 -0.05296462
000130 c5 0f 8a 3d 53 91 af bb df 9f 0e be 2c f3 ce bd
       0.06741289 -0.0053579 -0.13928173 -0.10104975
000140 60 39 7f bd 59 46 10 bd cf f3 ce 3d d7 f7 86 3c
       -0.062310576 -0.03522334 0.101050965 0.016475601
000150 76 8e 28 be 57 0d 93 3c 80 0e 34 3e ed 3e 5e 3d
       -0.16460595 0.017950697 0.17583656 0.05425923
000160 e6 07 74 3c 86 fd 5f 3c b4 52 85 bc 7b 22 04 3e
       0.014894461 0.013671285 -0.016274787 0.12903778
000170 88 b1 1c 3e 77 fc 5e bd 68 95 5b bc d8 6d 30 bd
       0.15302098 -0.054439988 -0.01340232 -0.043073505
000180 27 6a 19 3e b0 85 42 bd db a3 bb bd 95 78 ba bd
       0.149819 -0.047490776 -0.09162112 -0.091050304
000190 32 80 ac 3d bd c5 06 be 11 b4 92 bd 51 e5 5b bd
       0.08422889 -0.13161369 -0.07163251 -0.05368549
0001a0 01 cb d5 bd 34 e2 88 3d fb cf 0e be 91 9f fb bd
       -0.104391105 0.0668377 -0.13946526 -0.12286294
0001b0 9e aa 9d bd dd 59 f5 bb 72 6d a1 3d 2e 2b f0 39
       -0.07698558 -0.007487519 0.07882203 0.0004580854
0001c0 b5 cb 23 be 67 d1 7c 3c 05 2b 03 be 96 80 f5 bd
       -0.15995677 0.015430785 -0.1280938 -0.119874164
0001d0 56 de c8 3c b8 cc a5 3d a1 a0 47 3d a5 3e 91 3d
       0.02452008 0.08095688 0.048737172 0.070920266
0001e0 b3 de 8d 3d 95 94 0e 3c 86 fb 9a 3d 01 ef 49 bd
       0.06927242 0.008702417 0.075675055 -0.049300198
0001f0 ba 46 68 bd d4 3f e1 3c 00 80 65 3d 12 e2 f8 3c
       -0.056708075 0.027496256 0.056030273 0.030381236
000200 0f c4 6c 3d 08 73 61 bd 98 38 63 bc be cc 5b 3d
       0.057804164 -0.055041343 -0.0138684735 0.053662054
000210 f6 fa 1b be 04 32 42 3d b6 97 81 3d b2 17 ce 3d
       -0.15232453 0.04741098 0.06327765 0.10063113
000220 21 2f 69 bd 10 6b ba 3d 3b 28 b6 3d 46 1c d7 3d
       -0.05692971 0.09102452 0.08894392 0.105034396
000230 7f ce db 3d 23 74 e6 3d 32 e3 5f bc 5d 29 84 bd
       0.107327454 0.1125262 -0.013665007 -0.06453202
000240 b7 3f 0c 3e d1 07 e0 bd d2 3d 84 bb 00 ce bd bc
       0.1369618 -0.10938991 -0.00403569 -0.023169518
000250 d2 39 4e 3d 37 e5 bb bd 9c fe 84 bd 53 d3 5a 3c
       0.05034811 -0.09174579 -0.064938754 0.013356048
000260 89 60 e5 bd 63 88 ec ba 28 f7 9e bd 2d e9 67 3d
       -0.11200053 -0.0018046018 -0.07761985 0.056618858
000270 73 36 1f 3e 79 d5 1e be f1 03 ca 3c aa ca 8e 3d
       0.15548114 -0.15511121 0.024660083 0.06972249
000280 b2 4a f4 bd 83 42 99 bd fc 07 3c 3e e7 f4 e3 bd
       -0.119283095 -0.07483389 0.18362421 -0.11130696
000290 0e 14 c7 bc 2b b4 9e 3d f0 dd ac bd 6a 9e fa bd
       -0.024301555 0.07749208 -0.08440769 -0.12237246
0002a0 0f 53 0a 3e b6 47 9b bd cf 54 03 be 0d 8a ae 3d
       0.13508247 -0.07582037 -0.1282532 0.08522425
0002b0 ca 9d 18 bd 8d 37 00 3d 0e 15 aa 3d fe 0a 56 3d
       -0.037259854 0.031302977 0.08304797 0.052256577
0002c0 06 05 e4 3d e0 88 07 3d a2 95 22 be 00 34 84 3c
       0.11133771 0.03308952 -0.15877393 0.016138077
0002d0 92 61 7f 3d 29 fa ac 3d 63 9d ac 3d d0 a7 33 3e
       0.06234891 0.08446152 0.08428457 0.17544484
0002e0 9d c4 8f bd 89 3a 08 be d4 19 8b 3e 87 f8 07 bd
       -0.07019923 -0.1330358 0.27168143 -0.033196
0002f0 9a 7f 43 bd 13 99 46 3d aa dd 0f 3d 52 05 fb 3d
       -0.047729112 0.048485827 0.035123505 0.12256874
000300 7e 68 90 bd 1d a9 33 3d 4f 34 68 bd 4c eb d0 bd
       -0.0705118 0.04386245 -0.05669051 -0.10201129
000310 34 17 92 3d 3d 83 75 b9 5a 2f e4 bd 8d 62 34 bd
       0.07133332 -0.00023413911 -0.11141844 -0.044039298
000320 e5 e3 85 3d d8 1b b4 3d 13 c7 5a bd cc 52 b4 bc
       0.06537608 0.08794373 -0.05341251 -0.022012137
000330 b2 0c f4 3d 49 7b ea bd 4c 57 62 be 6c 2e 07 3e
       0.11916484 -0.11449296 -0.22103614 0.13201302
000340 38 bb 1c be 6a 37 2e 3c 43 e8 ae 3c ef 2d 33 be
       -0.15305793 0.010633329 0.021350985 -0.17497991
000350 5e e2 39 3d 79 fd f4 3d f8 02 5f bd 3e cd 82 3d
       0.045381896 0.119624086 -0.05444619 0.06386803
000360 72 1a 13 3c 57 18 7b bd f7 96 24 be 90 0d bc bd
       0.008978473 -0.06130251 -0.16073214 -0.09182274
000370 4a 43 d6 3d a7 1e 94 3d 0c fb 75 3d d9 b9 21 bd
       0.10462053 0.07232409 0.06005387 -0.03948388
000380 37 bc e2 bd 85 d0 8c bb 25 e7 13 3e 0c ff 3e be
       -0.110710554 -0.0042973184 0.14443643 -0.1865198
000390 c4 1e c0 3d 3e 22 eb bd ee 96 61 3d 48 52 e6 3d
       0.09380868 -0.114811406 0.05507558 0.11246163
0003a0 b2 7c 8d bd dc 3c 1d bc 6f 37 ba 3d 34 91 f9 bd
       -0.06908549 -0.00959703 0.09092604 -0.121858984
0003b0 76 59 a2 bd 75 97 bf 3d d9 ea 29 be 9e 0d 6b bd
       -0.079272196 0.0935506 -0.16593494 -0.057386033
0003c0 b0 98 0e 3d 6d 80 59 bd 8d 53 0b 3d 43 cc 23 3e
       0.034813583 -0.053100992 0.034015227 0.15995888
0003d0 a2 72 a1 3c 8b 77 ca 3d d0 eb 3c 3e 5c 18 31 bc
       0.019707981 0.09886082 0.1844933 -0.01080903
0003e0 40 09 82 3d 37 5e 10 3d 83 18 11 be 2b 29 01 be
       0.063494205 0.0352461 -0.14169507 -0.1261336
0003f0 b3 6a 23 3d b3 a2 5c 3d 42 16 a3 bd 7b 04 4d bd
       0.03989668 0.0538661 -0.0796323 -0.0500531

policy_fc1.bias f4 [64]
000000 ba ff ff bc f6 ca 2f 3b 79 3e 4d bc c7 7b ed bc
       -0.03124987 0.0026823855 -0.012527102 -0.028989686
000010 86 78 36 bc 8e 33 92 3c eb d7 b3 bc 7c 1b 63 bb
       -0.011137133 0.017846849 -0.021953544 -0.0034653833
000020 74 7d f6 bb 0b 2c 7b 3a 7e 07 41 bc 4a 42 99 bc
       -0.0075222794 0.0009581453 -0.011781571 -0.018708367
000030 f8 c3 61 bc 4d 3c 28 bd 39 f2 ee ba 54 26 56 bc
       -0.013779633 -0.041073132 -0.0018230147 -0.013070662
000040 d2 3b 1d bc 15 f1 9c bb d0 f3 51 bb ec 93 83 bd
       -0.009596782 -0.0047894814 -0.0032036193 -0.06424698
000050 d2 df b0 3b 43 f4 60 bc d5 60 de bc b9 ee a6 ba
       0.005397775 -0.0137301115 -0.027145782 -0.001273594
000060 fb 1a 51 3b ce 6e bf ba 31 8f 8c bc 1a 8d b3 bd
       0.003190695 -0.0014605166 -0.017158123 -0.08767147
000070 a1 a6 96 ba 68 78 d1 3b d1 2d e3 bc f6 5c 00 bc
       -0.0011493751 0.0063925274 -0.027731808 -0.007834664
000080 13 72 c3 3b 4a 71 ee bb da df ae b6 45 d2 1a bc
       0.0059645264 -0.0072766887 -5.211664e-06 -0.009449546
000090 1e 42 34 be 58 f5 76 3c cb a9 1c bc bd 95 8b bd
       -0.17603347 0.015073143 -0.009561966 -0.0681567
0000a0 b4 8f 00 be f9 14 14 bd 6b 1b 2d bc 85 3d 37 bd
       -0.12554818 -0.036152814 -0.010565619 -0.044736404
0000b0 ef a5 f8 3a 10 af 80 bc cb 6a 9a bc a5 af 89 bd
       0.001897035 -0.015708476 -0.018849751 -0.06722955
0000c0 fb 60 0b bd e0 83 4a bc 95 25 88 bc ba 5d 74 bd
       -0.034028035 -0.012360543 -0.016619483 -0.059659697
0000d0 0f 14 fa bb d2 fb d1 bc 22 eb c3 bc 86 2d ad bc
       -0.0076317857 -0.025632773 -0.023915831 -0.021139871
0000e0 f4 41 59 3c 94 0e 3d bd cb de 98 bd a3 ee 06 bd
       0.013260353 -0.04615648 -0.074643694 -0.032942425
0000f0 53 c0 b7 bc 14 9d 8b bc bd c1 03 bb 54 1d b8 bc
       -0.022430575 -0.017042674 -0.002010449 -0.022474922

policy_fc2.weight f4 [32, 64]
000000 28 5a 30 be 8a ce 19 3e c7 3f a0 be 1b 4a 8b 3e
       -0.17221892 0.15020195 -0.31298658 0.27204975
000010 c0 27 ce bd 1c 43 25 be 38 08 c1 3d 65 f8 76 3e
       -0.100661755 -0.16138881 0.09425396 0.24118192
000020 be f0 0c 3e 47 b5 52 be 98 87 94 bd ad 7f d9 3b
       0.13763711 -0.20576964 -0.07252425 0.0066375346
000030 9e 4d 0f be db af 36 bd c6 b8 96 3e a6 f6 41 3e
       -0.13994452 -0.044601303 0.29437846 0.18941745
000040 8e bd 14 3e 34 95 4d bd 47 a2 17 3e 8e 04 1d 3e
       0.14525434 -0.05019112 0.14807998 0.15333769
000050 38 7d 1f 3d 01 84 b3 bd dc 72 12 3e cb 7e 74 bd
       0.038937777 -0.08765412 0.14301628 -0.05969123
000060 97 a7 56 bc 56 3e 1e be fe 22 21 bd 6f 4a 03 3e
       -0.01310148 -0.15453467 -0.03934001 0.12821363
000070 71 ef f1 3d a6 42 81 be b7 a4 24 bc 24 7c f8 bb
       0.11813248 -0.2524616 -0.010049037 -0.007583158
000080 e7 6d 4e 3d 4d 58 fc bd b9 56 50 bd 41 05 86 3d
       0.05039778 -0.123215295 -0.050863955 0.06543971
000090 59 69 21 3e ef e2 fc bc df 40 40 be 28 13 0c 3e
       0.15762843 -0.03086993 -0.18774746 0.13679183
0000a0 73 7d 11 3a b6 23 0e 3e 67 f5 38 3e 80 95 01 3e
       0.00055500044 0.1388081 0.18062364 0.12654686
0000b0 de 1f 62 bd 29 50 63 3e 8a 21 04 bd de 41 eb 3b
       -0.055206172 0.22198547 -0.032258548 0.007179483
0000c0 76 f8 93 3e 9d 40 a2 3d 6a 6f 49 3e 36 88 70 bc
       0.28900498 0.0792248 0.19671407 -0.014680913
0000d0 10 45 bf 3c 7f 24 0c bc a1 84 37 be 12 a7 0d bd
       0.023348361 -0.008553623 -0.17921688 -0.03458316
0000e0 af ca 4d be 73 c8 f7 3a 69 45 dd 3d b0 a7 81 be
       -0.20096849 0.0018904343 0.108042546 -0.25323248
0000f0 48 52 d0 3d 19 dd 0d 3d da 3b 84 be db 90 3d 3e
       0.10171944 0.034634683 -0.25826913 0.18512289
000100 c1 04 17 3e 4b d1 59 be 04 15 2c be 23 a0 13 be
       0.14747907 -0.21271245 -0.16804892 -0.14416556
000110 a9 cc b3 3d cf be 06 be 8e ee 02 3e 93 0f ae 3d
       0.0877927 -0.13158725 0.12786314 0.08499064
000120 0f f3 0b bc 0d cd 04 3d b6 6e 1b 3e 67 dd 97 3b
       -0.008541836 0.032422114 0.15178952 0.0046345475
000130 30 65 ad be 3c 80 a9 3d 63 45 8f bd 6d 38 20 be
       -0.33866262 0.08276412 -0.06995656 -0.15646525
000140 2c e8 ae 3d c7 8f 0a be 74 0a fd bd 3d fb b0 3c
       0.08540377 -0.13531409 -0.123555094 0.021604175
000150 91 32 1e be f9 15 90 be f3 a9 83 be 3c 6b 36 3d
       -0.15448977 -0.28141764 -0.25715598 0.04453586
000160 e8 8a 30 3e 09 5d 6c be 5e 47 f1 bd f4 fb 8e 3c
       0.17240489 -0.23082365 -0.1178119 0.017454125
000170 94 fb 8e 3c 7d 1b 02 be 37 9f 87 bd 13 2e 93 bd
       0.017453946 -0.12705798 -0.06622165 -0.07186522
000180 ac 3b 52 3e a0 e2 0b 3d f6 41 3f 3e ff dc 3b 3e
       0.20530576 0.034151673 0.18677506 0.18346022
000190 10 af cd 3d aa df bc bd c4 11 cc 3d c4 83 29 be
       0.10043156 -0.09222348 0.09964326 -0.16554171
0001a0 da 7c 2e 3d 6c b1 86 3d db ed e7 bd 57 8c 46 be
       0.042599536 0.06576809 -0.11324664 -0.19389473
0001b0 65 c9 b7 3d 62 26 26 be 25 da ce 3d dc 97 84 be
       0.0897396 -0.1622558 0.101002015 -0.2589711
0001c0 d2 70 24 3e 5a cf ba be b4 8a 09 3e 67 bb aa bc
       0.16058663 -0.36486322 0.13431817 -0.020841314
0001d0 08 7c 8c 3e 29 06 4f bc 79 3f 86 3e 28 57 2b be
       0.27438378 -0.012635746 0.262203 -0.16732466
0001e0 3d c3 f4 3d 01 be e9 3d 3e 3d 10 bd df 4b a1 3d
       0.11951301 0.114131935 -0.035214655 0.078757994
0001f0 5f d0 08 3d 48 10 cc bd 86 c7 ff bd 68 45 61 be
       0.033401843 -0.09964043 -0.12489228 -0.21999133
000200 56 6a b2 bd 9b 76 49 bd 58 bf c4 bd 18 e4 4b 3c
       -0.08711688 -0.049185377 -0.096068084 0.0124445185
000210 0d f6 0a be 6b 7f 6c 3e bd ef c5 3d 72 c1 ca 3d
       -0.13570423 0.23095481 0.09664867 0.09900178
000220 39 63 6e 3d 11 09 fd 3d fb c6 5a 3e b1 1d 9d 3d
       0.058200095 0.12355245 0.21364968 0.07671679
000230 7c ae 25 bd bb cb d1 3d 77 16 f4 bd 26 c5 37 bd
       -0.040449604 0.10243937 -0.11918347 -0.04486575
000240 90 e9 80 bd c8 d5 49 be f1 66 fb bd df e9 2e 3e
       -0.062945485 -0.19710457 -0.12275494 0.17081402
000250 04 b9 a9 bc c1 ed 45 3d 51 7b a1 3d 87 da f3 bc
       -0.020718105 0.048322443 0.07884849 -0.029767288
000260 a5 fe e4 bc 1d a5 4a 3d 4f 7a 3c be 64 39 e7 bc
       -0.027953455 0.04947387 -0.18406032 -0.028225608
000270 1f 97 82 3e 85 b6 26 bc e6 4a 30 bd 37 9a 49 3d
       0.2550592 -0.010175352 -0.04304018 0.049219336
000280 be 21 8b 3e b9 ab ad 3d ca f0 3d 3e e3 75 33 be
       0.2717418 0.08480019 0.18548885 -0.17525439
000290 60 1f 2c bd f5 ba 1d be b0 9c 8c bd 23 55 3a be
       -0.04202211 -0.1540335 -0.06865823 -0.1819654
0002a0 69 f4 0e 3b bf 9a 1b 3e 37 05 de bc c3 c5 16 3e
       0.002181316 0.1519575 -0.027102096 0.14723878
0002b0 4f 52 43 be 32 b2 cf bd 97 c1 03 3e 23 b0 94 3c
       -0.19074367 -0.1014141 0.12866817 0.018150395
0002c0 bc 24 e7 bd 80 fc 01 3e 36 f5 c8 bd 8e 8d 86 3d
       -0.112863034 0.12693977 -0.09812395 0.06569968
0002d0 75 38 86 3e 8a 51 cd 3d 1d 69 15 be 31 f3 1e be
       0.26214948 0.10025318 -0.14590879 -0.15522458
0002e0 a8 75 a3 3d 5d 36 b5 bd a0 a3 0d be f9 72 81 be
       0.079814255 -0.088482596 -0.13831949 -0.2528303
0002f0 3e f9 52 be 9f 3f ae 3d 80 cb 3b 3e 79 72 88 bd
       -0.20602891 0.085082285 0.18339348 -0.06662459
000300 5a 8d 9d be 29 35 80 be fe ce 36 3e 12 f7 c3 3d
       -0.30771905 -0.25040558 0.17852399 0.09568609
000310 f0 7a db bd 5f d7 92 be 7b 06 7a 3e c8 b1 4b 3e
       -0.10716808 -0.2867994 0.24416535 0.19892037
000320 4a 11 16 be f3 13 1e 3e e1 b0 22 3e b9 9a e4 bd
       -0.14655033 0.15437298 0.15887786 -0.111623235
000330 74 9b 02 be 01 c8 3b 3e e9 18 59 3e db 6c 69 3d
       -0.12754613 0.18338014 0.21200909 0.05698858
000340 d2 a1 3f bb 78 a7 47 3d 61 67 38 3e 67 c2 2c be
       -0.002924074 0.048743695 0.18008186 -0.16871034
000350 f8 05 0b 3d 76 fe 2b be 67 f0 25 be 2c e4 d1 3d
       0.03394124 -0.16796288 -0.16204987 0.102485985
000360 dc bc 30 3e 08 5c c0 3d 53 57 85 bc f4 6a 13 3d
       0.17259544 0.093925536 -0.016276991 0.03599067
000370 a0 4b 44 be bf d4 6c be a1 b8 79 be 18 12 07 bd
       -0.19169474 -0.23128031 -0.24386837 -0.03297624
000380 2e 5d 37 3e f3 bf d6 bd da 54 38 be cf 2d 2f 3e
       0.17906639 -0.1048583 -0.18001118 0.17107318
000390 f2 94 9f bc d8 29 a3 be 2d 3c 50 3e 3e 58 6c 3e
       -0.019480202 -0.31867862 0.20335455 0.23080537
0003a0 77 fa 08 be 18 c2 64 be 91 cf 31 3e d5 38 1c be
       -0.13376795 -0.22339666 0.17364337 -0.15256055
0003b0 db d1 c5 bd d2 db ad bd 1f 0a e4 3d 55 05 a9 3d
       -0.096591674 -0.08489193 0.11134743 0.0825297
0003c0 3b 8f 6b be 1c 80 6a 3e a8 03 12 bc 0d ba 1c be
       -0.23003857 0.22900432 -0.0089120045 -0.15305348
0003d0 0f e8 eb bd 88 c5 dd bd 0a 17 07 3c b7 c8 5f 3d
       -0.11518871 -0.10828692 0.008245239 0.054634776
0003e0 b1 9c 2e bd 10 c3 25 3d 6d 76 ce ba 1a 6b f6 3d
       -0.0426299 0.04046923 -0.0015751846 0.12032147
0003f0 6d 37 62 bc 42 1f 92 3d 2c 12 3d bc bb c8 b1 3c
       -0.01380716 0.07134868 -0.011539977 0.021702161

policy_fc2.bias f4 [32]
000000 a8 b0 d7 bc 99 6e 36 3c 69 14 8e 3d f0 7f 26 bc
       -0.026329353 0.011134767 0.06937487 -0.010162339
000010 15 57 3f 3d e9 a3 d1 bc 3a 2c d8 bb bb ec d2 bc
       0.046713907 -0.025590854 -0.006597069 -0.025747648
000020 d0 af c6 bc 63 09 53 bd c6 ed 05 3d 3b a3 51 3d
       -0.024253756 -0.051522624 0.03269746 0.05118106
000030 de cf 40 3d db 2e 6c 3c d1 0a ec 3c 28 a6 1e 3d
       0.047073238 0.014415468 0.028813751 0.038732678
000040 b7 c6 6e bc 50 2b 08 3d 57 f6 98 bc 29 32 af 3c
       -0.0145737445 0.03324443 -0.018672151 0.021386223
000050 ba 02 d9 bc fa f3 ba bd 8f 30 fa 3c 5e 3d 43 3d
       -0.026490558 -0.09128566 0.030540733 0.047665946
000060 35 8f b9 3c bd 29 04 3d 0a 5f ff bc 90 28 b6 3c
       0.022651294 0.032266367 -0.031173248 0.022236139
000070 00 fc 20 be 2e 6c 4a 3d f7 df 8c 3d 4b 25 09 bd
       -0.1572113 0.049419574 0.068786554 -0.03348283

policy_fc3.weight f4 [57, 32]
000000 d7 19 12 3e c3 fe b6 3d 82 0a 73 bd b2 8c a3 bd
       0.1426767 0.08935311 -0.059336193 -0.0798582
000010 9b 34 13 3e 53 60 9a bd 4c 9d eb 3d b0 aa 83 be
       0.14375536 -0.07537904 0.115046114 -0.25716162
000020 26 79 2d 3e d5 d4 c3 bc da a1 16 3e de 49 8a bd
       0.16940746 -0.023905197 0.14710179 -0.0675237
000030 d6 db d6 3d 20 ea 04 bd ed bb 7c be 26 10 38 be
       0.10491149 -0.03244984 -0.24681063 -0.1797491
000040 aa 81 08 be a3 a3 41 be c6 e1 b7 bc 17 b6 ad 3d
       -0.13330713 -0.18910079 -0.022446524 0.084819965
000050 fa 89 0b 3e 63 9b 93 be 92 d3 b0 bd 1e 88 df 3d
       0.13626853 -0.28829488 -0.08634104 0.10914634
000060 ff 7c 0d be 41 a6 a7 be fb e4 f2 bd ed e5 c9 3d
       -0.13817213 -0.3274403 -0.11860081 0.09858308
000070 26 73 87 bc db 6e 10 3e a9 c4 2f bc 47 e6 05 3e
       -0.0165344 0.14104788 -0.01072804 0.13076125
000080 b0 a7 86 bc 87 a6 d6 3c 2f e0 de bc bc 66 d4 bb
       -0.016437382 0.026202453 -0.027206508 -0.0064819735
000090 7b c1 42 be 8b da 02 3e 8c a0 9b 3e 13 36 15 bc
       -0.1901912 0.1277868 0.30395925 -0.009107131
0000a0 fb ae dc 3d 65 a0 8a 3e 5f 35 30 3e 54 a1 62 be
       0.107755624 0.27075496 0.1720786 -0.22131854
0000b0 42 4a 59 3e 9f 8c ee 3d 80 ba ce 3c 50 04 c7 3d
       0.21219733 0.11647915 0.025235415 0.097176194
0000c0 b3 85 42 be c5 5d 0d 3e 8e 23 2e 3d aa 8c 01 3e
       -0.18996315 0.13805301 0.042514376 0.12651315
0000d0 77 e5 3e be 19 37 40 3e 6a 9b 51 be 08 0a 22 3e
       -0.18642221 0.18771018 -0.20469442 0.15824139
0000e0 8f 17 d4 bd 19 5c bd bd c0 3c 0a be 8f 1d 28 bc
       -0.10356056 -0.09246082 -0.13499737 -0.010260954
0000f0 7c 42 83 3e f6 2f c7 3b 70 ba 0d be ae 95 bd bd
       0.2563666 0.0060787154 -0.13840652 -0.09257065
000100 9c 41 2f bc eb 9a 72 3e 3f a4 18 be b9 34 01 3e
       -0.010696795 0.23691909 -0.14906405 0.12617768
000110 91 95 85 3e 39 90 1e be 1e de 68 be 96 e9 86 bc
       0.26090673 -0.15484704 -0.22740981 -0.016468804
000120 38 52 92 be b5 58 07 be 0f 35 c3 3d 3a 12 f7 3b
       -0.28578353 -0.13217433 0.095316045 0.0075400146
000130 c1 95 f9 3d 0d d1 95 3e 5b 36 be be 08 90 50 bc
       0.121867664 0.29261056 -0.37150845 -0.012729652
000140 c2 ac 44 3e 70 0d f4 bd 8e 57 05 be 7e 94 18 3c
       0.19206527 -0.119166255 -0.1302168 0.009312747
000150 17 ac 81 3d 28 f0 2e be 63 a8 d5 be 7f 36 01 be
       0.06331652 -0.170838 -0.4173003 -0.12618445
000160 e6 d8 4c 3e b4 e5 17 be ed 86 5f bd 28 27 f1 3d
       0.20004615 -0.14833719 -0.054572035 0.117750466
000170 18 b3 40 bd a6 81 bc 3d 1c de 71 be 40 a2 7a 3e
       -0.047045797 0.09204416 -0.23619884 0.24475956
000180 cf 3f 28 bc 93 2f 5a be 58 76 4f b9 76 2f 39 3d
       -0.010269119 -0.2130721 -0.00019785145 0.045211278
000190 be 43 48 be b1 60 d5 bd 7f 94 62 be 1e 4d b8 3c
       -0.19557092 -0.10418833 -0.2212696 0.02249771
0001a0 dd 72 84 be a2 75 ed 3d 41 df 82 3e 21 4a 6e be
       -0.25868884 0.11594702 0.25560954 -0.23270465
0001b0 d8 8e 50 3e 77 31 a0 be 7d 86 1d 3e 57 32 14 be
       0.2036699 -0.3128774 0.15383334 -0.14472328
0001c0 79 49 a1 3c 18 92 c3 bd 8f a3 a0 bd 7d 0a 80 3e
       0.019688355 -0.095493495 -0.07843696 0.25008002
0001d0 94 f7 4d bd 35 70 7e 3d c2 8c 8d 3e ab 1f 38 bc
       -0.050284937 0.062118728 0.27646452 -0.011238019
0001e0 dc 55 15 bd 46 7a 94 3c f2 9f aa 3d 6d 20 2c be
       -0.036458835 0.01812471 0.083312884 -0.16809244
0001f0 8e 9a 8c 3d 38 a8 15 be 08 19 82 3e 5d 77 95 be
       0.068654165 -0.14614952 0.25409722 -0.2919263
000200 17 ee 9d bc f5 d1 84 bd 09 b0 1b 3d c0 7e 15 be
       -0.01927857 -0.064853586 0.038009677 -0.14599133
000210 42 16 02 be 94 7b 5a be 0b d9 93 3e 2c 75 72 3e
       -0.12703803 -0.21336204 0.28876528 0.2367751
000220 b1 85 ed 3d 73 6f b0 bd 02 45 8e be 4a 6c ea 3c
       0.11597765 -0.08615007 -0.27787024 0.02861609
000230 00 9c 73 3e 61 dc a2 3e 6e d6 05 3c ec bd 9f 3d
       0.23789978 0.3180876 0.0081688 0.077998966
000240 e6 a1 cb 3c c5 ca 05 be 7b f6 61 bb 5e 3c 7c be
       0.024857473 -0.13065632 -0.003447919 -0.24632403
000250 ba 7f 8c bd 02 69 56 3d 1a 7a 0d 3e 7d 70 ac 3e
       -0.068602994 0.052346237 0.1381611 0.33679572
000260 08 ff 6d 3d e9 18 be bc 4f dd 75 bc 5f e3 89 be
       0.058104545 -0.023205237 -0.015006377 -0.26931283
000270 d3 28 54 3e 22 f2 46 be f9 3b 0e be d3 72 89 bd
       0.20718698 -0.19428304 -0.13890065 -0.06711354
000280 e7 5c b8 3d 09 14 4b 3d 14 b8 db bd 9a c5 b7 bd
       0.09002095 0.049579654 -0.107284695 -0.089732364
000290 12 e4 11 be 9b 36 d2 3d 40 3f 5f be 0d 4c 34 be
       -0.14247158 0.102643214 -0.21801472 -0.17607136
0002a0 84 23 22 be cc 65 50 3e f6 c9 a7 bd 49 aa 4e be
       -0.1583386 0.20351332 -0.08192818 -0.20182146
0002b0 53 a7 d8 3d fb 03 24 bd 38 05 07 3e 6d 78 77 bc
       0.105787896 -0.04004286 0.13185585 -0.015104395
0002c0 59 b8 b3 3d 9d ba 82 3e 67 d7 87 3e 07 1d 9d bd
       0.08775396 0.25533 0.26531526 -0.07671552
0002d0 f5 34 33 3d 0e e4 85 3e 02 10 77 bd cc 09 36 3d
       0.043751676 0.26150554 -0.060318 0.044442937
0002e0 1b 8a a1 3d f9 38 cb 3d ed aa b0 3c 8a 31 99 3d
       0.0788767 0.09922976 0.021565879 0.07480152
0002f0 0a 9b e0 bc 11 74 d2 bc 6c 2b 95 3d f0 4a 9b bd
       -0.027417678 -0.02569011 0.07283673 -0.075826526
000300 04 be 04 3e 2d 8b b3 be e8 1b 6c be f2 7f 60 3d
       0.1296311 -0.3506712 -0.2305752 0.05480952
000310 2e 44 01 be 33 7a e1 3c de 7d 33 bd 9f f8 b3 bc
       -0.12623665 0.02752409 -0.04382121 -0.021969138
000320 c7 88 a8 bd d7 4a 00 be 9b 2e 67 be 0d c3 5e 3d
       -0.08229213 -0.12528549 -0.22576372 0.054385234
000330 a4 af 8d bb 4a f9 93 be 5e 6b ea bc c2 44 0c be
       -0.0043239165 -0.2890113 -0.02861565 -0.13698104
000340 94 0d bc bd cc ea a6 3c e9 29 2b 3d 8b 36 00 3f
       -0.09182277 0.020375632 0.041788016 0.50083226
000350 63 70 76 bd 8c 68 ce 3c c1 e5 22 3e c4 4f 31 3e
       -0.060165774 0.025196336 0.15907957 0.17315584
000360 55 d6 a8 3c e3 02 a8 3d 2b d3 6f 3d bc 55 8c be
       0.020610014 0.082036756 0.058550995 -0.2740916
000370 12 16 c8 3d 93 88 ee be 02 9b f0 3e 5e c8 bf bc
       0.097698346 -0.46588573 0.46993262 -0.023410972
000380 48 bf 2b 3e 37 73 86 3d 62 37 60 be 3d 26 46 bd
       0.16772187 0.06564944 -0.21896127 -0.04837631
000390 d9 49 d1 be f6 e4 97 bd eb 26 ce 3d 15 e1 79 3c
       -0.40876654 -0.07416718 0.10066017 0.015251418
0003a0 39 18 88 bc da a5 96 3d 0f 5a 0e 3e e2 0d 9d bc
       -0.016613113 0.073558524 0.13901542 -0.019171659
0003b0 61 6e e1 3d 4b 16 2d be b6 31 48 be 74 9a 95 bd
       0.11007381 -0.16903035 -0.19550213 -0.0730485
0003c0 15 da 4f 3e 18 33 ea 3d 4c e2 9a bd 42 0a 64 bd
       0.20298035 0.114355266 -0.07562694 -0.055673845
0003d0 44 a3 e4 3d b0 66 a1 bb ec 3b 1d 3e 6a 0b 32 3d
       0.11163953 -0.0049255714 0.1535489 0.043467917
0003e0 b9 86 74 3e e6 ce 7d 3d 69 5f 1f 3e d0 0c a7 be
       0.23879518 0.06196489 0.1556374 -0.32626963
0003f0 5a fd 86 be d7 a2 62 3d 1f 6d cc bc ea 4c af 3d
       -0.26365167 0.055331077 -0.024954377 0.08559592

policy_fc3.bias f4 [57]
000000 62 13 05 3d 83 01 ba bd 9e 29 a6 bd ff be 15 bd
       0.032489188 -0.090823196 -0.081134066 -0.0365591
000010 4d 8d 8f 3c d7 bd 8c bd 49 aa 0f 3d d2 da 33 bd
       0.017523432 -0.068721466 0.035074506 -0.043909855
000020 2e b3 cc 3c a5 31 0c bd 4a 9b 0f bc e3 66 2c bc
       0.024987783 -0.034227032 -0.008765051 -0.010522577
000030 03 4e 40 bb 2e f3 e0 3d 0f 55 53 3d be 59 4e 3c
       -0.0029343374 0.10983883 0.05159479 0.012594638
000040 e2 00 71 bc 90 4a cc bd e3 91 7c bd 6c f1 1c 3d
       -0.014709683 -0.09975159 -0.061662566 0.038316175
000050 b2 9a e2 3c d8 1f 6b 3d 88 08 da bc 63 86 b7 3d
       0.027661655 0.057403415 -0.026615396 0.08961179
000060 57 a5 0a bb 98 3d 85 bd e0 db 5d 3d e2 90 a7 bd
       -0.002115568 -0.06505889 0.054164767 -0.08181931
000070 ca 1c 95 3d 80 94 1d bd 56 f1 98 bd a9 55 98 bd
       0.07280882 -0.0384717 -0.07467906 -0.074382134
000080 36 f4 91 3d 66 e5 81 bb e6 37 fd 3a 9f a5 d6 3c
       0.07126658 -0.003964114 0.0019319027 0.026202021
000090 8e ba f8 3c 13 ba a1 bc 9c 3b a3 3c 27 b0 24 bc
       0.030362394 -0.019742047 0.019925885 -0.010051764
0000a0 bc ec f2 3c 7c 0a 07 3c 73 05 81 bd 0d c0 b2 bc
       0.0296539 0.008242246 -0.062998675 -0.021820093
0000b0 83 7d 22 bd 8e 04 1d bc 2d e4 3d bc e0 14 2e bd
       -0.03967048 -0.009583605 -0.011590046 -0.042500377
0000c0 b6 89 ba 3c d8 e6 00 bd d4 0c 92 3d 63 36 7b bc
       0.022770744 -0.03147015 0.07131353 -0.015332791
0000d0 36 04 cb 3c 77 a6 34 bd 65 b1 7b bd 66 61 96 3d
       0.024782281 -0.044104066 -0.061448473 0.07342796
0000e0 39 0b e8 bd
       -0.113302656

value_fc1.weight f4 [64, 261]
000000 1e 5c 6d 3e a0 ca f1 bd 90 8e b6 bd 1e f5 d1 bd
       0.23179671 -0.11806226 -0.089139104 -0.102518305
000010 1f c9 06 3e 94 ad 00 be 0d 87 3e 3c 1b 25 22 3f
       0.13162659 -0.12566215 0.011628878 0.6333787
000020 26 07 e7 bd 5d 07 1a 3e 9a 63 17 3f 60 87 3b 3b
       -0.1128066 0.15041871 0.59136355 0.0028614625
000030 33 d4 3b 3e 53 bc 1a 3f 77 b1 81 3d 6d f8 95 3d
       0.18342666 0.6044361 0.06332677 0.07322774
000040 87 9e 32 3d 8a 18 29 be b3 3a fa 3d 0e 17 5d bd
       0.043608215 -0.16513267 0.12218227 -0.053977065
000050 7c 30 ba 3c 3a 04 12 3e d9 dc 41 3e 06 56 11 be
       0.022728197 0.14259425 0.18931903 -0.14192972
000060 8a 0b 9d 3d cc a6 72 3d 00 18 89 3d 9a 8e ce bd
       0.076682165 0.0592411 0.06694031 -0.10085793
000070 6f 65 ad bc a9 ad a5 3d 58 a9 38 bc 67 bf 06 3e
       -0.021166531 0.08089764 -0.011270843 0.13158952
000080 de 58 30 3d c5 95 8d 3d d0 e4 5f 3e 2e a3 00 3e
       0.0430535 0.06913332 0.21864629 0.12562248
000090 99 64 02 3e 49 74 1a 3e 9d d7 c6 3d 1e e5 22 be
       0.12733687 0.15083422 0.09709094 -0.15907714
0000a0 d0 0e 35 3e 94 8a e7 3d 23 14 73 be 05 75 d5 bd
       0.17681432 0.113057286 -0.2373815 -0.1042271
0000b0 96 89 07 3d 8d 89 19 bd 8c e0 2b 3c d8 ef 2e be
       0.033090197 -0.037484694 0.010490548 -0.1708368
0000c0 1e 18 d0 bd 69 c9 59 3e a2 49 fd bc 80 f7 0d be
       -0.1016085 0.21268238 -0.0309189 -0.13863945
0000d0 7a ee c6 bd c6 02 5f 3d d3 a5 ea 3d a3 8c 91 3d
       -0.097134545 0.054446004 0.1145741 0.071069025
0000e0 e7 37 10 3d 23 b5 8b 3d 0a b9 7b 3d df 86 f2 bc
       0.035209563 0.068216585 0.061455764 -0.029605327
0000f0 fe 88 9a 3d b6 69 fa bd f4 fe 79 3d bc 65 17 3d
       0.075456604 -0.12227194 0.061034158 0.036962256
000100 e0 6d 05 be 54 59 5e 3e c8 42 19 be c9 a2 c0 bd
       -0.13030195 0.21713763 -0.14966881 -0.09406049
000110 57 b8 16 bf e7 08 0a 3e d8 94 32 be 4b f2 c2 3d
       -0.5887503 0.13479958 -0.17439592 0.0951887
000120 71 fd 42 be 58 f6 10 3e 00 bc 23 be fc 06 01 bd
       -0.19041993 0.14156473 -0.15989685 -0.0315008
000130 1e ed f8 3d 1c 5f ca bd 08 db 49 be ac 06 01 be
       0.121546015 -0.09881422 -0.1971246 -0.12600201
000140 65 e3 06 3c 8c 26 86 be 96 34 77 3e 5b 3e aa 3d
       0.008232926 -0.26201284 0.24141154 0.083126746
000150 51 6f 04 3d db 2c fd bd 32 50 2a 3d 54 8b f0 bd
       0.032332722 -0.12362071 0.041580386 -0.11745325
000160 d1 01 56 3e 4d 19 85 3d b6 0f 2e 3e 81 c4 07 b9
       0.2089913 0.06498966 0.16998181 -0.00012947807
000170 6e f7 11 3e c8 7e 61 3d 3b 20 61 3d da dd 18 3e
       0.14254543 0.05505255 0.054962378 0.1492838
000180 64 73 d1 3d 3a 19 9e 3d f0 4d 08 bd bb 9d 62 be
       0.10227087 0.07719655 -0.033277452 -0.22130482
000190 5b ed 5f be d3 6b 6f bd b6 e0 80 3d c8 6e 3c be
       -0.21867888 -0.05845244 0.0629286 -0.18401635
0001a0 e5 32 b3 bd a0 14 01 3e 1b f2 a0 3e 5c b2 0d be
       -0.08749942 0.12605524 0.31434712 -0.1383757
0001b0 ee 96 bf be 98 1a fc 3c f5 c7 15 be 07 0a 4f bd
       -0.37419838 0.0307744 -0.14627059 -0.050546672
0001c0 34 2e 76 bd 26 b4 84 bd 47 09 99 bc a0 e4 4b be
       -0.060102656 -0.06479673 -0.018681182 -0.19911432
0001d0 49 68 30 be f8 e1 fe bd cf 5b 33 3c 12 f2 81 be
       -0.17227282 -0.12445444 0.010947182 -0.25379997
0001e0 42 84 fc 3d 31 ef ad bd 4f 97 e9 3d 3d a6 74 be
       0.12329914 -0.08492888 0.11405813 -0.2389154
0001f0 1f a0 d3 3d 10 0e 5b bd f9 94 eb bd 07 45 1a 3d
       0.10333275 -0.053480208 -0.11503024 0.037663486
000200 99 43 48 bd 0b 9b c7 3d c7 9f 4b bd 51 93 e0 3d
       -0.04889259 0.09746369 -0.049712922 0.109655984
000210 d2 bc 2c ba d2 ed 80 3d c3 04 39 be e8 bd 91 3c
       -0.0006589416 0.062953606 -0.18068223 0.01779075
000220 f0 c2 d7 3e 55 be a0 bd a1 93 1d bd db 83 6f 3d
       0.42140913 -0.07848803 -0.038470868 0.058475357
000230 45 88 90 3e ee dc fb bd d6 ac a7 bd cd c7 c6 3d
       0.28228965 -0.12297998 -0.08187263 0.09706078
000240 bd 9d b9 bd 77 ad 2c 3d 53 81 24 bd e3 56 03 be
       -0.09063289 0.042157616 -0.040162396 -0.12826113
000250 04 6e 25 3e ee 7b f2 bc a3 52 a8 bd 97 4e 11 3e
       0.16155249 -0.02960011 -0.08218887 0.14190136
000260 90 1e 13 3e 19 ef 8c 3d d7 25 8d 3d 00 e3 2e 3e
       0.14367127 0.06881542 0.06891983 0.17078781
000270 fc 7c 84 bd c5 40 08 3d 1f cb cc bd 12 8c 44 bd
       -0.064691514 0.033264894 -0.0999968 -0.047985144
000280 fa 6f 80 3b f6 94 36 3d d5 08 eb 3d e5 4c 40 3c
       0.0039195986 0.044575654 0.11476294 0.011737083
000290 4a 87 dd bc e3 8e 07 bd a7 f5 2b 3c ef 59 00 3e
       -0.02704205 -0.03309525 0.01049558 0.12534307
0002a0 60 de 87 bd 07 a6 00 3d ee bf 90 3d e3 2d a2 bd
       -0.066342115 0.031408336 0.07067858 -0.079189084
0002b0 e9 fc 38 3d ab d3 28 bd af ce b9 3d 25 de 12 3e
       0.04516307 -0.041217487 0.09072625 0.14342554
0002c0 c3 73 a6 bd 74 18 11 be 07 56 33 3e 5d 50 96 3c
       -0.081275485 -0.14169484 0.17513286 0.018348867
0002d0 ea a4 27 be 10 4d 06 3e 53 1a c9 3d 19 20 04 bd
       -0.16371503 0.13115335 0.09819474 -0.032257173
0002e0 81 6e 51 3e 15 96 77 bc 54 41 21 3d 1c 04 9e 3d
       0.2045231 -0.015111466 0.039368942 0.077156276
0002f0 b4 a4 c3 bd 1a 5f 2d be c7 26 b8 3d 37 00 22 bd
       -0.09552899 -0.1693081 0.08991771 -0.039550986
000300 25 6a c2 3d d2 b9 ee 3d 93 cd 7b bc d7 fb 87 bc
       0.09492902 0.11656536 -0.015368837 -0.016599579
000310 29 ed e3 3d a4 57 a3 3d 5f 4d 53 3c b1 3c 8b 3d
       0.11129219 0.079757005 0.012896865 0.06798685
000320 de 7e cf bd e9 e2 cb bd 26 db bb 3d c5 aa 8f 3e
       -0.1013162 -0.09955389 0.091726586 0.28059974
000330 9a 7b 0a be 80 b7 80 3d f0 d4 c6 3d c5 b1 34 3d
       -0.13523713 0.06285 0.09708583 0.044114847
000340 bf 1c ff bd 0b de 33 3e 9a 62 51 3d f9 94 c7 bc
       -0.12456655 0.17565171 0.051119424 -0.024363028
000350 2a a7 9b 3c c7 b7 a1 bc 28 31 29 bd a3 44 86 3d
       0.019000608 -0.019740952 -0.041306645 0.0655606
000360 43 1a d1 3d 0a 8a e6 3d ad c0 b3 3d 29 2a 86 bd
       0.10210087 0.112567976 0.08776984 -0.0655101
000370 07 a0 ae bc 35 e5 d2 3c 07 4e 4a 3d 0b f8 82 3d
       -0.021316541 0.02574406 0.04939082 0.06394967
000380 db 78 1f 3d ec f1 2f 3c c9 96 bb 3d 59 c4 e8 3c
       0.038933616 0.010738831 0.09159619 0.028413938
000390 07 e4 b1 bd c9 39 25 3e 82 f1 66 3e 96 f8 62 bd
       -0.08686071 0.16135325 0.22553065 -0.05541285
0003a0 16 17 55 3d a1 0d 21 3c 6d d3 b8 3d 6b b7 47 3e
       0.05202397 0.00982991 0.09024701 0.19503562
0003b0 88 13 0b 3e 13 68 c3 bc b8 4b 02 be 3c de 86 3d
       0.1358167 -0.023853337 -0.12724197 0.065853566
0003c0 f8 85 c2 bd 5c 80 b6 3d 78 b3 68 3d b1 c0 b2 bd
       -0.09498209 0.08911201 0.05681178 -0.08728159
0003d0 e9 29 2b ba 8b cd f4 3c 96 a3 ce 3d 02 5c fc bb
       -0.00065293774 0.029883167 0.10089795 -0.007701398
0003e0 7f db 7a bd f9 c0 ea bd b5 0f 1e 3e 63 7d 0a 3e
       -0.061244484 -0.11462588 0.1543568 0.13524394
0003f0 3e 87 b3 bd 2e 85 1d 3e 71 93 d0 3d 03 dd 8f 3d
       -0.0876603 0.15382835 0.10184372 0.070245765

value_fc1.bias f4 [64]
000000 e1 a1 5d bc bb 87 3e 3c 3e 9a 5b 3d dc 99 ac bb
       -0.0135273645 0.01162904 0.053613894 -0.005267365
000010 b1 b3 e3 bc 6d 13 c8 bc 70 63 1f bc 4f 11 c4 ba
       -0.027795644 -0.024423325 -0.009728298 -0.0014958772
000020 dc 07 2f bd 0a ee a2 3c 37 e9 f8 bb 5d eb 12 3c
       -0.042732105 0.019888896 -0.0075961608 0.008967248
000030 18 cc a0 3c 64 95 aa 3c 2c 31 a7 3c 23 a0 ab bc
       0.01962857 0.020823188 0.02040919 -0.020950383
000040 2b fd c8 ba d2 b0 af 3c b1 6f a0 bd 96 4f 90 3c
       -0.0015334239 0.02144662 -0.078338034 0.017616075
000050 9a 7d 53 bc 25 35 bf bc 01 92 7e 3d 37 14 80 3c
       -0.012908364 -0.023340771 0.06215096 0.01563464
000060 83 23 19 3c 08 f8 39 3d ce 07 33 3b 2c b8 1e 3c
       0.009346846 0.045402557 0.0027317884 0.009687465
000070 e5 40 bc bb b8 f7 62 3c 22 48 c0 bb 92 02 9e 39
       -0.0057450407 0.013853006 -0.005867974 0.00030138023
000080 e5 4f 13 bc 64 3c 94 3a cc fe 09 3d c0 dd 3b 3d
       -0.008991216 0.0011309502 0.03369026 0.045865774
000090 03 6f d4 bc f5 3c 8b bd 43 bc 4f 3c 29 18 da 3c
       -0.02593184 -0.06798736 0.012679162 0.026622849
0000a0 77 4f 21 3c 49 8e 48 3d e3 ef dd bc fa 53 53 bd
       0.009845606 0.04896382 -0.027091926 -0.05159376
0000b0 b2 87 f1 3c f6 b2 40 3d 13 99 91 bd b3 74 11 bc
       0.02948365 0.04704567 -0.07109275 -0.008877921
0000c0 7e 40 b2 bb 4e f0 a6 3c b8 fb 8b 3c 3b ea cc 3c
       -0.005439817 0.020378258 0.017087802 0.025014034
0000d0 40 71 ab 3c 78 78 09 3c 80 67 e4 3c 5c c0 12 bd
       0.020928025 0.008390538 0.027881384 -0.03582798
0000e0 48 8a 01 bd d6 cc 3c 3d 0a d1 97 bc 3d 08 cb 3c
       -0.031626016 0.046093784 -0.018532295 0.024784202
0000f0 7b 9d 86 3c f9 77 1b bd d2 3f 16 3c 03 65 1b bd
       0.016432514 -0.03795621 0.009170489 -0.03793813

value_fc2.weight f4 [32, 64]
000000 55 a0 32 be 65 20 bf 3d 48 31 a2 bd 12 b7 e2 bc
       -0.17443974 0.09332351 -0.07919556 -0.027675185
000010 5a 5d e0 bd 93 0b 1e 3e b9 a2 52 bd cc b8 d7 bd
       -0.109553054 0.15434103 -0.051424716 -0.10533294
000020 fd 1a 91 bd 77 22 4b 3d 37 2b 4d bd 90 12 d2 bd
       -0.07085226 0.049593415 -0.05009004 -0.10257447
000030 37 ab d1 3d ac 4a 09 3d b1 e6 fa bd c1 99 9b bd
       0.10237735 0.03351848 -0.12251032 -0.075976856
000040 bc fa 0b 3e ad e0 35 be 09 2a 22 3e 07 2e da 3d
       0.13669866 -0.17761488 0.15836348 0.1065331
000050 1c f3 14 be b4 ab ca bd 28 1e 17 bd a3 77 12 3d
       -0.14545864 -0.09896031 -0.036893994 0.035758626
000060 9c 36 b7 3d 9e 21 e0 3d 90 a2 a3 bc b1 8e 1a 3e
       0.08945963 0.10943912 -0.019974977 0.15093495
000070 5c d7 32 3e a2 b5 bf 3d 74 8d 03 be 27 4e f3 bc
       0.17464966 0.093608156 -0.12846929 -0.029700352
000080 8a da f1 bd 2f 80 88 3d e1 37 11 3e 5d 64 87 3e
       -0.11809261 0.06665074 0.14181472 0.2644376
000090 08 f9 43 be f3 50 17 3c 51 af 9e 3d e5 24 41 3c
       -0.19137967 0.009235608 0.07748283 0.0117885815
0000a0 10 3b ed 3d f4 51 84 3e d2 db 99 bd e4 6a dd 3d
       0.11583531 0.25843775 -0.075126305 0.108114034
0000b0 72 af 4c 3e 77 dd aa bd 59 31 7d bb 90 bc 52 be
       0.19988802 -0.08343022 -0.003863415 -0.20579743
0000c0 d6 9e 85 bd 36 b2 c6 bd 57 a3 59 bd c8 48 ed bd
       -0.06524436 -0.0970196 -0.05313429 -0.115861475
0000d0 70 e6 fe 3d af 1b df 3b c5 a4 16 be bc e9 b7 bb
       0.12446296 0.00680872 -0.14711292 -0.00561258
0000e0 09 ee 8c 3d f3 20 5b be 41 1a 5b be c0 fc 7b 3e
       0.06881339 -0.21399288 -0.21396734 0.24608135
0000f0 0f 8f e3 3d 5d 08 39 be f0 ca 55 be 67 a8 fe 3c
       0.11111271 -0.18069597 -0.20878196 0.03108616
000100 23 d1 00 be 02 4b d4 be 0d 4a 0e bf 95 b7 3f 3e
       -0.1257978 -0.41463476 -0.5558174 0.18722375
000110 91 c3 ba 3e f2 2c 68 bf 4d b6 dd be 5e 75 e7 be
       0.3647733 -0.9069358 -0.43303147 -0.45206732
000120 93 7e 2a 3e a6 5b 33 3e 23 b6 a1 be af f4 05 bf
       0.16649847 0.1751543 -0.31584272 -0.5232648
000130 17 3f d3 be 34 c0 9f bc ef 0d f1 be dd f1 02 be
       -0.4125907 -0.01950083 -0.47080943 -0.12787576
000140 c3 08 be be 46 07 3f be 57 69 2c be 17 df 20 bf
       -0.3711606 -0.18655118 -0.16837059 -0.6284041
000150 d9 72 63 be f8 0a 23 bd 14 24 dd be 07 b3 5e bd
       -0.2221178 -0.039805382 -0.43191588 -0.054369953
000160 9b 6c e1 be af e4 52 be 8d cf 23 be 53 e8 47 3e
       -0.44028172 -0.20595048 -0.15997143 0.19522218
000170 27 17 12 be 71 18 06 bf 07 47 62 be ea 8f 0f be
       -0.14266644 -0.52381045 -0.22097407 -0.14019743
000180 f1 72 34 3e 2e a4 d5 3d bf a0 6c be 8a 1a 41 be
       0.17621972 0.104317054 -0.23108195 -0.1885778
000190 b6 fa a3 3e b0 8b a0 bd 0a 79 25 3e 4d 51 9b 3e
       0.32027215 -0.07839143 0.16159454 0.30335465
0001a0 20 70 06 be a4 7e db be 08 dc a3 bd 87 d3 0e 3e
       -0.1312871 -0.42870057 -0.08000952 0.13947879
0001b0 47 32 f7 be af 5c 8c be d0 19 b0 3d 1c a4 85 3e
       -0.48280546 -0.27414462 0.08598673 0.26101768
0001c0 e2 55 87 be 7a 66 03 bf 28 71 db be 2a b4 fc 3b
       -0.2643271 -0.5132824 -0.4285977 0.007711907
0001d0 b3 2c 63 be b3 ca 60 be 1a 88 e3 3d 5b ce 69 3d
       -0.2218502 -0.21952324 0.11109944 0.05708156
0001e0 7c 85 8a 3b 6d f6 87 3d 9d a6 55 3e 82 c5 b5 be
       0.0042273384 0.06638799 0.20864339 -0.3550225
0001f0 75 51 30 bd 5d 91 66 bd 95 4a 9c 3e d3 52 41 be
       -0.043046433 -0.056290973 0.30525652 -0.18879251
000200 07 29 5f 3e 9b cf 04 3e 16 39 2b bd 7f 25 4f 3e
       0.21792994 0.1296982 -0.04180249 0.20229147
000210 d3 b4 f1 3c 01 be 20 3d 0b dc 90 be 4c e1 8e bd
       0.029505169 0.0392437 -0.2829288 -0.06976566
000220 44 e3 88 3d 1f bc 1b be f0 9e 3c be 4a 01 67 3d
       0.066839725 -0.15208481 -0.18420005 0.056397714
000230 82 78 5a be 6f df 82 bc 07 62 58 be 5c 28 e4 3d
       -0.21335033 -0.015975682 -0.21131144 0.111405104
000240 ad 6c 6c be 7d 97 ca 3d 81 3a 8d bc e2 b2 18 3b
       -0.23088332 0.09892175 -0.01723981 0.0023299982
000250 99 38 72 bc 1e ee 70 be ae cc a1 3d 21 86 31 bd
       -0.014784002 -0.23528334 0.07900368 -0.043340806
000260 97 2d 22 be fc b1 54 3d c7 88 a4 3d 5d 32 e2 bc
       -0.15837704 0.05192755 0.08033901 -0.027611906
000270 39 b5 90 bd ab c9 81 be 2f 7a a2 3d ab 18 7b be
       -0.070658155 -0.25349173 0.07933461 -0.24521129
000280 2f 3a 8f be a6 a2 82 3d 71 d3 2e be f8 6b c6 bd
       -0.27974078 0.06378679 -0.17072846 -0.09688562
000290 d8 18 31 be bc 94 60 be a1 be 37 be e3 3c 65 3e
       -0.17294633 -0.21931738 -0.17943813 0.22386508
0002a0 01 15 18 3e ba e0 8c 3d 89 17 87 be b2 23 f7 3d
       0.14851762 0.06878801 -0.26385143 0.12067355
0002b0 76 70 95 bc d5 63 2c 3e 93 e1 80 3e d1 49 16 3e
       -0.018242102 0.16834958 0.251721 0.14676596
0002c0 69 d9 7a 3e cd 2f e9 bd a3 d0 36 bd d2 31 22 3e
       0.24496998 -0.113860704 -0.044632565 0.15839317
0002d0 f7 bb 40 bd 3f fa 2b be d9 f6 1c 3d ab 14 6a be
       -0.047054257 -0.1679468 0.03832135 -0.22859447
0002e0 20 bb 22 3e 07 af 04 3e 9f 90 d4 bd dd 4f 76 3d
       0.15891695 0.12957393 -0.10379147 0.060134757
0002f0 16 54 e2 bd a4 e5 19 be 66 3c 98 be 41 c4 65 be
       -0.11051194 -0.15029007 -0.2973358 -0.22438146
000300 83 19 81 3d b3 b9 80 be bd a4 1c be 94 7f 27 bd
       0.06303694 -0.25141677 -0.15297218 -0.040893152
000310 92 0d cb bd d3 c0 f3 bc 89 9c 4e bd fb 9e 47 be
       -0.09914698 -0.029755032 -0.050442252 -0.1949424
000320 16 cf 8b bd d8 06 47 3e 66 89 77 bd 0b 2b 3b 3e
       -0.06826608 0.19436204 -0.060433768 0.18278138
000330 4b d6 83 3e 24 df 0c 3e 85 af e3 bd 8d 2d 1e be
       0.2574943 0.13756996 -0.11117462 -0.15447064
000340 20 f9 06 be ad 06 49 be 24 33 1f be dc ac 20 3d
       -0.13180971 -0.19631453 -0.15546852 0.03922735
000350 f8 fe 5d bd 4f 13 14 be 3d df 19 bd 73 92 93 3d
       -0.054198235 -0.1446049 -0.037566412 0.07205667
000360 82 e6 01 3e 51 03 4d 3e d5 bf ee 3d 88 34 a3 bd
       0.12685588 0.20020796 0.11657683 -0.07969004
000370 b3 e8 48 be 8e f6 09 3e 6e b0 ee bd 2f 76 70 bd
       -0.19620018 0.1347296 -0.11654745 -0.05870646
000380 49 f2 a1 be 64 38 84 be 15 2f 6d 3d 89 6b 8f bd
       -0.3163016 -0.25824273 0.05790623 -0.070029326
000390 31 98 a3 bd 5b c4 17 bd 11 e7 e5 bd 34 00 26 be
       -0.079880126 -0.037052494 -0.11225713 -0.16211015
0003a0 f4 88 12 3e 48 a8 75 be 05 82 6a 3e c5 65 85 be
       0.14310056 -0.23989975 0.22901161 -0.26054206
0003b0 14 67 22 bd 98 9b 19 be 29 bf 86 3d 6c 4e 13 3e
       -0.039649084 -0.1500076 0.0657943 0.14385384
0003c0 21 c6 15 be 42 7b 3f bd 44 67 36 be 52 ee 6e bd
       -0.14626361 -0.046748407 -0.1781283 -0.05833275
0003d0 d6 1d 16 3e 6b 05 1b 3e 41 49 7b be a4 c3 bd b9
       0.14659819 0.15138786 -0.24539663 -0.00036194653
0003e0 08 8b a7 3d 31 71 51 bd 65 da f3 3c c2 8a fe 3d
       0.08180815 -0.05113334 0.029767225 0.1242881
0003f0 a2 45 2a 3e d8 5a 5e 3e 4b f2 fe bd 52 31 cc 3d
       0.16628125 0.21714342 -0.124485575 0.099703446

value_fc2.bias f4 [32]
000000 dd 67 ab 3b c8 bd a2 3c c2 65 9d bc 82 b8 a6 bd
       0.0052308873 0.019865885 -0.019213561 -0.08140661
000010 71 0b 27 3d 73 ac d2 3d 20 11 29 3d f7 e1 24 3d
       0.040782396 0.10286798 0.041276097 0.04025456
000020 c4 98 09 3d b5 d6 ca bd 20 fe 61 3c 60 e5 95 3d
       0.033592954 -0.09904233 0.013793498 0.073191404
000030 6a 19 42 3b ed d3 62 3d 29 ab 0b 3e 5d b5 e1 3b
       0.0029617199 0.05537789 0.13639511 0.0068880753
000040 fd 4d 60 3d 4a db fb 3c 2f 69 d3 bd 22 af 1c bc
       0.054761875 0.030744214 -0.103227966 -0.009563239
000050 15 3c 03 3d 13 30 60 3d 6e 5c 20 bd e7 3c 28 3e
       0.03203972 0.054733347 -0.039150648 0.16429482
000060 b5 88 b1 bd 50 47 f7 b9 d1 9e 4a 3c 7a 56 1d 3d
       -0.08668653 -0.00047164643 0.012366966 0.03841255
000070 58 2d 40 bc 8f b3 27 be 45 ca a4 bd 11 2d ae 3d
       -0.011729561 -0.1637709 -0.08046392 0.085046895

value_fc3.weight f4 [1, 32]
000000 4d 90 e3 3d 16 f7 54 3f ca 8c 64 bd b2 77 93 3d
       0.111115076 0.83189523 -0.05579833 0.072005644
000010 24 ee 53 3f 43 f4 0b 3d 3a 50 93 3f 0d 2c 3f 3d
       0.8278525 0.034168493 1.1508858 0.04667287
000020 1b fe f6 3e 74 0c 3b 3e cc c1 36 be d3 e8 15 3f
       0.48240742 0.18266469 -0.17847365 0.58558387
000030 f8 6c 7e be f7 d0 8d 3e 58 5a 06 be 76 a3 64 3f
       -0.24846256 0.2769849 -0.13120401 0.8931192
000040 b4 5c b0 bc 27 ec d7 bd 1c a8 d8 3d ca ee 05 bc
       -0.02152858 -0.10543089 0.10578939 -0.0081746075
000050 f9 c0 34 be f6 b4 22 3f 22 02 ec 3c bb 7c b1 bd
       -0.17651738 0.63557374 0.02880961 -0.086663686
000060 7d 62 88 be 1a b1 7b bc 85 20 56 bd 5c 96 39 bd
       -0.2663764 -0.0153620485 -0.052277107 -0.04530941
000070 6a df 81 3f c2 5e e4 3d b4 19 0f 3e fd 49 06 3d
       1.0146306 0.11150886 0.13974649 0.032785404
