rl/spin_model_11301424/64.pt (torch_old, 160417 bytes, 12 tensors)

log_std f4 [57]
000000 c9 cd af 3d d4 1b 9b 3d 67 83 71 3e a8 af b3 3d
       0.08584172 0.07573667 0.23585282 0.08773738
000010 4b e9 ca 3d 71 6f d5 3d a9 9a 36 be d0 aa b5 3d
       0.09907778 0.104216464 -0.17832436 0.088704705
000020 76 12 87 be 5b dd a2 3d 7b 7d bb 3d 2d ef b2 bd
       -0.26381272 0.079523765 0.09154793 -0.087370254
000030 2c f0 dd bc a9 ac e5 3d 2b 78 8e 3d cd 1e 8a 3d
       -0.027092062 0.11214573 0.06956514 0.06744156
000040 da 1a 4d bd 76 69 24 3e 4b 86 8d 3d e7 18 76 3e
       -0.050074436 0.16055855 0.0691038 0.24032937
000050 93 92 97 bc 80 8c 8f 3c 43 b4 e6 3d 2b 35 d9 3d
       -0.01850251 0.01752305 0.11264851 0.10605844
000060 b5 73 25 3a 93 f8 b4 3d b6 3d 09 3d 0a 75 47 bc
       0.0006311492 0.08836474 0.033506118 -0.0121739
000070 44 46 f4 3c 24 f4 44 3e 72 a2 1d 3e 33 6a 28 3e
       0.029818662 0.19233757 0.15393999 0.16446762
000080 0e 27 1f 3e b0 d2 d4 3d 2c d8 d2 3c d7 1f ad 3d
       0.15542242 0.10391748 0.025737844 0.084533386
000090 a3 e5 98 bc df 42 68 3d d9 30 b8 bc 75 18 ac 3b
       -0.018664187 0.0567044 -0.02248423 0.005251939
0000a0 5e 6b 55 3d 21 27 05 3e 73 08 b9 bc 0d f8 05 3e
       0.052104346 0.13003208 -0.022587037 0.13082905
0000b0 ee 0d 0d 3e fe 03 84 3e 36 45 39 3e 1a a8 f9 3d
       0.13774845 0.25784296 0.18092808 0.12190266
0000c0 37 05 c9 3d 54 ec 74 bd c5 16 7f 3d c7 4f 1f 3d
       0.09815448 -0.059795693 0.062277574 0.03889444
0000d0 66 e7 07 3e 62 62 dc 3d 47 79 10 3e df f7 30 3e
       0.13271865 0.107609525 0.14108764 0.17282055
0000e0 ca 08 22 bd
       -0.039559163

policy_fc1.weight f4 [64, 261]
000000 98 2d b0 3d 90 5e 1f bc 0e e9 cb 3d f0 f3 97 bc
       0.08602446 -0.009727135 0.09956561 -0.018548936
000010 39 5f d3 3d d1 c0 2b 3d cf de 20 3e 53 80 6c 3d
       0.10320897 0.04193193 0.15709995 0.057739567
000020 8e fe 5a 3d 3f d3 62 bd 62 d2 91 3c b0 6c fb 3d
       0.05346542 -0.05537724 0.017800514 0.1227659
000030 3f 2b de 3d 02 9b 2b 3d ec 42 74 3d c1 a8 14 3c
       0.10848092 0.041895874 0.059634134 0.009073437
000040 1d 3b 5b bd de bd 21 bc f3 e0 80 bd 5b 0b 21 3d
       -0.05352317 -0.009871928 -0.06292906 0.03931747
000050 0b 65 02 3e 2e 58 be 3d f9 3b 8f 3d 2a 06 8f 3d
       0.12733857 0.09294163 0.06993861 0.069835976
000060 ce e9 22 be 2f 53 1e be c4 a8 d8 3d 80 28 21 bb
       -0.15909502 -0.1546142 0.105790645 -0.002459079
000070 26 77 45 bd 0c 5c 9e 3b 4c 9c ca 3d 55 3c 37 3d
       -0.048209332 0.00483275 0.098930925 0.04473527
000080 8e 94 5f 3d d0 61 14 3e 48 08 3e bd 2c 06 ba 3d
       0.054585032 0.14490438 -0.046394616 0.090832084
000090 1a d8 2d 3e d6 f1 80 bd 7f a7 16 3c fe 20 1c 3d
       0.16976967 -0.062961265 0.009195208 0.0381174
0000a0 a4 5c 3f 3e 2e 5e af 3d bf 3f 96 3b 5b 61 c8 3c
       0.18687683 0.08562885 0.004585236 0.024460485
0000b0 9a d9 f2 bd 16 db 2f 3d 95 ff 2d 3d fb 33 2c 3d
       -0.118579105 0.042933546 0.04248007 0.04204176
0000c0 22 a9 6c 3d 8d ed 9f 3d a6 41 c1 bc 10 ac 0c bd
       0.057778485 0.07808981 -0.023590874 -0.03434378
0000d0 02 02 cc bd b4 ee 92 bc 5f 0f a6 bd ef 9b 14 be
       -0.099613205 -0.017936088 -0.081084006 -0.14512609
0000e0 eb eb 9c 3b 89 f9 1b be a1 35 56 3d 77 31 99 bd
       0.004788866 -0.15231909 0.05229724 -0.07480138
0000f0 6c fa c5 3d b4 24 00 be 30 d7 38 3c 39 9f 04 3e
       0.09666905 -0.12514001 0.011281773 0.12951364
000100 8a 71 64 bd 72 fc 21 be f6 c9 f0 bb 46 dc b1 bd
       -0.05577234 -0.15818956 -0.0073482944 -0.08684592
000110 88 af 84 bd 5a 70 6d be ed 1a 17 be c2 49 f8 bc
       -0.064787924 -0.2318739 -0.14756365 -0.030308608
000120 25 d2 5b 3c 7f 7a c0 bc 80 b5 e6 bc b2 2f 63 bd
       0.013416802 -0.02349591 -0.028162718 -0.055465408
000130 1d 24 9a 3d e0 85 bc bb 23 70 06 be 51 12 d4 bd
       0.07526419 -0.005753264 -0.13128714 -0.10355056
000140 ae 10 5f bd 39 63 15 bd 98 76 cf 3d 57 4a 83 3c
       -0.054459266 -0.03647158 0.10130042 0.016026659
000150 9a c6 21 be 36 3d 8f 3c e9 4f 32 3e 44 68 55 3d
       -0.15798417 0.017485242 0.17413296 0.05210139
000160 2b f5 20 3c 63 90 78 3c 9c ab 8d bc 8d e3 fe 3d
       0.009824078 0.015171143 -0.017293744 0.124457456
000170 48 6e 1c 3e c5 d7 58 bd 2f 47 6c bc 9d 30 43 bd
       0.15276444 -0.05294015 -0.014421268 -0.047653783
000180 e7 26 19 3e 00 c5 45 bd 64 2c ca bd b7 41 ba bd
       0.14956246 -0.048283577 -0.09871748 -0.09094565
000190 2e 7d 9c 3d 8f 81 07 be 99 19 9a bd 18 4f 66 bd
       0.07641064 -0.13233016 -0.075244136 -0.056227773
0001a0 ec 76 d6 bd 51 0b 87 3d 83 a6 16 be 75 5d fa bd
       -0.10471901 0.06593955 -0.14711957 -0.12224857
0001b0 45 c8 b4 bd c7 37 0a bc 19 40 9c 3d 46 ee 73 38
       -0.08827261 -0.00843615 0.07629413 5.8157624e-05
0001c0 77 49 23 be ec b8 72 3c f5 05 03 be ed 67 ef bd
       -0.15945993 0.014814597 -0.12795241 -0.11689744
0001d0 f4 04 c5 3c 0f 8e a3 3d 21 bd 48 3d c3 6e 94 3d
       0.024050213 0.0798608 0.049008492 0.072476886
0001e0 22 ea 89 3d 2b 89 f6 3b 5e 25 9b 3d b7 58 49 bd
       0.067341104 0.007523676 0.075754866 -0.04915687
0001f0 6f c9 6c bd c6 08 dc 3c bf b0 5d 3d d5 13 fe 3c
       -0.05780929 0.026859652 0.054123636 0.031015316
000200 56 50 74 3d 76 75 64 bd 17 22 7a bc a1 2c 55 3d
       0.059646927 -0.055776082 -0.015266917 0.052044515
000210 70 fc 18 be d4 cd 3e 3d dd 4c 73 3d f6 ee cc 3d
       -0.14940047 0.04658301 0.059399474 0.10006516
000220 91 a4 5e bd 89 d9 b8 3d 4d 46 b4 3d 4c a0 d6 3d
       -0.05435616 0.090258665 0.08802471 0.10479793
000230 5c 63 dd 3d 82 82 f0 3d 80 21 5a bc d4 15 89 bd
       0.10809967 0.117436424 -0.013313651 -0.066936165
000240 34 e5 10 3e 0d 66 e0 bd 38 38 cb bb df 34 a1 bc
       0.14149934 -0.10956965 -0.00620177 -0.019678531
000250 6a 98 65 3d 72 5a be bd d4 79 81 bd cc 6a bf 3c
       0.056053557 -0.09294595 -0.06322065 0.023366354
000260 2c cb f7 bd 13 c8 45 ba ac 7e 89 bd 74 94 39 3d
       -0.12099299 -0.0007544767 -0.06713614 0.04530759
000270 d9 3b 23 3e 75 31 1e be 52 45 b8 3c c6 b3 8c 3d
       0.15940799 -0.15448554 0.022493992 0.068702266
000280 f9 16 f2 bd 63 75 9d bd 30 05 3c 3e 14 75 dd bd
       -0.11820788 -0.07688405 0.18361354 -0.108133465
000290 8e c3 b2 bc 6d bc 9d 3d 18 d8 a4 bd 37 56 f4 bd
       -0.021821763 0.07701955 -0.08049029 -0.11930507
0002a0 31 e5 0f 3e 7e 8f 9a bd 34 31 06 be a4 47 bf 3d
       0.14052273 -0.075469 -0.13104707 0.09339836
0002b0 5b 39 17 bd 71 84 cf 3c 4d 22 c2 3d eb a6 50 3d
       -0.036919933 0.025331708 0.094791986 0.050940435
0002c0 b4 f2 d6 3d 09 04 29 3d 89 3c 22 be b2 92 26 3c
       0.10495511 0.041263614 -0.15843405 0.010166811
0002d0 75 e6 8c 3d 05 67 a9 3d d6 26 99 3d e8 23 36 3e
       0.06879894 0.082716025 0.074781105 0.17787135
0002e0 fa 0c 99 bd 31 e2 11 be 68 69 8d 3e 9d 71 2a bd
       -0.07473178 -0.14246441 0.2761948 -0.041612256
0002f0 04 17 63 bd 3b 14 68 3d 19 42 11 3d ab ca ee 3d
       -0.05544187 0.05665992 0.035463426 0.116597496
000300 2d f3 72 bd 6c bb 3c 3d 80 06 82 bd 65 54 bc bd
       -0.05931394 0.046077177 -0.06348896 -0.091957845
000310 85 29 98 3d 84 ea 43 bb 9e b8 cd bd 28 e8 26 bd
       0.07429794 -0.002989442 -0.100449786 -0.040748745
000320 d5 38 83 3d 63 04 b2 3d da 4e 63 bd 42 4f e8 bc
       0.06407324 0.08692243 -0.05549512 -0.028358106
000330 6c 34 e8 3d ac 4b e7 bd 81 c3 61 be 8e 9e 05 3e
       0.11338124 -0.1129373 -0.22047235 0.13048765
000340 1e c7 1b be 4b e7 37 3c 4c 56 c5 3c 6e c7 31 be
       -0.15212676 0.011224578 0.024089001 -0.17361233
000350 43 02 30 3d 00 99 fa 3d 16 69 59 bd 6f ba 7b 3d
       0.042970907 0.12236214 -0.053078733 0.061457094
000360 10 49 17 3c 5a f2 71 bd a7 76 25 be cb 2e c5 bd
       0.009233728 -0.059069015 -0.16158544 -0.09628066
000370 8b d3 dd 3d 95 11 94 3d 44 03 6d 3d 6b f5 13 bd
       0.10831364 0.07229916 0.057864442 -0.03612272
000380 98 d4 e8 bd bb 8e d4 bb 45 58 17 3e 41 0b 42 be
       -0.11368674 -0.0064867414 0.14779766 -0.18949606
000390 03 6f bb 3d b9 59 ea bd b6 7e 44 3d 4e 88 e3 3d
       0.09152033 -0.114428945 0.047972403 0.111099824
0003a0 66 b5 8c bd e1 7f b5 bc a9 75 b2 3d f8 27 f4 bd
       -0.068705365 -0.022155704 0.08713848 -0.11921686
0003b0 50 44 b1 bd 56 eb b5 3d 33 58 2a be af a4 8a bd
       -0.08655608 0.088827774 -0.16635208 -0.06769692
0003c0 b9 1c fe 3c d6 62 60 bd 5c 7a d0 3c 2b ec 1e 3e
       0.031019555 -0.054781757 0.02544897 0.15519778
0003d0 37 a7 60 3c b6 60 b3 3d 84 dd 39 3e ce 36 9e bc
       0.013711742 0.087586805 0.18150908 -0.019313242
0003e0 b9 49 6b 3d ee 14 02 3d 0c b1 0e be c7 af 06 be
       0.057443354 0.03175824 -0.13934726 -0.13152991
0003f0 d6 f9 1b 3d 6a da 63 3d bd 4b aa bd 9d ac 4c bd
       0.03808006 0.055628218 -0.08315227 -0.049969304

policy_fc1.bias f4 [64]
000000 e3 d9 02 bd c4 3b c2 3b e9 ac 74 bc 96 43 e7 bc
       -0.031946074 0.005927535 -0.014933803 -0.02823047
000010 62 f6 30 bc fc fb 86 3c e5 64 8b bc 3d 1e 95 bb
       -0.01080093 0.016477577 -0.017015884 -0.004550724
000020 79 6c 19 bc 04 e9 f5 39 18 49 44 bc 2e 3f 9e bc
       -0.009364241 0.00046903652 -0.0119803175 -0.019317236
000030 65 57 52 bc 25 a9 1c bd d3 ce a0 bb 95 89 52 bc
       -0.012838219 -0.038247246 -0.004907468 -0.012850185
000040 b4 db 21 bc ff f1 bf bb 65 74 06 bb 55 0a 6a bd
       -0.009879041 -0.0058577056 -0.0020516154 -0.05713876
000050 09 bc ec 3b 00 af 58 bc e2 04 0b bd 35 b9 7b bb
       0.007224564 -0.013225317 -0.033940203 -0.0038409953
000060 24 86 8c 3b 7c fe af ba 89 70 ab bc f3 e8 b0 bd
       0.0042884517 -0.0013427283 -0.020927684 -0.086381815
000070 39 a6 e1 ba fb 1e 0e 3c f8 98 e5 bc 04 35 e1 bb
       -0.0017215676 0.0086743785 -0.028027043 -0.006872775
000080 91 d1 de 3b 4b 46 f8 bb a1 f5 d6 39 96 ea df bb
       0.0067998846 -0.007576739 0.00041000269 -0.0068333847
000090 24 db 32 be 0a 86 73 3c 3f dd 2e bc b1 fe 90 bd
       -0.17466408 0.0148635 -0.010672866 -0.070798285
0000a0 80 23 ff bd fa 9b 21 bd 13 30 50 bc 24 a4 2a bd
       -0.12457943 -0.03945539 -0.012706774 -0.041660443
0000b0 04 cb 52 3a c6 c3 66 bc 15 fa 9f bc 07 69 76 bd
       0.0008041116 -0.014084762 -0.019528428 -0.060158756
0000c0 4d 7a 10 bd d9 9e 34 bc be e6 77 bc b2 98 74 bd
       -0.035272885 -0.0110242 -0.015130697 -0.059715934
0000d0 81 9d f3 bb 3d dc cb bc 47 07 a7 bc 53 5c d1 bc
       -0.0074345474 -0.024885291 -0.020389212 -0.025556719
0000e0 9a eb 5b 3c d4 b2 25 bd 32 3a a2 bd 08 31 ec bc
       0.013422871 -0.040453747 -0.07921256 -0.028831974
0000f0 12 b3 d6 bc bd f7 be bc 66 bc 4a ba 38 be a2 bc
       -0.026208434 -0.02331149 -0.0007733762 -0.019866094

policy_fc2.weight f4 [32, 64]
000000 e2 75 3c be f8 66 18 3e 3f c8 9d be d1 40 89 3e
       -0.18404344 0.1488303 -0.30816838 0.26807263
000010 48 98 d0 bd e0 54 21 be 53 41 bf 3d 2f c9 76 3e
       -0.10185295 -0.15755033 0.093386315 0.24100183
000020 69 2c 00 3e 2d 06 55 be af 0f a9 bd ff 69 28 3b
       0.12516941 -0.20803137 -0.082549445 0.0025697944
000030 2f 44 0a be ec 5d 1b bd e0 5e 98 3e cc 7e 4e 3e
       -0.13502572 -0.037931368 0.29759884 0.20165557
000040 c0 e7 19 3e 43 df 51 bd a4 c8 14 3e 5e 5d 1a 3e
       0.15029812 -0.05123831 0.14529663 0.1507468
000050 0c 18 10 3d c8 53 b7 bd 78 d4 0c 3e 02 bf 74 bd
       0.035179183 -0.08951527 0.13752925 -0.05975247
000060 c1 53 39 bc 9a ac 1a be ea c3 f3 bc 28 a0 00 3e
       -0.011311472 -0.15104905 -0.029756505 0.12561095
000070 0c 00 e9 3d cf 97 7f be 26 ee d1 3a e6 4a ce bb
       0.11376962 -0.24960254 0.0016016408 -0.0062955497
000080 46 99 37 3d 4e db f4 bd 1b c5 5e bd 3f 79 86 3d
       0.044823907 -0.119558915 -0.054387193 0.065660946
000090 fd 66 1e 3e 19 13 ff bc 94 5c 43 be 03 1c 0a 3e
       0.15468974 -0.031137036 -0.19078285 0.13487248
0000a0 4e 04 f8 b9 ce 5e 13 3e 9f 65 30 3e c8 f8 fd 3d
       -0.00047305453 0.14391634 0.17226265 0.12400967
0000b0 2e fd 33 bd 2b ef 5f 3e a3 a7 07 bd 6e d9 14 3c
       -0.043942623 0.21868579 -0.033118855 0.009085042
0000c0 86 0e 95 3e 5a 8d a7 3d ae 50 44 3e 1e e8 82 bc
       0.29112643 0.081812575 0.19171402 -0.015979823
0000d0 ea ed c7 3c 5d b1 97 bc 02 1c 39 be 22 80 0f bd
       0.024405438 -0.01851719 -0.1807709 -0.035034306
0000e0 aa 48 4e be c0 d3 ba 3b 30 47 d5 3d 8f 97 7c be
       -0.20144907 0.005701512 0.104139686 -0.2466719
0000f0 18 50 d7 3d 28 0f 0b 3d 3c 48 88 be f7 2a 3f 3e
       0.105133235 0.03395 -0.2661761 0.18668734
000100 7f d5 25 3e 3e b9 56 be 8f 6d 30 be 2f 4b 0d be
       0.16194724 -0.20969102 -0.17229293 -0.13798212
000110 86 f9 b7 3d 6a dd 0c be b6 bd 08 3e db da 99 3d
       0.0898314 -0.13756338 0.13353619 0.075124465
000120 40 03 26 bc a5 6a 08 3d e7 19 16 3e 7b 1d e3 3b
       -0.010132611 0.03330483 0.14658318 0.0069310046
000130 39 9b b0 be 3d af ae 3d ca 83 93 bd b7 57 1b be
       -0.34493425 0.08529518 -0.07202871 -0.1517018
000140 6d 4d ad 3d 56 41 13 be ea 1f f7 bd 9e b4 f4 3c
       0.084620334 -0.14380392 -0.12066634 0.029871281
000150 4a d1 1d be b9 ce 90 be d7 75 7e be e6 44 46 3d
       -0.15411869 -0.28282717 -0.2484964 0.04840555
000160 96 ee 27 3e b9 14 63 be 1d c2 fa bd 22 15 b9 3c
       0.16399607 -0.22175874 -0.122440554 0.022593085
000170 91 51 d3 3c 2d c2 01 be e6 3f 7d bd c2 5d 93 bd
       0.02579573 -0.12671728 -0.061828516 -0.07195617
000180 f8 a6 4f 3e 39 90 1d 3d bd f5 3f 3e 1f 57 2f 3e
       0.20278537 0.03846762 0.18746085 0.17123078
000190 67 cf e2 3d 95 bb b1 bd 78 8a d7 3d 72 c2 29 be
       0.11074715 -0.086783566 0.10524458 -0.16578081
0001a0 b6 49 5a 3d 03 45 7d 3d ea 8a d7 bd aa 51 48 be
       0.053292952 0.061833393 -0.10524543 -0.19562402
0001b0 33 0a c2 3d 5c b9 1a be b7 23 d1 3d 61 d1 85 be
       0.094746016 -0.15109771 0.1021189 -0.26136306
0001c0 b7 27 21 3e 73 3b bf be 8c 05 0e 3e 3f 09 8c bc
       0.15737806 -0.37350044 0.13869303 -0.017094253
0001d0 29 70 8c 3e 80 64 c9 35 c0 bd 85 3e 3d d6 2a be
       0.2742932 1.5004916e-06 0.2612133 -0.16683288
0001e0 89 20 02 3e e5 21 f7 3d 8f 75 0b bd 04 8e a1 3d
       0.12707724 0.12067012 -0.03404766 0.078884155
0001f0 b3 f1 fc 3c 2f c3 a9 bd 72 ab 00 be 25 a8 61 be
       0.03087697 -0.082891814 -0.12565401 -0.22036798
000200 89 d2 a8 bd b4 f2 5b bd da 86 c1 bd 78 3f cd 3c
       -0.082432814 -0.053698257 -0.09449549 0.025054678
000210 b5 52 05 be 37 72 66 3e 00 3f c9 3d 10 20 ce 3d
       -0.13019831 0.22504507 0.098264694 0.10064709
000220 fc c1 49 3d c4 f7 f3 3d 7a e3 5f 3e e9 19 ab 3d
       0.049257264 0.11912492 0.21864119 0.08354551
000230 b7 85 38 bd f7 21 ca 3d 3c 7d dc bd e9 e4 59 bd
       -0.045049395 0.098697595 -0.10766074 -0.05319682
000240 ff 1c 85 bd 30 d4 4b be ba c7 fc bd d7 e3 28 3e
       -0.06499671 -0.19905162 -0.12342782 0.16493164
000250 83 f3 a2 bc 01 bb 3c 3d a5 c5 9c 3d 92 89 15 bd
       -0.019891506 0.04607678 0.07654885 -0.03650815
000260 61 b5 d4 bc cd 6a 25 3d 93 2a 44 be 56 1a cc bc
       -0.025965394 0.040385056 -0.19156866 -0.024914902
000270 dc ca 77 3e 8c 7d 36 bb 4c 67 3f bd db e6 2c 3d
       0.24198478 -0.0027845828 -0.04672937 0.04221235
000280 ab 57 8d 3e b6 41 93 3d bb 2a 41 3e e0 40 27 be
       0.27605948 0.07190268 0.18863957 -0.16333342
000290 c4 a5 2d bd f6 96 1d be 2a 72 93 bd 91 aa 37 be
       -0.042394415 -0.15389618 -0.071995094 -0.1793616
0002a0 7d 52 f2 3a c0 08 18 3e 36 47 c1 bc e3 16 14 3e
       0.0018487718 0.14847088 -0.023593526 0.14461856
0002b0 55 e5 40 be 55 0a e2 bd cd 73 03 3e c9 f5 38 3c
       -0.18837483 -0.11037127 0.12837143 0.0112890685
0002c0 a4 42 d8 bd 1d 76 00 3e a4 18 de bd 50 fa 8a 3d
       -0.10559586 0.12545057 -0.108445436 0.067860246
0002d0 70 5c 84 3e 79 9f c4 3d 90 76 13 be ce b1 29 be
       0.25851774 0.096007295 -0.14400697 -0.16571733
0002e0 4e 00 9a 3d 43 7d b0 bd 29 3b 16 be 9c 43 82 be
       0.07519589 -0.08617642 -0.14671005 -0.25442207
0002f0 a8 00 51 be 45 c3 9c 3d df 66 33 3e ee 6e 92 bd
       -0.20410407 0.07654432 0.17519711 -0.071500644
000300 ec da 97 be 4f 7d 7a be 48 90 39 3e 6b bc ca 3d
       -0.29659212 -0.24461864 0.18121445 0.09899219
000310 c5 18 e1 bd 29 07 9a be f6 ff 7a 3e 35 32 51 3e
       -0.109910525 -0.30083588 0.24511704 0.20429309
000320 16 67 1a be 1c 21 17 3e 84 f3 32 3e 84 fe ba bd
       -0.15078387 0.14758724 0.17475706 -0.09130576
000330 ba 50 05 be 15 72 3c 3e c0 a6 54 3e 66 7b 60 3d
       -0.13019076 0.18402894 0.20766735 0.054805182
000340 5f 63 8c 3c b8 9f 4f 3d 9f 2c 36 3e f7 da 2c be
       0.017137228 0.05068943 0.17790459 -0.16880403
000350 4e b2 07 3d 87 fe 29 be e2 6c 21 be a2 ce c2 3d
       0.03312903 -0.16601 -0.15764192 0.09512068
000360 e5 82 30 3e 72 ff d6 3d a8 48 70 bc c7 9c 07 3d
       0.17237432 0.10497941 -0.01466576 0.0331085
000370 73 6b 4b be 87 68 70 be 86 b0 7e be d4 8e 1f bd
       -0.19865207 -0.23477374 -0.24872026 -0.03895457
000380 ec 17 37 3e e5 d6 b8 bd 41 9b 3a be c7 00 22 3e
       0.17880219 -0.09025363 -0.18223287 0.15820609
000390 9d 2d 9d bc c0 d5 a9 be 42 60 46 3e 56 d1 68 3e
       -0.01918679 -0.3317089 0.19372657 0.22736105
0003a0 61 e0 08 be af 21 63 be b9 9a 2a 3e 8e bf 20 be
       -0.13366844 -0.22180818 0.16660585 -0.15698072
0003b0 83 eb b6 bd ce 92 c2 bd 04 73 cf 3d 17 80 a5 3d
       -0.08931639 -0.09500657 0.10129359 0.08081072
0003c0 0f e2 6d be d5 70 68 3e 4b 4a 13 3b 8f 3b 1e be
       -0.23230766 0.22699292 0.0022474702 -0.15452407
0003d0 8f a6 e2 bd df 84 c8 bd c1 ad 0c 3b 7a a4 40 3d
       -0.11066925 -0.09790968 0.002146587 0.047031857
0003e0 35 73 53 bd 82 69 20 3d 66 71 78 bb f3 52 f0 3d
       -0.05162354 0.03916312 -0.0037909388 0.11734571
0003f0 3b ae a4 bc f2 f2 8d 3d 84 6e 85 bc aa eb e1 3c
       -0.02010261 0.06931104 -0.01628805 0.027578194

policy_fc2.bias f4 [32]
000000 b1 ce a6 bc 5c 2a 2f 3c 73 7f 8e 3d 35 86 09 bc
       -0.02036223 0.010691252 0.06957903 -0.008393814
000010 a7 2d 41 3d 4a c9 eb bc 2f fc 73 bb 53 53 fa bc
       0.047162678 -0.028782506 -0.003722917 -0.03055731
000020 21 78 cb bc fe f8 59 bd 0d 3f 0d 3d bd 34 53 3d
       -0.024837555 -0.053215973 0.034483958 0.051563967
000030 34 8e 3f 3d 8e 40 85 3c 2e 84 e6 3c 9b 38 28 3d
       0.046766475 0.016266134 0.0281392 0.04106961
000040 84 4f 66 bc 3c 26 1c 3d 09 d7 77 bc bb 56 ae 3c
       -0.014057044 0.0381224 -0.015126952 0.02128159
000050 9c ef f4 bc 07 15 c9 bd 37 fd 03 3d b2 ef 4f 3d
       -0.02989941 -0.09818464 0.032223906 0.0507657
000060 69 49 d6 3c fd 65 03 3d 85 09 1c bd a1 0c c1 3c
       0.026158052 0.032079685 -0.038095016 0.023565592
000070 c4 19 22 be 92 f2 52 3d b7 a4 8b 3d c0 fd da bc
       -0.15830141 0.051500864 0.06818526 -0.026732326

policy_fc3.weight f4 [57, 32]
000000 39 cc 10 3e b2 c2 89 3d 0f 0d 64 bd 02 28 b1 bd
       0.14140405 0.06726588 -0.055676516 -0.08650209
000010 f8 32 11 3e af 29 9c bd 21 31 ee 3d 25 a3 84 be
       0.141796 -0.07625138 0.11630464 -0.2590572
000020 58 0c 20 3e 78 d5 86 bc be f8 14 3e 90 31 8e bd
       0.15629709 -0.016459212 0.14548013 -0.06943047
000030 01 93 eb 3d 0c 78 43 bd 26 7a 80 be 78 a7 28 be
       0.11502648 -0.047721907 -0.25093192 -0.16470134
000040 f8 8c fb bd d9 61 39 be 8f d8 c2 bc 2b a5 b4 3d
       -0.12282747 -0.18103732 -0.023784904 0.08820566
000050 ce 91 ec 3d 2c 31 92 be 45 2b af bd 54 12 f1 3d
       0.115512475 -0.2855314 -0.08553175 0.11771074
000060 77 d0 f8 bd 36 50 ac be d0 56 05 be 6e 86 b3 3d
       -0.121491365 -0.33654946 -0.13021398 0.08765875
000070 cf 88 a0 bc 41 a5 19 3e f1 d9 b2 bb 00 0f 06 3e
       -0.019596485 0.15004446 -0.0054581095 0.1309166
000080 83 31 ef bb a2 41 f7 3c b0 b5 1c bd f6 27 c1 3a
       -0.0072996034 0.030182663 -0.03825921 0.0014736641
000090 1c 1c 50 be e7 a7 f7 3d 90 d8 9e 3e 3e 22 99 bb
       -0.20323223 0.12092572 0.310246 -0.0046732714
0000a0 71 20 fc 3d 6f 39 8a 3e 2b c0 31 3e 9c 62 6a be
       0.12310875 0.26996943 0.17358463 -0.22889179
0000b0 37 5d 5c 3e e2 89 fc 3d 90 1f ad 3b 1a 74 be 3d
       0.21519934 0.123309866 0.0052833036 0.09299488
0000c0 ee 09 46 be 50 bd 11 3e 70 8e 45 3d 60 60 eb 3d
       -0.19339725 0.14232373 0.048231542 0.114929914
0000d0 f9 6e 41 be 9e 75 3b 3e 37 70 59 be 42 84 21 3e
       -0.18889989 0.18306586 -0.21234213 0.15773109
0000e0 76 cb ce bd 11 c5 cf bd 8c 1a 07 be c4 eb f0 3b
       -0.10097401 -0.10145009 -0.1319372 0.007352324
0000f0 81 7f 85 3e 4a b8 53 3c 6f fc 23 be f8 39 d3 bd
       0.2607384 0.012922356 -0.16014265 -0.10313791
000100 ad 7d c8 bb f8 a8 74 3e d8 8d 16 be 01 ac 05 3e
       -0.0061184973 0.23892581 -0.14702547 0.13053896
000110 b1 c7 87 3e c8 c8 1e be fd 28 6b be 9a 64 84 bc
       0.2651954 -0.1550628 -0.22964855 -0.016161252
000120 cd 71 93 be f5 4c 0b be db 1a c5 3d 3a c9 0d 3c
       -0.2879776 -0.13603576 0.09624263 0.008653933
000130 0e 6f ff 3d 9c 9b 94 3e ca 3b bc be d7 4e fd bb
       0.12472354 0.2902497 -0.36764365 -0.0077303457
000140 35 cf 43 3e b5 81 06 be c0 79 04 be 23 44 86 3c
       0.19122012 -0.13135417 -0.12937069 0.016389912
000150 e1 35 96 3d 58 61 2e be 29 54 d3 be 8a a0 f0 bd
       0.07334495 -0.17029321 -0.41275147 -0.117493704
000160 c6 c0 40 3e 2e 0e 13 be df fb 42 bd f7 7d fa 3d
       0.18823537 -0.14360878 -0.047603484 0.12231057
000170 66 f6 47 bd 43 01 a7 3d bb 6f 5c be 41 06 80 3e
       -0.04881897 0.081545375 -0.21526997 0.2500477
000180 62 a8 c8 bc 15 2e 50 be 0d fe 73 ba 80 2d 26 3d
       -0.024494354 -0.20330079 -0.0009307571 0.040570736
000190 9a 33 57 be e7 3e da bd 6b 69 65 be bd e1 cf 3c
       -0.21015778 -0.10656529 -0.22403495 0.025376195
0001a0 2f 26 79 be 40 63 e2 3d ad a6 83 3e d7 a0 6f be
       -0.24330972 0.11054087 0.257131 -0.234012
0001b0 b0 3a 42 3e b2 47 9e be 91 48 2d 3e 28 c0 1e be
       0.189677 -0.30914074 0.16922213 -0.1550299
0001c0 47 13 bb 3c fc 15 cc bd 42 f6 98 bd f1 d5 80 3e
       0.02283634 -0.09965131 -0.07468845 0.25163224
0001d0 83 73 40 bd 9b 49 7a 3d 76 30 98 3e ff 4c 1f bc
       -0.04698516 0.061105352 0.29724473 -0.009722947
0001e0 76 eb 40 bd 1d 13 da 3c bf 0c b4 3d 6e a4 34 be
       -0.047099553 0.026620442 0.087914936 -0.1764085
0001f0 59 2e 74 3d 58 14 0e be 53 52 83 3e cc 25 99 be
       0.059614513 -0.13874948 0.25648746 -0.2991165
000200 fe 15 b1 bc 77 87 7e bd 9e 7f 1e 3d 7b b7 19 be
       -0.021616932 -0.062140908 0.038695924 -0.15011398
000210 f3 17 f8 bd c2 ab 5f be 9d a1 91 3e df 15 72 3e
       -0.12113943 -0.21842864 0.28443614 0.23641156
000220 e8 ab ef 3d 9a 25 b1 bd 67 bb 91 be 53 90 de 3c
       0.117027104 -0.0864975 -0.2846329 0.027168429
000230 0a 8e 79 3e 30 89 a1 3e c3 c3 6b 3c e1 fa a5 3d
       0.2437059 0.31549978 0.014389935 0.08104492
000240 aa 8d d0 3c 4f c3 f4 bd e5 38 8c bb bf 04 77 be
       0.025458176 -0.11951315 -0.0042792433 -0.24122904
000250 38 4d 62 bd 5d f5 61 3d 6c d3 0c 3e 37 d7 ae 3e
       -0.055249423 0.055165637 0.13752526 0.3414857
000260 08 4d 55 3d c2 4c 8a bc d3 74 81 bc 5b 95 8b be
       0.052075416 -0.016882304 -0.015802776 -0.27262387
000270 d4 b5 55 3e e1 40 42 be c8 8b f8 bd 2f eb 8b bd
       0.20870143 -0.18970062 -0.12136036 -0.06831967
000280 e1 ec bb 3d d8 2f 47 3d f0 bd e2 bd 2a 56 bf bd
       0.091760404 0.04862961 -0.11071384 -0.09342606
000290 ed cc 0a be 42 0b cb 3d 66 c3 62 be f5 7b 32 be
       -0.13554735 0.09914257 -0.22144851 -0.17430098
0002a0 b2 5a 26 be 51 1c 59 3e 98 09 ae bd dc 53 4e be
       -0.16245535 0.21202208 -0.084979236 -0.20149177
0002b0 24 e6 cf 3d 86 d8 1f bd f5 b6 f7 3d 7b 13 cf 3b
       0.10151318 -0.039024852 0.12095443 0.006319461
0002c0 b9 81 bf 3d 98 75 88 3e 22 d0 8d 3e 70 ce 9e bd
       0.093509145 0.26652217 0.27697855 -0.077542186
0002d0 e4 c1 2f 3d 7a 91 80 3e 62 33 6d bd 44 18 41 3d
       0.042909518 0.2511099 -0.05791033 0.047142282
0002e0 3a 7e a5 3d 70 0c c8 3d 85 c1 b7 3c 42 04 a0 3d
       0.080807164 0.09767997 0.022431144 0.07813312
0002f0 0e 76 1a bd 88 59 2e ba 63 71 75 3d 1d 8e a1 bd
       -0.037710242 -0.00066509144 0.059922587 -0.07888434
000300 7f 1e f8 3d 42 24 ab be cb f1 6c be cc d5 71 3d
       0.12115192 -0.334261 -0.23139112 0.059041783
000310 94 75 0a be f7 ab c4 3c 20 22 1e bd cd 9b 49 bc
       -0.13521415 0.02400778 -0.038606763 -0.012305212
000320 04 30 98 bd 81 4b 01 be ce 2b 6d be 16 42 64 3d
       -0.07431033 -0.12626459 -0.23161241 0.055727087
000330 d9 88 dc bb 3d 30 94 be 47 8f 12 bd 48 22 13 be
       -0.0067301807 -0.28943053 -0.03578117 -0.14368546
000340 50 fe c3 bd 41 44 2c 3c c5 e1 24 3d ca 84 01 3f
       -0.09569991 0.01051432 0.040254373 0.50593245
000350 20 b2 74 bd 5b 85 b8 3c 02 56 1c 3e ec a3 24 3e
       -0.059740186 0.022524526 0.15267184 0.16078156
000360 99 45 ee 3b 37 fb 94 3d f4 3d 82 3d 77 b3 82 be
       0.0072714803 0.07274478 0.06359473 -0.25527546
000370 8a 55 c0 3d 96 d3 f5 be b0 7f f1 3e d1 8e ae bc
       0.09391315 -0.4801299 0.4716773 -0.021308335
000380 92 b8 30 3e 3c f6 6b 3d dc a7 6f be cf f0 4e bd
       0.17257908 0.057607874 -0.23403877 -0.05052262
000390 c6 71 d2 be 03 0d 93 bd 3c a5 d3 3d a7 42 4d 3c
       -0.41102427 -0.07180216 0.1033425 0.012528098
0003a0 15 85 93 bc 6b c4 9b 3d 43 f9 17 3e 43 61 e6 bc
       -0.018007794 0.07605823 0.1484118 -0.02812255
0003b0 0c 62 d4 3d c3 64 2b be 8a bc 43 be ed 97 9e bd
       0.103702635 -0.16737656 -0.1911489 -0.07743821
0003c0 a3 a0 49 3e d9 ab ed 3d 6b 06 a0 bd 33 ab 7c bd
       0.19690184 0.11605043 -0.07813724 -0.061686706
0003d0 2f e9 ff 3d 19 f5 0e 3c 5d 08 1c 3e fe cf 47 3d
       0.12495648 0.008725428 0.15237565 0.04878234
0003e0 0c 0c 65 3e ab 4f 8f 3d e1 82 2f 3e e0 e3 aa be
       0.22367877 0.06997617 0.1713977 -0.3337698
0003f0 42 e8 8a be 21 ef 76 3d d3 a1 79 bc 72 7c ad 3d
       -0.27130324 0.060286645 -0.015236336 0.08471002

policy_fc3.bias f4 [57]
000000 c2 6b 19 3d 49 46 c7 bd 5b 9c 8d bd 95 22 fe bc
       0.03745628 -0.09730203 -0.06914588 -0.03102235
000010 5f 29 a5 3c 10 28 7d bd 47 dd d1 3c 73 2a 29 bd
       0.020161329 -0.061805785 0.025618209 -0.04130025
000020 a9 06 ad 3c 5b cb 01 bd 9d cc 00 bc 3c 24 92 bb
       0.02112134 -0.031688076 -0.007861284 -0.004459886
000030 f0 cd f6 3a 5f 27 e7 3d 81 ae 67 3d ae f0 6b 3b
       0.0018829685 0.11286806 0.056562904 0.003600161
000040 29 f7 19 bc ae 29 de bd 2f 15 82 bd 4e 12 3f 3d
       -0.0093973065 -0.108477935 -0.06351697 0.046648316
000050 a5 12 f3 3c 28 58 60 3d 55 ef a1 bc 94 99 c6 3d
       0.029671976 0.054771572 -0.019767443 0.096972615
000060 3e 5f 69 3a d5 7b 85 bd ba 0d 47 3d 59 e3 9d bd
       0.0008902437 -0.0651776 0.048597075 -0.07709379
000070 8e 46 a7 3d 98 fe 09 bd b8 6d 9c bd d8 f7 98 bd
       0.08167754 -0.033690065 -0.07638115 -0.074691474
000080 7e 55 a0 3d 4a 4d c3 38 e2 8e b0 3a 09 90 ff 3c
       0.07828806 9.312721e-05 0.0013470317 0.031196611
000090 d3 24 ec 3c cc 94 7e bc ec 48 55 3c a5 c7 c9 bb
       0.028826153 -0.015538406 0.013017874 -0.0061578327
0000a0 a9 2a 1e 3d 9b 76 7f 3c c6 d6 8f bd 9e bb 05 bd
       0.038614903 0.015592243 -0.07023387 -0.03264963
0000b0 66 e7 2f bd 89 60 92 bc 24 8c 33 bc ed d2 34 bd
       -0.042945288 -0.017868297 -0.010958705 -0.044146467
0000c0 b5 e7 80 3c 3d 54 0d bd 49 e5 8d 3d b0 19 b7 bb
       0.015735487 -0.034504164 0.06928498 -0.005587779
0000d0 4a 7f eb 3c cf 99 05 bd 75 e5 82 bd 88 f6 95 3d
       0.02874722 -0.032617386 -0.06391422 0.07322413
0000e0 10 16 da bd
       -0.10648739

value_fc1.weight f4 [64, 261]
000000 c0 63 6d 3e a0 ca f1 bd 90 8e b6 bd 1e f5 d1 bd
       0.23182583 -0.11806226 -0.089139104 -0.102518305
000010 c4 86 06 3e f7 9e ff bd cb fd 52 3c 02 4d 23 3f
       0.13137347 -0.12481492 0.012877892 0.6378938
000020 08 b5 e1 bd c2 f1 20 3e ca 16 18 3f 91 92 80 3b
       -0.11020857 0.15717223 0.59409773 0.003923722
000030 8b ca 48 3e d5 7d 1b 3f 3d 2a 84 3d 12 d7 af 3d
       0.19608514 0.6073888 0.06453369 0.08585943
000040 36 95 31 3d 73 3a 28 be db ab f7 3d c1 cc 3f bd
       0.04335519 -0.16428547 0.12093326 -0.046826128
000050 9c 74 cc 3c 72 28 10 3e f0 bc 4c 3e f8 2f 0f be
       0.024957947 0.14077929 0.19993949 -0.13983142
000060 88 57 97 3d 5d 65 91 3d 7d 74 8d 3d 95 9e d3 bd
       0.07389742 0.07099412 0.06906984 -0.103329815
000070 6f 65 ad bc 3e fc a3 3d 58 a9 38 bc 73 e1 02 3e
       -0.021166531 0.08007096 -0.011270843 0.12781315
000080 93 3d 27 3d 25 6c 8f 3d 7f 63 5c 3e 9f 38 fb 3d
       0.040830206 0.07003049 0.2152233 0.12266659
000090 2a 78 05 3e 55 96 16 3e f2 49 c2 3d f1 f9 21 be
       0.1303412 0.14705785 0.0948676 -0.15818001
0000a0 2b f3 33 3e aa 13 e1 3d e6 88 6f be ef 02 dd bd
       0.1757323 0.10990079 -0.23392066 -0.10791575
0000b0 f6 b9 fc 3c f4 04 09 bd 7f 79 1b 3c 5c 8f 30 be
       0.030850392 -0.03345199 0.009489416 -0.17242187
0000c0 ee 71 c6 bd 75 eb 55 3e 21 c0 07 bd 53 0c 0d be
       -0.09689699 0.20890601 -0.033142213 -0.13774233
0000d0 4e 43 ce bd 38 74 55 3d d7 74 e8 3d 07 cd 8a 3d
       -0.10071431 0.052112788 0.113504104 0.06777387
0000e0 c1 51 02 3d fb fd 83 3d 88 c8 84 3d a2 27 ee bc
       0.031816248 0.06444927 0.06483561 -0.029071633
0000f0 ff 65 91 3d e1 02 00 be f4 fe 79 3d bc 65 17 3d
       0.07099532 -0.12501098 0.061034158 0.036962256
000100 e0 6d 05 be 0c ed 57 3e 0b f9 21 be cc 2b dc bd
       -0.13030195 0.2108652 -0.15817659 -0.10750541
000110 e3 c6 1a bf ca 68 04 3e 0f e8 36 be 5e ab c3 3d
       -0.6045973 0.12930599 -0.17861961 0.0955417
000120 35 da 52 be 2d e6 0f 3e 99 b8 26 be e8 26 20 bd
       -0.20591052 0.14052649 -0.16281356 -0.039099604
000130 3e 2f f7 3d 6d 7f cc bd a1 d7 4c be a5 ce 08 be
       0.120695576 -0.09985242 -0.20004131 -0.13360079
000140 20 e9 f1 3b a6 5b 89 be 86 67 7c 3e d5 e2 91 3d
       0.007382527 -0.26827735 0.24648866 0.07123343
000150 b4 91 3d 3d 46 06 01 be 30 cd 3a 3d 85 f6 f9 bd
       0.04628153 -0.1260005 0.04560584 -0.12205223
000160 5d 76 5a 3e ab d9 83 3d 91 a2 2f 3e 38 7f 80 3c
       0.21334215 0.06438001 0.17151858 0.015685663
000170 28 f8 1b 3e 8b ff 5e 3d a0 6b 67 3d b5 0f 29 3e
       0.15231383 0.054442924 0.056499124 0.16509898
000180 e2 74 e5 3d 83 7f 97 3d ec ea 00 bd c7 a6 6a be
       0.11203934 0.07397368 -0.03147404 -0.22915183
000190 f8 d0 58 be 52 c4 7b bd 14 c0 87 3d 4e 8b 41 be
       -0.21173465 -0.061466523 0.06628433 -0.18900797
0001a0 e4 ee b3 bd ae fd fc 3d c5 f8 a1 3e dc 9f 16 be
       -0.08785799 0.12353073 0.3163511 -0.14709419
0001b0 73 43 c2 be 9d 21 e2 3c b4 1e 11 be 26 39 57 bd
       -0.37942085 0.027603919 -0.14171869 -0.052544735
0001c0 a1 74 7f bd 39 25 8c bd 68 df bd bc cb 20 52 be
       -0.062367085 -0.06843037 -0.023177817 -0.20520322
0001d0 d1 61 35 be 5f 82 03 be 54 09 07 3c 29 ca 86 be
       -0.17713095 -0.12842701 0.00824197 -0.2632611
0001e0 90 0e fe 3d 30 9e b6 bd c6 e4 e6 3d b0 65 7b be
       0.12405121 -0.089168906 0.11274104 -0.2455051
0001f0 3c ed d1 3d f5 3e 67 bd 17 32 f1 bd 4f c3 1e 3d
       0.10250327 -0.056456525 -0.11777132 0.03876048
000200 e2 9c 47 bd d2 f2 c2 3d 34 69 37 bd cd ad df 3d
       -0.0487336 0.095189705 -0.044778064 0.10921822
000210 e6 48 46 3b d7 bd 6e 3d c1 e7 3c be 26 ea 80 3c
       0.0030255853 0.058286514 -0.18447782 0.01573665
000220 92 1c de 3e f1 ee aa bd e3 d4 2e bd 0b 88 61 3d
       0.43381172 -0.08346356 -0.042683493 0.05506138
000230 31 73 96 3e 84 43 ec bd cb d3 b7 bd c3 eb af 3d
       0.2938476 -0.11536315 -0.08975943 0.0858989
000240 6a 92 b2 bd af 57 0d 3d 74 77 55 bd a9 13 ef bd
       -0.087193325 0.03450745 -0.052115873 -0.11673672
000250 5f 07 1e 3e 66 06 e5 bc db 7a 6c bd f1 e6 0a 3e
       0.154325 -0.027957153 -0.05773435 0.1356466
000260 dd 82 1d 3e 7a e4 c3 3d 73 4a 7e 3d 85 0c 3b 3e
       0.15381952 0.09565063 0.06208272 0.18266495
000270 50 a7 5a bd 25 dc cd 3c 34 46 e5 bd ca a4 2e bd
       -0.053382218 0.025129387 -0.11195031 -0.042637624
000280 5f 4d 42 bb 10 8e 1f 3d 39 2e e6 3d 87 ed dc 3a
       -0.0029648168 0.03895384 0.11239285 0.0016855457
000290 b4 91 2b bd ae f9 1c bd 48 df a0 3a 52 74 e1 3d
       -0.041887 -0.03832405 0.0012273574 0.110085145
0002a0 53 04 70 bd 59 b0 c0 3c 90 37 74 3d e0 e6 9e bd
       -0.058597874 0.02352159 0.0596233 -0.0775888
0002b0 e4 4e 23 3d b4 25 58 bd 6f 7d ca 3d ad 58 0a 3e
       0.039870158 -0.05277033 0.09887206 0.1351039
0002c0 af 7e c2 bd f1 74 0f be 7f ea 2d 3e 60 b1 de 3b
       -0.09496819 -0.14009453 0.16983984 0.006796047
0002d0 16 2f 2e be 81 4b 03 3e 7f d0 ae 3d d9 3e 55 bd
       -0.1701015 0.12821771 0.08535861 -0.05206189
0002e0 4d d4 4c 3e df 92 a1 bc fc 37 52 3c aa 51 8e 3d
       0.20002861 -0.019723354 0.0128307305 0.0694917
0002f0 ae 9d d3 bd 97 bb 2b be c6 4f ad 3d 40 52 51 bd
       -0.103328094 -0.16770779 0.08462481 -0.05110383
000300 37 48 d8 3d e9 ff d9 3d 49 be f7 bc 59 d5 a7 bb
       0.10560649 0.10644514 -0.030242102 -0.0051218686
000310 c5 4e ca 3d 47 a7 72 3d d9 79 ba 3c 0b 95 5f 3d
       0.09878305 0.05924156 0.02276318 0.054585498
000320 06 3c 05 be 86 88 cb bd 41 76 c3 3d 40 97 8f 3e
       -0.13011178 -0.09938149 0.095440395 0.28045082
000330 67 4f 0d be f4 1d 7f 3d 09 36 cd 3d dc 54 2b 3d
       -0.13799821 0.062284425 0.10020072 0.041828975
000340 bb 3d 02 be 02 4f 37 3e df 45 45 3d 67 6c e1 bc
       -0.12718861 0.17901233 0.048162337 -0.02751751
000350 07 35 dd 3c 44 f1 b9 bc e0 1c 36 bd 1e a8 96 3d
       0.027002824 -0.022698052 -0.04446113 0.073562846
000360 87 37 cb 3d ed ef e9 3d da 4d b1 3d 6a 5c 78 bd
       0.099227004 0.11422715 0.08657427 -0.060635008
000370 fc dd 98 bc f4 44 c2 3c fa 18 5b 3d a6 72 88 3d
       -0.018660538 0.02371452 0.053490616 0.066624925
000380 ff ed 04 3d d5 1d 73 3c 64 11 c1 3d 8e ae b3 3c
       0.032453533 0.0148386555 0.09427145 0.02193382
000390 a9 f5 b0 bd 0c 86 28 3e 65 f3 68 3e 97 59 5b bd
       -0.08640606 0.16457385 0.22749098 -0.053552236
0003a0 71 66 6a 3d f4 c8 01 3c 22 ee b5 3d 50 3e 4d 3e
       0.057226602 0.007921446 0.08883311 0.20043302
0003b0 e9 10 07 3e 61 1d bb bc 56 61 fa bd 21 56 85 3d
       0.13190044 -0.022841157 -0.122255966 0.065105684
0003c0 a6 b8 c5 bd f1 dc c2 3d 44 6d 60 3d 99 f9 b3 bd
       -0.096543595 0.095147975 0.054791704 -0.08787841
0003d0 93 10 b7 3b 09 9c e5 3c 27 95 cb 3d 71 bb db bb
       0.0055866926 0.028028505 0.09940558 -0.0067056944
0003e0 d6 58 84 bd 9b e6 e7 bd f6 66 24 3e b3 4e 08 3e
       -0.064622566 -0.113232814 0.16054901 0.13311271
0003f0 09 ab ad bd 7b 2c 23 3e 59 05 c8 3d 99 c7 8e 3d
       -0.08479888 0.15934937 0.09766645 0.06971664

value_fc1.bias f4 [64]
000000 19 41 85 bc 2a 79 8c 3c a8 39 63 3d 5b c7 a0 bb
       -0.016266393 0.01714762 0.055474907 -0.0049065775
000010 c1 02 e5 bc 20 d1 c4 bc 8f 16 24 bc 73 3d a7 3b
       -0.027955415 -0.0240255 -0.010015144 0.005103761
000020 29 07 36 bd 80 9d 8c 3c a5 41 b7 bb 19 6e 1e 3c
       -0.044440422 0.017164946 -0.0055925422 0.009669804
000030 fa 64 b4 3c 0d d1 ab 3c 98 e7 9f 3c 50 02 93 bc
       0.022020806 0.020973707 0.019519612 -0.017945439
000040 04 29 58 bb e0 b0 b8 3c f1 0a 9d bd 32 08 84 3c
       -0.0032983432 0.022545278 -0.076681025 0.01611719
000050 1e 01 82 bc 7e 10 b9 bc b3 86 8c 3d 77 cc 73 3c
       -0.015869673 -0.022590872 0.06861629 0.014880291
000060 17 dd 6e 3b 2f fa 33 3d e3 4d 3a 3b c8 53 0e 3c
       0.0036447698 0.043939766 0.0028427772 0.008686967
000070 91 b2 11 bc 94 1f 14 3c 38 ab 07 bc 85 4a e2 3b
       -0.008892671 0.009040732 -0.008280568 0.006905856
000080 54 87 27 bc 50 3e 06 ba d5 ad 05 3d c3 1c 46 3d
       -0.010225136 -0.00051209796 0.032636482 0.048367273
000090 e8 d1 f8 bc a0 34 86 bd a1 36 30 3c a8 3a cd 3c
       -0.030373529 -0.06553006 0.010755212 0.025052384
0000a0 d0 77 4d 3c 12 fc 43 3d 30 fe af bc 79 29 2c bd
       0.012540773 0.047847815 -0.02148351 -0.04203174
0000b0 51 5c fe 3c 13 16 39 3d c9 59 93 bd d7 dc 2a bc
       0.03104988 0.045187067 -0.071948595 -0.010428629
0000c0 cd 1b 57 bb 3b 77 9d 3c 64 b6 93 3c 1b 06 d9 3c
       -0.0032822967 0.019221893 0.018031307 0.02649217
0000d0 c1 73 9f 3c 20 cf 97 3b 6c ac e7 3c 27 79 15 bd
       0.019464375 0.0046328455 0.02828046 -0.036492493
0000e0 93 fc 00 bd 42 ea 36 3d 9a 49 90 bc 72 66 d3 3c
       -0.031490874 0.044657 -0.017613221 0.025805686
0000f0 c0 ce 8f 3c 10 06 0b bd 9f 01 f0 3b 5d 29 0a bd
       0.01755464 -0.03394133 0.007324412 -0.033730853

value_fc2.weight f4 [32, 64]
000000 d7 ab 37 be af 8e c4 3d 5d 78 ba bd 67 87 d0 bc
       -0.17936645 0.09597527 -0.09104989 -0.02545519
000010 d2 37 dc bd c5 65 1d 3e 01 26 21 bd 7e 4e cb bd
       -0.107528344 0.15370853 -0.039342884 -0.099270806
000020 d3 e2 8f bd f8 ff 6c 3d 0e c8 47 bd e2 68 ab bd
       -0.07025685 0.0578613 -0.04877477 -0.08369614
000030 d7 0a d6 3d 91 76 02 3d b1 fb 00 be 84 5a a1 bd
       0.10451286 0.031851355 -0.12596013 -0.078785926
000040 ec e6 0b 3e 15 11 3e be 29 d8 22 3e 2e 10 db 3d
       0.13662308 -0.18561204 0.15902771 0.106964454
000050 8e 68 0c be 15 85 d5 bd 58 5b f9 bc f0 a3 f4 3c
       -0.1371176 -0.10425774 -0.030439064 0.029863328
000060 58 ff c4 3d 72 ed e5 3d f3 2b 60 bc 24 66 1c 3e
       0.096190155 0.1122693 -0.013682353 0.15273339
000070 33 0f 36 3e 16 0e c0 3d d1 a8 fc bd 4e e9 e2 bc
       0.17779236 0.09377687 -0.12336887 -0.027699139
000080 32 87 e6 bd 04 3d 91 3d 32 40 11 3e eb bc 87 3e
       -0.11256255 0.07091716 0.14184645 0.2651132
000090 15 c1 3f be 2c 4b 24 3c fa 23 9b 3d 66 f5 61 3c
       -0.18725999 0.010027688 0.07575221 0.013791418
0000a0 3e d7 f8 3d e3 05 8c 3e 35 bc 9f bd fa e7 e1 3d
       0.12150429 0.2734824 -0.077995695 0.11030574
0000b0 bc 2a 49 3e db 7b ad bd 9c 67 82 39 53 a8 51 be
       0.19645208 -0.08470889 0.00024872727 -0.20474367
0000c0 e7 c2 7b bd 1b f8 d7 bd 6b 9f 90 bd 55 dd dc bd
       -0.06146517 -0.10545369 -0.070616566 -0.10784403
0000d0 10 0b f4 3d 23 ff 25 3c cd c4 0e be e5 d1 05 bc
       0.119161725 0.01013163 -0.13942261 -0.008167719
0000e0 48 37 8c 3d 76 fa 5a be ef d9 5f be 74 8a 7c 3e
       0.068464816 -0.21384606 -0.21860479 0.2466219
0000f0 40 e6 dd 3d 26 3b 36 be f9 4b 51 be 48 7e 00 3d
       0.10834932 -0.17796001 -0.20439138 0.03137043
000100 95 35 19 be 1d 71 da be ff 55 12 bf 82 4b 3a 3e
       -0.14961846 -0.42664424 -0.5716247 0.18192866
000110 f2 53 ba 3e 3a 84 65 bf 72 d7 de be 32 f8 ea be
       0.3639217 -0.89654887 -0.43523747 -0.45892483
000120 48 76 27 3e 5f 93 2c 3e 4b 7d a9 be 1d 37 0d bf
       0.16353714 0.16853093 -0.33103403 -0.5516222
000130 39 5a ee be 41 dc c0 bc 96 a6 f2 be 40 e3 14 be
       -0.4655321 -0.023542525 -0.4739272 -0.14539814
000140 bf fc c1 be f9 f5 4a be 57 69 2c be 55 60 21 bf
       -0.37888142 -0.19820394 -0.16837059 -0.63037616
000150 a3 6f 81 be b7 af fe bc 06 4a dd be 96 d5 72 bd
       -0.25280485 -0.031089647 -0.43220538 -0.059285723
000160 4d 37 dc be e5 8f 4b be 13 d8 2d be 28 85 42 3e
       -0.4301094 -0.1987911 -0.16976957 0.18996108
000170 ee d1 11 be 7f 15 06 bf ab e6 68 be 6a 56 11 be
       -0.14240238 -0.5237655 -0.22744243 -0.1419312
000180 47 b0 2f 3e ea f5 cb 3d 00 de 6c be 93 58 45 be
       0.17157088 0.09959014 -0.23131561 -0.1927207
000190 91 1c a2 3e 08 84 48 bd 02 01 21 3e 78 f6 97 3e
       0.3166242 -0.04895404 0.1572304 0.29680228
0001a0 fb 9f 0b be d4 86 d8 be 08 dc a3 bd 46 3b 16 3e
       -0.13635246 -0.42290366 -0.08000952 0.14671049
0001b0 ad 7c ff be e7 f5 93 be d0 19 b0 3d c2 48 83 3e
       -0.49899808 -0.28898546 0.08598673 0.25641447
0001c0 47 c8 90 be d2 06 09 bf 5a 6d df be 67 02 9c 3b
       -0.282778 -0.5352603 -0.43638116 0.0047610286
0001d0 b1 50 5e be 24 1e 59 be bd 35 dd 3d 80 76 46 3d
       -0.21710469 -0.21202904 0.108012654 0.048452854
0001e0 03 84 33 3a 6c 7f 7c 3d 65 4b 54 3e 1e 4b bd be
       0.00068479794 0.061644956 0.20731886 -0.36971372
0001f0 38 b9 3f bd bd d0 64 bd d0 5e 9b 3e 65 e8 54 be
       -0.046807498 -0.05586313 0.30345774 -0.20791776
000200 ec da 5a 3e 51 47 03 3e bf a6 2d bd 66 3b 4e 3e
       0.21372575 0.12820174 -0.04239535 0.20139846
000210 fc 8d eb 3c e5 73 13 3d 26 50 93 be 1d b5 a3 bd
       0.028754227 0.035999198 -0.28772086 -0.07993529
000220 c1 b0 89 3d f5 03 1e be 7c 3d 3d be 2e 85 5b 3d
       0.06723166 -0.15431197 -0.18480486 0.053593807
000230 ce c3 5b be 9a 2d d5 bc 34 89 5b be dd 64 e4 3d
       -0.21461412 -0.026022721 -0.21439058 0.11152051
000240 39 ad 6c be b2 ef cb 3d b1 b9 8c bc 0a 7e 1f 3b
       -0.23112954 0.09957828 -0.017178388 0.00243366
000250 77 46 71 bc 5c 85 77 be 2d a3 8c 3d fb ca 30 bd
       -0.014726273 -0.24171966 0.06867061 -0.043162327
000260 22 7b 23 be 39 4f 4c 3d f3 75 a3 3d 8d ea ec bc
       -0.1596494 0.04988024 0.079814814 -0.028920436
000270 e1 e0 9d bd b9 8b 85 be 4f 97 a4 3d 25 7e 7e be
       -0.07708908 -0.26083162 0.08036672 -0.24852808
000280 9a 25 8f be 1f 28 82 3d ea f4 2d be 80 ba de bd
       -0.27958375 0.06355309 -0.16987959 -0.10875416
000290 56 de 33 be 28 53 60 be 2b 1e 3a be 55 b9 63 3e
       -0.17565283 -0.21906722 -0.1817557 0.22238667
0002a0 ab 48 12 3e 55 12 8a 3d ab 18 87 be a1 32 f6 3d
       0.14285533 0.06741778 -0.26386008 0.120213754
0002b0 22 84 a4 bc 9e 79 2c 3e 1a cd 7c 3e f9 38 17 3e
       -0.020082537 0.16843268 0.24687615 0.14767827
0002c0 76 c1 72 3e 55 01 ea bd 37 c5 42 bd 1e 6c 1c 3e
       0.23706612 -0.11426035 -0.04755136 0.15275618
0002d0 2a 97 52 bd 64 f0 2c be 0f 4c f4 3c cd 30 6a be
       -0.051413693 -0.16888577 0.029821424 -0.22870179
0002e0 3a 1d 21 3e d9 96 f7 3d 93 ff d9 bd ed 2b 75 3d
       0.15733805 0.12089319 -0.1064445 0.059856344
0002f0 18 5c e2 bd 86 f3 18 be dd a3 99 be f9 d2 65 be
       -0.11052722 -0.14936647 -0.3000783 -0.22443761
000300 7f 52 8a 3d 5d e2 80 be 1d e8 1c be 39 dd 37 bd
       0.06754016 -0.251727 -0.15322919 -0.04488871
000310 b5 58 d2 bd 7b 1a d7 bc a4 97 4b bd 2b e0 34 be
       -0.10270826 -0.026257744 -0.049705163 -0.17663638
000320 5f 5b 8c bd 01 36 49 3e e1 e8 30 bd 69 d1 3e 3e
       -0.06853365 0.19649507 -0.04319084 0.18634571
000330 cf 85 8c 3e 2d 1b 14 3e 7e 01 00 be 24 af 1e be
       0.27445838 0.14463492 -0.12500569 -0.15496498
000340 fa da 03 be 33 27 4a be c5 a6 1f be a8 bc 2a 3d
       -0.12876502 -0.19741516 -0.15590961 0.041683823
000350 a5 fc 5f bd 0e f9 11 be 13 4d 17 bd 6d 4f 96 3d
       -0.0546843 -0.14255163 -0.036938738 0.07339368
000360 92 cf 02 3e 77 90 51 3e aa 70 e9 3d f1 d8 9e bd
       0.12774494 0.20465265 0.11398442 -0.07756222
000370 5e 12 3d be c5 54 0c 3e a2 5a f3 bd 8a a3 65 bd
       -0.18464038 0.13704212 -0.11882521 -0.056064166
000380 06 57 a1 be 85 61 84 be 3f 15 76 3d aa 81 8a bd
       -0.31511706 -0.25855651 0.060078856 -0.06763013
000390 73 57 9e bd be 94 40 bd c7 ee e4 bd 32 cf 24 be
       -0.07731523 -0.04701685 -0.11178356 -0.16094664
0003a0 7d 61 15 3e 1c 7c 73 be f7 45 6d 3e 4e 33 7c be
       0.1458797 -0.23777813 0.2317122 -0.24628946
0003b0 c5 ac 66 bd 8f 4e 0d be bd 3d 8c 3d ff 16 11 3e
       -0.05631711 -0.13799499 0.06847713 0.14168929
0003c0 41 c7 14 be 12 6b 7d bd f9 01 35 be 89 24 6b bd
       -0.14529134 -0.06186969 -0.17676534 -0.05740789
0003d0 c2 93 15 3e fd c9 20 3e 6f 9a 74 be 69 65 f3 ba
       0.14607146 0.15702052 -0.23887037 -0.0018569651
0003e0 18 3a ad 3d d9 94 26 bd 8a 75 04 3d 2c 37 ed 3d
       0.08458346 -0.040669296 0.032338656 0.11582789
0003f0 17 68 29 3e 55 8f 5e 3e 67 b0 fa bd b2 c1 cb 3d
       0.16543613 0.21734364 -0.12240677 0.09949054

value_fc2.bias f4 [32]
000000 55 ab be 3b 3f 83 7e 3c fd 2c b4 bc 94 58 a3 bd
       0.005818764 0.015534221 -0.021994108 -0.07975879
000010 fb 3b 25 3d 15 f1 ca 3d 40 a8 2b 3d 89 f5 18 3d
       0.040340405 0.09909264 0.041908503 0.037343536
000020 42 90 18 3d 05 86 cc bd 55 04 91 3c e6 1a 99 3d
       0.03724695 -0.099865 0.017702261 0.074758336
000030 b6 3c a7 3a 79 59 65 3d c9 bb 12 3e 44 9f 99 3b
       0.0012759182 0.05599353 0.14329447 0.0046881754
000040 a9 cb 72 3d 03 45 c3 3c 77 57 da bd c9 ae a2 bb
       0.059276257 0.023836618 -0.10661214 -0.0049646837
000050 81 b2 0c 3d 5f 26 5f 3d e1 7b 1e bd a7 12 3e 3e
       0.034349922 0.054479953 -0.03869236 0.18561803
000060 06 7b b1 bd 45 64 0e bb ab 19 64 3c 07 8f 23 3d
       -0.08666043 -0.0021727246 0.013922135 0.039931323
000070 d0 8b 4c bc e8 10 26 be c0 9f 9b bd f1 9d a6 3d
       -0.012484506 -0.16217387 -0.07598829 0.08135594

value_fc3.weight f4 [1, 32]
000000 4d ac e6 3d 8a 0e 56 3f d4 d2 56 bd 83 f8 a2 3d
       0.112633325 0.83615935 -0.052447155 0.07957556
000010 92 e7 55 3f 6f fd 0b 3d 76 65 94 3f 6e 9e 22 3d
       0.83556473 0.03417724 1.1593463 0.03970187
000020 1e 9c f9 3e 91 01 3a 3e 3c 57 3b be 65 7f 18 3f
       0.4875192 0.1816466 -0.18294996 0.5956939
000030 2f ec 82 be 4f 79 8d 3e 61 c9 02 be 7f 77 66 3f
       -0.2557082 0.27631614 -0.12772132 0.90026087
000040 70 29 27 bd f7 99 e6 bd c7 15 ce 3d 1f 36 8c bc
       -0.040811002 -0.11259835 0.100627474 -0.01711565
000050 3b 96 32 be 2d bb 23 3f db 03 fd 3c c5 21 aa bd
       -0.17440121 0.6395748 0.030885627 -0.08307222
000060 33 7c 88 be ac 67 66 bc 06 42 5e bd 9c 91 41 bd
       -0.26657256 -0.014062803 -0.054262184 -0.047258005
000070 03 ce 83 3f 30 88 df 3d cf 1a 10 3e 35 9f 0f 3d
       1.0297245 0.109146476 0.14072727 0.03506394
