rl/model/spin.pt (torch_old, 160482 bytes, 12 tensors)

log_std f4 [57]
000000 e1 bf 0e bf 7d ac 37 be 76 b6 13 bf 94 4d d5 be
       -0.55761534 -0.17936893 -0.5770029 -0.4166075
000010 1f bf 1d be 6c 69 b9 be d1 a7 28 3e 95 01 f2 bd
       -0.15404938 -0.36213243 0.16470267 -0.11816708
000020 40 77 c7 bc 8c 93 91 bd da ad 8c be 20 9d 5f 38
       -0.024348855 -0.071082205 -0.27476388 5.3313677e-05
000030 67 07 3f be 51 24 08 bd f0 8c 9f 3d af f7 0a 3e
       -0.18655168 -0.03323776 0.077905536 0.13571046
000040 08 31 51 be d3 b2 da bc 34 b5 a8 bd a2 c1 33 be
       -0.2042886 -0.026696598 -0.08237687 -0.17554334
000050 49 01 5d bd 90 81 1c 3e 4a d1 34 be 53 95 c4 3d
       -0.053956304 0.15283799 -0.17657962 0.09598794
000060 d1 7d a0 3d 0f b4 e6 bd b7 43 1b 3d a8 bd a0 3d
       0.078364976 -0.11264812 0.037906375 0.07848674
000070 1b 71 80 be 3e 77 74 3c 5b 11 61 bd 3a 5f bb bd
       -0.25086293 0.014921008 -0.054948192 -0.091490224
000080 c0 3d cf 3c fa 39 99 3d e2 a4 93 3d 7f 5f a3 bd
       0.025298 0.07481761 0.07209183 -0.07977199
000090 4e 61 a1 bd 87 30 29 3d b7 0f b1 bd f8 3f cf bd
       -0.078798875 0.041306045 -0.086455755 -0.10119623
0000a0 6a 06 10 be 9b cd cc bd 5e 18 1d 3c 7e e7 ba 3d
       -0.14064947 -0.10000154 0.009588329 0.09126185
0000b0 6c 3e 83 bd f9 f9 64 be e7 51 73 3d c0 97 2c be
       -0.064083904 -0.22360982 0.05940428 -0.16854763
0000c0 a0 81 c2 3c 61 8c 85 bc 7e 69 66 bd 41 91 d9 bd
       0.02374345 -0.01630229 -0.05625295 -0.10623408
0000d0 76 c7 6a 3b d7 85 99 bd 99 3d f9 bc 25 e9 59 bd
       0.0035824454 -0.07496231 -0.03042488 -0.05320086
0000e0 db a4 b5 bc
       -0.022173336

policy_fc1.weight f4 [64, 261]
000000 46 a3 d1 bd de ec f7 3d 00 d5 95 bb b0 ee 99 3d
       -0.1023622 0.12105726 -0.0045725107 0.07516229
000010 c5 08 15 3d 86 c5 a1 3d 4b fb 50 3d 18 62 87 3e
       0.036385316 0.07899003 0.0510209 0.26442027
000020 ab 84 26 bc 09 da 01 3e f3 e8 24 bd 1a e1 56 3d
       -0.010163466 0.1268083 -0.04026122 0.052460767
000030 32 c7 40 bd 3b dd 94 bd 44 bb 9d bd dc c1 46 3d
       -0.047064967 -0.07268759 -0.07701734 0.048524722
000040 f8 74 82 bb 5d 8b 6e bc 5c a7 11 3d 90 69 5b be
       -0.003981229 -0.014559594 0.035559997 -0.21426988
000050 0c c1 81 bd 3a 0a f5 bd 6d eb 45 be d2 ab ef bc
       -0.06335649 -0.11964841 -0.19328089 -0.029256735
000060 33 39 3c be f2 66 28 3c e9 bf 87 bd 97 40 37 be
       -0.18381195 0.01027845 -0.06628401 -0.17895733
000070 f6 c7 ee 3d ed 4a b8 3c 86 98 e0 3d 7d 78 e1 3d
       0.11659233 0.022496665 0.109665915 0.110093094
000080 d9 90 1f be 70 03 35 3d 41 c3 9f 3d 3d 19 b3 bd
       -0.15582599 0.04419273 0.078009136 -0.08745048
000090 db f4 d8 bd 03 81 0d 3d 47 76 98 3d 12 2f 07 3e
       -0.105935775 0.034546863 0.074444346 0.1320155
0000a0 18 27 c7 bd 6a d7 b7 bc b2 3b ee bc e4 e0 5e be
       -0.097242534 -0.022441585 -0.0290812 -0.21765476
0000b0 ba a1 02 be 0b aa 9c 3d 74 b5 03 be 39 ea 37 be
       -0.12757006 0.076496206 -0.12862188 -0.17960443
0000c0 e1 ec 88 3d c2 3a 3c bd 3d c0 07 be 5e fb 92 bd
       0.06685806 -0.045954473 -0.13256927 -0.07176851
0000d0 30 dc d1 bd 6f 97 e0 bd c8 87 48 be d7 3b 29 3e
       -0.102470756 -0.10966384 -0.19583046 0.16526733
0000e0 d9 6b 2a 3d 24 37 c7 3b 24 f4 78 3d 93 cc 0e be
       0.041606758 0.0060795713 0.060779706 -0.13945226
0000f0 89 db f8 bc b4 66 32 be fd 5d e2 bd 80 02 c2 3c
       -0.03037812 -0.1742199 -0.11053083 0.023682833
000100 6a bf e2 3d cc fb a1 3d 4f cb 59 3e 0d 18 75 be
       0.110716656 0.079093546 0.21268962 -0.23934956
000110 71 93 43 be ee 52 76 bd 1e 53 86 3c 59 1e 3c bd
       -0.19099213 -0.06013768 0.016397055 -0.04592738
000120 32 7d 2f be 41 97 05 be f9 e9 c6 bc 0f 47 09 be
       -0.17137602 -0.1304598 -0.024281489 -0.13406013
000130 42 aa ec 3d 1a 74 fd bd 78 33 87 3d 4e 16 9d bb
       0.115559116 -0.1237566 0.06601614 -0.0047939187
000140 aa 0d f1 3d c3 ae fc 3c 7f 72 23 3e f8 74 61 3e
       0.11770184 0.030845052 0.15961646 0.22017276
000150 94 8a bc be 6f 50 89 3d 5d 25 45 bd 5a 72 53 3d
       -0.36824477 0.067047946 -0.048131336 0.051622726
000160 56 8b 4f be 39 32 08 3b 4e 4d c7 3d fa 66 0a bd
       -0.20267996 0.0020781888 0.097315416 -0.033789612
000170 2e 88 22 be 14 d8 e6 bd 4f 59 16 3e 06 34 38 3d
       -0.15872261 -0.112716824 0.14682506 0.04497149
000180 d2 09 0c be cd 05 0b bb 3e 9d 84 bd ba f2 95 3d
       -0.13675621 -0.0021213174 -0.06475304 0.07321687
000190 dc 6f 87 3c 24 c0 74 3d 51 08 a7 bc 8f d3 2c 3d
       0.01653283 0.059753552 -0.020389708 0.042193945
0001a0 16 f9 1c 3e 27 9a 9b bd 04 61 bb 3e 31 75 50 bb
       0.15329394 -0.075977616 0.36597455 -0.0031808133
0001b0 8a 05 4e 3d 50 45 26 be b1 5b 81 bc f7 36 63 bd
       0.05029825 -0.16237378 -0.015790792 -0.05547234
0001c0 94 35 49 3e 93 a2 34 bd 53 d3 cd bd 9a 27 f9 3b
       0.19649345 -0.044100355 -0.100500725 0.007603598
0001d0 6b 65 53 3d 41 54 2f bd 89 99 e2 bd 05 b9 c4 bc
       0.05161039 -0.04280496 -0.11064441 -0.024014005
0001e0 5e d1 f2 bd 49 e2 94 bd 87 bf 22 be b8 54 cc 3c
       -0.1185634 -0.07269723 -0.15893374 0.02494274
0001f0 2c 8c 01 be b9 2c 11 3d d9 6b 88 bd d3 6d 1e 3e
       -0.12651128 0.03544304 -0.06661195 0.15471582
000200 49 44 30 bd 7b 83 1f be dd 16 5a 3d 77 95 81 bd
       -0.04303387 -0.155775 0.05324446 -0.06327336
000210 c4 e0 e0 3c f6 c9 78 bd d4 b0 0d bd 7f 54 00 be
       0.027450927 -0.06073948 -0.034592465 -0.12532233
000220 d1 a6 08 3e b9 3d d2 bd bc d2 1e 3e db 2b 71 bd
       0.13344885 -0.10265679 0.15510076 -0.058879714
000230 86 99 23 3e b3 96 02 be 5f 9f 51 bd bc e6 c7 bb
       0.15976533 -0.127528 -0.05117738 -0.0061005037
000240 e4 6e 0a bd 69 00 19 be 58 6d cb 3c 5f be 02 be
       -0.03379716 -0.14941563 0.024832413 -0.12767933
000250 d1 6d e9 bd ef cd f2 bd fc aa cb bd e1 16 48 3d
       -0.11397899 -0.11855685 -0.09944722 0.048849944
000260 bf 87 32 be 2a 58 64 3c 07 b1 46 be d8 0d 8a bd
       -0.17434596 0.013937036 -0.19403468 -0.06740922
000270 52 01 63 bd d8 9c e4 bd 79 cf 44 be fb 2a 91 bc
       -0.05542118 -0.11162728 -0.1921977 -0.01772069
000280 96 c3 22 be eb b2 bb bd 4a 4c a1 bd c5 bd 92 bd
       -0.15894923 -0.09164985 -0.07875879 -0.07165102
000290 38 b0 a3 bd 24 70 8e 3d 45 ca 88 3b 9b d4 27 3e
       -0.079925954 0.06954983 0.004174503 0.16389696
0002a0 a7 fa 5d be 0a 1d ed 3b 54 b6 31 be 97 92 83 be
       -0.21677648 0.0072361277 -0.17354709 -0.25697777
0002b0 e0 4a 6d bd d2 7c 38 3c bb e2 26 bd 0c 0d 5a 3d
       -0.057932734 0.011260228 -0.04074357 0.0532351
0002c0 70 9c 1b 3c ba 8b 55 be 1b 9b f5 bc 6e aa 0a 3e
       0.009497747 -0.20854083 -0.029981187 0.13541576
0002d0 44 17 09 be 56 4c e2 bd 18 33 fe bb f4 7e 24 be
       -0.13387781 -0.11049716 -0.0077575557 -0.16064054
0002e0 44 93 01 3e 30 29 33 bd 7f 3e bf be f4 ad 29 3e
       0.12653834 -0.04374045 -0.37352368 0.16570264
0002f0 fd 06 02 be 66 52 07 be 00 bf 46 be c4 16 1c bd
       -0.12697978 -0.13215026 -0.19408798 -0.03810765
000300 42 a8 db 3c 4e 6a 39 be 52 72 60 3d 00 73 a9 bd
       0.02681363 -0.18106958 0.054796524 -0.08273888
000310 b6 4a 0c be 45 59 c4 bd 4b a2 f7 bd 66 ca 7f be
       -0.13700375 -0.09587339 -0.12091502 -0.24979553
000320 09 00 60 be 9e 9f b5 3d 1e a6 32 3d a8 db 27 3e
       -0.21875013 0.08868335 0.043615453 0.16392386
000330 ed cb ed 3d 2a 9f 69 3d 0c 9f 3e 3e e4 fe 40 3d
       0.116111614 0.057036556 0.18615359 0.047118083
000340 40 5c c4 3d 52 8f 23 bd b8 c8 9a bd bb 3b a2 3e
       0.09587908 -0.039931603 -0.07557815 0.31686196
000350 a1 ae b2 3c c3 4f 34 3d 72 a5 47 3e 3f ab 3b bd
       0.021811785 0.04402138 0.19496706 -0.04581761
000360 57 01 e2 3b b0 5e d2 3d 29 b0 b0 bd c5 36 0e be
       0.0068971324 0.102719665 -0.0862735 -0.1388808
000370 35 14 47 bd 00 a9 84 3d 6e 37 14 be a0 35 b7 3c
       -0.048603255 0.06477547 -0.1447427 0.022364438
000380 da ad 15 3d 5f 16 80 bc 43 ac 06 3e ad 8d 96 3d
       0.03654275 -0.015635667 0.1315165 0.07351241
000390 6e a8 97 3e 6a 61 41 3e bd 24 de bd 3c 13 6c 3e
       0.2962069 0.18884817 -0.10846851 0.23054212
0003a0 00 75 28 3e 96 27 8a 3d f9 b9 29 3e 4f 35 0a 3e
       0.16450882 0.06745832 0.16574849 0.13496898
0003b0 e8 47 00 3e 29 a1 36 3c 8f 66 c3 3e 36 f0 dc bd
       0.1252743 0.011146822 0.38164183 -0.10788004
0003c0 ad 49 68 3e 68 6c 21 3e 15 b6 c6 be eb 60 0b 3e
       0.22684355 0.1576401 -0.38810793 0.1361119
0003d0 25 31 9d 3d a7 ac 49 bd bf 82 07 3e 52 81 9b 3e
       0.07675389 -0.04923692 0.1323347 0.303721
0003e0 de a2 eb bd a9 52 17 3e bc e9 9c bb 45 2f 36 3e
       -0.11505674 0.14777626 -0.0047886055 0.1779147
0003f0 63 13 7d 3e 99 e1 db 3d ef 04 40 bc d3 9a 53 3e
       0.24714427 0.10736389 -0.011719926 0.2066453

policy_fc1.bias f4 [64]
000000 e8 a1 34 bd 7d 65 41 3b d5 84 72 bd f8 c9 17 bc
       -0.04409972 0.0029509955 -0.05920871 -0.009264462
000010 36 4a a8 3a c1 e4 92 bc b4 33 f8 bc 18 23 92 bd
       0.0012839499 -0.017931344 -0.030298091 -0.071356
000020 f5 e1 99 bd 6e 63 ae bd 60 db 88 bb 4d 35 83 3b
       -0.07513801 -0.085150585 -0.004176542 0.0040041567
000030 f6 72 37 3c 2c dc a2 3a 8e 86 64 3c 80 f1 28 bd
       0.011196842 0.0012425235 0.013948096 -0.041245937
000040 44 e9 3a 3b 05 d3 85 bd 7e e9 72 bb 88 1f 96 3c
       0.0028520385 -0.065343894 -0.0037065442 0.018325582
000050 32 e3 0c bd da 1a c5 bc 7d 85 ee bb 96 89 0f bb
       -0.034396358 -0.024060655 -0.0072790966 -0.0021902076
000060 df 91 05 bd 97 86 5f bc 60 50 7f bb a5 d4 aa bc
       -0.032609817 -0.013642929 -0.003895782 -0.02085335
000070 60 57 12 bd 05 1a c4 bc 96 62 ba bb d8 b0 4e bc
       -0.03572786 -0.023938188 -0.005688022 -0.012615405
000080 58 8b 72 3b 6b ae 80 bd 57 af 20 3c 42 ae 27 bc
       0.0037009325 -0.062832676 0.009807429 -0.010234417
000090 13 c7 68 bc 0c 89 61 bb 2c b7 e8 39 cc 56 4c 3c
       -0.014207619 -0.0034413962 0.00044386962 0.012471866
0000a0 09 e1 e7 bc dd cd 91 bd c9 bb 56 bc 95 20 df bc
       -0.028305547 -0.071193434 -0.013106295 -0.027237216
0000b0 42 d5 80 3b 68 0f b1 bc ab 9e a7 bd ba 83 e3 bc
       0.0039316723 -0.021613792 -0.081845604 -0.027772773
0000c0 64 d8 2d bc 7d 4e b6 bc fa 92 9b bd 87 88 72 bd
       -0.010610674 -0.022254223 -0.07596393 -0.059212234
0000d0 3b e9 94 bc cc ae 97 3b e1 f1 7a bc af 57 2e bc
       -0.01817762 0.0046289917 -0.0153164575 -0.010641023
0000e0 55 26 a9 3b fa 1a 02 bd 4f 39 e8 bb b1 12 0d bc
       0.0051620402 -0.031764008 -0.00708691 -0.008610413
0000f0 23 68 4c bd 96 2d 93 bd c1 75 5c bb ba 9d 63 bd
       -0.049904 -0.07186429 -0.0033639523 -0.05557034

policy_fc2.weight f4 [32, 64]
000000 da 04 65 be dc ec 24 be 4f 1a 33 3e a1 77 3d be
       -0.22365132 -0.1610598 0.17490505 -0.18502666
000010 03 ca 98 3d 3d ef e5 3d c0 b4 9c be 6a 8a 0e bd
       0.07460406 0.11227272 -0.3060665 -0.03479997
000020 e8 34 07 bd 95 81 34 3e 04 6d 90 be 45 6e 33 3e
       -0.03300944 0.17627557 -0.28208172 0.17522533
000030 17 d0 43 3e 01 39 97 3d 59 26 40 3e b0 28 62 bd
       0.19122349 0.073839195 0.18764628 -0.055214584
000040 97 6b 6d bd 24 8d cc bd da b5 ec bb b7 bb ec bd
       -0.057963934 -0.09987858 -0.007223827 -0.11559241
000050 3c a7 6f bd dc 83 b0 be dc 9b ae 3e 66 be b0 bc
       -0.058509097 -0.344756 0.34103286 -0.021575164
000060 f5 f6 c4 3d 49 53 f6 3d 51 da eb 3e 36 2f a8 3d
       0.09617416 0.12027604 0.46065 0.0821213
000070 95 1a a7 be de 46 8a be 6a e1 f5 bd b1 4c 0f 3d
       -0.32637468 -0.27007192 -0.12005885 0.034985248
000080 28 8f 2c 3d e4 3e 55 be 25 34 22 be 22 d7 a1 be
       0.042128712 -0.20824772 -0.15840204 -0.31609446
000090 5c 8b 01 be e4 69 29 be 8c 31 f7 bd 0f b0 9c 3e
       -0.12650818 -0.165443 -0.12069997 0.30603072
0000a0 68 d0 07 be c5 c1 ad be 87 4c 9e 3d e0 e7 20 be
       -0.13263094 -0.33936897 0.0772944 -0.15713453
0000b0 2a 1c 11 be 64 79 61 3e af c3 97 3d 75 b8 09 3e
       -0.141709 0.22018963 0.074103706 0.13449271
0000c0 b5 ee 82 bd 5c 51 11 3e 57 47 c9 bd 56 b6 30 3e
       -0.06393186 0.14191192 -0.0982806 0.17257056
0000d0 14 0e 5d 3d 85 13 34 be 15 4a 86 be b7 91 8b be
       0.053968504 -0.17585571 -0.26228395 -0.2725961
0000e0 28 b4 a7 3c 48 56 99 be 6c ae 0d be 9d 09 0e 3e
       0.020471647 -0.2994864 -0.13836068 0.13870855
0000f0 42 c4 68 be 5b 5d 01 3d af 24 27 3e bf 37 12 be
       -0.22731116 0.03158317 0.16322587 -0.14279078
000100 5e 74 7c 3d e0 fa 88 3e 92 43 f8 3d a7 84 7e be
       0.061634414 0.26753902 0.12122263 -0.2485529
000110 2e 68 a0 3d fa 4a 84 be 77 21 88 3e 02 d2 cd 3d
       0.07832371 -0.25838453 0.26588032 0.100498214
000120 85 17 c7 bd 9a 79 f3 3c bd ea 53 bd 06 36 cf 3d
       -0.09721283 0.02972107 -0.051737536 0.10117726
000130 d3 4d 69 bd ee 5f 48 3e 5c b7 a2 bc b6 e5 c2 bd
       -0.056958985 0.19567844 -0.019862823 -0.0951647
000140 bc 0b 0d 3e 26 e8 21 bc f0 97 66 be e9 ef f4 bd
       0.13774008 -0.009882009 -0.22518897 -0.11959822
000150 43 e0 0e 3e 50 e4 23 be 92 56 3e 3e c2 df 50 3e
       0.13952737 -0.16005063 0.18587711 0.20397857
000160 35 cf 73 3d 4f fd 38 be 4d 3a 35 3d dc 7c 03 3e
       0.05952378 -0.1806538 0.044245053 0.12840599
000170 80 26 17 be dd 9c 33 3b 7e 2c a3 bc 38 b9 2d 3d
       -0.1476078 0.002740673 -0.019918676 0.042412966
000180 34 0b 28 3d 82 3a b1 bc 55 c9 85 be dd f9 a8 bd
       0.04102631 -0.021634344 -0.26130167 -0.08250783
000190 45 0a 8c be d5 58 fc 3d 05 73 65 3c bb 60 f6 bd
       -0.27351585 0.12321631 0.014004474 -0.120301686
0001a0 60 94 82 3e 68 e1 ec 3d 33 cd d2 bd b3 95 82 3d
       0.25503826 0.1156643 -0.10293045 0.06376209
0001b0 08 ee 61 be 4c 0f 2c 3e 11 9f 6a 3d 6e e6 75 bd
       -0.22063458 0.1680271 0.057280604 -0.060034208
0001c0 ab 5b b0 3d 35 8e 93 bd 1a 64 2f 3e 95 cc 85 3c
       0.08611234 -0.07204858 0.1712803 0.016332904
0001d0 11 47 a1 be 3e 55 76 be 3c 7e 0c be c6 50 26 be
       -0.31499532 -0.24055955 -0.1372003 -0.1624175
0001e0 20 0e be 3e 40 29 34 be 71 64 66 3e 00 93 38 be
       0.37120152 -0.1759386 0.22499253 -0.18024826
0001f0 1a 4a de 3d 96 3d 45 be 81 b8 7b bd 57 35 93 3e
       0.108539775 -0.19261774 -0.061455254 0.28751633
000200 bf e6 53 bd 0b 46 26 be 79 4d eb bd 27 e8 54 be
       -0.05173373 -0.16237657 -0.11489386 -0.20791684
000210 cf 82 7b bd b9 90 bf bd dd e3 ae 3d 38 a1 6b 3e
       -0.061404046 -0.093537755 0.08539555 0.23010719
000220 b9 71 16 3d e0 ca 9f bd 4f 06 60 3e 20 6c 20 bc
       0.036729548 -0.07802367 0.21877407 -0.009791404
000230 6a 8b 56 3e ce ca f9 bd fe 1e 6a 3e fc 2f 66 3e
       0.2095162 -0.12196885 0.22863385 0.22479242
000240 00 fd 57 3e 71 70 fd bd e7 72 7d bd 6a b8 84 be
       0.21092606 -0.12374962 -0.061877158 -0.25921947
000250 8e 91 eb 3d 5a 17 2a 3e 31 bf 13 bd 9a 9b 5f 3e
       0.11502372 0.1661047 -0.036071006 0.21836701
000260 e8 d9 ff bd f0 51 f8 3d ff 5c 23 be 85 43 8a 3d
       -0.12492734 0.12125003 -0.15953444 0.067511596
000270 79 48 30 be f2 60 49 bd 6f 2d 27 3d 47 eb d8 3d
       -0.17215146 -0.04916472 0.040814813 0.105917506
000280 b0 d4 10 3d fd 1d e9 bc 1d 05 ea 3d 3b c2 e8 bd
       0.035359085 -0.028456682 0.114267565 -0.113651715
000290 83 b3 1b be ea 6b 96 3c bf 74 b5 bd a8 e5 a2 3d
       -0.15205197 0.018362004 -0.08860158 0.0795396
0002a0 f7 a6 0a be 41 cd be 3c 74 d7 2a 3e e6 a1 83 3e
       -0.13540255 0.023291232 0.16683751 0.25709456
0002b0 d2 fc 0e 3e 5e b9 e1 bd e0 a2 90 3e b7 7e 2a 3e
       0.13963631 -0.11021684 0.28249264 0.166499
0002c0 15 95 1f 3d af 5e 3d 3e d0 17 22 3e f4 b6 88 bd
       0.038960535 0.1849315 0.15829396 -0.066755205
0002d0 e4 4b 03 3e 90 44 af 3d 87 b1 ba bd 6e 0e 4e 3e
       0.12821919 0.08557999 -0.09115892 0.20122692
0002e0 1d 9b eb 3d 4e 0b c8 3e a2 2e 7d 3e 56 6b 1e be
       0.11504195 0.39071125 0.2472482 -0.15470633
0002f0 9f 29 4a bc dc 36 0e 3d a2 b6 a2 bd 4c b4 e1 3d
       -0.012339025 0.034720287 -0.07944991 0.11020717
000300 03 03 b9 3d 2a a4 cb 3d 4e b6 ee 3d 42 8a fd bd
       0.090337776 0.09943421 0.116558656 -0.12379886
000310 e5 01 4b be 05 5d 70 3e 7f ab 01 bc e9 b0 ff bc
       -0.19824941 0.23472984 -0.007914423 -0.031212287
000320 02 0e 64 3c 70 de 3a 3e c4 3d 35 3e e7 63 f1 be
       0.013919355 0.18248916 0.17699343 -0.47146532
000330 7e e2 d9 3c d3 e6 42 be c2 84 33 be 0f 4a 0d be
       0.026597258 -0.19033365 -0.17531112 -0.13797782
000340 35 83 4f 3e 05 69 f5 3d e8 c1 98 3e f7 e1 0c 3e
       0.20264895 0.119829215 0.2983544 0.13758074
000350 de 74 a8 bd 73 68 1b be 7d ab b2 bd 26 b5 02 3e
       -0.08225416 -0.15176563 -0.08724115 0.12764415
000360 09 73 10 3d e4 47 a2 be c6 42 38 3d e3 8c 11 bc
       0.035265956 -0.31695473 0.044985555 -0.008883688
000370 17 54 55 3e b2 10 d4 3d 5c 27 6e be 2a d0 51 3e
       0.20832859 0.10354747 -0.23257202 0.20489565
000380 29 f1 6e bd c2 57 8d bd e8 40 c3 bd 72 c8 1b bd
       -0.058335457 -0.06901504 -0.09533864 -0.038032956
000390 0f 15 b6 bd 78 14 24 be 1f cd 49 3e e9 5a ef be
       -0.08890735 -0.16023433 0.19707154 -0.46749046
0003a0 27 a0 4d 3e 97 e3 b1 bb af 03 0f bd e7 9a f1 3d
       0.20080625 -0.005428742 -0.034915622 0.117971234
0003b0 f5 bf 5d be 45 58 16 3e 68 52 43 3e ce 43 25 3e
       -0.21655257 0.1468211 0.19074404 0.16139147
0003c0 29 cd 3e be 92 a3 41 bd 22 2c 3f 3e dc 7e 94 bd
       -0.1863295 -0.047275133 0.18669179 -0.07250759
0003d0 8d 3c 65 3d 2f 80 2a be 69 e5 ae 3d 71 5e d4 3d
       0.05596595 -0.1665046 0.0853985 0.10369576
0003e0 30 10 cb 3b 0c 74 da 3d 60 dd 8e ba cd 57 5b be
       0.006196998 0.106666654 -0.0010899715 -0.21420212
0003f0 e6 71 32 3d 28 ff 81 be 36 73 55 be 45 8c 08 3d
       0.043565653 -0.2538998 -0.2084473 0.033336896

policy_fc2.bias f4 [32]
000000 b0 6c 9b 3d 53 3c 40 3d e4 dd 58 bd 9d 7d 10 be
       0.0758909 0.04693253 -0.052945986 -0.14110418
000010 c9 fc 12 3d 06 25 96 3c 35 18 21 bd 7d a5 60 3d
       0.035885606 0.018328201 -0.039329726 0.054845322
000020 e1 df cd 3d 66 65 32 bc 70 66 1c 3d d8 2a 7b bc
       0.10052467 -0.010888433 0.03818363 -0.015330039
000030 88 77 04 bd 00 ca 52 3d 27 a7 66 3d 91 ce 0f bb
       -0.032340556 0.051462173 0.056311753 -0.0021943192
000040 b5 95 c9 3c 78 30 e7 bc 8f ba fe bc a9 c0 4d 3d
       0.024607519 -0.028221354 -0.031094817 0.050232563
000050 fb 54 8f bc 1e a2 c2 bc 74 12 31 3d 3d 6a 80 bd
       -0.017496577 -0.023758944 0.04323049 -0.06270263
000060 98 f4 fd 3b 87 58 57 bc c9 98 9d 3d d5 31 64 3d
       0.007750105 -0.013143665 0.07695157 0.055711586
000070 ec cf 7d 3d 1b ad ef 3c c0 08 54 3a ba ae 26 bd
       0.061965868 0.029257348 0.0008088462 -0.040693976

policy_fc3.weight f4 [57, 32]
000000 b6 d1 1c 3d 31 54 8d 3d 61 a4 1d be 47 ef 34 3d
       0.038285933 0.06900824 -0.15394737 0.044173505
000010 e4 25 2a 3e d2 07 09 be 06 3b 40 be 10 81 99 3e
       0.16616017 -0.1338189 -0.18772516 0.2998128
000020 78 ec 36 3e 6d da d0 3d 4a e9 18 be 04 15 43 3e
       0.17863643 0.101979114 -0.14932743 0.19050986
000030 a9 d4 a1 bd 6c 2f 98 3d 03 3a 84 bd b2 50 30 3e
       -0.0790189 0.0743092 -0.06456377 0.17218283
000040 ce 43 23 be 8d b4 25 bd 20 fb 07 3e 74 c4 1e 3e
       -0.15943834 -0.04045539 0.1327939 0.15504628
000050 03 c8 92 3d 34 68 56 3c 2f 2d a0 bd e2 b9 2a 3c
       0.071670555 0.013086367 -0.07821118 0.0104202945
000060 e0 eb 96 be 81 a9 1f 3e 3a c7 1a 3e 6a d9 cc 3e
       -0.29476833 0.15592004 0.15115061 0.40009624
000070 cc 71 6b 3e 1b 75 1d be 90 fb 3f be e9 56 4a 3d
       0.22992629 -0.15376703 -0.18748307 0.04939929
000080 e5 b3 1e 3e b8 0f d8 be 24 f5 64 3e ee 83 7c be
       0.15498312 -0.42199492 0.22359139 -0.24659702
000090 5c 1d 87 3e 75 3f 92 3d 0b 8f d2 bc df a4 32 3e
       0.26389587 0.0714101 -0.025702974 0.17445706
0000a0 b5 f7 93 3e 44 b0 06 3e 60 b4 bf be 48 12 32 3c
       0.28899923 0.13153177 -0.37442303 0.010868616
0000b0 5d 5d db bd 1f b9 a2 be 09 7a 8b 3e 06 db 31 be
       -0.10711167 -0.3178186 0.27241543 -0.17368707
0000c0 d2 61 9e 3d cd 78 44 be f5 51 6d be e1 03 31 3d
       0.077335015 -0.19186707 -0.23175795 0.04321659
0000d0 7d 94 49 bd fe d4 00 be 5b af b4 3c 33 a2 be bd
       -0.049213875 -0.1258125 0.022056272 -0.09308281
0000e0 8e dd 00 3d 95 f3 9c 3e a0 0b b5 3e 27 c1 97 bd
       0.03146129 0.30654588 0.35360432 -0.07409888
0000f0 44 04 84 3d 86 71 e3 bd 06 09 65 3e df 16 02 be
       0.06446126 -0.11105637 0.22366723 -0.12704037
000100 a3 b8 4f be a8 bd 3f 3e 95 b7 0c 3e 3b 4e 02 3e
       -0.20285277 0.18724692 0.13741906 0.12725155
000110 98 6b d6 bc 52 fc 70 3c f3 fc b0 bd 16 39 82 3e
       -0.026174352 0.014708595 -0.08641996 0.25434178
000120 79 ac a8 be d9 68 72 3c 15 80 11 3e f9 4d 05 bf
       -0.32944086 0.014795505 0.14209016 -0.520721
000130 21 c1 5a 3e ce 1c e7 bd 44 45 69 3d 63 d0 0f 3c
       0.21362735 -0.11284791 0.056950822 0.008777711
000140 ec 0b 80 3d 85 d4 04 3e 2b 30 8c 3e 9e f4 50 3e
       0.06252274 0.12971695 0.273805 0.20405814
000150 dd 03 4a be a6 c3 68 bd df 8c db 3d 7e 0c 17 bd
       -0.19728036 -0.05682721 0.107202284 -0.036877148
000160 87 ac b2 be a8 77 1c be cc 46 9e 3d bb 46 b6 bd
       -0.34897253 -0.1528002 0.07728347 -0.089002095
000170 ba 12 f1 3d bf d0 1e be a9 8b 8c bb 8d 86 70 3e
       0.1177115 -0.15509318 -0.0042891097 0.23488827
000180 ae f7 42 3e 07 97 10 be 58 a5 15 3e 9c 7a 6b 3c
       0.19039795 -0.14120112 0.14613855 0.014372494
000190 73 c6 99 bd 39 07 47 be 74 95 d1 3e 29 85 62 bd
       -0.07508554 -0.19436349 0.40934336 -0.055302773
0001a0 ce ca 76 be ba be 14 bd 35 c0 4a 3e de 5e 55 bd
       -0.24100801 -0.036314704 0.19799884 -0.052092426
0001b0 9d f5 d1 bd d4 9a 65 3e 18 9c cc 3c 39 93 b5 be
       -0.10251925 0.22422343 0.024976775 -0.35463884
0001c0 31 86 9f 3e ba 2d 8f 3e b8 08 d6 3c 36 87 bf 3e
       0.31157067 0.27964574 0.026127204 0.37407845
0001d0 38 0d ae 3e de 42 49 3e bf 71 90 3e a0 d7 58 be
       0.3399446 0.19654414 0.2821178 -0.21176004
0001e0 46 ec 8e be 53 ff a4 be 8f 97 59 be 81 e4 89 bd
       -0.27914637 -0.32226047 -0.21249221 -0.06733037
0001f0 bd 98 04 3d 36 a6 13 bd 82 6f bf 3d 15 44 31 be
       0.032372225 -0.036047183 0.0934744 -0.17311127
000200 26 ad 10 3e f9 df 94 bb 64 f3 dd bd 9d 92 ea bd
       0.14128551 -0.004543301 -0.10837439 -0.114537455
000210 65 9a a0 be dc 55 74 3e a6 5f 51 be ea c2 a5 3d
       -0.31367794 0.23860878 -0.20446643 0.080938175
000220 40 dc 9b bd 35 95 ce ba 76 ce 29 bc e0 17 58 3e
       -0.07610369 -0.001576102 -0.0103641655 0.21102858
000230 60 26 c8 be 56 71 f4 bd d1 43 c0 3d b8 26 e7 39
       -0.39091778 -0.119356796 0.09387935 0.000440886
000240 66 2f 6b bb 2b 09 41 bd f3 4a 2d be 24 f7 48 be
       -0.0035886406 -0.047127884 -0.16923122 -0.19625527
000250 a5 45 35 bd 8e 5c bf be 6a bc 5a be b8 fa 76 be
       -0.04425587 -0.373753 -0.21360937 -0.24119079
000260 c0 70 01 be 91 53 bb bd 20 61 8a 3e ca 9c c8 be
       -0.12640667 -0.091467984 0.27027225 -0.3918212
000270 3a 9d d0 3d 49 d3 a2 be d5 bf 1a 3e 40 02 29 3d
       0.101862386 -0.31801823 0.1511224 0.04126191
000280 cc af ab be 71 73 91 be 56 00 83 bd 98 89 92 3d
       -0.3353256 -0.28408387 -0.063965484 0.0715515
000290 e7 ff 08 be ca 47 1d be 66 d5 06 3e bb dc 5e be
       -0.13378869 -0.15359417 0.13167343 -0.2176389
0002a0 94 16 3c be 70 36 55 3e fe a7 62 bd 8c 10 68 3e
       -0.18367988 0.20821548 -0.05533599 0.22662562
0002b0 1f 4b ac 3e 59 03 92 3c 11 dc d6 be 70 67 aa 3e
       0.33651063 0.017823862 -0.41964772 0.33282042
0002c0 f3 9c c6 3e ab 27 fa 3c 6c 75 11 3e 0a f1 99 be
       0.38791618 0.030536493 0.14204949 -0.3006671
0002d0 3c 9a 8e 3e 25 d6 5c bd 06 9f c4 bd fc 3c d0 3c
       0.27852046 -0.05391516 -0.09600644 0.025419705
0002e0 c0 0b 78 3e b2 a7 42 3e e7 0f ab bb d7 11 2d be
       0.24223232 0.19009283 -0.0052204016 -0.16901337
0002f0 48 16 11 bf 90 bf 47 3d 4c 61 2b be 48 63 68 be
       -0.56674623 0.048766673 -0.16736335 -0.22694123
000300 4b 54 af bc 58 8a 27 be 2d ef a6 be c0 84 fb 3d
       -0.021402499 -0.16361368 -0.32604352 0.122811794
000310 54 f9 03 bd 2f dc 51 3d 14 fc 69 be 89 ec 22 3e
       -0.0322202 0.051235374 -0.22850066 0.15910544
000320 05 19 35 3d 66 a0 0c be e1 1e 6c be 39 24 03 3e
       0.044213314 -0.13733062 -0.23058654 0.12806787
000330 4c e6 1b 3e bc d5 e4 bd 03 a8 2b bd 9b 89 1a be
       0.1522457 -0.11173579 -0.041908275 -0.15091555
000340 a2 ff 97 bd 13 e2 84 be 16 db f7 bd 89 8c 77 bc
       -0.07421805 -0.2595373 -0.12102334 -0.01510919
000350 82 b6 4e 3d 15 29 33 3c 84 84 7d be c3 7d 8c 3e
       0.05046702 0.010935088 -0.24757582 0.274397
000360 0c 55 81 bc b0 bd 5d 3e b3 c2 37 3e d9 bc 2b be
       -0.015787624 0.21654391 0.17945366 -0.16771258
000370 5c 08 30 3e f0 8b 18 be 16 83 e6 3d d7 d3 1f bd
       0.17190689 -0.14897132 0.112554714 -0.039020386
000380 68 41 70 3e d4 66 05 be 72 04 74 be ec 7c 97 be
       0.2346245 -0.13027507 -0.23829821 -0.29587495
000390 b7 87 9e 3e 24 a1 26 3e 7f 79 56 3d 2e 81 77 3e
       0.30962917 0.16272408 0.05236196 0.24170372
0003a0 f2 7d 45 be 80 ea 89 3e 1d 02 21 be 8c 4e 4c 3e
       -0.19286326 0.26936722 -0.15723462 0.19951838
0003b0 32 0f 1f 3d a9 60 25 be ef 42 9f 3e 7c 67 14 3e
       0.03883285 -0.16150154 0.31105754 0.14492601
0003c0 01 2e 88 3e 95 e4 97 bd a1 47 08 3e bb e9 fc 3d
       0.26597598 -0.074166454 0.13308574 0.12349268
0003d0 29 4a ae bd da db 32 3d 95 07 87 bc d6 15 ff 3d
       -0.08510239 0.043666698 -0.016483108 0.12455337
0003e0 5f 3f 09 3e 7c a9 14 bd 2e 80 fe bd f1 f4 19 be
       0.1340308 -0.036294445 -0.12426792 -0.15034844
0003f0 0a 54 c0 bd 45 0e 61 be 67 56 6f 3e 6e d3 38 3e
       -0.09391029 -0.219781 0.23372804 0.18049404

policy_fc3.bias f4 [57]
000000 39 7d e5 3c 78 9a 4d bd 5a 1e 3a be 9c c1 07 3e
       0.028013812 -0.05019614 -0.1817564 0.1325745
000010 b8 f3 d1 3d ad eb 1a be 7e 8a 01 bb 8d 60 0b 3e
       0.10251564 -0.15128966 -0.0019766386 0.1361105
000020 4f c1 34 bd 3f f8 00 3e b5 45 45 3d bf 82 bd bd
       -0.044129666 0.12594698 0.04816218 -0.092534535
000030 4b f1 af 3d 84 cd 9f 3d e6 3f a3 3b 11 61 84 3d
       0.08590945 0.07802871 0.0049819825 0.064638264
000040 1a e1 e6 3c 4d 6a 34 bd 76 f4 61 bd 23 e4 13 3d
       0.028183509 -0.04404669 -0.055164777 0.03610624
000050 ae df 48 bd 83 76 b2 3d 67 10 0f 3d 44 f1 d2 3d
       -0.049041443 0.087140106 0.034927752 0.10299924
000060 f9 72 2d 3d 21 d6 4a 3d ae 8b f9 bd 8f 5d 72 bd
       0.042345975 0.049520615 -0.12184845 -0.059171256
000070 e1 9b 32 bc 4e ba 82 3d a0 73 88 bd 94 3c f9 3c
       -0.010901422 0.06383191 -0.06662679 0.030424394
000080 21 2a 99 bd 5b d9 3a bd d7 f1 54 3e 70 58 ca 3d
       -0.074787386 -0.045617443 0.2079538 0.09880149
000090 ba ca 5f 3d 13 6a 2e bd 4f cc 82 3d 29 6b 03 bd
       0.054636694 -0.04258163 0.06386625 -0.032084618
0000a0 19 bd ee bd e1 fd ab 3a 62 a8 89 bc 34 0a 97 3d
       -0.11657161 0.0013121926 -0.016803924 0.07374993
0000b0 bd 18 5e 3d 21 7f 82 bd cb a4 82 3c 77 c2 6b 3d
       0.05422281 -0.06371904 0.01594772 0.057558503
0000c0 1a 9d 95 bd b1 f0 e9 3d b5 0c aa 3d 6e e5 8f 3c
       -0.07305355 0.11422861 0.08303205 0.017565455
0000d0 4c b2 37 bc b0 f0 1a bc 0e 0e a5 bd 6d c0 04 3e
       -0.011211943 -0.009456798 -0.08059321 0.1296403
0000e0 dd 40 90 3d
       0.07043622

value_fc1.weight f4 [64, 261]
000000 75 f3 8e 3d 82 d1 b3 3d 24 b1 76 3d ea 73 84 bd
       0.069800295 0.08780195 0.06022753 -0.06467421
000010 b1 ef 69 bd d3 5e 22 bd ff 9e 83 3d 87 60 33 be
       -0.057113353 -0.039641213 0.064268105 -0.17517291
000020 93 a6 8d 3d 2e 3a 28 bd 0f ef b2 bd be fd 0c bd
       0.06916537 -0.04107111 -0.08737003 -0.034421675
000030 c3 3a 5f be ab 11 70 3d 8f 3a 19 3e d2 58 be bd
       -0.2179976 0.0586106 0.14963745 -0.09294285
000040 d9 3e 26 3c 7a ce d9 bd 1b 40 a4 bc ac 9b ce bb
       0.01014682 -0.106350854 -0.0200501 -0.0063051786
000050 fe 51 c8 bc 32 0b 04 3d f6 43 55 3d ec b2 bb 3d
       -0.02445316 0.03223724 0.052066766 0.09164986
000060 1b b9 4c 3e 19 59 0c 3e 3f 16 99 3d 87 01 2b 3e
       0.19992487 0.13705863 0.07474946 0.16699801
000070 d6 f0 f1 3d bb cd d5 bd 53 65 c6 bd 1c 36 85 3d
       0.11813514 -0.104396306 -0.09687295 0.06504461
000080 5b 5f d9 bd d7 56 42 3e e4 ed 32 bd f1 70 f2 ba
       -0.10613891 0.1897844 -0.0436839 -0.0018496794
000090 90 91 8d 3c 1a 86 19 be bc af 0a 3d 5d 07 96 3e
       0.017281324 -0.14992562 0.033859 0.29302493
0000a0 b1 dc 15 be 2d 0c be 3d e5 bf d8 3d 15 df 4c 3d
       -0.14634968 0.09279666 0.10583476 0.050017435
0000b0 50 c0 d0 bb 03 07 e9 bc a3 c6 b6 bd fb d8 55 3d
       -0.0063705817 -0.028445726 -0.08924606 0.05220888
0000c0 15 a4 d6 bd b0 4e 17 be 6c 9f 03 be 41 bb 3e 3e
       -0.10480515 -0.1477611 -0.12853783 0.18626119
0000d0 62 1c f3 bb 1f 6e 17 3d 2d 3f 27 bd 5a 80 cb 3c
       -0.007419155 0.036970254 -0.040831733 0.024841476
0000e0 57 b8 f8 bd d5 11 37 be 98 dd 47 bd 34 af 55 3d
       -0.12144535 -0.17877896 -0.048795313 0.05216904
0000f0 55 cc 5f bd b8 b4 99 bc a2 d4 09 be e1 56 05 be
       -0.054638226 -0.018762931 -0.13460019 -0.13021423
000100 18 bb 59 3d ea ad e5 3d a8 de 51 3e ad 82 d1 bc
       0.053156942 0.11214812 0.20495093 -0.025575006
000110 19 32 bf 3d 9a 8f 40 3c 31 2d 99 3e f0 19 88 3d
       0.09335727 0.011752987 0.2991729 0.06645572
000120 8e 05 8d 3e 16 57 17 bd e1 bd 08 3e a1 f3 92 bd
       0.275433 -0.036948286 0.13353683 -0.07175375
000130 10 f7 19 3d 71 be b1 3d 76 0a 87 3d 58 e0 1e 3d
       0.037589133 0.08678902 0.06593792 0.03878817
000140 c9 11 8a bd 92 2b 06 bd 29 27 a1 bd d2 91 c3 bc
       -0.067416735 -0.032756396 -0.07868797 -0.023873243
000150 d5 4d 8b 3e bf 55 dc bd 54 10 49 be 6d ae 9e 3d
       0.2720782 -0.10758542 -0.19635135 0.07748113
000160 87 dc 29 3f 03 11 2d bd b3 74 34 bd e0 e9 f2 3a
       0.66352123 -0.04225255 -0.044056606 0.0018532835
000170 44 0d 62 3e f2 79 c5 3d e8 25 98 be 98 aa 63 3c
       0.22075373 0.096424 -0.2971642 0.013895653
000180 b6 7a bb 3e a1 d4 55 bd c0 22 cc bd 18 13 fa bd
       0.3661706 -0.05220473 -0.099675655 -0.12210673
000190 48 4e 71 bd 0e f2 ef bd 20 db c3 3d 27 b5 87 be
       -0.058912545 -0.1171609 0.09563279 -0.26505396
0001a0 2c 1e e0 bc dc 76 61 3d 26 68 b1 3d c4 b7 9a be
       -0.027358137 0.055044994 0.08662443 -0.30218327
0001b0 13 b9 93 3e 41 aa ac bd 7e 41 16 bd 89 dd 14 bd
       0.28852138 -0.08430911 -0.036683552 -0.036344085
0001c0 37 65 56 3d b8 6e 4f bc 80 42 84 3d 73 9c f0 3d
       0.05234262 -0.012660675 0.06457996 0.1174859
0001d0 1f b0 c3 3d 15 21 8d bd 77 a4 ae 3d b0 1f 21 bc
       0.09555077 -0.068910755 0.08527463 -0.009834215
0001e0 7b 6f 9d 3d 76 5a 98 bc f6 c4 50 3d c1 97 5d 3e
       0.07687279 -0.018597823 0.050969087 0.21639921
0001f0 fc f5 2a be 17 f1 f2 bc 78 7c 22 be ed 9d 6d 3e
       -0.16695398 -0.029655976 -0.15867794 0.23204775
000200 7e 2d ba bd 33 31 21 be 9d b2 61 bc ec ae 8f 3c
       -0.09090708 -0.15741424 -0.013775495 0.017539464
000210 73 30 8f bd 56 b0 96 3c 3b dd 2e 3d d8 5d 07 3e
       -0.06991663 0.01839463 0.04269145 0.13219392
000220 63 c0 15 3e e3 2e 87 bc 79 42 bd bd ed 53 61 bd
       0.14624171 -0.01650185 -0.09241194 -0.05501168
000230 31 71 9e bd 5f 77 58 3d b5 ec f3 3d a9 bc 8f 3c
       -0.07736433 0.052848216 0.11910383 0.017546015
000240 03 bd 73 bc aa e6 bf bd c6 6e 85 3e 22 18 b7 bd
       -0.014876607 -0.093701676 0.26061076 -0.0894015
000250 05 5c 5a bd 9c 8a 67 3e 19 74 20 3e c6 b8 bf bc
       -0.053310413 0.22611469 0.15669288 -0.023403537
000260 2e f3 35 3e 32 db 1f bd c4 fc bd bd 6c 7a 11 3e
       0.17768547 -0.0390274 -0.09276727 0.14206856
000270 25 64 f2 bd 19 ef cc 3c 08 d8 8b 3e a9 4f 26 be
       -0.11835507 0.025016354 0.27313256 -0.16241325
000280 e2 44 fa 3c be fa e8 3d ac 78 da bd db f2 bf 3c
       0.030550424 0.1137595 -0.106675476 0.023431232
000290 4c 1c b3 bc 17 2b 58 be 2a a6 c9 bd 54 da 3f bd
       -0.021864079 -0.21110187 -0.098461464 -0.046839073
0002a0 c9 4d d4 bd 99 e3 89 3d 45 00 6d 3e 0d 03 04 3e
       -0.10366399 0.06732864 0.23144634 0.12891789
0002b0 32 ec 30 bd ae 74 ba 3b 64 7f 46 3e a9 2b bc bd
       -0.043194003 0.005690179 0.19384533 -0.09188015
0002c0 17 eb 17 3e b9 7d 17 3e f3 c4 d7 bd 04 e1 02 3e
       0.14835773 0.14794053 -0.10535612 0.12781149
0002d0 ca 47 05 3d ed 9a 3f 3e a9 09 bc 3d 09 3e d5 bd
       0.032539167 0.18711443 0.0918153 -0.10412223
0002e0 97 94 23 3e 31 05 23 3e 4f 61 3a be 31 b8 46 3d
       0.15974651 0.15919949 -0.18201183 0.048515502
0002f0 0b 44 bc 3d bc 4d bb bd fd bd bb 3d 7c 57 7f 3e
       0.09192666 -0.09145686 0.09167097 0.24935716
000300 58 83 14 3e a0 71 eb 3d ba 21 c9 3d 27 70 8a 3d
       0.14503229 0.114962816 0.09820886 0.067596726
000310 62 58 e0 bb de 3e 33 bd 0a 9a 15 bd dd 2f db bd
       -0.0068464736 -0.043761127 -0.036523856 -0.107024886
000320 33 ce 16 3e 7f f0 06 3e d8 bc ac bc 4f 3e e2 be
       0.14727096 0.1317768 -0.021086141 -0.44188163
000330 33 01 93 bb 04 03 d5 bd 7b 82 19 3e 0f 2f 9b be
       -0.004486227 -0.10400966 0.1499118 -0.3030934
000340 e3 c9 59 bd ca a0 13 3e 7d 7b fe bc f7 6d 86 bc
       -0.05317105 0.14416805 -0.031064743 -0.016409857
000350 91 15 b9 bd 31 2d cf 3d b6 e0 a4 3a 30 e2 46 bd
       -0.090373166 0.101160415 0.0012579176 -0.048555553
000360 e2 ac 35 3d ac 85 20 be ee 0b 44 bd 19 53 8b 3d
       0.044354327 -0.15675992 -0.04786294 0.06802959
000370 1f 07 34 be 42 a5 ec 3d 97 7e 2f be 2d c9 31 be
       -0.17580841 0.11554958 -0.17138134 -0.17361899
000380 c6 eb 0d be 37 cd 0b 3d b2 3c 04 be 06 60 72 3b
       -0.13859472 0.034131255 -0.12913778 0.0036983504
000390 94 36 00 bc f1 48 89 bb 8e e2 31 bb e2 99 a4 bc
       -0.007825512 -0.0041896035 -0.0027143094 -0.020092908
0003a0 46 97 8e 3e ad e2 f2 bd 48 01 e7 3d 95 47 05 3e
       0.27849787 -0.11859641 0.11279541 0.13015588
0003b0 c5 c7 2c be 51 ed bf 3d f9 c3 60 3d d9 56 be 3b
       -0.16873081 0.093714364 0.054874394 0.005808693
0003c0 fd 4c 73 3d 46 e0 1c 3e ad d8 df bd de 7a bb 3d
       0.059399594 0.15319929 -0.109299995 0.091542944
0003d0 17 f1 29 3d 2d 83 15 be 67 e5 18 3e a0 9d 0d 3d
       0.041489687 -0.14600821 0.1493126 0.03457415
0003e0 97 42 55 3d 7e ad 30 be bc ab c3 3d 29 97 a8 3d
       0.05206546 -0.17253682 0.0955424 0.082319565
0003f0 b1 80 01 3e 3b 9a 0b 3e 4d eb 31 be 66 db 6a 3e
       0.12646748 0.13633053 -0.17374916 0.22935256

value_fc1.bias f4 [64]
000000 6e 95 f1 ba 09 87 07 3d 53 48 d6 bc 67 d1 5a bd
       -0.0018431374 0.033087764 -0.026157534 -0.053422358
000010 bd c8 85 3d b2 ab b3 bc 7a 25 c3 3c fc 37 18 3d
       0.065324284 -0.021932457 0.023821581 0.037162766
000020 b9 15 3a bd 95 95 85 3b 0b 59 e0 bc 16 d3 87 3c
       -0.045430873 0.0040766695 -0.027386209 0.016580146
000030 37 65 98 bc 98 96 5e bc 80 c4 e7 bb 7a 55 8e 3c
       -0.01860295 -0.013585709 -0.007072985 0.017374743
000040 bb 19 45 3c b4 ed 96 bc 7f 8a 1b 3b e4 e4 ec 3c
       0.01203006 -0.018423893 0.0023733673 0.028917737
000050 f6 0a cc 3b 1d 0d 96 3d 96 f7 94 3c 90 1a 9f bc
       0.0062268926 0.0732672 0.018184464 -0.019421846
000060 ec 01 02 bd 9d c8 4a 3c 63 10 86 3d a3 9a 5c 3c
       -0.031740114 0.0123769315 0.06546094 0.013464603
000070 32 38 18 bd 74 73 0d 3d 5a 65 23 3d 0c 48 d8 3c
       -0.037162967 0.034533933 0.03989158 0.026401542
000080 3e 8c 8f bd a8 a3 10 3d 6b 93 c5 3c b9 61 74 3c
       -0.07009171 0.035312325 0.024118146 0.014915877
000090 95 fb dc bb 88 06 0e bd 00 3d a7 bc 28 f1 41 3d
       -0.006743858 -0.034674197 -0.02041483 0.047349125
0000a0 ea 61 c7 bb dd aa 10 3c ec 06 dd bc f8 30 5a 3a
       -0.0060846703 0.0088297995 -0.02698084 0.0008323337
0000b0 74 34 90 bc 35 70 12 3d 39 06 31 3d 3f 18 e7 bc
       -0.017603137 0.03575154 0.043218825 -0.028209804
0000c0 c4 89 5a ba 3d b0 76 bc 83 11 8b 3c 5d e4 12 3c
       -0.0008336569 -0.015056667 0.016976124 0.008965579
0000d0 74 6d 0e 3a fe 4b ec 3c e4 5d 8a bc 53 87 1f bd
       0.000543318 0.02884483 -0.016890474 -0.038947415
0000e0 24 46 5f bd 91 95 ff 3c 0b 88 3d 3c 71 7e 51 bc
       -0.05451025 0.031199249 0.01156808 -0.012786494
0000f0 3e 2d 9e 3d 7c 5b 8b bd 34 9b 0e 3b 2a 7f e1 3b
       0.07723473 -0.06804559 0.0021759989 0.006881614

value_fc2.weight f4 [32, 64]
000000 b2 b1 90 3b 25 6f c7 3e 07 65 9c bc 49 d7 5c be
       0.004415714 0.38951984 -0.019091142 -0.215665
000010 b1 4f a7 3d 44 51 59 bc 3a 0b 6b 3e 71 e4 f3 bd
       0.08169497 -0.013264004 0.22953501 -0.11908806
000020 90 6a 3d be 04 0a 5b 3e 2d f3 55 be 26 26 50 3e
       -0.18497682 0.2139054 -0.20893545 0.20327052
000030 00 ae 83 3d 03 a5 95 bd da f8 80 3e eb a3 24 be
       0.06429672 -0.07306864 0.2518986 -0.16078155
000040 9b 97 0e be f1 4e 20 3e be 63 00 3e 5e 71 f9 3d
       -0.1392502 0.15655114 0.12538049 0.12179826
000050 d4 7c c4 3d c4 b1 10 3e 84 bf bd be ad 7f f6 bd
       0.095941216 0.14130312 -0.37060177 -0.12036071
000060 bd 52 8f 3d c3 4d f1 3d dc 57 ab be 46 d5 c6 bd
       0.06998203 0.1178241 -0.3346547 -0.097086474
000070 2f b9 80 3d b3 ef 04 3a f3 e5 bd bd 08 ad 49 3c
       0.06285321 0.00050711184 -0.09272375 0.01230932
000080 f0 6d 6b be 2e a0 ae be 04 c0 bb 3c 4c 50 e5 3d
       -0.22991157 -0.34106582 0.022918709 0.11196956
000090 1f 82 75 3c 9f 36 af bd d9 f3 58 bd 99 83 56 3e
       0.014984637 -0.0855534 -0.052966926 0.20948638
0000a0 23 ff a7 3e d0 04 92 3e 76 db b3 be 33 25 c6 bd
       0.3281184 0.28519297 -0.35128373 -0.09675064
0000b0 80 6a 60 3d 51 0e d7 3d f5 00 56 3e 72 92 dc bc
       0.054789066 0.105007775 0.20898803 -0.0269253
0000c0 22 35 d7 be 66 a8 0a 3e b6 a6 a6 be e0 c8 32 be
       -0.42032725 0.13540801 -0.32549065 -0.1745944
0000d0 06 6f c4 3d 00 41 7f 3d 56 38 e5 3b c3 85 9d be
       0.095914885 0.06231785 0.006995241 -0.30766115
0000e0 85 7d 1a 3d 5e 0a 58 3d e8 c8 07 be db 69 de 3e
       0.03771736 0.052744262 -0.13260233 0.43440136
0000f0 79 45 26 be 7f 0e e3 bc ba 78 1b 3e 88 9e 0f 3e
       -0.16237439 -0.027716873 0.15182772 0.14025319
000100 18 bf 86 be 2c 37 9d bd 6e 82 29 be 4c 64 ec 3d
       -0.26317668 -0.07676539 -0.16553661 0.115425676
000110 08 a8 b0 3d cc 12 7a bd bc 76 64 3b c9 e7 fd bd
       0.086257994 -0.061053082 0.003486081 -0.12397725
000120 b0 90 18 be db 48 32 be 2c 0e 0c 3e cc 5c 9f 3e
       -0.14898944 -0.17410605 0.13677281 0.31125486
000130 46 16 53 3d 71 1a 87 3e 75 9a da 3d 81 e7 ac 3d
       0.051534913 0.2638736 0.106739916 0.08442593
000140 e3 58 41 3e 60 63 55 3e bd ce 40 3c 19 32 2d 3e
       0.18881564 0.2083869 0.01176804 0.16913642
000150 96 b4 ee 3d 54 8b aa 3e ef c5 09 be 48 ee 09 be
       0.11655538 0.33309424 -0.13454412 -0.13469803
000160 92 dc 19 3e 78 6f 44 3e 3d f3 a3 3e 24 f5 f0 bc
       0.15025547 0.19183147 0.32021514 -0.029413767
000170 e1 dd 82 be 61 39 ba 3d b1 2e 50 3d 1b 7a 4f bd
       -0.25559905 0.090929754 0.05082578 -0.05065356
000180 51 84 fd bd 88 a1 f8 3d 0b d9 06 be 88 8a 84 bc
       -0.12378753 0.12140185 -0.13168733 -0.016179338
000190 8a 38 f9 bd 29 f6 ab be 0a c1 2d 3e fe 22 96 3e
       -0.12168987 -0.33586243 0.1696817 0.29323572
0001a0 7f fd 96 3e 53 0a 67 bd 41 76 ad bc 51 43 2a be
       0.29490277 -0.05640633 -0.021174552 -0.16627242
0001b0 a0 df 84 3e 61 60 04 be 56 52 d8 ba 6c 40 c5 3d
       0.25951862 -0.1292739 -0.001650403 0.09631428
0001c0 41 82 8f 3e 5b 38 4e 3c 6f 04 f5 3c dd 46 ab be
       0.28029063 0.012586678 0.02990934 -0.33452502
0001d0 af 7f 32 3e 51 4f b7 bb c1 50 2f 3e cc 35 b2 3d
       0.1743152 -0.005594172 0.17120649 0.08701667
0001e0 67 84 64 3e 78 13 8d 3e 76 51 18 3e 49 9d 30 be
       0.22316132 0.27553916 0.14874825 -0.172475
0001f0 b2 27 cc 3e 3a d8 ee bc 93 d7 da bc a7 5c 84 3d
       0.39874035 -0.02915584 -0.026714122 0.064629845
000200 c1 20 47 be 3d 83 82 bf 1b 17 b1 be 33 17 49 be
       -0.19446088 -1.0196301 -0.3458794 -0.19637756
000210 28 2c 9c 3e b2 40 26 bf 84 fc 93 bf 08 b1 b4 be
       0.3050244 -0.6494247 -1.1561437 -0.35291314
000220 25 aa 96 3d 22 cf 75 be 88 02 88 3e 15 7d 3c 3e
       0.07356671 -0.24004796 0.2656443 0.1840709
000230 18 79 f1 be 87 f0 55 3d 7a 1a 05 bc ff ad 69 be
       -0.471627 0.052231338 -0.008123988 -0.2282028
000240 20 17 df bd 75 89 e8 3e 1c 39 05 bf 55 3c ca bc
       -0.108930826 0.4541737 -0.52040267 -0.024686972
000250 a0 d8 76 be 90 cd c9 3d 07 2e ba 3e 63 42 9d 3e
       -0.24106073 0.09853661 0.3636324 0.30714712
000260 ac 9c 71 3e 7a 27 9f 3e 06 b7 ab 3e a0 76 fc be
       0.23594922 0.31084806 0.33538073 -0.49309254
000270 e0 29 7f be 07 9c a1 3e 59 07 2a 3e 7e 70 05 3f
       -0.24918318 0.31564352 0.16604365 0.52124774
000280 92 f9 a3 be 93 95 76 be f6 91 8d bd 5e 3d 2a 3e
       -0.32026345 -0.24080496 -0.069126055 0.16624972
000290 2e 82 10 bf ac d8 fe be d0 35 05 3e 6c 2c 80 3e
       -0.5644864 -0.49774683 0.13008809 0.2503389
0002a0 f0 02 a2 3d d1 cf 33 bf d7 9c 7c 3e a3 10 be 3d
       0.079107165 -0.7023898 0.24669205 0.09280517
0002b0 30 71 11 3e af b5 a8 be 5b 0d 12 bf 2c cf d7 b8
       0.14203334 -0.32951114 -0.5705163 -0.00010290588
0002c0 d3 62 ac 3e 06 37 3d 3e b2 25 90 bd ea 2c 90 be
       0.33669147 0.18478021 -0.0703844 -0.28159267
0002d0 9d 1a d8 3d 82 5f 01 bf 4d 51 25 bf 30 e9 c4 be
       0.10551951 -0.5053636 -0.6457718 -0.38459158
0002e0 3d 5a e1 bd 3d df 43 3f ce fc ef be 17 82 12 bf
       -0.1100354 0.7651251 -0.46872562 -0.5722975
0002f0 8b 03 18 3e 5a 3a 2e bf e4 f0 65 be 6e 91 4f 3e
       0.14845102 -0.6805779 -0.22455174 0.20270321
000300 78 90 9c 3d 43 56 4e bd f9 0c 94 be 03 36 9a 3d
       0.07644743 -0.050375234 -0.28916147 0.07529833
000310 38 44 7e 3e 91 95 85 3e f5 7e cf be 98 c4 50 be
       0.24830711 0.26090673 -0.40526548 -0.20387495
000320 98 19 ac bd 39 3a 67 3e d5 c1 9a 3d a0 e1 6a 3e
       -0.08403319 0.22580804 0.07556502 0.22937632
000330 1e bf 11 3e bd 86 5d be 24 94 d1 3c 0a 68 08 bf
       0.14233062 -0.2163343 0.025583334 -0.5328375
000340 74 72 24 3d 87 8c 49 3e 72 68 03 3d a6 31 75 3e
       0.040148214 0.19682513 0.03208203 0.2394472
000350 bf 21 14 3e fc fa 62 3d ce 46 95 bd 9c c8 b3 bd
       0.14465998 0.05541514 -0.072888955 -0.087784976
000360 fb fb 61 3e 1e fe 36 bf e7 b7 ce 3c 73 a8 54 be
       0.22068779 -0.714815 0.025234176 -0.20767383
000370 8c 05 d6 bd 0c f3 61 3d d7 76 7d 3d 78 bb 07 be
       -0.10450277 0.05516343 0.061880913 -0.13255107
000380 8c 10 90 3e 71 27 a6 be 3d 38 68 be 2c 80 a3 be
       0.28137624 -0.32451966 -0.22677703 -0.31933725
000390 11 6b d2 be 36 d7 36 3e 54 c9 0c bf a5 1a 9b bd
       -0.4109731 0.17855534 -0.549947 -0.075734414
0003a0 8a 32 53 3e 77 eb bd be 76 49 1a 3e 8b 4e 6c be
       0.20624748 -0.37093708 0.15067086 -0.23076837
0003b0 44 2d 11 be 03 49 1a bd 33 ce 00 be 20 fe 71 3e
       -0.14177424 -0.037667286 -0.12578659 0.23632097
0003c0 b8 05 fb be 63 51 4a 3e 78 1a 64 bd a9 0d 6c 3e
       -0.490278 0.19757609 -0.055689305 0.23052086
0003d0 eb 97 33 3d b8 fd 51 bd cd b6 dc be eb 60 29 bd
       0.043846052 -0.051267356 -0.43108216 -0.041352194
0003e0 b3 1a 7a be 7c 00 3e bf 36 93 36 3d a0 cc 41 be
       -0.24424247 -0.7421949 0.044573985 -0.18925714
0003f0 c4 40 8e 3c b8 78 b1 3d aa 17 fb be 4e c5 41 be
       0.017364867 0.086656034 -0.49041492 -0.18922922

value_fc2.bias f4 [32]
000000 dd 8f 76 bc 3e 4b ef 3d c7 b0 84 3d 57 0f 1e bd
       -0.015048948 0.11684273 0.0647903 -0.038588848
000010 28 1a 16 bd e2 12 e2 3b 34 39 99 bd 42 78 99 3c
       -0.03664604 0.0068992237 -0.07481614 0.018734101
000020 97 02 db 3c 40 3c a3 3d 9e 8f 82 3d ed b7 7c 3c
       0.026734633 0.07970476 0.06375049 0.015424711
000030 b8 08 bc 3d 1d c0 54 3d e2 e7 da 3d 54 94 6f bd
       0.091813505 0.051941026 0.106887594 -0.058491066
000040 ac 58 e2 bc c9 45 7c 3d e1 cc 78 bd 6b 42 1a 3d
       -0.027630173 0.06158999 -0.060742263 0.037660997
000050 91 67 a5 3c e1 2b a2 3c 98 dc 0e 3e 9a c9 e3 bb
       0.020190986 0.019796314 0.13951337 -0.006951523
000060 29 ce 6d 3d 65 ad 83 3d 07 8d 37 bc ea b5 1c 3d
       0.058057938 0.06429557 -0.011203057 0.038259424
000070 83 89 8f bd f1 ee e4 3c 16 19 d8 bd 80 2a 60 3d
       -0.0700865 0.027945967 -0.1055166 0.05472803

value_fc3.weight f4 [1, 32]
000000 06 2c a9 be c7 2c 18 3f f2 65 98 3f ff d2 6d bf
       -0.330414 0.59443325 1.1906111 -0.9290008
000010 10 cb f2 bd 88 f7 39 bf 40 92 e3 be 19 91 d3 be
       -0.11855137 -0.7264333 -0.44447517 -0.41321638
000020 4b 6d 12 3f d0 91 0d 3f 8b 6b 0a 3f 87 31 42 bf
       0.5719802 0.5530062 0.5407035 -0.7585682
000030 fd d1 b0 3f 5f 1d 7d 3f 26 6a 31 3f ab 4f b1 be
       1.3814083 0.9887294 0.69302595 -0.34631094
000040 93 91 65 be 19 a2 ad 3f 1d 12 c9 be b4 b0 0a 3f
       -0.22418813 1.3565093 -0.39271632 0.5417588
000050 fe e4 11 bf 16 b4 55 be b7 97 1f 3f 14 76 3e bf
       -0.5699004 -0.20869479 0.62340873 -0.7439892
000060 a1 0f 0d 3f 5d d1 93 3f 4f 67 82 bf 79 b2 72 3f
       0.5510197 1.1548268 -1.0187777 0.9480358
000070 4c d2 8d be e8 2e fe 3e 1f 26 42 bf e5 59 24 bf
       -0.27699506 0.49645162 -0.7583942 -0.6419967
