rl/spin_model_11221122/1.pt (torch_old, 159601 bytes, 12 tensors)

log_std f4 [51]
0	0x3dae3c0d	0.085075475
1	0x3db5ba34	0.08873406
2	0x3de0c5cc	0.10975227
3	0x3dcc1e39	0.09966702
4	0x3dec6e04	0.11544421
5	0x3ddd9773	0.10819902
6	0x3dd96e4d	0.10616741
7	0x3dc9ea76	0.09859173
8	0x3dc0715f	0.09396624
9	0x3de3c8a9	0.11122257
10	0x3db69920	0.08915925
11	0x3dbeb90a	0.09312637
12	0x3dc5aa89	0.096516676
13	0x3def9ff4	0.117004305
14	0x3df34c82	0.11879827
15	0x3dade70b	0.084913336
16	0x3dd49173	0.10379305
17	0x3dcdf6ac	0.100568146
18	0x3dbd3024	0.09237698
19	0x3df053c9	0.11734731
20	0x3dc064b5	0.09394208
21	0x3dc86e0d	0.097866155
22	0x3dc4d40f	0.096107595
23	0x3dd1cc7e	0.10244082
24	0x3dc6ddd5	0.0971028
25	0x3dd28243	0.10278752
26	0x3dd1b574	0.102396876
27	0x3dc324ff	0.09528541
28	0x3dc3609e	0.09539913
29	0x3dc114e4	0.09427813
30	0x3dbc21c3	0.09186127
31	0x3da9ccd9	0.08291025
32	0x3debdc16	0.115165874
33	0x3dcde1bf	0.10052823
34	0x3de0e009	0.10980231
35	0x3dcc9411	0.09989179
36	0x3db5f165	0.08883933
37	0x3dd91d67	0.10601311
38	0x3db48046	0.08813529
39	0x3deb6e7b	0.11495682
40	0x3dc53622	0.09629466
41	0x3dd9baaf	0.1063131
42	0x3dba438c	0.09094915
43	0x3deccbd1	0.115623124
44	0x3de22016	0.11041276
45	0x3dc0cda1	0.094142206
46	0x3dc7210e	0.097231016
47	0x3daeb6d7	0.08530968
48	0x3dd02f5d	0.10165284
49	0x3dbaf902	0.09129526
50	0x3dc88664	0.09791258

policy_fc1.weight f4 [64, 261]
0	0x3dded212	0.108799115
1	0xbd96f5c2	-0.07371093
2	0xbdc84978	-0.09779638
3	0xbd5bdaac	-0.05367534
4	0xbdc416ca	-0.09574659
5	0x3da3a2b6	0.07990019
6	0xbd4bbb0e	-0.049738936
7	0xbdc3a618	-0.09553164
8	0xbda850c2	-0.08218528
9	0xbd9ec3db	-0.077522
10	0x3e0ea2f7	0.13929354
11	0xbdc7be03	-0.09753039
12	0x3d8084a2	0.06275298
13	0xbd16b1d7	-0.036790695
14	0xbdfd4a1a	-0.123676494
15	0xbbc0d2a3	-0.005884485
16	0x3ddae587	0.1068831
17	0x3dfafc29	0.12255127
18	0x3e022384	0.1270886
19	0xbd70ee86	-0.058821224
20	0x3dbc4732	0.09193267
21	0xbdcf5cc8	-0.101251185
22	0x3d51ad2e	0.051190548
23	0x3e054f65	0.13018568
24	0x3d3f7ffb	0.04675291
25	0xbc14355c	-0.009045925
26	0x3dda1b0e	0.106496915
27	0x3d924c06	0.071434066
28	0x3e023285	0.12714584
29	0xbd759f5f	-0.05996644
30	0x3deeafce	0.11654626
31	0x3e0f1863	0.13974147
32	0x3dd44362	0.10364415
33	0x3da2bdbc	0.07946345
34	0x3de16642	0.11005832
35	0xbe038915	-0.12845261
36	0x3dcbabc6	0.099448726
37	0xbce1a973	-0.02754662
38	0x3df661c0	0.12030363
39	0x3c86c33d	0.016450519
40	0xbd81f5b3	-0.063456915
41	0xbdef8d74	-0.11696902
42	0x3ce9093d	0.028446788
43	0xbc2e0245	-0.010620658
44	0xbcfa8be2	-0.03058428
45	0x3de7951a	0.11307736
46	0x3e05e980	0.13077354
47	0x3d42b40a	0.04753498
48	0x3d566870	0.052345693
49	0xbd7ab6f2	-0.061209626
50	0xbc8278e2	-0.015926782
51	0xbc886363	-0.016648954
52	0x3d078f5a	0.033095695
53	0xbd152052	-0.036407776
54	0xbdc1cb9b	-0.09462663
55	0x3a84f3dd	0.0010143478
56	0x3e01835e	0.12647769
57	0xbe01e3b3	-0.12684517
58	0xbd7b1475	-0.061298806
59	0x3d14d6a6	0.036337517
60	0x3daba8cf	0.08381807
61	0x3dff8df9	0.12478251
62	0xbe0106d9	-0.12600268
63	0x3c8e9628	0.017405584
64	0x3cee0860	0.029056728
65	0x3d8c98b4	0.06865063
66	0x3de24369	0.11048014
67	0x3e05efca	0.13079754
68	0x3d100397	0.035159674
69	0x3cb1ce70	0.021704882
70	0xbdaee437	-0.08539622
71	0xbcdea384	-0.02717758
72	0xbd4ec34c	-0.05047922
73	0x3cd19fa2	0.025588814
74	0xbd3ed45a	-0.046589233
75	0x3d8fb3c1	0.07016707
76	0x3dc2898c	0.09498891
77	0x3cd97482	0.026544813
78	0x3d70ae8e	0.05876022
79	0xbd094527	-0.033513214
80	0x3d1752eb	0.03694431
81	0xbdf8bcd2	-0.121453896
82	0x3d636ade	0.05552184
83	0x3c3c90d8	0.011509143
84	0xbda2c90a	-0.079485014
85	0x3cafa684	0.021441706
86	0x3ddcd02b	0.107818924
87	0x3b04a0fe	0.002023756
88	0x3d048682	0.03235484
89	0xbd794e59	-0.060865734
90	0x3d264a85	0.04059841
91	0x3d387c41	0.045040373
92	0x3c4f4dfa	0.012652868
93	0xbd443af8	-0.0479078
94	0xbba9cb55	-0.00518171
95	0x3d8686f2	0.065687075
96	0xbdfb9e52	-0.122860566
97	0x3d59f996	0.05321654
98	0x3db69525	0.08915166
99	0x3dc8fdeb	0.09814056
100	0xbdc62dbb	-0.09676691
101	0xbd810f43	-0.06301739
102	0xbcaadf52	-0.02085844
103	0xbdc212bf	-0.09476232
104	0xbde4bc88	-0.11168772
105	0x3d4fce4b	0.050733846
106	0x3c358caf	0.011080905
107	0x3deea0f2	0.11651792
108	0x3cf8fd5d	0.03039425
109	0xbda3257d	-0.07966135
110	0x3d656d20	0.056012273
111	0x3cf8a42b	0.030351719
112	0xbd11fa71	-0.03563923
113	0xbdbba06e	-0.09161459
114	0x3d2b7b34	0.041865543
115	0xbd945670	-0.07243049
116	0x3df1e915	0.11812035
117	0x3dec30a5	0.11532716
118	0x3bc1f640	0.005919248
119	0xbba9f2b6	-0.005186404
120	0xbd5a9da5	-0.053372998
121	0xbd684dd9	-0.056714866
122	0x3cb7b2a5	0.022424052
123	0xbda6f3bd	-0.08151958
124	0xbc98e7b2	-0.018665168
125	0x3d95cd7c	0.07314584
126	0x3e05802c	0.13037175
127	0x3dceabb6	0.10091345
128	0x3d163b2e	0.036677532
129	0x3d8a22fe	0.067449555
130	0xbd27f052	-0.04100067
131	0x3dddbac0	0.10826635
132	0xbde28a14	-0.110614926
133	0x3dd7012b	0.1049827
134	0x3d456d75	0.04820009
135	0x3df2d139	0.11856312
136	0x3d8308ac	0.063981384
137	0x3d4675f4	0.048452333
138	0xbd5e1c92	-0.054226466
139	0xbd1d04be	-0.0383346
140	0xbcef8229	-0.02923687
141	0x3d86bc32	0.06578864
142	0x3e08812f	0.1333053
143	0x3dee5664	0.116375715
144	0x3dd5dcd9	0.10442514
145	0xbd9719e2	-0.07377984
146	0x3c115f3e	0.008872805
147	0xbdbe0bac	-0.0927957
148	0x3d3eee9f	0.046614286
149	0x3de10334	0.10986939
150	0xbbf3c185	-0.007438841
151	0x3d7d85ef	0.061895307
152	0x3dcb9ecf	0.099424
153	0xbded69fc	-0.115924805
154	0x3d122cf8	0.035687417
155	0x3d806485	0.062691726
156	0x3ddd297d	0.10798929
157	0xbd83265f	-0.06403803
158	0xbdb8ac4b	-0.09017237
159	0x3d6c4797	0.05768546
160	0xbdf5fbe4	-0.12010935
161	0xbe0a19e7	-0.13486443
162	0xbddaa833	-0.10676613
163	0x3dd98d63	0.106226705
164	0xbbb42aad	-0.0054982514
165	0x3ce91cdd	0.028456146
166	0x3d14bcb4	0.036312774
167	0x3e08cc92	0.13359287
168	0x3db4bdac	0.088252395
169	0xbd096cf0	-0.033551157
170	0x3d4008bb	0.046883326
171	0xbe074de2	-0.13213304
172	0x3be344d5	0.0069356957
173	0x3d2358f7	0.039879765
174	0xbe095cdd	-0.13414331
175	0x3dd29fbe	0.10284375
176	0x3c9d3af2	0.019193146
177	0x3ddfe040	0.10931444
178	0xbcfdbc51	-0.030973585
179	0xbcb8c0d3	-0.022552883
180	0x3d145d2e	0.036221676
181	0xbc6a08f8	-0.014284365
182	0xbce2beda	-0.027678896
183	0xbd755e1e	-0.05990421
184	0xbd7b4d38	-0.06135294
185	0xbdf60d05	-0.12014202
186	0xbd417439	-0.04722998
187	0x3e07bc44	0.13255411
188	0x3e08c684	0.13356978
189	0xbd8e296f	-0.069414966
190	0x3d8569c7	0.06514316
191	0xbdf8f453	-0.12155976
192	0x3d7bdfe3	0.061492812
193	0xbd9f5a74	-0.077809244
194	0xbb2f0fd7	-0.0026712322
195	0x3decb07a	0.11557098
196	0xbc96ea3a	-0.018422235
197	0xbc7508f5	-0.014955749
198	0xbdd9743b	-0.10617872
199	0xbdafb211	-0.08578885
200	0xbd916e54	-0.071011215
201	0x3dfe1c17	0.124077015
202	0xbc84eb3d	-0.016225452
203	0x3df8e41d	0.12152884
204	0xbd6a1a67	-0.057154085
205	0x3cafddea	0.021468122
206	0x3d539e15	0.05166443
207	0xbe12e5e8	-0.14345515
208	0xbd086208	-0.033296615
209	0x3d30b56f	0.04314178
210	0xbd19154b	-0.037373822
211	0x3db91c42	0.09038593
212	0xbd81f642	-0.06345798
213	0xbb7a091a	-0.0038152398
214	0xbd4e44e6	-0.050358675
215	0x3b44c85f	0.0030026657
216	0xbc8684ce	-0.016420748
217	0x3ded6964	0.11592367
218	0x3c9f5ede	0.019454416
219	0x3db3e2ab	0.08783468
220	0x3dcce31c	0.10004255
221	0xbd7a64ca	-0.061131276
222	0xbdac494a	-0.08412416
223	0xba481cb6	-0.0007633673
224	0x3dfef757	0.1244952
225	0xbdabcd40	-0.08388758
226	0x3cfc854d	0.030825282
227	0xbe021ddf	-0.12706707
228	0xbdb7c85f	-0.08973765
229	0x3cd93864	0.026516147
230	0x3e056191	0.130255
231	0xbbe19159	-0.006883782
232	0xbd930ce3	-0.07180192
233	0xbd44b393	-0.048022818
234	0xbda4bad1	-0.08043445
235	0x3ce74009	0.028228777
236	0x3d870b54	0.065939575
237	0x3d8225d0	0.063548684
238	0x3cbd3ead	0.023101175
239	0x3db33330	0.087499976
240	0xbda8411f	-0.08215546
241	0x3cba2272	0.022721503
242	0xbcf3c58c	-0.029757284
243	0x3e022ba1	0.12711956
244	0xbcfcf2cb	-0.030877491
245	0xba722881	-0.0009237603
246	0x3d4c9c93	0.04995401
247	0xbd28e6e5	-0.041235823
248	0xbd903691	-0.07041658
249	0x3da67bd2	0.081290856
250	0xbdda6998	-0.10664672
251	0xbd292f48	-0.041304857
252	0xbddb04ad	-0.10694251
253	0x3d45dbae	0.048305206
254	0x3d8f0165	0.06982688
255	0xbdd47dcf	-0.103755586

policy_fc1.bias f4 [64]
0	0x3ace5d43	0.0015744347
1	0xba9984fb	-0.0011712605
2	0x3a0a6454	0.0005279232
3	0xba953ff9	-0.0011386863
4	0x3ab46a9a	0.001376468
5	0xbb06549b	-0.0020497206
6	0x3a3f69e7	0.00073018525
7	0xbb878ccf	-0.0041366587
8	0xbaae0fd9	-0.001327987
9	0x3acf5635	0.0015818538
10	0xbb6f8ac5	-0.003655122
11	0x3a46eddf	0.0007588546
12	0xbaf5ab58	-0.0018743081
13	0xb9840a39	-0.00025184618
14	0xbab651be	-0.0013909859
15	0x3b3087fb	0.002693652
16	0xbb4ba52f	-0.00310738
17	0x3af823e2	0.0018931592
18	0x3a441e47	0.00074813183
19	0x3b6afb47	0.003585534
20	0xbb197097	-0.0023413056
21	0xba884f40	-0.0010399595
22	0xb9c6f691	-0.0003794921
23	0x38121810	3.4831522e-05
24	0xbb6b3996	-0.0035892478
25	0x3a9a673b	0.0011780033
26	0x3a9841cb	0.0011616288
27	0xb9e46b1a	-0.00043567346
28	0x3af057d5	0.0018336723
29	0x39cc98fe	0.000390239
30	0x3996fa92	0.0002879692
31	0x3a096970	0.00052418467
32	0xbab97724	-0.0014149887
33	0xba814a5d	-0.0009864081
34	0x3af5a669	0.0018741611
35	0xbb2b4ed6	-0.002613952
36	0xbb418177	-0.002952663
37	0xbaf05420	-0.0018335618
38	0xb9d0e633	-0.00039844363
39	0xba89e909	-0.001052172
40	0x3a59a0e7	0.00083018694
41	0xbb907479	-0.004408416
42	0x3b029122	0.0019922932
43	0x3aee1cd8	0.0018166555
44	0x398683b8	0.0002565661
45	0xbb60c357	-0.003429612
46	0xba0caefd	-0.00053666515
47	0x3972ab32	0.00023142694
48	0x3a6600c0	0.00087739155
49	0x39f4ab2e	0.00046666845
50	0xba127179	-0.0005586367
51	0x38418086	4.6134483e-05
52	0xbb391b15	-0.0028244902
53	0xba1c57f1	-0.0005964032
54	0xbb1f0b04	-0.002426804
55	0x396e02eb	0.00022698536
56	0xbb1bb381	-0.0023758116
57	0x3ac06702	0.0014679136
58	0x3a59f3d3	0.00083142257
59	0xbbce969a	-0.006304574
60	0xbaf8ce6d	-0.0018982418
61	0x3b04b442	0.0020249044
62	0xbb00f509	-0.0019677302
63	0x3b146d77	0.0022648254

policy_fc2.weight f4 [32, 64]
0	0x3e0aebeb	0.13566558
1	0xbe3018cb	-0.17196958
2	0xbd47e492	-0.048801966
3	0x3df43ba5	0.11925439
4	0xbe794ffc	-0.24346918
5	0x3d4b23a1	0.049594525
6	0x3d4ec4b6	0.050480567
7	0xbe6233f1	-0.22090127
8	0xbe3be1ac	-0.18347806
9	0xbdb015f5	-0.08597938
10	0xbe72c733	-0.23708801
11	0xbd9fa6c6	-0.077954814
12	0x3d71f7bb	0.059074145
13	0x3e26e7c9	0.16299357
14	0x3c8b66a6	0.01701672
15	0xbe42f6f4	-0.19039518
16	0x3de5a025	0.11212186
17	0xbe88b287	-0.26698706
18	0xbc20079a	-0.009767437
19	0xbe47cd9c	-0.19512028
20	0x3e610bff	0.21977232
21	0xbd8d1105	-0.06888012
22	0x3e0e4806	0.13894662
23	0xbe0c4386	-0.13697633
24	0x3e1fd431	0.15608288
25	0xbddd0a9d	-0.1079304
26	0xbb0afabb	-0.0021206576
27	0x3e3ea84a	0.18618885
28	0x3d9ce746	0.076612994
29	0xbdd72acf	-0.10506212
30	0xbd3df40e	-0.046375327
31	0x3e6f123e	0.23346803
32	0x3e042feb	0.12908904
33	0xbc09ddaa	-0.008414665
34	0x3bf90ff0	0.007600777
35	0x3be44d1f	0.0069672014
36	0xbe6d5aec	-0.23179215
37	0xbdd44f38	-0.10366672
38	0xbe122f69	-0.14275898
39	0x3e2d261e	0.16909072
40	0x3e5ea8f2	0.21744135
41	0xbd8dd13e	-0.069246754
42	0x3a70376c	0.0009163532
43	0xbe62290f	-0.22085975
44	0xbd60ba4d	-0.05486517
45	0xbaba63d5	-0.0014220426
46	0x3d6a7eca	0.05724982
47	0x3dd8fef9	0.10595507
48	0x3e351feb	0.17687957
49	0xbdf8f71a	-0.12156506
50	0xbe37d051	-0.1795056
51	0xbd967fbf	-0.073485844
52	0xbe11a256	-0.14222082
53	0xbe39ebf5	-0.18156417
54	0x3e27109b	0.16314928
55	0x3e0310a6	0.1279932
56	0xbd98296d	-0.07429776
57	0x3cac12e1	0.021005096
58	0x3e44bfac	0.19213742
59	0xbe777a91	-0.24167849
60	0xbe269c9f	-0.16270684
61	0x3c76d163	0.01506457
62	0xbe4d5070	-0.20050216
63	0xbe47e115	-0.19519456
64	0x3c4d49fa	0.012529844
65	0x3e5afb0e	0.21384832
66	0x3e47af7e	0.19500539
67	0xbd0fe3f4	-0.035129502
68	0xbe3261b7	-0.17420088
69	0x3e6ec824	0.23318535
70	0xbccee106	-0.025253784
71	0x3cf5889b	0.029972365
72	0x3d1d277e	0.03836774
73	0xbd9b940e	-0.075965986
74	0x3e432ea8	0.19060767
75	0xbc6edbe0	-0.0145787895
76	0x3deacb2a	0.11464532
77	0xbe662a95	-0.22477181
78	0xbc4a8472	-0.012360679
79	0x3df67c72	0.12035455
80	0xbe587edb	-0.21142142
81	0xbe8297fa	-0.25506574
82	0x3d2b86e7	0.0418767
83	0xbd146f43	-0.03623892
84	0x3b710273	0.0036775141
85	0xbe20bfe8	-0.15698206
86	0xbe235ded	-0.15953799
87	0xbdfd4524	-0.12366703
88	0xbe35f970	-0.17770934
89	0x3c3c3d4a	0.011489222
90	0x3e185902	0.14877704
91	0xbe4ee519	-0.20204581
92	0xbd847e88	-0.064694464
93	0xbdcd83be	-0.100348935
94	0x3e5f846e	0.21827862
95	0x3e62e744	0.22158533
96	0x3d9c2cf3	0.07625761
97	0xbdbd626e	-0.092472896
98	0x3d10c9a7	0.03534856
99	0xbdc63597	-0.0967819
100	0x3c3ed8a9	0.0116483355
101	0xbe61bd4c	-0.22044867
102	0x3dad0ca4	0.08449677
103	0x3d59bd73	0.05315919
104	0xbe775727	-0.2415434
105	0x3df5459e	0.11976169
106	0x3dd5391d	0.10411284
107	0xbd4539bf	-0.048150774
108	0xbd9a9440	-0.07547808
109	0x3dba314d	0.09091435
110	0x3dd5237a	0.10407157
111	0xbd2f3d0a	-0.04278282
112	0xbdb75aa0	-0.08952832
113	0xbe4adf9a	-0.1981186
114	0x3e534377	0.20631205
115	0xbe595584	-0.21224028
116	0xbc8dd709	-0.01731445
117	0xbe23b7e4	-0.15988117
118	0xbe4e81ae	-0.20166656
119	0xbdb018f6	-0.08598511
120	0xbe0cb873	-0.13742237
121	0xbd96b68f	-0.07359039
122	0x3d481967	0.04885235
123	0xbc14b047	-0.009075231
124	0x3c81fa90	0.015866548
125	0xbe41b7ba	-0.18917742
126	0x3e6805ab	0.22658412
127	0xbe6ac3fe	-0.22926328
128	0xbe2f39f6	-0.17111954
129	0xbe610c0c	-0.21977252
130	0xbd743dd9	-0.059629295
131	0x3d942a1d	0.07234595
132	0x3d075856	0.033043228
133	0xbdc808ac	-0.09767279
134	0x3d7659a2	0.060144074
135	0xbe3594a7	-0.17732488
136	0xbbc530d6	-0.0060177846
137	0xbd8cc3f8	-0.068733156
138	0x3e821bc8	0.2541182
139	0x3d7e2f7d	0.062057007
140	0xbdb82d57	-0.08993023
141	0xbdc67aae	-0.09691368
142	0xbe5629d4	-0.20914394
143	0x3e284d4a	0.16435733
144	0x3dbf78c5	0.09349207
145	0x3dd980dd	0.10620282
146	0xbe6fd76e	-0.23422024
147	0x3e27175f	0.16317509
148	0xbde9a60d	-0.11408625
149	0x3d8f21a5	0.06988839
150	0xbe25cf9b	-0.16192476
151	0xbc56c5a7	-0.013108647
152	0x3ddd4977	0.10805028
153	0xbe1ef821	-0.15524341
154	0xbdf7452b	-0.120737396
155	0x3e2f1210	0.17096734
156	0xbd7578e5	-0.059929747
157	0x3e0d7914	0.13815719
158	0xbe65712c	-0.22406453
159	0x3d16996c	0.03676741
160	0x3db4c5dd	0.08826802
161	0x3beb59c3	0.0071823313
162	0xbe54e688	-0.20791066
163	0x3dc46a35	0.0959057
164	0xbe37466c	-0.17897958
165	0x3d9894be	0.07450245
166	0xbd1ba8d0	-0.03800279
167	0x3e095245	0.1341029
168	0x3e713494	0.23555213
169	0x3dc7c115	0.09753624
170	0x3e40b879	0.1882037
171	0xbe4ee21b	-0.2020344
172	0x3e02a286	0.1275731
173	0x3db10b6f	0.08644759
174	0xbe74e4a2	-0.23915341
175	0xbe11952b	-0.1421706
176	0x3ddd7f6b	0.10815319
177	0x3d88ff13	0.066892765
178	0x3e0473d3	0.12934808
179	0x3e18969b	0.14901201
180	0xbd24221c	-0.04007159
181	0xbc9bc4b5	-0.019014696
182	0x3d07aef5	0.033125836
183	0x3da07540	0.07834864
184	0xbe35b979	-0.17746533
185	0x3d42ae1a	0.047529317
186	0xbe726145	-0.23669918
187	0x3d909d7a	0.07061286
188	0x3c96dace	0.018414881
189	0x3e52065f	0.20510243
190	0xbdab96d9	-0.08378381
191	0xbddbeccf	-0.10738527
192	0xbe77690b	-0.24161164
193	0xbe4a315a	-0.19745389
194	0x3e465887	0.19369708
195	0x3b994701	0.004677654
196	0xbe0a3e47	-0.1350032
197	0x3db9c2b0	0.09070337
198	0x3e5ed79e	0.21761939
199	0xbd6daf6d	-0.058028627
200	0xbe42a756	-0.19009146
201	0x3e75da3f	0.24009036
202	0x3c49c104	0.012314085
203	0x3d25ff28	0.04052654
204	0x3d79644d	0.06088667
205	0x3cd6e396	0.026231568
206	0x3d685330	0.05671996
207	0xbe2357ea	-0.15951505
208	0xbe6b7314	-0.22993118
209	0xbe3aef12	-0.1825526
210	0xbd2e58ff	-0.042565342
211	0x3e3cf20c	0.18451709
212	0xbe644f23	-0.22295813
213	0x3e71b5fc	0.23604578
214	0xbe51c195	-0.20484002
215	0xbdbe01fc	-0.09277722
216	0xbe62a3bb	-0.2213277
217	0xbe6e4ade	-0.23270747
218	0x3df21ccf	0.11821901
219	0xbe1dc2c5	-0.1540633
220	0xbdbaaf2a	-0.09115441
221	0x3ca9fa0d	0.020749116
222	0x3dd1c79a	0.10243149
223	0x3e1d40b3	0.15356712
224	0xbcdf7dd8	-0.027281687
225	0xbe04d0b9	-0.12970246
226	0xbe1b4c46	-0.15165815
227	0xbc647705	-0.013944392
228	0xbe19da29	-0.15024628
229	0x3e5ff34a	0.21870151
230	0x3d1b27e6	0.037879847
231	0xbdc2f681	-0.09519673
232	0x3dd8404b	0.10559138
233	0xbdeab1f8	-0.11459726
234	0x3db8cf49	0.090239115
235	0xbdf98b8e	-0.12184821
236	0x3c61c28d	0.013779295
237	0xbe19e7db	-0.15029852
238	0x3e73e7ec	0.2381894
239	0x3de4968a	0.111615255
240	0xbd85c90e	-0.06532489
241	0xbe706ef1	-0.23479821
242	0x3de02cc1	0.10946036
243	0xbdb3027b	-0.087407075
244	0x3df8a4cf	0.1214081
245	0xbe591f1d	-0.21203275
246	0xbd5ed16a	-0.05439893
247	0x3ba2770c	0.004958039
248	0x3cad9e23	0.02119357
249	0xbe158b8a	-0.14604011
250	0x3e08d668	0.1336304
251	0x3e277c07	0.16355906
252	0x3e0ba24a	0.13636127
253	0xbc2b94a2	-0.010472449
254	0xbc66d91d	-0.01408985
255	0x3e17734b	0.14790075

policy_fc2.bias f4 [32]
0	0xbb9c7e4c	-0.004775798
1	0xbbe1814d	-0.006881869
2	0x3b9a8d47	0.0047165486
3	0x3b517103	0.003195823
4	0xbb0b55f4	-0.002126095
5	0x3b3a9066	0.0028467416
6	0xbb897390	-0.0041946843
7	0x39574e09	0.00020533068
8	0xbb3e5188	-0.0029040296
9	0xbb53aebc	-0.0032300195
10	0xbab7e760	-0.0014030747
11	0xbb586cb9	-0.0033023788
12	0x3ba44131	0.0050126542
13	0x386fbcfe	5.7158053e-05
14	0xbb51aa0d	-0.0031992227
15	0x3b9fe92d	0.0048800916
16	0x3aa3d345	0.0012498876
17	0xbc6f44d1	-0.014603809
18	0x3bca5474	0.0061746184
19	0x39f67403	0.00047007212
20	0xbb9cce8c	-0.0047853645
21	0xbc7c4eb9	-0.015399628
22	0xbb7afa97	-0.0038296336
23	0x3a42c738	0.00074301986
24	0xbb482612	-0.003054027
25	0xbacd46e3	-0.0015661385
26	0xbb3a51ee	-0.0028430182
27	0xbb808060	-0.0039215535
28	0xb86dfa46	-5.673829e-05
29	0xbb39c35b	-0.00283452
30	0xbbc5e230	-0.0060389265
31	0xbc35954e	-0.01108296

policy_fc3.weight f4 [51, 32]
0	0x3d4bfa40	0.049799204
1	0xbc395254	-0.011311132
2	0xbe62bfd4	-0.22143489
3	0xbe61f754	-0.22067004
4	0x3c5e619c	0.013573077
5	0x3cf31662	0.029673759
6	0x3de6bae1	0.11266113
7	0x3d5b696a	0.053567328
8	0xbda787f6	-0.08180229
9	0xbbb0a5b9	-0.0053908494
10	0xbe58fae1	-0.21189453
11	0x3e58152e	0.2110183
12	0xbe7a719f	-0.24457406
13	0x3e46af72	0.19402865
14	0x3dfd05dc	0.12354633
15	0xbdc16b05	-0.094442405
16	0x3d4dadd6	0.05021461
17	0x3dbe196d	0.09282193
18	0xbe77d0c9	-0.24200739
19	0x3bd9c40d	0.0066456855
20	0xbe5d1c2b	-0.21592776
21	0x3e4a55e7	0.19759332
22	0xbd07c5ed	-0.03314774
23	0x3ddf0ba1	0.1089089
24	0xbe730eed	-0.23736162
25	0x3e43cbb1	0.19120671
26	0xbdd0f95c	-0.102038115
27	0xbd109f46	-0.035308145
28	0x3dbfe8d2	0.09370579
29	0xbe3faf77	-0.18719278
30	0x3e845c82	0.25851828
31	0x3e65f9ee	0.22458622
32	0xbe6aaf0f	-0.22918342
33	0x3cd01d73	0.025404667
34	0xbe221ca5	-0.1583124
35	0x3e4c9ea8	0.19982398
36	0x3e784ae8	0.24247324
37	0x3e4db446	0.200883
38	0xbe5c5052	-0.21515015
39	0xbdd59809	-0.10429389
40	0x3d436291	0.047701422
41	0xbe1d5b58	-0.15366876
42	0xbe66a3a4	-0.22523361
43	0x3e3b7171	0.18304993
44	0xbe583a27	-0.21115933
45	0xbcc0c98e	-0.023533609
46	0x3d5d7afa	0.054072358
47	0xbe2b6673	-0.167383
48	0x3db88ed3	0.090116166
49	0x3e7dce94	0.24785835
50	0xbe83fa43	-0.25776872
51	0xbe1990e9	-0.14996685
52	0xbe034db4	-0.1282261
53	0xbe2cceaf	-0.16875719
54	0x3dc7409b	0.097291194
55	0x3c32caae	0.01091258
56	0xbe3fdf99	-0.1873764
57	0xbe7e4462	-0.24830773
58	0xbe2789f5	-0.1636122
59	0xbe428c88	-0.18998921
60	0xbe101c1c	-0.14073223
61	0xbc8aea36	-0.016957384
62	0xbe241d92	-0.16026905
63	0xbcbb7645	-0.022883544
64	0x3e220268	0.1582123
65	0xbe144588	-0.14479649
66	0x3df5f749	0.120100565
67	0xbdaf9d49	-0.08574922
68	0x3e8bdf58	0.27318835
69	0x3d01fda5	0.031736035
70	0xbd3b4727	-0.045722153
71	0xbe45f007	-0.19329844
72	0xbe844d21	-0.25840095
73	0x3e80cfa0	0.25158405
74	0xbd942097	-0.072327785
75	0x3e4cf305	0.2001458
76	0xbe0501d4	-0.12988979
77	0x3e86bc3b	0.26315483
78	0xbdf8dc50	-0.12151396
79	0xbda10b81	-0.07863522
80	0x3e7531ae	0.23944733
81	0xbe644c46	-0.22294721
82	0xbe78635a	-0.2425665
83	0x3d98324c	0.07431468
84	0x3e6b3d44	0.2297259
85	0x3de0e335	0.10980836
86	0xbe7768ec	-0.24161118
87	0xbe7f25c9	-0.24916758
88	0x3e89e857	0.26935074
89	0xbd8b3d1c	-0.06798765
90	0xbd6ce9d3	-0.05784018
91	0xbe02051b	-0.1269726
92	0xba89e644	-0.0010520895
93	0xbe88dd75	-0.26731458
94	0x3e3901d3	0.18067102
95	0xbe820d4d	-0.25400773
96	0xbe49ca34	-0.1970604
97	0xbd3c4cec	-0.045971796
98	0x3e2cc31f	0.16871308
99	0x3ddc78f9	0.10765261
100	0x3ca68b56	0.020330112
101	0x3e7f6822	0.24942067
102	0x3db9112b	0.09036478
103	0x3dd91904	0.106004745
104	0xbd494ae6	-0.049143694
105	0xbe82727e	-0.25477976
106	0x3e63fc8d	0.22264309
107	0x3dd24b9d	0.10268328
108	0x3e7a561b	0.24446909
109	0xbc6ac72c	-0.014329713
110	0x3cc27b09	0.023740308
111	0x3dabcc67	0.08388596
112	0xbdb8737f	-0.09006404
113	0x3d972ad0	0.07381213
114	0x3c53d657	0.012929521
115	0xbe8cf9a1	-0.27534202
116	0x3dea54dc	0.11441967
117	0xbe7da12f	-0.24768518
118	0xbe45cf8d	-0.19317456
119	0x3c73476f	0.014848574
120	0xbe3599a7	-0.17734395
121	0xb86a1f33	-5.5819004e-05
122	0x3e4f1ac6	0.20225057
123	0xbe45a450	-0.19300961
124	0x3e144821	0.1448064
125	0x3e6c5d33	0.23082428
126	0xbd83ecc2	-0.06441642
127	0x3e0e69b7	0.13907515
128	0xbb6a81ec	-0.0035783006
129	0xbdb19f81	-0.08673001
130	0x3e820b52	0.25399262
131	0xbe51718a	-0.20453468
132	0x3d05a8bc	0.03263162
133	0x3e55cf1c	0.20879787
134	0xbd7d00ee	-0.061768465
135	0xbe8966c0	-0.26836205
136	0x3d0537c2	0.032523878
137	0xbe5ed2e7	-0.2176014
138	0x3d120241	0.03564668
139	0x3dab0995	0.08351437
140	0xbe5a73de	-0.21333262
141	0x3e86d649	0.26335362
142	0x3d4fdb19	0.050746057
143	0xbe8241fd	-0.2544097
144	0x3e864781	0.26226428
145	0x3dc2a2d6	0.09503715
146	0xbcb46f89	-0.02202584
147	0xbdf6ebf0	-0.1205672
148	0xbc460c97	-0.012087963
149	0x3e49163f	0.19637392
150	0xbcedcd3e	-0.029028531
151	0x3cb3b614	0.021937408
152	0x3e7b9004	0.24566656
153	0x3d817f2b	0.063230835
154	0xbdec4362	-0.1153629
155	0xbe44bd74	-0.19212896
156	0xbe7dbd6d	-0.24779291
157	0xbe4880a3	-0.19580321
158	0xbe3ea8d3	-0.18619089
159	0xbda72632	-0.08161582
160	0x3df13693	0.11777987
161	0x3e82d1fd	0.25550833
162	0x3e413cfe	0.18870923
163	0xbcfb19be	-0.030651923
164	0x3dc53402	0.0962906
165	0x3d3324a1	0.043736104
166	0xbcbfe29d	-0.023423487
167	0x3e649817	0.22323643
168	0xbe0e3f77	-0.13891397
169	0xbe6dda08	-0.23227704
170	0xbe080d2e	-0.13286278
171	0x3cd700c4	0.026245482
172	0x3d5bad90	0.05363232
173	0x3db88c52	0.09011139
174	0x3dc03f15	0.09387032
175	0x3e193be7	0.14964257
176	0x3e6d0cc3	0.231494
177	0x3dd27b33	0.10277405
178	0x3e8a1df4	0.26975977
179	0x3cfed78c	0.03110864
180	0xbe3793ee	-0.17927524
181	0x3e876c39	0.26449755
182	0xbdcd73b2	-0.10031833
183	0xbe4ce82b	-0.2001044
184	0x3e336a0d	0.17520924
185	0xbe6e9a3d	-0.23301025
186	0xbe732bf0	-0.2374723
187	0x3e82a654	0.25517523
188	0xbddfa45b	-0.1092002
189	0x3dbbb5f9	0.09165568
190	0xbd3609a0	-0.044442773
191	0x3e0cf829	0.1376654
192	0x3c19a176	0.009376874
193	0x3e3790f2	0.17926386
194	0x3d77bb1a	0.06048117
195	0x3e81a437	0.25320598
196	0xbd82f962	-0.06395222
197	0x3e4ff9f6	0.20310196
198	0xbe669005	-0.22515877
199	0xbdbcd0c5	-0.09219507
200	0xbdcba154	-0.0994288
201	0x3e482254	0.19544345
202	0xbe7e251e	-0.24818847
203	0xbe1b5b5e	-0.15171573
204	0x3dbc7217	0.092014484
205	0xbd725bbf	-0.059169527
206	0xbe0e9189	-0.13922705
207	0x3df0b40d	0.11753092
208	0x3ce5cdb3	0.028052187
209	0x3d2a94e7	0.04164591
210	0x3dd34d6e	0.10317503
211	0xbdc9275d	-0.09821961
212	0xbe81addc	-0.25327957
213	0x3e5f3aad	0.21799727
214	0xbd4e8e2b	-0.05042855
215	0xbca27a91	-0.019833835
216	0x3dcabcce	0.09899293
217	0x3da1839b	0.0788643
218	0xbc3fee2d	-0.0117145
219	0xbe4484f6	-0.19191346
220	0xbe1c1755	-0.15243275
221	0xbe3ac065	-0.18237455
222	0x3e0229d6	0.12711272
223	0xbe4b51b8	-0.19855392
224	0x3dc613d1	0.096717484
225	0xbc046ffe	-0.008083342
226	0xbca084cc	-0.019594572
227	0x3e09c3c8	0.13453591
228	0xbd046942	-0.032326944
229	0x3dc2e7bd	0.09516857
230	0x3e4665dc	0.19374794
231	0x3e0bfff8	0.13671863
232	0x3e4098cf	0.18808292
233	0xbcb2cd44	-0.021826394
234	0xbdad9c2a	-0.084770516
235	0x3e131195	0.14362176
236	0x3e3f244e	0.18666193
237	0xbd17ec44	-0.037090555
238	0x3dd2236a	0.10260661
239	0xbe491d71	-0.19640137
240	0x3dcbef84	0.09957793
241	0xbdf9db8d	-0.12200079
242	0x3e081502	0.13289264
243	0xbe88096d	-0.2656969
244	0x3e849862	0.2589751
245	0xbde37c06	-0.1110764
246	0xbe5b970d	-0.2144434
247	0x3e1cf9e6	0.15329704
248	0x3cbde904	0.0231824
249	0x3e3b04c4	0.18263537
250	0xbc518e2e	-0.012790246
251	0xbd75b6b9	-0.05998871
252	0xbd9f59b9	-0.07780785
253	0x3c279522	0.010228427
254	0xbd8bef04	-0.06832698
255	0x3e266415	0.16249116

policy_fc3.bias f4 [51]
0	0x3a4712b5	0.0007594035
1	0xbc0b9fa8	-0.008521952
2	0xba1a9cb4	-0.00058979844
3	0x3c85491e	0.016270217
4	0xbb1d6375	-0.002401558
5	0xbb550792	-0.0032505733
6	0xbb02bf47	-0.0019950436
7	0x3c072377	0.008248202
8	0xbb0ebfdb	-0.0021781835
9	0xbc96631b	-0.018357804
10	0xbbd0c2e8	-0.006370891
11	0x3b881919	0.0041533825
12	0xba08b5a5	-0.00052150554
13	0x3c2b15e2	0.010442229
14	0x3b5ff811	0.0034174959
15	0xbbaec121	-0.0053330814
16	0x3bb3fc9b	0.0054927594
17	0x392b7d78	0.00016354572
18	0x3ad0e825	0.0015938325
19	0xba3d4f5a	-0.0007221602
20	0xbbc9b539	-0.0061556366
21	0x3b0e9116	0.0021753958
22	0xbb73c75d	-0.0037197687
23	0xb9419ae5	-0.00018463617
24	0x3b27cd79	0.002560465
25	0x3b85bd6e	0.0040814197
26	0xba0355fe	-0.0005010067
27	0xba68adc7	-0.00088759925
28	0xbab2dc5c	-0.0013645994
29	0xbb169faf	-0.0022983362
30	0xbc6bb024	-0.014385257
31	0xb9ac86bc	-0.0003290678
32	0x3c649be4	0.013953183
33	0xbb387069	-0.0028143174
34	0x3b86b409	0.0041108173
35	0xbc3d98f0	-0.011572108
36	0x3be8c39a	0.0071033956
37	0xbbe81732	-0.007082843
38	0x3bd92b92	0.0066275084
39	0xbb88056d	-0.0041510374
40	0xbc02f4a3	-0.007992896
41	0xbb9485fa	-0.004532573
42	0xbc0479d9	-0.008085691
43	0x3c1d0b99	0.009585285
44	0x3c3866bd	0.011254963
45	0xba4ba6fe	-0.0007768719
46	0xbbd34add	-0.0064481334
47	0x3ba954f4	0.005167598
48	0xbae55a19	-0.0017498165
49	0xbaaa99cb	-0.0013015805
50	0xbbd26dcc	-0.00642178

value_fc1.weight f4 [64, 261]
0	0xbdc47580	-0.09592724
1	0x3ddb8870	0.10719383
2	0xbd2c82ee	-0.04211705
3	0xbbdc21c0	-0.0067178905
4	0x3da98f75	0.082793154
5	0x3dd7767c	0.10520646
6	0xbc55db7d	-0.013052818
7	0xbe0c2dd5	-0.13689359
8	0x3d87e1e4	0.06634882
9	0xbd776aca	-0.060404576
10	0x3d57ffa3	0.05273403
11	0x3ce9d373	0.02854321
12	0x3da87d21	0.082269914
13	0xbbaed0ca	-0.005334948
14	0xbdbc22ff	-0.091863625
15	0xbe14cef7	-0.14532076
16	0xbd9df083	-0.077118896
17	0x3d5ad950	0.0534299
18	0x3dca57f3	0.09880056
19	0x3da5b38b	0.08090886
20	0xbcd9b6e7	-0.026576472
21	0xbdf16cb6	-0.11788313
22	0xbe38a6f5	-0.18032439
23	0xbd79ee55	-0.061018307
24	0xbc9ebd65	-0.01937742
25	0x3d66aaae	0.056315117
26	0xbdad47ee	-0.08460985
27	0x3e1accb7	0.15117155
28	0xbdfa0453	-0.12207856
29	0x3db50f87	0.08840852
30	0x3dcf7b88	0.101309836
31	0x3d940823	0.072281145
32	0x3de6817c	0.11255166
33	0xbda6346e	-0.08115469
34	0xbd0d5d7a	-0.034512974
35	0x3daa2a1e	0.083088145
36	0xbd078c69	-0.03309289
37	0xbd0bb590	-0.0341087
38	0x3e0a20b6	0.1348904
39	0xbd0faef2	-0.03507895
40	0xbe03a6ad	-0.1285655
41	0x3cbf23f8	0.02333258
42	0xbdf871fb	-0.12131115
43	0xbd40a067	-0.04702797
44	0x3e0965a9	0.13417687
45	0x3d962c84	0.073327094
46	0x3dd93710	0.106062055
47	0x3dd1475f	0.10218691
48	0x3da9c049	0.082886286
49	0x3e1f21a7	0.15540181
50	0x3e0572fa	0.13032141
51	0xbd592bec	-0.053020403
52	0x3d1634a1	0.036671285
53	0xbc9f4f9d	-0.019447142
54	0x3dba6ab7	0.091023855
55	0xbdbb8eb7	-0.0915808
56	0x3da1b09d	0.078950144
57	0x3da99f47	0.08282333
58	0x3cb7b822	0.022426669
59	0xbcdbcb30	-0.026830286
60	0xbd1fe503	-0.039036762
61	0xbda36612	-0.07978453
62	0xbd2f3ff4	-0.0427856
63	0xbcf41408	-0.029794708
64	0x3d3ef80c	0.046623275
65	0x3d5b5a39	0.05355284
66	0x3d7f8c0d	0.062389422
67	0xbd7dba1b	-0.061945062
68	0x3d67b04a	0.056564607
69	0x3c850797	0.01623897
70	0xbe05e326	-0.13074932
71	0x3d8c4a19	0.068500705
72	0x3deb1f50	0.11480582
73	0xbd962913	-0.07332053
74	0xbdf4d357	-0.119543724
75	0xbcf08f62	-0.029365245
76	0xbd8100d3	-0.06298985
77	0x3e0bf7b0	0.13668704
78	0xbc897a57	-0.016781969
79	0xbdb9ed71	-0.090784915
80	0x3d1334db	0.03593908
81	0xbcc7a581	-0.02437091
82	0xbdeb8fe3	-0.115020536
83	0xbdc37aff	-0.09544944
84	0xbe1ee2e3	-0.15516238
85	0xbdf8fcf0	-0.12157619
86	0xbd5b3281	-0.05351496
87	0xbe15ddf0	-0.14635444
88	0xbd995eb2	-0.07488765
89	0x3d956367	0.0729435
90	0x3c3efe24	0.0116572715
91	0x3d9b029c	0.07568857
92	0xbd9cb2f5	-0.07651321
93	0xbdfceea6	-0.12350206
94	0xbd9b29d4	-0.075763375
95	0xbb41de45	-0.0029581946
96	0xbdd81f0f	-0.10552799
97	0x3defa44c	0.11701259
98	0x3e0c8235	0.13721545
99	0xbcaffc07	-0.02148248
100	0xbdff9498	-0.12479514
101	0xbd3c43f0	-0.045963228
102	0xbc9d6e03	-0.019217497
103	0xbd4a540d	-0.049396563
104	0xbd909366	-0.07059364
105	0x3da4c2dd	0.0804498
106	0x3d851646	0.06498389
107	0xbcb62d56	-0.022238415
108	0xbdf785b0	-0.12086046
109	0x3e0c217e	0.13684651
110	0xbd602148	-0.05471924
111	0xbd7900f3	-0.06079192
112	0x3d467700	0.04845333
113	0x3bc4f0c5	0.0060101473
114	0xbd8df18f	-0.06930839
115	0x3cafe63a	0.021472085
116	0xbd9b2843	-0.07576039
117	0xbd560349	-0.052249227
118	0x3e173060	0.14764547
119	0x3da2840f	0.079353444
120	0x3dce7193	0.10080256
121	0x3dd75802	0.10514833
122	0xbdda31fe	-0.106540665
123	0xbd9e7b4a	-0.07738359
124	0x3db1f486	0.08689217
125	0xbd2f3608	-0.042776138
126	0x3de65787	0.11247163
127	0x3caec73e	0.02133524
128	0xbe0da5f4	-0.13832837
129	0x3d1513ac	0.036395714
130	0x3d9640fc	0.073366135
131	0xbdf1c6ed	-0.1180552
132	0xbcf70372	-0.03015301
133	0xbd84a630	-0.0647701
134	0x3d92a947	0.07161193
135	0x3e12036c	0.14259118
136	0xbd328caf	-0.043591198
137	0xba13162e	-0.000561091
138	0x3be76817	0.007061969
139	0x3b7eb4dd	0.0038865127
140	0x3d08b66d	0.0333771
141	0x3d541c9d	0.0517851
142	0xbc89b8a6	-0.01681168
143	0xbdb7867a	-0.08961196
144	0xbdd164f6	-0.10224335
145	0xbdcfc6c9	-0.10145337
146	0xbca78e0f	-0.020453481
147	0x3e0c9edb	0.13732474
148	0x3d69c202	0.057069786
149	0xbce6c569	-0.028170304
150	0x3dac18be	0.08403157
151	0x3d98072b	0.07423242
152	0x3cf572ef	0.029962031
153	0x3df20649	0.11817605
154	0xbdf50c24	-0.11965206
155	0x3d17966b	0.037008684
156	0xbe00cde6	-0.12578544
157	0xbd27250a	-0.040806808
158	0x3dd984e3	0.10621049
159	0xbe1b0fc5	-0.15142734
160	0x3dbc1e8e	0.09185515
161	0xbe0ddb5c	-0.1385321
162	0x3cd64c38	0.02615939
163	0xbd7fd20e	-0.062456183
164	0x3ccfa15f	0.025345502
165	0xbc2c9ec7	-0.010535902
166	0xbd9cc7ea	-0.07655318
167	0xbd12b459	-0.035816524
168	0xbd035e6e	-0.032072477
169	0x3d8f9f19	0.07012767
170	0x3e01903f	0.12652682
171	0xbdf9831a	-0.12183209
172	0xbda7282b	-0.08161958
173	0x3e13010f	0.14355873
174	0xbe3ab4a0	-0.18232965
175	0xbdd38b8b	-0.1032935
176	0xbd84db23	-0.064871095
177	0xbd883348	-0.06650406
178	0xbd0e0f88	-0.03468278
179	0xbc92fe32	-0.017943475
180	0xbd369d1d	-0.04458343
181	0xbd1d5a63	-0.038416278
182	0xbd929810	-0.0715791
183	0x3de21026	0.11038236
184	0x3dcaa0f8	0.098939836
185	0x3d444430	0.04791659
186	0x3c780b03	0.015139344
187	0xbd3af2e9	-0.045641813
188	0xbd850699	-0.06495399
189	0xbdb52c85	-0.08846382
190	0xbda0b117	-0.07846277
191	0x3e033ea9	0.12816872
192	0xbb3179dc	-0.002708069
193	0x3dec7696	0.11546056
194	0xbd0bfc34	-0.034176067
195	0xbe0a1528	-0.13484633
196	0xbc3c12f5	-0.011479129
197	0x3cc3fd5a	0.023924518
198	0xbe100aaa	-0.14066568
199	0x3c761f74	0.015022147
200	0xbbc0b178	-0.005880531
201	0x3d266e90	0.040632784
202	0xbd7eb5da	-0.062185146
203	0xbd7795f7	-0.060445752
204	0xbc38dc0a	-0.01128293
205	0x3d562863	0.05228461
206	0x3dce7ea7	0.10082751
207	0xbdd9462d	-0.10609088
208	0x3db78be7	0.08962231
209	0x3dbb3683	0.09141257
210	0xbc0d4966	-0.008623457
211	0xbcc1a0ed	-0.023636306
212	0x3d5e68a5	0.054299016
213	0xbdff021e	-0.12451576
214	0xbd9d0393	-0.07666697
215	0xbdf3d8ab	-0.119065605
216	0xbd476880	-0.048683643
217	0xbdea0acd	-0.11427841
218	0xbcd44274	-0.025910594
219	0x3d9836e3	0.07432344
220	0xbd806bc9	-0.062705584
221	0x3d9da362	0.076971784
222	0x3d3e03d4	0.04639037
223	0x3da16d9b	0.07882234
224	0x3d67ea24	0.05661978
225	0xbc62a285	-0.013832693
226	0xbd80363d	-0.06260345
227	0xbc95d7e0	-0.018291414
228	0x3cb3bd28	0.021940783
229	0xbd60fbf0	-0.054927766
230	0xbd1e3126	-0.03862109
231	0xbca51843	-0.02015317
232	0xbd513d5c	-0.051083907
233	0xbd82cb24	-0.06386402
234	0xbdca578b	-0.09879979
235	0x3da86174	0.08221713
236	0x3d85a218	0.065250576
237	0x3dc80960	0.09767413
238	0xbdaa9a10	-0.08330166
239	0xbdc89e95	-0.09795872
240	0xbdf497fa	-0.1194305
241	0xbdb5b6e3	-0.088727735
242	0xbcf42f00	-0.029807568
243	0xbb920b6d	-0.0044569285
244	0x3d4652ac	0.048418686
245	0x3d8d2085	0.06890968
246	0xba2d1717	-0.0006602867
247	0xbcbf45d2	-0.023348723
248	0xbdbf8478	-0.09351438
249	0x3de79436	0.11307566
250	0xbd712a4f	-0.05887824
251	0x3d66d399	0.05635414
252	0xbdf68d68	-0.1203869
253	0xbdacd7b8	-0.084395826
254	0xbd60f68b	-0.05492262
255	0xbdf4bb43	-0.1194978

value_fc1.bias f4 [64]
0	0x3c2826e9	0.010263183
1	0x3a059e58	0.00050971424
2	0x3c02269f	0.007943778
3	0xbb0ad275	-0.002118257
4	0xbb665b9f	-0.0035149825
5	0x3c1ec4a2	0.009690436
6	0x3c077c2a	0.008269349
7	0xbc2e61d9	-0.010643446
8	0x3afbe376	0.0019217569
9	0xbc1760c3	-0.009239378
10	0xbb85d955	-0.004084746
11	0xbbb3fa9b	-0.005492521
12	0x3bdc795c	0.0067283344
13	0x3c94660a	0.018115062
14	0x3c554e87	0.013019211
15	0x3c80c24c	0.015717648
16	0xbc09789b	-0.008390571
17	0x3c0fb6ea	0.008771637
18	0x3b939be9	0.00450467
19	0x3c837c35	0.016050437
20	0x3c8a2f91	0.016868385
21	0x3a33b9e0	0.00068560056
22	0xbbed8677	-0.0072486955
23	0xbb37ba1f	-0.002803452
24	0xbada5559	-0.0016657516
25	0xbb65825e	-0.0035020332
26	0xbc98c32e	-0.018647756
27	0xbbee7f23	-0.0072783395
28	0x3c0015ad	0.007817668
29	0x3c0b46c9	0.008500763
30	0xbbc77486	-0.0060868887
31	0x3b93dc84	0.0045123715
32	0x3c27124b	0.0101972325
33	0xbbfd2c99	-0.0077262637
34	0xbb47dea3	-0.0030497692
35	0xbc48ab19	-0.012247824
36	0x3981e2d8	0.0002477381
37	0xba500005	-0.0007934573
38	0x3c0195b2	0.007909225
39	0x3c4654a2	0.012105139
40	0x3c0401bb	0.008057053
41	0xbb996994	-0.0046817753
42	0xbb910906	-0.0044261245
43	0x3b77ac3a	0.0037791864
44	0xba51320a	-0.00079801737
45	0x3c1107ef	0.008851989
46	0xbb7b0b52	-0.0038306308
47	0x3bf2f65e	0.007414623
48	0x3b71c964	0.003689372
49	0xbbaaaf56	-0.00520889
50	0xbc76786d	-0.01504336
51	0xbb0115bd	-0.0019696795
52	0xbbc9e8c7	-0.0061617824
53	0xbb2996a2	-0.0025877138
54	0x3c0a2c37	0.008433393
55	0x3c44b72e	0.012006564
56	0x3c3ca6cd	0.011514378
57	0xbac7d656	-0.0015246372
58	0x3c6fe73b	0.014642532
59	0x3bbb55b0	0.005717002
60	0x3c841ed2	0.016127978
61	0xbb21918a	-0.0024653398
62	0x3c564761	0.0130785415
63	0x3c58a494	0.013222832

value_fc2.weight f4 [32, 64]
0	0xbe09e31c	-0.13465542
1	0xbde52b7d	-0.11189935
2	0xbcddec24	-0.02709014
3	0x3e7c2f82	0.24627498
4	0xbe605f68	-0.21911395
5	0x3db50dba	0.08840509
6	0x3e1c2683	0.15249066
7	0x3e473146	0.1945239
8	0x3d5fef46	0.05467155
9	0xbe4d4de1	-0.2004924
10	0x3de9199c	0.11381838
11	0x3cfd00f0	0.030884236
12	0xbdf538f3	-0.11973753
13	0xbdb01d14	-0.08599296
14	0x3e434ced	0.19072314
15	0xbe0c8bcc	-0.13725203
16	0xbd194ad0	-0.037424862
17	0xbe4dd094	-0.20099097
18	0xbe8750d5	-0.26428857
19	0xbe3d7701	-0.18502428
20	0x3dc103ac	0.094245285
21	0xbe55e247	-0.20887099
22	0xbd8ed5f9	-0.06974406
23	0xbe54afd7	-0.20770203
24	0x3e43d19b	0.19122927
25	0xbe201aca	-0.15635219
26	0xbca5a9a7	-0.020222498
27	0x3da1543c	0.078773946
28	0x3d98cb59	0.074606605
29	0x3d24e97d	0.040261734
30	0xbe46bd7a	-0.19408217
31	0x3e14c16b	0.14526908
32	0xbe14192e	-0.1446273
33	0x3d5d4d08	0.05402854
34	0x3e3bbdbd	0.18334098
35	0x3cbba9d6	0.022908133
36	0xbe704e77	-0.23467432
37	0xbddfdc4e	-0.10930692
38	0xbde66b62	-0.112509504
39	0xbc821a72	-0.01588175
40	0xbdc48653	-0.09595933
41	0xbe33009a	-0.17480698
42	0x3d9b09e6	0.07570247
43	0xbc85dda3	-0.016341036
44	0x3d881d50	0.06646216
45	0xbe3dfab7	-0.18552671
46	0x3d7bd393	0.06148107
47	0xbe5bbea1	-0.21459438
48	0x3e502069	0.20324863
49	0xbdbf7bcb	-0.093497835
50	0x3e6e3dd9	0.2326578
51	0x3d8ea24c	0.069645494
52	0x3e19a982	0.15006068
53	0xbe1bb081	-0.1520405
54	0xbe35a568	-0.17738879
55	0x3c1b3243	0.009472433
56	0x3e176dd1	0.14787985
57	0x3ce873b6	0.028375488
58	0x3df952b1	0.12173975
59	0x3dfa3cb5	0.1221861
60	0xbe5c4548	-0.21510804
61	0xbc8756e0	-0.016520917
62	0x3d52becb	0.051451486
63	0x3de8de67	0.11370545
64	0xbdf3b265	-0.118992604
65	0x3e626620	0.2210927
66	0x3e3ae3dd	0.18250985
67	0x3e32a1d0	0.17444539
68	0x3dc5d3ec	0.096595615
69	0xbe1a8a52	-0.15091828
70	0xbe2f45ad	-0.17116423
71	0x3b8849aa	0.004159172
72	0x3c52a0a2	0.012855681
73	0x3c3f6e24	0.011683974
74	0xbd2e993b	-0.0426266
75	0xbd4bc14a	-0.04974488
76	0xbe0c6730	-0.13711238
77	0x3e637912	0.22214153
78	0xbe199c86	-0.15001115
79	0x3d8cc2e0	0.06873107
80	0x3d80fad1	0.062978394
81	0x3e672d08	0.22575772
82	0x3b4bd716	0.0031103543
83	0x3df0f6a2	0.117657915
84	0x3cf97e7c	0.03045582
85	0x3e5c0416	0.21485934
86	0xbdd7ee98	-0.10543555
87	0x3e4ea978	0.20181835
88	0x3e626130	0.22107387
89	0xbd9baabe	-0.07600926
90	0xbdfa3c4e	-0.122185335
91	0x3c40bf9c	0.011764433
92	0x3e2f8d61	0.17143776
93	0xbc4b041e	-0.012391118
94	0xbe41dcb2	-0.18931845
95	0xbcb5612b	-0.02214106
96	0x3e26accb	0.16276853
97	0xbe4f96fd	-0.20272441
98	0x3dd4d65a	0.10392447
99	0x3a773d78	0.0009431462
100	0xbdb5738e	-0.08859931
101	0x3d3a97c3	0.045554888
102	0xbd96e37e	-0.073676094
103	0x3e1c3715	0.15255387
104	0xbdfd92d8	-0.12381524
105	0x3e3cf96e	0.18454525
106	0x3d5ca9c5	0.053872842
107	0xbdac838c	-0.08423528
108	0xbe5487be	-0.20754907
109	0xbe421578	-0.18953502
110	0x3dc2f944	0.095202
111	0xbdd42d29	-0.10360176
112	0xbe06c1d3	-0.13159876
113	0xbe0ca24f	-0.13733791
114	0xbd6f63a8	-0.05844465
115	0xbdbaf3fa	-0.09128566
116	0x3e25bb12	0.16184643
117	0xbd6b35e2	-0.057424434
118	0xbe505a13	-0.2034686
119	0xbdcf266d	-0.10114751
120	0x3e56426b	0.20923774
121	0x3e7d9820	0.24765062
122	0x3d41c854	0.04731019
123	0xbe2099b4	-0.15683633
124	0xbe07ec8f	-0.13273834
125	0xbe2e4393	-0.17017965
126	0x3d595153	0.053056072
127	0x3e2c84c7	0.16847526
128	0xbe50c3dd	-0.20387216
129	0x3d098ee3	0.033583533
130	0xbca02c00	-0.01955223
131	0xbd4fd939	-0.05074427
132	0x3e0b1c9b	0.13585131
133	0x3df91ac6	0.1216331
134	0xb9c97e47	-0.00038431791
135	0xbd3af05a	-0.045639373
136	0x3e6987af	0.22805665
137	0xbd3448d8	-0.04401478
138	0x3d653a20	0.055963635
139	0x3da0bee1	0.07848907
140	0xbd77892a	-0.060433544
141	0x3e5b8634	0.21437913
142	0xbce2cc72	-0.027685378
143	0x3e7bdf47	0.24596892
144	0x3e565f02	0.2093468
145	0x3d901931	0.07036055
146	0x3d455377	0.0481753
147	0xbdae903c	-0.08523604
148	0xbe37ea9c	-0.1796059
149	0x3e625c3c	0.22105497
150	0xbd91973a	-0.07108922
151	0xbd9909ea	-0.07472594
152	0x3d280955	0.041024525
153	0x3dc7fcda	0.097650245
154	0x3e11c01e	0.14233443
155	0xbdead27d	-0.11465929
156	0x3e14afd1	0.14520194
157	0xbe8845e0	-0.2661581
158	0x3d7b455c	0.061345443
159	0xbe7f25cf	-0.24916767
160	0x3dd9d86f	0.106369846
161	0x3e5e938e	0.21735975
162	0xbe83f93d	-0.2577609
163	0xbe733973	-0.23752384
164	0x3d8ffeb5	0.070310034
165	0x3e2b8ca9	0.16752876
166	0x3e1011d3	0.140693
167	0x3d42bf0c	0.047545478
168	0xbe3783be	-0.1792135
169	0xbe0531bd	-0.13007255
170	0x3e2ea312	0.17054394
171	0x3e5778ca	0.21042171
172	0xbe3af1c5	-0.1825629
173	0xbe40ad0d	-0.18816014
174	0x3e67ba2d	0.22629614
175	0x3b7d0a50	0.0038610883
176	0x3da59897	0.08085745
177	0x3e63ab61	0.22233345
178	0x3ae1f1d4	0.0017238208
179	0xbb18464f	-0.0023235267
180	0x3dbc7689	0.09202296
181	0x3e4f7ad4	0.20261699
182	0x3d1b7c65	0.03796043
183	0x3d259f14	0.04043491
184	0xbc6230b7	-0.01380556
185	0x3c7853d7	0.015156708
186	0x3dec79df	0.115466826
187	0xbe2c541e	-0.16828963
188	0x3dd44381	0.10364438
189	0xbe35da82	-0.17759135
190	0x3e144ccc	0.1448242
191	0x3e75ba52	0.23996857
192	0xbe3c2c2a	-0.18376222
193	0xbca6587e	-0.020305868
194	0x3db57913	0.08860984
195	0xbe374f95	-0.17901452
196	0x3e034143	0.12817864
197	0xbdf97074	-0.12179652
198	0xbd831dce	-0.06402169
199	0xbd0bd1b9	-0.034135554
200	0xbe4f0152	-0.20215347
201	0x3e833c5e	0.25631994
202	0x3dc4e37c	0.09613702
203	0xbd916758	-0.070997894
204	0xbe057508	-0.13032925
205	0xbd3a3692	-0.0454622
206	0xbcb26ff5	-0.0217819
207	0x3d9d2f0c	0.07674989
208	0xbd59b8d3	-0.053154778
209	0x3e2ae1fd	0.1668777
210	0xbdae4731	-0.085096724
211	0x3e41bb43	0.18919091
212	0x3d58b450	0.052906334
213	0x3ddea535	0.108713545
214	0xbda151da	-0.0787694
215	0xbe54a1a5	-0.20764787
216	0x3e3965ce	0.18105242
217	0xbe03bca3	-0.12864928
218	0xbe6d8fa8	-0.23199332
219	0x3e603595	0.2189544
220	0xbdebe603	-0.11518481
221	0xbd4c6321	-0.049899224
222	0x3deb0b74	0.11476794
223	0x3e6b2443	0.22963051
224	0x3e1fa21c	0.15589184
225	0x3e196be5	0.14982565
226	0xbe07d2b2	-0.13263968
227	0xbd1463ea	-0.036228098
228	0x3da32990	0.07966912
229	0x3e3500fa	0.17676154
230	0x3dfe17e8	0.124069035
231	0x3de44428	0.11145812
232	0x3c2dcc9c	0.010607865
233	0x3cc00411	0.023439439
234	0x3da4f205	0.08053974
235	0xbe709dca	-0.23497692
236	0x3e3ff8e7	0.18747292
237	0x3d8f7f7d	0.07006738
238	0x3e07fc44	0.13279825
239	0xbd9fdacd	-0.07805405
240	0x3e5f790a	0.21823516
241	0x3e470c57	0.19438301
242	0xbdecb65c	-0.1155822
243	0x3e6b9345	0.23005398
244	0xbdd4181d	-0.10356162
245	0xbdb89110	-0.090120435
246	0xbb64f5bb	-0.0034936506
247	0xbe64ec82	-0.22355846
248	0xbe216a12	-0.15763119
249	0xbc86c02f	-0.016449062
250	0xbdc18e2f	-0.094509475
251	0x3e11b153	0.142278
252	0xbe106a61	-0.1410308
253	0x3cbb41a0	0.02285844
254	0xbe6b886f	-0.23001264
255	0x3e01fdb3	0.12694435

value_fc2.bias f4 [32]
0	0xbbef57ca	-0.0073041664
1	0x3a31c686	0.00067815965
2	0x3b72d095	0.0037050594
3	0x3b79bae2	0.0038105776
4	0xbc146c8d	-0.009059084
5	0xb9bb407f	-0.00035715473
6	0x3b709e1c	0.0036715334
7	0xbc17b7d1	-0.009260134
8	0xbb972fa2	-0.0046138326
9	0xbca58cd7	-0.02020876
10	0xbbce7a26	-0.0063011823
11	0x3b3437b7	0.002749903
12	0xbc68e0fe	-0.014213799
13	0xba4585c6	-0.00075348874
14	0x3bcb18c9	0.006198023
15	0xbc01bd8a	-0.007918725
16	0x3c3911d0	0.011295751
17	0x3babf6a1	0.0052479063
18	0xbbc0e18e	-0.005886263
19	0xbbad8119	-0.0052949307
20	0xbc149328	-0.009068288
21	0x3c3a3903	0.011366132
22	0x3c3573ef	0.011075004
23	0x3ba3243e	0.0049786856
24	0xbc532fce	-0.0128898155
25	0x3bfa1640	0.007632047
26	0x3bcb2b08	0.006200198
27	0xbc276f79	-0.010219448
28	0x3c749185	0.014927273
29	0xbbc23c87	-0.0059276256
30	0x3c516b46	0.012781924
31	0xbb91adbf	-0.004445761

value_fc3.weight f4 [1, 32]
0	0x3da92835	0.08259622
1	0x3e9aabfd	0.30209342
2	0xbb0d409c	-0.0021553403
3	0x3e9d85e9	0.30766228
4	0x3d576f3c	0.052596316
5	0xbe77bfea	-0.24194303
6	0xbe4394c1	-0.19099714
7	0xbeb980cb	-0.36231074
8	0xbed3b9f2	-0.41352803
9	0xbe06b15f	-0.13153599
10	0xbe9eb43f	-0.30996892
11	0x3eccbb52	0.39986664
12	0xbdc6e13e	-0.0971093
13	0xbe327cf6	-0.17430481
14	0x3eacebc7	0.33773634
15	0xbe895d48	-0.2682898
16	0x3ea85f53	0.32885227
17	0x3e35fb54	0.17771655
18	0xbec93bc5	-0.39303413
19	0xbde81398	-0.11331862
20	0xbeadbf13	-0.3393484
21	0x3ece8a40	0.4033985
22	0x3ecbf647	0.39836332
23	0x3e4c39af	0.1994388
24	0xbc8d6fa4	-0.017265148
25	0xbe797959	-0.24362697
26	0x3ee2bd62	0.44285113
27	0xbe98df22	-0.29857737
28	0x3d546fb8	0.051864356
29	0xbde466fd	-0.11152456
30	0x3dfc5e61	0.12322689
31	0xbdc792a8	-0.09744769
