rl/spin_model_11291456/11.pt (torch_old, 159601 bytes, 12 tensors)

log_std f4 [51]
00000000: 1c4b 0f3d 471a 523d 75fc b33c d275 ff3d
00000010: 6a67 f03d 6ae7 dd3d b900 ab3d 1d0b a73d
00000020: 0982 503d c5d8 0e3e 5fad ff3d fdae fb3d
00000030: ee89 cf3d 33ca f93d 1588 a13d 8516 ba3d
00000040: 47d9 e53d 5103 d43d c817 be3d 4c31 e83d
00000050: 3a62 cd3d 9f20 db3d fda5 013e 22f2 163e
00000060: 0f3b da3d 109e 103e e1aa 153e 883e ef3d
00000070: d55e c73d df99 b03d c7f1 963d 0bb3 ea3d
00000080: 2227 6b3d 6beb a33d ef41 f03d 8cec ed3d
00000090: db1c af3d c741 ab3d 7c33 7b3d 2975 043e
000000a0: 4496 e13d 22e0 b23d 20d7 943d 1aee af3d
000000b0: d74f 6e3d 740e 9b3d 42de c83d 4806 aa3d
000000c0: ec47 f13d 5744 d63d 96b8 f53d
0.03498374 0.05129459 0.021970967 0.12473644 0.11738475 0.10835154 0.08349747 0.081564166
0.05090526 0.13949879 0.1248424 0.12289236 0.1013373 0.121967696 0.07887284 0.090863265
0.11223083 0.10352195 0.0928188 0.11337528 0.10028501 0.10699581 0.12660976 0.14740804
0.10655796 0.14122796 0.14615966 0.11681849 0.09734885 0.086230986 0.07370334 0.11459931
0.057410367 0.08003887 0.11731326 0.11617383 0.085504256 0.083621554 0.061328396 0.12935318
0.11014989 0.08734156 0.07267594 0.08590336 0.05818161 0.07571116 0.09808017 0.08301979
0.11781296 0.104622535 0.119980976

policy_fc1.weight f4 [64, 261]
00000000: bf61 c3bd b803 083d 8e19 31bd f680 bfbd
00000010: 0ba9 c5bd beb6 e33d b422 f2bc a3df 47bd
00000020: 4a78 dfbc 7af3 023d 68a1 503d 1f9f 76bd
00000030: ac9a 05be d451 4a3d aec7 393d 493b 3abd
00000040: a5b0 033e d621 07be a6d3 9cbd b961 8fbd
00000050: d0fe 27bc ee60 4fbc 43a2 e338 2ef0 0bbd
00000060: 3fef bd3d 9e07 c5bc b559 eb3d 34ca 52bd
00000070: d0bc 5c3c c328 033e 3e1c a63d e09e cdbd
00000080: 8765 f7bd 0c4e 043d 363d c7bd 7e75 c63d
00000090: 7eec aebd 80e1 73bd 1f8d 4fbc b057 be3d
000000a0: 3ada 633d fc1b 47bd 1889 26bd 36e1 a5bc
000000b0: c060 f2bc 340b c33d 9520 6cbd c46b bdbd
000000c0: 9505 bdbd 40cd e73d 0345 e7bd 591b ed3d
000000d0: a4bc dd3d c016 0b3e 61a3 09bd 8e1a efbd
000000e0: 6162 a83d 6f9c 7b3d 4b55 7abd deb3 353d
000000f0: 9c3c f6bd b767 f13b d273 a23d c415 48bd
00000100: 06b2 68bd 9069 fa3d f17f 9dbd 5af2 1dbe
00000110: 9716 28be 28e4 e8bd ac44 d4bd 2844 0cbe
00000120: c9fc 5bbc 1378 a5bd 2f0b 9cbd 4008 ee3c
00000130: d189 93bc a741 ee3d 9abb 00be 9b90 fc3d
00000140: 4de6 ad3d fd92 d03d e5f6 4e3d 3dc4 463d
00000150: e3a7 613d c413 03be 33ba 54bd 9fca c8bd
00000160: 5d5c 8e3d 159d adba fb26 cabc 4a40 2d3d
00000170: 714f 3d3d 9cd7 033c cf68 b03c 1c0c 3c3d
00000180: d06c 22be cbf0 fb3d 1a58 153e fd39 2e3c
00000190: 16a3 7f3d 290b 82bd 7614 09be 69bd 1cbd
000001a0: 6ee3 f2bc f9c7 073e 9297 773d 5896 e13b
000001b0: 0010 8f3d 0264 b53d 7ae2 c8bd baf5 6c3d
000001c0: 8b86 3b3d bb15 61bd 9bbd f9bd f114 503e
000001d0: 5789 80bc d710 563d a11a e0bd 2ebd 20bc
000001e0: ac74 9bbc 55d4 d9bd b290 e53d 61dd 55bd
000001f0: 5e0e 56bb a552 d9bc fc99 6bbd a0e3 e53d
00000200: cfff f43d f1d1 cabc f464 8a3d 1aa5 8abb
00000210: c22b ea3d c31a e13d 96a2 b43c 8918 dcbd
00000220: a398 92bd 3905 353c d9f2 bdbb 9513 c73d
00000230: 23b1 23bd 281c b83d bffa 073d 82e2 81bd
00000240: 00d2 e8bc adfd 6bbd cb21 80bc e376 913d
00000250: 8c2c 613d 54d8 0bbe 4a67 b0bd c87f 093e
00000260: a03b eebd 5a48 9d3d 6fc8 d23c dfca 11be
00000270: a67e d43d 0c23 20bc 8c9a a13b 47dc aa3d
00000280: 73ac 1dbd 9a9d 823d d350 8c3d 1d91 12bd
00000290: c025 acbd c67a 77b9 dbe0 f53d c955 ebbd
000002a0: 6058 d73d 07e0 073e 1338 cc3d c6f7 ff3d
000002b0: e135 8bbd ae8f e93d 16f3 c8bc 8b43 fcbc
000002c0: b480 ce3c ac12 a9bd 99a0 063e 9920 b43d
000002d0: 0d89 263d a06d e23d 522a 043d 596a 3c3d
000002e0: 4694 e3bd b939 26bd 81bd 1e3e e61d af3d
000002f0: 1cc7 e43c 10d6 173e 54a5 c8bd 51dd 90bd
00000300: 7f41 c53d dd65 083e 2227 b03d 4b24 8bbd
00000310: a96d f5bd 54c9 963c 93ac 323c e2fc af3d
00000320: fb27 b13d 1f64 9c3b cb75 053c ed30 1dbd
00000330: 9e18 f03d 10cf 2f3d c5e1 55bd c553 753c
00000340: 34d1 a8bc b68a e53d f972 f83d 01f6 163e
00000350: e299 91bc 5d94 1b3e 1c7c 79bd e9d8 8ebd
00000360: c6ff 0d3e e164 c4bd 3f2f f03c cb4c f83d
00000370: 1213 3abe 6954 813d 3acb 9e3d 2a3d 5bbc
00000380: 7d92 193c 04e5 f13d 16a0 9a3d 614f efbc
00000390: 4e82 5b3d 0191 05be 80af c0bd d166 b63d
000003a0: 4d44 a73d 7582 e9bd a5dd 123e e644 36be
000003b0: 3719 ae3d 7672 38bc 3099 dc3c b9ec c93d
000003c0: fcab 08bd 08c2 3a3a 0ae4 e73d 2d32 e8bd
000003d0: a8ec 09be c44d f93d 9de5 053d 544c 18be
000003e0: e01f e13d 9c1e 65bd 185c 4eba a468 de3d
000003f0: fdd4 593d 2c16 743d 875d 50bd 5684 16bd
-0.09540128 0.03320667 -0.04323726 -0.09350769 -0.09651383 0.1111884 -0.029557563 -0.04879726
-0.027279038 0.03197048 0.05093518 -0.060210343 -0.13047284 0.049394444 0.045356445 -0.045466695
0.12860353 -0.13196501 -0.07657556 -0.07001061 -0.010253623 -0.012657387 0.00010854427 -0.0341646
0.09274148 -0.024051484 0.1149172 -0.051462367 0.013472751 0.12808518 0.081108555 -0.100400686
-0.12079912 0.032300994 -0.09728472 0.096903786 -0.08541201 -0.059541225 -0.012667923 0.09294069
0.05562804 -0.048610672 -0.040658087 -0.02024899 -0.02958715 0.09523621 -0.05764826 -0.0924907
-0.0922958 0.11318445 -0.1129246 0.11577482 0.10826996 0.13582897 -0.033603076 -0.11674987
0.08221889 0.061428484 -0.061116498 0.044360988 -0.12023279 0.0073671 0.07932247 -0.048848882
-0.0568104 0.12227166 -0.076904185 -0.15424481 -0.16414867 -0.11371642 -0.103646606 -0.13697875
-0.013426968 -0.08079543 -0.076193206 0.029056668 -0.018010052 0.11633616 -0.12571564 0.12332269
0.08491192 0.10184286 0.050528426 0.04852699 0.05509175 -0.12800509 -0.051935386 -0.09804272
0.06951211 -0.0013245667 -0.02467679 0.04229764 0.04621834 0.008047011 0.021534352 0.045909986
-0.15861821 0.12301787 0.1458439 0.010633943 0.06241139 -0.06349785 -0.13386711 -0.038266573
-0.029649463 0.13259877 0.060447283 0.0068843774 0.06985474 0.088569656 -0.09808822 0.05785153
0.045782607 -0.054952364 -0.121943675 0.20320489 -0.015690489 0.052262153 -0.10942579 -0.009810729
-0.018976532 -0.10636202 0.11209239 -0.052213077 -0.0032662372 -0.026528666 -0.057519898 0.11225057
0.11962854 -0.024758311 0.067575365 -0.0042311074 0.114341274 0.109914325 0.022050183 -0.10746867
-0.071580194 0.011048608 -0.005796772 0.09720532 -0.039963853 0.089897454 0.033198114 -0.06342031
-0.028420448 -0.05761497 -0.015641114 0.07102754 0.054974124 -0.13656741 -0.08613451 0.13427651
-0.11632466 0.076798156 0.02573034 -0.14237545 0.10375719 -0.009773981 0.0049317535 0.08342796
-0.03849454 0.06377716 0.068513535 -0.035782922 -0.08405638 -0.00023601492 0.120057784 -0.114909716
0.10514903 0.13269053 0.09971633 0.12498431 -0.06797386 0.11404358 -0.024529975 -0.030793926
0.025207855 -0.082555145 0.131472 0.0879528 0.040658046 0.110560656 0.032266922 0.04599986
-0.11112265 -0.040582392 0.15501978 0.085506245 0.027926974 0.14827752 -0.09797159 -0.07073463
0.09631633 0.13320108 0.08601214 -0.06794032 -0.11983807 0.018406548 0.010905403 0.085931554
0.08650204 0.0047726776 0.00814576 -0.038376737 0.11723445 0.04292208 -0.052217264 0.0149735855
-0.020607568 0.11208098 0.12131304 0.1474228 -0.017773572 0.15193315 -0.060909376 -0.06974966
0.13867101 -0.095895536 0.029319404 0.12124022 -0.18171337 0.06314928 0.07753606 -0.013381282
0.009373304 0.118112594 0.07550065 -0.029212655 0.053591065 -0.13043596 -0.09408474 0.089063294
0.08167324 -0.11401836 0.14342363 -0.1779972 0.08500903 -0.011257758 0.026928514 0.098596044
-0.033367142 0.000712425 0.11322792 -0.11337695 -0.13469183 0.12173036 0.03268968 -0.14872867
0.10992408 -0.055937394 -0.00078719994 0.10859802 0.053181637 0.059591457 -0.050870445 -0.0367473

policy_fc1.bias f4 [64]
00000000: 79ae 9a3b e87f 97bc 5d5d 5abc 5fef 3e3c
00000010: 5d47 8cbc 3a54 3b3c 9c1b 81ba d10e 8a3b
00000020: 9a1e 10bb 95a9 8cbc 31e9 5dbb 3238 0b3b
00000030: 5269 13bd 6948 00bc 08a3 85ba 4282 ff3b
00000040: 163e 91ba 909b 0abc ca62 48bc d722 55bc
00000050: b6a9 5a3b 1383 0e3a 55c4 6bbc 28b4 03bb
00000060: 4c52 febc e040 1bbb f3ba c7bb ed74 82bb
00000070: 5ad2 dd3b 32de 7cbb 0ae9 fbbb eddc 56bc
00000080: fe20 9d3b c91d adbc 83dc dfbb 56c0 e0bb
00000090: 3a1f 163c 65d1 113c 9ec7 433b 1778 6fbc
000000a0: d24e ddbb e1fd 70bb 3f57 ac3b 8644 63bc
000000b0: 0002 78bb 4660 9cbc 06af 35bb 80ef d2bb
000000c0: 68fe ba3b 23fa 41bc 57b7 15bb 1c6c ccbc
000000d0: 83b2 0abb 950e 91bb af87 26bc 3efb 11bc
000000e0: bdfb a1bb 7f67 2ebc 882c 2b3a b3ea bfbc
000000f0: ea02 abbb 9bde eb39 6ad5 67bc 0fc7 8cbc
0.004720506 -0.018493608 -0.013327924 0.01165375 -0.017123872 0.011433655 -0.0009850147 0.004213192
-0.0021990896 -0.017170707 -0.0033860917 0.0021243212 -0.035989113 -0.007829764 -0.0010195682 0.0077975104
-0.0011081125 -0.008459941 -0.012230584 -0.013008795 0.0033365316 0.00054364017 -0.014390071 -0.0020096395
-0.031045102 -0.0023689792 -0.006095284 -0.003981224 0.0067694606 -0.0038584587 -0.0076876925 -0.013114196
0.0047951927 -0.021132367 -0.006831707 -0.0068588657 0.009162718 0.008900021 0.002987362 -0.014616034
-0.006753781 -0.0036772417 0.005259424 -0.013871318 -0.003784299 -0.019088876 -0.002772273 -0.006437242
0.005706597 -0.011839422 -0.0022844875 -0.024953894 -0.002116353 -0.004426787 -0.010164185 -0.008909998
-0.0049433396 -0.010644793 0.0006529768 -0.023427343 -0.0052188532 0.00044988547 -0.014150003 -0.017184762

policy_fc2.weight f4 [32, 64]
00000000: daad 183d 7fda 513e 7745 d7bc 8502 0e3c
00000010: 1a76 c73d b48c 4bbe 25fd f2bc fd9f 35be
00000020: 3bd6 673e 4ddb b0bd b081 64be 213f f5bd
00000030: c259 7c3c 7aa5 363e de89 383d 224d 993d
00000040: 7976 35be 6103 acbd ec52 74be b15c 1fbe
00000050: 4cac dfbd b487 9ebc b568 713e 28ce 70be
00000060: 0697 85be 52b8 623e 4fdc 933d 5758 263e
00000070: b703 c4bb 15ae 18be b907 693e 64ce 1c3e
00000080: d026 e43c 73e5 453e a3bf 293e d90f 1f3e
00000090: bfca 52bc 448d 773e 9e3a 3e3e ee36 ea3d
000000a0: e691 423e 4808 c4bc b2c3 1b3d 6f17 79be
000000b0: e768 073c 2f19 b1bd f780 443e 4613 c13d
000000c0: 6934 3abe 8c3a 6bbe 60ba 623e e0df d53d
000000d0: b005 bd3b 48ec bc3d 680f 073d 178d c9bd
000000e0: 0716 e53d fd0f 7b3e c907 913b 2f9e 92bd
000000f0: 4b51 ee3d b18a 59be 39c6 b83b b447 a03d
00000100: 27a6 1e3d ca73 c13d 08c5 23be 99af f8bd
00000110: 3dc6 873e bf2a 553e 1f76 1fbe 0aa8 6a3d
00000120: c3f0 2abd 4db7 cc3d 80da e9bd 8355 203e
00000130: ab07 26bd 2a67 543d e2aa b93d 7bdb 5cbd
00000140: 64f0 14be d3b3 62be 4752 66be 1c4c 00be
00000150: 87ba 84bd 11d2 5b3e 9dd5 63bd 907f 113d
00000160: 09de 953d 54a7 24bd d7dd 73be ec6f 4c3e
00000170: f63b 45be 4a7d 99bd cbb5 f43d 1796 3f3e
00000180: c147 29be ccc7 8f3d 80df 053e e54e 17be
00000190: b892 523c 82d5 5dbd 1160 bcbc 41ae 86bd
000001a0: aab6 343c abdf c6bd 62f0 4b3d d0ae 2cbe
000001b0: e239 febd 611a 8cbd 361b 783e 5adc 643e
000001c0: 1c4a da3c 006d ca3d c7e9 07be 8cfc 413e
000001d0: fdf8 6a3e d210 3d3b 1188 86be 10d5 15be
000001e0: 4a58 09be 2771 49be 0980 313e 9257 12be
000001f0: aa38 0a3d 2acf dcbc 6736 d6bd c877 4e3d
00000200: c2ac 82be e7d5 a23c 88ed 303d ce64 e43d
00000210: aac3 24be af36 fdbd afbd 13bd b43e 85be
00000220: 4e03 1c3e aeed 8e3c cd91 0a3e f677 0f3e
00000230: 9e92 2ebe 1238 84bd b0ac 50bc 928d c43d
00000240: 8949 463e 064a a2bc 9175 c73c cfad 903d
00000250: 620c 77be 3216 70bd d7ab 0b3e ec41 42be
00000260: 4c05 213a 351d 7cbe 3d41 443e fdee 693e
00000270: 6d23 d23d 498c 233e 59b8 42be 1fbc ba3c
00000280: ed36 54be 8504 a03d e709 01bb 1cd6 2f3e
00000290: 4b26 2d3e be2f 4b3e 3fa8 4b3d 5cb7 38be
000002a0: cc27 853e 572b 813d fd52 3c3d 1c78 84bc
000002b0: 2fa8 47be ae46 1dbe 923b 263e a56b fbbc
000002c0: 2284 333e 78da 353e 2414 c33d fb3c 893c
000002d0: 1c24 3d3e 3f64 9abd a261 8e3d 222f 8d3d
000002e0: b5b6 42bd f762 14be 0c7c 313c 60b6 2a3c
000002f0: de0c 44be 2f7b 5e3e 1dd5 6c3e d0c7 123e
00000300: 7696 1dbe 9083 a83d 79ce b73c ed08 3abe
00000310: 14ad 603e 86b7 873c 147b 2c3c 277b dabd
00000320: a53e 5f3e 4dee afbd f980 53be 7d16 3bbd
00000330: 9b36 a53d c238 063e 5576 9b3d c23b 7e3e
00000340: 13ed 52be 1b66 2d3d 9038 6b3d 8dcf 683e
00000350: 990b 2f3e 2525 cd3d e516 613d 5236 293e
00000360: 7c59 b43d 54e1 7bbd f70a e7bb b928 b2bd
00000370: a949 68be 3891 b63d 5928 0fbe 91f8 493e
00000380: ca61 fabc 34c4 2c3e 6598 82be 731c 3e3e
00000390: 86c3 d4bd 7960 3d3e 6fac 553e e828 ac3d
000003a0: 0506 1abe 0ee9 3abe 780b dabc 8993 94bd
000003b0: 44f6 853e d3d3 4fbe 7844 89bd 2907 70be
000003c0: fac7 923d ebf2 31be 853e 80bc 287b bb3d
000003d0: a7aa 003e f25d 48be 4a12 5b3e 8a09 313d
000003e0: b419 453d 51fe b4bd dc67 3b3e 8dbc 473e
000003f0: f45a f43d 8750 0b3e aa66 53be 3457 f53d
0.037275173 0.20493506 -0.02627824 0.008667593 0.09739323 -0.19877893 -0.029661724 -0.17736812
0.22640316 -0.08635578 -0.22315097 -0.119749315 0.015402259 0.17836562 0.045053355 0.07485415
-0.17720975 -0.08399082 -0.23859757 -0.15562703 -0.10921535 -0.019351818 0.23575099 -0.23516142
-0.26091784 0.22140625 0.07219755 0.16244636 -0.005981888 -0.14910157 0.22756852 0.15313107
0.027850538 0.19325809 0.1657701 0.15533389 -0.012865721 0.24174982 0.18577048 0.11436258
0.19000968 -0.02392973 0.038028426 -0.24325345 0.008264757 -0.086473815 0.19189821 0.09427504
-0.18184055 -0.22971553 0.22141409 0.104430914 0.0057685003 0.092247546 0.032973677 -0.09841364
0.11185842 0.24517818 0.004425977 -0.071590774 0.11636599 -0.21244313 0.0056388644 0.07826176
0.038732674 0.09445913 -0.1599313 -0.121428676 0.2651843 0.20817088 -0.15572403 0.05728916
-0.041733515 0.09995899 -0.11418629 0.1565762 -0.040534656 0.051856197 0.090657964 -0.05392025
-0.14544827 -0.2213891 -0.22492324 -0.12529033 -0.0648089 0.21466853 -0.05562364 0.035522044
0.073177405 -0.04019864 -0.23815094 0.1996457 -0.19261155 -0.074946 0.11948737 0.18709598
-0.16531278 0.0702053 0.1307354 -0.1477619 0.012852363 -0.054158695 -0.022995027 -0.06576205
0.011029879 -0.0971063 0.049789794 -0.1686356 -0.12413384 -0.06840969 0.2422913 0.22349682
0.026646666 0.09884071 -0.13272773 0.18943995 0.22946544 0.0028849137 -0.26275685 -0.14632058
-0.13412586 -0.1967207 0.17333998 -0.14291218 0.033745445 -0.026954252 -0.10459595 0.0504072
-0.2552243 0.019877387 0.043195277 0.111520395 -0.16090265 -0.12363946 -0.03606957 -0.260244
0.15235636 0.017447319 0.13532181 0.14010605 -0.17048118 -0.06456007 -0.012736484 0.09597315
0.19363989 -0.019810688 0.024348052 0.07064401 -0.24125817 -0.058614917 0.1363977 -0.1897046
0.0006142452 -0.24620517 0.19165511 0.22845073 0.10260663 0.15971483 -0.19015636 0.022794781
-0.20724078 0.07813362 -0.001968974 0.1717152 0.16909139 0.19842431 0.049721 -0.18038696
0.26006925 0.063070945 0.04597758 -0.016170554 -0.1949775 -0.15358993 0.16233662 -0.030690977
0.17530873 0.1775912 0.09525326 0.01675271 0.18470806 -0.07538652 0.06952216 0.068937555
-0.047537524 -0.14490877 0.010832798 0.010419458 -0.19145533 0.21726678 0.23128171 0.14334035
-0.15389428 0.082282186 0.022437321 -0.18167467 0.21941024 0.016567003 0.010527391 -0.10668021
0.2180124 -0.08590374 -0.20654668 -0.045675743 0.08067056 0.13107589 0.075909294 0.24827483
-0.20598249 0.042333703 0.05742699 0.22735424 0.17094268 0.100168504 0.054953475 0.16524628
0.0880613 -0.061494187 -0.0070508677 -0.086991735 -0.22684349 0.08914417 -0.13980235 0.19723727
-0.030564208 0.1687172 -0.25506893 0.1856554 -0.10388856 0.18493833 0.2086656 0.0840624
-0.15041359 -0.18252966 -0.026616797 -0.072547026 0.26164448 -0.20295648 -0.067025125 -0.23440231
0.07167049 -0.17377822 -0.015654812 0.091543496 0.12565099 -0.19567087 0.21393695 0.043221988
0.048120216 -0.088375695 0.18301338 0.1950552 0.119314104 0.13604937 -0.20644632 0.11979523

policy_fc2.bias f4 [32]
00000000: b439 6eba 0abc 7bbc 1ff0 a2bb a5a9 2ebc
00000010: dd5b 1fbb d557 4bbd d40a c63b 2563 30ba
00000020: a39b f8bc ee91 063c 9c82 e7bb 8051 f639
00000030: 6775 18bd a591 06bd 554f 56bc 6aa5 81bc
00000040: c920 4a3c a5c4 c33b 20e6 823c d89b 5cbc
00000050: 67c5 653c 79f4 b53c 1c04 90bc efe2 af3b
00000060: 60cf 953b 3c36 ae3b 5441 97bc 871d b2bc
00000070: c19a 82bc 6ffe cdbb 505f 37bb e04f dbbb
-0.0009087578 -0.015364656 -0.0049724723 -0.010660564 -0.002431623 -0.04964431 0.0060437713 -0.0006728641
-0.03034765 0.008213503 -0.0070651304 0.000469815 -0.03722134 -0.03285374 -0.013080438 -0.015825946
0.012336918 0.0059743696 0.015978873 -0.01346489 0.014024115 0.0222113 -0.017580085 0.0053676288
0.00457184 0.005316524 -0.018463768 -0.021742595 -0.015942933 -0.0062864344 -0.0027980395 -0.0066928715

policy_fc3.weight f4 [51, 32]
00000000: 238e 753e 2140 1ebe 3e0b 173e d776 fd3d
00000010: e69a 4a3e 1e28 863d 6783 033e 9d60 803e
00000020: c3c5 33be 1739 513e 42a2 5ebe 4703 1f3e
00000030: 9b5c 813d ea87 20bc c63e 0b3e a428 cf3d
00000040: 68a0 47be 882f 94bd 040d 643e 1a17 8b3d
00000050: e521 34be e09e 523e 6bee 5d3e a184 83be
00000060: 6902 483e 4b44 483d 8b7f 5b3e 95fd 113d
00000070: f442 5cbe 8031 82be bc2b 7f3e b249 963d
00000080: 60f8 c93d 5d3f 62be 7ad3 303e e88b 29be
00000090: f1df 1bbd 30de ba3d c083 673e eeaa 85be
000000a0: 7f77 373e 98f9 afbd ac0a b1bd 6b73 3d3e
000000b0: 0e46 4d3e cad3 893c 80ba 573e cf90 853d
000000c0: e834 1f3d 789d 23be 58dc 41be 129f 963e
000000d0: f426 08be 0348 583e a313 423d 4d13 3f3e
000000e0: 5efb 1d3e 8460 413e 963d ab3d 31cd 37be
000000f0: 1b7d 9f3d 4682 803e bf90 01be adbd 5a3d
00000100: 7207 68bc d387 6dbe 3024 81be 23c2 b83d
00000110: 515a d1bc 6feb 9c3d addf 0cbe ccc8 873d
00000120: 6a9e 5ebe 06a7 89be 11bf b23d 9588 1dbc
00000130: 8cf1 f9bd 3b05 43be d274 39be fdd0 ec3d
00000140: ca26 32bd 1c24 313c 5f61 4ebe a644 873e
00000150: 8dd7 36be 5a4a 1ebe b459 8bbc 8d74 53be
00000160: b6b5 5d3e 6094 41be b902 453d da74 38be
00000170: 4b3a 9cbd ab92 1c3e 79fd 1dbd ce18 bbbd
00000180: 237e 623e 7fec 4a3e 2384 ccba dcf6 06be
00000190: a4c3 6f3e bf12 80bd ee32 753d 0797 4a3e
000001a0: 1438 32be 5fab d0bc 1927 71bd 85e5 5e3e
000001b0: aceb 4bbd 3010 0fbe 2473 803e 06f3 8dbd
000001c0: 4291 29ba 282a 11be 4e50 96be 24a5 083e
000001d0: 2032 023e 3a02 3f3e 3f6f 3a3d a938 f2bd
000001e0: e4e9 fcbd b17a 683e 5e1a 103e 9ef4 d43d
000001f0: 0a86 183e b333 86be f7ab 4a3d efc7 a73d
00000200: 457e ae3d 080e 6fbe 0786 323e 9638 70be
00000210: ec05 933d 46de 753d 4537 c43c 3ce9 5bbd
00000220: ff8d 08bd f9e3 bf3d 1f4d a03d e6f3 1abe
00000230: 49b6 613e a911 1b3e 81be 8e3e 53f0 6f3e
00000240: 1b1f 263e 0b4f 2abe 6c7e 87bd 99af efbd
00000250: eeb6 753e 66b6 49be eede 0bbe 9faa 52be
00000260: ce71 a3bd ab9c 65be 5b00 0f3b 5e6e b53d
00000270: 0f3d ffbd b225 a2bd d596 fcbd 7cf0 cdbc
00000280: 3ad5 88be 616f 143e 4d7f 073e 250c 98bc
00000290: e69d 063d 120c 1e3e bfee 863e 07ee 113d
000002a0: b0ee 433d befa a7bd 22de 83be 57aa 0dbe
000002b0: 01c4 31bd 420a 0e3e 9621 86be f25c 903d
000002c0: 55dd 8cbc 19a9 28be 3fe0 b4bd 2d74 40be
000002d0: faf5 2bbe a4e4 de3b 97d7 a8bd d5af 0e3e
000002e0: 9a2e 313d 3c63 033e 7523 2e3e 59b8 013d
000002f0: 8712 e73d c5de 8abe f608 293c 9684 3cbd
00000300: bc8d 403a 9c10 5d3e db77 1abe 7554 893e
00000310: fadc 473d aaa7 3c3d 7a63 063e b8f8 fe3d
00000320: d136 8cbe e083 0abe a305 42be c0ad 443d
00000330: 7032 17be 8380 7dbd bd5d 553e d616 7ebe
00000340: db8a 283e 7033 4a3e c3ab b53d 6c6c 58be
00000350: 7d82 d33d acea 50be 1141 fbbd c4f6 37be
00000360: 6d57 54be 86d1 4dbd 1ac2 883d e504 ccbb
00000370: fdf4 e53d a1f7 16be 08f9 28be 511f 98bc
00000380: 9d51 0dbe 3aa3 ebbc 5e2e 70bd 2fd8 07be
00000390: 993b 2cbe e436 85be e45c ed3c 7a09 bbbd
000003a0: cfbb 713e 9ed2 6c3e 7751 123e 3fed a6bb
000003b0: ebba 2ebe 2c16 403e c329 3ebe 4e42 03be
000003c0: baf3 6ebe bfc0 b8bd 4fbf 52be 095a cf3d
000003d0: 3585 5b3e 926b d9bd b9da 66bd 0ce4 423e
000003e0: 8e40 81bd ffbf 4b3e 3409 453e 5c49 523c
000003f0: 8219 7f3d 0c60 273e ebd2 173c 4c04 5dbe
0.23980002 -0.1545415 0.14750382 0.123761825 0.19785652 0.065506205 0.12843095 0.2507371
-0.17555909 0.20431934 -0.21741584 0.15528594 0.06316491 -0.009798029 0.13598165 0.101151735
-0.19494784 -0.07235628 0.2227059 0.06791516 -0.17591055 0.20568419 0.2167298 -0.25687125
0.1953217 0.048893254 0.21435373 0.035642225 -0.21509916 -0.2542839 0.24919027 0.07338275
0.09861827 -0.22094484 0.17268172 -0.16557276 -0.038055364 0.0912441 0.22608852 -0.26106972
0.17916678 -0.08592528 -0.086446136 0.1850106 0.20046255 0.016824622 0.21067238 0.06521761
0.038868815 -0.15978038 -0.1893171 0.29418236 -0.1329611 0.2112122 0.04738201 0.18659706
0.1542792 0.18884474 0.08361356 -0.17949368 0.07787534 0.2509939 -0.12652873 0.053403545
-0.014161931 -0.23196344 -0.2522292 0.09021404 -0.025555762 0.07662093 -0.137572 0.06630096
-0.21740118 -0.2688524 0.08727849 -0.009615083 -0.122042745 -0.19044964 -0.1811097 0.11563299
-0.043494023 0.010811832 -0.20154332 0.26419562 -0.17855664 -0.1545805 -0.017010547 -0.2064993
0.21651348 -0.18904257 0.0480983 -0.18013325 -0.07628306 0.15290324 -0.03857181 -0.091355905
0.2211843 0.19816779 -0.0015603345 -0.13180107 0.23414475 -0.062535755 0.059863023 0.19784175
-0.17404205 -0.025472341 -0.058875177 0.21767242 -0.0497853 -0.13971019 0.25087845 -0.06931119
-0.00064684835 -0.14176238 -0.29358143 0.13344246 0.12714434 0.18653193 0.04551625 -0.11827213
-0.123492986 0.22703053 0.14072558 0.103982195 0.14894882 -0.26211318 0.049480405 0.08192431
0.08520178 -0.23345196 0.1743394 -0.23459086 0.07178864 0.06002643 0.023952136 -0.053689227
-0.033338543 0.09369654 0.0782721 -0.15132102 0.22042193 0.15143456 0.27879718 0.2343152
0.16222803 -0.16631715 -0.0661591 -0.117034145 0.23995563 -0.19698486 -0.1365926 -0.205729
-0.07980691 -0.22423045 0.002182028 0.088589415 -0.12462818 -0.07917346 -0.123334564 -0.025139086
-0.2672518 0.14495613 0.13232155 -0.018560478 0.032865427 0.15434292 0.26354024 0.03562739
0.047835052 -0.08202122 -0.2575541 -0.1383451 -0.043399815 0.138711 -0.261975 0.07048978
-0.017195383 -0.16470756 -0.08831834 -0.18794318 -0.16793051 0.0068021584 -0.082442455 0.13934262
0.043257333 0.12830824 0.17005713 0.03166995 0.11282831 -0.27123085 0.010317078 -0.04602488
0.0007345339 0.21588367 -0.15084784 0.26822248 0.048794724 0.046058334 0.13123885 0.12449783
-0.27385572 -0.13526869 -0.18947463 0.048017263 -0.14765334 -0.061890136 0.2083654 -0.24813399
0.16459219 0.19746184 0.088706516 -0.2113511 0.10327623 -0.2040202 -0.1226827 -0.17965227
-0.20736475 -0.050248645 0.06677647 -0.0062261694 0.112283684 -0.147429 -0.16501248 -0.01856962
-0.13800664 -0.028764356 -0.05863797 -0.13266061 -0.1681961 -0.2601844 0.028974958 -0.09132667
0.236068 0.23127219 0.14288889 -0.0050942 -0.17063491 0.18758458 -0.18570618 -0.12818262
-0.23335162 -0.090211384 -0.20580791 0.10124595 0.21437533 -0.106162205 -0.056360934 0.19032305
-0.06311141 0.1989746 0.19241792 0.012834873 0.062280186 0.16345233 0.009266595 -0.2158367

policy_fc3.bias f4 [51]
00000000: 0b73 53bc 42a1 22bc c2e2 04bd 6029 ef3b
00000010: 8dde 09bd abe7 eebc d788 a93c 59ee 93bd
00000020: 52e8 efbc 6525 ec3b d047 59bd 36e3 5a3d
00000030: 0a21 9aba 3334 413c d3e3 b5ba 3f4d 523c
00000040: 70ec fa3c d64a 373c a370 353d 4e82 c4bb
00000050: 4d00 ef3b 4bcf 3d3c d1bc f6bc 1d0c 113c
00000060: 3e8e a2bb 7b45 bb3b 3e33 f43c c4d9 933c
00000070: 5ee6 ffbb ed06 823c 6576 c2bb 5702 163d
00000080: a379 bfbc 9e96 31bd 1925 44bc 8b95 143d
00000090: c181 c53c 6a31 abbc 796a 753b 20fd 44bd
000000a0: 6091 5c3d a000 f2bc 8eb7 4abd 5c5a 41bc
000000b0: f5e8 603b e69e b1ba 7cfd 9ab9 0e43 13bb
000000c0: 192f e7bc eb3a 0ebc ee28 0abc
-0.012905846 -0.009926142 -0.032442816 0.0072986335 -0.033659507 -0.029163202 0.020695133 -0.072231956
-0.029285584 0.007206606 -0.053047 0.05343934 -0.0011759114 0.01179223 -0.0013877101 0.0128358
0.03063032 0.011187276 0.044296872 -0.005996979 0.007293737 0.011585067 -0.030119332 0.008852986
-0.0049608042 0.00571507 0.02980959 0.018048175 -0.0078094443 0.015872443 -0.005934524 0.036623325
-0.02337343 -0.04335653 -0.011971735 0.036275428 0.024109723 -0.020897586 0.0037447496 -0.04809296
0.053849578 -0.029541314 -0.049491458 -0.0118013285 0.003431854 -0.0013551384 -0.0002956203 -0.0022470388
-0.0282207 -0.008681039 -0.00843261

value_fc1.weight f4 [64, 261]
00000000: ecff 143e 4a95 c6bd 60ef 4b3c 4c96 993d
00000010: 040c 89bc a24d c93d bdc1 cabd 0672 e9bd
00000020: 2ae1 823c 305e f53d 5b3d 55be 0296 7b3b
00000030: 21be 73bc 012c 07be 352b 84bd 68e8 023e
00000040: 7894 81bb 6385 683d dd71 973d 9496 6ebd
00000050: 6d4d e63d 133c b33b c2c9 3bbe 022b 023e
00000060: a274 f5bd f1d3 75be 1d08 0e3d 6d64 b5bd
00000070: 709b 53bc 90ba e03d 19ad 013e 33d8 733e
00000080: bd4c cbbd 5824 1a3d c363 ca3d ab1d 71bd
00000090: cd65 04bc 86d4 983d 8eb0 243c e111 f33d
000000a0: 9942 683e 4f7a 623d 0f48 4e3d 3f39 1c3e
000000b0: 4505 56bc af08 6dbd 747e 5b3d f6ab 24bd
000000c0: 96a5 b23c 1df3 043e da7e 313d 0298 023e
000000d0: 362f 233e 32b8 f73d 5986 a0bd 2008 503c
000000e0: 08b4 8cbd 8d67 093e 422c 6f3e 262f acbd
000000f0: ebeb 28bd 907f b3bd 9e94 fc3d b60c b7bd
00000100: 023a cdbd b4a9 9ebd b3da f33d 2751 73bc
00000110: cce6 c2bc 7fc8 9dbd 664c 773d ae97 9cbb
00000120: 7382 353d 1f0d 723d 8ce6 293e f28f a1bc
00000130: ae45 89be 0d53 2d3d 922d 9d3c f5b4 9d3c
00000140: cea7 a0bd a0c0 f6ba cfba abbd 4fc9 d4bd
00000150: 2791 dabd 08c2 da3c 65af 32bd 7206 0fbd
00000160: 9372 c3bd ce2f 0bbe ba5b 4e3d a94a 98bd
00000170: ec61 5dbd 4708 0bbe efb9 dbbc f650 babd
00000180: 1eb2 1e3e 0fe1 483d 5434 a13c 6cb2 c0bc
00000190: 3e4a 62be 1a61 c1bc 4684 9b3d 80a5 cebd
000001a0: 088c 8e3d 1ce0 a5bc c15f 08bd 7c57 1c3c
000001b0: 4b23 98bd e0d0 d23d 7534 ba3d 9c9f 583d
000001c0: 51e4 a9bc 2c45 e6bd 5163 303d 8052 86be
000001d0: 6598 55be 4cfc 163e 0503 32bd 3b66 54be
000001e0: ceb2 a33d 7c24 0a3e 1ae8 c9bd b51d 3dbe
000001f0: a417 003e a73f 87bd c53e 963d 84e4 b2bd
00000200: c4d1 c1bd 175a 1c3d eddc 3cbd 392b 65bc
00000210: 3d76 f4bd 6db1 57bd 0b3e ecbc 592d bebd
00000220: 4f92 c83d e4fe 9e3c 5643 6b3d a580 d53d
00000230: 6509 80bc 61dc 053e efbd d63d 64f7 26bd
00000240: 02d8 9cbd 10e1 79bd 0778 0b3c 8087 4fbc
00000250: 4e0e 2d3e 3eeb 7dbd be3e 95bd 7670 8f3c
00000260: 8dbb f83b a84e b3bd abf9 f33d 36f4 30bb
00000270: c13b 083e 7f6d 383d da77 f4bc 34dd e7bd
00000280: d878 55bd 8ab1 af3d fca9 2cbe c8be 14bd
00000290: 0103 f1bd 72ec 1dbe 7579 2e3d a31d b83d
000002a0: 9a60 93bc dc33 1cbd 2acf c1bd c34b f93d
000002b0: 07e4 06bd 4aaf 153c 6413 363e 57ad 43bb
000002c0: 0e52 01be ba88 023e 1afe 943d 7831 063e
000002d0: 79e3 583c 18a7 da3d 9abd bdbd 3a47 263d
000002e0: 5e2f 82bc 2929 fd3d dba0 8e3d 03b5 a1bd
000002f0: 63b7 713b 862e ee3d a94c 963d 89ea 7fbd
00000300: 7238 2dbd 20d4 47bd 0f1a 103d cf0b 9abd
00000310: 2797 5dbd d015 9c3d 54c6 283d 2d15 0c3d
00000320: cfa1 f13c 92ab a53d 2255 10be 5301 8a3d
00000330: 483d d2bd 24d5 503d a102 1fbe 3b4f 4fbd
00000340: a496 163c 2bd4 14bd 9d04 583d 462d 813d
00000350: 010b a2bd 137a 413d a173 8bbd 72d1 09bd
00000360: 53ae b43d 2850 983b 4d70 e1bd 6640 223e
00000370: 9d8e 1cbe 122e 0fbe 760c 78bd fbe2 f43d
00000380: 79db d6bc 4621 c5bb 720f 353d 36c0 e8bd
00000390: 1134 e83d d714 3cbd 5fb6 6f3d a526 a43d
000003a0: 982c 073c d8e3 11bb 9a2e b03d e65e 973d
000003b0: 0bc1 c13c 7e5a eabd 193c 6abd 5ad0 19bd
000003c0: e6a3 0dbe 5b82 eebc a91c 0ebe 7954 cfbd
000003d0: d3d4 0b3d 1090 3abe d2c7 d23c 7724 c1ba
000003e0: b6f1 edbd 2a17 e4bd 3282 653c 6d8a e23c
000003f0: bd3e 403d 1c7b 27be 8fd1 17be 7f40 313d
0.14550751 -0.096964434 0.012447208 0.0749937 -0.016729362 0.098292604 -0.09900234 -0.11398701
0.015976507 0.119808555 -0.20824187 0.0038388972 -0.014876873 -0.1320038 -0.064535536 0.12783968
-0.0039544664 0.056767832 0.073947646 -0.05824907 0.112452365 0.005469808 -0.18338683 0.12711719
-0.119851366 -0.2400663 0.034675706 -0.08857045 -0.012915477 0.10973084 0.12663688 0.23812942
-0.09926746 0.037632316 0.09882309 -0.058866184 -0.008080912 0.07462411 0.01005186 0.118686445
0.22681655 0.055292424 0.05036169 0.15256213 -0.01306278 -0.05786961 0.053587392 -0.040203057
0.021807473 0.12983365 0.043333866 0.12753299 0.15935978 0.12095679 -0.07838125 0.01269725
-0.06870276 0.13418408 0.23356727 -0.0840743 -0.041240614 -0.08764565 0.12333034 -0.08937971
-0.1002083 -0.07747212 0.11906948 -0.014850891 -0.023791693 -0.07704257 0.060375594 -0.004778824
0.04431386 0.059094545 0.16591853 -0.019721959 -0.26810974 0.04231553 0.019186769 0.019251326
-0.07844506 -0.0018825717 -0.0838524 -0.10389959 -0.10672217 0.02670385 -0.0436243 -0.034918256
-0.09543338 -0.13592455 0.050380446 -0.07436115 -0.054048464 -0.13577376 -0.026822058 -0.09097473
0.15497634 0.049042758 0.019678272 -0.023522578 -0.22098634 -0.023605872 0.075935885 -0.1009016
0.069603026 -0.020248465 -0.033294443 0.009542342 -0.074286066 0.10293746 0.09092037 0.05288659
-0.020738753 -0.11243662 0.043063466 -0.26234818 -0.20858915 0.14744681 -0.04345991 -0.20742123
0.07993089 0.1349048 -0.09858723 -0.18468364 0.12509018 -0.066039376 0.07336191 -0.08734992
-0.09463838 0.038171854 -0.04610913 -0.013987356 -0.11936615 -0.05265944 -0.028838178 -0.09285993
0.09793531 0.01940865 0.057437263 0.104249276 -0.01562948 0.13072349 0.10485446 -0.040763274
-0.07658388 -0.061005652 0.0085125035 -0.012666583 0.16899988 -0.061991923 -0.07287358 0.01750968
0.007590717 -0.08755237 0.11912855 -0.002700103 0.13304044 0.0450263 -0.029842306 -0.11321488
-0.0521172 0.08578785 -0.16861719 -0.036314756 -0.11768151 -0.15422228 0.0425963 0.08990028
-0.0179904 -0.038135394 -0.094633415 0.121726535 -0.032932308 0.00913603 0.17780834 -0.0029857957
-0.12628958 0.1274747 0.072750285 0.13104808 0.013237827 0.10676402 -0.09264679 0.04059527
-0.015891727 0.12361366 0.069642745 -0.07895853 0.0036882989 0.116299674 0.073388405 -0.06247953
-0.04229016 -0.048786283 0.0351811 -0.075217836 -0.05409923 0.07621348 0.041204765 0.034199882
0.029496102 0.08089365 -0.14094976 0.06738534 -0.10265595 0.050984517 -0.15528347 -0.05061267
0.009191189 -0.03633515 0.052738775 0.06307463 -0.07912255 0.04723556 -0.06809164 -0.03364701
0.08822312 0.0046482272 -0.11007748 0.15844879 -0.15288778 -0.13982418 -0.06055876 0.119573556
-0.0262277 -0.0060159294 0.044204183 -0.11364786 0.11338056 -0.045918312 0.058523532 0.08015183
0.008250378 -0.002226105 0.086026385 0.07391147 0.02365162 -0.11443041 -0.05718622 -0.037552215
-0.13832054 -0.029114893 -0.1387812 -0.10123534 0.034138512 -0.18219018 0.025730047 -0.0014735599
-0.11618368 -0.11137231 0.014008092 0.027653897 0.046934832 -0.16355556 -0.14826034 0.0432744

value_fc1.bias f4 [64]
00000000: 3f84 8dbb a978 e73c 8daa 023d 1756 ecbc
00000010: 047c 583b 3d3a bd3c ecfd 6d3c 8331 69bc
00000020: 40be 6a3c f58e 383c 3fd0 903a e1bf bc3c
00000030: 4e7c ceba 3487 81bc f776 25bc 1a1b e8bb
00000040: b1e8 06bd e0e2 11bd 07d9 3cbc 8234 12bd
00000050: ffee ab3c 1ecf d43b c99b 883c ac61 babb
00000060: b32d d6bc 711e f63b eefc 583c ed8c 783b
00000070: 2343 2cbd dac9 a43a 7023 8ebc 5f85 b1bd
00000080: 656e 863a 60ae 343b c033 573c 1910 ff3b
00000090: d26f 7a3c 8a5e 2e3c 6eb7 34bc f3ef afbc
000000a0: 36d2 29bc fc4a c13c 07c6 c73b 221a 5c39
000000b0: d1c1 7dbc 681e a5bc 4fc4 883c 539c a53b
000000c0: 0d53 0f3b bb2a 15bc 2e8f b1bc 6a89 b3bc
000000d0: 86ad 5bbc 9515 9c3c f600 b93c 5f17 113c
000000e0: f326 d8bc 2890 b2bc bb07 b63b c309 ee3c
000000f0: 630c 95bc 3dce 0abd 34b3 b3bc de1c eb3c
-0.0043187435 0.028255777 0.03190093 -0.028849645 0.0033032903 0.02309906 0.014525872 -0.014232996
0.014327586 0.011264552 0.001104839 0.023040714 -0.0015753598 -0.01581154 -0.010099164 -0.007083309
-0.032936756 -0.035616755 -0.011526353 -0.035694607 0.020987986 0.006494417 0.016675847 -0.005687913
-0.026144838 0.007510953 0.013243897 0.0037925795 -0.042056214 0.0012572363 -0.017350882 -0.08668017
0.0010256289 0.0027569756 0.013134897 0.0077839014 0.015285449 0.010642657 -0.011030061 -0.021476721
-0.01036506 0.023595326 0.0060966047 0.0002099057 -0.015488104 -0.0201561 0.01669517 0.0050540357
0.002186957 -0.009104426 -0.021674719 -0.02191611 -0.01340807 0.01905326 0.022583466 0.00885567
-0.02638576 -0.021797255 0.0055551208 0.02905739 -0.018194383 -0.03388809 -0.021936037 0.028700288

value_fc2.weight f4 [32, 64]
00000000: 3fa0 31be 972e bc3c 97be 4dbe ed22 b2bd
00000010: 64db 0f3a 8796 34bd abaa 263e c98f 0e3d
00000020: 56a3 ca3c a6c3 95bd 89d6 5e3e a37d a7bc
00000030: 1b5c b73d 7704 4ebe d70b ebbc d97e 803e
00000040: 8a22 e2bd a09e 20bd 58e0 eb3d db54 96bd
00000050: afa2 4f3e 32f3 c43d c99c 853c 76ab 3d3e
00000060: 812d 483b dcf5 1dbe 2a92 863d 9497 88be
00000070: 0023 033e 6262 4bbc 6770 aabd 4973 013e
00000080: bb1e 7fbc 77f4 4abd 84bd 6cbe 2406 52bd
00000090: 10d0 27be ff41 003e e57b 423e 41d1 37be
000000a0: 459b 6fbd 669e 28be 2bc2 bb3d b203 6fbd
000000b0: d6a4 493e 2dac 9d3d b1c1 71be 257d 3e3e
000000c0: be5c d6bd a317 543e c611 1cbd 3281 3a3d
000000d0: dbc3 3b3e 3e7f 76be 0b5d 803d b233 68be
000000e0: 3722 5ebd 4009 5abe d654 443e 2104 043c
000000f0: 1c27 4cbe 5dbc 15be 1ec9 a6bd 0c2b 493e
00000100: 6acb 253e 6264 bfbd 797b 04be cc4b 6cbe
00000110: f507 60be 3a59 ac3d 123d 84be d3af 973d
00000120: 5b0b 8abe 7f1d 35be b962 3ebe 7a68 0ebe
00000130: ecbb ac3a 61fb d23d a726 62be fb66 ea3d
00000140: 1299 1abe 1185 e6bd 1ad3 183d fea3 333e
00000150: 1f5f c73d 0862 2abe 3395 8b3e 1104 a1be
00000160: 3a0b bfbc 44a0 93bd 6e39 6bbe 174f 22be
00000170: 58c5 2cbc 2c09 a2bc 52d9 3d3e bd67 a83c
00000180: 7931 173e 9788 90bd 8c77 cf3d 4629 5f3e
00000190: 4d93 853c 2035 dabd a908 e2bd 20c3 77be
000001a0: 7819 393e a3f2 c6bd 1ba7 7b3e e54a 9139
000001b0: 2815 cebd d02e b2bd fbf3 f4bd bba3 7dbe
000001c0: a5de e3bd 195f 60be 4cbd 2abe 506c 043e
000001d0: 0713 2b3e aa4e 66be c84c 50be 88af 0bbe
000001e0: f158 4b3b dd55 593d 59c6 883d 0c07 2abe
000001f0: 1d44 5e3e c95a 6e3e 6686 183e d11b ed3d
00000200: c6b4 e73d e57e 033e fa62 2abe 4f05 04be
00000210: 5c77 0b3d bff4 fdbd 5b94 3a3e 99e6 81be
00000220: 2aa2 8c3d 9a47 7c3c 0e7c f13d b23e 1dbe
00000230: 4179 d5bd 5ba4 19bd afbd 7bbd 8155 1abe
00000240: 5740 0b3d 7ce4 cc3c 8342 acbd e876 103c
00000250: f8e9 25be 9b7d 31be cf29 c83c 7136 033d
00000260: bd2a 78ba 4562 8abe 7a2a 90ba 3050 88be
00000270: 1fb0 233e 6b64 42be 7e55 86bd 88a9 0fbe
00000280: 183e 303e 34bd ed3d ee32 85be 811c 66be
00000290: b3c7 f33d 9e73 663e 77cb 03be 5351 1ebe
000002a0: ed4a af39 5ba5 8c3d 9dc6 58be 2156 8abe
000002b0: d3ef 213d 29ba 673c 30e4 68be d97e 023e
000002c0: 148e 83bd 38b6 423c 57bb 81be d552 973d
000002d0: 3216 563e ea84 dd3d 5acc 23bd 8723 a1bd
000002e0: 082f 45be 3c40 c23d fdcc 13be aec8 54be
000002f0: 6de3 9a3d f654 fabd 4098 b13d 818c 1bbe
00000300: c508 9c3b 5193 393e 2ba8 7f3d f81c 88bd
00000310: d2a2 3cbe 6140 4d3e 4111 0c3d 0cc6 ee3d
00000320: bb8f a63d 11c0 ae3c cf19 ca3d 5f14 3ebe
00000330: 2872 4f3e 2b1d c33d e6c4 a13d ed1f c13d
00000340: 3f5b 9e3c 00f1 c0bd c06b 543e a37f f7bb
00000350: f2fa 0dbe 2d54 a3bd e68a 4ebe 2617 473d
00000360: fd27 e03d 47e9 4fbe a9f5 92ba 9ae3 66bc
00000370: 457b f93b 2209 45be 8874 6b3d b645 243d
00000380: 852b ad3d 355b 09bd c2df e3bd 7180 aebd
00000390: e71f 523e f3e8 983c bc35 eabd f890 a13d
000003a0: eac6 b0bc 8148 61be bf38 933d 69a9 01be
000003b0: 3adc febd 324b 7a3d 3be9 7abd 90e7 893d
000003c0: 9a3e 9ebd b786 f73d de6c 5fbe 365b 02be
000003d0: 9bde 8d3d 840b 07be d5fb 593b b9d8 70be
000003e0: 02c8 86be baf5 27be b300 da3b 5c89 5bbd
000003f0: 7df8 9bbc 67dc 5cbe 255a 17bd 9d29 73bd
-0.17346285 0.022971435 -0.20092236 -0.08698068 0.0005487709 -0.044088867 0.16276042 0.034805093
0.024736088 -0.073127076 0.21761526 -0.02044565 0.089531146 -0.2011889 -0.02869217 0.25096777
-0.11041744 -0.039213777 0.115173995 -0.07340404 0.20276903 0.09616698 0.016310113 0.18522438
0.00305447 -0.15425819 0.06570847 -0.26678145 0.1280632 -0.012413593 -0.0832222 0.12641634
-0.015571292 -0.049549546 -0.2311917 -0.051275387 -0.16387963 0.12525176 0.18992575 -0.17950918
-0.058497686 -0.16466674 0.09167894 -0.058353133 0.19691786 0.076988555 -0.23609044 0.18602426
-0.10466908 0.20712142 -0.038102888 0.045533367 0.18336432 -0.24071977 0.062677465 -0.2267597
-0.05423185 -0.21292591 0.19172987 0.008057625 -0.19936794 -0.14622636 -0.08143829 0.19645327
0.16190878 -0.093453184 -0.12937726 -0.23075789 -0.21878035 0.08415456 -0.25827843 0.07406583
-0.2696179 -0.17687033 -0.18592347 -0.13907042 0.0013178564 0.10301853 -0.22085057 0.11445423
-0.15097454 -0.11255849 0.037310697 0.17543027 0.0973494 -0.16638958 0.27262267 -0.31448415
-0.023320783 -0.072083026 -0.22971126 -0.15850483 -0.010545097 -0.019779764 0.18539932 0.020557279
0.14764966 -0.070573024 0.10130224 0.21793088 0.01630559 -0.10654664 -0.11036808 -0.24195528
0.18076122 -0.09714248 0.24575464 0.00027712356 -0.10062629 -0.08700335 -0.11960598 -0.2476949
-0.111264504 -0.21911277 -0.16673774 0.12931943 0.16706477 -0.22490945 -0.2034179 -0.13641179
0.0031028355 0.0530604 0.06678457 -0.1660425 0.2170567 0.2327682 0.14895019 0.11577571
0.11313777 0.12841375 -0.16639319 -0.1289265 0.034049377 -0.12400197 0.18220656 -0.25371245
0.06866868 0.0153979305 0.1179124 -0.15355948 -0.10423518 -0.037510257 -0.061460193 -0.1507168
0.033996906 0.025011294 -0.084111236 0.008817412 -0.16202533 -0.17333071 0.024433998 0.03203434
-0.0009466818 -0.270281 -0.0010998987 -0.26623678 0.15985154 -0.18983619 -0.06559275 -0.14029515
0.17211187 0.11608353 -0.2601542 -0.22471811 0.11903324 0.22505042 -0.12870584 -0.1546071
0.00033434425 0.068674766 -0.21169515 -0.27018836 0.039535355 0.014143505 -0.22743297 0.12743701
-0.064235836 0.011884265 -0.2533824 0.07388846 0.20906904 0.10816367 -0.039989807 -0.078681044
-0.19256222 0.09484908 -0.14433666 -0.20779678 0.07562909 -0.12223236 0.086716175 -0.15190317
0.0047617876 0.18122603 0.062416237 -0.0664615 -0.18421486 0.2004409 0.034196142 0.11658868
0.08132883 0.021331819 0.09868204 -0.18562458 0.20258391 0.09527048 0.078988835 0.094299175
0.019330619 -0.09420967 0.20744228 -0.0075530573 -0.1386526 -0.0797504 -0.20170173 0.04860606
0.10945127 -0.20303832 -0.0011212128 -0.01409235 0.007613572 -0.19241765 0.05748418 0.040105544
0.08455566 -0.033534247 -0.11126663 -0.08520592 0.20519982 0.018665766 -0.1143603 0.07888979
-0.021579225 -0.22000314 0.07188558 -0.12662281 -0.12444349 0.061106868 -0.061257582 0.0673362
-0.07726784 0.12086242 -0.21818873 -0.12730107 0.06927224 -0.13187987 0.0033261676 -0.23520173
-0.2632447 -0.16402331 0.0066529154 -0.053597793 -0.019039387 -0.21568452 -0.036951203 -0.059365857

value_fc2.bias f4 [32]
00000000: ac34 0fbd 63eb 533d 99c3 77bd 0047 873b
00000010: 41f5 02bd f754 82bc 0386 2ebc 7729 82bd
00000020: ca02 31bd f2f2 143d b7b9 4bbd 96c0 d3bb
00000030: de3f d23b e0f7 d8bc c0cf b6bc 493d dabc
00000040: 3eb1 febc 697b 08bd e7eb 8cbd 7d91 e73b
00000050: fb3c 22bd e5e4 2d3d 3f06 a83c 07ef 61bc
00000060: 6d60 b3bc 8b78 95bc fca6 82bd 5908 9a3c
00000070: 368d 303d bf27 a93d 8222 5d3c 8d18 0dbc
-0.03496234 0.051738154 -0.06048927 0.004128337 -0.031972174 -0.015909655 -0.010652068 -0.06355565
-0.04321555 0.036364503 -0.04973766 -0.006462167 0.006416305 -0.026485384 -0.02231586 -0.026640551
-0.031090375 -0.033320818 -0.06880932 0.007066904 -0.039608937 0.04245462 0.02051079 -0.013789899
-0.021896565 -0.018245956 -0.06379506 0.018802809 0.04310342 0.08259534 0.013496997 -0.00861181

value_fc3.weight f4 [1, 32]
00000000: 3659 813c 570e d3be dc71 cf3e ce3e 8cbe
00000010: 688f 3ebd 61e2 5cbe a65f 133e 97bb 103d
00000020: b137 083f a221 abbe ddd8 6b3d d70f 84be
00000030: b660 b83e e31e a03d 4149 74be 6c97 213e
00000040: 914c 803e b6a1 4e3d db90 a0be 6b18 64be
00000050: 31c8 ec3d 73e7 8e3e d239 2e3f 6b02 7dbe
00000060: 7222 f13d 7bf0 bd3d bcb1 9f3e cd2c 813e
00000070: 3a90 f0bd 141c 143f 810a 1a3d 3cb2 803e
0.01578961 -0.41221878 0.40516555 -0.27391666 -0.04652348 -0.21570732 0.14391956 0.03533515
0.5320998 -0.33424097 0.057579864 -0.25793335 0.36011285 0.07818391 -0.23856069 0.15780419
0.25058416 0.05044719 -0.31360516 -0.2227494 0.11561621 0.27910957 0.68056977 -0.24707954
0.11774148 0.09274384 0.31190288 0.25229493 -0.11746259 0.57855344 0.037607674 0.25135982
