rl/spin_model_11291456/3.pt (torch_old, 159601 bytes, 12 tensors)

log_std f4 [51]
0.048567098 0.08228682 0.098642476 0.12279279 0.08081589 0.090694 0.07509546 0.10106562
0.07886161 0.10913912 0.12457378 0.09778189 0.10326132 0.12038006 0.0914723 0.09082278
0.08739244 0.10165158 0.094765045 0.08813959 0.09011727 0.10388287 0.10039762 0.10707596
0.10122646 0.11443053 0.09331279 0.12315523 0.114514545 0.07145971 0.079975106 0.12176201
0.07623985 0.06322347 0.10247029 0.11685413 0.060327213 0.115403 0.10554532 0.10269525
0.11316581 0.10218351 0.089740455 0.06722308 0.10082561 0.056799285 0.11638747 0.10743958
0.123686746 0.0907236 0.07848415
00000000: 4bee 463d fe85 a83d 1105 ca3d c97a fb3d
00000010: cd82 a53d c7bd b93d a6cb 993d 7efb ce3d
00000020: 3282 a13d 5584 df3d 8a20 ff3d df41 c83d
00000030: ac7a d33d d289 f63d d455 bb3d 4b01 ba3d
00000040: cffa b23d b42e d03d 2d14 c23d 8882 b43d
00000050: 678f b83d 8bc0 d43d 449d cd3d a44a db3d
00000060: d14f cf3d 8e5a ea3d c71a bf3d cf38 fc3d
00000070: 9a86 ea3d 7859 923d fdc9 a33d 5c5e f93d
00000080: a323 9c3d 4e7b 813d f2db d13d 3851 ef3d
00000090: ab19 773d 6858 ec3d 2528 d83d e351 d23d
000000a0: 7ac3 e73d 9745 d13d d8c9 b73d 41ac 893d
000000b0: a87d ce3d 5ea6 683d 8e5c ee3d 4809 dc3d
000000c0: 7a4f fd3d 4bcd b93d 4cbc a03d

policy_fc1.weight f4 [64, 261]
-0.077906065 0.03320667 -0.04323726 -0.09350769 -0.09837929 0.113053925 -0.027692065 -0.045393836
-0.028918047 0.031797554 0.054866597 -0.063341156 -0.12683344 0.054025333 0.041876923 -0.041269895
0.12673815 -0.13009964 -0.07844109 -0.08724969 -0.007853734 -0.014115755 -0.02772625 -0.033037648
0.085367836 -0.047707323 0.11597131 -0.059024494 0.013472751 0.12621985 0.081108555 -0.10292913
-0.12262622 0.015313801 -0.06879379 0.09333259 -0.065500185 -0.062069703 -0.014494954 0.0759537
0.11397818 -0.049492884 -0.040355217 -0.0024077864 -0.036822677 0.08951561 -0.051075924 -0.10230578
-0.09923337 0.11065595 -0.114751704 0.09878783 0.13852683 0.13123678 -0.030437833 -0.11490946
0.07183548 0.062191095 -0.061186966 0.027151719 -0.11936911 0.005501589 0.07932247 -0.048848882
-0.0568104 0.045146238 -0.13300368 -0.11854147 -0.13663134 -0.13130982 -0.09341669 -0.11838416
0.02364221 -0.081138484 -0.05902367 0.021951396 -0.043205157 0.115993105 -0.10854617 0.11621735
0.05971673 0.10035816 0.042621873 0.022410521 0.051491328 -0.124997646 -0.049573705 -0.12326506
0.04942238 -0.006272975 -0.011237346 0.05042875 0.08491057 0.0030986152 0.034973815 0.054041076
-0.11992611 0.12139843 0.1265615 0.011023655 0.06612848 -0.066737175 -0.103383094 0.003050343
-0.066454805 0.12943952 0.0418231 0.045568492 0.060939796 0.0855891 -0.08124749 0.09037868
-0.0042010345 -0.053375915 -0.12036087 0.14532328 -0.077384084 0.053097457 -0.10212392 -0.047406234
-0.05051118 -0.10653727 0.1195543 -0.08609689 -0.026337938 -0.029870903 -0.051995143 0.09140543
0.08486702 -0.023924228 0.074375674 0.024562495 0.070878275 0.11194904 0.025675151 -0.07689415
-0.11364287 0.008140083 0.006298533 0.1159885 -0.07946354 0.056652218 0.028939767 -0.050142903
-0.061010398 -0.0610904 -0.0025860027 0.07143094 0.045400985 -0.13553159 -0.07130945 0.12047213
-0.10801322 0.092561126 0.012645037 -0.13397387 0.08610425 -0.011704178 0.01798687 0.06335928
-0.031019554 0.08450367 0.059043474 -0.028647624 -0.07406563 -0.0069820248 0.1272722 -0.10681789
0.07478705 0.12843195 0.11123078 0.09979323 -0.073851734 0.11776842 -0.029937427 -0.04104707
0.008712865 -0.10774604 0.12559405 0.0916778 0.013435233 0.100346535 0.0097772125 0.009130777
-0.12400502 -0.07589492 0.12459823 0.064757966 -0.012066503 0.12308622 -0.103849426 -0.06700971
0.086211294 0.12223813 0.08117419 -0.08813915 -0.12576097 0.015800642 -0.008095961 0.066599645
0.075901106 -0.031219034 0.034771804 -0.0459621 0.116706535 0.038961887 -0.055209868 0.0025084813
-0.018324833 0.1108028 0.10704633 0.14116117 -0.01982357 0.13766629 -0.06717079 -0.07179962
0.11229286 -0.05802041 0.012903675 0.11438799 -0.14550477 0.046147835 0.071035214 0.016821388
0.0009464879 0.11161173 0.10570337 -0.037639502 0.023377746 -0.095257 -0.10510343 0.057052158
0.11491838 -0.10971195 0.10068806 -0.14420328 0.08792454 -0.03414012 0.057245493 0.100596204
-0.058703188 0.021066273 0.09276226 -0.13718167 -0.11369665 0.09489201 0.0039205733 -0.1291175
0.085237145 -0.08273877 0.029626492 0.1289341 0.022981854 0.08948466 -0.03446803 -0.054915693
00000000: 378d 9fbd b803 083d 8e19 31bd f680 bfbd
00000010: 157b c9bd d188 e73d 78da e2bc e3ee 39bd
00000020: 8ae5 ecbc 273e 023d ccbb 603d 02b9 81bd
00000030: a0e0 01be ab49 5d3d 2387 2b3d 9f0a 29bd
00000040: a5c7 013e d738 05be b9a5 a0bd f7af b2bd
00000050: f3ac 00bc c545 67bc 2922 e3bc 7c52 07bd
00000060: 55d5 ae3d c168 43bd 5e82 ed3d abc3 71bd
00000070: d0bc 5c3c c73f 013e 3e1c a63d 82cc d2bd
00000080: 7523 fbbd bde6 7a3c c2e3 8cbd 2825 bf3d
00000090: f624 86bd cd3c 7ebd 3e7c 6dbc 9d8d 9b3d
000000a0: 646d e93d 0db9 4abd 834b 25bd f4cb 1dbb
000000b0: 60d3 16bd f653 b73d fd34 51bd b185 d1bd
000000c0: dd3a cbbd 969f e23d f102 ebbd 4651 ca3d
000000d0: fad9 0d3e ef62 063e c358 f9bc a755 ebbd
000000e0: 7b1e 933d 17bc 7e3d 2f9f 7abd 486d de3c
000000f0: cb77 f4bd ac46 b43b d273 a23d c415 48bd
00000100: 06b2 68bd 43eb 383d 1e32 08be dfc5 f2bd
00000110: 16e9 0bbe 1576 06be 4051 bfbd 6573 f2bd
00000120: 4fad c13c ef2b a6bd cec2 71bd 6ad3 b33c
00000130: e4f7 30bd cb8d ed3d 744d debd 5d03 ee3d
00000140: 8899 743d 9488 cd3d 4694 2e3d 4596 b73c
00000150: 92e8 523d c4fe ffbd cc0d 4bbd 6472 fcbd
00000160: 1f6f 4a3d 878d cdbb d81c 38bc 618e 4e3d
00000170: 98e5 ad3d 2312 4b3b b440 0f3d 2d5a 5d3d
00000180: d29b f5bd bd9f f83d 5699 013e 8f9c 343c
00000190: 5e6e 873d 80ad 88bd 84ba d3bd 43e8 473b
000001a0: 7519 88bd cb8b 043e b34e 2b3d 07a6 3a3d
000001b0: 029c 793d 5749 af3d 1665 a6bd 7518 b93d
000001c0: d5a8 89bb b4a0 5abd c37f f6bd a0cf 143e
000001d0: 8c7b 9ebd b87c 593d 5926 d1bd 0a2d 42bd
000001e0: d0e4 4ebd 3630 dabd e3d8 f43d 9153 b0bd
000001f0: a9c2 d7bc d3b3 f4bc dcf8 54bd c532 bb3d
00000200: c3ce ad3d befc c3bc 4652 983d 4937 c93c
00000210: a128 913d 8a45 e53d b254 d23c ae7a 9dbd
00000220: 98bd e8bd fc5d 053c ed63 ce3b 618b ed3d
00000230: c8bd a2bd 280c 683d 1713 ed3c a562 4dbd
00000240: 0ae6 79bd ed39 7abd ed79 29bb 624a 923d
00000250: 62f6 393d cbc8 0abe b00a 92bd 18ba f63d
00000260: 0936 ddbd b090 bd3d 212d 4f3c 7230 09be
00000270: 6d57 b03d e1c2 3fbc 3359 933c 83c2 813d
00000280: b81c febc 4310 ad3d 92d7 713d 6cae eabc
00000290: b9af 97bd 78c9 e4bb a553 023e 57c3 dabd
000002a0: f429 993d aa83 033e f7cc e33d 6560 cc3d
000002b0: 943f 97bd 9230 f13d 563f f5bc f920 28bd
000002c0: 68c0 0e3c f5a9 dcbd ba9b 003e 92c1 bb3d
000002d0: 741f 5c3c 7c82 cd3d 9a30 203c 4199 153c
000002e0: 58f6 fdbd cc6e 9bbd 5b2d ff3d d39f 843d
000002f0: 95b2 45bc a114 fc3d 02af d4bd 633c 89bd
00000300: 8c8f b03d fc57 fa3d a73e a63d 4c82 b4bd
00000310: 7cc7 00be 5970 813c eca4 04bc 6565 883d
00000320: 0a72 9b3d 0fbf ffbc e16c 0e3d c142 3cbd
00000330: d603 ef3d 8096 1f3d be23 62bd 5565 243b
00000340: f61d 96bc 94ec e23d 1b3b db3d 8e8c 103e
00000350: 0a65 a2bc 64f8 0c3e d790 89bd ae0b 93bd
00000360: cdf9 e53d cfa6 6dbd f069 533c 4044 ea3d
00000370: 34ff 14be 8305 3d3d e97a 913d 02cd 893c
00000380: ba1d 783a b194 e43d 027b d83d e12b 1abd
00000390: b082 bf3c 1a16 c3bd 7840 d7bd 86af 693d
000003a0: 545a eb3d a9b0 e0bd 8b35 ce3d 06aa 13be
000003b0: c811 b43d 83d6 0bbd 407a 6a3d 6205 ce3d
000003c0: c172 70bd 2d93 ac3c 24fa bd3d 5a79 0cbe
000003d0: cad9 e8bd be56 c23d 2778 803b 6137 04be
000003e0: d090 ae3d f272 a9bd 42b3 f23c 4d07 043e
000003f0: 7144 bc3c bc43 b73d 592e 0dbd 47ef 60bd

policy_fc1.bias f4 [64]
0.0028549908 -0.0044057667 -0.0027289258 -0.00028810825 -0.015347635 0.001072412 -0.0057175104 -0.0010984839
0.0026803268 -0.0016929717 -0.0010635722 0.00095874537 -0.0073471237 -0.0041079116 0.0023327316 0.00079947273
-0.0011647583 -0.0043984624 -0.00406158 -0.0017177829 0.004716837 0.00080046867 -0.004987779 0.00020644281
-0.0035608392 -0.00015032325 -0.00078669563 0.0018654915 0.0018240478 -0.001399959 -0.00085345324 -0.0032491444
-0.0020049554 -0.003966708 -0.00024325625 -0.0021813505 0.0034787445 0.0053685666 -0.0008208024 -0.00071577274
0.005242239 0.00035655155 -0.003587191 -0.00080882414 -0.00014801478 -0.0074384315 0.0019803115 0.0020631389
0.0019976022 -0.008949896 -0.0019878368 -0.003916503 -0.0010171408 -0.00081483164 -0.00020660818 0.0018726613
-0.0006885928 -0.0032795633 0.006376226 -0.00012515561 -0.0009114415 0.0058234194 -0.0065864483 0.00017251426
00000000: cc1a 3b3b 405e 90bb c7d7 32bb 3c0d 97b9
00000010: a674 7bbc 2d90 8c3a f459 bbbb 01fb 8fba
00000020: 6ca8 2f3b b4e6 ddba 9067 8bba 5054 7b3a
00000030: 24c0 f0bb a99b 86bb bee0 183b b593 513a
00000040: ceaa 98ba fa20 90bb 0117 85bb 3b27 e1ba
00000050: b28f 9a3b 8bd6 513a 8670 a3bb 9278 5839
00000060: f85c 69bb 17a0 1db9 403a 4eba 8283 f43a
00000070: e314 ef3a d47e b7ba 47ba 5fba 99ef 54bb
00000080: 9265 03bb 29fb 81bb 9a12 7fb9 fdf4 0ebb
00000090: a6fb 633b cdea af3b 1e2b 57ba b2a2 3bba
000000a0: 17c7 ab3b 8aef ba39 1417 6bbb 4507 54ba
000000b0: 6a34 1bb9 16be f3bb 1dc8 013b ba35 073b
000000c0: 34ea 023b 96a2 12bc 5e46 02bb 0256 80bb
000000d0: 9551 85ba 6d9a 55ba f6a4 58b9 1674 f53a
000000e0: ae82 34ba f1ed 56bb a9ef d03b 343c 03b9
000000f0: ceed 6eba 62d2 be3b 22d3 d7bb f2e4 3439

policy_fc2.weight f4 [32, 64]
0.020007454 0.20811047 -0.025163177 0.013994885 0.09875859 -0.2054242 -0.027507532 -0.16772355
0.23200497 -0.08979376 -0.24540299 -0.12659913 0.013800911 0.21687643 0.07910743 0.091227986
-0.20059669 -0.103428386 -0.24477607 -0.16814947 -0.11523893 -0.011975333 0.23849429 -0.23762308
-0.25857285 0.2216334 0.09168051 0.15824603 4.6148663e-05 -0.12700751 0.23925644 0.15492968
0.0044499603 0.21004024 0.1700266 0.17073601 -0.009770036 0.23713303 0.18860728 0.10126365
0.18922625 -0.016726265 0.039492894 -0.23826328 0.027873212 -0.05510903 0.19824626 0.09154317
-0.15913719 -0.21946058 0.23278357 0.12060806 -0.01895689 0.10565209 0.026775464 -0.09944209
0.10731674 0.23889172 -0.013155716 -0.057673242 0.13179874 -0.2103125 0.0011726742 0.09341917
0.052440427 0.066804156 -0.12540461 -0.10710211 0.24966043 0.21541172 -0.17044896 0.06442028
-0.019909615 0.085486114 -0.12849413 0.11416526 -0.038661487 0.0358639 0.08085046 -0.040010538
-0.15081789 -0.21448275 -0.24022841 -0.12970033 -0.06096357 0.21056205 -0.089135945 0.05858887
0.036005843 -0.028495822 -0.23409666 0.18591559 -0.2057044 -0.068981744 0.12559189 0.17164986
-0.15755336 0.09169909 0.12585297 -0.1472475 0.0004954499 -0.02127223 -0.033258256 -0.07480555
-0.04039097 -0.13013974 0.030519512 -0.15513945 -0.12331362 -0.07332624 0.20503993 0.20113616
0.029589927 0.0861631 -0.15391788 0.19969022 0.21119446 -0.04998563 -0.25011957 -0.15137479
-0.15020314 -0.21232931 0.20774037 -0.14545624 0.061854377 -0.017245209 -0.11078474 0.068444066
-0.23673803 0.04368822 0.064810164 0.13378692 -0.17483266 -0.13776572 -0.049060665 -0.25014892
0.1791561 0.010556256 0.13802509 0.10701419 -0.14281504 -0.065389425 -0.02235594 0.13504536
0.2010831 -0.018260935 0.0033629271 0.09653501 -0.23858446 -0.03077619 0.15244544 -0.18185271
-0.030374622 -0.22360171 0.20499945 0.2264692 0.10517073 0.14242774 -0.1918905 0.018090745
-0.19688189 0.09501965 -0.003335031 0.18621452 0.14770585 0.17174165 0.03848026 -0.18556152
0.23415792 0.052038822 0.01720756 -0.011199355 -0.18711782 -0.15277353 0.15243307 -0.039184913
0.18926051 0.1730953 0.10942834 0.014196354 0.16787046 -0.045919213 0.056930803 0.09419235
-0.029922144 -0.16575071 0.0042540473 0.023995569 -0.20262101 0.22049487 0.23814835 0.17433554
-0.16324967 0.06300126 0.01753137 -0.20917721 0.2436793 0.014830052 0.04398328 -0.088383265
0.2261147 -0.07055057 -0.17475833 -0.058832712 0.07109284 0.11346345 0.06836527 0.21553105
-0.19171947 0.02762134 0.05830161 0.2194204 0.18643582 0.10819957 0.027285952 0.1565364
0.087018296 -0.09224571 -0.035994958 -0.092738226 -0.22315037 0.04565245 -0.14936341 0.18110117
-0.009448664 0.15242922 -0.22963376 0.20246485 -0.08833444 0.180281 0.23361674 0.08529192
-0.12820068 -0.20430464 -0.022065764 -0.08209283 0.23940367 -0.17035083 -0.070079304 -0.21991353
0.08923131 -0.16386391 -0.013995455 0.08900386 0.13107778 -0.19931343 0.19428393 0.014434887
0.027922314 -0.11673398 0.1797356 0.20340538 0.09581346 0.10701766 -0.22651537 0.09944569
00000000: ace6 a33c e91a 553e 0223 cebc cd4a 653c
00000010: f241 ca3d b95a 52be 7a57 e1bc b9bf 2bbe
00000020: b692 6d3e cae5 b7bd ec4a 7bbe 34a3 01be
00000030: 371d 623c db14 5e3e 1403 a23d bdd5 ba3d
00000040: 3869 4dbe 43d2 d3bd 94a6 7abe 602f 2cbe
00000050: 6302 ecbd 3034 44bc d937 743e 7753 73be
00000060: a963 84be def3 623e fec2 bb3d 3f0b 223e
00000070: c08f 4138 420e 02be a4ff 743e e3a5 1e3e
00000080: f9d0 913b ca14 573e 741b 2e3e 6cd5 2e3e
00000090: 8012 20bc 00d3 723e 4422 413e 5163 cf3d
000000a0: 87c4 413e 8505 89bc 4dc3 213d 4afb 73be
000000b0: 5d56 e43c 02ba 61bd 1101 4b3e fc7a bb3d
000000c0: dcf4 22be 46ba 60be d15e 6e3e 5c01 f73d
000000d0: 7b4b 9bbc 1f60 d83d 3858 db3c 4ba8 cbbd
000000e0: e1c8 db3d 08a0 743e 128b 57bc c73a 6cbd
000000f0: 40f6 063e 295c 57be 6bb4 993a 8d52 bf3d
00000100: c6cb 563d 9ed0 883d 116a 00be 5a58 dbbd
00000110: fca6 7f3e e494 5c3e 2c8a 2ebe c8ee 833d
00000120: 7d19 a3bc 5813 af3d f793 03be 7acf e93d
00000130: 825b 1ebd 06e6 123d ed94 a53d 17e2 23bd
00000140: 0170 1abe 5ea1 5bbe 70fe 75be 2ad0 04be
00000150: f0b4 79bd 949d 573e e88c b6bd e2fa 6f3d
00000160: dd7a 133d 1270 e9bc 09b7 6fbe a860 3e3e
00000170: 2da4 52be 4d46 8dbd 299b 003e fbc4 2f3e
00000180: ab55 21be bccc bb3d 9adf 003e 0cc8 16be
00000190: 14e1 013a 1a43 aebc cf39 08bd a733 99bd
000001a0: 0071 25bd 5a43 05be 0e04 fa3c e0dc 1ebe
000001b0: da8b fcbd 112c 96bd fdf5 513e a3f6 4d3e
000001c0: 9366 f23c 4876 b03d a69c 1dbe 987b 4c3e
000001d0: 5c43 583e bbbd 4cbd ac0f 80be fe01 1bbe
000001e0: dace 19be db6c 59be e4b9 543e 7bf2 14be
000001f0: 045b 7d3d d345 8dbc 1ce3 e2bd 672c 8c3d
00000200: 746b 72be 6bf2 323d 31bb 843d 70ff 083e
00000210: 5507 33be 7512 0dbe d6f3 48bd 8513 80be
00000220: b274 373e 26f4 2c3c 7356 0d3e 412a db3d
00000230: 1b3e 12be e4ea 85bd ce23 b7bc 5549 0a3e
00000240: bae8 4d3e f597 95bc 8e64 5c3b 26b4 c53d
00000250: 7c4f 74be 591e fcbc a81a 1c3e 9937 3abe
00000260: 33d4 f8bc d9f7 64be 60eb 513e 8be7 673e
00000270: c063 d73d 94d8 113e f17e 44be 0b33 943c
00000280: 689b 49be aa99 c23d 8990 5abb 05af 3e3e
00000290: 3440 173e 0bdd 2f3e 7a9d 1d3d d703 3ebe
000002a0: 18c7 6f3e a926 553d def6 8c3c 807d 37bc
000002b0: d09b 3fbe aa70 1cbe 6a17 1c3e 5c80 20bd
000002c0: 82cd 413e e53f 313e f71b e03d d397 683c
000002d0: 3ce6 2b3e c915 3cbd 4630 693d ebe7 c03d
000002e0: 491f f5bc 8eba 29be 8965 8b3b 5b92 c43c
000002f0: e27b 4fbe 68c9 613e 29dd 733e 0485 323e
00000300: ec2a 27be ce06 813d f39d 8f3c 8d32 56be
00000310: 1187 793e bff9 723c d027 343d 4902 b5bd
00000320: 9d8a 673e d17c 90bd d9f3 32be 92fa 70bd
00000330: 1f99 913d 865f e83d 1703 8c3d 2cb4 5c3e
00000340: 1c52 44be 2646 e23c abcd 6e3d beaf 603e
00000350: 08e9 3e3e bc97 dd3d ca86 df3c 144b 203e
00000360: a636 b23d 52eb bcbd 736f 13bd 8aed bdbd
00000370: 8881 64be 10fe 3a3d b9f2 18be 9672 393e
00000380: 92ce 1abc 6816 1c3e 1d25 6bbe f252 4f3e
00000390: b0e8 b4bd 959b 383e 3a39 6f3e 88ad ae3d
000003a0: 0a47 03be 3c35 51be 43c3 b4bc 4920 a8bd
000003b0: 3c26 753e 7370 2ebe bd85 8fbd 0331 61be
000003c0: e8be b63d f1cb 27be 314d 65bc a847 b63d
000003d0: 4139 063e d218 4cbe 5ef2 463e 4e80 6c3c
000003e0: 56bd e43c 3a12 efbd 9c0c 383e 8049 503e
000003f0: d939 c43d 132c db3d a5f3 67be 2faa cb3d

policy_fc2.bias f4 [32]
-0.0037689167 0.00027446612 0.0033747645 -0.0026500758 0.0085815005 0.0021012416 0.0068272133 -0.0023400974
-0.012259983 0.0070643257 0.007495556 0.0026040568 -0.009895406 -0.0027533427 -0.006078994 -0.009925486
0.008559201 -0.0021520103 0.004241153 0.008158924 0.0026630494 0.00040320551 -0.0010556293 -0.00085267366
0.012504122 0.0060344758 0.0053205485 -0.00485978 0.001535933 -0.006657104 -0.0048539876 0.0035252038
00000000: eeff 76bb 38e6 8f39 272b 5d3b e5ac 2dbb
00000010: 6c99 0c3c fcb4 093b d1b6 df3b 525c 19bb
00000020: 19de 48bc dc7b e73b 489d f53b d3a8 2a3b
00000030: 5720 22bc 6d71 34bb 4c32 c7bb 819e 22bc
00000040: e43b 0c3c be08 0dbb 5ff9 8a3b 02ad 053c
00000050: 8e86 2e3b 5465 d339 0b5d 8aba f685 5fba
00000060: 17de 4c3c dabc c53b ff57 ae3b ca3e 9fbb
00000070: 5c51 c93a d623 dabb 330e 9fbb 1b07 673b

policy_fc3.weight f4 [51, 32]
0.23583597 -0.14256138 0.1751294 0.1320064 0.25528556 0.08742686 0.10417976 0.2848686
-0.15454605 0.17814839 -0.21389939 0.18555409 0.055732273 -0.0107986955 0.21028052 0.07520717
-0.17967938 -0.08158247 0.21717669 0.053807024 -0.20624311 0.18490376 0.19080853 -0.2057803
0.17323941 0.050465755 0.23000401 0.040046744 -0.24253522 -0.23356454 0.24578364 0.022966573
0.12767097 -0.22941859 0.16170734 -0.20085296 -0.028297748 0.09639194 0.24124303 -0.25006694
0.18067841 -0.13108054 -0.07124762 0.11705524 0.17147247 -0.0150499595 0.24676369 0.059363324
0.011860449 -0.1842118 -0.22357891 0.25613025 -0.13086563 0.20342751 -0.0105970325 0.19750911
0.13736863 0.15993898 0.066341035 -0.17514122 0.04932587 0.24996476 -0.1202248 0.053136602
-0.014088508 -0.21925715 -0.24743353 0.1095048 -0.035569917 0.08294407 -0.13435641 0.07743645
-0.19456883 -0.2605373 0.114922345 -0.006717731 -0.10212162 -0.15889339 -0.16596286 0.1250526
-0.052542135 0.03385574 -0.18889086 0.2392186 -0.17535736 -0.14647698 -0.0073073665 -0.20433536
0.19182259 -0.15937003 0.07436003 -0.1657507 -0.0750713 0.14965525 -0.045016687 -0.052527238
0.2168494 0.18561679 0.011589934 -0.11892875 0.20133686 -0.059545446 0.090279154 0.18723728
-0.14825715 0.004470402 -0.09063611 0.2259231 -0.027230944 -0.12613477 0.2531271 -0.053746756
0.043200213 -0.12807818 -0.2674568 0.15928051 0.18496376 0.16116233 0.05075968 -0.12974922
-0.116376534 0.19489771 0.16266796 0.10199754 0.1545374 -0.26468724 0.073155575 0.12075341
0.060981065 -0.26244372 0.15879059 -0.24240896 0.033895493 0.07252179 0.07023869 -0.044339564
-0.04576761 0.11140746 0.07031057 -0.13008691 0.17804363 0.18404062 0.23277089 0.24772495
0.19311862 -0.15747449 -0.09046601 -0.09919297 0.23721278 -0.21843368 -0.14296697 -0.17149732
-0.077416524 -0.24057338 0.022472398 0.09851763 -0.14678042 -0.060658436 -0.14211324 -0.055976294
-0.26743597 0.13062239 0.11839811 -0.04204616 0.050603803 0.16232158 0.2310795 0.037689433
0.033100117 -0.10460811 -0.27482754 -0.16047703 -0.051542006 0.12464196 -0.21588084 0.055308174
-0.021635333 -0.18556742 -0.08942989 -0.17245938 -0.18342532 -0.011800665 -0.12740117 0.15606381
0.05777584 0.10539598 0.12023718 0.024027215 0.07582758 -0.27255085 -0.018279435 -0.054431953
-0.00016091936 0.2295199 -0.19366899 0.24679086 0.062635206 0.047481783 0.13809331 0.08538968
-0.27022982 -0.11400003 -0.1905346 0.07648883 -0.16005765 -0.04045583 0.22554125 -0.26271242
0.19555959 0.20197639 0.12692404 -0.2455657 0.10479181 -0.2222713 -0.13865928 -0.16198897
-0.19322824 -0.051137693 0.06888079 0.031158637 0.10468591 -0.19799894 -0.1725701 -0.03148
-0.18236147 -0.02694391 -0.037441067 -0.18929373 -0.16385369 -0.22630046 0.08579016 -0.111603156
0.19875966 0.2513485 0.14544268 0.011999831 -0.21127632 0.14798053 -0.1644202 -0.118068956
-0.25399843 -0.0839516 -0.2405403 0.07044101 0.20786454 -0.07569988 -0.09407795 0.22681694
-0.06905182 0.2515513 0.20150435 0.022804286 0.035928775 0.14002427 0.023989309 -0.21747555
00000000: fc7e 713e 9cfb 11be 1f55 333e b02c 073e
00000010: cab4 823e db0c b33d 335c d53d 4cda 913e
00000020: 5241 1ebe 886c 363e 7108 5bbe e401 3e3e
00000030: 8647 643d 03ed 30bc c753 573e 3706 9a3d
00000040: dffd 37be b614 a7bd 9163 5e3e c164 5c3d
00000050: 6531 53be 6957 3d3e 5063 433e 12b8 52be
00000060: ac65 313e 2eb5 4e3d 2c86 6b3e 0e08 243d
00000070: 275b 78be 8b2b 6fbe b5ae 7b3e 6524 bc3c
00000080: 2ebc 023e b5ec 6abe 9c96 253e 66ac 4dbe
00000090: aed0 e7bc 2369 c53d 6a08 773e c608 80be
000000a0: c303 393e fa39 06be 46ea 91bd a8ba ef3d
000000b0: 7b96 2f3e 1b94 76bc 9faf 7c3e f526 733d
000000c0: 5452 423c 05a2 3cbe dff1 64be 8123 833e
000000d0: a401 06be 4d4f 503e 2d9f 2dbc d43f 4a3e
000000e0: 5daa 0c3e 0bc7 233e cfdd 873d 3858 33be
000000f0: ec09 4a3d c3f6 7f3e 6c38 f6bd c4a5 593d
00000100: 7cd3 66bc f284 60be 375f 7dbe 0d44 e03d
00000110: c3b1 11bd 95de a93d ba94 09be 0097 9e3d
00000120: 0d3d 47be 2565 85be 685c eb3d 6920 dcbb
00000130: 2425 d1bd f3b4 22be 2bf2 29be ca0d 003e
00000140: 6c36 57bd 51ac 0a3d 9b6c 41be b8f5 743e
00000150: e190 33be 10fe 15be a272 efbb 4a3d 51be
00000160: 246d 443e e631 23be 124a 983d 8dba 29be
00000170: fbbe 99bd 3a3f 193e 6b63 38bd cd26 57bd
00000180: c50d 5e3e 5412 3e3e b5e3 3d3c eb90 f3bd
00000190: 402b 4e3e ede5 73bd 47e4 b83d 21bb 3f3e
000001a0: b9d0 17be 737c 923b 6d9f b9bd 6358 673e
000001b0: 6e13 dfbc 7929 01be e099 813e 8f25 5cbd
000001c0: b5f2 303d ed26 03be 19f0 88be 6e1a 233e
000001d0: 2467 3d3e bd07 253e 62e9 4f3d fbdc 04be
000001e0: d256 eebd 4493 473e 6e92 263e 16e4 d03d
000001f0: 0d3f 1e3e 1685 87be 97d2 953d 904d f73d
00000200: 48c7 793d 065f 86be 009a 223e 0e3a 78be
00000210: 00d6 0a3d 4e86 943d 4dd9 8f3d 679d 35bd
00000220: d176 3bbd 9829 e43d fdfe 8f3d 8135 05be
00000230: 1251 363e 2575 3c3e 7e5b 6e3e 9cab 7d3e
00000240: e3c0 453e fe40 21be 3e46 b9bd af25 cbbd
00000250: e8e7 723e 14ad 5fbe ef65 12be fe9c 2fbe
00000260: 8e8c 9ebd de58 76be 0918 b83c 9cc3 c93d
00000270: 9b4d 16be fb74 78bd 2286 11be 6647 65bd
00000280: 5eed 88be e0c1 053e b57a f23d 9838 2cbd
00000290: ef45 4f3d a137 263e 1ba0 6c3e 3c60 1a3d
000002a0: fd93 073d c73c d6bd 32b6 8cbe 1754 24be
000002b0: b61d 53bd 4944 ff3d de0f 5dbe d38a 623d
000002c0: 953c b1bc 6305 3ebe 0527 b7bd 3199 30be
000002d0: d9d3 3bbe 9457 41bc 7475 02be 31cf 1f3e
000002e0: 5ca6 6c3d d9d9 d73d e93e f63d b9d4 c43c
000002f0: 7e4b 9b3d c98b 8bbe c1be 95bc 0af4 5ebd
00000300: 76bc 28b9 4407 6b3e 2a51 46be beb6 7c3e
00000310: e346 803d 427c 423d 5568 0d3e c9e0 ae3d
00000320: 905b 8abe d978 e9bd 811b 43be 2da6 9c3d
00000330: 27e6 23be 03b5 25bd 49f4 663e 3e82 86be
00000340: c640 483e e6d2 4e3e 60f8 013e 9375 7bbe
00000350: 179d d63d 169b 63be b3fc 0dbe 70e0 25be
00000360: a0dd 45be c275 51bd 5f11 8d3d 6640 ff3c
00000370: 9165 d63d 3cc0 4abe 37b6 30be 2cf1 00bd
00000380: f7bc 3abe 7ab9 dcbc ce5b 19bd 37d6 41be
00000390: 43c9 27be 4fbb 67be c0b2 af3d 3290 e4bd
000003a0: a787 4b3e c0b0 803e edee 143e f09a 443c
000003b0: d258 58be 3588 173e c55d 28be 23ce f1bd
000003c0: 150c 82be d1ee abbd 3250 76be 6043 903d
000003d0: 71da 543e 8a08 9bbd f1ab c0bd b342 683e
000003e0: 0a6b 8dbd 55cb 803e 2857 4e3e 0ed0 ba3c
000003f0: 0d2a 133d 8662 0f3e 3a85 c43c e9b1 5ebe

policy_fc3.bias f4 [51]
0.0084338635 0.016112328 -0.0028190634 0.014725744 -0.012180664 -0.01488965 -0.0034993233 -0.0051024565
-0.018861135 -0.0017369813 -0.0076525332 -0.007850988 0.004809567 0.004553022 0.013760594 -0.013363838
0.00789666 0.014579369 0.022859054 0.0053072916 0.006100032 0.016039107 0.0029429635 0.02125939
-0.009207241 0.0077143945 0.0070861774 0.007555672 0.004107063 -0.008499664 -0.00045415503 0.0073111616
-0.00090508617 -0.0035317745 0.007845277 -0.004812518 0.02329091 -0.02168522 -0.0034833374 -0.014322723
0.0085859 -0.0047183717 -0.01537521 0.021980759 0.011347693 0.015478562 -0.013797024 0.0033936386
-0.008938235 0.0022068098 0.008985962
00000000: 302e 0a3c 00fe 833c 09c0 38bb 3f44 713c
00000010: 6891 47bc b8f3 73bc e754 65bb 8232 a7bb
00000020: ab82 9abc 6cab e3ba 1ac2 fabb 6ea1 00bc
00000030: 9299 9d3b 8431 953b 1d74 613c 00f4 5abc
00000040: fe60 013c 4ede 6e3c e942 bb3c cae8 ad3b
00000050: c7e2 c73b 7264 833c bcde 403b 2c28 ae3c
00000060: f8d9 16bc 08c9 fc3b 2a33 e83b 9295 f73b
00000070: 8b94 863b 2d42 0bbc a81b eeb9 7892 ef3b
00000080: 4e43 6dba 5875 67bb 7a89 003c 54b2 9dbb
00000090: 94cc be3c 34a5 b1bc b448 64bb dba9 6abc
000000a0: e0ab 0c3c 929c 9abb 4ee8 7bbc fe10 b43c
000000b0: adeb 393c cb99 7d3c ea0c 62bc cf67 5e3b
000000c0: ad71 12bc 20a0 103b db39 133c

value_fc1.weight f4 [64, 261]
0.14086346 -0.096964434 0.012447208 0.0749937 -0.008786422 0.090349466 -0.10694549 -0.08649774
-0.00660958 0.12603159 -0.16903418 -0.019213011 -0.008491646 -0.08551722 -0.08713038 0.13308308
0.0039884695 0.048824765 0.0818908 0.054686774 0.102303736 0.013727086 -0.101650946 0.10770239
-0.12851061 -0.16564389 0.01585749 -0.097372554 -0.012915477 0.11767401 0.12663688 0.14164828
-0.094532326 -0.08842877 0.047775406 -0.052338548 -0.06759898 -0.021857157 0.014787103 -0.0073746275
0.1434271 0.057659518 0.004544992 0.069981106 0.0015672053 -0.07150879 0.022699557 -0.023766823
0.016538057 0.033352513 0.048069105 0.001471936 0.11009004 0.13035917 -0.1010779 -0.008360337
-0.055297107 0.11451455 0.232864 -0.06743444 -0.058351785 -0.079702534 0.12333034 -0.08937971
-0.1002083 -0.09773946 0.07146834 -0.024810826 -0.056465436 -0.08071651 0.020250443 -0.018966936
0.025539272 0.0702191 0.15399155 -0.023000497 -0.19484562 0.05344007 0.0072598914 0.015972784
-0.0051809577 -0.0027483373 -0.0790815 -0.14846906 0.019791607 0.020994814 0.010070875 -0.045868207
-0.1155746 -0.1193954 0.07292504 -0.041854355 -0.10216118 -0.11924461 -0.004277464 -0.05846795
0.106863566 0.054757144 -0.08496791 0.015981516 -0.104192466 -0.017644253 0.04327751 -0.057204828
0.09665186 -0.030759389 -0.055117458 0.04909336 -0.08506769 0.10594883 0.06634816 0.047314137
-0.0039983485 -0.11908509 0.036116432 -0.208213 -0.16734622 0.13237566 -0.041169357 -0.19472764
0.105385296 0.13090254 -0.08645701 -0.19047163 0.1276979 -0.06394857 0.08322229 -0.064475834
-0.0584991 0.03708887 -0.031062108 -0.0068538967 -0.08591224 -0.05225735 -0.028142132 -0.0788323
0.11409138 0.02695812 0.053858165 0.11016729 0.020684926 0.1251722 0.08789348 -0.051445004
-0.07914302 -0.07929246 -0.0034167876 -0.0153799085 0.14294703 -0.06665179 -0.07760529 -0.007413678
0.0077563548 -0.086775586 0.09218348 -0.0032837284 0.12913688 0.0316834 -0.04177154 -0.10009176
-0.061491232 0.08246961 -0.14636628 -0.041524574 -0.10058205 -0.12831838 0.037852228 0.10762441
-0.025453746 -0.05509628 -0.10280811 0.1103456 -0.044873208 -0.0021782264 0.15930732 -0.005989635
-0.14149487 0.116093695 0.060809415 0.11973383 0.008411939 0.09273016 -0.10331338 0.061235998
-0.031809874 0.11744025 0.110090554 -0.097523816 0.0039911307 0.10491878 0.06144753 -0.07379386
-0.0664106 -0.06366471 0.028904751 -0.083088815 -0.07333714 0.07178887 0.041659076 0.015181119
0.029648136 0.07742533 -0.14187028 0.06658491 -0.10630078 0.044600684 -0.16681173 -0.05401827
0.0052848724 -0.040757492 0.044397406 0.058881912 -0.07675934 0.038894184 -0.07228439 -0.0312838
0.085457966 0.011164209 -0.114185415 0.1359547 -0.149417 -0.14922377 -0.096644744 0.1171163
-0.03320655 -0.04210199 0.041746862 -0.12062689 0.11002894 -0.046437796 0.05768136 0.073158294
-0.0009503017 0.00612635 0.06752528 0.059700117 0.023459412 -0.12216579 -0.07229673 -0.03348112
-0.14073227 -0.04925518 -0.13126199 -0.10589184 0.015461311 -0.16770376 0.013378479 -0.01854439
-0.110069156 -0.11971235 0.020325253 0.0393241 0.02104263 -0.15359639 -0.14333683 0.027614495
00000000: 833e 103e 4a95 c6bd 60ef 4b3c 4c96 993d
00000010: edf4 0fbc 2409 b93d 3d06 dbbd ba25 b1bd
00000020: 2d95 d8bb 6d0e 013e 4c17 2dbe 9b64 9dbc
00000030: 8b20 0bbc a723 afbd 6a71 b2bd ee46 083e
00000040: b5b1 823b 7afc 473d 5db6 a73d 3dff 5f3d
00000050: 9f84 d13d 92e7 603c 5f2e d0bd 1293 dc3d
00000060: 4998 03be 8d9e 29be 91e7 813c 436b c7bd
00000070: 709b 53bc 12ff f03d 19ad 013e 3f0c 113e
00000080: 2a9a c1bd 251a b5bd 25b0 433d f260 56bd
00000090: 5671 8abd c80d b3bc 9b45 723c dca6 f1bb
000000a0: 8ede 123e 632c 6c3d 28ee 943b 4152 8f3d
000000b0: af6a cd3a 3373 92bd 6cf4 b93c a4b2 c2bc
000000c0: d27a 873c a59c 083d 1ce4 443d faed c03a
000000d0: e376 e13d e07c 053e ee01 cfbd cbf9 08bc
000000e0: 387f 62bd 9b86 ea3d e773 6e3e 111b 8abd
000000f0: 4802 6fbd 153b a3bd 9e94 fc3d b60c b7bd
00000100: 023a cdbd a02b c8bd fe5d 923d 1340 cbbc
00000110: 4d48 67bd b34e a5bd 42e4 a53c 8c60 9bbc
00000120: bc37 d13c 08cf 8f3d f6af 1d3e 8a6b bcbc
00000130: 9c85 47be fae3 5a3d 62e4 ed3b 5bd9 823c
00000140: 06c5 a9bb 731d 34bb 7bf5 a1bd 4608 18be
00000150: 0222 a23c 51fd ab3c 5000 253c 4de0 3bbd
00000160: 60b2 ecbd 9385 f4bd b959 953d 796f 2bbd
00000170: e139 d1bd 8536 f4bd f829 8cbb 177c 6fbd
00000180: 49db da3d 0749 603d a803 aebd abeb 823c
00000190: dc62 d5bd ae8a 90bc c243 313d 9c4f 6abd
000001a0: 69f1 c53d 1dfb fbbc d8c2 61bd 1e16 493d
000001b0: f837 aebd b3fb d83d 8be1 873d 78cc 413d
000001c0: 9404 83bb e2e2 f3bd d3ee 133d ca35 55be
000001d0: cf5c 2bbe 7c8d 073e 33a1 28bd af66 47be
000001e0: 3fd4 d73d 510b 063e 5f10 b1bd ff0a 43be
000001f0: 3dc3 023e 78f7 82bd 7370 aa3d e80b 84bd
00000200: c19c 6fbd 80ea 173d f675 febc a796 e0bb
00000210: c2f2 afbd ce0b 56bd 548a e6bc d472 a1bd
00000220: bea8 e93d 46d7 dc3c 619a 5c3d 639f e13d
00000230: 6f73 a93c 242d 003e 7f01 b43d ffb7 52bd
00000240: bc15 a2bd 1664 a2bd 2fec 5fbb 03fc 7bbc
00000250: b560 123e bc80 88bd 86ef 9ebd 70ee f2bb
00000260: 0529 fe3b 66b7 b1bd b1ca bc3d d233 57bb
00000270: 753c 043e 74c6 013d a218 2bbd e9fc ccbd
00000280: 3bde 7bbd d4e5 a83d 0be1 15be ac15 2abd
00000290: f6fd cdbd e565 03be f00a 1b3d 306a dc3d
000002a0: 6084 d0bc a3ac 61bd 0f8d d2bd e0fc e13d
000002b0: f8cc 37bd 93c0 0ebb 7521 233e b344 c4bb
000002c0: 08e4 10be 88c2 ed3d 4b13 793d 0337 f53d
000002d0: 3bd2 093c 4fe9 bd3d f795 d3bd 99d2 7a3d
000002e0: 124b 02bd 8484 f03d 2877 e13d 91ba c7bd
000002f0: 08c8 823b a8df d63d 68b0 7b3d 3c21 97bd
00000300: 4802 88bd a562 82bd a8c9 ec3c 782a aabd
00000310: c831 96bd 0b06 933d b5a2 2a3d 3aba 783c
00000320: a6e0 f23c 2c91 9e3d 7146 11be ab5d 883d
00000330: 39b4 d9bd 35af 363d b2d0 2abe 4342 5dbd
00000340: b92c ad3b 54f1 26bd 0eda 353d 292e 713d
00000350: 0034 9dbd 824f 1f3d d709 94bd 7123 00bd
00000360: 9604 af3d 16ea 363c 0bda e9bd b537 0b3e
00000370: c500 19be 1ece 18be aeed c5bd acda ef3d
00000380: 9703 08bd 2373 2cbd c2fe 2a3d 3b0b f7bd
00000390: da56 e13d 8f35 3ebd 4a43 6c3d 04d4 953d
000003a0: ab1d 79ba 8cbf c83b b24a 8a3d 1c88 743d
000003b0: f42d c03c 0f32 fabd 4f10 94bd 8023 09bd
000003c0: 1f1c 10be cdbf 49bd 8b69 06be d2dd d8bd
000003d0: 7051 7d3c 89ba 2bbe 6831 5b3c 68ea 97bc
000003e0: f06b e1bd c02b f5bd 2581 a63c 4f12 213d
000003f0: 9861 ac3c 5f48 1dbe e4c6 12be cb37 e23c

value_fc1.bias f4 [64]
0.003624369 0.025868893 0.019656574 -0.0068395333 0.0101515995 0.0068908255 -0.0017150884 0.01139002
0.011234613 0.012879603 -0.0041626105 0.036026213 -0.0025223666 -0.00802975 0.02087361 -0.0050755697
0.003033618 -0.010076922 0.009845844 -0.040394656 0.019758325 0.0057375478 0.020548407 0.032060727
-0.016603006 0.009239967 0.0051889718 0.0019600706 -0.004206096 -0.0036736398 -0.016713105 -0.042843647
-0.011140246 0.020153828 0.016001018 0.020247974 0.0060602385 0.006528594 -0.00047924646 -0.0011212771
0.01319433 0.002183401 0.007698434 0.010389119 0.0057503316 -0.0154412165 0.024922332 0.0055211736
-0.0016461714 -0.0047152634 0.0027415652 0.005416204 0.03810989 0.027280329 0.01061705 -0.018485967
0.017954245 -0.008310125 0.0009800259 -0.004547422 -0.0014200697 0.0024041126 -0.006804277 0.032328308
00000000: d286 6d3b 00eb d33c d306 a13c 2a1e e0bb
00000010: e552 263c 6fcc e13b d1cc e0ba 359d 3a3c
00000020: 6211 383c f804 533c 8266 88bb 3990 133d
00000030: 4a4e 25bb 368f 03bc 22ff aa3c f750 a6bb
00000040: aacf 463b ad19 25bc 7650 213c de74 25bd
00000050: 36dc a13c 0a02 bc3b 2255 a83c 1c52 033d
00000060: 0703 88bc 3b63 173c 4008 aa3b 8774 003b
00000070: 4ad3 89bb 73c1 70bb ece9 88bc d27c 2fbd
00000080: 9485 36bc a419 a53c 9114 833c 14df a53c
00000090: f794 c63b d1ed d53b 5f43 fbb9 d1f7 92ba
000000a0: 082d 583c 6417 0f3b 2543 fc3b 2037 2a3c
000000b0: 476d bc3b 28fd 7cbc eb29 cc3c f6ea b43b
000000c0: 59c4 d7ba 7f82 9abb d5ab 333b 6a7a b13b
000000d0: 1e19 1c3d ff7a df3c 23f3 2d3c e26f 97bc
000000e0: c814 933c 3127 08bc 3674 803a 8a02 95bb
000000f0: a221 baba 518e 1d3b 6af6 debb b06a 043d

value_fc2.weight f4 [32, 64]
-0.15996915 0.02727696 -0.17260528 -0.10016837 0.011288027 -0.03436172 0.16935249 0.048367567
0.035314914 -0.060585354 0.233886 -0.021485595 0.119138494 -0.22172344 -0.028648231 0.2542771
-0.10061834 -0.047936253 0.13498724 -0.0657308 0.20429477 0.11192639 0.02409101 0.18115492
0.0032012947 -0.1410483 0.07019515 -0.2536301 0.13298182 0.018841002 -0.08293539 0.14081787
0.0013859218 -0.027779622 -0.22213064 -0.033477258 -0.15492643 0.15748727 0.18936324 -0.1750029
-0.026410557 -0.15780348 0.09826161 -0.052556966 0.19375326 0.083979115 -0.22592533 0.19720499
-0.085904405 0.2062906 -0.029259399 0.060468 0.2075456 -0.22733894 0.041633632 -0.22034034
-0.047367457 -0.18750896 0.20927612 0.012408529 -0.15388729 -0.12754603 -0.07280583 0.1719896
0.195038 -0.14532438 -0.13541187 -0.2344672 -0.1931506 0.08104921 -0.28549 0.054572057
-0.24691364 -0.17645954 -0.15957329 -0.13746105 0.015699236 0.10702075 -0.21456708 0.12966718
-0.11983694 -0.13957605 0.020205498 0.18185121 0.09734946 -0.101595215 0.26121736 -0.28584006
-0.025140423 -0.0372812 -0.23545201 -0.17788123 -0.020429553 0.018797787 0.2049075 0.01684904
0.15871333 -0.06115278 0.1062274 0.20650022 0.07867533 -0.094565384 -0.113204636 -0.23108745
0.16774984 -0.08569786 0.2301705 0.05665413 -0.11323166 -0.08578483 -0.097477846 -0.23585269
-0.115947805 -0.2294214 -0.18855423 0.13980316 0.17764187 -0.22846141 -0.18705578 -0.14665952
-0.013061918 0.06667146 0.07374036 -0.16884294 0.23079956 0.2179768 0.14860182 0.1185738
0.13212608 0.19169752 -0.17836227 -0.12140519 0.041088652 -0.12051918 0.20398355 -0.21138151
0.09362812 0.037865836 0.13837609 -0.13451041 -0.1079999 -0.02544854 -0.052064627 -0.13669305
0.05958332 0.011497966 -0.069242805 0.0122475 -0.16800337 -0.13301986 0.030774673 0.033644132
0.009440478 -0.24616772 0.02763387 -0.22936791 0.17619939 -0.20269038 -0.115926616 -0.13934219
0.19016849 0.11979275 -0.25257382 -0.19794042 0.12192602 0.21729194 -0.14707805 -0.14578058
0.008707531 0.08059964 -0.19654986 -0.24613436 0.07170796 0.021935726 -0.22181106 0.1326266
-0.07832363 0.033691972 -0.21393317 0.08194541 0.23026569 0.11253316 -0.02415961 -0.07172122
-0.16613351 0.12808533 -0.12915915 -0.18537867 0.092480235 -0.11362177 0.1015518 -0.1337178
0.012733347 0.20543554 0.090408996 -0.049970336 -0.19048446 0.21546808 0.0548182 0.13157135
0.08635874 0.042600818 0.09611602 -0.1797721 0.21237995 0.11193583 0.06511011 0.1291929
0.051980104 -0.08318343 0.224267 0.0072042267 -0.11000177 -0.05319824 -0.20102324 0.05389341
0.11718863 -0.19985756 -0.0200085 0.0032267598 0.027979104 -0.18976912 0.08046543 0.071226776
0.12763079 -0.0203143 -0.087970965 -0.08191166 0.21189278 0.0740909 -0.08909561 0.079333544
0.0075672716 -0.20301433 0.1106888 -0.0927522 -0.10375259 0.08891019 -0.049874056 0.07681927
-0.056917526 0.11970145 -0.1941839 -0.12372799 0.095528394 -0.12637149 0.017983085 -0.21980046
-0.24577294 -0.14446302 0.024919745 -0.040918496 -0.0073331823 -0.19220385 -0.040012732 -0.035934977
00000000: f4ce 23be ee73 df3c 70bf 30be 1325 cdbd
00000010: 6bf1 383c e0be 0cbd bd6a 2d3e 121d 463d
00000020: 5fa6 103d 5928 78bd d07f 6f3e 8f02 b0bc
00000030: e2fe f33d 780b 63be b2af eabc 9c30 823e
00000040: fd10 cebd ce58 44bd 183a 0a3e df9d 86bd
00000050: a632 513e aa39 e53d 835a c53c ad80 393e
00000060: d0cc 513b f76e 10be 7ac2 8f3d cedb 81be
00000070: 632c 083e 7258 9a3c 08da a9bd 8f32 103e
00000080: d2a7 b53a 1792 e3bc 3776 63be 731f 09bd
00000090: 09a5 1ebe 5844 213e 70e8 413e f633 33be
000000a0: f45a d8bc 3c97 21be 623d c93d f945 57bd
000000b0: 4167 463e 3efd ab3d f858 67be 1bf0 493e
000000c0: a6ee afbd d83d 533e 68b1 efbc 4bad 773d
000000d0: d586 543e 8acb 68be 0788 2a3d e6a0 61be
000000e0: 6104 42bd 5902 40be 7b4c 563e 254d 4b3c
000000f0: a194 1dbe 6d9b 02be 391b 95bd 0b1e 303e
00000100: 0bb8 473e eacf 14be 69a9 0abe 2b18 70be
00000110: 45c9 45be 21fd a53d bf2b 92be f386 5f3d
00000120: eed6 7cbe cfb1 34be 2e67 23be 97c2 0cbe
00000130: af9b 803c b22d db3d 79b7 5bbe 79c7 043e
00000140: 126d f5bd 06ed 0ebe 0086 a53c 3437 3a3e
00000150: 275f c73d 2711 d0bd 48be 853e a159 92be
00000160: 4af3 cdbc 2cb4 18bd 551a 71be 7f26 36be
00000170: e15b a7bc d1fd 993c 46d3 513e ff06 8a3c
00000180: bf85 223e 567b 7abd c08d d93d cb74 533e
00000190: 8820 a13d 7fab c1bd d5d7 e7bd 30a2 6cbe
000001a0: 9dc6 2b3e 5c82 afbd d1b1 6b3e 290e 683d
000001b0: 00e6 e7bd f5af afbd 77a2 c7bd 5e83 71be
000001c0: 0b76 edbd 72ed 6abe 5c14 41be 8f28 0f3e
000001d0: c0e7 353e caf1 69be 8d8b 3fbe ea2d 16be
000001e0: a801 56bc 0c8b 883d 3005 973d 2ae5 2cbe
000001f0: b856 6c3e 4f35 5f3e 132b 183e d2d6 f23d
00000200: 0f4c 073e 5b4c 443e 99a4 36be 49a3 f8bd
00000210: 934c 283d c3d2 f6bd 10e1 503e 6574 58be
00000220: 1ac0 bf3d 3519 1b3d 76b2 0d3e 19bd 09be
00000230: 0d2f ddbd 7579 d0bc b841 55bd 43f9 0bbe
00000240: a40d 743d f761 3c3c 2ccf 8dbd bda9 483c
00000250: 1309 2cbe 5c36 08be 2b1b fc3c 6ece 093d
00000260: 3cac 1a3c 6413 7cbe 6d60 e23c 6cdf 6abe
00000270: 9d6d 343e 118e 4fbe ef6a edbd b8af 0ebe
00000280: 87bb 423e e755 f53d 5b51 81be e5b0 4abe
00000290: 59b4 f93d c781 5e3e a19b 16be 8147 15be
000002a0: 08aa 0e3c 6d11 a53d 5e44 49be a50a 7cbe
000002b0: 9fdb 923d 8db2 b33c 7022 63be 44cf 073e
000002c0: 2468 a0bd 9800 0a3d 4c11 5bbe ffd2 a73d
000002d0: c5ca 6b3e c977 e63d 60ea c5bc 93e2 92bd
000002e0: e71e 2abe cd28 033e 4c42 04be e8d3 3dbe
000002f0: 4766 bd3d 88b2 e8bd 64fa cf3d 52ed 08be
00000300: 879f 503c b25d 523e 5a28 b93d b2ad 4cbd
00000310: 5c0e 43be aaa3 5c3e 0d89 603d a4ba 063e
00000320: dadc b03d 327e 2e3d 7ad8 c43d 2d16 38be
00000330: 217a 593e 9d3e e53d 7358 853d 254b 043e
00000340: 17e9 543d 135c aabd 40a6 653e 6f11 ec3b
00000350: 9c48 e1bd 66e6 59bd 09d9 4dbe 56bf 5c3d
00000360: 9800 f03d 76a7 4cbe dee8 a3bc 0c78 533b
00000370: 6f34 e53c d652 42be 0fcb a43d 58df 913d
00000380: a5b1 023e 2d6a a6bc 1f2a b4bd 4dc1 a7bd
00000390: 6cfa 583e f8bc 973d c277 b6bd a079 a23d
000003a0: e0f6 f73b fde2 4fbe cfb0 e23d def4 bdbd
000003b0: 3d7c d4bd 8c16 b63d bd48 4cbd 6c53 9d3d
000003c0: 5a22 69bd 0926 f53d 25d8 46be 1a65 fdbd
000003d0: 64a4 c33d 8767 01be 4351 933c 5f13 61be
000003e0: e7ab 7bbe 1dee 13be 7e24 cc3c 279a 27bd
000003f0: 314b f0bb 16d1 44be 64e4 23bd 8e30 13bd

value_fc2.bias f4 [32]
-0.0028056768 0.03409195 -0.013360645 0.029476436 -0.018451119 -0.018994763 0.011519897 -0.01870354
-0.008286985 0.016507205 -0.047272373 -0.023864955 0.023776392 -0.0015768083 -0.008646776 -0.021654246
-0.0060457224 -0.035167318 -0.016186068 0.012430481 -6.9930975e-05 0.013103117 0.008854019 -0.01068526
0.003066897 0.0009008816 -0.03568481 0.00650312 -0.0040677325 0.05740837 0.011130561 0.008294139
00000000: 72df 37bb 00a4 0b3d 9be6 5abc 9178 f13c
00000010: cd26 97bc e89a 9bbc f3bd 3c3c 2b38 99bc
00000020: 22c6 07bc 1e3a 873c ada0 41bd 7080 c3bc
00000030: b5c6 c23c e8ac ceba 35ab 0dbc 3f64 b1bc
00000040: 321b c6bb 9b0b 10bd a598 84bc 37a9 4b3c
00000050: e8a7 92b8 75ae 563c 7310 113c 3b11 2fbc
00000060: fefd 483b 2429 6c3a 3c2a 12bd 2018 d53b
00000070: 9d4a 85bb 0a25 6b3d f55c 363c 24e4 073c

value_fc3.weight f4 [1, 32]
-0.010973666 -0.4213806 0.415488 -0.31476396 -0.03619871 -0.24658199 0.169731 0.040024612
0.48400113 -0.37277395 0.08045664 -0.28881377 0.4057473 0.06865304 -0.3111201 0.16520663
0.26740628 0.073522285 -0.33967707 -0.2537011 0.15083867 0.24903789 0.47255155 -0.31314546
0.10517895 0.11502721 0.32912314 0.21248831 -0.11580971 0.3238253 0.046483584 0.24505241
00000000: e4ca 33bc 33bf d7be d8ba d43e be28 a1be
00000010: 1945 14bd fd7f 7cbe f7cd 2d3e d9f0 233d
00000020: ffce f73e 3adc bebe 73c6 a43d 66df 93be
00000030: 1cbe cf3e f799 8c3d 224b 9fbe ed2b 293e
00000040: 7ae9 883e da92 963d 27ea adbe 1ce5 81be
00000050: 7475 1a3e ca03 7f3e 47f2 f13e 9a54 a0be
00000060: 1068 d73d 6393 eb3d d482 a83e 8996 593e
00000070: a42d edbd 6ecc a53e 9265 3e3d 05ef 7a3e
