rl/spin_model_11261558/11.pt (torch_old, 159601 bytes, 12 tensors)

log_std f4 [51]
0	0xbc2b8605	-0.010468964
1	0x3e042374	0.1290415
2	0x3ce7d1e3	0.028298324
3	0x3e03dc41	0.12876989
4	0x3d28f6bf	0.04125094
5	0x3dc8c2ae	0.09802757
6	0x3d9fe43f	0.07807206
7	0x3d9f0667	0.07764893
8	0x3dfef9e5	0.12450007
9	0x3e223b19	0.15842856
10	0x3d86f360	0.06589389
11	0x3d866e4a	0.06564005
12	0x3e0222aa	0.12708536
13	0x3d68e51a	0.056859113
14	0x3de60ed3	0.11233296
15	0x3d8b2ec2	0.06796028
16	0x3d1b19f9	0.037866566
17	0x3da59be3	0.08086374
18	0x3d558e04	0.05213739
19	0x3e3a995a	0.18222561
20	0x3deaaae7	0.11458378
21	0x3daa0911	0.083025105
22	0x3da4e5cc	0.08051643
23	0x3cf2d9c4	0.029644854
24	0x3dbf0212	0.09326567
25	0x3d9b1dfc	0.075740784
26	0x3d9273cd	0.071509935
27	0x3e1b8e5c	0.15191025
28	0x3e019ea7	0.12658177
29	0x3da18f3e	0.078886494
30	0x3d28dd17	0.041226473
31	0x3dba012a	0.09082253
32	0x3dd355cb	0.10319098
33	0x3ddd7fa9	0.10815365
34	0x3e085346	0.13313016
35	0x3e03ce0c	0.1287157
36	0x3e046707	0.12929927
37	0x3ddffe4c	0.10937175
38	0x3e029632	0.12752607
39	0x3dcce4d1	0.10004581
40	0x3dd22f51	0.10262931
41	0x3d880bec	0.06642899
42	0x3dd48298	0.10376471
43	0x3d162a03	0.03666116
44	0x3dd3d027	0.10342436
45	0x3d76ca0c	0.06025128
46	0x3da3b819	0.07994098
47	0x3dc00b51	0.093771584
48	0x3d9be42b	0.07611879
49	0x3e16a31f	0.14710663
50	0x3cfd45ca	0.030917067

policy_fc1.weight f4 [64, 261]
0	0x3da443be	0.08020733
1	0xbe0b0881	-0.13577463
2	0x3cff6298	0.031174943
3	0x3e064d3b	0.13115399
4	0x3c8f3adc	0.017484121
5	0x3d51a082	0.051178463
6	0xbe0642b4	-0.13111383
7	0xbdb5f9bb	-0.08885523
8	0x3da13076	0.07870571
9	0x3d52fec8	0.05151251
10	0x3d171926	0.036889218
11	0x3dd9e560	0.10639453
12	0xbe1a5e11	-0.15074946
13	0x3d9f694e	0.07783757
14	0xbde4188f	-0.11137497
15	0x3c0cfb8a	0.008604893
16	0x3d50e368	0.05099812
17	0x3d2ee8a2	0.042702325
18	0xbdd68dec	-0.10476288
19	0x3d214746	0.039374612
20	0x3d25f1f5	0.04051395
21	0x3d5af41d	0.05345546
22	0x3dae7b55	0.085196175
23	0x3e042f2e	0.12908623
24	0xbe04d0a8	-0.12970221
25	0xbd51b3ad	-0.051196743
26	0x3dd47765	0.10374335
27	0x3dcce71c	0.10005018
28	0xbca38d34	-0.019964792
29	0x3ddf5708	0.10905272
30	0xbbf5e440	-0.007504016
31	0x3b2716b8	0.002549572
32	0x3dd4fa80	0.103993416
33	0x3d45527b	0.048174363
34	0xbda251a0	-0.07925725
35	0x3d887761	0.06663395
36	0xbe039f8c	-0.12853831
37	0xbdcbade3	-0.09945276
38	0x3d920722	0.07130267
39	0x3dae9ae0	0.08525634
40	0x3daec5ae	0.08533798
41	0x3a72af59	0.0009257696
42	0x3c6aa239	0.014320903
43	0xbdf40a94	-0.1191608
44	0x3dd2a118	0.102846324
45	0x3d38fab0	0.04516095
46	0x3daad73a	0.083418325
47	0x3d8587f0	0.06520069
48	0x3d767886	0.060173534
49	0xbd8b50e8	-0.06802541
50	0xbdaa3f54	-0.0831286
51	0x3be7d76c	0.007075241
52	0x3c36916f	0.0111430725
53	0x3d4bf6c5	0.049795885
54	0xbd37f0bf	-0.044907328
55	0xbdd89e39	-0.105770536
56	0x3d4fe046	0.050750993
57	0xbd78baad	-0.060724903
58	0xbe063ec0	-0.13109875
59	0x3dea8f43	0.11453106
60	0x3e0b48e9	0.13602032
61	0x3c0de19c	0.0086597465
62	0xbddacc05	-0.10683445
63	0x3dd81a84	0.105519325
64	0x3d6b19e8	0.057397753
65	0xbd072d4c	-0.033002183
66	0x3c651ca4	0.013983879
67	0x3d67e2ca	0.056612767
68	0xbbad40e8	-0.0052872784
69	0xbce1162f	-0.027476398
70	0xba283038	-0.00064158766
71	0x3c346dd8	0.011012517
72	0x3e29a573	0.1656702
73	0x3d624939	0.05524561
74	0x3d95c62e	0.073131904
75	0xbd404cf9	-0.046948407
76	0x3db0ba6f	0.086293094
77	0x3d4d0803	0.05005647
78	0x3d3b3903	0.045708667
79	0xbcda58fe	-0.026653763
80	0xbdeafa69	-0.11473543
81	0x3d113ee9	0.035460386
82	0xbc57f2bf	-0.013180434
83	0x3ada6233	0.0016661346
84	0xbd99e6b3	-0.075147055
85	0xbd66259b	-0.056188207
86	0x3d83885a	0.06422491
87	0xbccb1238	-0.02478896
88	0xbdbe2ab4	-0.09285489
89	0xbc8f52a8	-0.017495468
90	0xbe07018d	-0.13184185
91	0xbdeba505	-0.11506084
92	0xbded1735	-0.11576692
93	0x3d2b6a9c	0.041849717
94	0xbe09c993	-0.134558
95	0x3cf33e2b	0.02969273
96	0x3b268e38	0.0025414359
97	0x3d97f8af	0.074204795
98	0xbdc177ea	-0.094467
99	0xbd9a1f5d	-0.07525513
100	0x3d93fa0d	0.07225428
101	0xbd857500	-0.065164566
102	0xbe0867cf	-0.1332085
103	0xbde826f4	-0.11335555
104	0xbccfd6c3	-0.025370961
105	0x3d7368f7	0.059426274
106	0xbd5b8e7f	-0.05360269
107	0xbdfeb4f3	-0.12436857
108	0x3bec5984	0.0072128195
109	0xbd0ce949	-0.034402166
110	0xbd0f792e	-0.035027675
111	0xbdc46007	-0.09588628
112	0xbb7e2ed6	-0.003878524
113	0x3aab2203	0.0013056401
114	0x3d76f420	0.06029141
115	0xbd8d6cf0	-0.06905544
116	0xbdebb814	-0.115097195
117	0x3d8edb3b	0.06975409
118	0x3d7e1c0a	0.06203846
119	0x3db84e0b	0.089992605
120	0x3da98a8a	0.08278377
121	0x3dc2fcf9	0.09520907
122	0x3dc99d1d	0.0984442
123	0x3dc29b8e	0.09502326
124	0xbd4b6a47	-0.0496619
125	0x3ddb5ab2	0.10710658
126	0x3ce267dd	0.027637416
127	0xbc951d1e	-0.01820236
128	0x3db42882	0.08796789
129	0xbddf6992	-0.10908808
130	0x3cfecb03	0.031102663
131	0xbdecc1e4	-0.11560419
132	0x3cbe71e4	0.023247667
133	0x3d8f4095	0.0699474
134	0xbe07933e	-0.13239762
135	0xbdade455	-0.084908165
136	0xbd7d14de	-0.06178748
137	0xbac3e3bb	-0.0014945188
138	0x3db53e72	0.08849801
139	0x3cdf0ac4	0.027226813
140	0xbc68cf9b	-0.014209653
141	0x3d060df3	0.032728147
142	0xbdec11d8	-0.11526841
143	0x3b9e0cc5	0.0048232996
144	0x3db89ffb	0.09014889
145	0x3d3d852f	0.046269592
146	0x3b6698f0	0.0035186373
147	0xbddf8538	-0.10914081
148	0xbb5d9bc9	-0.003381478
149	0xbda37af4	-0.07982436
150	0xbdbd0790	-0.09229958
151	0xbde70053	-0.11279359
152	0xbd1aba65	-0.037775416
153	0xbd895306	-0.067052886
154	0xbe1065ef	-0.14101385
155	0x3e07c8de	0.13260219
156	0x3b83da16	0.0040238006
157	0xbd499401	-0.049213413
158	0x3cf3c100	0.029755116
159	0x3d91a94a	0.071123675
160	0x3da34b2c	0.07973322
161	0xbdcb6a10	-0.09932339
162	0xbd3255f8	-0.043539017
163	0xbd82974b	-0.06376513
164	0x3dbb040f	0.091316335
165	0xbda11f25	-0.078672685
166	0xbe03740f	-0.12837242
167	0xbd0dde5f	-0.034635898
168	0x3d98636b	0.074408375
169	0xbe1014c9	-0.14070429
170	0xbd97baac	-0.07408652
171	0x3d9949c4	0.07484773
172	0xb980aebc	-0.0002454425
173	0x3e001666	0.12508544
174	0x3e042889	0.12906088
175	0x3ddbc100	0.10730171
176	0xbd15bd7f	-0.03655767
177	0xbd9080b5	-0.07055799
178	0x3df45b59	0.11931486
179	0x3de6fabc	0.112782925
180	0x3dd6ef33	0.104948424
181	0x3da1de3d	0.07903717
182	0xbd9b772e	-0.07591091
183	0xbbb99aeb	-0.0056642196
184	0xbda8ec03	-0.08248141
185	0x3dae3e87	0.0850802
186	0x3d80f95c	0.062975615
187	0xbdf17659	-0.11790151
188	0x3de5f77e	0.11228846
189	0x3dac2812	0.0840608
190	0xbe12d947	-0.14340697
191	0x3e1b2f7b	0.15154831
192	0x3e03f03d	0.12884612
193	0x3dc75fb3	0.0973505
194	0x3dac7f93	0.0842277
195	0xbd9c3813	-0.07627883
196	0x3da760af	0.08172738
197	0x3d4ce293	0.050020766
198	0x3ddaacd8	0.106774986
199	0x3dbd41b6	0.09241049
200	0x3d15fa68	0.03661576
201	0x3cbd687f	0.023121117
202	0x3dfda552	0.12385048
203	0x3cebe61c	0.028796248
204	0xbdcb56ed	-0.09928689
205	0xbd83a16e	-0.06427275
206	0x3d908b6b	0.07057842
207	0xbd6fd2fc	-0.05855082
208	0x3dbb0840	0.09132433
209	0x3e08086a	0.1328446
210	0x3d2090f4	0.039200738
211	0xbdde1f00	-0.108457565
212	0xbd6263ea	-0.055271067
213	0xbd02f8ee	-0.03197568
214	0x3d08b873	0.03337903
215	0xbc72d2c9	-0.014820763
216	0x3d2f7ec4	0.042845502
217	0xbdb8d0ca	-0.09024198
218	0x3d3aa4f0	0.045567453
219	0x3d95fa7a	0.07323165
220	0x3e1c35d4	0.15254909
221	0x3ce332b5	0.02773414
222	0x3adb1e9d	0.0016717497
223	0x3da79f1f	0.08184647
224	0x3dc9137f	0.09818172
225	0x3d13b7c4	0.036063924
226	0xbdb2dfc9	-0.0873409
227	0xbca95359	-0.020669626
228	0x3d99842d	0.07495914
229	0xbd8f079c	-0.06983873
230	0x3db8837b	0.09009453
231	0x3cfb7aa8	0.030698135
232	0xbe06f9e1	-0.13181259
233	0xbdc73762	-0.0972736
234	0x3deebde8	0.116573155
235	0xbde1c13e	-0.11023186
236	0x3d887741	0.06663371
237	0x3de4f351	0.111792214
238	0xbd80e4dc	-0.062936515
239	0x3db8d1e0	0.090244055
240	0xbdcddab3	-0.10051479
241	0xbdc218f5	-0.094774164
242	0xbd803d00	-0.06261635
243	0x3e0dc7ff	0.13845824
244	0x3c340fd6	0.010990104
245	0xbb93f24e	-0.004514969
246	0x3d97404a	0.07385309
247	0xbcd2ed2e	-0.025747862
248	0xbdeafb9b	-0.11473771
249	0x3d89368b	0.06699856
250	0xbd44f9fa	-0.04808996
251	0xbd3a8b7b	-0.045543175
252	0xbdd3c6c3	-0.10340645
253	0xbdb123b8	-0.08649391
254	0xbdbe5b5f	-0.092947714
255	0xbda88c2b	-0.0822986

policy_fc1.bias f4 [64]
0	0xbaf5dac4	-0.0018757214
1	0x3bfa0a14	0.007630596
2	0x39afb080	0.00033510104
3	0x3a21e640	0.00061759725
4	0x3c33f0a7	0.010982669
5	0x3b225d19	0.0024774729
6	0xbbae3688	-0.005316559
7	0x3893b51e	7.043242e-05
8	0xbc52e496	-0.012871882
9	0xbc4c5a48	-0.012472697
10	0x3be349e6	0.0069362996
11	0xbca8a89d	-0.020588214
12	0x3b7f3e9c	0.003894723
13	0x3be063c0	0.0068478286
14	0xbc133b13	-0.008986252
15	0xbc537f17	-0.012908719
16	0xbbddddd0	-0.006770827
17	0x3b5b88c8	0.0033498276
18	0xbc8956f5	-0.016765097
19	0xbc79dd59	-0.015250527
20	0x3ba65ed6	0.0050772233
21	0xba1b107a	-0.0005915236
22	0xba171ad0	-0.0005764188
23	0xbb7776c5	-0.003776
24	0x3c42018a	0.011841187
25	0x393eb64c	0.00018187723
26	0xbc1e5c47	-0.009665555
27	0x3afcf97f	0.001930043
28	0x3b51c8b8	0.0032010507
29	0x3b932f64	0.0044917334
30	0xbbfb40b3	-0.007667625
31	0xbb4446d1	-0.0029949436
32	0xbc38caa2	-0.01127878
33	0xbc10a2da	-0.008827889
34	0x3a8ce217	0.0010748532
35	0xbc165a01	-0.009176732
36	0x3b7fe344	0.0039045373
37	0xbcb684f8	-0.022280201
38	0xbb767c65	-0.0037610766
39	0xbc8c22ca	-0.017106432
40	0x3c109a42	0.00882584
41	0xbbd9fd7d	-0.0066525326
42	0x3b08405c	0.0020790314
43	0xbc5645ac	-0.0130781345
44	0xbbc2678e	-0.005932755
45	0xbc311e3f	-0.010810434
46	0xbbca99e1	-0.0061828946
47	0xbbcf643d	-0.006329088
48	0xbc2e73fa	-0.010647768
49	0x3c8e8f06	0.017402183
50	0xbb25c41b	-0.002529389
51	0xbc79ec8f	-0.015254154
52	0xbc8127ea	-0.015766103
53	0xbcbd89ad	-0.023136938
54	0x3bbaf11c	0.005705012
55	0xbc1beb6c	-0.009516578
56	0xbb5e2592	-0.0033896905
57	0x39cd687e	0.000391785
58	0x3b8af880	0.0042410493
59	0x3b71f098	0.0036917087
60	0xbc349c35	-0.011023571
61	0x3b40dc71	0.0029428268
62	0xbbe240d0	-0.006904699
63	0xbc0ac7af	-0.00847046

policy_fc2.weight f4 [32, 64]
0	0x3e612bc6	0.21989354
1	0xbdbf2cb3	-0.093346976
2	0x3dfa2811	0.12214673
3	0x3d70ea49	0.05881718
4	0xbced5aec	-0.028974019
5	0xbe1052cb	-0.14094083
6	0xbe789103	-0.24274068
7	0x3df9fe02	0.12206651
8	0xbe070336	-0.13184819
9	0xbe5e36ec	-0.21700639
10	0x3dfe2c35	0.124107756
11	0x3e0141eb	0.12622802
12	0xbd6bc203	-0.05755807
13	0xbe7d9ebb	-0.24767582
14	0xbe2165e5	-0.15761526
15	0x3cc1b334	0.023645021
16	0xbe444ccf	-0.19169925
17	0x3cd99368	0.026559547
18	0xbddad467	-0.10685044
19	0xbdc09aac	-0.09404501
20	0x3e2e2c50	0.17009091
21	0x3d2e5007	0.04255679
22	0x3e4b64ef	0.19862722
23	0x3ded1718	0.115766704
24	0xbe7b3dca	-0.2453529
25	0xbe23ea0a	-0.16007248
26	0x3e279ac8	0.16367638
27	0xbc827f1b	-0.01592975
28	0x3e00339a	0.12519684
29	0xbdf449b9	-0.11928124
30	0x3cc5db6c	0.02415248
31	0xbdd74b8f	-0.105124585
32	0xbe29ad22	-0.16569951
33	0x3d6b15ae	0.057393722
34	0x3e1a01a6	0.15039691
35	0xbe3499c8	-0.17636788
36	0xbe2387a5	-0.15969713
37	0xbe13b04c	-0.1442272
38	0x3e4ba01d	0.19885297
39	0xbd7466b4	-0.059668258
40	0xbe229144	-0.15875727
41	0xbc82144b	-0.015878817
42	0xbe862482	-0.26199728
43	0xbe098b1e	-0.13431975
44	0x3e3dfef0	0.18554282
45	0x3bba71c3	0.005689831
46	0x3e71a829	0.23599304
47	0x3ade1b22	0.0016945342
48	0x3dd8b1fa	0.10580821
49	0xbe223bec	-0.15843171
50	0x3e74965d	0.23885484
51	0x3c8c5b07	0.017133249
52	0xbd6b6052	-0.057464905
53	0xbd79b1ca	-0.06096057
54	0x3e2e9a81	0.17051126
55	0x3d111924	0.035424367
56	0xbd8a8df4	-0.06765357
57	0xbd836ea8	-0.064175904
58	0x3d15cb5a	0.036570884
59	0xbe0b0458	-0.13575876
60	0xbd231afe	-0.039820664
61	0xbbf604b0	-0.007507883
62	0x3e11537b	0.14192002
63	0xbdbeee00	-0.09322739
64	0x3df4c565	0.119517125
65	0xbe603a22	-0.21897176
66	0xbdadd4e5	-0.08487872
67	0xbd6cf656	-0.05785211
68	0xbe691472	-0.22761706
69	0x3e0be7dd	0.13662668
70	0x3d73b3a5	0.059497494
71	0xbda140ba	-0.07873674
72	0x3e4f48ac	0.20242566
73	0xbc0fc278	-0.008774392
74	0x3e4da864	0.20083767
75	0x3c880288	0.01660277
76	0x3e48ed68	0.19621813
77	0xbdbec95a	-0.093157485
78	0x3d9c94e5	0.07645587
79	0xbd6db1ad	-0.058030773
80	0x3e03fc8e	0.1288931
81	0x3e04c7a3	0.1296678
82	0xbdc09086	-0.09402566
83	0x3d8adbb2	0.06780185
84	0xbcd4236d	-0.025895799
85	0x3d62591a	0.055260755
86	0xbe3d0697	-0.18459545
87	0xbe3d8266	-0.18506774
88	0xbe4871ea	-0.19574705
89	0x3d31253f	0.04324841
90	0x3e7ae090	0.24499726
91	0x3dd32573	0.10309877
92	0xbe42174f	-0.18954204
93	0xbe60093c	-0.21878523
94	0x3dfc30b8	0.1231398
95	0xbe461167	-0.19342576
96	0x3e24c9c9	0.160926
97	0xbe3af2c8	-0.18256676
98	0xbe26bf6b	-0.16283958
99	0x3dc631ce	0.09677468
100	0xbe448696	-0.19191965
101	0x3df95879	0.12175078
102	0x3e002faa	0.12518182
103	0xbde2c479	-0.110726304
104	0xbdcc0d81	-0.09963513
105	0xbc4e0710	-0.012574926
106	0x3e7d435e	0.2473273
107	0x3e502805	0.20327766
108	0xbd90241e	-0.07038139
109	0x3db209f2	0.08693303
110	0x3ba88dbd	0.0051438496
111	0xbe669caa	-0.225207
112	0x3e399d44	0.18126398
113	0x3dca6420	0.098823786
114	0xbb3c33c3	-0.0028717376
115	0xbe9290f8	-0.28626227
116	0x3d6cf8a3	0.057854306
117	0xbdc03983	-0.093859695
118	0x3e8afda4	0.27146637
119	0xbba81a1d	-0.005130066
120	0x3df95093	0.121735714
121	0xbe578c79	-0.2104968
122	0xbe80cbe7	-0.25155565
123	0x3c8344b9	0.01602398
124	0x3e565b03	0.20933156
125	0x3e23fe5e	0.16015002
126	0xbe1e26c0	-0.1544447
127	0x3c584a3a	0.013201291
128	0xbc5b668a	-0.013391146
129	0x3dae37ed	0.08506761
130	0x3da694c3	0.08133843
131	0x3e7eeca1	0.24894954
132	0x3bcc18f7	0.006228562
133	0x3e1ba3d0	0.15199208
134	0xbe3e4114	-0.18579513
135	0x3d31b886	0.043388866
136	0xbdd55103	-0.104158424
137	0xbe77affd	-0.24188228
138	0x3c7d7541	0.01546985
139	0x3dbf3da3	0.09337928
140	0xbe0abfd0	-0.13549733
141	0x3e2970f1	0.1654699
142	0x3cf4ca05	0.029881487
143	0xbdd043d6	-0.10169189
144	0x3c04822f	0.008087679
145	0x3df22bf8	0.118247926
146	0xbd85a6dc	-0.065259665
147	0xbd5338cd	-0.05156784
148	0xbd1610dd	-0.036637176
149	0x3dbc30e2	0.09189011
150	0x3e5ca119	0.21545829
151	0x3e162862	0.14663842
152	0xbe479046	-0.1948863
153	0xbc49abc2	-0.012309017
154	0xbdd3cb77	-0.10341542
155	0x3e31809f	0.17334221
156	0x3d256c47	0.040386464
157	0xbdbfff1a	-0.09374829
158	0xbe6c7497	-0.2309135
159	0x3dd37672	0.10325326
160	0xbd1616fc	-0.036643013
161	0x3dffb1aa	0.124850586
162	0xbe72fa97	-0.23728405
163	0x3e39f0ab	0.18158214
164	0xbe59de2e	-0.21276161
165	0x3cfe102a	0.031013567
166	0x3e36d8f0	0.17856193
167	0x3cee70fd	0.029106611
168	0x3d5e37be	0.05425238
169	0x3e22e7be	0.15908715
170	0xbce65eab	-0.028121313
171	0xbe30b77d	-0.17257495
172	0xbd4f88aa	-0.050667442
173	0x3d9d1f3f	0.07671975
174	0x3e508193	0.20361929
175	0xbe856ef7	-0.26061222
176	0xb645437e	-2.9394573e-06
177	0x3ddbd74d	0.10734425
178	0x3d228c0b	0.039684337
179	0x3d26590d	0.04061227
180	0xbd0f1e75	-0.034941155
181	0xbdcbf150	-0.09958136
182	0xbe61a76c	-0.22036523
183	0xbd6e1ed3	-0.058134865
184	0x3e7a7b73	0.24461155
185	0x3e7c1a1d	0.24619336
186	0x3e1bb045	0.1520396
187	0xbd2dfc59	-0.042476986
188	0x3e4e95a5	0.20174272
189	0xbdab0f4c	-0.08352527
190	0xbe074ac5	-0.13212116
191	0x3e402f3a	0.18768016
192	0xbe606d92	-0.21916798
193	0x3d268f76	0.04066416
194	0xbe748046	-0.23877057
195	0x3e3048b7	0.17215239
196	0x3c9fa22e	0.019486513
197	0x3e06251c	0.13100094
198	0x3c8640f2	0.01638839
199	0xbd09275e	-0.03348481
200	0x3cc90da9	0.024542646
201	0xbe0f95dc	-0.1402201
202	0xbce689b5	-0.028141836
203	0x3d93b442	0.07212116
204	0x3e7c9ee2	0.24669984
205	0x3bec8d85	0.007219019
206	0x3d82cac6	0.06386332
207	0xbd347dda	-0.044065334
208	0xbd571898	-0.05251369
209	0xbe742012	-0.23840359
210	0x3dc71920	0.09721589
211	0x3cc8845d	0.024477178
212	0xbe3e9e35	-0.18615039
213	0xbe84d91a	-0.25946885
214	0xbd3902e8	-0.045168787
215	0x3ce9d98b	0.028546115
216	0xbe2af85c	-0.16696304
217	0x3e21f825	0.15817316
218	0xbd947eff	-0.07250785
219	0xbd5bb803	-0.053642284
220	0xbe2f3528	-0.17110121
221	0xbcc72786	-0.024310838
222	0x3e69165f	0.2276244
223	0xbe1f30e7	-0.15545999
224	0x3d97d56b	0.07413753
225	0x3d218620	0.039434552
226	0x3e5e5268	0.21711123
227	0xbc92d793	-0.01792506
228	0xbe5fa1cf	-0.21839069
229	0xbcb01077	-0.021492226
230	0xbe123ec5	-0.14281757
231	0x3dc1e9c8	0.09468418
232	0xbe21aa91	-0.15787722
233	0xbd5c5850	-0.05379516
234	0xbe204546	-0.15651426
235	0xbe350f80	-0.17681694
236	0xbe8da2f5	-0.2766339
237	0x3e4e0b9b	0.20121615
238	0x3dcb3a51	0.09923232
239	0x3e354e39	0.17705621
240	0xbc49b61d	-0.012311486
241	0xbc94c4c9	-0.01816024
242	0xbe3587fa	-0.17727652
243	0xbe6cd466	-0.23127899
244	0xbcbf4b7c	-0.023351423
245	0xbe16e7b3	-0.14736824
246	0xbe4c473b	-0.19949047
247	0x3d94532f	0.072424285
248	0x3e20a2fa	0.1568717
249	0x3d872c68	0.06600267
250	0x3e34a9ca	0.17642894
251	0x3b830001	0.003997803
252	0xbe802552	-0.25028473
253	0xbe017ce4	-0.12645298
254	0xbddd86d7	-0.10816734
255	0xbde43a19	-0.11143894

policy_fc2.bias f4 [32]
0	0xbce235cc	-0.027613543
1	0xbc3492bd	-0.011021313
2	0xbb9c1950	-0.0047637597
3	0xba84ebec	-0.0010141111
4	0x3c2d90f4	0.010593642
5	0xbbb9f865	-0.005675363
6	0xbba91947	-0.005160484
7	0xbc183b30	-0.009291455
8	0xbc948f03	-0.0181346
9	0x3c25a2c2	0.010109605
10	0x3bd9e499	0.0066495654
11	0xbc9bc43a	-0.019014467
12	0xbb8da56f	-0.0043226997
13	0x3bdb3aab	0.0066903434
14	0xb935afc4	-0.00017326983
15	0xbc1ec82e	-0.009691281
16	0xbcde0a7a	-0.027104605
17	0xbb90ad20	-0.0044151694
18	0xbc75cea7	-0.015002883
19	0x3bac823a	0.0052645477
20	0xbb5b9698	-0.003350651
21	0xbb64ad96	-0.0034893504
22	0x3c41a10b	0.011818181
23	0xbc3d212f	-0.011543556
24	0x3c22d5b9	0.009938651
25	0xbc83b02a	-0.016075213
26	0xbc02a106	-0.007972961
27	0xbafd8ab9	-0.0019343711
28	0xbbc76125	-0.0060845786
29	0x3a775fbb	0.0009436567
30	0xbcd2ffac	-0.02575668
31	0xbc3acfe8	-0.011402108

policy_fc3.weight f4 [51, 32]
0	0xbcefb470	-0.029260844
1	0x3e4e2aa4	0.20133454
2	0xbcdee313	-0.027207887
3	0xbe4bf32c	-0.19916981
4	0x3e7677c8	0.2406913
5	0x3dbf9367	0.09354287
6	0xbdd88342	-0.105719104
7	0xbe8aceee	-0.27111
8	0xbe3e7f37	-0.18603216
9	0x3e50054a	0.20314518
10	0xbe393765	-0.18087538
11	0x3e2861eb	0.16443603
12	0xbdd950e9	-0.106111355
13	0xbde18dee	-0.11013399
14	0x3e04a4f0	0.12953544
15	0x3e752259	0.23938884
16	0x3e214cfc	0.15752023
17	0x3e251fae	0.16125366
18	0x3e83c044	0.25732625
19	0xbe255a32	-0.16147688
20	0xbe25781f	-0.16159104
21	0x3e3249cb	0.17410962
22	0x3e8f050e	0.27933544
23	0x3d36527e	0.044512264
24	0xbddb7927	-0.10716467
25	0xbc06ddf7	-0.0082316315
26	0x3e15cc37	0.14628683
27	0x3e470fbc	0.19439596
28	0xbda0389b	-0.07823297
29	0x3dbc7a69	0.092030354
30	0xbdbdd20b	-0.09268578
31	0xbc3ba312	-0.011452453
32	0xbe836bba	-0.25668126
33	0xbe18fa33	-0.14939193
34	0xbc0c2f4a	-0.0085561965
35	0x3df18239	0.11792416
36	0x3c3473c0	0.011013925
37	0x39fcc81e	0.00048214284
38	0x3e3334da	0.1750063
39	0xbd10cf97	-0.035354223
40	0x3de2f4e2	0.11081864
41	0xbe564583	-0.20924954
42	0x3ca1e109	0.019760625
43	0xbde8af05	-0.11361507
44	0xbd489c75	-0.048977334
45	0xbd882e23	-0.06649425
46	0x3e759c34	0.23985368
47	0x3d577d72	0.05260987
48	0xbe7ff75c	-0.24996704
49	0x3d3e70c6	0.046494268
50	0x3e4702bb	0.19434635
51	0x3e7133a4	0.23554856
52	0x3ce46d2e	0.027884092
53	0x3e1ea742	0.15493491
54	0x3d5f5296	0.05452212
55	0xbde46c67	-0.111534886
56	0xbd173345	-0.03691413
57	0x3e806ef1	0.25084642
58	0xbe1272ee	-0.14301655
59	0xbca2cc0b	-0.019872686
60	0xbe4eda66	-0.202005
61	0x3e51072b	0.2041289
62	0xbdb32407	-0.08747106
63	0xbe52ed40	-0.20598316
64	0xbe68f70d	-0.22750492
65	0x3d44a8e9	0.048012648
66	0xbe008ded	-0.1255414
67	0xbd5f2878	-0.054481953
68	0xbe39065f	-0.18068837
69	0x3dcf9016	0.10134904
70	0xbd968ccb	-0.07351073
71	0xbc562aad	-0.013071698
72	0xbe66a740	-0.22524738
73	0x3cc30a25	0.023808548
74	0xbd1be9d1	-0.03806478
75	0x3d471bcf	0.048610505
76	0xbb2c38d7	-0.0026278996
77	0xbe050f49	-0.12994112
78	0x3aaef664	0.0013348577
79	0xbd16c880	-0.036812305
80	0x3dd6bb4a	0.10484941
81	0x3d6b77b2	0.057487197
82	0xbdb55b12	-0.08855261
83	0xbd346b93	-0.044047903
84	0x3e6c426b	0.23072211
85	0xbe7a9c9b	-0.24473803
86	0x3df8d073	0.121491335
87	0x3b72a8b0	0.0037026815
88	0x3d8f7d79	0.07006354
89	0x3e99e503	0.30057535
90	0xbd9c8af0	-0.07643688
91	0x3e7831f6	0.24237809
92	0x3e53afdc	0.20672554
93	0xbe38b004	-0.18035895
94	0x3e857526	0.2606594
95	0xbe3c3a36	-0.1838158
96	0x3e8b63a8	0.2722447
97	0xbe6a2f24	-0.22869545
98	0x3d0ab855	0.0338672
99	0x3dea56e6	0.11442356
100	0xbe068214	-0.13135558
101	0xbbd6efa5	-0.0065593296
102	0x3bbf8440	0.005844623
103	0xbd8e39df	-0.06944632
104	0xbda63ebf	-0.081174366
105	0xbd9d40ab	-0.0767835
106	0x3e645b01	0.2230034
107	0x3e9880e4	0.29785836
108	0x3e5dc0f5	0.21655639
109	0x3e41c3cc	0.18922347
110	0x3b3fe805	0.0029282582
111	0x3c4c2034	0.01245885
112	0xbd8a07f3	-0.067397974
113	0xbd8afe75	-0.06786815
114	0xbe7d9944	-0.24765497
115	0xbe8df01a	-0.27722245
116	0xbd3615d8	-0.044454426
117	0x3e264e1b	0.16240732
118	0x3d03e9dd	0.03220545
119	0x3d3f0d49	0.04664353
120	0x3e0c9238	0.13727653
121	0xbc6213df	-0.013798683
122	0xbd9f1238	-0.07767147
123	0xbb1e653f	-0.0024169234
124	0x3e803e8c	0.2504772
125	0x3e19c722	0.1501737
126	0xbcc6e861	-0.024280729
127	0x3d5e347e	0.05424928
128	0xbc4fb46a	-0.012677291
129	0xbe146e14	-0.14495116
130	0x3e7e78b9	0.2485074
131	0x3be4d5d2	0.006983497
132	0xbc1d5096	-0.009601733
133	0x3e4848da	0.1955904
134	0x3d86612c	0.06561503
135	0x3dbc3050	0.091889024
136	0x3de0801b	0.10961934
137	0xbc9a7d58	-0.018858597
138	0x3e311390	0.17292619
139	0x3e503785	0.20333679
140	0x38eea0e2	0.00011378691
141	0x3d56de1a	0.052457906
142	0x3d1f989e	0.038963906
143	0xbe274aa8	-0.16337073
144	0x3c0d7e6c	0.008636098
145	0xbe6b9e8e	-0.23009703
146	0xbd2dacbe	-0.042401068
147	0xbd90c732	-0.070692435
148	0xbe84c150	-0.25928736
149	0x3cb65d3a	0.02226125
150	0xbd4763f1	-0.048679296
151	0x3e059d86	0.13048372
152	0x3b5faf04	0.0034131417
153	0x3d1b1a03	0.037866604
154	0xbe89c623	-0.2690898
155	0x3e6623b2	0.22474554
156	0xbb8d27a9	-0.0043077064
157	0xbe21a638	-0.15786064
158	0x3e19b8d4	0.15011913
159	0x3e657559	0.22408046
160	0xbe2f7367	-0.17133866
161	0x3db069f0	0.08613956
162	0xbb6011f5	-0.003419039
163	0x3e85caef	0.2613139
164	0x3e445e63	0.1917663
165	0xbdb52e6b	-0.08846744
166	0xbe61f00e	-0.2206423
167	0x3e89ce45	0.26915184
168	0x3e25e6be	0.16201302
169	0x3d2b0451	0.041752163
170	0x398276e6	0.00024884118
171	0x3e49ad83	0.19695096
172	0xbcbb9312	-0.022897277
173	0x3e302609	0.1720201
174	0xbe395e34	-0.18102342
175	0xbe34a815	-0.17642243
176	0x3d899db3	0.06719532
177	0xbd090d9b	-0.03346024
178	0x3e1d83ca	0.15382305
179	0xbcd068fb	-0.025440684
180	0x3dda58c4	0.10661462
181	0xbe593cb4	-0.21214563
182	0xbd13efbd	-0.036117304
183	0x3e44aead	0.19207259
184	0xbe136f14	-0.14397842
185	0x3e135019	0.14386024
186	0x3e463e46	0.19359693
187	0xbdf0a878	-0.11750883
188	0xbdf51dda	-0.11968584
189	0xbe206a63	-0.15665583
190	0xbdc19397	-0.09451979
191	0xbe57a374	-0.21058446
192	0x3e6856de	0.22689387
193	0xbdee61ae	-0.11639725
194	0x3e547811	0.20748927
195	0x3d8f0790	0.06983864
196	0xbdb5ee0d	-0.08883295
197	0xbd7bb169	-0.06144849
198	0x3e501df6	0.20323929
199	0xbe39bd2e	-0.18138573
200	0xbc3d24a8	-0.011544384
201	0x3ce546fe	0.027987953
202	0xbe13efdf	-0.14446972
203	0xbe10e059	-0.14148082
204	0xbae2aa40	-0.001729317
205	0xba761856	-0.00093877816
206	0xbe76dbbf	-0.24107264
207	0xbe67bf4a	-0.22631565
208	0xbe3e691e	-0.18594787
209	0x3de7fd23	0.11327579
210	0xbe2fad92	-0.17156056
211	0x3e26c5d3	0.16286401
212	0x3c64cdb9	0.013965064
213	0xbe757450	-0.23970151
214	0xbe0c64a8	-0.13710272
215	0xbe51dc1b	-0.2049412
216	0xbddd9018	-0.10818499
217	0xbe471d05	-0.19444664
218	0x3df42e4c	0.11922893
219	0x3e2b0d07	0.16704188
220	0xbe618d5e	-0.22026584
221	0xbe8e8003	-0.2783204
222	0x3e39b8fc	0.18136972
223	0x3e544cee	0.20732471
224	0xbd33ae40	-0.04386735
225	0x3e56e9f2	0.2098768
226	0x3dc7908e	0.097443685
227	0xbe3598e7	-0.17734109
228	0x3e637091	0.2221091
229	0x3e83ee18	0.2576759
230	0xbd97bd0f	-0.07409107
231	0xbd5f4efd	-0.05451869
232	0x3e824173	0.2544056
233	0xbe9564da	-0.29178506
234	0xbd8c4955	-0.068499245
235	0xbe27ff08	-0.1640588
236	0xbd90c695	-0.070691265
237	0xbe29f29e	-0.16596457
238	0x3e7ba45d	0.24574418
239	0xbd57fa9c	-0.052729234
240	0xbe3713c7	-0.17878638
241	0x3e0a4a42	0.1350489
242	0xbe279186	-0.16364107
243	0x3df2a9ed	0.11848817
244	0xbe6cf880	-0.2314167
245	0x3de47389	0.11154849
246	0xbd973b8e	-0.07384406
247	0xbe2338d2	-0.15939644
248	0x3de0fc05	0.10985569
249	0x3d1adee6	0.03781023
250	0xbd33d8f1	-0.043908063
251	0xbd480289	-0.048830543
252	0xbe4a0a85	-0.19730575
253	0xbb2f0975	-0.0026708518
254	0x3d3e0e91	0.04640061
255	0xbe738a60	-0.23783255

policy_fc3.bias f4 [51]
0	0xbd2edf84	-0.04269363
1	0x3d163258	0.036669105
2	0x3c471355	0.012150605
3	0x3d83d432	0.064369574
4	0xbc499f8d	-0.012306106
5	0x3c8c6ae3	0.017140811
6	0x3bd55ac6	0.006511065
7	0xbce2477d	-0.027621979
8	0xbca49d71	-0.020094605
9	0x3cb7ecf7	0.02245186
10	0x3c8ea915	0.017414609
11	0x3c05d66a	0.008168796
12	0x3c99e799	0.018787192
13	0x3d225daa	0.039640106
14	0xbd369d0b	-0.04458336
15	0xbcf77d10	-0.030211002
16	0x3d5809a7	0.05274358
17	0xbd1ed0d8	-0.038773388
18	0x3c6d6035	0.01448827
19	0xbc2a463d	-0.010392723
20	0xbaa98539	-0.001293338
21	0xbc9894f0	-0.018625706
22	0x3be90032	0.007110619
23	0x3d29bce6	0.041439913
24	0xbacbd69c	-0.001555163
25	0x3c327f59	0.01089462
26	0xbb808372	-0.0039219195
27	0x3c39ab8b	0.011332403
28	0x3c4d1663	0.012517544
29	0xbc8ca802	-0.017169956
30	0x3c389520	0.011266023
31	0xbaeb279b	-0.001794088
32	0xbc3fa575	-0.011697163
33	0xbca3ce21	-0.01999575
34	0xbd948fa9	-0.072539635
35	0xbccaf047	-0.024772776
36	0xbc95431e	-0.01822048
37	0x3d2670be	0.040634863
38	0xbc3804ab	-0.011231582
39	0xbc1249b2	-0.008928703
40	0x3cee36b3	0.029078817
41	0x3c6ef2cc	0.0145842545
42	0x3c2bf9f8	0.010496609
43	0x3c53ef86	0.012935525
44	0xbb26c1d5	-0.0025445123
45	0xbb982020	-0.0046425015
46	0x3c953ef3	0.018218493
47	0xbd76048b	-0.060062926
48	0x3c8b3437	0.016992671
49	0xbc1dde7d	-0.009635565
50	0xba359908	-0.00069274055

value_fc1.weight f4 [64, 261]
0	0x3c83aeaa	0.016074497
1	0xbdd47e7e	-0.10375689
2	0xbe07080b	-0.13186662
3	0x3daa746c	0.08322987
4	0xbdf45308	-0.119298995
5	0x3d93638b	0.07196721
6	0xbe066424	-0.13124138
7	0x3dca06ca	0.09864576
8	0x3d9c326f	0.07626807
9	0xbdfbc442	-0.122932926
10	0x3dbab9cd	0.0911747
11	0x3dac3177	0.08407872
12	0xbde545fd	-0.1119499
13	0x3d8b6df5	0.06808082
14	0x3a2a0f5e	0.0006487275
15	0xbd1476af	-0.036245998
16	0xbdaa1ab7	-0.08305877
17	0xbd94955b	-0.0725505
18	0x3d327563	0.04356898
19	0x3d5905a0	0.05298388
20	0x3d363db8	0.044492453
21	0x3c3ee37b	0.011650915
22	0xbe0dc89f	-0.13846062
23	0xbdb818e7	-0.08989125
24	0x3e03e330	0.12879634
25	0xbc8966be	-0.016772624
26	0x3df588be	0.11988972
27	0x3da22101	0.07916451
28	0x3e02fd9b	0.12792055
29	0xbc44947c	-0.011998292
30	0xbd6283a4	-0.055301324
31	0x3c801073	0.015632844
32	0x3d3b366f	0.04570621
33	0xbd6bdc16	-0.057582937
34	0x3ded77cf	0.11595117
35	0xbd9cb63a	-0.076519445
36	0x3de1fb85	0.11034302
37	0x3d856051	0.065125115
38	0x3d67491f	0.056466218
39	0x3cd24ccb	0.025671383
40	0x3e067407	0.13130198
41	0x3ca8cae1	0.020604553
42	0x3da363f3	0.07978048
43	0x3e2cc073	0.16870289
44	0xbd7064a1	-0.058689717
45	0xbdb5cb97	-0.08876722
46	0xbc4eb555	-0.012616475
47	0xbbfc9f17	-0.0077093947
48	0xbcecc992	-0.02890471
49	0x3da1703a	0.07882734
50	0xbc0e9b0c	-0.008703958
51	0x3d8ce046	0.06878714
52	0x3e6cb96a	0.23117605
53	0xbd9d97d5	-0.07694975
54	0x3de5cb38	0.112204015
55	0x3dd6ccac	0.10488257
56	0xbc0561bc	-0.0081409775
57	0x3d71adb0	0.059003532
58	0x3d2c02cd	0.04199486
59	0x3d703493	0.05864389
60	0xbc9dc9a6	-0.019261193
61	0xbd17d407	-0.03706744
62	0x3c8b3bf0	0.016996354
63	0x3bb9d0e0	0.005670652
64	0x3d669f1c	0.056304082
65	0x3cbdffe3	0.023193305
66	0xbe0c7604	-0.13716894
67	0x3e264844	0.16238505
68	0x3e89f976	0.26948136
69	0xbe07f48c	-0.13276881
70	0xbd202c52	-0.039104767
71	0x3ccf90e6	0.025337648
72	0x3c146363	0.009056899
73	0x3cb6f61b	0.02233415
74	0x3c29bbac	0.010359686
75	0x3ca43069	0.020042615
76	0x3dbc9953	0.09208932
77	0xbd7293e5	-0.059223074
78	0x3e0fc784	0.14040953
79	0x3e0aded5	0.13561566
80	0xbd147797	-0.036246862
81	0x3d02d9b8	0.031945914
82	0x3db36600	0.08759689
83	0x3dbfa4bd	0.09357593
84	0xbe2213a0	-0.15827799
85	0xbd11c5de	-0.03558909
86	0xbe100eb3	-0.14068107
87	0xbdd43b0e	-0.10362826
88	0xbe03a6db	-0.12856619
89	0xbce8141a	-0.028329898
90	0x3e01a956	0.12662253
91	0x3c127881	0.008939863
92	0xbd842f1d	-0.06454299
93	0xbdac54df	-0.084146254
94	0x3d46de76	0.048552
95	0xbd4953db	-0.049152236
96	0xbe425fc8	-0.1898185
97	0xbe0342bb	-0.12818424
98	0xbd7b5837	-0.061363425
99	0xbd14fb15	-0.036372263
100	0xbe76b292	-0.24091557
101	0x3d844d00	0.06459999
102	0x3d44618d	0.047944594
103	0x3be5b505	0.0070101046
104	0x3d07e511	0.03317744
105	0xbde32018	-0.11090106
106	0xbbdb56af	-0.006693683
107	0xbc8d0f31	-0.017219158
108	0xbe259ccd	-0.16173096
109	0xbddf3f1c	-0.10900709
110	0xbd7691a1	-0.060197476
111	0xbd9b9c55	-0.07598177
112	0xbe066ef3	-0.13128261
113	0x3d84214f	0.064516656
114	0x3e1d4cdb	0.1536135
115	0xbcb12d7f	-0.02162814
116	0x3d4a03cf	0.04932004
117	0x3df65849	0.12028558
118	0x3c88a513	0.016680276
119	0xbd060f6d	-0.032729555
120	0xbdca2260	-0.09869838
121	0x3c73f7e0	0.014890641
122	0xbd293a51	-0.04131538
123	0xbdeb81bc	-0.11499354
124	0xbd3b0cc7	-0.045666482
125	0xbdce7a76	-0.10081951
126	0x3de93ad3	0.11388173
127	0xbca55293	-0.020180976
128	0xbc9ac4a4	-0.018892594
129	0x3d3feb0d	0.04685502
130	0x3d3d8041	0.04626489
131	0x3e4469ea	0.19181028
132	0xbe284c67	-0.16435395
133	0xbb8b1b72	-0.004245215
134	0x3b9d391a	0.004798067
135	0x3cb3c576	0.021944743
136	0xbe8106b8	-0.25200438
137	0xbd72672c	-0.059180424
138	0xbdb8c667	-0.09022217
139	0x3dde0641	0.108410366
140	0xbe075498	-0.13215864
141	0x3bd58483	0.006516041
142	0xbd41f8d9	-0.04735646
143	0xbc9c2688	-0.019061342
144	0xbce050ac	-0.027382217
145	0x3ddd0b56	0.10793178
146	0xba28346c	-0.0006416503
147	0xbdbb75f6	-0.09153359
148	0x3d160904	0.03662969
149	0x3d27666d	0.040869165
150	0xbd9ae8fc	-0.075639695
151	0x3d81e657	0.06342762
152	0xbe097687	-0.13424121
153	0x3dc92b7c	0.09822747
154	0xbd6e0671	-0.05811161
155	0x3cddbd4b	0.027067801
156	0xbc968545	-0.018374095
157	0xbd95bcc2	-0.07311393
158	0xbe126fcb	-0.14300458
159	0x3d111776	0.035422765
160	0x3dbcff88	0.09228426
161	0xbdd91dcf	-0.10601389
162	0xbdd680a0	-0.10473752
163	0xba76742a	-0.0009401465
164	0xbdb19245	-0.08670477
165	0xbd985bac	-0.0743936
166	0xbdaf3378	-0.08554739
167	0x3c71da55	0.014761527
168	0xbdec8480	-0.1154871
169	0xbd21aa75	-0.0394692
170	0xbe1f4158	-0.1555227
171	0xbdbb42fc	-0.09143636
172	0x3de5bd96	0.11217801
173	0x3dd0ee30	0.10201681
174	0x3d7d7d7b	0.061887246
175	0xbdf19083	-0.117951415
176	0xbdffd146	-0.124910876
177	0x3da0e7fe	0.07856749
178	0xbcc2fbc0	-0.023801684
179	0x3d93b9b3	0.07213154
180	0x3a909a3d	0.0011032295
181	0xbdec9f59	-0.11553831
182	0x3d3408a8	0.043953568
183	0xbdfc046f	-0.12305533
184	0x3e011757	0.1260656
185	0x3d806e58	0.062710464
186	0x3d50d03a	0.05097983
187	0x3e03d91c	0.1287579
188	0x3ca5c25d	0.020234281
189	0xbde488ce	-0.11158906
190	0x3bb6abe1	0.005574689
191	0xbd24f16d	-0.040269304
192	0xbd786b45	-0.060649175
193	0xbda8a785	-0.08235077
194	0xbdb357b0	-0.087569594
195	0x3d7c44a1	0.061588887
196	0x3dc80202	0.09766008
197	0x3d8db856	0.06919925
198	0xbdd056aa	-0.1017278
199	0xbd74103e	-0.059585802
200	0xbdc913cb	-0.09818228
201	0x3cc69ecd	0.024245644
202	0xbc1c5c0b	-0.009543429
203	0xbe22807c	-0.15869325
204	0x3d9ccf38	0.07656711
205	0x3c98bea3	0.01864559
206	0xbdc7093c	-0.09718558
207	0x3dd161f0	0.10223758
208	0xbe2344ba	-0.15944186
209	0x3b75bb23	0.0037495575
210	0x3df7e091	0.121033795
211	0x3d4137fe	0.04717254
212	0xbd8317cf	-0.064010255
213	0xbda44c00	-0.08022308
214	0xbdc5258b	-0.096263014
215	0x3d136c16	0.03599175
216	0x3d66ed72	0.05637879
217	0xbb5dc431	-0.0033838863
218	0x3a5e2919	0.0008474752
219	0xbd0889aa	-0.03333441
220	0xbce9c862	-0.028537933
221	0x3d598ded	0.053113867
222	0x3dc1843b	0.09449049
223	0x3d9dc890	0.0770427
224	0xbd0ec8bd	-0.034859408
225	0xbcacd2f8	-0.021096691
226	0x3dc63a37	0.09679072
227	0xbd260e72	-0.04054112
228	0xbdef24e6	-0.1167696
229	0x3cb3028c	0.0218518
230	0xbc99cf91	-0.018775733
231	0x3dab3f5f	0.083616965
232	0x3cbec33a	0.02328645
233	0x3d9493b4	0.07254735
234	0x3dc580a8	0.0964368
235	0x3d990de5	0.07473353
236	0xbdaeedd5	-0.085414566
237	0xbddbd099	-0.10733146
238	0x3e08efb2	0.13372687
239	0xbdc2c095	-0.09509388
240	0x3c31d464	0.0108538605
241	0xbd1810b8	-0.03712532
242	0xbd5af1e2	-0.053453334
243	0x3d9307c4	0.071792156
244	0x3d23d81b	0.040001016
245	0xbcea1d17	-0.028578324
246	0xbd89e416	-0.06732957
247	0x3cd017b2	0.025401924
248	0x3c8b7f3f	0.01702845
249	0xbd4b2855	-0.04959901
250	0xbd62b4c3	-0.05534817
251	0xbe10cf5e	-0.14141604
252	0x3dfcd795	0.123458065
253	0x3d048b34	0.032359317
254	0x3db67668	0.08909303
255	0xbdf30725	-0.11866597

value_fc1.bias f4 [64]
0	0x3b42cb23	0.002972313
1	0x3c50ef31	0.01275234
2	0xbc5f76ef	-0.013639196
3	0x3ccfe5db	0.025378158
4	0xba2badd5	-0.00065490353
5	0x3c7452f2	0.014912354
6	0xbcb85b47	-0.022504462
7	0xbac2b619	-0.0014855295
8	0xbbeeaffd	-0.007284163
9	0x3cae9a24	0.021313734
10	0x3cc95144	0.024574883
11	0xbc907d5f	-0.017637907
12	0x3af84470	0.0018941294
13	0xbc3729a9	-0.011179366
14	0x3c54a66e	0.012979133
15	0x3bcbfbba	0.0062250765
16	0xbbcebee5	-0.0063093775
17	0x3cbb01ad	0.022827948
18	0xbc037a14	-0.008024711
19	0x3aa187ca	0.0012323793
20	0x3c18697d	0.009302494
21	0xbc18a340	-0.009316266
22	0xbaf0a058	-0.0018358333
23	0xbbb5ddcb	-0.0055501214
24	0xbcab4335	-0.02090607
25	0x3c46a726	0.012124812
26	0xbc057553	-0.008145648
27	0xbc068cce	-0.008212281
28	0x3c0d6fb5	0.00863259
29	0x3acd5438	0.0015665358
30	0xbca47fa4	-0.020080395
31	0xbc6b825c	-0.014374342
32	0x3b17793b	0.002311303
33	0x3ba3c89b	0.0049982793
34	0x3c524429	0.012833633
35	0x3b7bda2b	0.0038429599
36	0x3cc973bb	0.024591317
37	0x3c2cf3f2	0.010556208
38	0x3c024d0b	0.007952939
39	0xbc407612	-0.0117469
40	0xbaa6fcb1	-0.0012740103
41	0xbc80ef1f	-0.015739022
42	0x3cbb7132	0.022881124
43	0xbb8ba3c5	-0.004261466
44	0x3c0d39ea	0.008619765
45	0x3ba4d4dc	0.0050302576
46	0x3cc16de4	0.02361197
47	0xbc3036f9	-0.010755294
48	0xbba0585a	-0.004893345
49	0x3c02713a	0.007961566
50	0xbccb7e40	-0.024840474
51	0xbcecbd44	-0.028898843
52	0xbc2dc026	-0.010604894
53	0x3c4f1557	0.012639365
54	0xbc33d10f	-0.010975136
55	0x3c52e41f	0.012871771
56	0x3c8080b4	0.01568637
57	0x3c882022	0.016616885
58	0x3bb78d09	0.0056015295
59	0x3ca786cd	0.02045002
60	0xbc52553c	-0.012837704
61	0xbd43f103	-0.04783727
62	0x3a1f0c93	0.00060672424
63	0x3c9aa544	0.018877633

value_fc2.weight f4 [32, 64]
0	0xbe3effd5	-0.1865228
1	0x3d26ee42	0.040754564
2	0x3df1ca3d	0.11806152
3	0xbd9711ff	-0.07376479
4	0x3e13fc7d	0.14451785
5	0xbd41355c	-0.047170028
6	0xbe5b4437	-0.2141274
7	0xbd7dc26e	-0.061953
8	0xbe694241	-0.2277918
9	0x3dd99998	0.10624999
10	0xbd1450e5	-0.03620996
11	0xbe6d1e72	-0.23156145
12	0x3e782abe	0.24235055
13	0xbdcf5c07	-0.10124975
14	0x3d0179ee	0.03161042
15	0x3e12ac97	0.1432365
16	0xbda68c8f	-0.08132278
17	0xbccd3331	-0.025048824
18	0xbe70b96f	-0.23508237
19	0xbe0c4574	-0.1369837
20	0x3dab4646	0.08363013
21	0xbdddcfdf	-0.10830664
22	0xbc30ec7d	-0.010798571
23	0xbe3a9976	-0.18222603
24	0x3ddd92ce	0.108190164
25	0x3e8e669f	0.2781267
26	0xbe4d141c	-0.20027202
27	0xbe1f9448	-0.15583909
28	0x3dfceafc	0.12349507
29	0xbe3481f4	-0.17627698
30	0x3da0c13a	0.07849355
31	0x3e59c6fe	0.21267316
32	0xbe08a728	-0.13345015
33	0x3e5fdf69	0.21862568
34	0xbd882d64	-0.066492826
35	0xbe0457be	-0.12924096
36	0x3e338abe	0.17533395
37	0xbe14d8b4	-0.1453579
38	0xbe847adb	-0.2587498
39	0xbe330f8b	-0.17486398
40	0x3da978af	0.08274972
41	0xbe6cd630	-0.23128581
42	0x3e4542a5	0.19263704
43	0xbe646508	-0.22304165
44	0xbda5e173	-0.08099642
45	0xbdcd5d5f	-0.10027575
46	0x3d34dcfb	0.044156056
47	0x3d19f36f	0.037585672
48	0x3cba226a	0.022721488
49	0xbea5968d	-0.32341424
50	0xbd857d1f	-0.065180056
51	0x3d0794b7	0.03310081
52	0xbca64597	-0.020296855
53	0xbd7061cf	-0.058687028
54	0x3e1deed8	0.15423143
55	0xbcbc8b32	-0.023015592
56	0xbd8c7c37	-0.068596296
57	0xbe8f3f27	-0.2797787
58	0xbe755580	-0.23958397
59	0x3e85eb19	0.26155928
60	0xbe58b6f3	-0.2116354
61	0x3e69a5a4	0.22817093
62	0xbe28085b	-0.16409437
63	0x3e8029d0	0.250319
64	0xbced5a58	-0.028973743
65	0xbe170515	-0.14748032
66	0xbcd2a38b	-0.025712749
67	0xbe1eb1d8	-0.1549753
68	0x3daf06c0	0.08546209
69	0x3d7997d7	0.06093582
70	0x3e58b588	0.21162999
71	0x3d337d54	0.043820694
72	0xbdc4a01b	-0.0960085
73	0xbea92cc6	-0.33041972
74	0x3e2fd1b7	0.17169844
75	0x3d7b916c	0.061417982
76	0xbd473f83	-0.048644554
77	0xbdbe17ae	-0.0928186
78	0xbe2c342f	-0.16816781
79	0xbd99de93	-0.07513156
80	0x3dedee64	0.11617735
81	0x3da50283	0.0805712
82	0x3e51752f	0.20454858
83	0xbe6ab128	-0.22919142
84	0x3c8e6225	0.017380783
85	0x3dcd3edf	0.10021757
86	0x3c0d6bbe	0.008631645
87	0x3d64faee	0.055903368
88	0xbe8eda8e	-0.2790112
89	0xbe17c26f	-0.14820264
90	0xbe74403c	-0.23852628
91	0xbe8a5a71	-0.27022126
92	0xbe4f7046	-0.20257673
93	0xbde5d28e	-0.11221801
94	0x3e48f038	0.19622886
95	0x3de63359	0.112402625
96	0xbe36991a	-0.17831841
97	0x3d840a6d	0.06447301
98	0x3dd24061	0.102661856
99	0xbe0f2dac	-0.13982266
100	0xbd0c7256	-0.034288727
101	0xbe3c220f	-0.18372367
102	0xbccc0bb6	-0.024907928
103	0xbe610742	-0.21975425
104	0xbdbb6392	-0.09149851
105	0xbe173e49	-0.14769854
106	0x3de7eb9c	0.11324236
107	0xbe46458b	-0.19362466
108	0x3e446530	0.19179225
109	0xbdad657c	-0.08466622
110	0xbe0ad833	-0.13559036
111	0x3ded5dbd	0.11590145
112	0x3e22d97c	0.15903276
113	0xbd91cb81	-0.071188934
114	0x3e4bc380	0.19898796
115	0x3d76bbe7	0.06023779
116	0xbd0a7d97	-0.033811178
117	0x3db53f4b	0.08849963
118	0x3e1df3a9	0.1542498
119	0x3dc5b36e	0.09653364
120	0x3dd2755b	0.1027629
121	0xbcd154ca	-0.025553126
122	0x3e0be9f0	0.13663459
123	0xbda862ad	-0.08221946
124	0x3af798b4	0.0018890114
125	0xbd8edb4a	-0.0697542
126	0xbe7b4782	-0.24538997
127	0xbe59b34b	-0.21259801
128	0xbd90c3ac	-0.070685714
129	0x3e59b637	0.21260916
130	0x3d91faa8	0.07127887
131	0xbe0c7989	-0.13718237
132	0x3e83be57	0.25731155
133	0xbe4d5072	-0.20050219
134	0xbe15c5e9	-0.14626278
135	0xbd78f471	-0.060779992
136	0x3ceaaa0e	0.028645542
137	0x3e5ad290	0.21369386
138	0x3e613d6c	0.21996087
139	0x3e78c720	0.2429471
140	0xbe0b50de	-0.13605067
141	0xbd67b724	-0.05657114
142	0xbd24a4e7	-0.040196326
143	0xbd043137	-0.032273497
144	0x3d5a5799	0.053306196
145	0xbe205266	-0.15656433
146	0xbd8c8e4c	-0.068630785
147	0xbe2e9c77	-0.17051874
148	0xbda0690a	-0.078325346
149	0xbe6ddb80	-0.23228264
150	0xbe3720f4	-0.17883664
151	0x3b11754c	0.0022195159
152	0x3e8a7c3c	0.27047908
153	0xbd0da276	-0.034578763
154	0x3e3ec024	0.18627983
155	0x3e5bbb4d	0.21458168
156	0x3c6875d9	0.014188253
157	0xbd2bb037	-0.0419161
158	0xbe32c779	-0.17458905
159	0x3e1b58eb	0.15170638
160	0x3d7e3b64	0.062068358
161	0xbea7766b	-0.32707533
162	0xbe37831a	-0.17921105
163	0xbda6f4ba	-0.08152147
164	0xbddd589a	-0.10807915
165	0xbe8ccd8b	-0.27500567
166	0xbb42cb5b	-0.002972326
167	0xbda17b97	-0.07884901
168	0x3e62c26e	0.22144482
169	0xbcde0352	-0.027101193
170	0xbe2b849f	-0.1674981
171	0xbd595b45	-0.053065557
172	0x3dc45ebc	0.09588382
173	0xbe033caf	-0.12816118
174	0x3d2c19fc	0.042016968
175	0x3d4e1eb8	0.050322264
176	0xbe4e0436	-0.20118794
177	0xbe108bf6	-0.14115891
178	0xbdca9549	-0.09891755
179	0x3d884f8a	0.06655796
180	0xbb28ba29	-0.0025745726
181	0x3e4d8dc7	0.20073615
182	0x3e28170a	0.16415039
183	0xbd9e2518	-0.07721919
184	0xbe053c57	-0.13011299
185	0xbe82c182	-0.2553826
186	0xbb413be6	-0.0029485165
187	0x3d078761	0.03308809
188	0x3e27c670	0.16384292
189	0xbdf5f2a6	-0.12009172
190	0xbe0132cd	-0.12617035
191	0xbe6414f9	-0.22273625
192	0xbdfafb3e	-0.12254952
193	0x3e3aa690	0.18227601
194	0x3c2c5190	0.010517493
195	0x3d8aec53	0.067833565
196	0xbb087fd9	-0.0020828156
197	0x3e15584d	0.14584465
198	0x3d42f62f	0.04759806
199	0xbd898831	-0.067154296
200	0x3dba950a	0.09110458
201	0x3e4de8a5	0.20108278
202	0x3ca52881	0.020160915
203	0x3e01104c	0.12603873
204	0x3d53332c	0.051562473
205	0x3dd44a3f	0.10365724
206	0x3cee9bac	0.029126965
207	0x3dc6b9da	0.09703417
208	0xbe357710	-0.177212
209	0xbe4b972d	-0.19881888
210	0xbdb37b1a	-0.08763714
211	0xbe71324f	-0.23554347
212	0x3e401088	0.18756306
213	0xbe76e32f	-0.24110101
214	0x3e5700c2	0.20996383
215	0x3e384fc1	0.17999174
216	0xbe24c811	-0.16091944
217	0x3e5df848	0.21676743
218	0xbdeede16	-0.11663453
219	0x3deb675b	0.11494323
220	0xbd11f599	-0.03563461
221	0x3d2c5941	0.042077307
222	0xbe350809	-0.17678846
223	0x3c55e318	0.013054632
224	0xbb62102c	-0.0034494502
225	0xbe4441e5	-0.19165762
226	0x3d1e4cf9	0.038647626
227	0x3d9e2cd4	0.07723394
228	0x3e5e9e1e	0.21740004
229	0x3d94a5e6	0.07258205
230	0xbc17c717	-0.009263775
231	0xbdfa5086	-0.1222239
232	0x3de58d6b	0.11208614
233	0x3b0bccd1	0.0021331797
234	0xbe34c4b5	-0.17653163
235	0xbd0e0ecf	-0.03468209
236	0x3dfa2504	0.122140914
237	0x3e441053	0.19146852
238	0xbe5df764	-0.21676403
239	0xbd4cc492	-0.04999215
240	0x3df7c407	0.12097936
241	0x3e3a9ea7	0.18224584
242	0x3d38a03d	0.04507469
243	0x3d98cf87	0.07461458
244	0xbdf1f4e3	-0.118142866
245	0x3e113e51	0.14183928
246	0xbd9000b5	-0.07031385
247	0xbe0be5da	-0.136619
248	0x3dfb795c	0.12279007
249	0xbe4778a9	-0.19479622
250	0x3e208e48	0.15679276
251	0x3e5a5116	0.21319994
252	0xbd927a42	-0.07152225
253	0x3cdf1c2b	0.027235111
254	0xbe33e45b	-0.1756758
255	0x3e460f31	0.19341733

value_fc2.bias f4 [32]
0	0x3bbcc94d	0.0057613016
1	0xbcb8a499	-0.022539424
2	0xbd1d407e	-0.038391583
3	0x3c7f4860	0.01558122
4	0x3d1521db	0.03640924
5	0x3d03caab	0.0321757
6	0x3c04e34c	0.008110832
7	0x3c2010c4	0.009769622
8	0xbce1c3a5	-0.02755911
9	0xbc25aa08	-0.010111339
10	0xbd55661b	-0.05209933
11	0x3bc444d2	0.0059896493
12	0x3caa8564	0.020815559
13	0x3cb445d4	0.022005953
14	0x3be6ac99	0.007039618
15	0x3ce330c1	0.027733209
16	0xbc8ff24f	-0.017571596
17	0xbc2e9d7d	-0.010657665
18	0xbc4d205d	-0.012519923
19	0x3d3e2b03	0.046427738
20	0xbbdd0809	-0.0067453426
21	0xbd16989d	-0.036766637
22	0xbc82f347	-0.015985144
23	0xbc999e95	-0.018752376
24	0xbc2c4cf8	-0.010516398
25	0x3c8abeb1	0.016936632
26	0x3c09e5e6	0.008416628
27	0x3d01eaa5	0.031717915
28	0x3ccd874f	0.025088934
29	0x3d17fb6e	0.037105016
30	0xbc25e7ba	-0.010126049
31	0x3cc6409d	0.024200732

value_fc3.weight f4 [1, 32]
0	0xbe4035e3	-0.18770556
1	0x3e0ae162	0.13562539
2	0x3dab088d	0.0835124
3	0x3e6ce2c9	0.23133387
4	0x3db772ff	0.08957481
5	0x3ea17fdb	0.31542858
6	0x3f287884	0.6580889
7	0x3ebdadca	0.37046653
8	0xbe00b39d	-0.12568517
9	0x3dd33aa5	0.1031392
10	0x3d3f3a8a	0.046686687
11	0x3ea23962	0.31684405
12	0x3f049e9f	0.51804537
13	0xbd3acbe5	-0.045604605
14	0x3e193446	0.14961347
15	0x3f08a754	0.5338032
16	0xbdc76315	-0.09735695
17	0xbe9a7568	-0.301677
18	0xbeabab5f	-0.33529183
19	0xbd4be9ac	-0.049783394
20	0xbe952333	-0.29128417
21	0x3e917ccf	0.28415534
22	0xbe1f5753	-0.15560655
23	0x3e3d2703	0.18471913
24	0x3ca3b47b	0.01998352
25	0x3e61fd27	0.22069226
26	0x3e77a874	0.24185354
27	0xbd18ba63	-0.037287127
28	0x3c93e3e3	0.018053
29	0x3df6108b	0.12014874
30	0xbe7cad1a	-0.24675408
31	0x3e9534a6	0.2914173
