rl/spin_model_11261558/171.pt (torch_old, 159601 bytes, 12 tensors)

log_std f4 [51]
-0.5890935 -0.18726443 -0.6647431 -0.14005946 -0.20770924 -0.31040442 -0.14772329 0.08390604
-0.03835695 -0.13745266 -0.15242618 -0.18472426 0.02856559 0.08422296 0.0020396314 -0.028598867
0.10099814 -0.040618747 -0.058794335 -0.12223781 -0.1009568 -0.096797 -0.029669564 -0.014837689
0.015628954 -0.04380462 -0.15002348 0.19942026 0.05348881 -0.16536358 -0.16373838 0.03105465
-0.15345956 -0.1916864 0.012424481 -0.09929143 -0.09695262 -0.10233749 0.1882835 -0.1363758
-0.24091478 -0.063644506 -0.11215255 -0.27496874 -0.05926891 -0.09515671 -0.2086245 -0.03360515
-0.17986819 -0.03508667 -0.029552883
00000000: d5ce 16bf 3fc2 3fbe 9b2c 2abf bf6b 0fbe
00000010: bbb1 54be 54ed 9ebe c644 17be eed6 ab3d
00000020: 2d1c 1dbd 64c0 0cbe 9c15 1cbe 5b28 3dbe
00000030: 6202 ea3c 167d ac3d 56ab 053b 2c48 eabc
00000040: 1dd8 ce3d d85f 26bd 54d2 70bd d157 fabd
00000050: 70c2 cebd 813d c6bd 960d f3bc c719 73bc
00000060: 4b08 803c 796c 33bd c19f 19be d334 4c3e
00000070: 1517 5b3d 1255 29be 09ab 27be 5266 fe3c
00000080: 8124 1dbe 7149 44be 0d90 4b3c 4e59 cbbd
00000090: 188f c6bd 5196 d1bd 64cd 403e 19a6 0bbe
000000a0: 5db2 76be 0d58 82bd 3cb0 e5bd b4c8 8cbe
000000b0: f5c3 72bd 85e1 c2bd a9a1 55be 8ea5 09bd
000000c0: 5e2f 38be 0ab7 0fbd e318 f2bc

policy_fc1.weight f4 [64, 261]
0.14589357 -0.13577463 0.031174943 0.13115399 0.025040625 0.043621767 -0.13866922 0.11591504
0.0687867 0.0006901914 0.24104558 0.098287515 -0.20304944 0.26760122 -0.11916385 -0.0434924
0.05855489 0.035145592 -0.09720553 0.0037094026 0.03616422 0.085658066 0.06848875 0.12518826
-0.0948136 -0.060886204 0.09987012 0.13730109 -0.019964792 0.11661008 -0.007504016 0.079443075
0.1130843 -0.014559297 -0.05859292 0.077190675 -0.10240591 -0.022559723 0.08039355 0.022522762
0.2467912 0.0033800884 -0.008853802 0.18689215 0.081702694 0.01172717 0.28152314 0.03884717
0.03871408 0.008867708 -0.074037716 -0.055658624 0.005843947 0.06539879 -0.023750326 -0.10793114
0.10239162 -0.027141426 -0.15157226 0.21550275 0.17415176 0.016216371 -0.10683445 0.105519325
0.057397753 -0.09365781 -0.22860965 0.01035201 -0.05289114 -0.018743522 -0.040135965 0.0012960943
0.19719051 0.06195479 0.02171326 -0.022298194 0.124699645 0.05676563 -0.005709549 -0.0020036376
-0.076328844 0.02433342 -0.05286496 -0.026962675 -0.046358187 -0.070406854 0.032948866 -0.033173297
-0.045851655 -0.011812462 -0.22058252 -0.14186679 0.08357467 0.047532804 -0.22329867 0.0028869193
0.20188282 0.07878555 -0.200095 -0.2224798 0.022802666 -0.05008108 -0.11058355 -0.29773858
-0.030283703 0.07432441 -0.24182265 -0.2561617 0.061845 -0.010011602 -0.030870594 -0.13479823
-0.09956648 0.018310793 0.08419171 -0.26343954 -0.16338386 0.086977884 0.084813744 -0.10876386
0.11238349 0.09084966 0.14373752 -0.04230023 0.027415562 0.12089417 0.029161027 -0.16211298
0.09392573 -0.10103764 -0.00029896502 -0.17969152 0.02963561 0.06868549 -0.15877423 -0.14488608
-0.08576022 0.009688903 0.06325564 -0.024917528 0.00578773 -0.05193733 -0.07153396 0.077630796
-0.06699154 0.14466971 0.044928644 -0.08094963 -0.05499682 0.08998202 -0.058235627 -0.10361996
-0.004776881 -0.0371575 -0.12747553 0.16817969 -0.04100291 -0.08051622 0.0711649 0.056263752
-0.020541653 -0.15248474 -0.019124826 -0.10755327 0.07041998 -0.058734924 -0.15395817 -0.03697896
0.021547206 -0.09697068 0.010693305 0.13929892 0.020985382 0.23607661 0.13435528 0.118478805
0.07947554 -0.006107198 0.1405449 0.22377403 0.20435075 0.051058635 0.092788175 0.07673481
-0.055226035 0.18238379 0.15479764 -0.098857135 0.20469722 0.14851242 -0.12217717 0.26253822
0.09785664 0.158654 0.22595143 -0.10692526 0.1697968 0.1825726 0.06318079 0.17224348
0.13950872 0.21591952 0.24481781 -0.23417099 -0.1736006 -0.20412485 0.100935616 -0.017458454
-0.09348509 0.15607867 0.064066805 -0.29165265 -0.1727145 -0.0071106954 -0.1498173 -0.13226464
0.18000719 0.035008963 -0.10568734 0.042610355 0.24278115 -0.039044484 -0.19002217 0.2171544
-0.045856155 -0.15562978 0.047966357 -0.16470765 0.12186937 0.007589016 -0.0061748717 0.002845014
-0.1504608 -0.052707117 0.004593805 -0.17798 0.17823789 0.1515809 -0.15651001 0.109199114
-0.13153912 -0.19080576 -0.18080369 0.17554031 -0.035671297 0.012080169 0.026673146 -0.048818476
-0.05349805 -0.0658379 -0.15327574 0.03176103 -0.16801739 -0.20373519 -0.02408349 -0.11588961
00000000: 2065 153e 8108 0bbe 9862 ff3c 3b4d 063e
00000010: ff21 cd3c bdac 323d 4eff 0dbe dd64 ed3d
00000020: 0be0 8c3d f6ed 343a a7d4 763e f74a c93d
00000030: 31ec 4fbe 0703 893e 2d0c f4bd 1625 32bd
00000040: 41d7 6f3d d3f4 0f3d b113 c7bd 7319 733b
00000050: ef20 143d 7f6d af3d d443 8c3d 5a31 003e
00000060: a22d c2bd d063 79bd b588 cc3d a898 0c3e
00000070: 348d a3bc 44d1 ee3d 40e4 f5bb 0db3 a23d
00000080: be98 e73d 1e8a 6ebc 21ff 6fbd 2516 9e3d
00000090: 31ba d1bd 2bcf b8bc 60a5 a43d a881 b83c
000000a0: d5b6 7c3e 7984 5d3b 8a0f 11bc a860 3f3e
000000b0: be53 a73d 5123 403c cd23 903e 361e 1f3d
000000c0: a892 1e3d dd49 113c 16a1 97bd 4cfa 63bd
000000d0: 957e bf3b cdef 853d 0b90 c2bc 000b ddbd
000000e0: b3b2 d13d b257 debc c235 1bbe c1ac 5c3e
000000f0: d754 323e 32d8 843c 05cc dabd 841a d83d
00000100: e819 6b3d aacf bfbd a618 6abe 7a9b 293c
00000110: 61a4 58bd 048c 99bc 9c65 24bd b5e1 a93a
00000120: 4fec 493e 4ec4 7d3d 02e0 b13c b4aa b6bc
00000130: 8762 ff3d 1483 683d 2b17 bbbb 764f 03bb
00000140: 4c52 9cbd e156 c73c ee88 58bd d4e0 dcbc
00000150: 15e2 3dbd 7831 90bd 64f5 063d b9e0 07bd
00000160: f2ce 3bbd 0e89 41bc 62e0 61be 8745 11be
00000170: 3229 ab3d c2b1 423d 68a8 64be 7832 3d3b
00000180: 5fba 4e3e 525a a13d b4e5 4cbe bfd1 63be
00000190: a8cc ba3c d221 4dbd a179 e2bd 3171 98be
000001a0: 8715 f8bc 6537 983d 5ba0 77be a027 83be
000001b0: 2f51 7d3d b407 24bc 54e4 fcbc 8c08 0abe
000001c0: 83e9 cbbd 8400 963c b46c ac3d 8ce1 86be
000001d0: 194e 27be 7621 b23d d4b2 ad3d 96bf debd
000001e0: 5129 e63d 630f ba3d ee2f 133e 0243 2dbd
000001f0: 9a96 e03c 5d97 f73d 1be3 ee3c f200 26be
00000200: 225c c03d d2ec cebd 68be 9cb9 0e01 38be
00000210: 61c6 f23c faaa 8c3d b695 22be 045d 14be
00000220: 0ea3 afbd 34be 1e3c 2c8c 813d d81f ccbc
00000230: 00a7 bd3b 3dbc 54bd 6680 92bd e5fc 9e3d
00000240: dc32 89bd 4c24 143e 1907 383d ebc8 a5bd
00000250: 5844 61bd 7e48 b83d 7b88 6ebd b436 d4bd
00000260: 6287 9cbb 7632 18bd f288 02be 4c37 2c3e
00000270: abf2 27bd b0e5 a4bd e7be 913d d274 663d
00000280: f846 a8bc f624 1cbe abab 9cbc e444 dcbd
00000290: 5a38 903d 0894 70bd 36a7 1dbe 4077 17bd
000002a0: c483 b03c 9098 c6bd f932 2f3c 60a4 0e3e
000002b0: 89e9 ab3c 11be 713e 6e94 093e 04a5 f23d
000002c0: 12c4 a23d e41e c8bb 01eb 0f3e 0525 653e
000002d0: 5341 513e dc22 513d ba07 be3d 2427 9d3d
000002e0: b234 62bd d1c2 3a3e 4683 1e3e 9c75 cabd
000002f0: 269c 513e a413 183e 0638 fabd 696b 863e
00000300: 1069 c83d 3276 223e d05f 673e a1fb dabd
00000310: 36df 2d3e 50f4 3a3e ee64 813d 9860 303e
00000320: 60db 0e3e 021a 5d3e 85b1 7a3e 85ca 6fbe
00000330: 5bc4 31be 1b06 51be 55b7 ce3d 0805 8fbc
00000340: 1c75 bfbd 16d3 1f3e 7535 833d 7f53 95be
00000350: 12dc 30be d600 e9bb b569 19be 6270 07be
00000360: ce53 383e 8f65 0f3d 9b72 d8bd 3288 2e3d
00000370: 9f9b 783e 1ced 1fbd 2c95 42be b95d 5e3e
00000380: aad3 3bbd 6a5d 1fbe 5f78 443d 1fa9 28be
00000390: a696 f93d 48ad f83b 9456 cabb 6a73 3a3b
000003a0: 6512 1abe 6be3 57bd a187 963b 6440 36be
000003b0: fe83 363e 0638 1b3e 2944 20be c9a3 df3d
000003c0: 31b2 06be 9662 43be 9a24 39be d7c0 333e
000003d0: 111c 12bd e7eb 453c a481 da3c e2f5 47bd
000003e0: c520 5bbd 05d6 86bd 51f4 1cbe db17 023d
000003f0: c00c 2cbe f59f 50be bd4a c5bc 8857 edbd

policy_fc1.bias f4 [64]
0.0056809294 0.063067734 0.016162945 -0.02173161 0.021916162 -0.0072147385 -0.008792274 0.000788903
-0.15958452 -0.11908979 -0.030225568 -0.029640853 0.03112294 -0.034919035 -0.028505255 -0.048447367
-0.04411268 -0.009694333 -0.098870926 -0.03895723 0.018315336 -0.06819428 -0.010883527 0.008672736
-0.021053229 -0.021970324 -0.059512153 0.00020194857 -0.056644738 0.028502064 -0.055973258 -0.00396712
-0.033037428 0.022469329 -0.012984776 -0.07268221 0.0046003233 -0.1109874 -0.022369115 -0.12332916
-0.143148 -0.020749742 -0.02360629 -0.049065076 -0.04591148 -0.06334441 -0.02498982 -0.21814282
-0.0012448919 -0.04298173 -0.09023941 -0.058985844 -0.09125382 -0.09044109 -0.035333514 -0.069814704
-0.01839628 -0.107900396 -0.015068312 -0.011358873 0.0033665458 0.00701307 -0.08001807 -0.015173372
00000000: 1727 ba3b a829 813d 2768 843c 7d06 b2bc
00000010: 8689 b33c 9d69 ecbb 780d 10bc 62ce 4e3a
00000020: 206a 23be 59e5 f3bd 9c9b f7bc 60d1 f2bc
00000030: 89f5 fe3c 4307 0fbd da83 e9bc bf70 46bd
00000040: 7faf 34bd fbd4 1ebc d77c cabd 9e91 1fbd
00000050: 0b0a 963c 71a9 8bbd d250 32bc 1718 0e3c
00000060: d277 acbc 1cfb b3bc 04c3 73bd 28c2 5339
00000070: 5004 68bd 297d e93c 3744 65bd 9dfe 81bb
00000080: 4152 07bd 9911 b83c 19be 54bc 69da 94bd
00000090: 4fbe 963b 5d4d e3bd 6f3f b7bc 0094 fcbd
000000a0: 6495 12be 5dfb a9bc fa61 c1bc 76f8 48bd
000000b0: ad0d 3cbd b7ba 81bd 73b7 ccbc d560 5fbe
000000c0: a42b a3ba 9c0d 30bd 71cf b8bd 249b 71bd
000000d0: 48e3 babd 2e39 b9bd e0b9 10bd 03fb 8ebd
000000e0: ccb3 96bc e2fa dcbd 15e1 76bc 911a 3abc
000000f0: 44a1 5c3b e5cd e53b 84e0 a3bd bc99 78bc

policy_fc2.weight f4 [32, 64]
0.18085143 -0.3316561 0.16021192 -0.10717281 0.017566811 -0.37414742 -0.33763745 0.09776925
-0.04527845 -0.21330279 0.0499112 0.23870315 0.02359753 -0.13059369 -0.21170406 -0.027688107
0.024444887 -0.067452535 0.08114925 -0.21582569 0.13263692 0.12121421 0.30420804 0.19695617
-0.20865332 -0.41563717 0.22104388 -0.2554572 0.15562844 -0.16772428 -0.07545175 -0.12807389
-0.1366012 0.0690636 0.18883711 -0.29371163 -0.17568727 -0.18825865 0.30475467 -0.2246189
-0.27732518 -0.100649886 -0.49072206 -0.12704608 0.1076477 -0.06522419 0.15516977 -0.027754642
0.103377804 -0.24343163 -0.004872017 -0.14192978 -0.055700615 -0.27438518 0.27438655 -0.05796578
-0.21724428 -0.13193305 -0.015536606 -0.20767261 -0.2519516 -0.121735156 -0.04625524 0.0741998
0.13471842 -0.13511917 -0.041609906 -0.16806693 -0.23841661 0.14334938 -0.16446571 0.017040795
0.1885236 0.034049492 0.25935522 -0.03256303 0.08524293 -0.17481068 0.06866044 0.013195686
0.12945005 0.014759576 -0.19192572 0.005979575 -0.020348419 0.014906269 -0.05846725 -0.37456384
-0.06041342 0.06563257 0.18856432 0.1938639 -0.1372322 -0.23597988 -0.17866793 -0.28457564
0.10553614 -0.10874263 -0.0382575 0.059539244 -0.21690503 0.10108585 0.16266488 -0.15982427
-0.065806456 -0.11397243 0.26868576 0.09435116 0.12699114 0.23826094 -0.053856373 -0.24433206
0.26578587 0.058695186 0.15244855 -0.3513367 0.062772326 -0.20143431 0.29270345 0.0036880267
0.21768023 -0.20401841 -0.20139095 0.052404366 0.3045015 0.17201327 -0.08316388 0.013030715
-0.09077422 0.16325736 0.11214938 0.20426852 0.17572126 0.054452877 -0.16507064 -0.075998105
-0.008852059 -0.28978434 -0.053741336 0.22288273 -0.1701496 0.093580455 -0.07209059 -0.13273603
-0.13553147 0.15666702 -0.15102173 -0.10429257 -0.08445934 -0.009474424 0.145873 0.106787324
-0.29322726 0.03080169 -0.0863147 0.10317565 0.08279219 -0.039607614 -0.38805643 -0.01648929
-0.2686848 0.08013128 -0.3536516 0.19768178 -0.23718758 0.07639053 0.07101156 -0.044438552
0.016102899 0.013772175 -0.09380058 -0.21519488 -0.09566099 -0.0875427 0.20689856 -0.35377574
0.1792718 0.17597833 -0.037508525 0.039678086 0.05215434 0.07647428 -0.23515587 -0.013539394
0.272402 0.13190745 0.08841608 -0.0037809398 0.09898285 -0.14427404 -0.19967397 0.09906707
-0.1287647 -0.008995439 -0.29938808 0.10649671 0.21758671 0.10322496 -0.16461897 -0.13503909
-0.03237174 -0.19014068 -0.17055038 -0.03592932 0.18700303 0.12486078 0.049172364 -0.12991871
-0.036391027 -0.26075736 0.03341418 -0.16089359 -0.2197648 -0.3663268 -0.08400207 0.037771624
-0.39454526 0.08408367 -0.20407337 -0.09366545 -0.2732065 -0.015708087 0.21845184 -0.17624798
0.08136719 0.04884077 0.12139006 0.02485908 -0.3495148 0.026515359 -0.23634854 -0.042012267
-0.16803376 -0.014226131 -0.3174996 -0.14107798 -0.27690932 0.2721442 -0.015004516 0.119069345
0.12163237 -0.04870557 -0.41421646 -0.31528127 -0.17970686 -0.1305586 -0.40517542 -0.09936557
0.07556686 0.09641005 0.15191184 0.055601083 -0.3411899 -0.09000625 -0.028065462 -0.05624211
00000000: 1e31 393e d4ce a9be 980e 243e 6b7d dbbd
00000010: 46e8 8f3c 4090 bfbe d1de acbe 3f3b c83d
00000020: e575 39bd 0c6c 5abe b06f 4c3d 996e 743e
00000030: 9b4f c13c 5aba 05be f3c8 58be 2bd2 e2bc
00000040: a540 c83c 8e24 8abd 9431 a63d 6901 5dbe
00000050: f9d1 073e 283f f83d 28c1 9b3e e1ae 493e
00000060: 37a9 55be 65ce d4be 5459 623e 49cb 82be
00000070: 105d 1f3e eabf 2bbe 7286 9abd cd25 03be
00000080: 2fe1 0bbe 3771 8d3d 845e 413e 5f61 96be
00000090: 5de7 33be e0c6 40be ce08 9c3e 7f02 66be
000000a0: 91fd 8dbe 8721 cebd ec3f fbbe 5e18 02be
000000b0: 6676 dc3d 4394 85bd d3e4 1e3e b45d e3bc
000000c0: beb7 d33d 2446 79be 71a5 9fbb 0a56 11be
000000d0: 5426 64bd 377c 8cbe 657c 8c3e 876d 6dbd
000000e0: 4975 5ebe 7519 07be 408d 7ebc 21a8 54be
000000f0: cdff 80be 4850 f9bd 2276 3dbd 11f6 973d
00000100: a0f3 093e ae5c 0abe 266f 2abd bd19 2cbe
00000110: 7c23 74be 2eca 123e b369 28be 2399 8b3c
00000120: 550c 413e 7b77 0b3d 35ca 843e d060 05bd
00000130: d893 ae3d 9201 33be d89d 8c3d b832 583c
00000140: 8e8e 043e 26d2 713c 2d88 44be 50f0 c33b
00000150: bab1 a6bc 6c39 743c 5b7b 6fbd d5c6 bfbe
00000160: 1074 77bd 5e6a 863d 0117 413e 4284 463e
00000170: 9986 0cbe b6a4 71be baf4 36be e6b3 91be
00000180: 5523 d83d 75b4 debd e5b3 1cbd 6cdf 733d
00000190: 5a1c 5ebe 1906 cf3d 9f91 263e f9a8 23be
000001a0: 89c5 86bd 616a e9bd 2e91 893e 2e3b c13d
000001b0: f709 023e adfa 733e 8098 5cbd 2f32 7abe
000001c0: 1615 883e 5d6a 703d 791b 1c3e 67e2 b3be
000001d0: c78e 803d cc44 4ebe 3add 953e d2b2 713b
000001e0: 91e7 5e3e 34ea 50be 6e39 4ebe f6a5 563d
000001f0: 9fe7 9b3e 3f24 303e d351 aabd c87e 553c
00000200: d6e7 b9bd f02c 273e 93ae e53d c42b 513e
00000210: 46f0 333e fb09 5f3d 4708 29be e5a4 9bbd
00000220: 3a08 11bc 9d5e 94be e01f 5cbd 5f3b 643e
00000230: b23b 2ebe 1ca7 bf3d 3ba4 93bd f4eb 07be
00000240: c3c8 0abe 526d 203e 71a5 1abe 5897 d5bd
00000250: 05f9 acbd 9d3a 1bbc bb5f 153e 50b3 da3d
00000260: e221 96be d353 fc3c c3c5 b0bd c14d d33d
00000270: f48e a93d 983b 22bd 55af c6be 8c14 87bc
00000280: 0e91 89be de1b a43d d311 b5be 186d 4a3e
00000290: 4de1 72be a372 9c3d 826e 913d 3305 36bd
000002a0: 3aea 833c b0a4 613c 851a c0bd 0c5c 5cbe
000002b0: e9e9 c3bd 9649 b3bd 37dd 533e 1822 b5be
000002c0: 0793 373e aa33 343e 8aa2 19bd 7d85 223d
000002d0: ca9f 553d 8c9e 9c3d b3cc 70be 56d4 5dbc
000002e0: 4678 8b3e bf12 073e 7d13 b53d a5c9 77bb
000002f0: 85b7 ca3d 93bc 13be 5577 4cbe ade3 ca3d
00000300: e5da 03be 9b61 13bc 6549 99be f21a da3d
00000310: 0dcf 5e3e 9c67 d33d e091 28be b047 0abe
00000320: 3b98 04bd 3db4 42be c2a4 2ebe 9f2a 13bd
00000330: b97d 3f3e 02b7 ff3d f668 493d 6909 05be
00000340: c20e 15bd fd81 85be 4fdd 083d 4ac1 24be
00000350: 060a 61be 308f bbbe 4709 acbd 6bb6 1a3d
00000360: d601 cabe 0f34 ac3d 9cf8 50be acd3 bfbd
00000370: b9e1 8bbe 3fae 80bc d7b1 5f3e 5a7a 34be
00000380: d7a3 a63d 420d 483d 5a9b f83d 45a5 cb3c
00000390: 9bf3 b2be bd36 d93c 5a05 72be 0e15 2cbd
000003a0: 0b11 2cbe b814 69bc 4f8f a2be bf76 10be
000003b0: 0fc7 8dbe 7c56 8b3e 80d5 75bc a1da f33d
000003c0: 641a f93d 7e7f 47bd 2e14 d4be 8c6c a1be
000003d0: 1305 38be 27b1 05be 2773 cfbe 2d80 cbbd
000003e0: ccc2 9a3d a272 c53d c78e 1b3e f6bd 633d
000003f0: 71b0 aebe 3255 b8bd 8ae9 e5bc 205e 66bd

policy_fc2.bias f4 [32]
0.03337263 -0.082215466 -0.067950085 -0.12614533 -0.095228784 0.031924892 0.09619193 0.05427769
0.08993574 0.043558974 -0.00764913 -0.05131777 -0.029410256 0.051996365 -0.10941077 0.04637754
-0.018052718 -0.017429337 -0.042442687 0.062759966 0.09352641 -0.10217714 -0.012181299 -0.052726045
-0.08471344 0.07290412 0.09393293 0.03571179 0.05123786 -0.003416598 -0.27491072 0.07951979
00000000: bdb1 083d 9560 a8bd 6a29 8bbd 3e2c 01be
00000010: 4f07 c3bd adc3 023d 4600 c53d 4852 5e3d
00000020: 3b30 b83d e56a 323d 8ea5 fabb 9532 52bd
00000030: c7ed f0bc 24fa 543d c112 e0bd 60f6 3d3d
00000040: 4be3 93bc f8c7 8ebc 62d8 2dbd 4c88 803d
00000050: c68a bf3d 4042 d1bd 1294 47bc 44f7 57bd
00000060: 3d7e adbd c14e 953d e85f c03d 8746 123d
00000070: cade 513d 01e9 5fbb 19c1 8cbe 46db a23d

policy_fc3.weight f4 [51, 32]
-0.18955804 0.42222413 -0.1297036 -0.22189534 0.4312165 -0.14306448 0.07184917 -0.30098033
-0.4612303 0.08160288 -0.33093664 0.15424314 -0.00065364916 -0.115301766 0.13518104 0.1663684
0.121642746 0.05848016 0.37604326 -0.22468603 -0.063000806 0.09528423 0.32232782 -0.12852171
0.159478 0.06302216 -0.17512584 0.7413975 -0.09245882 0.09409199 -0.2868952 0.07141272
-0.20181906 -0.10252718 0.015507536 0.31782028 0.16156013 -0.32762125 0.33871603 0.04874478
-0.30785462 -0.3161674 0.05895711 -0.053310607 0.075226225 0.12027196 0.39924067 -0.024148466
-0.22837059 0.042327214 0.12247927 0.04590037 -0.081667244 0.044050895 0.049193677 0.023107728
0.051701963 -0.11426357 -0.04707861 -0.09853154 -0.35508302 0.14947054 -0.101968095 -0.34553924
0.08973576 0.05258537 -0.22384857 -0.051407617 -0.29424205 0.04073087 -0.3911818 -0.18688188
0.10452156 -0.048989177 -0.0019035651 -0.0143531095 -0.046913717 -0.28402793 0.030056627 -0.006627049
0.17123912 0.27731028 -0.12617604 -0.0344401 0.35887247 -0.30367088 0.16479404 -0.054080065
0.16048594 0.70563567 -0.32623607 0.08744128 0.12965044 -0.024483984 0.21278608 -0.22399265
0.15073507 -0.35167444 0.1842382 0.34318352 0.030580277 0.13078281 0.15007131 -0.09384193
-0.046928614 0.029947657 0.07617556 0.28259623 0.11689611 0.052490145 0.12909287 0.07353615
0.019202929 -0.095550746 -0.2442034 -0.0979741 -0.09648455 0.19399293 0.09517837 0.076647215
-0.18669029 -0.107099466 -0.13644241 0.04351042 0.09469975 0.018425893 -0.15298557 -0.21364008
-0.045038998 -0.1705038 0.19103228 0.20122224 0.004903043 0.35605302 -0.01911577 -0.08459466
0.18267192 0.045827273 0.17218907 0.11175011 -0.091327175 0.028716804 -0.09549985 -0.10622444
0.12752746 -0.27343145 -0.017055534 0.034209926 -0.15706863 0.034216333 0.057795107 -0.13954167
0.01961205 0.22758928 -0.30270758 0.3440937 0.036390677 -0.17483836 0.10714276 0.35522413
-0.3111261 0.17216212 -0.06544246 0.19451037 0.20447023 0.12481266 -0.18353598 0.07505824
0.07934477 0.045874953 -0.15048969 0.2791624 0.17394318 0.1586333 -0.20178473 -0.3337022
-0.16408187 0.08832368 0.21404974 -0.094595164 0.08749127 -0.19189514 -0.05921616 0.01980974
0.07737537 0.10108527 0.13282806 -0.16684619 -0.21370065 -0.24856631 -0.07141166 -0.25361103
0.05845923 0.099040225 0.3588039 0.2723098 0.12421336 0.13471049 0.1850698 -0.09497588
-0.27005503 0.059292134 -0.23380873 -0.06962571 0.07943638 -0.1625242 -0.23329611 -0.42799786
-0.17094894 -0.15893 0.03313133 0.11473245 0.06721985 -0.05936125 -0.23358436 -0.37435523
0.16771409 -0.27825853 0.07856398 0.17366691 -0.13245192 -0.24910676 0.19490053 0.28009266
0.0388447 0.22025333 0.08615926 -0.106478274 0.19768707 0.39094123 -0.17822517 0.044898584
0.5316187 -0.28563762 0.09006152 -0.18141833 -0.034301456 -0.12086014 0.39048204 -0.049389675
-0.23833859 0.16706991 -0.3150098 0.013658737 -0.059228685 0.19153163 -0.10216704 -0.0914303
-0.02247018 -0.11681607 -0.15517 0.039704446 -0.28695434 0.06953968 -0.009175723 -0.15565951
00000000: 811b 42be c32d d83e 05d1 04be 8838 63be
00000010: 69c8 dc3e 7f7f 12be a825 933d 181a 9abe
00000020: 6126 ecbe 691f a73d 8770 a9be eaf1 1d3e
00000030: a759 2bba 5523 ecbd e66c 0a3e 7a5c 2a3e
00000040: d51f f93d e488 6f3d be88 c03e 1814 66be
00000050: 9106 81bd 6124 c33d 2708 a53e 329b 03be
00000060: 334e 233e c311 813d 3054 33be 3acc 3d3f
00000070: 0d5b bdbd 4db3 c03d ede3 92be d540 923d
00000080: a8a9 4ebe c5f9 d1bd 5213 7e3c 57b9 a23e
00000090: 0570 253e f9bd a7be 306c ad3e 9ba8 473d
000000a0: 1f9f 9dbe b2e0 a1be 037d 713d 395c 5abd
000000b0: 3510 9a3d 2551 f63d 4669 cc3e 01d3 c5bc
000000c0: fbd9 69be 4d5f 2d3d 69d6 fa3d 0702 3c3d
000000d0: 2841 a7bd b66e 343d 4f7f 493d 6b4c bd3c
000000e0: 70c5 533d 0503 eabd 80d5 40bd e7ca c9bd
000000f0: 71cd b5be ce0e 193e a6d4 d0bd 85ea b0be
00000100: 62c7 b73d c263 573d 8f38 65be cb90 52bd
00000110: e5a6 96be 6ad5 263d fb48 c8be f75d 3fbe
00000120: 660f d63d e0a8 48bd 0c81 f9ba 4e29 6bbc
00000130: 9928 40bd 1c6c 91be 5139 f63c b727 d9bb
00000140: 4f59 2f3e 9dfb 8d3e 4b34 01be 1011 0dbd
00000150: 22be b73e c07a 9bbe c5bf 283e 0f83 5dbd
00000160: 6d56 243e 8aa4 343f 6a08 a7be 6a14 b33d
00000170: 16c3 043e a392 c8bc 98e4 593e 545e 65be
00000180: 4b5a 1a3e ac0e b4be f0a8 3c3e c0b5 af3e
00000190: 7d83 fa3c eeeb 053e 4bac 193e 3330 c0bd
000001a0: 3838 40bd ca54 f53c ef01 9c3d 74b0 903e
000001b0: 3a67 ef3d e8ff 563d ec30 043e 1f9a 963d
000001c0: 764f 9d3c 1cb0 c3bd 7510 7abe a5a6 c8bd
000001d0: b199 c5bd 15a6 463e e1ec c23d 37f9 9c3d
000001e0: bd2b 3fbe f756 dbbd 8fb7 0bbe fb37 323d
000001f0: f1f1 c13d e6f1 963c 40a8 1cbe 77c4 5abe
00000200: d07a 38bd 8c98 2ebe f79d 433e 340d 4e3e
00000210: b5a9 a03b 954c b63e ad98 9cbc f73f adbd
00000220: 590e 3b3e 61b5 3b3d 5552 303e 3edd e43d
00000230: be09 bbbd 813f eb3c 6d95 c3bd 338c d9bd
00000240: 8f96 023e 35ff 8bbe 0cb8 8bbc b51f 0c3d
00000250: 99d6 20be 6d26 0c3d 90ba 6c3d 03e4 0ebe
00000260: 73a9 a03c 2a0d 693e 7dfc 9abe 0d2d b03e
00000270: 640e 153d d408 33be aa6d db3d f0df b53e
00000280: ec4b 9fbe 444b 303e b206 86bd ba2d 473e
00000290: a560 513e c89d ff3d dbf0 3bbe 22b8 993d
000002a0: 837f a23d 60e7 3b3d f819 1abe 60ee 8e3e
000002b0: 291e 323e c570 223e a8a0 4ebe 04db aabe
000002c0: 1405 28be 0ce3 b43d db2f 5b3e 1cbb c1bd
000002d0: 9f2e b33d 2980 44be a58c 72bd 0948 a23c
000002e0: fa76 9e3d cb05 cf3d 1404 083e bad9 2abe
000002f0: 58d4 5abe 2b88 7ebe 4740 92bd 4ed9 81be
00000300: f272 6f3d 9ad5 ca3d 25b5 b73e 316c 8b3e
00000310: 9363 fe3d 8cf1 093e f082 3d3e b782 c2bd
00000320: a744 8abe 4fdc 723d 8e6b 6fbe ed97 8ebd
00000330: 8aaf a23d be6c 26be 2de5 6ebe 8922 dbbe
00000340: 3d0d 2fbe 8cbe 22be b8b4 073d d9f8 ea3d
00000350: 90aa 893d c824 73bd bd30 6fbe 7dab bfbe
00000360: 3ebd 2b3e e777 8ebe 27e6 a03d bdd5 313e
00000370: 7aa1 07be d815 7fbe 0194 473e 4e68 8f3e
00000380: 9f1b 1f3d 178a 613e 4474 b03d 4811 dabd
00000390: 7b6e 4a3e 7329 c83e a980 36be 94e7 373d
000003a0: 2a18 083f 183f 92be 2d72 b83d bac5 39be
000003b0: af7f 0cbd 8585 f7bd 43ed c73e d44c 4abd
000003c0: 080f 74be 6014 2b3e f748 a1be e5c8 5f3c
000003d0: c799 72bd de20 443e f43c d1bd cf3f bbbd
000003e0: 6213 b8bc 443d efbd e2e4 1ebe 21a1 223d
000003f0: aeeb 92be d26a 8e3d c655 16bc 3565 1fbe

policy_fc3.bias f4 [51]
-0.11182883 0.1371725 0.029816115 0.121584564 -0.055764534 -0.16566095 0.1676982 0.10131319
-0.07191202 0.112507805 0.14250097 -0.12299181 0.06960469 0.16007462 -0.27724552 -0.08015287
0.19745433 -0.3315887 0.05546111 -0.10224157 -0.10964629 0.13926435 -0.04691635 0.021069264
-0.17720538 0.02469006 -0.097796306 -0.09859941 -0.07230596 -0.0889814 -0.10173971 0.07464095
-0.10909329 0.040241722 0.11851242 -0.060217217 -0.07568527 0.023556383 -0.06600791 -0.021639738
-0.09475757 -0.025331805 0.08039608 -0.06974974 0.009432797 -0.019035473 -0.0895124 -0.04789087
0.083083816 0.033714723 -0.122667
00000000: 8306 e5bd f376 0c3e ed40 f43c 5401 f93d
00000010: 5a69 64bd 06a3 29be 14b9 2b3e 4a7d cf3d
00000020: 9c46 93bd 7e6a e63d c6eb 113e 21e3 fbbd
00000030: e78c 8e3d 9aea 233e 20f3 8dbe 3027 a4bd
00000040: 7831 4a3e fec5 a9be 302b 633d 0764 d1bd
00000050: 3c8e e0bd 509b 0e3e 5c2b 40bd 7399 ac3c
00000060: 5475 35be cf42 ca3c 6e49 c8bd 7dee c9bd
00000070: 2615 94bd e13b b6bd e95c d0bd 5bdd 983d
00000080: 4e6c dfbd 81d4 243d a4b6 f23d 54a6 76bd
00000090: e100 9bbd 51f9 c03c 282f 87bd d245 b1bc
000000a0: 4210 c2bd a584 cfbc b3a6 a43d f4d8 8ebd
000000b0: 058c 1a3c 48f0 9bbc 4752 b7bd 3829 44bd
000000c0: d927 aa3d 7318 0a3d d638 fbbd

value_fc1.weight f4 [64, 261]
-0.113052316 -0.10375689 -0.13186662 0.08322987 -0.14634849 0.09901667 -0.104191616 0.0020658406
0.10207218 -0.1650409 -0.39500818 0.11281354 -0.1598588 -0.47542945 0.027146934 -0.0890026
-0.11010703 -0.04550092 0.016519235 0.26119417 0.07604118 0.037458032 -0.3416177 -0.042066496
0.1730325 -0.20668623 0.16808265 0.12939039 0.12792055 -0.039048005 -0.055301324 -0.3456488
0.025362028 -0.19505809 -0.056369927 -0.08901716 0.1761794 -0.29615596 0.03612194 -0.11180267
-0.009456995 0.014248557 0.07624071 0.34928745 -0.1307648 -0.07585443 -0.035638403 -0.14243539
-0.016202997 -0.28245386 -0.029048366 -0.06868707 0.2115374 -0.11396936 0.08836119 0.5267237
-0.077343866 0.06966915 0.5364538 -0.0980139 -0.0043551372 -0.06411731 0.016996354 0.005670652
0.056304082 0.17799139 0.07668588 0.21203075 0.36476558 0.06499984 0.38310406 0.016351137
0.04021748 0.034769125 0.35306272 -0.0103142345 -0.09065545 -0.046788048 0.48311272 0.10525805
-0.21899094 0.04011369 0.05183582 0.13152687 -0.04512146 -0.079862684 -0.29896626 -0.10879899
-0.21482244 -0.07807159 -0.05516022 -0.106360056 0.25575367 -0.13388786 -0.13323148 -0.16445228
0.1304769 -0.15909226 -0.14140384 -0.15383527 0.07401276 0.05027356 0.1141603 -0.1882051
0.1581859 -0.12938522 -0.1418131 -0.08277339 0.26686683 -0.100901894 -0.06324261 -0.13535576
-0.07511537 0.06775738 0.11484643 -0.08782905 0.2799485 0.13238487 -0.038198225 0.3264428
-0.012120972 0.03292878 -0.099424295 0.04443402 -0.07588953 -0.12521297 0.14176199 0.2564746
-0.055415094 0.013019571 0.04483263 0.33622283 -0.14260693 -0.013880559 -0.007480488 0.07862941
-0.18993898 -0.07666535 -0.18764204 0.18270494 0.0073829265 0.030442037 0.009957538 -0.056526348
0.053403977 0.2186058 -0.05857061 0.021429535 0.08820793 0.016854228 -0.034399014 0.07675228
-0.1253553 0.123546004 -0.043680407 0.029060261 0.016902724 -0.048294913 -0.20093384 0.012211379
0.18884933 -0.09883907 -0.098840326 0.08888026 -0.08667948 -0.083477706 -0.0013649729 0.0035993638
-0.12573637 0.017844839 -0.17256548 -0.1344392 0.16596884 0.03007272 -0.026637133 -0.05975539
-0.3276258 0.035564348 0.029989405 0.00018750841 0.0123624485 -0.11653253 -0.030675983 -0.1110242
0.094723016 0.05560498 -0.013138932 0.060252074 0.013220703 -0.154592 0.0593657 -0.112213485
-0.13410318 -0.022033254 -0.18610182 0.053397797 0.091734886 0.07490976 -0.1062065 -0.06834108
-0.07480634 0.22047533 -0.0006542432 0.34755117 -0.18478993 -0.16797668 -0.15634468 -0.031267133
-0.28791943 -0.33482558 -0.028811969 0.059005465 -0.18831857 -0.23006855 -0.08443033 -0.088317685
-0.12197982 0.090329945 0.058571357 -0.13439594 0.0702493 0.27307913 0.10887077 0.0031414786
0.061893944 -0.0067167673 0.022889836 0.056212258 -0.26514116 0.12238466 0.15281351 -0.1677286
0.06354907 0.12513152 -0.3257387 0.108650304 0.016637078 -0.22440995 0.08659845 -0.09201253
-0.14533229 -0.08480495 -0.0517706 -0.09655914 0.14602144 -0.12684622 -0.07354542 0.09151006
-0.06724553 -0.11339986 -0.08069563 0.01732008 0.16436212 0.120376915 0.30886278 -0.12125365
00000000: f987 e7bd 7e7e d4bd 0b08 07be 6c74 aa3d
00000010: 61dc 15be 40c9 ca3d 6a62 d5bd 0e63 073b
00000020: 380b d13d 7b00 29be 833e cabe c90a e73d
00000030: 06b2 23be 7d6b f3be 3f63 de3c ff46 b6bd
00000040: cb7f e1bd 2c5f 3abd 5953 873c 3ebb 853e
00000050: 7abb 9b3d 986d 193d 84e8 aebe eb4d 2cbd
00000060: 6f2f 313e 8ea5 53be dc1d 2c3e ea7e 043e
00000070: 9bfd 023e cdf0 1fbd a483 62bd e1f8 b0be
00000080: 07c4 cf3c 4fbd 47be 27e4 66bd a14e b6bd
00000090: 5f68 343e c1a1 97be 99f4 133d ccf8 e4bd
000000a0: 83f1 1abc c872 693c 1724 9c3d ced5 b23e
000000b0: 35e7 05be 9159 9bbd 93f9 11bd 95da 11be
000000c0: 26bc 84bc cb9d 90be d7f6 edbc ceab 8cbd
000000d0: 439d 583e c568 e9bd b6f6 b43d 5dd7 063f
000000e0: 7666 9ebd b3ae 8e3d 0955 093f 83bb c8bd
000000f0: 8ab5 8ebb f04f 83bd f03b 8b3c e0d0 b93b
00000100: 1c9f 663d 6043 363e 7d0d 9d3d 971e 593e
00000110: 8ec2 ba3e a31e 853d 3726 c43e d2f2 853c
00000120: 16bb 243d 126a 0e3d a3c4 b43e 09fd 28bc
00000130: 91a9 b9bd d3a4 3fbd 8d5a f73e 8891 d73d
00000140: 293f 60be 414e 243d cc51 543d fbae 063e
00000150: 48d1 38bd 0c8f a3bd 1b12 99be 01d2 debd
00000160: 6afa 5bbe ffe3 9fbd afef 61bd 4dd3 d9bd
00000170: 25f2 823e e619 09be d56d 08be 2e66 28be
00000180: bd9b 053e 15e9 22be 2bcc 10be fe86 1dbe
00000190: 0094 973d a6eb 4d3d e0cc e93d d6b8 40be
000001a0: 7cfb 213e 8f7d 04be 7437 11be 1885 a9bd
000001b0: c5a2 883e a7a5 cebd 5785 81bd b39a 0abe
000001c0: 16d6 99bd 62c4 8a3d 9b34 eb3d b8df b3bd
000001d0: 6955 8f3e e68f 073e be75 1cbd 8323 a73e
000001e0: 0b97 46bc 54e0 063d f79e cbbd 7200 363d
000001f0: f86b 9bbd d437 00be 0e2a 113e a450 833e
00000200: f0fa 62bd 0a50 553c 6ba2 373d 6625 ac3e
00000210: 8d07 12be 496b 63bc e21e f5bb 7508 a13d
00000220: 5d7f 42be b902 9dbd 3c25 40be 0117 3b3e
00000230: 7aec f13b 9461 f93c f124 233c 2c88 67bd
00000240: 21be 5a3d 33da 5f3e bce7 6fbd fe8c af3c
00000250: 5ca6 b43d e111 8a3c fbe5 0cbd 4d30 9d3d
00000260: 245d 00be b005 fd3d 3aea 32bd c90f ee3c
00000270: 9577 8a3c e3d0 45bd 9ac1 4dbe 3c12 483c
00000280: b861 413e 236c cabd cc6c cabd db06 b63d
00000290: 0385 b1bd 5cf6 aabd e4e8 b2ba 4ee3 6b3b
000002a0: 09c1 00be 572f 923c 01b5 30be 6eaa 09be
000002b0: bcf3 293e 115b f63c 1e36 dabc 11c2 74bd
000002c0: 92be a7be ecab 113d 57ac f53c e89d 4439
000002d0: de8b 4a3c 9ba8 eebd 334c fbbc a860 e3bd
000002e0: 24fe c13d 0cc2 633d ad44 57bc e1ca 763d
000002f0: a69b 583c 5e4d 1ebe 7329 733d 2fd0 e5bd
00000300: 5852 09be 157f b4bc 7a91 3ebe a6b7 5a3d
00000310: 80df bb3d 4a6a 993d cb82 d9bd 68f6 8bbd
00000320: 1134 99bd 49c4 613e 8581 2bba 3af2 b13e
00000330: 9239 3dbe 1402 2cbe d218 20be f711 00bd
00000340: 2d6a 93be 426e abbe 1407 ecbc b7af 713d
00000350: 95d6 40be 1797 6bbe cfe9 acbd e7df b4bd
00000360: 8ed0 f9bd e8fe b83d 85e8 6f3d 179f 09be
00000370: ddde 8f3d 07d1 8b3e a3f7 de3d 44e1 4d3b
00000380: 8184 7d3d 5418 dcbb 7783 bb3c d33e 663d
00000390: 95c0 87be cfa4 fa3d 257b 1c3e 0cc1 2bbe
000003a0: 0426 823d 7a22 003e 39c7 a6be 0d84 de3d
000003b0: 7b4a 883c b9cb 65be 875a b13d 1171 bcbd
000003c0: fdd1 14be 38ae adbd 690d 54bd ccc0 c5bd
000003d0: a586 153e fae3 01be fb9e 96bd a069 bb3d
000003e0: 06b8 89bd 303e e8bd c043 a5bd d7e2 8d3c
000003f0: 8b4e 283e 2c88 f63d 4323 9e3e d553 f8bd

value_fc1.bias f4 [64]
-0.024077708 0.026221374 -0.036163155 0.057593692 -0.017334983 -0.005073157 -0.04963305 -0.033499178
-0.011333822 0.018321728 0.023905793 -0.021074524 -0.034042284 -0.015782768 -0.052271824 -0.010572541
-0.044995062 0.03331517 -0.028073767 -0.004151227 0.018635534 -0.046032045 -0.029610224 0.028357295
-0.004425792 -0.013289966 -0.0051885676 -0.01721195 -0.0055959667 0.0009346884 -0.023105558 -0.012685826
-0.008584612 -0.10335578 0.04696026 -0.0127505865 0.025573019 0.039642688 -0.025592811 -0.0017277558
-0.0030356124 -0.022861423 0.029763624 0.0069333417 0.016485482 -0.03844996 -0.004206467 -0.038810093
-0.019302644 -0.012945922 -0.023654792 -0.095252335 -0.007998042 0.017467078 -0.008639509 0.015522437
0.025782928 0.027715545 -0.010127036 -0.011700585 -0.0065866485 0.0065295966 0.010597692 -0.06572415
00000000: 9d3e c5bc 35ce d63c d11f 14bd 5de7 6b3d
00000010: 1802 8ebc ba3c a6bb 064c 4bbd 6f36 09bd
00000020: 7fb1 39bc 7317 963c 15d6 c33c 7ba4 acbc
00000030: ec6f 0bbd dd4a 81bc fb1a 56bd 7338 2dbc
00000040: be4c 38bd 7d75 083d f5fa e5bc 0407 88bb
00000050: 8ca9 983c 198c 3cbd 2491 f2bc 8f4d e83c
00000060: 3c06 91bb 28be 59bc dc04 aabb 1300 8dbc
00000070: 5f5e b7bb e005 753a de47 bdbc 36d8 4fbc
00000080: 79a6 0cbc 32ac d3bd 6759 403d d6e7 50bc
00000090: 827e d13c 5f60 223d 04a8 d1bc dd75 e2ba
000000a0: 20f1 46bb e147 bbbc d8d2 f33c 1631 e33b
000000b0: 900c 873c b57d 1dbd 67d6 89bb 55f7 1ebd
000000c0: 9420 9ebc 221b 54bc b2c7 c1bc a813 c3bd
000000d0: 380a 03bc 1e17 8f3c ba8c 0dbc d251 7e3c
000000e0: b836 d33c b60b e33c deeb 25bc cfb3 3fbc
000000f0: d0d4 d7bb 3af6 d53b f1a1 2d3c 629a 86bd

value_fc2.weight f4 [32, 64]
-0.06950521 0.13506876 0.04984538 -0.13301425 0.02771014 0.0082588475 -0.2661301 -0.47254044
-0.3034382 0.14461687 0.041700486 -0.20955962 -0.14951126 -0.39337036 0.13435642 0.06434081
-0.07460902 -0.06820355 -0.2744376 -0.06492986 0.12355709 -0.30010462 -0.16530053 -0.22324146
0.43118215 0.30465645 -0.8147799 -0.32311845 0.11675311 -0.6560394 -0.3132422 -0.034945887
-0.30447719 0.31031078 -0.09166568 -0.30008754 -0.0893625 -0.20700148 -0.298313 -0.26229963
-0.14502242 -0.38468382 0.33294332 0.0356597 -0.026000401 -0.07879649 -0.0055986526 -0.33586228
0.021427559 -0.40062496 -0.30295622 -0.08115475 -0.04265499 -0.23272096 -0.110229544 -0.45234966
-0.041647874 -0.7955987 -0.15801777 0.27538753 -0.7850823 0.16798615 -0.17841563 0.16811886
-0.11613268 0.14590089 -0.31175 -0.195046 0.06154367 -0.1020223 -0.48060396 0.23418488
0.21313001 -0.2251718 0.21986398 0.15241994 -0.97717005 -0.16994542 -0.41624078 -0.15262137
-0.33702162 0.12226519 -0.523584 -0.18514743 0.013410278 -0.08546649 -0.2950278 0.16581793
-0.28406122 -0.028774012 -0.21650058 -0.40776452 -0.2625978 -0.15622024 0.21522129 -0.037131265
0.08172019 0.07390562 -0.10182763 -0.44812614 -0.4443511 -0.68113106 -0.6726218 -0.08223592
-0.3574831 -0.46086913 0.115044765 -0.1331086 0.29620332 -0.3008929 0.07580708 -0.028680118
0.16070585 0.1226809 0.15303375 -0.26782274 -0.034563147 -0.31033483 0.07092113 -0.54411435
0.012305707 -0.07208658 -0.1204815 -0.049322948 -0.42731932 0.07856795 -0.21655908 -0.4641947
0.033969484 0.2109956 -0.05242509 -0.06472812 0.043691155 -0.20824869 -0.6726362 -0.0874246
-0.08656215 0.25784996 0.23596793 0.034790628 -0.37272048 -0.56890917 0.035732813 0.019206569
0.24633846 -0.1799215 -0.64688057 -0.10236794 -0.10743796 -0.21846808 -0.21306188 0.07055334
0.21388881 -0.11374444 0.28510302 0.015901752 -0.1022837 -0.12028711 -0.21091369 -0.0040897885
-0.39616472 -0.42498437 -0.48342958 -0.28224272 -0.25035638 -0.78927875 0.10063279 -0.13830546
-0.26094282 -0.38458544 -0.6192946 -0.15910146 0.04830737 -0.018945837 0.09915368 -0.41068435
-0.04106098 -0.45026883 -0.3248437 -0.13930386 -0.5020602 0.1884654 -0.22623414 -0.3670053
-0.007050646 -0.16030486 0.0006602882 -0.15236147 -0.07384575 -0.15389787 -0.2705942 -0.36630365
-0.15934564 0.29247883 -0.28458494 -0.03574408 0.07111408 0.03416636 -0.19036849 -0.20769933
0.0058748685 0.21706882 0.15459253 -0.26162234 -0.08862073 0.096980184 -0.05503602 0.035257798
-0.1161044 -0.11731499 -0.042157196 -0.22308399 0.056479104 -0.33094153 0.21216704 0.07360155
-0.16871135 0.17094234 -0.2680353 -0.046206843 -0.122600324 0.004137473 0.0024984535 -0.14751643
-0.034446474 -0.33430356 0.12811014 -0.045882117 0.15098508 0.11518894 0.081424154 0.046776738
0.0060026394 -0.06288621 -0.13196048 -0.21873555 0.031039355 -0.0927553 -0.22152174 -0.22628528
-0.022852372 0.06338513 0.2391621 -0.091851324 -0.055521805 0.05205298 -0.07095328 -0.04093249
0.13974938 -0.19020724 0.113755144 0.20892641 -0.071224034 -0.016168572 -0.25745213 0.44923177
00000000: bf58 8ebd 774f 0a3e ab2a 4c3d e334 08be
00000010: 6000 e33c 1e50 073c 3442 88be d2f0 f1be
00000020: 405c 9bbe 7216 143e 21ce 2a3d cc96 56be
00000030: 7b19 19be d767 c9be bb94 093e 1dc5 833d
00000040: 9dcc 98bd 4eae 8bbd 1683 8cbe f2f9 84bd
00000050: 800b fd3d 50a7 99be 8b44 29be 6999 64be
00000060: e8c3 dc3e eefb 9b3e 6a95 50bf c86f a5be
00000070: 411c ef3d 33f2 27bf 4861 a0be 6b23 0fbd
00000080: 6fe4 9bbe 0ee1 9e3e 37bb bbbd 13a5 99be
00000090: b003 b7bd 32f8 53be 7bbc 98be 234c 86be
000000a0: c280 14be 47f5 c4be 8c77 aa3e e80f 123d
000000b0: cbfe d4bc 0e60 a1bd e774 b7bb 24f6 abbe
000000c0: d988 af3c b71e cdbe 141d 9bbe 7634 a6bd
000000d0: 00b7 2ebd 674e 6ebe 07c0 e1bd 609a e7be
000000e0: f696 2abd 5bac 4bbf 69cf 21be 98ff 8c3e
000000f0: 27fb 48bf 9004 2c3e 96b2 36be 5a27 2c3e
00000100: f8d6 edbd 0b67 153e b29d 9fbe 23ba 47be
00000110: 3715 7c3d 11f1 d0bd b911 f6be 29ce 6f3e
00000120: c13e 5a3e 7093 66be 0624 613e f913 1c3e
00000130: d127 7abf 2c06 2ebe 831d d5be c748 1cbe
00000140: 198e acbe 2c66 fa3d 9a09 06bf 4a97 3dbe
00000150: c8b6 5b3c 0e09 afbd e20d 97be 2dcc 293e
00000160: 7970 91be 7ab7 ebbc 54b2 5dbe 83c6 d0be
00000170: 3873 86be 33f8 1fbe f862 5c3e f416 18bd
00000180: ea5c a73d d45b 973d 018b d0bd ca70 e5be
00000190: fd81 e3be 9b5e 2ebf f130 2cbf 4e6b a8bd
000001a0: 0608 b7be 0af7 ebbe 979c eb3d 9f4d 08be
000001b0: f6a7 973e a20e 9abe be40 9b3d 91f2 eabc
000001c0: 1390 243e 2040 fb3d e1b4 1c3e 1020 89be
000001d0: 1692 0dbd 35e4 9ebe 193f 913d 144b 0bbf
000001e0: e09d 493c 21a2 93bd 01bf f6bd dc06 4abd
000001f0: 99c9 dabe 3ce8 a03d aac1 5dbe edaa edbe
00000200: 9623 0b3d 3b0f 583e b1bb 56bd 2d90 84bd
00000210: 7ff5 323d 253f 55be e331 2cbf ab0b b3bd
00000220: 7f47 b1bd e904 843e 94a1 713e 9e80 0e3d
00000230: 38d5 bebe 08a4 11bf 925c 123d 1857 9d3c
00000240: 2640 7c3e 573d 38be f799 25bf 48a6 d1bd
00000250: 6f08 dcbd 19b6 5fbe e52c 5abe 457e 903d
00000260: ab05 5b3e d8f2 e8bd 06f9 913e 6444 823c
00000270: 1e7a d1bd 1759 f6bd c2f9 57be a203 86bb
00000280: 1ad6 cabe 8d97 d9be 1584 f7be 1e82 90be
00000290: b62e 80be 2c0e 4abf 9018 ce3d f29f 0dbe
000002a0: 4c9a 85be 62e8 c4be 178a 1ebf 7eeb 22be
000002b0: f3dd 453d 4d34 9bbc 1611 cb3d 3845 d2be
000002c0: 8f2f 28bd a389 e6be ea51 a6be aca5 0ebe
000002d0: 0487 00bf 13fd 403e eca9 67be 1ee8 bbbe
000002e0: 1b09 e7bb f526 24be 3117 2d3a a504 1cbe
000002f0: 713c 97bd 6797 1dbe 538b 8abe 278c bbbe
00000300: 812b 23be c9bf 953e 1eb5 91be 6268 12bd
00000310: 42a4 913d 06f2 0b3d f5ef 42be 22af 54be
00000320: f881 c03b 4a47 5e3e 814d 1e3e 5df3 85be
00000330: c97e b5bd 8c9d c63d 736d 61bd 7b6a 103d
00000340: 25c8 edbd d742 f0bd 06ad 2cbd 2170 64be
00000350: a256 673d 2b71 a9be 5142 593e 69bc 963d
00000360: abc2 2cbe 820b 2f3e ec3b 89be 6343 3dbd
00000370: e115 fbbd a493 873b 18bd 233b 8c0e 17be
00000380: bf17 0dbd d629 abbe 4e2f 033e e3ee 3bbd
00000390: d59b 1a3e 2ee8 eb3d b5c1 a63d f798 3f3d
000003a0: cab1 c43b 7cca 80bd a620 07be 36fc 5fbe
000003b0: 3f46 fe3c 7ef6 bdbd 98d6 62be 54b7 67be
000003c0: e634 bbbc 10d0 813d e9e6 743e 8c1c bcbd
000003d0: d56a 63bd 8135 553d f44f 91bd d4a8 27bd
000003e0: 761a 0f3e b0c5 42be 75f8 e83d cef0 553e
000003f0: e8dd 91bd f473 84bc c4d0 83be b501 e63e

value_fc2.bias f4 [32]
0.038924143 0.0030981787 0.017528439 0.20585462 0.28588948 0.034973804 0.054813597 0.03831718
0.017358804 -0.082359485 0.09989113 0.09638723 0.048660256 -0.16464755 0.12086399 0.018427327
-0.11147186 -0.07041093 -0.042445797 0.3052245 -0.016317135 -0.16935655 -0.042504936 0.06070912
0.09601623 0.027183553 0.042577792 -0.14840317 -0.12229278 -0.01500694 -0.010648534 0.11798287
00000000: ec6e 1f3d d00a 4b3b cd97 8f3c 8ecb 523e
00000010: 1b60 923e b140 0f3d 3984 603d 7af2 1c3d
00000020: 0d34 8e3c 17ac a8bd b993 cc3d ab66 c53d
00000030: fa4f 473d 5e99 28be 8a87 f73d e8f4 963c
00000040: 5c4b e4bd 9b33 90bd a5db 2dbd 6346 9c3e
00000050: 83ab 85bc ce6b 2dbe a819 2ebd 20aa 783d
00000060: 28a4 c43d 0bb0 de3c 0d66 2e3d 00f7 17be
00000070: a374 fabd abdf 75bc 3077 2ebc 01a1 f13d

value_fc3.weight f4 [1, 32]
-0.6779476 0.2296628 0.34506854 0.12630336 0.14342906 0.831226 1.0377346 0.35895705
-0.27133885 0.23164058 0.15318362 0.7914211 0.6175291 0.07546246 0.26537576 0.6745507
-0.4156577 -0.011202684 -0.4191521 -0.009061628 -0.5491277 0.22978024 -0.030001936 0.27740884
0.26805836 0.34719127 0.5377651 -0.20890969 -0.03270917 -0.009606089 -0.23330107 0.4004526
00000000: f98d 2dbf ba2c 6b3e d3ac b03e ab55 013e
00000010: 11df 123e 3acb 543f 7dd4 843f 38c9 b73e
00000020: edec 8abe 3033 6d3e 2bdc 1c3e 939a 4a3f
00000030: 6316 1e3f 108c 9a3d 55df 873e 5baf 2c3f
00000040: 16d1 d4be 768b 37bc 1b9b d6be 3977 14bc
00000050: a293 0cbf 834b 6b3e 9fc6 f5bc 8808 8e3e
00000060: f23e 893e 0ec3 b13e f9aa 093f 6cec 55be
00000070: 0dfa 05bd dc62 1dbc 7ae6 6ebe 2008 cd3e
