rl/spin_model_11261558/18.pt (torch_old, 159601 bytes, 12 tensors)

log_std f4 [51]
000000 2c 99 92 bd 5d 87 9a 3d 38 85 eb bc 0e 67 16 3e
       -0.071581215 0.0754535 -0.028750047 0.1468775
000010 cd 14 19 bd 16 71 ad 3d 07 b2 87 3d 3c aa d8 3d
       -0.037373353 0.08468835 0.06625753 0.10579345
000020 8e d3 1e 3e 75 4c 0f 3e c1 96 3e 3d d1 fe 46 3d
       0.15510389 0.1399401 0.04653049 0.048582856
000030 60 e1 20 3e 3c 6d 4f 3d 38 72 42 3d 16 ae b9 3d
       0.15710974 0.050641283 0.04747221 0.090664074
000040 ad 7c 82 3d d9 e7 92 3d f5 b4 25 3d 0f 50 49 3e
       0.06371436 0.07173128 0.040455777 0.19659446
000050 38 3b b5 3d 57 be 83 3d 21 05 d0 3d 7f d4 c8 3c
       0.08849186 0.06432789 0.10157228 0.024515389
000060 b5 ab 9a 3d e3 07 b2 3d 65 29 61 3d 9b 89 1d 3e
       0.07552282 0.086929105 0.054971118 0.15384524
000070 3c 25 da 3d 1d 86 98 3d e6 c5 c8 3c 48 19 48 3d
       0.10651633 0.07447455 0.024508428 0.048852235
000080 77 0a fc 3c 64 a1 52 3d 99 4c 39 3e ba cb 08 3e
       0.030766709 0.051423445 0.18095626 0.13358966
000090 ec 87 fd 3d 5c 51 8e 3d 6e af f7 3d 99 cf 96 3d
       0.12379441 0.06949112 0.120940074 0.07363815
0000a0 cb d1 2e 3d 86 d2 77 3d e3 9e 05 3e b4 59 24 3d
       0.042680543 0.060503505 0.13048892 0.04012461
0000b0 03 b4 9c 3d 36 89 c0 3d 2b d7 f7 3c b6 65 a8 3d
       0.07651522 0.09401171 0.030253967 0.08222525
0000c0 51 f1 4e 3d dd 89 d1 3d 9a 32 8b 3d
       0.050523106 0.102313735 0.06796761

policy_fc1.weight f4 [64, 261]
000000 50 46 b9 3d 81 08 0b be 98 62 ff 3c 3b 4d 06 3e
       0.09046614 -0.13577463 0.031174943 0.13115399
000010 22 65 a7 3c 57 8b 45 3d 08 48 09 be 19 f7 93 bd
       0.020433966 0.048228588 -0.13406384 -0.072248645
000020 ae d2 95 3d d5 c8 2c 3d 67 38 64 3d 4f b0 cc 3d
       0.073155746 0.042183716 0.055717852 0.09994566
000030 18 83 23 be 5d 5e c4 3d 3c d6 f0 bd 97 7c 9e b9
       -0.15967977 0.09588311 -0.11759612 -0.00030228935
000040 94 f8 5c 3d 77 d3 22 3d 4c 83 d0 bd e6 3c d6 3b
       0.053948 0.03975245 -0.10181293 0.0065380214
000050 ff 1d 23 3d c1 14 7b 3d a9 dc 96 3d 6f 20 04 3e
       0.03982353 0.06129909 0.07366306 0.12902997
000060 30 00 f5 bd 8f 13 7c bd ca 6f d4 3d c8 90 e2 3d
       -0.119629264 -0.06154209 0.103728846 0.11062771
000070 34 8d a3 bc a0 61 e5 3d 40 e4 f5 bb 07 02 5e 3a
       -0.019964792 0.11200261 -0.007504016 0.000846893
000080 d5 2a db 3d b9 13 5a 3d 62 2a 96 bd 8d e5 8c 3d
       0.10701529 0.053241465 -0.07332303 0.06879721
000090 6b 9d 00 be 97 2a cf bd 77 37 98 3d 63 fb b8 3d
       -0.1256005 -0.10115545 0.07432454 0.09032323
0000a0 42 82 c1 3d 70 75 37 3b 7b d8 2a 3c 8c 32 07 be
       0.09448673 0.0027993582 0.0104275895 -0.13202876
0000b0 10 96 da 3d 7f 66 2f 3d 65 c5 9d 3d c4 49 8f 3d
       0.106731534 0.042822357 0.07703666 0.069964916
0000c0 3a de 69 3d 98 cd 8e bd ff 0e a4 bd 63 f0 46 3c
       0.057096697 -0.06972808 -0.08010673 0.012142274
0000d0 84 27 ae 3c c5 d5 51 3d b0 da 38 bd 76 26 ea bd
       0.021259077 0.051229257 -0.04513043 -0.11433117
0000e0 f9 3b 62 3d 01 ea 6d bd 05 c7 1e be bb 6a ef 3d
       0.055232976 -0.05808449 -0.15505607 0.11690279
0000f0 dd 27 0e 3e 51 36 3e 3c 05 cc da bd 84 1a d8 3d
       0.13882394 0.01160963 -0.10683445 0.105519325
000100 e8 19 6b 3d 5d 1e 1f bd 52 62 6a bc f3 4c 6d 3d
       0.057397753 -0.038847316 -0.014305668 0.057934713
000110 f3 41 18 3c a2 bd e8 bc 97 81 8d bb 00 ef 31 3c
       0.009293067 -0.028410736 -0.004318427 0.010860205
000120 f1 19 31 3e ae fd 6b 3d 7d 74 62 3d d8 27 03 bd
       0.17295052 0.057614975 0.055286873 -0.03202042
000130 05 a2 c5 3d 75 bc 56 3d 23 42 e4 3c 85 1d 40 bc
       0.096500434 0.05242582 0.027863568 -0.011725788
000140 e1 12 d6 bd 63 9d 11 3d 02 a2 d6 bc 5f 9c 2c bc
       -0.104528196 0.035550486 -0.026200298 -0.010535329
000150 00 aa 95 bd 08 c7 60 bd a8 03 63 3d 96 03 ef bc
       -0.073078156 -0.05487731 0.05542341 -0.029176515
000160 f5 b6 9a bd 0e 45 6a bc e8 81 18 be d7 3f e7 bd
       -0.075544275 -0.0142986905 -0.14893305 -0.11291473
000170 9a f5 a7 bd be 82 38 3d ee 49 1b be 76 69 02 3d
       -0.08201142 0.04504656 -0.1516492 0.031838857
000180 22 ac 14 3d 88 08 9e 3d 89 53 ba bd 35 8b ae bd
       0.03629697 0.07716471 -0.09097964 -0.085226454
000190 10 66 8f 3d bb 82 80 bd 0c 84 03 be f4 e3 ec bd
       0.07001889 -0.06274935 -0.1284334 -0.11566916
0001a0 b3 eb 09 bd fc b2 80 3d df d4 bf bd 6b c2 06 be
       -0.033672046 0.062841386 -0.09366774 -0.13160102
0001b0 4e 6f 19 3d ce 7e 08 bd 57 2e 09 bd 01 e9 c5 bd
       0.037459664 -0.033324055 -0.03349146 -0.096635826
0001c0 40 2f 0b bc 3a a7 5f 3b 6f 2d 7c 3d a3 ee 9f bd
       -0.008495152 0.0034126774 0.061566766 -0.07809188
0001d0 e5 de 05 be 10 99 94 3d d1 aa 88 3d 4a ca 94 3d
       -0.13073309 0.07255757 0.06673206 0.07265146
0001e0 39 74 94 3d 47 ed c7 3d 20 0e d5 3d eb 70 ad 3d
       0.0724873 0.09762054 0.10403085 0.08468803
0001f0 f6 fc 74 bd bc 79 de 3d 2c 04 e4 3c 99 85 9c bc
       -0.059811555 0.10863063 0.02783402 -0.019106673
000200 d6 37 95 3d a3 1c df bd 2d 47 03 3d 64 74 ea bd
       0.072860405 -0.10894134 0.0320503 -0.11447981
000210 31 49 5b 3c 0c 51 90 3d bf f0 fb bd c9 63 af bd
       0.013384149 0.070467085 -0.12301778 -0.085639544
000220 ea a6 a7 bd 9e 06 1f 3a 3a 72 ca 3d ac 03 ee 3c
       -0.08186133 0.00060663547 0.09885068 0.029054485
000230 e6 cf 09 bd 84 84 1a 3d 8f 5d e3 bd c5 b7 43 3b
       -0.033645533 0.037724033 -0.11101829 0.0029864174
000240 ec 53 b1 3d 44 fe 80 3d e0 c2 cf bb f0 ba ee bd
       0.08658585 0.06298497 -0.0063403696 -0.11656749
000250 b2 9d 3c 3c d8 13 cd bd a0 be c7 bd 86 88 e1 bd
       0.011512207 -0.100135505 -0.09753156 -0.11012368
000260 93 20 58 bd 96 c7 96 bd 01 64 0d be 13 ca f3 3d
       -0.05276544 -0.07362287 -0.1380768 0.11903777
000270 03 c9 91 3c 66 ef 6b bd 27 fd a2 3c f9 48 9e 3d
       0.017796045 -0.057601355 0.019896103 0.07728762
000280 ce a8 7f 3d 2b 90 f5 bd 84 0f 4e bd 28 8c be bd
       0.062416844 -0.119903885 -0.050307766 -0.093040764
000290 93 b3 86 3d b0 a8 b0 bd 0e 8b 21 be 60 69 70 bd
       0.0657722 -0.086259246 -0.15775701 -0.058694243
0002a0 35 93 a1 3d 9d ba 0b be 62 54 8c bd b9 28 8b 3d
       0.07889406 -0.13645406 -0.06852032 0.067948766
0002b0 62 3e 62 ba 1c f2 16 3e 1f ed db 3d 44 5e e0 3d
       -0.00086305116 0.14740795 0.10738587 0.1095548
0002c0 aa db 83 bc bf a1 9e bd 75 17 f3 3d 0f 59 0a 3e
       -0.016095955 -0.07745694 0.118697084 0.13510536
0002d0 6c d2 be 3d 0f 59 92 3d 23 77 49 bd d6 e9 65 bc
       0.093174785 0.07145893 -0.049185883 -0.014032802
0002e0 69 43 87 bd 0d 48 b7 3d 09 15 76 3d 95 f9 c4 bd
       -0.06604654 0.089492895 0.060078654 -0.096179165
0002f0 82 83 ce 3d 07 07 9e 3d 2f 7b 13 be 36 0b 32 3e
       0.10083677 0.07716184 -0.1440246 0.17387089
000300 2d 3a 0b 3e 49 0a c6 3d c6 38 d1 3d 99 d9 2d bd
       0.13596411 0.096699305 0.10215907 -0.042443845
000310 46 52 b7 3d 65 df 8f 3d 3a f7 13 3e 17 81 d9 3d
       0.08951239 0.07025031 0.14449778 0.10620325
000320 fc 01 36 3d d7 a1 45 3d 77 05 11 3e 4f c3 05 3d
       0.044435486 0.048250046 0.14162241 0.032656964
000330 0d 8e c0 bd a0 ad b7 bc 83 a9 af 3d 7b 00 81 bd
       -0.09402094 -0.022421658 0.08577254 -0.0629892
000340 bb b5 0f 3e 7f 92 1e 3e cb 46 ca 3c 60 b2 62 bd
       0.14034168 0.15485571 0.02469196 -0.055345893
000350 0c 56 59 bd 82 66 3e bd 05 22 b1 3d 61 9b 4e bc
       -0.053060576 -0.046484478 0.08649067 -0.012610287
000360 3a ff 49 3d bb a7 a6 bd cc bd 03 3d 8c e8 ac 3d
       0.04931567 -0.08137461 0.032163426 0.08442792
000370 3e 53 28 3e 36 7f 30 3b 51 56 88 3b da 39 c7 3d
       0.16438004 0.0026931292 0.0041606803 0.09727831
000380 36 3b b4 3d 81 e9 1d 3d 0e 45 93 bd 75 b4 fc bc
       0.08800356 0.038552765 -0.071909055 -0.030847767
000390 a2 df c7 3d 76 10 36 bd 77 60 d0 3d 95 e8 1b 3d
       0.097594514 -0.044449292 0.10174649 0.038063604
0003a0 61 6f d9 bd b0 5c 8c bd 6c b9 05 3e 67 c5 a5 bd
       -0.10616947 -0.06853616 0.13059014 -0.08094292
0003b0 d3 a6 d4 3d 8d 16 f3 3d 35 7a 7b bd be a7 e1 3d
       0.10383382 0.118695356 -0.061395843 0.110183224
0003c0 fd 46 a1 bd 48 c6 a0 bd ab 14 2b bd fb 6b 1d 3e
       -0.07874868 -0.07850319 -0.041767757 0.15373223
0003d0 53 55 05 3d 21 e6 cc 3c ef f6 8f 3d 86 b4 09 3c
       0.032552075 0.025012078 0.07029521 0.008404857
0003e0 d9 aa cf bd b3 e2 90 3d 15 a2 86 bc cc dd 20 bd
       -0.101400085 0.070744894 -0.016434709 -0.039274022
0003f0 d0 77 c8 bd 75 91 16 bd 71 a4 b0 bd 1b eb a6 bd
       -0.097884774 -0.036759812 -0.08625115 -0.081503116

policy_fc1.bias f4 [64]
000000 71 ca 8c 3a 54 95 ee 3a 92 4d cf bb b2 f8 0d 3b
       0.0010741485 0.0018202462 -0.006326386 0.0021663127
000010 35 c4 33 3c 31 6e b6 bb 21 25 22 bb fe f5 be ba
       0.010972072 -0.005567335 -0.0024741369 -0.0014569161
000020 e4 14 86 bc 51 3b e7 bc 94 6b b4 3b 6e 19 80 bc
       -0.016367383 -0.028226526 0.0055059884 -0.015637126
000030 f8 39 cf bb f4 74 56 bb ea b9 1c 39 35 13 24 bd
       -0.006324049 -0.0032723518 0.00014946578 -0.04005738
000040 d8 de 6e bc 95 54 0f 3b fe d8 bd bc 4a f4 93 bc
       -0.014579497 0.0021870483 -0.023174759 -0.018060822
000050 26 14 a4 3b c5 52 f5 3b 66 6d d7 bb 72 ad 83 bb
       0.0050072847 0.0074866735 -0.0065743206 -0.004018479
000060 6f f9 a4 3c 0b b2 5e bb 43 0a 79 bc 09 84 06 3c
       0.02013847 -0.0033980634 -0.0152002005 0.008210191
000070 00 2c fe 3b 08 70 3b bc 50 25 68 bc d8 ea 35 bb
       0.00775671 -0.011440285 -0.014169052 -0.0027758386
000080 17 f8 bb bc 1a 5e f0 bb 93 2c 7a bb ad 9d 4d bc
       -0.022945447 -0.0073354365 -0.003817354 -0.0125498
000090 d4 0c 0b 3c 84 9c e9 bc d0 6b b2 bb 11 08 e9 bc
       0.008486945 -0.028517015 -0.005444981 -0.02844623
0000a0 94 d5 b4 3b bf d2 a1 bc 5d 38 5e bb 7b 20 94 bc
       0.0055186246 -0.019753812 -0.0033908107 -0.018081894
0000b0 c8 95 b9 b9 79 81 b7 bc 0a c6 e9 bb 3b cf b2 b9
       -0.00035397545 -0.022400605 -0.007134204 -0.00034105204
0000c0 62 10 4e bc 9f b6 90 3b c7 fa 27 3c 1e 7a 82 3b
       -0.012577148 0.0044163014 0.010252661 0.0039818427
0000d0 7f 57 f9 bc e7 4e a6 bc 63 a9 e8 3b a8 20 28 bc
       -0.03043723 -0.020301295 0.0071002706 -0.010261692
0000e0 08 1b 1a 3a e9 a0 b2 bb 29 b7 b1 3b 28 ed bf 3b
       0.0005878662 -0.005451311 0.0054234457 0.0058571286
0000f0 94 2a 1b bc fb d5 eb bb 98 fb f9 bb 2e 32 83 bb
       -0.009470601 -0.0071971393 -0.0076288693 -0.0040037846

policy_fc2.weight f4 [32, 64]
000000 b5 00 53 3e e5 70 f8 bd 47 a3 d9 3d 66 ad 53 3d
       0.20605738 -0.12130908 0.10626846 0.051679038
000010 f4 f4 77 bc 98 29 26 be 9d e0 7a be a4 41 f4 3d
       -0.015134085 -0.16226804 -0.24499746 0.119265825
000020 a2 dd 13 be 55 5d 76 be 02 ea e5 3d ab d5 04 3e
       -0.14440015 -0.24059041 0.11226274 0.12972133
000030 af 38 69 bd 65 1b 7d be 3e d1 0e be 12 0f 47 3c
       -0.056938823 -0.24717481 -0.13947007 0.012149589
000040 74 4b 37 be 11 59 1b bb df eb fb bd 9e 01 e0 bd
       -0.17899877 -0.002370421 -0.12300848 -0.109378085
000050 0b e5 1d 3e ef ab 8c 3c ce 95 53 3e 29 78 c2 3d
       0.15419404 0.017171828 0.20662615 0.09495575
000060 14 88 84 be 66 84 30 be 81 f9 38 3e fd 8e bd bc
       -0.2588507 -0.17238006 0.18063928 -0.023139471
000070 10 c0 cc 3d a6 f7 f1 bd 21 14 eb 3c 44 72 be bd
       0.099975705 -0.11814813 0.028696122 -0.09299138
000080 ca 28 3a be 71 fd 59 3d f9 e2 0a 3e e1 3f 33 be
       -0.18179622 0.053220216 0.13563146 -0.17504837
000090 7e 6a 2e be 0c 03 2b be 74 47 3c 3e 9f dc 4c bd
       -0.17032811 -0.16700381 0.18386632 -0.05001509
0000a0 39 7c 27 be c0 c4 07 bd 13 56 8e be bc d8 17 be
       -0.16355981 -0.03314662 -0.27800044 -0.14828771
0000b0 4d 8a 30 3e 24 e9 81 bb b1 4a 66 3e cb 55 29 3a
       0.17240258 -0.00396456 0.2248943 0.00064596225
0000c0 61 22 b3 3d 48 37 29 be e2 79 61 3e f5 e8 0b 3c
       0.08746792 -0.16524994 0.22019151 0.008539428
0000d0 af 4a 62 bd 21 c3 9c bd af 76 2e 3e 08 57 e3 3c
       -0.055247005 -0.076544054 0.17037462 0.02775146
0000e0 7c 26 9f bd b2 44 8d bd 43 83 56 3c 58 04 37 be
       -0.07771012 -0.06897868 0.013092819 -0.17872751
0000f0 16 89 49 bd 2a cf 4c bc 03 35 0f 3e 8e 36 e3 bd
       -0.049203 -0.012500564 0.13985066 -0.1109439
000100 33 13 00 3e a6 75 5a be 55 b6 ce bd 87 6d 78 bd
       0.12507324 -0.21333942 -0.10093371 -0.06065133
000110 f3 5e 55 be 71 b3 20 3e bc dc f5 3c 6e 01 8e bd
       -0.20837002 0.15693451 0.03001248 -0.069338664
000120 d6 dd 5b 3e 76 c8 99 bc 63 03 42 3e 03 1c e9 3c
       0.21471342 -0.018772345 0.18946604 0.02845574
000130 d9 04 41 3e 21 c3 d1 bd 26 a1 ce 3d b7 99 92 bd
       0.18849505 -0.10242296 0.100893304 -0.07158225
000140 60 d5 02 3e 81 98 f7 3d 98 f3 90 bd 0e 14 60 3d
       0.12776709 0.12089635 -0.07077712 0.054706626
000150 f0 30 ab bb 6d 23 90 3d da 86 49 be da 08 4c be
       -0.0052243397 0.07038007 -0.19680348 -0.19925252
000160 f6 d5 4e be 28 22 20 3d a1 bd 84 3e 82 71 eb 3d
       -0.20198807 0.039095074 0.25925925 0.11496259
000170 b2 26 4f be 03 e4 41 be 5c d6 dd 3d 3d 25 45 be
       -0.20229605 -0.18934636 0.108319014 -0.19252487
000180 ad 24 51 3e ad 16 49 be 18 6d 27 be 27 a2 b3 3d
       0.20424147 -0.19637556 -0.1635021 0.087711625
000190 33 bb 53 be 35 49 05 3e 25 cf 2a 3e 45 a5 cc bd
       -0.2067688 0.13016208 0.16680582 -0.0999246
0001a0 4e 02 ca bd 01 79 82 3c 50 1b 73 3e 40 1a 4d 3e
       -0.09863721 0.01592684 0.23740888 0.20029545
0001b0 6d b2 9e bd 12 a3 d5 3d 85 5d 0a bb 8a 61 67 be
       -0.07748876 0.10431494 -0.002111287 -0.22595802
0001c0 2d 1e 42 3e ea 5e ba 3d 39 f7 4d bb e1 ea 92 be
       0.18956824 0.09100135 -0.0031427874 -0.28694823
0001d0 cb e1 67 3d e6 8e bb bd a5 67 83 3e e1 b7 84 3b
       0.056611817 -0.09158115 0.25665012 0.0040502404
0001e0 6a bd c5 3d 1d 72 45 be 5e cb 84 be 18 c1 30 3d
       0.096552685 -0.19281812 -0.25936407 0.0431529
0001f0 4d c4 62 3e bb 93 20 3e 30 18 0a be fc 17 a7 3c
       0.22145195 0.15681355 -0.1348579 0.020397179
000200 20 17 c5 bb 99 f7 c5 3d 81 7b 8f 3d 2b 2c 7b 3e
       -0.0060147196 0.09666366 0.070059784 0.24528567
000210 11 1e 93 3c 5d c7 12 3e 22 3d 24 be ff 8a 1b 3d
       0.017958673 0.14333864 -0.16038945 0.037974354
000220 6b f3 b3 bd 18 87 77 be 53 75 02 ba fc f0 f0 3d
       -0.08786663 -0.24172628 -0.0004976589 0.11764714
000230 34 c8 1f be 77 da 37 3e 3c c5 13 3d 46 f5 de bd
       -0.15603715 0.17954431 0.03607677 -0.10886626
000240 ed b0 23 3c 28 7b 03 3e 3f de b2 bd e7 ee ae bd
       0.009990913 0.12839949 -0.08733796 -0.08541661
000250 53 4d 3a bd b3 21 c2 3d 26 13 60 3e f9 8d 2a 3e
       -0.0454839 0.09479084 0.21882305 0.16655721
000260 c2 60 5a be 75 1a 58 3b 8f 13 f6 bd 5e c6 36 3e
       -0.21325973 0.0032974754 -0.12015449 0.17849109
000270 3b 08 5d 3d 6b 4c cd bd 56 05 55 be 5c 9d e3 3d
       0.053962927 -0.10024341 -0.20802817 0.11113998
000280 25 a0 34 bd 8e 83 10 3e 4e a2 74 be c3 04 45 3e
       -0.04409804 0.14112684 -0.2389004 0.19240098
000290 dc ce 56 be 80 d4 6d 3c f1 b1 23 3e 09 02 e3 3c
       -0.20977348 0.014515996 0.15985848 0.027710931
0002a0 45 df 2a 3d 07 4d 04 3e 40 d3 71 bc f9 ef 06 be
       0.041716833 0.12920009 -0.014759839 -0.1317748
0002b0 59 b7 5e bd 49 8c 42 3d 62 19 5b 3e 10 05 8f be
       -0.054374073 0.047497068 0.21396402 -0.2793355
0002c0 cd e6 09 3b f3 f5 fb 3d 84 86 a4 3d 03 84 c6 3c
       0.002104211 0.123027705 0.08033469 0.02423287
0002d0 ab 08 39 3c 5d 04 82 bd f4 7f 3a be 6f cf a5 bd
       0.0112935705 -0.063484885 -0.18212873 -0.080962054
0002e0 0c 38 84 3e 4a 9c 65 3e ab da 15 3e 6c 8d 33 bc
       0.2582401 0.22422901 0.14634196 -0.010959011
0002f0 7c 25 50 3e 58 d1 c1 bd b3 ef 10 be 5d 62 42 3e
       0.20326799 -0.09463757 -0.14153938 0.18982835
000300 c9 3d 6c be 69 0e 37 3d 18 4f 86 be fb 1c 11 3e
       -0.23070444 0.044691477 -0.2623222 0.14171211
000310 10 63 62 3d f4 9f 05 3e 59 e2 88 3c 8b a5 3b bd
       0.055270255 0.13049299 0.016709493 -0.04581217
000320 6b 7b 9a 3c c3 f3 0b be aa 18 3b bd 43 b2 c0 3d
       0.018857678 -0.13667206 -0.04567782 0.09409001
000330 22 37 73 3e 22 bc 8f 3b bf 89 c1 3d fe ff 36 bd
       0.237515 0.004386441 0.09450101 -0.044677727
000340 82 70 75 bd 81 47 81 be 4c e6 b8 3d 98 99 69 bb
       -0.05992175 -0.25249866 0.09028301 -0.0035644528
000350 02 7b 44 be a5 ea 8f be b5 88 40 bd 63 33 cf 3b
       -0.19187549 -0.28108707 -0.047005374 0.0063232644
000360 63 a4 2b be c0 61 ea 3d c8 5c 80 bd ee bf 9e bd
       -0.16761927 0.114444256 -0.062676966 -0.077514514
000370 1e c7 21 be be 56 00 bc a6 9b 66 3e 9d d4 2a be
       -0.15798613 -0.007833181 0.22520313 -0.16682668
000380 6b 56 a3 3d bf cd 6d 3d b3 2e 55 3e 11 75 ce bb
       0.07975467 0.058057543 0.20818596 -0.0063005765
000390 3d 38 7b be 10 d2 cd bc 01 41 13 be 00 fe 93 3d
       -0.24533172 -0.02512458 -0.14380266 0.07226181
0003a0 00 72 2b be 1e bd 8f bd a4 e3 25 be 28 20 0e be
       -0.16742706 -0.07018493 -0.1620012 -0.13879454
0003b0 d9 76 8e be 84 d3 4d 3e 82 64 b4 3d 27 06 46 3e
       -0.2782505 0.20100218 0.08808233 0.19338284
0003c0 dd 6f ce bc 4a f2 cd bb 17 37 78 be 9d f4 88 be
       -0.025199825 -0.0062849866 -0.24239765 -0.26749125
0003d0 a8 12 0b bc 62 9a 16 be 4d 13 65 be f3 f9 63 3d
       -0.008488335 -0.1470733 -0.22370644 0.055658292
0003e0 37 bb 07 3e 4e 7c 8b 3d 39 cb 2a 3e 20 9c b1 bc
       0.1325501 0.068108186 0.16679086 -0.021680892
0003f0 63 04 79 be ee 45 13 be 81 ac e9 bd 3b 68 e2 bd
       -0.2431808 -0.14382145 -0.11409856 -0.11055037

policy_fc2.bias f4 [32]
000000 e7 c5 10 bd 4f 24 a8 bc 1e 91 ea bb 62 5e 6d bc
       -0.035344984 -0.020525126 -0.0071584126 -0.014487835
000010 e2 46 04 bb e4 bb f4 bc cd e8 e2 ba 05 36 6d bb
       -0.002018385 -0.02987475 -0.0017311812 -0.0036195528
000020 a6 7f 3a 39 4e c5 89 3c 2b eb 7c 3c 71 17 ed bc
       0.00017785895 0.016817715 0.015436928 -0.028941842
000030 e3 d7 cf ba 2c 6c 3c bc 04 5e 50 bc a9 63 07 bd
       -0.0015857186 -0.0115004 -0.012717728 -0.033054028
000040 71 a8 30 bc 1b e6 ba bb ee 7d 60 bc 98 87 1a 3c
       -0.010782347 -0.0057037002 -0.013701899 0.009431742
000050 f5 bf d6 bc 41 19 08 bc 1a d1 1a 3b 51 3c de bc
       -0.02621458 -0.008306802 0.002362317 -0.02712837
000060 18 a9 9c bc a6 af 61 bc 28 94 28 3b 1d d3 61 3b
       -0.019123599 -0.013774788 0.0025723074 0.0034458109
000070 4b bf a7 bc e6 8b 25 bc b0 71 20 bd 55 5c 59 bb
       -0.020476958 -0.010104155 -0.03917092 -0.0033166606

policy_fc3.weight f4 [51, 32]
000000 b0 c0 fb bb 4d 24 72 3e b3 f6 d7 bc da ca 23 be
       -0.0076828822 0.2364666 -0.026362753 -0.1599535
000010 d8 a9 81 3e e5 31 52 3d 32 c9 9f bd 4e 5f 93 be
       0.25324893 0.051317114 -0.07802047 -0.2878365
000020 15 f3 5f be 56 ed 4c 3e 88 84 5a be 51 eb 17 3e
       -0.21870072 0.20012411 -0.21339619 0.1483586
000030 52 a6 f1 bd 5c a8 ea bd 58 23 d5 3d 32 6c 89 3e
       -0.11799301 -0.11457893 0.10407132 0.2684036
000040 fd 9b 36 3e 64 71 0e 3e c1 d4 8f 3e 2e 88 18 be
       0.17832942 0.13910443 0.28092006 -0.14895698
000050 dc c1 17 be 02 25 27 3e c3 83 93 3e 24 a6 d5 3c
       -0.14820045 0.16322711 0.28811464 0.026080199
000060 ce f5 9e bd d6 0f 9f ba b8 0a 07 3e d7 3a 7a 3e
       -0.07761727 -0.0012135457 0.13187683 0.24436508
000070 67 22 e0 bd 8e b0 92 3d 41 30 b5 bd 4c 34 16 ba
       -0.10944062 0.071625814 -0.08847094 -0.0005729839
000080 4f 4f 87 be c4 0c 0c be 22 3f 9e 3b 15 7d 0e 3e
       -0.26427695 -0.13676745 0.0048293034 0.13914903
000090 e4 53 45 3c 17 78 b6 bc 8e 3f 2d 3e 6b e4 85 bc
       0.012043927 -0.02227406 0.16918775 -0.01634427
0000a0 cb 11 e9 3d 73 be 35 be c0 18 80 3d 0f 63 fd bd
       0.11380347 -0.17748432 0.06254721 -0.123724096
0000b0 3d 81 74 bd ca 29 a0 bd 8d 61 5b 3e 08 b9 80 3d
       -0.059693564 -0.07820471 0.21423931 0.06285292
0000c0 e2 87 7b be 00 56 05 3d e3 a7 61 3e e7 21 6b 3e
       -0.24563554 0.03255272 0.220367 0.22962151
0000d0 36 97 0b 3d 91 da 18 3e e6 59 46 3d bf 6e 82 bd
       0.034079753 0.14927126 0.048425578 -0.063687794
0000e0 e8 19 2f bd 8a bc 84 3e 94 dd 2c be 4b bd 2f bd
       -0.042749316 0.25925094 -0.168814 -0.042905133
0000f0 fe a8 4b be fc 40 4e 3e b3 13 cd bd ce 54 44 be
       -0.19888684 0.20141977 -0.10013523 -0.19172975
000100 f3 46 15 be 3d f1 8b 3d 58 18 1d be 70 bb af bd
       -0.14577846 0.06833122 -0.15341318 -0.08580673
000110 93 56 46 be 9b c0 19 3e dc 76 ba bd 81 c2 e1 bc
       -0.19368963 0.1501488 -0.09104702 -0.027558567
000120 96 d5 45 be f5 3b 02 bd 78 de a5 bc 5e 36 b2 3d
       -0.19319758 -0.03179546 -0.020247683 0.08701776
000130 cd 33 0c 3c 05 a1 33 be 04 53 d7 bc 85 dc 77 bd
       0.008557272 -0.17541893 -0.026284702 -0.06051304
000140 11 84 ee 3d ab 10 87 3d e1 15 f9 bd d7 9e 32 bc
       0.116462834 0.06594976 -0.12162376 -0.010902128
000150 d8 42 64 3e e8 82 85 be 65 3d f7 3d 9c 51 aa bc
       0.22291124 -0.26076436 0.12072257 -0.020790868
000160 e9 18 ee 3d bb 3f 9e 3e d8 3b fd bd 6d 13 5e 3e
       0.11625845 0.30907997 -0.1236493 0.21687098
000170 c6 6c 5d 3e df 7e 10 be 79 66 76 3e 67 7b 4c be
       0.21623525 -0.14110897 0.24062528 -0.1996895
000180 c6 44 86 3e ce a2 68 be af d6 84 3d 9f 3e 85 3d
       0.26224345 -0.22718355 0.0648626 0.06506085
000190 a3 d4 e9 bd 75 e5 72 bc f6 7c 56 3c 99 0d ee bd
       -0.1141751 -0.014825215 0.013091316 -0.11623687
0001a0 47 92 84 bd 52 d2 23 bd d2 78 6d 3e 6e da a1 3e
       -0.06473213 -0.0399955 0.2319062 0.3161196
0001b0 27 80 5a 3e 57 d4 3f 3e cd 3a 09 bd 95 64 e9 3b
       0.21337949 0.18733345 -0.033503342 0.007122586
0001c0 43 a8 d5 bd d2 7a ac bd ae 2a 77 be 74 dc 6e be
       -0.10432484 -0.084218636 -0.24137375 -0.23326284
0001d0 24 91 67 bd 33 b9 1a 3e 65 0b e8 3c 97 6d 98 3d
       -0.0565349 0.1510971 0.028325746 0.074427776
0001e0 36 7b 07 3e a1 09 65 bc a5 68 b6 bd 3f 75 53 3d
       0.13230595 -0.0139793465 -0.08906678 0.051625486
0001f0 b9 e8 5e 3e dd 00 0d 3e 85 76 82 bd 35 24 83 3d
       0.21768464 0.1376986 -0.06370262 0.0640339
000200 e7 37 eb 3c af 4c 36 be 80 e1 63 3e 69 0d 3a 3c
       0.02871318 -0.1780269 0.2225399 0.011355736
000210 24 e3 05 bd ae 05 66 3e 6f 5a 1b 3d 58 dc b9 3d
       -0.03268732 0.22463104 0.03792804 0.0907523
000220 31 a0 0b 3e e4 09 24 bd c3 fb 40 3e 35 bf 40 3e
       0.13635327 -0.040048495 0.1884604 0.1882294
000230 56 00 e9 bc 6a 21 a9 3c 4b af 0b 3c 3f 77 37 be
       -0.028442543 0.020645816 0.00852568 -0.17916583
000240 c7 a6 cf 3c f1 e1 81 be 3a 37 72 bd d8 a4 79 bd
       0.02534808 -0.25367692 -0.0591347 -0.060948223
000250 55 cc 89 be 01 d7 52 3c 27 8c 37 bd d2 b3 00 3e
       -0.26913705 0.012868644 -0.044811394 0.12568596
000260 26 c9 1b bd 68 77 6f 3d 71 d9 9a be e1 47 7d 3e
       -0.038033627 0.058463484 -0.3024402 0.24734451
000270 95 15 11 3d c8 f7 25 be 58 dc 0e 3e 2b 7c 81 3e
       0.035420973 -0.16207802 0.13951242 0.25290045
000280 b4 b3 35 be 33 33 93 3d 67 98 ad bc 77 6e 9c 3e
       -0.17744333 0.071875 -0.021190835 0.30553028
000290 8c 06 31 3e d4 8f 80 bd b1 39 55 be f2 6c 76 3e
       0.17287654 -0.06277433 -0.20822789 0.24064997
0002a0 54 bd 01 3e 15 67 42 3d e5 78 98 bb a0 41 50 3e
       0.12669879 0.047461588 -0.0046530836 0.20337534
0002b0 cd c9 c4 bc 12 f6 52 3e be 85 3c be 92 6c 16 be
       -0.024022007 0.20601681 -0.18410394 -0.14689854
0002c0 c2 c1 74 3d 46 58 6b bc 1e b3 28 3e 28 36 00 bd
       0.059755094 -0.014364308 0.16474578 -0.031301647
0002d0 eb 3a eb 3d f0 d7 77 be 90 8a 43 bd 67 30 34 3e
       0.11485847 -0.24203467 -0.047739565 0.17596589
0002e0 27 e7 16 be b0 5d 1c 3e d5 d5 4e 3e 6f 3c 01 be
       -0.14736615 0.15270114 0.20198758 -0.1262071
0002f0 36 22 11 be a6 07 31 be b4 cb 4c bd 50 06 4f be
       -0.14173207 -0.17288074 -0.049998954 -0.20217252
000300 e3 0c 63 3e b1 9a 8d bd 51 8b 5c 3e 5b ce 01 3e
       0.22172885 -0.06914271 0.2153752 0.12676375
000310 72 7e 89 bd 26 fc 65 bd ef 0e 6e 3e 1f 12 31 be
       -0.06713571 -0.05614867 0.23247884 -0.17292069
000320 a9 15 a4 3b ef 74 36 3d e7 d1 08 be cc 2c f9 bd
       0.005007465 0.04454511 -0.13361321 -0.121667475
000330 e7 3a ba 3c d0 29 68 3c bf 1e 67 be 79 11 7e be
       0.022733165 0.014170125 -0.22570322 -0.24811353
000340 d8 94 16 be a3 5b 03 3e 49 14 1a be 45 8f 36 3e
       -0.14705217 0.12827925 -0.150468 0.1782809
000350 83 53 b1 3c 43 02 76 be 2f 53 09 be 5c 62 48 be
       0.021646267 -0.240243 -0.13410638 -0.19568771
000360 9b 08 e1 bd cb 83 45 be c5 67 fd 3d c3 a9 50 3e
       -0.109879695 -0.19288556 0.12373308 0.20377259
000370 c8 1a 35 be 93 d4 93 be 02 bd 0f 3e ef 26 5b 3e
       -0.17685997 -0.2887312 0.14036945 0.2140157
000380 53 8f b8 bc c2 68 72 3e a4 63 bb 3d e6 a8 57 be
       -0.02252928 0.23672774 0.09149864 -0.21060523
000390 65 21 58 3e 88 69 6f 3e 82 a0 c0 bd ce 65 62 bc
       0.21106489 0.233801 -0.094056144 -0.013818217
0003a0 e4 20 81 3e 29 1b a9 be 30 8c a5 bd 2b 28 04 be
       0.25220406 -0.33028534 -0.08083379 -0.12905948
0003b0 14 26 83 bd 9c 8d 2e be 25 46 96 3e 89 6f a6 bd
       -0.06403747 -0.17046207 0.2935039 -0.081267424
0003c0 5d 16 43 be 6f ce 14 3e 2a ae 2a be c4 a4 d8 3d
       -0.190515 0.14531873 -0.16668001 0.105783015
0003d0 f5 35 6f be d6 8b 06 3e 5d 16 96 bd 36 82 01 be
       -0.23360427 0.1313928 -0.07328484 -0.12647328
0003e0 6d 29 e0 3d 94 1a bf 3c f9 53 09 bd 94 fd 32 bd
       0.10945401 0.023328103 -0.03352735 -0.043698862
0003f0 77 5b 40 be d4 85 17 bc 01 57 bc 3c 1d d2 81 be
       -0.18784891 -0.009248216 0.022990705 -0.25355616

policy_fc3.bias f4 [51]
000000 72 f9 77 bd de 30 79 3d ac 6f 0b 3d 66 b4 cb 3d
       -0.060540624 0.06083762 0.034042045 0.09946518
000010 b7 82 cc bc f5 af 96 bc 9f 1b 1d 3c 5e 03 8c bc
       -0.024964673 -0.01839445 0.009589105 -0.01709145
000020 88 9b d3 3b 05 45 c2 3c 7c 50 0c 3d e8 0b 57 3c
       0.0064577498 0.023714552 0.034256443 0.013125397
000030 bb d5 91 3b 70 53 42 3d f5 65 1e bd 12 9c aa bc
       0.0044505275 0.047442853 -0.038671453 -0.020826373
000040 23 f2 1f 3d 94 11 08 bd bf 1a ad bc ae 6a f1 bc
       0.03904928 -0.03321989 -0.021130918 -0.029469814
000050 22 82 32 3c 1c e9 68 bc 24 3a 42 3c 06 41 22 3d
       0.010895284 -0.014215734 0.011854682 0.039612792
000060 01 df 40 ba 5d be d7 3b 6e b4 b3 bc a8 cf b4 3c
       -0.0007357449 0.0065839724 -0.021936622 0.022071674
000070 67 1a a2 bb c6 b4 40 bd 7e b0 52 3d e3 71 f7 bc
       -0.004946995 -0.0470474 0.051437847 -0.030205673
000080 9d 06 dd bc 52 28 08 bd 82 31 4e bd af 44 0c 3c
       -0.026980693 -0.033241577 -0.050340183 0.008561297
000090 c9 12 e8 bc f0 40 41 3d 56 c0 f1 bb 63 55 9f bb
       -0.02832927 0.04718107 -0.0073776646 -0.004862474
0000a0 44 1b 75 bb 5f a8 93 3c 27 56 02 3d c6 ee 62 3d
       -0.0037400285 0.018024622 0.031820443 0.055403493
0000b0 a8 5f ed 3b 83 4e e1 3b 97 4c 3b 3d d4 68 a0 bd
       0.007244069 0.0068758144 0.04572734 -0.078324944
0000c0 08 ee 84 3c 9c a2 fd bc 88 e6 b2 bc
       0.016226783 -0.030961327 -0.021838441

value_fc1.weight f4 [64, 261]
000000 07 ad 69 3b 7e 7e d4 bd 0b 08 07 be 6c 74 aa 3d
       0.003565611 -0.10375689 -0.13186662 0.08322987
000010 c0 5e fb bd 6c 6f 9a 3d 27 de 02 be 94 c3 10 3e
       -0.122739315 0.07540783 -0.12780057 0.14137107
000020 e1 30 94 3d ec c3 03 be 3d 1a 18 3e 12 75 a1 3d
       0.072358854 -0.12867707 0.14853759 0.078836575
000030 60 29 f7 bd 94 f8 f7 3d 8d 15 a1 bb fe 9c 36 bd
       -0.120684385 0.121079594 -0.004915899 -0.044583313
000040 78 26 b1 bd 7a 89 8d bd aa 5d 24 3d 45 fc a4 3d
       -0.086499155 -0.06910987 0.040128388 0.08055929
000050 a9 fa 39 3d cb 90 e6 3b d5 df 11 be 97 94 b2 bd
       0.045405064 0.0070363036 -0.14245541 -0.087197475
000060 3f 75 02 3e ba 89 be bc d9 43 fb 3d 6f 34 a0 3d
       0.12740038 -0.023259033 0.122688 0.07822501
000070 9b fd 02 3e 56 f3 7c bc a4 83 62 bd da d6 81 bc
       0.12792055 -0.015438875 -0.055301324 -0.01584952
000080 99 79 2f 3d 3e 99 70 bd 5b 74 e6 3d 9e 82 a5 bd
       0.042840574 -0.058739893 0.11252662 -0.08081554
000090 5a a3 f8 3d fe cc 09 3d 49 8c 5b 3d 6d d2 c8 3c
       0.12140532 0.03364276 0.053600583 0.024514401
0000a0 ca 96 0c 3e 41 b9 87 3c ca 62 93 3d 2e 57 43 3e
       0.13729396 0.016567828 0.07196577 0.19076225
0000b0 10 0d 8b bd be 7c b6 bd 37 aa 28 bc 6e b5 b7 bc
       -0.06789601 -0.089105114 -0.010294489 -0.02242538
0000c0 f8 b7 f4 bc cd ec 41 3d 8c 8e 3d bc b7 81 8a 3d
       -0.02987288 0.04734497 -0.01156963 0.067630224
0000d0 b4 0d 80 3e a8 d1 ae bd d2 cb e0 3d 2d 19 37 3e
       0.25010455 -0.085360825 0.10976376 0.17880698
0000e0 02 f0 87 bc 3b b2 76 3d 10 8e 9b 3d b4 ee 10 3d
       -0.016593937 0.060228568 0.07595456 0.035383895
0000f0 f5 91 99 bc ce eb 25 bd f0 3b 8b 3c e0 d0 b9 3b
       -0.018746356 -0.040508084 0.016996354 0.005670652
000100 1c 9f 66 3d 85 3a 13 bc f0 54 33 be 10 ca 2c 3e
       0.056304082 -0.00898612 -0.1751287 0.16873956
000110 ca 9b 83 3e 08 b5 11 be 55 03 a4 bd 71 64 01 3d
       0.25704795 -0.14229214 -0.08008448 0.03158993
000120 3d 2d 5d 3c 1d 92 b9 3c 14 03 aa bc bb 76 d0 3c
       0.013499555 0.02265268 -0.02075342 0.02544724
000130 d8 d5 6e 3d d2 45 71 bd df d6 df 3d a2 67 10 3e
       0.058309406 -0.058904476 0.10929655 0.14102033
000140 29 6a 8f bd 99 6d ee 3c 48 f1 be 3d f2 b1 b8 3d
       -0.0700267 0.029104995 0.093233645 0.090183154
000150 dd 4e fc bd 23 e7 26 bd 4d dd 16 be cf 39 d2 bd
       -0.123197295 -0.040747773 -0.14732857 -0.10264932
000160 55 47 07 be 46 62 06 bd 4b 47 fc 3d d0 f3 ce bb
       -0.13210805 -0.032808565 0.123182856 -0.006315686
000170 cd 9d 85 bd 00 81 b5 bd da c7 38 3d 38 e8 83 bd
       -0.06524239 -0.088624954 0.04511247 -0.064407766
000180 19 17 43 be e7 4c 07 be 25 d2 85 bd dc 57 42 bd
       -0.1905178 -0.1321293 -0.065342225 -0.04744707
000190 01 12 5d be 32 3a 80 3d 08 9d 86 3d a0 de 36 bb
       -0.21588899 0.062611 0.0657292 -0.002790369
0001a0 02 0a e1 3c 77 e5 e8 bd 26 93 dc bc 8d 0f 5d bc
       0.027470592 -0.11371892 -0.026925635 -0.013492477
0001b0 44 20 03 be 8a c8 e3 bd 10 15 72 bd 97 e1 a4 bd
       -0.12805277 -0.11122234 -0.059102118 -0.0805084
0001c0 06 93 0f be e0 3a 82 3d da 3f 17 3e 55 a3 56 bd
       -0.14020929 0.06358886 0.14770451 -0.05240186
0001d0 ae 3c 2f 3d 4e ce f7 3d 3b 63 46 3c 2a d2 76 3a
       0.042782478 0.12099896 0.012108619 0.0009415472
0001e0 6c da d2 bd 8e f7 86 3c 66 29 45 bd e3 46 df bd
       -0.10295567 0.016475465 -0.048135184 -0.109021924
0001f0 e9 eb 79 bd f6 aa d8 bd 94 10 e8 3d 75 c6 82 bc
       -0.061015997 -0.10579483 0.11331287 -0.015963772
000200 b1 c4 4a bd 3d 36 26 3d d7 d1 54 3d 38 fc 57 3e
       -0.049503986 0.04057907 0.05195793 0.21092308
000210 b0 6b 33 be 5d 9b 17 bb 36 93 90 3c c6 e3 16 3d
       -0.17521548 -0.0023133375 0.01764832 0.036838315
000220 e8 6c 89 be 89 74 73 bd a2 02 b3 bd 3e 72 ee 3d
       -0.268409 -0.05943731 -0.087407365 0.11642884
000230 57 94 15 be a1 6e 25 3d e4 4d 21 bd 5c 0d 4f bc
       -0.14607368 0.040388707 -0.039380923 -0.0126374625
000240 37 34 82 3b 9a c4 f0 3d 34 d1 8b 3b 0e a7 56 bd
       0.0039735097 0.11756249 0.0042668823 -0.05240541
000250 f6 4c 46 3d c9 9d 07 3d 80 4f 85 bd c5 82 a5 3d
       0.04841324 0.03310946 -0.06509304 0.08081583
000260 69 f7 0d be ff 6a d7 3d e4 3b 25 bd 4c 75 bb 3c
       -0.1386391 0.10518455 -0.04034032 0.02288308
000270 72 a8 86 3c 4e 3b 88 bd 12 69 0d be 47 81 65 3d
       0.016437743 -0.066519365 -0.13809612 0.05603149
000280 21 08 cf 3d 86 85 d9 bd dc 18 b0 bd 67 04 f5 3b
       0.10108972 -0.10621171 -0.085984915 0.0074773314
000290 6f 7b c3 bd f3 8d 66 bd 4a 95 9e bd 61 d3 9a 3b
       -0.095450275 -0.056287717 -0.077433184 0.0047249054
0002a0 2b e0 a5 bd 80 ff 00 bd 36 91 17 be 6e 29 80 bd
       -0.08099397 -0.031493664 -0.14801487 -0.06257902
0002b0 94 dc f3 3d 60 af e2 3d 55 72 ac 3d 83 7b e6 bd
       0.11907306 0.110686064 0.084202446 -0.11254027
0002c0 1c 54 f0 bd 8b 01 dc 3d d9 7f 8a bc e3 7a a5 3d
       -0.117347926 0.10742482 -0.016906666 0.080800794
0002d0 cb 66 e7 3c 1c b7 eb bd 39 58 4d 3d 3e db ca bd
       0.028247258 -0.11509535 0.050132964 -0.099050984
0002e0 c2 c7 00 3e 95 7c 90 3d 96 1d 92 3d d0 47 00 3e
       0.12576202 0.07055012 0.07134549 0.12527394
0002f0 51 24 e3 3c 41 6f a9 bd bc 4d 4c 3c 22 6f 01 bd
       0.027727278 -0.08273173 0.012469705 -0.031600125
000300 59 b9 f8 bc 06 cd 9c bd 9d 65 a5 bd fd fe b3 3d
       -0.030361818 -0.076562926 -0.08076022 0.087888695
000310 a2 7b d9 3d fc 6a 9d 3d f4 b5 99 bd c0 15 58 bd
       0.10619284 0.07686421 -0.07505408 -0.052755117
000320 6a 26 b7 bd 55 c1 c2 3c db 66 d9 bb a8 16 27 be
       -0.08942874 0.023773829 -0.006634576 -0.16317236
000330 17 8c 9c 3d 19 74 c8 3c 97 af 99 bd 9a 40 c8 3d
       0.076439075 0.024469422 -0.07504194 0.09777947
000340 1d 91 0d be e2 05 9e b8 aa 3f 01 3e 95 ce 41 3d
       -0.13824888 -7.535123e-05 0.12621942 0.047316153
000350 fb 23 a8 bd 47 ad 99 bd 3a da c4 bd 7d a7 92 3c
       -0.08209988 -0.07503753 -0.09611936 0.01790213
000360 f8 af 4c 3d 90 94 9f 3b 4f 81 b7 bc 4f 17 13 bd
       0.049972504 0.004870005 -0.022400526 -0.0359109
000370 88 5d be bc 44 a0 3c 3d 23 b4 b4 3d d4 f6 97 3d
       -0.023237959 0.04605128 0.08823421 0.074201256
000380 21 23 22 bd 7e 13 e0 bc 7b 68 c0 3d cf 68 39 bd
       -0.039584283 -0.027353045 0.09394928 -0.04526597
000390 db 4b f8 bd db e5 67 3c 4e 85 ec 3b ce 74 9a 3d
       -0.12123843 0.014153923 0.0072180396 0.0754181
0003a0 fd 2f 70 3c 52 7b f5 3d db 4c b0 3d bc 4a 86 3d
       0.014659879 0.11986412 0.08608409 0.06557223
0003b0 08 12 de bc b8 b4 f9 bd fa 2d f0 3d 4a 6f 92 bd
       -0.027108207 -0.121926725 0.11727519 -0.07150133
0003c0 10 f9 8a ba 86 43 6c bd e0 0f f0 bc 09 62 72 3d
       -0.0010602791 -0.057681583 -0.029304445 0.059175525
0003d0 d4 ff cf 3c 51 39 9f 3b 20 0c a8 bd 6f 22 2a bb
       0.025390543 0.0048591276 -0.08205438 -0.0025960465
0003e0 28 1c 07 3d f3 98 81 bd be b6 4f bd a7 93 0e be
       0.032985836 -0.06328001 -0.050711386 -0.13923512
0003f0 bc da e4 3d 69 13 e0 3c fc 1a c2 3d 39 bb 03 be
       0.11174533 0.027353005 0.09477803 -0.12864389

value_fc1.bias f4 [64]
000000 f3 8b f5 b9 13 37 2b 3c df 04 17 bb c2 56 d1 3c
       -0.00046834312 0.010450142 -0.0023043675 0.025554065
000010 a2 bb dd 3a 1f 12 8b 3c c7 2d ad bc 14 03 4d bc
       0.0016916881 0.016976414 -0.021139992 -0.012512941
000020 fd 29 aa bb 23 1c bb 3c 06 c4 f4 3c 4d 6e b0 bc
       -0.0051929937 0.022840565 0.029878628 -0.02153697
000030 65 ef 77 bc a8 d4 9d bb 70 94 1b 3c d1 da 36 3c
       -0.01513276 -0.0048166104 0.0094958395 0.011160568
000040 0e 2e 12 bc e4 3c e2 3c 9a 8f 53 bc 75 28 4b 3b
       -0.008922113 0.027616926 -0.012912655 0.0030999456
000050 d1 b9 15 3c 2f 30 90 bb c1 1f c9 bb 44 08 22 bb
       0.00913854 -0.004400275 -0.0061378186 -0.0024724165
000060 95 02 b0 bc 75 4a 6e 3c 11 68 33 bc de 18 08 bc
       -0.021485606 0.014544119 -0.010950104 -0.00830671
000070 06 4f 53 3b fa 1e 80 bc 86 aa a0 bc 18 96 d1 bc
       0.0032243147 -0.01563977 -0.019612562 -0.025584266
000080 f8 b8 9b 3b d5 53 9c 39 4b 2d 3b 3c 46 14 17 3b
       0.0047522746 0.00029817098 0.011424373 0.0023052855
000090 fb 15 b1 3c 5c 88 d2 3b 5b 5b dd 3b a1 25 00 bc
       0.021616926 0.0064249467 0.006755275 -0.007821471
0000a0 fb d6 d4 3b ea c1 6a bb 8f a5 ca 3c 0a 97 1b 3a
       0.006495354 -0.0035821148 0.024737148 0.00059352873
0000b0 b6 22 62 3c 87 b5 9f 3b 16 76 97 3c f7 63 14 bc
       0.013802221 0.0048739347 0.018488925 -0.009057037
0000c0 e4 e1 f7 bb c5 98 81 3c 0f cd 4b bd 40 55 81 bd
       -0.00756477 0.015819917 -0.049756106 -0.06315088
0000d0 95 e4 a8 bc 8b e2 7d 3c ee 95 d9 bb 26 79 0b 3c
       -0.020616809 0.015495907 -0.0066401875 0.008512771
0000e0 dc 26 6e 3c 77 9d 45 3c 6b 3c f1 3b 38 55 a1 3c
       0.014535632 0.012061468 0.0073619387 0.019693956
0000f0 7b 7b ff bb 1f 34 70 bd a5 47 9d bb 07 c9 ce 3c
       -0.0077967024 -0.058643457 -0.0047998005 0.025242342

value_fc2.weight f4 [32, 64]
000000 9b db 25 be dc 8c 61 3d 21 a4 07 3e 0b 20 b5 bd
       -0.16197054 0.055065975 0.13246204 -0.08844002
000010 ef 86 01 3e 18 12 1b bd 69 ca 5a be 05 44 df bd
       0.1264913 -0.037859052 -0.21366276 -0.109016456
000020 71 e8 81 be ba 0c ca 3d 82 ee 02 bd 0d cf 86 be
       -0.2537265 0.09865709 -0.03196574 -0.26329842
000030 61 e6 72 3e 09 1a ff bd 78 c9 07 3d 1b 0a 06 3e
       0.23720695 -0.12456138 0.03315112 0.13089792
000040 70 5e 03 be 46 97 f8 bc b1 00 6d be 27 40 14 be
       -0.12828994 -0.03034557 -0.23144795 -0.14477597
000050 a2 7a 9d 3d 46 d6 de bd 4c e8 7c bd cf e1 3d be
       0.07689406 -0.10880713 -0.061744973 -0.1854317
000060 71 03 f9 3d 32 da 8c 3e 2b dc 3e be b9 2c 32 be
       0.121588595 0.2751022 -0.18638675 -0.17399873
000070 a6 87 d5 3d 89 54 47 be a3 e8 a0 3d fa 2c 33 3e
       0.104262635 -0.19465841 0.07856872 0.17497626
000080 c7 d7 26 be 69 8b 5b 3e 8b 8a f5 bd 00 0c 08 be
       -0.1629325 0.214399 -0.119893156 -0.13285828
000090 73 b2 15 3e 55 7e 49 be cc b7 94 be b6 60 31 be
       0.14618854 -0.19677098 -0.29046476 -0.17322049
0000a0 ef 4b 42 3d 81 f8 5c be 25 7a 3b 3e ff 8f 5e be
       0.047435697 -0.21579172 0.18308313 -0.21734618
0000b0 7e 66 25 bd 18 81 08 be 14 f1 d4 ba 8d 1c 78 3c
       -0.040380947 -0.13330495 -0.0016246163 0.015143526
0000c0 c8 c9 b1 3c 87 d4 aa be e8 48 89 bd 31 e1 84 3b
       0.021702662 -0.3336527 -0.06703359 0.004055165
0000d0 74 ed ea bb c3 62 82 bd ac 51 e2 3d c9 2c 43 bd
       -0.00716942 -0.063664936 0.11050734 -0.047650132
0000e0 bf 63 54 bd 49 6f a3 be 5d 23 50 be 1b 5c 8d 3e
       -0.051852938 -0.3192084 -0.2032599 0.27609333
0000f0 ac e7 7a be 4c 45 61 3e 19 a5 2a be fa 69 8a 3e
       -0.24502438 0.21999091 -0.16664542 0.2703398
000100 50 53 87 bb 28 2e 18 be c5 4b c2 bd 5c cf 7c be
       -0.0041298047 -0.14861357 -0.09487108 -0.24688476
000110 7f 61 e1 3d 96 ce 20 3d c3 05 60 3e ba d3 87 3c
       0.11004924 0.039259516 0.21877198 0.016580451
000120 78 99 b8 bd b6 24 bc be 40 71 f8 3d 5c 47 26 3d
       -0.09013647 -0.36746758 0.12130976 0.040595397
000130 e2 28 98 bc 0d 6d dd bd 01 8d 4b be cd 8e d5 bd
       -0.018574182 -0.108118154 -0.19878007 -0.10427628
000140 22 f4 b8 3d 00 a4 b1 3d 81 6c 3a 3e 60 66 47 be
       0.0903094 0.08673859 0.18205453 -0.19472647
000150 e5 48 e7 bc b6 de a8 3d 7b c6 0b bd 15 5c 98 3d
       -0.028233001 0.08245604 -0.034124833 0.07439438
000160 03 e9 a1 be 87 c7 31 be de 6c 81 be a9 44 80 be
       -0.31623086 -0.1736127 -0.25278372 -0.25052384
000170 2a ff 43 be c0 73 f1 bd 7b ea f3 3d e8 a2 e4 3d
       -0.19140306 -0.11789656 0.11909958 0.111638844
000180 ca 2f 35 be 28 21 79 3d ca 03 ef 3d 8f 5d f7 bd
       -0.17694011 0.060822636 0.116706446 -0.12078392
000190 86 64 e5 bc 40 6f 84 be 37 89 d8 bc 3c 91 82 be
       -0.028002035 -0.25866127 -0.026432617 -0.2550143
0001a0 fc 77 d5 bd 74 4c 2c be 31 56 fe 3d d6 ef 11 be
       -0.10423276 -0.1682604 0.124187835 -0.14251646
0001b0 50 3d 44 3e 06 8c 3c bd 5f 2d 45 be 0b 7f b2 3d
       0.19164014 -0.046031974 -0.19255589 0.08715638
0001c0 1d d3 20 3e f1 fe 75 bd cc 20 4d 3e 0f e1 8f 3c
       0.15705533 -0.060057584 0.20032042 0.017563371
0001d0 09 91 25 bc 52 29 e9 3d 2a f6 36 3e 91 b3 b3 3d
       -0.01010538 0.11384834 0.17867342 0.08774484
0001e0 79 57 8d 3d 21 c2 29 bc 9a 2e ee 3d d7 e2 d2 bd
       0.0690145 -0.010361225 0.11629982 -0.102971725
0001f0 0f b1 2e 3c 20 49 ba bd ef ce 59 be cb b6 66 be
       0.010662331 -0.09095979 -0.21270345 -0.22530667
000200 5a 93 98 bd 50 a2 2b 3e d8 94 a5 3d c8 b4 eb bd
       -0.0744998 0.16761136 0.0808503 -0.11509091
000210 5c 4d 96 3e 91 21 5b be 6f 17 20 be 7b ae ab bd
       0.29355896 -0.21399523 -0.15633939 -0.08382889
000220 fa cf 6a 3c 0d 77 6e 3e 39 c3 6f 3e b8 8b 7a 3e
       0.014331812 0.23287602 0.23414315 0.24467361
000230 74 1a ef bd 33 e5 8f bd c1 7d 1b bd 8f e2 33 bd
       -0.116749674 -0.07026138 -0.037961725 -0.043917235
000240 01 eb a4 3d 01 e9 27 be f9 c1 28 bd 58 71 18 be
       0.08052636 -0.16397478 -0.04120061 -0.14886987
000250 4f 7e 02 be 1c ad 86 be 7d 92 3a be b8 17 23 bd
       -0.12743495 -0.26303947 -0.18219943 -0.03981754
000260 05 16 82 3e 99 e6 8b bd 77 ac 26 3e ac aa 5f 3e
       0.25407425 -0.068310924 0.16276728 0.2184245
000270 0c 79 28 3c 65 c0 59 bd 41 5f 1f be 85 8a 07 3e
       0.010282766 -0.053161997 -0.1556368 0.13236435
000280 af a5 4a 3c cf 26 ba be 87 27 2d be 60 61 68 bd
       0.012368604 -0.36357734 -0.1690961 -0.05673349
000290 18 a9 f7 bd b7 3a 8a be 44 0a a8 ba 6f 2e 69 bd
       -0.12092799 -0.2699792 -0.0012820442 -0.05692905
0002a0 f7 26 6c 3e 37 c1 66 3b 43 21 1c be 36 1c 63 bd
       0.23061739 0.003521038 -0.15247063 -0.055446826
0002b0 1e 66 8d 3d 01 c9 ee bd d5 26 d7 3b 7c 38 8d 3d
       0.06904243 -0.11659432 0.0065659084 0.06895539
0002c0 eb 18 59 be 1f 53 32 be f2 ba f5 bd c6 c8 55 3d
       -0.21200912 -0.1741452 -0.119985476 0.052193426
0002d0 3c 86 ac 3b 0f 86 3f 3e fe a8 60 3e 6f 97 d7 bd
       0.0052650254 0.18703483 0.21939465 -0.105269305
0002e0 59 b5 0a be 97 d3 8f be 10 bc a4 3c 37 80 15 bc
       -0.13545741 -0.28091118 0.020109206 -0.009124807
0002f0 6e ef 16 3e 85 ed 86 bd ac 64 ea bd d6 0f 61 be
       0.14739773 -0.06588272 -0.11444983 -0.21978697
000300 ef 61 d9 bd 55 54 3c 3e 56 a1 80 3b bd 7a c7 3d
       -0.106143825 0.18391545 0.0039254827 0.09740207
000310 ab 1b fb 3b 64 d5 f6 3d 2b 4a 70 3d a1 28 94 bd
       0.0076632104 0.1205242 0.058664482 -0.07234312
000320 0a 5e 9d 3d de b3 46 3e 74 7b 45 3c aa 3e 0a 3e
       0.07683952 0.19404551 0.012053359 0.13500467
000330 9d a7 33 3d f2 d8 ab 3d cd c8 06 bb e9 3d af 3d
       0.04386102 0.083909884 -0.0020566464 0.0855673
000340 48 76 33 be b6 11 4c be a7 1f c6 bd 8b 51 60 be
       -0.1752559 -0.19928631 -0.09674006 -0.21906106
000350 01 f3 3f 3e 27 0c 77 be 99 85 48 3e fa 7f 3a 3e
       0.18745042 -0.2412573 0.19582213 0.18212882
000360 cf f1 24 be dd 90 45 3e d3 a4 02 be ca 47 bb 3d
       -0.16107868 0.19293542 -0.12758188 0.09144552
000370 77 b8 26 bd 23 75 14 3d a4 e9 14 be 3f e1 ef 3b
       -0.040703263 0.036244523 -0.14542252 0.0073205526
000380 2e 3d 0f 3c aa d2 38 be 9f 3d 39 3d cd 10 21 3d
       0.008742614 -0.18049112 0.045224782 0.039322663
000390 75 38 62 3e 12 2b 99 3d 7a be 0f bb 46 56 de bd
       0.22091849 0.07478918 -0.0021933601 -0.10856299
0003a0 a6 d2 ec 3d 06 23 9c bc e0 b1 35 be 06 8f 9a bc
       0.115636155 -0.01905967 -0.17743635 -0.018867027
0003b0 8b f0 ce 3d 4d b5 38 3e 00 f4 5c be d4 ac 6c bd
       0.10104474 0.18037911 -0.21577454 -0.05778201
0003c0 62 e4 ff 3d e5 70 2f 3e f4 ed 36 3d 75 e8 7c 3d
       0.124947324 0.1713291 0.044660524 0.061745126
0003d0 7d fe dd bd b3 21 01 3e 3a 13 a3 bd eb ab 18 be
       -0.108395554 0.12610511 -0.079626516 -0.14909332
0003e0 8f 97 fd 3d 8e e9 4d be ab 76 1a 3e 2d 12 46 3e
       0.12382423 -0.20108625 0.1508433 0.19342871
0003f0 6c 90 c3 bd 7d 88 71 3c 0d 17 28 be e8 19 49 3e
       -0.09549031 0.014742014 -0.16415043 0.19638789

value_fc2.bias f4 [32]
000000 d6 40 88 3b 58 2e 4f bd c8 14 8a bd a3 ef a7 3c
       0.0041581197 -0.050581306 -0.06742245 0.02050001
000010 72 cf 74 3d 1d 33 33 3d b4 69 9a 3c 3b 79 18 3c
       0.059768148 0.043749917 0.018849231 0.009306247
000020 94 61 97 bc b0 7f c9 bc c8 14 71 bd 3b 9e 2d 3c
       -0.018479146 -0.024597019 -0.05885771 0.010596807
000030 aa d3 16 3d d7 94 0e 3d e7 82 87 3c ff b1 cc 3c
       0.036822952 0.034809913 0.016541911 0.024987219
000040 15 be dd bc d6 02 85 bc 4b c8 8c bc a8 dd 7e 3d
       -0.027068177 -0.016236704 -0.01718535 0.062223107
000050 11 98 a0 bb 52 79 3a bd d4 f4 c1 bb cb 8b 14 bc
       -0.00490094 -0.045525856 -0.0059190784 -0.009066532
000060 d8 65 a7 bc e5 d2 1c 3c 21 f5 59 3c 77 27 4f 3c
       -0.020434305 0.009571766 0.013303072 0.0126436865
000070 7a 99 23 3c ad 57 d0 3c 46 1c 31 bc b7 3f 17 3d
       0.009985322 0.025432432 -0.010809964 0.036925998

value_fc3.weight f4 [1, 32]
000000 0f 07 3f be 3f 33 cd 3d 4e 2f 3f 3d 50 a3 44 3e
       -0.18655036 0.1001954 0.046675973 0.19202924
000010 ad 11 a6 3d 36 0c cd 3e 75 1d 41 3f f5 38 b9 3e
       0.0810884 0.4004838 0.7543557 0.36176267
000020 00 7f ce bd 1a 5e 86 3d 27 c3 f8 3c 0a 8a bd 3e
       -0.10082817 0.06560917 0.030366493 0.37019378
000030 39 de 0c 3f 92 9c 18 bd 51 e0 2e 3e 05 f1 14 3f
       0.55026585 -0.037258692 0.17077757 0.58180267
000040 18 3a b9 bd c2 bc 74 be 40 21 8b be e5 22 18 bd
       -0.09044284 -0.2390013 -0.27173805 -0.037142653
000050 84 eb 88 be 28 6d 88 3e a7 fd ec bd 9c 8f 2f 3e
       -0.26742184 0.2664578 -0.11571818 0.17144626
000060 f4 c1 ff 3b 6d 65 73 3e d6 4a 96 3e 14 93 fd bc
       0.0078051034 0.2376916 0.2935397 -0.030953921
000070 03 c1 34 3c 2e 2e e0 3d 2e 5b 38 be e6 ee 76 3e
       0.011032346 0.10946308 -0.18003532 0.2411457
