rl/spin_model_11261558/61.pt (torch_old, 159601 bytes, 12 tensors)

log_std f4 [51]
000000 67 55 b8 be fe 45 06 be 9f ed 93 be fa ae 00 3e
       -0.36002657 -0.13112637 -0.28892228 0.12566748
000010 4d 7c e4 3c 22 f8 dc bc 4e ec 6e bc 17 2b 36 3d
       0.027891302 -0.026973788 -0.014582707 0.044474687
000020 c9 6e 12 3e 5f 70 83 3d de 35 6a bb cc 11 40 bc
       0.14300074 0.064179175 -0.0035737674 -0.011722993
000030 a9 9e d8 3d 4d 9e b2 3d d5 31 11 bd ba 21 d0 3d
       0.10577137 0.087216 -0.035447914 0.10162683
000040 1e bf 9f 3c b2 ba 92 3d ef b8 2a 3d 94 18 05 3e
       0.019500311 0.071645156 0.041680273 0.12997657
000050 3d ab d8 3d df d1 b8 bb e6 a0 f6 3d a7 c7 fd bd
       0.10579536 -0.005640253 0.12042408 -0.12391596
000060 04 03 05 3e 85 f6 2b 3d ae 32 ce 3b 50 90 5f 3e
       0.12989432 0.041983146 0.0062926626 0.21832395
000070 6e 91 dc 3d 0c d8 37 3c 00 b3 5d 3c 8e 1c 6f 3d
       0.10769926 0.011220943 0.013531446 0.05837684
000080 b0 38 07 be ee 9f 2d 3d 54 37 5b 3e d1 b9 28 3d
       -0.13205218 0.04238885 0.21407825 0.041192833
000090 68 0e 6b 3d eb e0 58 3d 89 e6 49 3e 74 80 45 3d
       0.057386786 0.052948873 0.19716848 0.048218206
0000a0 93 82 a7 bd 66 c7 34 3d 4f 15 6c 3d f3 e9 27 bd
       -0.08179202 0.044135474 0.05763751 -0.040994596
0000b0 70 5e 63 3d 53 b7 d3 3d ed 63 ab bb b7 22 26 bd
       0.055509984 0.10337701 -0.005230418 -0.04056045
0000c0 53 6d 91 3c 70 fa 85 3d 1c a7 fc 3d
       0.017752325 0.06541908 0.12336561

policy_fc1.weight f4 [64, 261]
000000 22 34 be 3d 81 08 0b be 98 62 ff 3c 3b 4d 06 3e
       0.09287287 -0.13577463 0.031174943 0.13115399
000010 f5 94 b3 3c 48 73 3f 3d d7 cd 0a be eb 5c b8 bd
       0.021921614 0.0467408 -0.13555084 -0.09002098
000020 b3 36 91 3d e7 20 0e 3d 47 66 4d 3d 14 a4 c9 3d
       0.07090511 0.034699347 0.050146367 0.098457485
000030 ef c6 27 be 5c ee b9 3d 79 2a f3 bd 9c 62 25 bb
       -0.16384481 0.090786666 -0.118733354 -0.0025235778
000040 89 10 63 3d 68 bb 1c 3d 28 77 cd bd 3e 2b f8 3c
       0.05543569 0.038264662 -0.10032493 0.030294057
000050 69 57 1d 3d 28 f3 87 3d e0 a9 8b 3d 54 7d 02 3e
       0.03841344 0.06638175 0.068195105 0.12743121
000060 ad ec f0 bd d5 42 8a bd 3b 35 d2 3d 80 df e9 3d
       -0.11763892 -0.067510284 0.10264059 0.11419582
000070 34 8d a3 bc ba 6d e8 3d 40 e4 f5 bb 41 75 80 3d
       -0.019964792 0.11349054 -0.007504016 0.062723644
000080 58 2f de 3d f5 16 5a bd a7 c9 95 bd 58 ab 92 3d
       0.10848874 -0.05324455 -0.07313853 0.071615875
000090 e5 c7 3b be da e2 20 bd fa 3b 9b 3d a1 67 84 bc
       -0.18337972 -0.039278843 0.07579799 -0.016162695
0000a0 ba f1 0d 3e e1 11 41 ba 9b 5b 24 bc 07 dd 9d 3d
       0.13861743 -0.000736503 -0.010031606 0.07708173
0000b0 1a be bd 3d 2b 21 0d 3d 4f fd 57 3e c8 c4 4b 3d
       0.092647746 0.03445546 0.21092723 0.049748212
0000c0 ec 11 6b 3d 16 a3 00 bc 7c 0a a1 bd 4f 37 c1 bd
       0.05739014 -0.007851383 -0.07863328 -0.094343774
0000d0 79 15 eb 3b 59 26 78 3d aa bd 7d bd 58 38 50 bd
       0.0071741906 0.060583446 -0.061948456 -0.050834984
0000e0 ef 03 a3 3d 85 f8 74 bd 86 fb e3 bd a4 cc 2e 3e
       0.07959735 -0.05980732 -0.11131959 0.17070252
0000f0 e2 eb 0d 3e 2e 96 56 3c 05 cc da bd 84 1a d8 3d
       0.13859513 0.013097329 -0.10683445 0.105519325
000100 e8 19 6b 3d df 2d 19 39 13 31 a6 3c af 0d e8 3c
       0.057397753 0.00014608305 0.020287072 0.028326837
000110 b1 8e e0 bc 25 87 26 bc 2c d4 a0 3c 95 04 20 bc
       -0.02741179 -0.010164057 0.019632421 -0.009766717
000120 d1 22 10 3e d5 6a 39 3d c9 fc 6e bd 68 17 f7 bc
       0.14075781 0.0452679 -0.058346543 -0.030162528
000130 60 f4 3e 3d 9d 29 24 3d 08 a8 af bd f7 ac 21 bc
       0.046619773 0.040078748 -0.08576971 -0.009867898
000140 49 1d 1e be ba 8b 08 3d ec b7 df bc 5e 20 55 bb
       -0.15440859 0.03333638 -0.02730938 -0.0032520513
000150 db d9 8c bd 72 7d 81 bd e4 8b 6c 3d bb 27 9e bc
       -0.0687749 -0.06322755 0.057750598 -0.019306054
000160 81 f2 cf bd ea 61 98 bc fa 09 3a be 9d c5 f9 bd
       -0.10153676 -0.018601377 -0.18167868 -0.12195895
000170 63 b9 8e bd 2a e3 26 3d 00 d2 3c be b2 bb ba 3c
       -0.069689535 0.040743984 -0.18439484 0.022794578
000180 67 24 47 3d 3d a4 a0 3d 79 fb 52 be 84 7c 80 bd
       0.0486187 0.07843826 -0.20603742 -0.062737495
000190 84 66 06 3d 49 65 79 bd 2d f1 27 be d3 7a 0b be
       0.03281261 -0.06088761 -0.16400595 -0.13621072
0001a0 83 0f 9a bc d4 5b 80 3d 4e e5 1a be bd f7 0f be
       -0.018806225 0.06267515 -0.15126535 -0.14059348
0001b0 7f 28 ae bd 10 f9 e2 bc 7f 3c 44 bd f7 c0 f5 bd
       -0.08503818 -0.027706653 -0.047909256 -0.11999696
0001c0 01 9b 9b bc 9f 66 94 3b 6d 3e 62 3d e9 34 01 be
       -0.01899481 0.004528835 0.055235315 -0.1261784
0001d0 43 7c a6 bd a3 96 93 3d 65 89 61 3d 4a bf 11 3d
       -0.0812917 0.07206466 0.05506267 0.035582818
0001e0 81 1a 14 3e 54 6a bf 3d 9c 2d b2 3d 44 f4 29 3d
       0.14463235 0.09346452 0.087001055 0.041492715
0001f0 fe c8 a6 3c 55 c1 ea 3d 3d 52 49 3c b5 f5 c7 bc
       0.020359512 0.114626564 0.012287674 -0.024409154
000200 e8 42 df 3d 3a e7 dc bd 7b 95 b4 3b 3e 69 0e be
       0.10901433 -0.107862905 0.0055109835 -0.13907334
000210 09 f9 45 3d e7 c0 8c 3d 4a 33 0a be c4 34 f4 bd
       0.0483332 0.06872731 -0.13496128 -0.11924127
000220 38 49 59 bd be 15 e4 3a fb 25 aa 3d b7 19 e3 bb
       -0.053048342 0.0017401499 0.083080254 -0.0069305557
000230 72 87 3a 3c 44 64 f2 3c 80 82 d6 bd ab 78 8b 3d
       0.011384832 0.029588826 -0.1047411 0.06810125
000240 6f ab b5 3d 76 47 a0 3d c8 95 58 3d ef f2 d7 bd
       0.08870589 0.0782613 0.052877218 -0.10544383
000250 62 8b b5 3b cb d5 f6 bc a4 b3 0e be 40 73 60 bd
       0.0055402974 -0.030131241 -0.13935715 -0.05479741
000260 d1 70 85 bd ba 3a f3 bd 8f 4d 9e bd 4c c3 d3 3d
       -0.06515659 -0.118764356 -0.07729637 0.10339984
000270 71 5f 82 bc ee af 86 bd 56 06 a2 3d 1b d4 9a 3d
       -0.01591465 -0.06576525 0.07911365 0.07559987
000280 5a d0 86 3c 08 35 d0 bd d1 4c fb bc 9a ae 07 be
       0.016456772 -0.10166365 -0.030676277 -0.13250199
000290 5e ec 89 3d e3 68 80 bd 7d 2f 47 be 86 0a 5e bd
       0.067345366 -0.062700056 -0.19451709 -0.054209255
0002a0 fb 34 a0 3d 3a 4d 05 be bf 25 5f 3b 64 6c de 3d
       0.07822605 -0.13017741 0.0034049598 0.108605176
0002b0 ce 7e 28 3c 51 ef 5e 3e f6 90 21 3e 84 18 03 3e
       0.010284139 0.2177098 0.15777954 0.1280232
0002c0 45 8f 5b 3d 90 bc 16 bd f1 f5 04 3e 43 56 52 3e
       0.05360343 -0.03680092 0.12984444 0.20540719
0002d0 94 53 19 3e b1 fd 80 3d f0 d3 8d 3c 6a 7f c1 3c
       0.14973289 0.06298388 0.017312974 0.023620326
0002e0 6c f8 89 bd b6 19 e5 3d 35 d5 bc 3d 60 ef b5 bd
       -0.06736836 0.111865446 0.092203535 -0.08883548
0002f0 b6 1b ce 3d d9 4a f1 3d 2d 11 08 be 6b 08 7a 3e
       0.10063879 0.11781854 -0.13287802 0.24417274
000300 09 34 0b 3e 13 82 14 3e 78 5d 3e 3e 50 f6 e5 bd
       0.13594069 0.14502744 0.18590343 -0.11228621
000310 f4 27 26 3e c5 58 21 3e 09 b5 6f 3d 8b dd 39 3e
       0.16226178 0.15756519 0.058522258 0.18150918
000320 d7 64 1d 3e 64 c8 a8 3d 0d 92 eb 3d e8 99 26 bc
       0.15370499 0.082413465 0.11502466 -0.01016853
000330 59 e9 94 bd 15 b2 c3 bd a4 86 e0 3d 39 64 b6 ba
       -0.0727107 -0.09555451 0.10963181 -0.0013915367
000340 a2 7f 70 3d ae 00 27 3e d2 61 24 3e 7c 96 dc bd
       0.05871547 0.16308853 0.1605294 -0.1077089
000350 99 e5 5f bd 82 fe b6 3d 0e c9 0b 3d 1f da 68 bc
       -0.05466232 0.08935262 0.034127288 -0.01421216
000360 c1 84 e8 3d ea 00 5c bd 9e dd e0 3d 16 c0 d2 3d
       0.11353446 -0.05371181 0.1097977 0.10290544
000370 74 2b 51 3e ed a0 81 3d 12 89 c2 bc b0 15 24 3e
       0.20426732 0.06329522 -0.023747 0.16023898
000380 2a 71 32 3e 2d 69 2e 3c 3f 9b 12 bc e2 f3 62 3d
       0.17425981 0.010645193 -0.008948146 0.055408366
000390 1f fb d8 3d 6a 34 41 bd 10 3b 4a 3d 0e ea 61 3c
       0.105947725 -0.047169127 0.049372733 0.013788713
0003a0 e2 db 0d be f6 4d f2 bd a6 93 41 3e f2 b9 15 be
       -0.1385341 -0.11831276 0.1890398 -0.14621714
0003b0 e0 e7 8d 3d fe 43 11 3e 41 6c bb bd d8 b1 ab 3d
       0.06928992 0.14186093 -0.09151507 0.083835304
0003c0 9d 81 30 bd 31 cb fb bd 10 04 b2 bd 1e 45 8f 3e
       -0.04309236 -0.12294615 -0.08692181 0.2798242
0003d0 a8 e0 b5 3b 06 9f 8d 3c d7 64 1b 3e 34 84 34 bd
       0.0055504628 0.017287742 0.15175186 -0.04407139
0003e0 68 6e a8 bd 66 9e 94 3c 49 0b c6 bd db fd 4f bd
       -0.08224183 0.018141937 -0.09670121 -0.050779205
0003f0 75 27 30 be 86 85 07 be 46 dc f1 bd 33 b8 02 be
       -0.17202552 -0.13234529 -0.11809592 -0.12765579

policy_fc1.bias f4 [64]
000000 fa e4 27 3b bd 0b 1d 3c 7d a1 09 bd 5d 4f 5c 3b
       0.0025618658 0.009585318 -0.033601273 0.003361664
000010 73 80 fd 3c 76 1d b2 bc 5e 67 4d bc 4e d8 63 3c
       0.030945038 -0.021742564 -0.012536852 0.0139065515
000020 e9 c7 bb bc 5a de a7 bd 45 10 f2 bb ea d6 98 bc
       -0.022922473 -0.08196707 -0.0073871934 -0.018657167
000030 2e b1 4f bb e0 73 9c bb 41 99 3b bb 7f 9a 37 bd
       -0.00316913 -0.0047745556 -0.0028625282 -0.044825073
000040 3f 15 ed bc 2f ab d5 bc 76 fc fc bc ac 2d 02 bc
       -0.028940795 -0.026082603 -0.030882102 -0.007945459
000050 90 ef bf 3b 20 e7 df ba 61 28 e9 3b 64 4c 2a bc
       0.0058574155 -0.001708243 0.0071154092 -0.0103941895
000060 4b 9d f4 bb 83 f3 81 bc 63 5d d8 bc 33 91 22 3c
       -0.00746504 -0.015863186 -0.026411718 0.0099223135
000070 fb b5 66 bc 1c d9 b3 bc 87 8a 9d bc b0 ef 0b 3a
       -0.014081473 -0.021954112 -0.019231094 0.00053381454
000080 9e 60 fa bc 6f 69 54 3c 78 45 6f bc 69 d5 96 bc
       -0.030563649 0.01296459 -0.014603965 -0.018412309
000090 fc 68 e5 3b cc b1 f2 bc b5 94 19 bc ad 78 56 bd
       0.0070010405 -0.029625796 -0.009373833 -0.05236118
0000a0 75 bf 68 bd 0e 61 21 bd 39 b2 8b bc 55 d1 02 bd
       -0.056823213 -0.0393992 -0.017052757 -0.031937916
0000b0 ba 0d 95 bc d0 83 98 bc 65 a7 de bc ab 94 ef bc
       -0.018195022 -0.01861754 -0.02717943 -0.029245695
0000c0 fc 1a bf ba 8b ff 61 bc 44 ad 4d bb a0 35 5f bd
       -0.0014580186 -0.013793836 -0.0031383792 -0.0544945
0000d0 e8 0a 92 bd d0 a5 c6 bb 4e 8d 2e bc ef 28 15 bd
       -0.071309865 -0.006062247 -0.010653807 -0.03641599
0000e0 8c ff 50 b8 3a 9e 9c bc 04 99 e0 ba 92 75 c4 3c
       -4.982906e-05 -0.019118417 -0.0017135446 0.023981843
0000f0 94 db 88 ba b4 51 ad bc b9 90 60 bd a2 64 3d 3c
       -0.0010441416 -0.021157123 -0.05482552 0.011559637

policy_fc2.weight f4 [32, 64]
000000 a1 1f 43 3e a6 5e 27 be 4c d8 34 3d 9a b7 63 3d
       0.19055034 -0.163447 0.04415159 0.055595018
000010 fd e3 9c bc 15 8b 7a be 6f fc 3d be 1a 61 11 3e
       -0.019151682 -0.24467118 -0.18553327 0.14197198
000020 32 7f f5 bd e6 a0 66 be c9 1c cb 3d 9f 39 a5 3d
       -0.11987151 -0.22522315 0.099176 0.08067631
000030 3f 4f 2a 3b 48 bb 4f be 0c 96 1b be c7 6f 59 bc
       0.0025987176 -0.20286286 -0.15193957 -0.013271279
000040 69 c3 8f bd e6 d1 f8 bb 4c 5b 3a be 61 2d 81 be
       -0.070196934 -0.007593381 -0.1819889 -0.25229934
000050 4f 74 0f 3e 5f 6b 65 3b d6 0f 54 3e 9f da ba 3d
       0.14009212 0.0035006625 0.20709166 0.0912373
000060 e0 a1 85 be aa 4f 31 be 1e 8a 4b 3e 70 ce c3 bd
       -0.26100063 -0.17315546 0.19876906 -0.09560859
000070 5f a0 14 3e 0c ba f7 bd 13 d4 86 bc 10 c9 b9 bd
       0.14514302 -0.120960325 -0.016458547 -0.09071553
000080 e5 02 5b be 43 9c 1f 3d 75 66 04 3e 02 41 7a be
       -0.21387823 0.038967382 0.1292971 -0.24438861
000090 8a 3e 43 be b5 4c ec bd 01 9c 7e 3e e2 09 21 be
       -0.19066826 -0.11538068 0.24864198 -0.15726426
0000a0 18 c6 89 be ee 44 56 bb cc d0 91 be 7c 92 03 be
       -0.26908946 -0.0032694894 -0.28479612 -0.12848848
0000b0 70 7e 4b 3e b6 2a f0 3c b4 a3 8e 3e b1 d1 01 be
       0.19872451 0.029317241 0.2785927 -0.12677647
0000c0 ef 4b d5 3d cd 3b ea bd 0e e6 36 3e 98 9e c5 bd
       0.10414874 -0.11437187 0.17861196 -0.0964939
0000d0 9b 46 a2 bd 4a 6b 89 be 9a 30 21 3e 76 c1 41 bc
       -0.07923623 -0.26839668 0.15741196 -0.01182591
0000e0 6d 77 18 be f1 7f 01 bd 39 f2 82 3b 5c 35 8a be
       -0.14889307 -0.031616155 0.0039961603 -0.26993835
0000f0 5f 8c db bd e0 cd b9 bc b7 63 11 3e f7 04 75 bd
       -0.10720133 -0.022681177 0.14198194 -0.059819188
000100 5a 6d f3 3d 11 8b 45 be 1e 7e 89 bd ac 47 a1 bd
       0.118860915 -0.19291331 -0.06713508 -0.078749985
000110 6c 34 94 be 59 db c5 3d cf 95 69 bc 26 2d 55 3c
       -0.28946245 0.09660978 -0.014256909 0.0130112525
000120 24 05 1e 3e 51 cc 37 3d ea 7f 18 3e 7a af b2 bc
       0.15431648 0.044872586 0.14892545 -0.02181219
000130 60 2c c2 3d e8 0c 1f be 46 b0 8d 3d 2d b3 19 bd
       0.0948112 -0.15532267 0.06918387 -0.03752439
000140 b4 ce 4f 3e af 25 90 3d eb 5f cf bd 5d 6e 71 3c
       0.20293695 0.070384376 -0.10125717 0.014735785
000150 06 61 34 bd 52 c9 0c 3d bd 29 0e be d6 c7 37 be
       -0.04403784 0.03437168 -0.1388311 -0.17947325
000160 cf ef 80 be c5 4d 6d 3d 28 6b 8b 3e 34 44 01 3e
       -0.2518296 0.057935495 0.2723019 0.12623674
000170 59 43 18 be d8 79 3d be ce da bd 3d 92 bc 6b be
       -0.14869441 -0.18503511 0.09270249 -0.23021153
000180 2b d3 1b 3e 1a 25 35 be 1a 7b 33 be e2 f9 94 3d
       0.15217273 -0.17689934 -0.17527428 0.07274224
000190 a3 83 27 be f7 99 d7 3d 6a 73 18 3e 36 ab f1 bd
       -0.16358809 0.10527413 0.14887777 -0.11800234
0001a0 bd 01 96 bd d8 11 9c 3c 45 2c 81 3e f9 25 59 3e
       -0.0732455 0.019051477 0.25229087 0.21205892
0001b0 6e 7d 35 3d 35 6d 03 3e 6b 38 de 3d dc 6b 59 be
       0.044309072 0.12834628 0.108506046 -0.21232551
0001c0 43 57 50 3e 7f 2e a2 3d e3 53 e9 bc 33 77 a6 be
       0.20345788 0.07919025 -0.028482383 -0.32512817
0001d0 85 3d ed 3d 7e 12 1d be c9 0f 98 3e 9a 3c 9c 3c
       0.115839995 -0.15339085 0.29699543 0.019071866
0001e0 f4 48 32 3e 1d b4 57 be 0d 3f 49 be ca 64 95 3d
       0.17410642 -0.21064802 -0.19652958 0.072946146
0001f0 18 15 65 3e 65 51 71 3e 3c 1d d2 bd 18 36 0b 3d
       0.22371328 0.23566206 -0.10259482 0.033987135
000200 37 b7 87 bb 9f 7c 1d 3e 73 71 55 3d d6 f3 62 3e
       -0.004141714 0.1537957 0.052110147 0.22163329
000210 d9 de a8 3d 8a 57 da 3d 44 00 60 be 71 9a 5e 3d
       0.0824563 0.10661228 -0.21875101 0.054346506
000220 3e 42 b8 bb 5f 7a a5 be 69 9a c7 bb c6 a5 32 3e
       -0.005623131 -0.32319924 -0.006091405 0.1744605
000230 9a 33 fa bd f4 72 f6 3d 33 71 ea bc b9 d0 04 be
       -0.122168735 0.12033644 -0.02861843 -0.12970246
000240 5f 5e 5f bd 6c 9c ca 3d 2d 6b b8 bd 0b 06 dd bd
       -0.05453336 0.09893116 -0.09004817 -0.10792168
000250 66 b3 6d bd 89 8e 81 3d 21 3e 47 3e 5e 4f 0a 3e
       -0.058032416 0.063260145 0.19457294 0.13506839
000260 4d 3c 75 be 26 e3 f8 3c 09 93 e5 bd 34 ef 44 3e
       -0.23948784 0.03038175 -0.11209685 0.19231874
000270 07 67 c2 3c 3f 5a bc bd e9 54 69 be da ca 3f 3b
       0.023730768 -0.091969006 -0.22786297 0.0029265196
000280 b1 9b 39 be 29 66 67 3d 03 7c 96 be e1 ba 76 3e
       -0.18125798 0.056493912 -0.29391488 0.24094726
000290 4e 38 53 be d1 6a 8e 3d 76 0a d4 3d 74 9f 22 3d
       -0.20626947 0.06953967 0.10353558 0.039702848
0002a0 1a b0 ef 3c d4 90 a3 3d b0 c2 01 bd cc 35 cc bd
       0.029258776 0.07986608 -0.03167981 -0.099711984
0002b0 e8 81 2b bc ca 80 1e bc 6e 13 63 3e a2 d3 a8 be
       -0.010467984 -0.00967426 0.2217538 -0.32973963
0002c0 f9 d0 b4 3d ef 5d 23 3e 8b 2f 3b 3d d8 86 a5 3d
       0.08828921 0.15953802 0.045699637 0.0808236
0002d0 a8 26 af 3d 8f 7b 2f 3c 8a 2b 69 be 4d 78 84 bc
       0.08552295 0.010710611 -0.22770515 -0.016170645
0002e0 fb 0d 8a 3e 89 13 3d 3e 60 40 0d 3e ab f2 1f bc
       0.2696379 0.18464483 0.13794088 -0.009762446
0002f0 96 e0 24 3e 32 a7 62 bd 14 92 16 be fe 2a 19 3e
       0.16101298 -0.05533523 -0.14704162 0.14957806
000300 c3 38 78 be 7f e1 a8 3d 13 ad 75 be 43 20 dc 3d
       -0.24240403 0.08246135 -0.23991804 0.10748341
000310 34 eb d1 3d 57 e1 93 3d 7f 6f a7 3c b5 82 ca 3b
       0.102499396 0.072207145 0.020438908 0.0061801323
000320 19 98 b4 bd d0 dc 1d be e2 a2 d1 bd 9b f6 87 3d
       -0.08818073 -0.15416265 -0.102361456 0.06638833
000330 8f aa 31 3e f9 de 46 3d 1a 6f 85 3d a2 a8 22 bd
       0.17350219 0.048552487 0.065153316 -0.039711602
000340 85 53 16 3d c7 6d 89 be a8 82 8f 3d 49 72 85 bd
       0.036700744 -0.26841566 0.070073426 -0.06515939
000350 4f 0c 81 be 6a f2 91 be 9c c3 54 bd a5 4e be 3d
       -0.25204703 -0.2850526 -0.05194436 0.09292344
000360 b6 6c 4b be ad 3e 55 3c 7b 9e 25 bd 54 e9 29 be
       -0.19865689 0.013015431 -0.040434342 -0.16592914
000370 8d 24 75 be 04 87 91 3b df e7 83 3e dc aa 33 be
       -0.23939724 0.004441144 0.2576284 -0.17545646
000380 14 cc e7 3d 49 21 44 3c 70 a7 39 3e 50 d7 10 3d
       0.11318222 0.011970826 0.18130279 0.035361588
000390 07 5b 66 be 3e 6e 4f bd 3f 49 61 be ab 1a 7f bb
       -0.22495662 -0.050642245 -0.22000597 -0.0038925807
0003a0 e5 be 39 be 01 96 8c bd d4 46 0c be f3 8b 2e be
       -0.18139227 -0.068645485 -0.13698894 -0.17045574
0003b0 59 95 85 be ca 59 65 3e 99 6d 46 3d a1 de 2b 3e
       -0.26090506 0.22397533 0.048444364 0.16784145
0003c0 c2 bd 8c 3c 00 15 c6 3c 44 2d 84 be 06 53 8a be
       0.017180327 0.024179935 -0.25815785 -0.27016467
0003d0 47 c9 bf bd 82 c9 09 be ac 37 50 be dd a4 68 bd
       -0.093645625 -0.13455775 -0.20333737 -0.05679785
0003e0 24 2a 05 3e 15 f5 5f 3d 9b f3 43 3e d3 ee fc 3d
       0.13004357 0.054677088 0.19135897 0.123502396
0003f0 f9 bf be be 1a b1 e2 bd 01 9b 89 bd 8c 93 94 bc
       -0.3725584 -0.11068936 -0.06719018 -0.018136762

policy_fc2.bias f4 [32]
000000 c5 3f cb bc bf a1 06 bd 8d c9 51 bc c1 d6 e6 bc
       -0.024810681 -0.032869097 -0.012804401 -0.028178575
000010 48 b3 47 bd 6a 76 6f bd 3f b6 3c 3d 69 2c 4a 3d
       -0.04875496 -0.058462538 0.04607224 0.04935876
000020 48 f6 9d 3d d5 c9 29 3d ba 56 84 3c 3c 8f 4b bd
       0.0771299 0.041452248 0.016154636 -0.049697146
000030 8b b6 99 bc 5d 56 1e 3c 3f 85 0a bd e4 14 c3 bc
       -0.018763801 0.009664145 -0.03381848 -0.023813672
000040 06 bb b7 bc a1 26 1d bd 1a 21 98 bc c1 d1 db 3c
       -0.022428047 -0.038366918 -0.018570472 0.026833417
000050 5e 85 eb 3c d5 4b 60 bd e6 b8 5a bd 5e 84 13 bd
       0.028750118 -0.05475982 -0.05339899 -0.036014907
000060 97 c8 c2 bc a3 43 93 3a 7e 3e 45 3d 49 cd 93 3c
       -0.02377729 0.0011235367 0.0481553 0.018042224
000070 09 8a c7 bb d2 04 2b bb bb 80 14 be fa 3e 40 bd
       -0.006089453 -0.0026095402 -0.14502232 -0.04693506

policy_fc3.weight f4 [51, 32]
000000 0a 4e 81 bd 09 1d 9f 3e 22 c9 e1 bd b6 ba 31 be
       -0.06313713 0.3107684 -0.11024691 -0.17356381
000010 7b 1d 9f 3e 72 61 10 3d ab db 77 3d 2b 25 94 be
       0.3107718 0.03524918 0.060512226 -0.28934607
000020 e0 df 8f be 33 42 31 3e 00 ac 9e be 16 c0 00 3e
       -0.2810049 0.17310409 -0.309906 0.12573275
000030 3f 79 3f be 95 db 92 bd 56 00 93 3d ef 28 65 3e
       -0.18698595 -0.07170788 0.071777984 0.22378896
000040 f7 40 01 3e 96 ee 02 3e 4b e6 b6 3e 8d 53 4f be
       0.12622438 0.12786326 0.35722575 -0.20246716
000050 81 c2 8f bd c6 15 21 3e 90 6b cb 3e c6 ad 86 bd
       -0.070195206 0.15730962 0.397305 -0.065761134
000060 93 0e 12 bd 79 6f f0 3c 9f d2 5b bc 05 6e d0 3e
       -0.03565843 0.02935003 -0.013416915 0.40708938
000070 b1 df eb bd 36 5e 73 3d 8e 7c 22 be 2d 68 97 3d
       -0.11517275 0.05941602 -0.15867826 0.07392917
000080 8e 06 ba be 19 6e 74 bd e0 a6 3a bd 6c 40 70 3e
       -0.36333126 -0.05967531 -0.0455693 0.23462075
000090 f2 96 4d 3c 32 cf 23 be 36 f2 49 3e a7 1f 5f bd
       0.012548195 -0.15997007 0.19721302 -0.054473545
0000a0 9a 08 24 3d c6 1b 65 be fe 70 a4 3d a4 cb df bd
       0.040047266 -0.22373876 0.08029364 -0.10927513
0000b0 fa 09 ee bc e2 e7 3d bd 63 e0 a0 3e 05 25 1f 3d
       -0.029057492 -0.04636372 0.31421193 0.038853664
0000c0 13 9c 62 be 64 8a 56 3d a1 4b 05 3e 75 9d 6b 3e
       -0.2212985 0.052378073 0.13017131 0.23009284
0000d0 8c 4f 57 bc 01 f9 17 3e 44 51 85 bd 66 79 67 bd
       -0.013141524 0.14841081 -0.06509641 -0.05651226
0000e0 34 af 06 bd 81 c0 00 3e c9 8b 10 be c5 bb 34 bc
       -0.03288193 0.12573434 -0.14115824 -0.011031096
0000f0 6f 51 6a be 82 1c 2b 3e ec 22 dd bd 6c 56 55 be
       -0.22882627 0.16710094 -0.107976764 -0.20833749
000100 4e ed 07 3e 51 c3 7e 3c 47 15 35 be 84 0a 3d be
       0.13274118 0.015549497 -0.17683898 -0.18461043
000110 1d 5e 35 be 1c 75 df 3d 14 0b 6a be 89 da dd bd
       -0.17711683 0.10911009 -0.22855788 -0.10832698
000120 24 1b d6 bd 32 81 79 bd 65 25 c3 bd b1 d7 47 3d
       -0.104543954 -0.060914226 -0.09528617 0.048789684
000130 a7 30 ce bd 40 11 12 be 86 11 d8 bc 33 b5 6d bd
       -0.100678734 -0.14264393 -0.026375543 -0.058034133
000140 5e 58 d7 3d 3e b0 11 3e 0b 19 a3 bd a6 51 52 bc
       0.105149016 0.14227387 -0.07963761 -0.012836849
000150 0f 13 46 3e e7 ee 78 be 64 e0 61 3e 03 3f 03 3c
       0.19343208 -0.24309884 0.22058254 0.008010629
000160 b0 56 12 3e ee 3c a5 3e 8c 4b 85 be fd e5 23 3e
       0.14290881 0.32273048 -0.260342 0.16005702
000170 65 a5 2a 3e 4d ee ef bd 9b 9a 71 3e cf d3 03 be
       0.16664656 -0.11715374 0.23594134 -0.12873767
000180 3b 25 09 3e 24 38 51 be 94 44 08 3e 35 ea 1c 3e
       0.13393109 -0.20431572 0.1330741 0.15323718
000190 88 77 2b bc 7b 7d 03 3d 02 de df 3d 77 85 fe bd
       -0.01046551 0.03210209 0.109310165 -0.124278
0001a0 d3 93 90 3c e5 4d dd b9 f0 48 3e 3e 17 75 9a 3e
       0.017648613 -0.0004221044 0.18582511 0.30167457
0001b0 00 27 23 3e 48 48 06 3e 71 ae 1a bc 78 54 60 bd
       0.15932846 0.1311351 -0.009441004 -0.054768056
0001c0 f5 a8 92 bc 8c ee 74 bd e3 ef 47 be 0c b0 52 be
       -0.01790283 -0.05979781 -0.19525103 -0.20574969
0001d0 a5 25 27 bd d0 01 64 3e f3 84 77 bc 67 4b 54 3d
       -0.040807385 0.22266316 -0.015107381 0.05182972
0001e0 a9 19 63 3e 9b 21 b3 bd 8d c3 07 be 36 c6 a1 3c
       0.22177757 -0.08746644 -0.1325819 0.019747835
0001f0 8a fd 3b 3e ba f6 2d 3e fb ae cf bd cb 76 b9 3d
       0.18358436 0.1698865 -0.10140797 0.09055861
000200 80 66 d2 bb 0a 99 43 be 7a 06 42 3e ed 30 aa 3d
       -0.0064209104 -0.19101349 0.18947783 0.08310113
000210 d9 4b 98 bd 6e c5 99 3e d7 ad 64 3d 63 ee 04 3c
       -0.07436342 0.3003344 0.05582985 0.008113476
000220 1e 98 18 3e e4 4e b2 bd 3a a6 57 3e bd 1b 29 3e
       0.14901778 -0.087064534 0.21059504 0.16514488
000230 ce 56 26 bd 06 1b 88 3c 37 cf 7b b9 2d 19 38 be
       -0.040610127 0.016614448 -0.00024014419 -0.17978354
000240 64 7a 4d bd bd 8f 88 be bd 0f 37 bd fd 75 36 bc
       -0.05016555 -0.26672164 -0.044692744 -0.011136529
000250 24 c5 50 be 10 28 7e 3d cd ac c9 bc 63 8e d4 bb
       -0.20387703 0.062049925 -0.02461853 -0.0064867004
000260 2f a9 86 bd 34 7a c2 3d be b0 7b be 01 75 a2 3e
       -0.06575238 0.09495965 -0.2457914 0.31729892
000270 b6 ec 05 3d 2c b9 3e be f7 1d 0e 3e dd b6 37 3e
       0.03269645 -0.18625325 0.13878618 0.1794085
000280 43 60 6d be ca 50 aa 3d 63 56 bf bd bd 9c 6d 3e
       -0.23181252 0.083161905 -0.09342649 0.23204322
000290 a3 b0 89 3e 87 93 82 bd 24 1d 2e be 43 90 0f 3e
       0.26892576 -0.06375795 -0.17003304 0.14019875
0002a0 f8 88 88 bd 6d 57 ab 3d fc ae dc bd cf 94 81 3e
       -0.0666675 0.083662845 -0.10775563 0.25308844
0002b0 fb ed ed 3c f4 90 63 3e e4 67 42 be a3 36 1b be
       0.029044142 0.22223264 -0.18984944 -0.15157561
0002c0 73 9a ce 3d c1 88 be 3c 50 f9 36 3e 87 54 29 bd
       0.100880526 0.023258569 0.17868543 -0.041340377
0002d0 80 1f 08 3e 7f 18 89 be 9a 8d ec bd d7 15 38 3e
       0.13293266 -0.26776502 -0.11550446 0.17977081
0002e0 44 ce aa bc 4b 5c 53 3e 5f 7d b8 3d 6c ae 2f bd
       -0.020850308 0.20640676 0.09008288 -0.04289095
0002f0 3c b0 29 be 12 89 82 be 6a 6e 15 bd c7 08 73 be
       -0.16571134 -0.254952 -0.036482252 -0.23733817
000300 7e 32 1e 3e 5c ca 23 3c 89 6c 84 3e 15 e8 d6 3d
       0.15448949 0.009996977 0.25864056 0.10493485
000310 de 46 ae 3c 38 ae b8 bd 9c 98 8d 3e ed ff 66 bd
       0.021274026 -0.090176046 0.27655494 -0.056396414
000320 ca da e6 bd 31 88 c1 3c de a7 ab bd 8e 9e 9d bd
       -0.112721995 0.023624511 -0.083816275 -0.076962575
000330 5d 7a aa bb f1 42 34 bd bc c3 ab be a4 e6 8d be
       -0.005202575 -0.044009153 -0.3354777 -0.27715027
000340 0b d3 4d be f5 bd 1e 3d 94 65 24 bd 1a 6d 35 3e
       -0.20100038 0.038755376 -0.040135935 0.177174
000350 34 37 bd 3c d3 c2 60 be a6 4d 1e be 53 6f 80 be
       0.023097612 -0.2194932 -0.15459308 -0.25084934
000360 cd aa 07 bd cf c2 59 be e1 26 79 3e 41 97 84 3e
       -0.033121873 -0.2126572 0.24331237 0.25896648
000370 0e 60 59 bd c0 39 5f be 3b 1f ff 3d c6 a1 33 3e
       -0.05307012 -0.21799374 0.124571286 0.1754218
000380 32 1a b4 bc 0f 1b 23 3e 7f 8d 89 3d 79 d9 91 be
       -0.021985147 0.15928291 0.06716441 -0.2848623
000390 da 21 19 3e cf cb a9 3e 18 f9 cd bd 20 43 55 3d
       0.1495432 0.33163306 -0.100572765 0.05206597
0003a0 91 7c de 3e 92 c5 cb be ae 2d 18 bd 91 f2 28 be
       0.43454412 -0.39799172 -0.03715294 -0.16498782
0003b0 c6 06 79 bd a5 7b 24 be 7c 09 a4 3e 18 a3 36 3d
       -0.060797475 -0.16062792 0.32038486 0.044589132
0003c0 9a 85 45 be 72 78 8d 3e c2 8b 84 be a2 42 ab 3d
       -0.19289246 0.27630955 -0.25887877 0.083623186
0003d0 da 19 50 be c3 61 70 3e 88 ef 3a bd 21 aa 64 bd
       -0.20322362 0.23474793 -0.04563859 -0.05582631
0003e0 e0 81 03 3d 64 5b 73 bd 79 a3 90 bd 2c 11 75 3b
       0.03210628 -0.05941333 -0.0706243 0.0037394268
0003f0 b3 a4 16 be a5 33 e0 3c 4f 98 34 3d 45 24 82 be
       -0.14711265 0.027368376 0.044090565 -0.25418296

policy_fc3.bias f4 [51]
000000 6b e7 e5 bd 86 78 57 3d b4 8b c9 bc 80 ea 5c 3e
       -0.1122578 0.052605174 -0.024602748 0.2157383
000010 8d 7b 5f 3c b9 1f 5d bd 87 70 18 3e ea c4 1b 3b
       0.013640297 -0.05398533 0.14886676 0.0023768493
000020 ad 06 6e bd 5d 55 3f 3c db 04 3a 3d e0 92 68 3c
       -0.058111835 0.011678067 0.045414787 0.014195174
000030 62 05 5c 3d de eb c0 3d e2 c5 1a be 82 70 8d bc
       0.05371607 0.09419988 -0.15114549 -0.017265562
000040 53 50 a5 3d b8 fa 10 be 4f 20 83 3d 48 4c 97 bd
       0.08071961 -0.14158142 0.06402647 -0.07387596
000050 9e b4 10 bd 59 dd 3a 3d 22 72 29 3c 97 b0 84 3c
       -0.0353285 0.04562125 0.010342153 0.016197486
000060 22 99 9f bd f6 bd b0 3c 5c 8e 6e bc 33 f9 81 bd
       -0.0779288 0.021574955 -0.014560308 -0.06346359
000070 d5 17 6e bd 41 83 72 bd 00 93 45 3d 6d f8 26 bd
       -0.058128197 -0.059207205 0.048235893 -0.04076426
000080 5e c1 69 bd 2f 5d 03 3c 30 3a f0 3c 43 a1 15 3b
       -0.057069175 0.008017822 0.029324621 0.0022831715
000090 df 3a c3 bc 09 66 bc 3d b0 78 48 3d ec 3d 42 3d
       -0.023831783 0.09199149 0.04894322 0.047422335
0000a0 52 80 55 bd 6e a2 0d bd 35 53 c8 3d 04 54 8c 3d
       -0.05212433 -0.034578733 0.097814955 0.06851962
0000b0 78 56 e0 3c 3b 4e 97 3a 08 ec 0a 3d 3d 44 ac b8
       0.027384982 0.00115437 0.033916503 -8.2143095e-05
0000c0 ad 35 19 3d cc aa 9f bc bb ac 3a bd
       0.037404705 -0.019490622 -0.045574885

value_fc1.weight f4 [64, 261]
000000 f2 17 e9 bc 7e 7e d4 bd 0b 08 07 be 6c 74 aa 3d
       -0.0284538 -0.10375689 -0.13186662 0.08322987
000010 5e 6b 04 be 15 e7 a7 3d bb 44 f8 bd 21 a3 e5 3d
       -0.12931582 0.08198372 -0.12122484 0.11212755
000020 67 09 90 3d 39 d9 10 be 71 29 0b 3d a4 73 98 3d
       0.07033043 -0.14145364 0.03397507 0.07443932
000030 04 0b 06 be 48 26 15 3c 9b 42 1e bc 0e a8 6d bd
       -0.1309014 0.009103365 -0.009659435 -0.058021598
000040 0e 9e be bd de 11 80 bd 5f 6e 09 3d b3 dd 2a 3e
       -0.0930749 -0.06253408 0.033552524 0.16686134
000050 37 f7 2a 3d e3 1c 9b 3a 53 6b f6 bd 18 20 be bd
       0.04173967 0.001183417 -0.12032189 -0.09283465
000060 17 8a ee 3d 2e 03 2d 3a e8 92 ef 3d b3 95 8a 3d
       0.11647432 0.00065999 0.11697942 0.06766834
000070 9b fd 02 3e 41 58 b4 bc a4 83 62 bd b2 7d 9b bd
       0.12792055 -0.022014739 -0.055301324 -0.07592334
000080 ef 20 20 3d c1 da 3f be 14 e1 b9 3d 56 a7 ac bd
       0.039093908 -0.18735792 0.09076133 -0.08430354
000090 c7 3c b6 3d 26 86 d8 bc 9f 33 4c 3d 44 34 d5 bd
       0.08898311 -0.026431154 0.049853917 -0.104103595
0000a0 99 bc ff 3d df c5 2a 3c 29 a8 fe 3c 56 6f c8 3e
       0.12487144 0.010423153 0.031086044 0.39147443
0000b0 7f 8f c5 bd c2 6c dc bd f5 db 81 3d fc ef 8b bd
       -0.0964651 -0.107629314 0.063407816 -0.06832883
0000c0 5e 45 34 bd c8 8c 50 bc 45 f1 7a bc 49 ce 79 bd
       -0.044011466 -0.012728877 -0.015316312 -0.060987744
0000d0 de f5 82 3e 24 72 bf bd 96 16 b3 3d 37 c0 ab 3e
       0.25578207 -0.093479425 0.08744542 0.33545086
0000e0 55 7f dc bc 14 d3 78 3d 01 fa 98 3e 45 ae 3f 3c
       -0.026916185 0.060748175 0.29878238 0.011699264
0000f0 16 41 69 bc 09 db 40 bd f0 3b 8b 3c e0 d0 b9 3b
       -0.014236709 -0.04708389 0.016996354 0.005670652
000100 1c 9f 66 3d 27 44 c4 bd 82 ce 3f be 02 f0 30 3e
       0.056304082 -0.095833115 -0.1873112 0.17279056
000110 9f fa 85 3e ac 1f fb bd d3 97 63 bc 21 e5 1e 3d
       0.2616777 -0.122619 -0.013891178 0.038792733
000120 c1 9f 4a 3c 59 fc 17 3d 3f 85 bf 3d a0 fb 91 3c
       0.01236719 0.03710589 0.093515866 0.01782018
000130 cc 37 1c 3e 7d 12 36 bd a6 ee 64 3e 24 98 08 3e
       0.1525566 -0.044451226 0.22356662 0.13339287
000140 b6 69 c6 3c 4a c7 93 3c f2 a8 f0 3d bc 7a 09 3d
       0.024220329 0.018039364 0.11750974 0.033564314
000150 90 54 61 bc 07 9e 54 bd 15 be 0f be 06 f4 08 be
       -0.013753071 -0.05190852 -0.14037354 -0.13374338
000160 9d 5c 1c be d3 61 d1 bc 3d f9 05 3e cf 13 d5 bc
       -0.15269704 -0.025559342 0.13083358 -0.026010422
000170 8f 98 e6 3c 19 a8 a6 bd 0f 1d 58 3d e4 3d ac bd
       0.028148917 -0.08137531 0.052762087 -0.08410242
000180 ce ea c6 bd 8c ba 0e be 4c 8a 42 be 1a f1 ba bd
       -0.09712754 -0.1393835 -0.18998069 -0.09128018
000190 66 0c 26 be c8 7d 6c 3d a8 8a 71 3d 36 68 34 bd
       -0.16215667 0.05773714 0.058970124 -0.044044696
0001a0 17 9e 10 3d 21 7f f0 bd 4d f4 71 be eb 6e 70 bc
       0.035307016 -0.11742998 -0.2362835 -0.014674882
0001b0 48 3a be be c8 31 dd bd ba e9 a1 bd 4b d9 da bd
       -0.3715384 -0.10800511 -0.07905908 -0.106859766
0001c0 22 92 14 be 0a 29 87 3d e8 40 10 3e 24 6a 0d be
       -0.1450887 0.065996245 0.1408726 -0.1381002
0001d0 f0 ab 09 3e 3e 08 01 3e 90 87 68 bb 2d f5 90 3d
       0.13444495 0.126008 -0.0035481192 0.070780136
0001e0 b6 72 5c bd fe dd ab 3c 9b 93 80 bd b5 8f 22 be
       -0.053820334 0.020979878 -0.062781535 -0.15875132
0001f0 48 0a 23 bd db 41 df bd 39 59 ed 3d 46 3e 88 3c
       -0.039804727 -0.10901233 0.115892835 0.016631257
000200 60 22 83 bd ff 08 f4 3c c1 99 20 3d 1a 00 84 3e
       -0.06403041 0.029789446 0.03920913 0.25781327
000210 6a 7b 39 be c5 32 1b bc 8b b0 85 ba e1 ef 7d 3d
       -0.18113485 -0.009472554 -0.0010199709 0.061996344
000220 4e 04 76 be 38 7e 8e bd 51 22 25 be bb d7 0f 3e
       -0.2402508 -0.06957668 -0.16126372 0.14047138
000230 91 84 bb bd 1b 91 4a 3c a9 d7 14 bc 9e 91 24 bc
       -0.091561444 0.012363697 -0.0090846205 -0.0100444835
000240 a9 31 af bc f1 9c 29 3e 02 a9 16 bb 8b b8 57 bd
       -0.021385984 0.16563775 -0.002298892 -0.05266623
000250 7a d9 71 3d 3e 34 2b 3d f3 e7 6d bd 76 7a 75 3d
       0.059045292 0.04179787 -0.058082532 0.05993124
000260 4c d3 e9 bd 15 4f df 3d 3d 0e 76 bd 8f 4d 46 3d
       -0.11417255 0.109037556 -0.060072172 0.04841381
000270 dc 67 c3 bb 71 1d 55 bd 2b 22 14 be a5 fe 25 3d
       -0.0059633087 -0.05203003 -0.14466159 0.04052605
000280 eb 35 01 3e 24 45 da bd 99 35 cd bd 5f e3 41 3d
       0.12618224 -0.10657719 -0.100199886 0.04733598
000290 ae de b8 bd c0 ae 96 bd 60 fb 1c bd 91 a5 0b 3c
       -0.09026848 -0.0735755 -0.038325667 0.008523361
0002a0 86 ec e7 bd b3 f2 9c ba 84 f1 0b be a1 25 c3 bd
       -0.1132441 -0.0011974185 -0.1366635 -0.095286615
0002b0 55 31 11 3e 74 c7 01 3e 5d 2d 0d 3d 31 67 aa bd
       0.14178975 0.12673742 0.03446709 -0.083204634
0002c0 91 03 e1 bd 5e 05 99 3d 1b 61 be 3b 76 5a c6 3d
       -0.10987008 0.07471727 0.0058099157 0.09685223
0002d0 a8 3e 0c 3c 4f 00 c9 bd 5a 36 95 3d 9c 4f d0 bd
       0.00855986 -0.09814512 0.07285757 -0.10171434
0002e0 5a a3 11 3e 77 17 a6 3d 62 0a 37 3d b1 95 15 3e
       0.1422247 0.08109944 0.044687636 0.14607884
0002f0 3f 5f 06 3d 72 6b ec bd 75 1f 10 3d 9e c0 7e bc
       0.032805678 -0.11543931 0.03518625 -0.015548853
000300 84 94 8b bd 67 48 47 bd 02 8a 85 bd da 6c 3f 3d
       -0.068154365 -0.048653033 -0.065204635 0.04673467
000310 cb c2 0e 3e c8 de d4 3d af 26 e3 bd 69 01 f7 bb
       0.13941495 0.10394055 -0.11091363 -0.00753801
000320 32 e8 6e bd a6 2a ec 3c f8 80 6d 3d cb 67 a6 bd
       -0.058326907 0.02882893 0.057984322 -0.08125266
000330 84 5b d2 3c f8 1f 88 3c 3f 7e db bd e9 0b 1f 3d
       0.025678404 0.016616806 -0.10717439 0.038829718
000340 c6 0b 0a be 68 a3 34 bd dd 3c 9d 3d 01 49 95 3d
       -0.13481054 -0.04410115 0.076776244 0.07289315
000350 f4 bb 18 be 6e ef fe bd 81 78 90 bd db 54 49 bd
       -0.14915448 -0.12448011 -0.07054234 -0.04915319
000360 09 0b 94 3b ab 7d 92 3d f0 2a 0d bc 6e 99 4c bc
       0.004517917 0.071528755 -0.008616194 -0.012487752
000370 7c 8f 3d 3d de 8b 6c 3d b0 45 10 3e cf 3c fc 3d
       0.046279415 0.057750575 0.14089084 0.12316286
000380 90 39 cd bc bb 49 cf 3c 60 57 12 3e 00 c5 fb bc
       -0.025051862 0.025303712 0.14291143 -0.030733585
000390 7f 0f 1f be c0 36 92 3d 5b 3a b2 3d 38 ac ce 3c
       -0.15533255 0.07139349 0.08702537 0.025228605
0003a0 b6 16 22 3d 04 f9 11 3e e0 51 01 3c b4 3a 00 3e
       0.03957244 0.14255148 0.007893056 0.12522393
0003b0 21 d4 7f 3d 89 b3 1d be 26 ef 0e 3e c4 99 05 bc
       0.06245816 -0.15400518 0.13958415 -0.008154336
0003c0 64 6a e8 bc 5f f9 33 bd 34 5e 14 3d 0d 4c 1e 3d
       -0.028371044 -0.04393899 0.03622265 0.038646746
0003d0 51 97 ac 3d 5c e4 21 3d 4d d8 c4 bd 0a 9a 34 3d
       0.08427299 0.03952442 -0.096115686 0.044092216
0003e0 de 4d b2 3d 72 f8 d6 bd be 30 d0 bd 5a a2 52 bd
       0.08706258 -0.10496606 -0.10165547 -0.05142436
0003f0 ac 82 23 3e 50 14 82 3d db 82 a4 3d 1a a7 32 be
       0.15967816 0.063515306 0.08032771 -0.17446557

value_fc1.bias f4 [64]
000000 91 d3 e6 bb 49 9f 4b 3c 16 d7 87 bc d4 0a 22 3d
       -0.0070442636 0.012428113 -0.016582053 0.039561108
000010 9b a9 b9 bb c9 66 ee 3c 9c 6b 44 bd fc be a5 bc
       -0.0056659705 0.029101746 -0.047954187 -0.02023267
000020 04 a4 a0 bc f8 8c 7e 3c 62 7f a0 3c 32 36 bf bc
       -0.019609459 0.015536539 0.01959199 -0.023341272
000030 24 ce 1d bc 22 25 94 bc 73 3f b9 3c ce 5d 1b 3c
       -0.009631667 -0.018084113 0.022613263 0.009482814
000040 d4 c7 ec bc 54 a8 1c 3d be 00 fc bc 1b 49 69 bc
       -0.02890388 0.038246468 -0.030762073 -0.014238621
000050 d6 64 40 3c f4 7b 1e bd 0a 4c 5a bc 24 ea d5 3c
       0.011742791 -0.03869243 -0.013323793 0.026112624
000060 ed d5 54 bc ff dc 46 3c e0 23 9c bb b0 c1 35 bc
       -0.012990457 0.0121376505 -0.004765019 -0.011093542
000070 04 ef e1 3a ee ef 8b bc 4e 22 f7 bc 3e 86 16 3b
       0.001723737 -0.01708218 -0.030167725 0.0022968198
000080 f6 2d 9e 3b d1 f2 a1 bc eb be df 3c ca e2 f4 3b
       0.0048272563 -0.019769104 0.027312716 0.0074733244
000090 0a 78 d3 3a 6d 3a 13 3d a0 3f 55 bc 57 7d f0 bb
       0.0016133797 0.03594439 -0.013015658 -0.0073391604
0000a0 bb 32 96 3b 28 bb ee bc 62 62 02 3d 56 23 86 3b
       0.0045836843 -0.029141977 0.031832106 0.004093568
0000b0 66 74 3a bc 64 7f e3 3a 5b 0d c0 3b ec 7b 49 bc
       -0.011380291 0.0017356691 0.005860967 -0.012297612
0000c0 37 89 30 bb 82 e0 59 bb 05 94 a2 bc 5d 9f c5 bd
       -0.0026937255 -0.003324539 -0.019845972 -0.09649537
0000d0 d6 59 d4 bc b3 4e 15 3d 90 d7 e9 bc 7d e7 b3 3b
       -0.025921743 0.036452007 -0.028545171 0.005490242
0000e0 96 8d 1d 3c aa e3 55 3b 3d 5f da 3b b7 41 97 3b
       0.009616276 0.003263692 0.0066641853 0.004615988
0000f0 e2 2f 00 b8 0f a8 98 bb f5 be 92 3b b1 81 5b bc
       -3.0562172e-05 -0.004658706 0.0044783303 -0.01339762

value_fc2.weight f4 [32, 64]
000000 77 89 0d be b4 2d d1 3d 4a a2 f8 3c bc 98 d9 bd
       -0.1382197 0.10213795 0.030350823 -0.10624835
000010 f9 9e ff 3c 69 5a 5d bc b1 08 02 be eb 23 88 be
       0.031203734 -0.013510325 -0.12698628 -0.26589903
000020 a1 a7 f9 be 10 eb ed 3d c6 c1 94 bc aa 65 87 be
       -0.48760703 0.116171 -0.018158805 -0.2644475
000030 33 75 b4 3d 03 02 18 be 3e 6e 48 3d a2 9c 02 3e
       0.088114165 -0.14844517 0.04893326 0.12755063
000040 a9 db 70 be d3 87 95 bc 32 ee 7c be 0f 70 e7 bd
       -0.23521294 -0.018253243 -0.2470024 -0.1130067
000050 34 25 96 3d 0c 2f 11 be 56 24 38 be 98 8e 7a be
       0.07331315 -0.14178103 -0.17982611 -0.24468458
000060 46 cb 64 3e fa 65 78 3e ff e9 49 be 91 83 7a be
       0.22343168 0.24257651 -0.19718169 -0.24464251
000070 1a 8d f6 3d 4f 5b b5 be a7 d2 3b 3d a2 4a b8 bd
       0.12038632 -0.35421225 0.04585519 -0.0899861
000080 be bd 48 bd 71 23 93 3e 97 a3 fd bd 6e 8c 44 be
       -0.049009077 0.28737977 -0.12384718 -0.19194195
000090 fe d9 79 3e c9 ea 7d be bc 8e a8 be 98 1f 88 be
       0.24399564 -0.24796595 -0.32921398 -0.26586604
0000a0 c9 39 12 3e 61 f6 72 be 06 43 63 3e 99 48 5d be
       0.14279856 -0.23726799 0.22193536 -0.21609725
0000b0 4f 82 f1 b9 f6 68 0e be ef b1 b4 3c 89 1f cb bd
       -0.0004606419 -0.13907227 0.022057502 -0.09918124
0000c0 d2 59 c1 bd 6e 0b a2 be 80 a1 bc bd 12 e7 91 bb
       -0.0944096 -0.31649345 -0.09210491 -0.0044525946
0000d0 d5 d7 29 bd 06 ff 4c be cc 4d dd 3c fd c3 83 be
       -0.0414656 -0.20019159 0.027014636 -0.25735465
0000e0 29 4c 00 be a9 17 f7 be 58 fd 39 be 93 03 a1 3e
       -0.12529053 -0.4826024 -0.18163049 0.3144804
0000f0 0b 2e a7 be b6 79 e2 3d ad 58 0e be 2a bb 55 3e
       -0.32652315 0.11058371 -0.13901015 0.20872179
000100 27 ad 8e 3d 54 52 f9 3c 96 fa bd bd a1 48 55 be
       0.0696662 0.030434765 -0.09276311 -0.20828487
000110 fa 6e f8 3d 4b ea d5 3c 97 ef 51 3e 8c e3 bf ba
       0.12130542 0.026112696 0.20501553 -0.0014639958
000120 4f e9 b5 bd 9b e1 9c be 30 4c 1e 3e c5 1c a6 3d
       -0.08882391 -0.30640873 0.1545875 0.08110956
000130 83 ec 07 bd e9 ff 1d be 54 b5 2a be 7f 6e e5 bd
       -0.03318454 -0.15429653 -0.16670734 -0.11202716
000140 a4 ea e2 3d 4c 8e f8 3d cf 33 62 3e 83 da 1d be
       0.110799104 0.12136516 0.22090076 -0.15415387
000150 51 5e 74 bd 7a 60 17 3e d2 16 9b bd d9 01 e6 3d
       -0.05966026 0.14782897 -0.07572712 0.11230821
000160 ec 99 87 be a3 dc 06 be 3b 24 92 be 0c b6 8c be
       -0.2648462 -0.13170104 -0.28543267 -0.2748264
000170 36 0f 9b be ae 26 2d be 61 5d fd 3d 8d b9 dd 3d
       -0.30285043 -0.16909286 0.12371326 0.10826407
000180 21 5a 95 bd 9d a0 1c 3e 49 4f ad 3c 52 af 66 bd
       -0.07292581 0.15295644 0.02115597 -0.056319542
000190 54 96 3e bd 1b 6e cb be 2b cc 8a be 18 8a 68 be
       -0.046530083 -0.3973244 -0.27108893 -0.22708929
0001a0 c7 4e ec bd a5 68 17 be 65 1b 35 3e 64 a7 b7 bd
       -0.11538463 -0.14786012 0.17686231 -0.08967474
0001b0 a0 10 5f 3e 67 d5 d4 bc 4e 35 1c be 7e 4e 2c 3d
       0.21783686 -0.025980664 -0.15254709 0.042067043
0001c0 1a a3 25 3e cb 27 bb 3d a9 19 1d 3e 36 fb a9 3b
       0.161755 0.09138449 0.1534182 0.0051874174
0001d0 c2 22 0d 3d 01 ff 33 bd b3 56 75 3e a6 62 5b bd
       0.034456976 -0.043944363 0.23958854 -0.053560875
0001e0 25 b2 dd 3d 40 b3 bb 3c e2 c5 78 3d a9 74 f5 bd
       0.10824994 0.022912621 0.06073559 -0.11985142
0001f0 19 d0 4c ba 8c 75 77 be a8 d9 8c be 8c 93 3c be
       -0.00078129914 -0.24165934 -0.2750981 -0.1841566
000200 31 58 6e bd e4 22 28 3e 2c 40 90 3d 13 1f f4 bd
       -0.058189575 0.1641956 0.0704349 -0.119199894
000210 eb 3f 9d 3e 8e 46 6f be 2b 6c 07 be f0 33 bb bd
       0.30712828 -0.23366758 -0.13224857 -0.09140766
000220 f5 1b 8a 3d 7d 6d 6e 3e 6e 47 73 3e 2b 49 6b 3e
       0.06743614 0.23283954 0.23757717 0.2297713
000230 d2 40 cb bd e2 2b b0 bd 98 00 01 bd de 1f 42 bd
       -0.09924473 -0.0860212 -0.031494707 -0.047393672
000240 48 99 b9 3d 5a d7 1b be ea b5 06 bd b0 7f 14 be
       0.09062439 -0.15218869 -0.03288833 -0.14501834
000250 09 c5 db bd d9 34 8d be 3c fc 4b be ee d6 87 bd
       -0.10730941 -0.27579382 -0.19920439 -0.066327915
000260 0f 72 84 3e 4b 57 e2 bd 3d 71 1f 3e 1c a6 4b 3e
       0.2586827 -0.11051806 0.1557054 0.19887584
000270 19 d6 89 bb 56 fb 58 bd 0b 61 2e be f3 f8 ce 3d
       -0.0042064306 -0.052974068 -0.17029206 0.10106077
000280 b3 47 b1 bb 84 e6 b7 be 52 bc 34 be d6 9a 4d bd
       -0.0054101585 -0.35918057 -0.17649963 -0.05019649
000290 fd bf d0 bd d3 7a 7a be 7f 4b bb 3c f4 c7 3e bd
       -0.10192869 -0.24460916 0.022863148 -0.04657741
0002a0 0f 03 69 3e a1 44 0b 3d 31 6e 36 be a0 bb 8c bd
       0.22755073 0.034000997 -0.17815472 -0.06871724
0002b0 ca 11 96 3d aa d0 01 be 8b 01 f4 3c 57 89 27 3d
       0.07327612 -0.12677255 0.029785892 0.04090246
0002c0 65 10 57 be be 69 3e be 93 a0 10 be 57 8c 84 3d
       -0.21002348 -0.18595025 -0.14123754 0.0647208
0002d0 a0 8f a7 3c fc c4 58 3e 2e b1 69 3e f5 17 db bd
       0.020454228 0.21168894 0.22821495 -0.10697929
0002e0 d9 3d 1d be e7 d0 90 bd 51 32 e8 3c 93 f4 6b bc
       -0.15355624 -0.07071095 0.028344305 -0.014401573
0002f0 a8 e6 fd 3d d1 14 7b bd 01 7d 06 be 5b ff 7b be
       0.1239751 -0.06129915 -0.13133623 -0.24609129
000300 3c dd e7 bd 6b 50 50 3e 5e f0 e9 bc 65 ae 7a 3d
       -0.11321494 0.20343177 -0.028556999 0.06120147
000310 94 c3 53 3c 22 ff f7 3d 2e d0 11 3d 80 64 c0 bd
       0.012925047 0.121092096 0.035598926 -0.09394169
000320 ff c5 67 3d a7 e3 45 3e c1 58 2c 3d 81 89 ee 3d
       0.05658531 0.19325124 0.04207683 0.116473205
000330 3c 30 c6 3c 06 e0 60 3d fd 70 9c bc 38 da 3d 3d
       0.024192922 0.054901145 -0.019096846 0.046350688
000340 af f7 1b be 04 a3 2a be 26 70 8f bd d2 8a 5b be
       -0.15231203 -0.16663748 -0.070038125 -0.21439674
000350 6b b1 24 3e 26 88 7f be 6f 19 3f 3e 9d 18 f8 3d
       0.16083305 -0.2495428 0.18662046 0.121140696
000360 5b ef 41 be b9 4c 37 3e a7 6a 0c be 05 5b 9b 3d
       -0.18938963 0.17900361 -0.1371256 0.0758572
000370 87 76 85 bd 23 31 0e 3d 58 93 00 be d4 02 79 bb
       -0.06516748 0.03471483 -0.12556207 -0.003799607
000380 80 15 c5 bc 39 75 1e be 57 d0 0e 3d 52 98 f6 3c
       -0.024058104 -0.15474404 0.034866657 0.030101929
000390 c9 f4 41 3e 0c f2 87 3d 50 2e 2b 3c 1f 0c b6 bd
       0.18941034 0.06637964 0.0104480535 -0.08889031
0003a0 69 0b c8 3d 0c 2b 21 bd 70 de 30 be 45 53 3c bd
       0.09767801 -0.039347693 -0.17272353 -0.04597785
0003b0 95 74 9b 3d 34 72 08 3e b7 e8 82 be f7 8f c8 bd
       0.07590596 0.13324815 -0.25568172 -0.09793084
0003c0 8f 23 97 3d 4a ad 0d 3e 55 94 28 3d 3c 35 6a 3c
       0.07379829 0.13835636 0.041157085 0.014294919
0003d0 24 f5 01 be f9 37 d2 3d 2d ee e7 bd 18 04 02 be
       -0.1269117 0.10264582 -0.11324725 -0.12696874
0003e0 67 0f 01 3e c6 00 33 be 41 b3 19 3e 61 13 4e 3e
       0.12603532 -0.17480764 0.15009786 0.2012458
0003f0 c1 06 35 be f4 5a 34 bc f6 b3 3c be e3 a9 36 3e
       -0.17678358 -0.011008013 -0.18428025 0.17838244

value_fc2.bias f4 [32]
000000 e7 ee 70 3c ae 84 ed bd f9 08 d3 bd a8 20 75 3d
       0.014705396 -0.11597572 -0.10304446 0.059845597
000010 8e 28 43 3e 03 2d 43 3d 9d c2 d2 3c 3f 4f 1f 3d
       0.19058439 0.04765035 0.025727564 0.038893934
000020 f3 a5 0f bc 3a 11 bf bd f6 28 31 bd 58 76 04 3d
       -0.008767593 -0.093294576 -0.043251954 0.032339424
000030 77 64 22 3d da f9 e7 3b 56 78 47 3d 86 15 4f 3c
       0.039646592 0.007079345 0.048698746 0.012639409
000040 72 d6 6d bd f7 46 5c bd 9d 8b 0b bd ca 38 28 3d
       -0.05806584 -0.053778615 -0.034068692 0.041069783
000050 22 1d 08 bc b4 da ab bd 23 c4 59 bd 78 e0 c2 3b
       -0.008307727 -0.08391324 -0.053165566 0.005947169
000060 08 bf 11 3d 5d e9 65 3c 76 cd 76 3c 18 cd 9e 3c
       0.035582572 0.014032689 0.015063634 0.019384906
000070 fd b7 ca bb 8b 69 b4 3d 7d f2 6f 3c 31 4e 72 3d
       -0.006186484 0.08809193 0.014645216 0.0591566

value_fc3.weight f4 [1, 32]
000000 56 82 e3 be e7 06 ce 3d 62 a3 4f 3c 83 9f cf 3d
       -0.44435376 0.1005991 0.012673231 0.10137846
000010 2c b8 0d 3e fb 0d 34 3f 49 bd 62 3f 4d 5f c2 3e
       0.13839787 0.7033383 0.88570076 0.37963334
000020 b7 4c f3 bb 0d 42 3d 3b 4a fd 7f 3c 30 00 1d 3f
       -0.0074249166 0.002887848 0.015624354 0.6132841
000030 ca 1b 12 3f 3f db 8a bb 7c fc 58 3e 83 ea 23 3f
       0.5707365 -0.004237562 0.21190065 0.6402971
000040 0b 0f d9 bd 2e 74 c0 bd b9 be 1b be e0 77 d8 bc
       -0.10598572 -0.093971595 -0.15209474 -0.026424348
000050 b7 1c 80 be 58 12 80 3e 3c dc d7 bc 7e cb b1 3d
       -0.25021908 0.25013995 -0.026350133 0.08681391
000060 b7 d7 ef 3a a4 e3 9c 3e 8c 9d d2 3e 06 81 e2 bb
       0.0018298541 0.30642426 0.41135824 -0.0069123534
000070 51 3c 59 3a 92 91 03 3c 1e 2b 5b bd 2d f9 2d 3e
       0.0008286881 0.008030312 -0.053507917 0.16989584
