rl/spin_model_11261558/71.pt (torch_old, 159601 bytes, 12 tensors)

log_std f4 [51]
00000000: 929f ccbe ed0a d6bd 70bd bbbe caf2 d13d
00000010: 1acb 8e3d 2563 20bd f310 84bd da80 3b3d
00000020: 8449 d53d 9e77 a03a 119f 3dbd 8b4e 11bd
00000030: c071 9c3d 649d bc3d b7c4 b0bd 3d14 e53d
00000040: e87a a0bb 5d96 463d 66fd 733d 03ce 7f3d
00000050: 46cc d73d 14e1 59bc 67c7 df3d 296d 56bd
00000060: e033 d03d 0607 883d ef79 20bd 998d 863e
00000070: a07d f63d e80d 563c 89b8 163d 4ea5 b13d
00000080: 03e9 18be d659 6e3c 1037 323e 3348 debc
00000090: 9e47 053c e90c ba3b f0fd 7c3e 799a 0c3d
000000a0: 4c87 acbd 6581 963d 3206 873d 9d44 bbbd
000000b0: b71a 113c 89d1 d03d 6614 c8b9 88b4 17bd
000000c0: b88a a13c 66b4 2d3d 9d63 d83d
-0.39965492 -0.10451303 -0.36667967 0.102513865 0.06972332 -0.03915705 -0.06448545 0.04577718
0.104144126 0.001224268 -0.046294276 -0.035475295 0.076388836 0.092097074 -0.086312704 0.11185501
-0.004897464 0.04848324 0.05956783 0.062452327 0.10537009 -0.013298292 0.10926705 -0.052350197
0.10166144 0.066419646 -0.039178785 0.26279905 0.1203568 0.013064839 0.03679708 0.086741075
-0.14932637 0.014547786 0.17403817 -0.027134037 0.008134751 0.0056778085 0.24706244 0.034327004
-0.08424243 0.07348899 0.065929785 -0.09143946 0.008856467 0.10196216 -0.0003816217 -0.037037402
0.019719467 0.04240837 0.10565875

policy_fc1.weight f4 [64, 261]
00000000: 47d9 be3d 8108 0bbe 9862 ff3c 3b4d 063e
00000010: eee8 523c af83 643d be89 01be 7392 87bd
00000020: 98b8 a33d d03d 2c3d 86c4 a53d c930 df3d
00000030: 7630 26be a2cc f63d 9233 debd dca6 04ba
00000040: 4700 3e3d cfcb 413d 52ff dfbd faa3 5bbc
00000050: 00db 2a3d 9809 693d bf50 253d c11b 053e
00000060: 80dd ffbd 08c7 bfbd 5225 d73d 46ec da3d
00000070: 348d a3bc 90e5 d53d 40e4 f5bb 80ae ae3d
00000080: b3fe ca3d 2d5e d13b c5e2 81bd 8f34 813d
00000090: 7da4 06be 8ce0 88bc 550b 883d ef0e 323d
000000a0: c086 0e3e 9b30 f9bb b49f 573c cdb2 9a3d
000000b0: a265 b03d 2220 ff3c d7d0 543e d9dd 463d
000000c0: 45b6 533d 3227 713c 213b b4bd d92b 0ebd
000000d0: c07b 053c 0fad 523d 5a90 15bd 0c91 c7bd
000000e0: 23bf 953d e596 49bd aba6 2cbe 5041 283e
000000f0: 5cd6 183e e6a8 843b 05cc dabd 841a d83d
00000100: e819 6b3d a498 d6bc b2b2 a7bc 0fc0 123d
00000110: 7953 9fbc 845b b1bc 832a 733b e7ce 50bc
00000120: d14e 223e 779a 0a3d 5305 cebd 8ce6 ddbc
00000130: cbbe 923d 98b2 ea3c 7a17 03be 5f96 debb
00000140: 017b 04be 9e6a d33c b3a6 abbc efc1 70bb
00000150: 7b9f e5bd 7ada 8ebd 0f04 713d 713b 8dbc
00000160: 4dfa e4bd 390e c6bc 1d27 3ebe b913 f8bd
00000170: dc17 9bbd f50c 103d 23ef 40be 9583 c13c
00000180: 5167 2e3d 09f2 8f3d d357 10be 5900 8ebd
00000190: e05c 813c 3420 85bd 8d62 05be 3d1f fbbd
000001a0: ee89 4ebc b992 683d d736 babd 41f7 0bbe
000001b0: 1fc8 64bc 8de9 dbbc 8741 0fbd f526 f6bd
000001c0: 531a 9dbc 189f 943b 22f2 963d 63e1 d8bd
000001d0: a3ce d9bd ed95 963d 06be 713d 644a f13c
000001e0: eb21 ee3d 28c0 a83d 6a75 dd3d 460b 8e3d
000001f0: efae 233d ed39 df3d 939c c33c 4ee5 e6bc
00000200: 17ee e93d 8bb7 ddbd 11ed c63c 5025 1abe
00000210: 30c0 ad3c 927b 913d 48fc fdbd ce00 01be
00000220: a95e debd 3481 0e3c b190 be3d a4ca 73bc
00000230: 0ffa 00bd cc4d 243d f5c2 b1bd 89b8 943d
00000240: dcca b53d 1f77 c63d 0be2 823d de28 1ebd
00000250: e8de 81bc e5ab 20bd 3173 d2bd 7754 8cbd
00000260: 423e b0bd 76b9 b1bd 73c0 b4bd 4892 a53d
00000270: 63a6 1d3a bfa6 4bbd 849d b83d 3e97 da3d
00000280: 6979 f13b 3bf2 e5bd b7e2 1b3a 47ba 1ebe
00000290: 3f13 573d e02a 06bd 2cc8 5cbe 90d1 88bd
000002a0: 295d b83d fcda e5bd a95a 0bbc f2dd 113e
000002b0: ec9e 033d ab3d 583e f73e 373e 8a9c 173e
000002c0: 48fe 5f3d 0dd6 41bb a855 1b3e 9da4 4b3e
000002d0: d5f2 113e 6275 f13d c5a5 c13c 6146 043d
000002e0: 8b21 8bbc a751 fb3d 6427 d03d f983 01bd
000002f0: 55e4 c33d 2c4d 1b3e c862 e3bd c556 733e
00000300: 04bb 1a3e c3ef ff3d 953c 423e dd65 acbd
00000310: 06af d23d 39ed 203e c1a6 b83d 143d f33d
00000320: f6b1 063e 4461 5c3d 1e85 c73d 621e 20bd
00000330: 3157 8bbd f5ba 01be f13c ab3d 15bd ebbb
00000340: 7e8a 613c 6dec 073e 158c 293e 975f 38be
00000350: d864 bfbd da52 c13d 3788 1cbd 9a1a 59bd
00000360: 64e9 d53d 6f18 6fbd f839 cb3d d5bf c73d
00000370: 23e7 533e 4e33 1a3d bc26 18bd 46bc 2d3e
00000380: ff83 083e 1f7f 34bb 15b7 f939 88fc 6c3c
00000390: 08aa b83d 7643 88bd 9385 363d ed31 ff3c
000003a0: 3c54 19be bd83 e7bd de7d 433e 1c28 10be
000003b0: e4a9 863d b370 503e 9919 b6bd f23d e33d
000003c0: 721a a03a 29f3 f6bd 4a67 55bd 8456 a53e
000003d0: b5f1 893a 2e22 133d 81a3 433e 0c11 85bd
000003e0: 1b38 31bd 0ce7 d03c 3b59 e7bd d7a3 00bd
000003f0: 512e 00be 47d2 21be c7f1 e5bd 5cef b2bd
0.09318786 -0.13577463 0.031174943 0.13115399 0.012872918 0.055789646 -0.126502 -0.0661973
0.07994193 0.042051136 0.080941245 0.10897977 -0.16229424 0.12050749 -0.1084968 -0.00050602644
0.046386983 0.047313508 -0.1093737 -0.013405794 0.04171276 0.056893915 0.04036021 0.12998869
-0.1249342 -0.09364134 0.10505165 0.10689597 -0.019964792 0.10444176 -0.007504016 0.08529377
0.09911861 0.0063894005 -0.06342081 0.06308853 -0.13148685 -0.016708635 0.066427864 0.043471273
0.1391859 -0.007604671 0.013160635 0.07553635 0.08613135 0.031143252 0.20782791 0.048551414
0.051687498 0.014718818 -0.088003404 -0.034709785 0.00814718 0.051434573 -0.036514618 -0.09744462
0.07311847 -0.04921617 -0.16860454 0.16431165 0.14925522 0.0040484546 -0.10683445 0.105519325
0.057397753 -0.026195832 -0.02047095 0.035827693 -0.019448983 -0.021650083 0.0037104196 -0.012744642
0.15850379 0.033838715 -0.10059609 -0.027087472 0.07165297 0.028649613 -0.12801924 -0.006792828
-0.12937547 0.025807675 -0.020953512 -0.0036736687 -0.11212059 -0.06975265 0.05884176 -0.017240258
-0.111805536 -0.024176704 -0.18569608 -0.12113137 -0.0757291 0.035168607 -0.18841223 0.023622314
0.042579 0.070285864 -0.14096002 -0.0693366 0.015791357 -0.06500283 -0.13025875 -0.122618176
-0.012606127 0.05678055 -0.09092491 -0.13668539 -0.013963728 -0.026844764 -0.0349746 -0.12019149
-0.019177591 0.004535567 0.07370402 -0.10589864 -0.10635116 0.07352815 0.05901911 0.029454418
0.11627563 0.08239776 0.108134106 0.06935744 0.03996175 0.1089972 0.023878371 -0.028185513
0.11422365 -0.10826024 0.024282964 -0.15053296 0.021209806 0.07103647 -0.124016345 -0.12597963
-0.10857899 0.008697797 0.093049414 -0.014879856 -0.031488474 0.040113255 -0.08679763 0.0726176
0.08876583 0.09690689 0.063907705 -0.038613193 -0.01585336 -0.03922643 -0.10275877 -0.06852048
-0.08605625 -0.08677952 -0.08825769 0.080845416 0.0006013868 -0.04971957 0.09014419 0.106733784
0.0073692095 -0.112278424 0.0005946564 -0.15500747 0.05250859 -0.032755733 -0.21560735 -0.06680596
0.09002144 -0.112234086 -0.008505502 0.14244822 0.03213398 0.21117274 0.17895113 0.14805809
0.05468586 -0.0029577047 0.15169394 0.19887014 0.1425279 0.11789967 0.023638615 0.03229368
-0.016983768 0.12271433 0.10163763 -0.03162 0.09565035 0.15166157 -0.111028254 0.23763569
0.15110403 0.12496903 0.18968423 -0.084178664 0.10287289 0.15715493 0.09016181 0.11876884
0.13153824 0.053803697 0.09742187 -0.039091475 -0.0680374 -0.12668975 0.08361233 -0.007194171
0.013765929 0.13273783 0.16557343 -0.18005215 -0.09345406 0.09439631 -0.038215842 -0.053003885
0.10444906 -0.05837291 0.09923166 0.09753386 0.2069364 0.037646584 -0.037146315 0.16966352
0.13331603 -0.002754159 0.00047629388 0.014464505 0.09016806 -0.06653492 0.04456098 0.031151736
-0.14973539 -0.11304424 0.19090983 -0.140778 0.06575373 0.20355491 -0.08891601 0.110957995
0.0012214913 -0.12058098 -0.052100457 0.3229257 0.0010524305 0.03592127 0.1910534 -0.06497392
-0.043266397 0.025500797 -0.11296316 -0.03140625 -0.12517668 -0.1580287 -0.11227756 -0.087370604

policy_fc1.bias f4 [64]
00000000: fc90 d4bb 0515 833c 16d4 7bbc 6bb9 393a
00000010: 226c ce3c e2da 80bc c410 7ebc 8851 453c
00000020: 38d0 f3bc 170d babd cce8 afbb c1f8 bcbc
00000030: 3ee9 993b 4c02 bebb 822d 513c bcd2 5fbd
00000040: 4ebd 3cbd 9353 8bbc c55d febc b90a a4bc
00000050: 553a 803c 8ce0 d7bb ff3e b93a 3954 9f3a
00000060: d148 e8bb 1adf dc39 ce13 f6bc d670 fbbb
00000070: 4ebb 86bb 81d0 f5bc bfa8 88bc 3ab5 663b
00000080: 520b bebc ca29 263c b182 4dbc f2cf e8bc
00000090: fe14 5d3b cae7 afbc 95e2 43bc dc23 90bd
000000a0: a0ef 80bd a37f 06bd 2b6d b9bc dded 32bd
000000b0: addf 8fbc c6ed cbbc 3c92 a9bc dcbf 3dbd
000000c0: ef35 c6bb eb68 31bc deb3 cbbc f5ec 1fbd
000000d0: 00f1 adbd f037 c9bb 85cd 75bb 0cc2 95bc
000000e0: 54cc debb 571f 82bc 9e77 a8bb 2e74 203c
000000f0: f2f6 523c 2f1d 4ebd 51bf 64bd 9d8b ac3b
-0.00648701 0.016001234 -0.015370389 0.00070848194 0.025198046 -0.015729371 -0.015506927 0.012043364
-0.029762372 -0.09084528 -0.0053683277 -0.023067834 0.004696994 -0.0057986137 0.012767198 -0.05464433
-0.046078973 -0.017007625 -0.031050572 -0.020024644 0.015652815 -0.0065880474 0.0014133154 0.0012155838
-0.0070887585 0.00042127894 -0.03003874 -0.007673363 -0.004111684 -0.030006649 -0.016682027 0.0035203234
-0.023198757 0.010141799 -0.012543366 -0.028419469 0.0033734436 -0.02147283 -0.011955877 -0.0703809
-0.06295705 -0.032836568 -0.022635063 -0.043683875 -0.017562712 -0.024893653 -0.020699613 -0.04632555
-0.00604891 -0.010828237 -0.02486604 -0.03904434 -0.08493233 -0.0061407015 -0.0037506532 -0.018281005
-0.00679926 -0.015884085 -0.0051412126 0.009793324 0.012876259 -0.0503208 -0.055846516 0.0052656666

policy_fc2.weight f4 [32, 64]
00000000: 4bcd 343e c6ee 4ebe bd9a bc3d e59b 1a3d
00000010: 22fb 163d 1207 91be 6100 47be 3c59 253e
00000020: 6ea5 99bd f442 90be 19ba cb3d 8dfa f33d
00000030: 043d fb3c 9f20 5bbe 2356 f9bd 3128 09bd
00000040: 00e6 5cbd e233 cdbc 94fe 10be 096d 8abe
00000050: e549 f43d 0f3f 6fbc eb08 5b3e 7c5b b33d
00000060: 0594 75be 830d 26be b802 813e a52b 06be
00000070: 8159 063e eea2 07be ca6c 98bc 3b76 8abd
00000080: 47fd 54be 6762 363d 44d1 223e a482 55be
00000090: 384b 44be ee3c 20be abfa 723e 9f76 3fbe
000000a0: 20dd 7fbe d5f1 af3b b80a a0be ea19 15be
000000b0: 2a96 5d3e 78cf 523c 0d4c a03e 7609 9cbd
000000c0: 0f46 043e a639 05be 67b1 133e 0357 55bd
000000d0: bacb 3cbd 3a2f 59be 612b 343e f16d 783c
000000e0: 0774 18be 5459 91bd fde9 0a3c 56f5 83be
000000f0: 2769 dfbd 4105 10bd a112 133e d69a 55bd
00000100: 1c2b 033e de5e 2cbe a7c7 acbd 8090 52bd
00000110: fe91 a0be 6c0a d73d 4f81 dcbc 350c 9d3c
00000120: 280d 1a3e a463 2c3d b2ac f63d ad76 bebc
00000130: 1d3f 893d 74dd 0bbe 18b3 7b3d c963 fbbc
00000140: baf3 3b3e 0b4f 833d 9136 e7bd febb 843d
00000150: 5c23 22bd d6d1 8c3d 62b2 1cbe 5674 30be
00000160: 1657 77be a8d4 a53d 76f2 923e 4ac0 0c3e
00000170: 2b0d edbd 131d 06be e72a 463d 900c 7dbe
00000180: 141e 183e 7cbd 60be 7087 23be 7681 983d
00000190: 2ea9 3dbe 6375 b63d 4b59 203e a046 06be
000001a0: 86b5 eabd 7eaf 123c 1786 8c3e 610d 803e
000001b0: 77d5 183d 6f4c 183e 7c50 a43d 3fb0 5fbe
000001c0: 5244 513e 12a3 ec3d f3fb c53c bdd3 aebe
000001d0: 7333 e93d bef8 14be ecd8 9c3e cace 09bc
000001e0: 2631 543e 1d4a 6cbe af4d 3ebe cc8f ea3d
000001f0: 62bd 613e d51a 783e 1001 95bd 5f14 1c3d
00000200: 5b1a f2bb dd36 1d3e 3428 b33d ba72 513e
00000210: 3640 ae3d 5227 e33d 290c 66be 6357 313d
00000220: 7910 8ebc c287 b2be 44a1 83bc a17a 363e
00000230: c69d eabd 7186 ea3d 0388 09bd ef9e e1bd
00000240: f66a 94bd 8366 c83d 6570 abbd 9d82 f7bd
00000250: e8da 76bd b56d 263d 5a07 4a3e 2b2a fc3d
00000260: 6033 7dbe 6c78 d73c b46c 04be 5e6b 3e3e
00000270: b4b3 0f3d 66af dcbd d3c8 57be b5b9 33bd
00000280: 60df 53be 2f5c 9f3d 125e 9bbe e13b 803e
00000290: 0945 3ebe 8b7f 793d 326a d33d 8190 e63c
000002a0: dc7e 4a3d 907f b63d 68b4 94bd 1f67 f4bd
000002b0: a63e 1ebd ed44 06bc 632e 7f3e da33 b9be
000002c0: ec0a 183e ee02 163e 1407 2f3d 886c b73d
000002d0: 4bea 873d 4888 753c c6a1 71be d317 23bc
000002e0: 6fb3 913e ab4e 323e 8692 083e 007f f4bc
000002f0: e6f3 1e3e 5171 7dbd e106 29be 170b 203e
00000300: e41f 6ebe 5d16 c33d 169a 5fbe 5981 e23d
00000310: 4054 a73d 9b88 983d 2338 043d 536a 123b
00000320: 703a 01bd 4c2b 05be 96a5 1bbe 0bd8 e03d
00000330: 7d18 1e3e 547a 763d 2868 953d 6c2d 02bd
00000340: 25d0 6b3d 8640 76be a20c 8b3d 9a04 32bd
00000350: fcf3 51be 05f3 b0be 37fb 71bd 6ef0 bc3d
00000360: 1f86 76be de53 923c 2d58 a6bd e026 31be
00000370: a566 6dbe 233b 453d 2e73 9f3e 4378 1dbe
00000380: b8d8 d23d 181a 573c 51b2 033e 75ea 733d
00000390: d3c3 4ebe a229 8fbc a0f9 85be d8e1 6e3d
000003a0: aab8 1cbe e8ab 143c 266c 04be 4c0d 2abe
000003b0: a7ad 91be 9c4c 513e 1146 3d3d 24de 1e3e
000003c0: ac51 073d 3c7c 393d c4ff 7cbe 3f3b 66be
000003d0: a0ac f9bd a78b 03be 0811 51be e42a 85bd
000003e0: 14df 173e 5f8a 453d 7963 373e f8b6 063e
000003f0: 9bd2 aebe 0d6e c2bd 2a59 3cbd 31a4 f8bc
0.17656438 -0.20208272 0.092092015 0.03774633 0.036860593 -0.28325707 -0.19433738 0.16147321
-0.07502256 -0.2817608 0.09947605 0.11913023 0.030668743 -0.21399163 -0.121746324 -0.033485595
-0.053930283 -0.025049154 -0.14159614 -0.27036312 0.11928157 -0.014602437 0.2139012 0.08757684
-0.23982246 -0.16216092 0.25197387 -0.13102587 0.1312008 -0.13245746 -0.018606562 -0.06760832
-0.20799743 0.044527438 0.15900141 -0.20850617 -0.19169319 -0.15648243 0.23728435 -0.18697594
-0.24986696 0.005369405 -0.31258178 -0.14560667 0.21639314 0.012866847 0.31308022 -0.07618992
0.1291735 -0.13010272 0.14423142 -0.052084934 -0.046092726 -0.21209422 0.17594673 0.015162931
-0.14888011 -0.07097116 0.008478639 -0.25773114 -0.10908728 -0.03516126 0.14362575 -0.052149616
0.12809414 -0.16833064 -0.08436518 -0.051407337 -0.31361383 0.10500035 -0.026917128 0.01917086
0.15044081 0.042087212 0.12044658 -0.023249948 0.06701491 -0.13658696 0.061450094 -0.03068723
0.18354693 0.064115606 -0.112897046 0.06481169 -0.039584503 0.068759605 -0.15302423 -0.17231879
-0.24154314 0.080972016 0.28700608 0.13745227 -0.11574777 -0.13097028 0.04838076 -0.24711823
0.14855224 -0.21947283 -0.15969634 0.07446568 -0.18521568 0.089091085 0.15659063 -0.13112879
-0.11460404 0.008952973 0.27446052 0.25010207 0.03731295 0.14872907 0.08023164 -0.21844576
0.20436218 0.11554541 0.02416799 -0.34145918 0.11386766 -0.14548013 0.30634248 -0.008411119
0.20721874 -0.23075147 -0.18584321 0.11453208 0.220449 0.24228986 -0.07275593 0.038105365
-0.0073883957 0.1535296 0.087479025 0.20453921 0.08508341 0.11091484 -0.22465576 0.04329623
-0.01734184 -0.348692 -0.016068108 0.17820217 -0.11455874 0.11451424 -0.033576977 -0.11016642
-0.07246964 0.097851776 -0.08371047 -0.120854594 -0.06026736 0.04063197 0.19729367 0.123127304
-0.2472663 0.026302539 -0.12932092 0.18595645 0.035083488 -0.10775642 -0.21072702 -0.043878276
-0.2069068 0.077812545 -0.30345207 0.25045684 -0.18581022 0.06091265 0.103229895 0.028145077
0.04943739 0.08911049 -0.07260972 -0.11933731 -0.038633965 -0.008195144 0.24920039 -0.36172372
0.14847916 0.14649555 0.04273136 0.089562476 0.06636485 0.014986105 -0.23596868 -0.009954411
0.2845721 0.17412822 0.13337144 -0.029845715 0.15522727 -0.061875645 -0.1650653 0.1562923
-0.23254353 0.0952575 -0.21836123 0.11059827 0.08170366 0.074479304 0.0322801 0.0022341206
-0.03154987 -0.13004798 -0.15199885 0.10978707 0.15439029 0.060175255 0.07295257 -0.0317816
0.05757155 -0.24048051 0.06789519 -0.04346142 -0.20503229 -0.3456041 -0.059077468 0.09225546
-0.240746 0.017862257 -0.08122287 -0.17299986 -0.23183687 0.0481521 0.31142563 -0.15377907
0.10295242 0.01312878 0.12860991 0.059549768 -0.20191889 -0.017475907 -0.2616701 0.05832085
-0.15304819 0.009074189 -0.1293188 -0.16606635 -0.284528 0.2043938 0.0462094 0.15514427
0.033036873 0.045284495 -0.24706942 -0.22483538 -0.12191129 -0.12846242 -0.20416653 -0.06502321
0.14831191 0.048227664 0.1790904 0.13155735 -0.34145054 -0.09493647 -0.04598347 -0.03035173

policy_fc2.bias f4 [32]
00000000: 7df8 f7bc 6493 51bd 1d56 3abc 315c 14bd
00000010: b8d0 f2bc 3009 80bd cd16 603d d889 693d
00000020: 0063 a83d c09f 263d 927d e03b 3fc3 eebc
00000030: 1ab1 bbbc d382 f93c ee1f 55bd 6f58 36bc
00000040: d3be cebc 18cd 15bd f17a 17bd 5c4d ab3b
00000050: a574 613d d68f 70bd 640f 1fbd 04d8 f9bc
00000060: 98b6 21bc 6e25 8abb d9c1 913d 1105 2f3c
00000070: bc5c a1bb 6961 433b 11d3 33be b0c1 8bbd
-0.030269856 -0.051165953 -0.01137307 -0.036220733 -0.02964054 -0.062517524 0.054709245 0.057016224
0.08222008 0.040679693 0.0068509066 -0.029145835 -0.022911597 0.03045789 -0.052032404 -0.011129483
-0.025237476 -0.036572546 -0.03698248 0.005227728 0.05504288 -0.058730923 -0.038833037 -0.030498512
-0.009870194 -0.0042158877 0.07117052 0.01068236 -0.004924385 0.00298127 -0.17560984 -0.06824052

policy_fc3.weight f4 [51, 32]
00000000: 1c85 5abd 84b3 8f3e 70eb eebd 280d 37be
00000010: 7138 a53e 4c37 05bc bfee c23d 2c09 91be
00000020: 2bb8 8ebe c4b7 f53d 72e8 a5be a50a 153e
00000030: faee 38be d594 b7bd 4844 9f3d 3a15 4f3e
00000040: a527 c13d e3a4 0b3e 15f5 ad3e b841 4ebe
00000050: 17fb d1bd 257d dd3d 4e6a cd3e bc83 58bd
00000060: c7af 143c d8cd e13c 4041 45bd 5151 fb3e
00000070: d1e8 e6bd d964 833d f422 41be 42ce a83d
00000080: 4d27 b3be 91bc 69bd 0ea9 83bd 09cb 913e
00000090: c2d6 373d 0f58 19be f2f4 3b3e d5bc 6abd
000000a0: a815 1bbd cbaa 6abe 5591 ab3d 2e06 e3bd
000000b0: d4e5 83bc ad09 1abd 7747 a73e 9b20 1b3d
000000c0: 96aa 4abe 0b7f 4c3d b8c7 ee3d 321b 5a3e
000000d0: d4da 6bbd dbec 093e f11b 96bd 0b84 3fbd
000000e0: 4c51 ac3b 00b2 af3d cb0a 0bbe d05c 04bd
000000f0: 9da7 49be 9d24 093e 76e8 10be bbbd 4bbe
00000100: 17c4 553e cce7 a33d abc9 2dbe 7c9a 0fbe
00000110: ab15 2cbe 302c f23d 9f14 70be ce8b c5bd
00000120: 31e4 8dbd 9f3b aebd 4097 86bd 61ea 293d
00000130: 0075 9ebd deda 0ebe 01d8 09bc 412d 85bd
00000140: 024a de3d 26de f53d aeb1 89bd 37b2 8fbc
00000150: 6ada 423e 5ffe 99be 926d 613e aee1 6ebb
00000160: 7507 1d3e f589 a83e c522 6ebe cc36 fb3d
00000170: b495 ee3d 8284 a1bd 7623 713e dd08 03be
00000180: 7105 633e 4427 56be 07af 013e 5dca 253e
00000190: 8814 5e3c b2c2 7d3d 2c5e 8e3d 6140 0abe
000001a0: 7348 66bc 8593 a5bb d583 5e3e bd66 933e
000001b0: 1041 de3d 565e b83d 15a4 9bbc be38 09bd
000001c0: 1e63 fabd bf7e 2abc 7156 3dbe 92ce 48be
000001d0: 2951 06bd d7c6 593e 2dc9 11bd 4e43 323d
000001e0: 94a4 753e f39d c3bd d8f6 f6bd f1e4 edb8
000001f0: e3fb 4a3e 5c42 0f3e 4933 f1bd fffc 813d
00000200: 9fab 55bb 2438 30be 15e0 183e 898d ac3d
00000210: 56b0 54bd 1f47 9b3e b265 a4ba 4fac 623c
00000220: 9954 253e d8b5 a2bd 1e13 6a3e e2e3 323e
00000230: b17c 55bd 1610 6cbb 1d55 db3c 285d 31be
00000240: 2898 63bc 27de 69be 5e4f 61bd 8b9e 9ebb
00000250: 33fe 6ebe 3a48 123d 76b0 823b d17a 4ebc
00000260: 6724 b4bc dcef e73d ce38 80be ff7d 9c3e
00000270: 7213 6e3b ca94 43be 8cb8 173e cbe4 2c3e
00000280: 2e51 5bbe 3700 fb3d 54e0 a3bd 65be 423e
00000290: 7975 913e b70d 6dbd 7efe 14be b756 c83d
000002a0: 0fa5 3abd a152 143e 08ff ccbd 6098 5e3e
000002b0: 01f3 673d 7347 423e 1860 3ebe 6c7f 2ebe
000002c0: 3467 983d 9bf6 723c 9127 423e c73b 3abd
000002d0: e9f3 0d3e 573b 88be ca50 dabd 5ea5 2e3e
000002e0: 01fa 8abc fb4a 5d3e 0ad4 833d f90f 83bd
000002f0: 17dd 35be df68 83be dd18 5ebd 4d23 81be
00000300: ae5b 1e3e bc0a 5f3d 1c60 893e 701d 243e
00000310: ec83 263d 93be d8bd f004 813e 80ab 80bc
00000320: 0f6f e9bd 14e4 233d ed85 b7bd 8966 d9bd
00000330: bf15 a4bb b739 8ebd 732c a1be 3e4c 97be
00000340: aabf 71be 46de 42bb 1fa2 4fbd 78bb 283e
00000350: e82e 363d 0367 4fbe 08bd 25be 395b 7ebe
00000360: 0763 40bd 832c 55be 5f06 853e 4b1a 6f3e
00000370: d627 3cbd 8ec1 81be 6279 093e 3b67 0b3e
00000380: be00 aebd ce20 4d3e c5d6 b63d 8d3b 6abe
00000390: e595 043e b8e3 ca3e 1c28 a2bd 8c0d 953c
000003a0: a737 013f 98f2 c5be 36ee 4dbd 8794 43be
000003b0: 7ef3 88bd cf71 23be 8de4 9c3e 4836 123c
000003c0: d58c 4bbe 5dd0 823e 9b35 81be ced0 db3d
000003d0: 8b81 28be 2468 8f3e ff2a 93bd 9c85 ebbc
000003e0: fc2e 043b 722e 92bd 6ec4 bdbd 0f58 9e3b
000003f0: b59b 23be d904 523c ae7e 083d ba7e 7abe
-0.0533496 0.28066647 -0.11666 -0.17876112 0.32269624 -0.00813086 0.095181935 -0.2832731
-0.27874884 0.11997941 -0.32403904 0.14554842 -0.18059912 -0.08963934 0.077766955 0.20222941
0.0943139 0.13637118 0.33976045 -0.20142257 -0.1025297 0.10814885 0.40120167 -0.052860007
0.009075112 0.027563974 -0.04815793 0.49085477 -0.11274875 0.064157195 -0.1886099 0.082424656
-0.34990922 -0.057064597 -0.06428729 0.28475216 0.044882543 -0.14974998 0.18355158 -0.05730899
-0.03786245 -0.22916715 0.08377329 -0.11085163 -0.016100802 -0.037606884 0.3267171 0.037872892
-0.19791636 0.049925845 0.11659187 0.21299437 -0.057581738 0.1346926 -0.07329548 -0.046756785
0.005258715 0.08578873 -0.13578336 -0.032315075 -0.19692846 0.13392873 -0.14151177 -0.19896595
0.20875584 0.08003196 -0.16971461 -0.14023775 -0.1680514 0.11824834 -0.23445366 -0.09645806
-0.0692829 -0.085074656 -0.065718174 0.041483287 -0.0773716 -0.13950679 -0.008413316 -0.06502772
0.108539596 0.12005262 -0.06723343 -0.017541034 0.19028631 -0.30076882 0.22014454 -0.0036450434
0.15334876 0.32917753 -0.23255451 0.12266311 0.11649647 -0.07886602 0.23548684 -0.1279635
0.22170044 -0.20913416 0.12664424 0.16190477 0.0135547 0.061953254 0.069515556 -0.13501121
-0.014055359 -0.005052986 0.21729977 0.2878932 0.108522534 0.09002368 -0.018999139 -0.03350138
-0.12225936 -0.010406195 -0.18490006 -0.1961005 -0.032792244 0.21267258 -0.035592247 0.043521218
0.23988563 -0.09551611 -0.120588005 -0.00011343684 0.1982265 0.13990158 -0.1177736 0.06347083
-0.0032603515 -0.17208916 0.1492923 0.08425433 -0.05192598 0.303277 -0.0012542515 0.013835027
0.16145553 -0.0794484 0.22858855 0.17469743 -0.052120868 -0.003602033 0.026773984 -0.17320693
-0.013891257 -0.2283865 -0.05500733 -0.004840677 -0.23339157 0.035713412 0.003988321 -0.012602524
-0.021990014 0.113250464 -0.2504334 0.30564877 0.0036327508 -0.19099727 0.14816493 0.16884153
-0.21417686 0.122559 -0.080017716 0.19017942 0.28409937 -0.057874408 -0.14550206 0.097821645
-0.04556757 0.14484645 -0.10009581 0.21737814 0.05662823 0.18972568 -0.18591344 -0.17040795
0.074415594 0.014829303 0.18960406 -0.045467164 0.13862576 -0.26607773 -0.106599405 0.1705527
-0.016964914 0.21610634 0.064369276 -0.06399531 -0.1776012 -0.25665948 -0.05422293 -0.25222245
0.1546466 0.054453596 0.26831138 0.16026855 0.040653154 -0.10583224 0.2519908 -0.015706778
-0.11398136 0.040012434 -0.08961091 -0.1061526 -0.005007475 -0.06944602 -0.31479225 -0.29550356
-0.2360827 -0.0029734536 -0.05069172 0.16477764 0.044478327 -0.2025414 -0.16185391 -0.24839486
-0.04696944 -0.20817761 0.25981423 0.23349874 -0.045936428 -0.25342983 0.1342521 0.13613598
-0.08496235 0.20032045 0.08927683 -0.2287428 0.12947805 0.3962686 -0.079178065 0.018194936
0.50475544 -0.38661647 -0.050276004 -0.19099627 -0.066870674 -0.15961383 0.3064312 0.0089240745
-0.19877942 0.25549594 -0.2523621 0.10733186 -0.16455667 0.2800914 -0.07185935 -0.028750233
0.0020169606 -0.07137765 -0.092659816 0.0048322747 -0.15977366 0.012818539 0.033323936 -0.24462405

policy_fc3.bias f4 [51]
00000000: 123e e0bd 1c24 233d 795a c0bc 10a2 593e
00000010: d466 45bc 98ca 45bd 1435 2d3e d5b0 a93b
00000020: 03f5 9bbd 73cf 873c c787 9d3d 22c6 d73a
00000030: e1f9 683d 8bf6 983d 3937 21be a7c9 60bb
00000040: 141e d13d e104 26be ee76 ab3d 0a8c 86bd
00000050: 638d 6dbd e48e 543d 2198 583c e5d1 cf3c
00000060: af7a d6bd 8f2e 9d3c fcdb 83bc 5c39 ecbd
00000070: 0e1e 5ebd aa26 30bd e69e 333d 496e 89bc
00000080: 85bc 62bd 656e b9bb 0eb7 8c3c c0c8 c23c
00000090: fb42 7a3c 9d3c 9d3d 5abf 353d 0604 943c
000000a0: db91 33bd df83 86bd cdf7 6d3d e637 873d
000000b0: a161 9d3c 157f ee3b 83d9 3f3c a71e b03c
000000c0: d7d2 523c dbbe b83c 8099 90bd
-0.10949339 0.03982936 -0.02348064 0.21253228 -0.012048442 -0.04828891 0.16914779 0.0051785507
-0.07615092 0.016578412 0.07691913 0.0016462246 0.056878928 0.07468899 -0.15743722 -0.0034299882
0.10210815 -0.16212799 0.083722934 -0.06569679 -0.057996165 0.051894084 0.013219864 0.02536864
-0.10472619 0.01918724 -0.016096108 -0.11534378 -0.05422788 -0.043005623 0.04385271 -0.01677622
-0.055355567 -0.005658912 0.017177131 0.023777366 0.015274758 0.07677577 0.04437194 0.018068325
-0.04384027 -0.06568121 0.05809765 0.06602459 0.019211592 0.007278333 0.011709574 0.021498991
0.012867651 0.022551944 -0.07060528

value_fc1.weight f4 [64, 261]
00000000: cebc 14bd 7e7e d4bd 0b08 07be 6c74 aa3d
00000010: 8f9d 07be 914b ae3d 39e0 f1bd acf5 e63d
00000020: 0718 963d 98d9 10be 5000 a53d 8898 9c3d
00000030: 3b61 02be c8f8 7a3d 9468 fbbb 933d 61bd
00000040: 6802 c5bd e05a 73bd b94a f93c 2a3d 5e3e
00000050: 1d2d 2e3d bd40 84bb 765d cabd b2a5 bcbd
00000060: ceff e03d 199b b63c 0a4e f13d 75e1 7b3d
00000070: 9bfd 023e 3bea cdbc a483 62bd aa9b 10be
00000080: fe8e 153d ee33 3dbe 6ccd 893d 0d00 b1bd
00000090: dcb0 bf3d 27db bbbd aea1 413d 5be6 cfbd
000000a0: bf04 c83d 981c f13b c211 053d fd4e a83e
000000b0: ff07 d3bd bef0 d3bd 4c1d 023d bb9f a3bd
000000c0: 8f78 25bd 2dcb 9fbd 9c9c 92bc ad32 6fbd
000000d0: f8e0 713e 42fe c0bd d1fd ab3d 42c2 b13e
000000e0: 202e c9bc 56b7 7c3d 5707 a63e b76b a63c
000000f0: 32e0 5ebc 07a4 4dbd f03b 8b3c e0d0 b93b
00000100: 1c9f 663d b239 99bd c4be 30be adf3 2f3e
00000110: c8e1 873e d3b9 ccbd df0a 97bc 6e73 0c3d
00000120: b34d 903b 76aa 1a3d a563 cc3d e44d 363c
00000130: ad02 463e 6064 33bd d65d 6b3e 87bd 013e
00000140: 4530 853d 0dcf 7c3c b298 033e 85c6 053d
00000150: ba1f 8d3c 6d8f 69bd c9d9 09be ed10 0dbe
00000160: 5737 21be f5dd ebbc c6a1 063e 9ddb f3bc
00000170: f897 eb3d 2d47 adbd 43bf 5a3d e0ef b3bd
00000180: bcc7 27bc 7614 12be 5231 2dbe 0318 bebd
00000190: 0b6f dcbd 8848 623d bb30 6f3d f543 81bd
000001a0: 7d7c 403d b76b f5bd 372f 7cbd e514 04bd
000001b0: 5a87 a5be 3ab0 e0bd 8d6c acbd a3b6 eabd
000001c0: 549f 0fbe be18 833d 34fd 093e 6e90 fbbd
000001d0: 9007 153e 9726 003e 61ea 0ebc da51 e43d
000001e0: 74f3 73bd 1b47 aa3c 8f10 87bd b8a6 ecbd
000001f0: abdf 9abd 0ecd e2bd 7c22 e43d 489d 2a3d
00000200: 0e8c 57bd 9ecb ca3c 8844 f23c 2edc 853e
00000210: fbaa 31be 1fd9 60bc 190c 77bb c188 783d
00000220: ed32 6fbe 18a5 96bd 51d0 29be 375a 0e3e
00000230: cc2a aebd d537 6a3c 1b8f a9ba eb78 aebc
00000240: 86f6 debc 7bc9 353e 30a3 89bc df3a 16bd
00000250: e264 593d 6412 683d 0c8a 4bbd 8c7a 783d
00000260: d731 bdbd 7629 f23d 155d 71bd a594 943d
00000270: 0097 a43b 187e 43bd ddfb 22be f52a a63c
00000280: 93c7 163e 6aa5 d0bd 8cd2 f5bd 71cf 823d
00000290: 274a b2bd 12cc c5bd 9841 aebc 8009 3b3c
000002a0: 0985 e6bd d70e d83b e0ac 15be ac48 d1bd
000002b0: afff 193e ec74 f03d c831 b03c 1598 94bd
000002c0: 3361 fdbd 54e2 8a3d 0615 6c3c a440 b33d
000002d0: 5c12 343c 8c29 b9bd 29b4 803d fdfa debd
000002e0: 17c2 0c3e bfdd ac3d cebb 253d c044 093e
000002f0: 97ad 0a3d 6f8e fabd 9058 333d a9c7 cbbc
00000300: dcb4 9ebd c24f 46bd 366a 91bd bb57 2b3d
00000310: 11c1 143e ced7 d93d dbaa febd ecb0 45bb
00000320: 58af 81bd df63 2a3d d2ac a23d 4c87 8cbd
00000330: ac81 303c 9006 083d 2765 d1bd 4eb0 053d
00000340: 51a0 01be 6a93 4cbd 272a 5f3d af94 a63d
00000350: 4930 0dbe 9a4b 16be ad59 7ebd 6126 1bbd
00000360: cb41 d5bb ab08 c83d 0fc5 f1bd 862e 7ebc
00000370: ef88 423d ce8b 653d f46d 0a3e 4a27 d33d
00000380: 65e1 48bd 708b a03c 4399 fb3d 1e27 60bd
00000390: 5d6a 18be ee93 b93d c449 ca3d 631d b53c
000003a0: 1596 0d3d 8d11 1f3e 491b 403d 9cc3 f73d
000003b0: 5100 863d e3b5 1cbe 78d9 073e 7abb d8bc
000003c0: 9db4 52bd 28c1 1dbd cb4b af3c fe00 f93c
000003d0: 57bb ab3d 0aa4 093d 1a0e ccbd e55e 303d
000003e0: 1197 923d 0a34 bbbd 8137 debd 4041 4dbd
000003f0: 6a4d 153e 2257 823d 6e93 b73d 7bad 22be
-0.03631287 -0.10375689 -0.13186662 0.08322987 -0.13243698 0.08510507 -0.11810345 0.11277327
0.073288016 -0.14145505 0.080567 0.076462805 -0.12732403 0.061272413 -0.007672379 -0.054990362
-0.096195996 -0.059412837 0.030431138 0.2170302 0.042523492 -0.0040360377 -0.098811075 -0.092112914
0.10986291 0.022290753 0.11782463 0.06149431 0.12792055 -0.025136104 -0.055301324 -0.14121881
0.03651332 -0.18476841 0.06728634 -0.08642588 0.09359905 -0.09172659 0.04727333 -0.10151359
0.0976653 0.007358145 0.03248764 0.32872763 -0.103042595 -0.10348652 0.03176622 -0.079894505
-0.040398177 -0.078024246 -0.017896943 -0.058397938 0.23620975 -0.09423496 0.08398021 0.3471852
-0.024558127 0.06169828 0.32427475 0.020315034 -0.013603257 -0.050205257 0.016996354 0.005670652
0.056304082 -0.07481708 -0.17260271 0.17182799 0.26539445 -0.09996381 -0.0184378 0.03428977
0.0044037937 0.03776022 0.09979943 0.011126969 0.19336958 -0.043796897 0.22985014 0.12669955
0.06503347 0.015430224 0.12851217 0.032660026 0.017227042 -0.057021547 -0.13461985 -0.13775988
-0.15743767 -0.02879236 0.13147649 -0.029767806 0.11503595 -0.08460841 0.053405058 -0.08785987
-0.0102404915 -0.14265618 -0.16913345 -0.092819236 -0.10763367 0.055244952 0.058396082 -0.0631179
0.04699372 -0.119834356 -0.061568465 -0.03224649 -0.32329828 -0.109711125 -0.08419142 -0.114606164
-0.14025623 0.064012036 0.13475496 -0.12283407 0.14553666 0.12514721 -0.0087228725 0.111484244
-0.059558347 0.020785859 -0.06594955 -0.115552366 -0.075621925 -0.11074267 0.1113939 0.0416539
-0.0526238 0.024755295 0.029573694 0.26144546 -0.1735038 -0.013723641 -0.003769642 0.060677294
-0.2335927 -0.07355708 -0.16583373 0.13901602 -0.085042566 0.014295538 -0.0012936326 -0.021297893
-0.02721716 0.1775264 -0.016801447 -0.036677238 0.053074725 0.056658164 -0.0496922 0.060663745
-0.09238022 0.11824314 -0.05892666 0.07254914 0.0050228834 -0.047727674 -0.1591639 0.020284155
0.14724569 -0.101878 -0.12003049 0.063872226 -0.0870555 -0.09658064 -0.021271512 0.011415839
-0.11255843 0.006593566 -0.14616728 -0.10218939 0.15038942 0.11741051 0.021508113 -0.0725557
-0.12372055 0.0678145 0.014409309 0.087525636 0.010990705 -0.090411276 0.06284363 -0.10887716
0.13745914 0.08440732 0.040462308 0.13405132 0.033856954 -0.12234198 0.04378563 -0.024875479
-0.0774934 -0.048415907 -0.07100336 0.041831713 0.14526774 0.106368646 -0.12434932 -0.0030165268
-0.06332272 0.04159915 0.07943119 -0.06861743 0.010773104 0.033209383 -0.102243714 0.03263884
-0.12658812 -0.049945273 0.05448356 0.08133828 -0.1378795 -0.14677277 -0.06209724 -0.037878398
-0.0065080873 0.09767278 -0.11805164 -0.015514022 0.04749387 0.05604153 0.13518506 0.10310228
-0.049043078 0.019597739 0.12285092 -0.054724805 -0.14884324 0.090614185 0.09877351 0.02210874
0.034566958 0.15534039 0.04690102 0.120978564 0.06543029 -0.1530376 0.13266551 -0.026456583
-0.051441777 -0.038514286 0.021398446 0.03039598 0.083853416 0.033603705 -0.09963627 0.04305925
0.0715772 -0.09140785 -0.1085043 -0.050111055 0.14580312 0.063642755 0.08963667 -0.1588649

value_fc1.bias f4 [64]
00000000: e98d 26bc d06a 5b3c b718 bebc 3573 223d
00000010: f7f7 4a3a 6092 cd3c d852 6fbd 6cb3 a6bc
00000020: 6046 68bc 1725 683c 1941 833c 7d8c 6dbc
00000030: 57b1 7abb 1391 7abc 691c b03c 54be 143c
00000040: 99a6 cabc b41a 093d bb03 0ebd 4286 41bc
00000050: 3f9f 883c 74d0 2cbd 2a9f babc d311 ff3c
00000060: b159 36bc 3cc6 263c 1cba fe3a 84da dcbb
00000070: 4167 8b39 6a87 75bc 579f eebc ad0a 5f3b
00000080: aee6 c23a 6e04 f4bc 2a62 113d 7cb6 d73b
00000090: 4adc d23b 6de5 0d3d ff87 47bc 2543 35bc
000000a0: 4580 863b 5728 01bd 6dc9 0a3d aaa5 f739
000000b0: d84a 4bbc a1c5 8fba ea3b 073b 4ad2 0ebc
000000c0: e11a b8bb 1c59 5cbb 2a90 a7bc da1c a4bd
000000d0: 2413 b6bc 6a5a d93c 6a3f efbc 450d 563c
000000e0: 63f5 6b3c 21bf 223b 5ad7 f3ba 855b 5b3b
000000f0: 07a0 3fba 58c1 5eb8 bbd6 cd3a c698 9739
-0.01016567 0.013392165 -0.023205144 0.03966065 0.0007742638 0.025094211 -0.058428615 -0.020349227
-0.014176935 0.014168999 0.016022252 -0.014498827 -0.0038252675 -0.015293377 0.021497922 0.009078581
-0.024737643 0.03347273 -0.034671526 -0.011811795 0.016677497 -0.042190984 -0.022780973 0.031136429
-0.011129783 0.010179099 0.0019434127 -0.0067399163 0.00026589076 -0.0149858985 -0.029128714 0.0034033463
0.0014869773 -0.029787268 0.035494007 0.006583033 0.006434952 0.034642626 -0.01217842 -0.011063372
0.0041046464 -0.03153261 0.0338835 0.0004723494 -0.012407981 -0.0010968932 0.0020635077 -0.008717129
-0.0056184386 -0.003362245 -0.020454485 -0.080133155 -0.022225924 0.02653237 -0.029205043 0.013064687
0.0144017665 0.002483316 -0.0018603608 0.0033471298 -0.0007309918 -5.310899e-05 0.0015704253 0.0002891479

value_fc2.weight f4 [32, 64]
00000000: 7d80 11be e8b8 bf3d 8dc3 03b9 d91e cdbd
00000010: d025 6d3b 4bf8 afbb fcce 9ebd 0f72 94be
00000020: 4035 00bf 0f00 f13d 0057 1fbc 8e76 8abe
00000030: cee4 b93d 11fe a9be d6cb 8d3d 4828 f53d
00000040: cebb 83be 2ab8 b2bc c8a2 1cbe 342c fcbd
00000050: 7571 ae3d 253b 36be ccb7 61be 0eb1 61be
00000060: c9ef 273e 9388 813e 851f 87be 86de 9abe
00000070: d9e1 de3d 87d0 dabe 3bae 943d 2b4d 08be
00000080: 7aa1 4bbd bb9d 953e 13a9 0dbe 70db 75be
00000090: 1578 6d3e 5890 78be 415e b2be eeba aabe
000000a0: d2d4 f33d a3ec 60be 56be 813e 4325 0dbe
000000b0: 18b1 1bb9 f2b6 49be e60d df3b 1ef2 d3bd
000000c0: 0991 babd efab abbe bf00 d9bd 591a 57bc
000000d0: 0a50 f2bc 59e4 6abe ccea f83c 70eb 9ebe
000000e0: 2951 fbbd dd81 edbe 9fe8 4bbe fd54 9f3e
000000f0: dc91 c0be b031 493d 0ea6 23be ed3d 5c3e
00000100: 5c08 223d 14de 8b3c 16ed 0fbe 01c9 83be
00000110: 450c e13d 1a97 e93a 641f 4b3e 8d0e b7bb
00000120: 2cc4 69bd a1b6 9bbe 6a82 273e e133 663d
00000130: 2828 8dbd 5adc 2dbe 78fe 34be a4da b3bd
00000140: e699 cb3d 3f6d ef3d eadc 4c3e a317 f2bd
00000150: 20b7 e9bc b96e 0f3e 83ba a1bd 1457 033e
00000160: 5a6d 85be 1bb3 eabd 0c53 c7be b41e 8fbe
00000170: 5a45 a0be 4375 53be bfd6 0f3e a2e6 603d
00000180: daff ca3c 779e 1e3e 25f9 86bc ede9 aabd
00000190: ce76 00bd 0d6f dfbe 4e82 9cbe f934 17be
000001a0: fbd0 ccbd e999 2cbe a596 2e3e f4a3 d7bd
000001b0: 97ad 633e 1448 a9bd dbfa c1bd ce9c 03bc
000001c0: d875 273e 2c74 8c3d 62b9 ad3d 8ea7 85bc
000001d0: 703f 183d 6f27 c7bd e895 303e a14f eebd
000001e0: ff56 e13d 31a2 2b3c da0a 283d 3282 c7bd
000001f0: 5643 c53b 2239 b2be 3af6 97be 6853 6dbe
00000200: a918 5bbd bcb5 2a3e a2f4 843d 0daa febd
00000210: fefb 9f3e 9b83 70be 6314 fbbd 9d14 e1bd
00000220: b884 eb3d 5b26 6b3e 11b5 713e f3bb 793e
00000230: e568 c1bd 9dc5 b0bd 67cc f9bc f765 3fbd
00000240: edf4 b63d 1f56 24be dd4c e8bc 728d 0cbe
00000250: 4a95 a2bd a30c 84be 43e0 4cbe 70f3 8dbd
00000260: 57be 843e b1e9 dcbd 6594 233e 09a0 483e
00000270: e9f0 b2bb 5476 63bd 23c9 2fbe 4eaf cd3d
00000280: 9128 babb 8bd9 b9be ef6a 31be 9346 41bd
00000290: 3bcd dbbd f908 72be 9c0b f83c 6f09 05bd
000002a0: c271 6a3e 71ba 043d 8ef4 2dbe 20e7 a8bd
000002b0: c514 8f3d d9dc f5bd 34ac 293d d9d0 153d
000002c0: 199d 5cbe 1b52 39be 8119 0cbe 7f96 a23d
000002d0: f295 b43c 7152 6a3e b1b2 6d3e d45e dabd
000002e0: 86f3 0ebe 4980 e2bc 566c 2d3d 531d 82bc
000002f0: 1280 e13d 0300 76bd 7f69 f0bd 9a3d 7bbe
00000300: 877f 02be e4a4 553e d3df 1ebd b543 863d
00000310: 8208 00bb 0bf1 013e 9eec 6f3c ed54 aebd
00000320: a057 c53c 7885 483e 3ecd 743d 6115 c53d
00000330: 4dca 4f3d a4d9 563d b54a 08bd 9357 373d
00000340: ad41 16be 3853 1ebe 521d b8bd f49a 5ebe
00000350: 5139 273e e7c4 80be 1753 433e b0a3 ce3d
00000360: 9e9d 0fbe 8fc9 323e c624 0bbe 5d2b aa3d
00000370: b088 92bd 3bb4 f33c 31d5 09be b617 10bc
00000380: beab 80bd 804d 16be 73c8 443d 88bc c93c
00000390: ebfa 523e bb34 7a3d 2ef6 9a3b 1513 debd
000003a0: 8d6f cd3d 8a71 88bd f147 3ebe e301 6ebd
000003b0: 7241 bb3d af1b b23d fbda 6ebe 7a69 e2bd
000003c0: b793 4c3d 770e 203e 9621 ae3d 91e8 5bbc
000003d0: a1ff f8bd 6765 b43d 0df9 02be 8c7d d6bd
000003e0: 91ce 003e d21d 1cbe 77b1 053e 8337 613e
000003f0: f843 25be 7e13 fdbc c7e8 3fbe 14e6 363e
-0.1420917 0.0936144 -0.00012565982 -0.10015649 0.0036185868 -0.005370175 -0.07754323 -0.2899327
-0.50081253 0.11767589 -0.009725332 -0.27043575 0.09076844 -0.3320165 0.06923644 0.11970574
-0.2572922 -0.021816332 -0.15296471 -0.123131186 0.08517734 -0.17796 -0.22042769 -0.22040197
0.16400065 0.2529951 -0.26391235 -0.30247897 0.10882921 -0.4273722 0.07259794 -0.13310687
-0.049714543 0.292219 -0.13834028 -0.2400949 0.23190339 -0.24273813 -0.34837535 -0.3334574
0.11905827 -0.2196527 0.25340527 -0.13783745 -0.00014847924 -0.19698694 0.0068070767 -0.103489146
-0.091096945 -0.33529612 -0.105958454 -0.01312884 -0.029579181 -0.2293867 0.030385397 -0.31039
-0.122713394 -0.4638814 -0.19912957 0.31119528 -0.37611282 0.04911965 -0.15981314 0.21507998
0.039558753 0.017073669 -0.14055285 -0.2573929 0.10988668 0.0017821521 0.19836193 -0.0055864514
-0.05707185 -0.30412772 0.16358343 0.05620182 -0.06892425 -0.16978589 -0.17675197 -0.08781937
0.09941463 0.11690759 0.20006147 -0.118209146 -0.028529704 0.14007081 -0.078969024 0.12826186
-0.2605999 -0.11459943 -0.38930547 -0.27953112 -0.3130291 -0.206502 0.14046763 0.05490745
0.024780203 0.15490137 -0.016476223 -0.08345399 -0.0313633 -0.43639413 -0.30568165 -0.14766301
-0.10000797 -0.16855587 0.17049654 -0.105293185 0.22234188 -0.08265701 -0.09471675 -0.008032991
0.16353548 0.068580955 0.084826246 -0.016315248 0.037169874 -0.09724318 0.17244685 -0.11636282
0.11002921 0.010475681 0.041025974 -0.0974163 0.00601999 -0.34809214 -0.29680043 -0.23176348
-0.053490315 0.16670889 0.064919725 -0.12434778 0.31246942 -0.23487704 -0.12259748 -0.1099026
0.114999235 0.2296385 0.23604228 0.24388103 -0.09443835 -0.08631442 -0.030492974 -0.0467281
0.08933435 -0.16048478 -0.028356964 -0.13725832 -0.07938631 -0.2579089 -0.20007424 -0.06931198
0.25926468 -0.107867606 0.15974577 0.19592299 -0.0054608476 -0.05553277 -0.17166571 0.10043202
-0.0056811054 -0.36298785 -0.17325948 -0.047186445 -0.10732504 -0.23636235 0.030278973 -0.0324797
0.22894958 0.032404367 -0.16987821 -0.082472086 0.06986383 -0.12005014 0.04142399 0.036576126
-0.21544303 -0.18097727 -0.13681604 0.07938861 0.022044156 0.22883011 0.23212697 -0.10662618
-0.13960084 -0.027649062 0.042339645 -0.015883124 0.110107556 -0.060058605 -0.11738872 -0.24535218
-0.1274396 0.20863682 -0.038787674 0.06555883 -0.001953632 0.12689607 0.014643816 -0.08512292
0.024089634 0.19582164 0.059766047 0.09623218 0.05073004 0.052453652 -0.03327437 0.04476125
-0.14673491 -0.15461433 -0.089899674 -0.21738797 0.16330458 -0.25150225 0.19074665 0.10089815
-0.1402497 0.17459701 -0.13588247 0.08309052 -0.07154977 0.029749027 -0.13460232 -0.008794716
-0.06282757 -0.14678001 0.048042726 0.024626032 0.2060353 0.061085444 0.004729054 -0.10843483
0.10031042 -0.06662281 -0.18582131 -0.058107268 0.09143342 0.086966865 -0.23325722 -0.11055274
0.04994556 0.15630518 0.085025 -0.013422147 -0.12158132 0.088084035 -0.12790318 -0.10473165
0.12578799 -0.1524575 0.13055979 0.21993832 -0.1613921 -0.030893084 -0.18741141 0.17861205

value_fc2.bias f4 [32]
00000000: 52d0 9c3c 0695 a9bd f7e9 e2bd bf1e 903d
00000010: 7c12 4c3e a5fd 2c3d 8a94 bc3c 0451 0a3d
00000020: dc41 5fbc cfa8 96bd fb5f 53bd 49dd 0c3d
00000030: c90a 1c3d 7c54 7e3c b479 483d 0eda 433c
00000040: 9f44 96bd 4c73 47bd 2ad0 4ebd 24a8 e93c
00000050: e15a 89bc 03f2 e3bd e1e7 7bbd c7cd 85ba
00000060: ce06 bb3c 4f55 663c de3a 903c 2a22 d3bb
00000070: 39e9 04bd 228c c13d a751 db3c 54f4 763d
0.019142304 -0.08280377 -0.110797815 0.07037114 0.19928926 0.04223408 0.023020048 0.03376867
-0.013626542 -0.073564164 -0.051605206 0.03439072 0.038096223 0.015523072 0.04894419 0.011953844
-0.07337307 -0.04869394 -0.05049149 0.028522559 -0.016766967 -0.111301444 -0.061500434 -0.0010208421
0.022830393 0.014058425 0.017606195 -0.0064432817 -0.03244898 0.09450556 0.026772333 0.060291603

value_fc3.weight f4 [1, 32]
00000000: 9c4d 00bf e76d f43d f7d3 813c ef10 bb3d
00000010: 91ab 083e 68bb 3f3f 0d20 6a3f 0b19 c23e
00000020: a95d 01bc 2098 393c c257 bc3b 89bd 263f
00000030: 9108 133f 9d7d 0dbc bb49 5d3e f38d 263f
00000040: fd8a 13be 5318 1abd b47e 39be 81f2 7ebc
00000050: caf9 89be 4b51 7c3e 58d1 9cbc 1dad 9f3d
00000060: acca 113d 4b53 9c3e 5a73 db3e f5f9 f33a
00000070: d0a2 dd37 c9d8 243c a1e6 60bd e74c 443e
-0.5011842 0.11935025 0.015848143 0.09134089 0.13346697 0.74895334 0.91455156 0.3790973
-0.0078958655 0.011327773 0.0057477662 0.6513296 0.57434946 -0.008635906 0.21610157 0.6506035
-0.14408489 -0.037620854 -0.1811474 -0.015560747 -0.26948386 0.24640386 -0.019142792 0.077966906
0.035593674 0.30532297 0.42861444 0.0018613922 2.6421068e-05 0.010061451 -0.054907445 0.19169961
