rl/spin_model_11291026/11.pt (torch_old, 159601 bytes, 12 tensors)

log_std f4 [51]
00000000: 7f76 b43c e641 b73d 70ab ab3d b125 993d
00000010: e976 223d a11d 483d 13a5 0d3e 8e8d fe3d
00000020: e664 c93c c520 d63d 8372 643d 97bc fa3d
00000030: 763e 593d b9e2 473d 98b1 b13c bc03 103e
00000040: fe10 be3d 3921 e23d 91a4 aa3d e8e4 c43d
00000050: 86c1 b53d a8bb 8c3d 55de a83d 094f 9b3d
00000060: a80b bf3d 3975 ca3d 4668 a33d 5a63 183e
00000070: 92a5 ed3d 0e58 963d 636e e73d ce05 bf3d
00000080: ffed fd3d 859d d83d 8763 f43d 93c2 173e
00000090: 0fbe 213e 232d a03d b29a 3b3d 2afb ed3d
000000a0: 7bdc bb3d f4b4 043e d938 1c3e 82a7 fd3d
000000b0: bbe9 eb3d ea79 f23d ecc9 fd3d 3193 dd3d
000000c0: 8c58 d03d 6521 0a3e 9e7f e63d
0.02202916 0.08948116 0.083823085 0.07477892 0.039664183 0.04885638 0.13832502 0.12429343
0.024584245 0.10455469 0.05577327 0.12243002 0.053038083 0.048800204 0.021691129 0.14063925
0.09280585 0.11041493 0.0833217 0.09613973 0.08874802 0.0687173 0.082455315 0.07583434
0.09328395 0.0988564 0.07978873 0.1488165 0.11603846 0.07341014 0.113003515 0.09327279
0.1239891 0.105769195 0.11933046 0.14820318 0.15795158 0.07821109 0.045801826 0.11620171
0.09172913 0.12959653 0.1525606 0.12385465 0.1151919 0.118396595 0.12392029 0.1081909
0.10173139 0.13489302 0.1125481

policy_fc1.weight f4 [64, 261]
00000000: e58d debd 469b f3bd dd9c b3bd f65d 1ebd
00000010: 376e 01bd 3e92 29bd 5733 023d 2047 7abd
00000020: be63 973b 8a53 a1bd 75de 413d c351 ae3d
00000030: c53e 89bb 1588 f5ba 68a9 553b 3979 62bc
00000040: 09c9 8fbd 7e14 93bd 838e eb3d 47af de3c
00000050: de34 fcbd 83b5 0cbe 240d eb3d 5a8a ec3d
00000060: 5f22 03be 4ec7 84bd 394f ba3d 526b 883c
00000070: 863d d3bd 4f59 8fbc c030 823d 2b6b 87bc
00000080: 1209 073d 7c94 073e 1c91 a9bd 89d2 aabd
00000090: 7241 c7bd adf9 c83a fe06 d93d ebf3 503d
000000a0: af19 373c 972b c2bd bfb7 e03d cbce 9b3d
000000b0: 52fa e7bb a348 4abd f0f0 df3d ae84 13bd
000000c0: 9f22 0ebd 4ff0 f63c 3606 8d3d ca5b a63a
000000d0: 468a 8abd f1e3 fcbd 51db ffbc cbaf 853d
000000e0: 441b 3ebd bd56 c83d 9fc2 343c eee8 13be
000000f0: c983 48bd f91c 073d 4096 80bc bfb2 ecbd
00000100: 30b8 7f3c 2ee0 63bd 994d 873d 77ec 323d
00000110: f106 533d 7284 d7bd 608f 0b3e 9d2e c4bb
00000120: 0743 afbd 96d7 fbbb 7a12 853d 8ab1 853c
00000130: cf9c 323d ce1e 9f3d 55b4 fbbc b056 ad3d
00000140: cfad 0a3d a779 653d 6568 26bb 7f5c eb3c
00000150: 9ac9 aebd 3a0e 773d 85ae c83d 96bd 9a3d
00000160: 93f4 9f3d 51b8 fb3d b4f5 6dbc 7342 e3bd
00000170: ccc9 d3bd 16e5 97bc a24c bebd 1894 38bd
00000180: 7603 41bd b1d0 bebc 045c 163e a52e 09bd
00000190: 4c61 b4bc 8cf6 45bc 70da 453d 56e6 12bd
000001a0: 7a44 b6bd aa89 93bd 0c21 ba3d f806 8c3d
000001b0: 78b1 b03d 9e0c 58bd dddf d03d 3bac 0ebb
000001c0: 0356 e43d 21c5 c7bd 0abd fb3c 2e0f d03d
000001d0: c2f2 11be af1c 883d 1836 67bd 7932 77bd
000001e0: 0c52 2dbb b676 5b3c 7edf 3b3d c974 ac3c
000001f0: 1695 7ebd a071 fa3d abe2 e9bd 366f b5bd
00000200: 3775 2ebd 7f5e ae3c e5c6 f63c dae7 af3d
00000210: 74c2 1e3d 4635 293d dfb6 a33a 246f 083e
00000220: dd74 043d 77b6 b4bd d88e bebd fdd0 f83c
00000230: 99ea 4b3d 1a77 1fbd c100 f23d 8806 2b3d
00000240: efa2 e23c 5da9 843d 3bfa e53b 3872 d53d
00000250: 33d3 90bd 4f6e e23d a9e1 bd3d 053c 9fbd
00000260: ca21 9e3d 975f 9dbd b3cf d1bd e205 c4bc
00000270: 6c49 59bc f9f2 493d c0c9 923c 262f e13d
00000280: e975 a73d 050c 14bd 63e2 ba3c de05 7d3c
00000290: 6e6d 933b 625e c23d fd25 91bd cc4e 01be
000002a0: b94c df3d 50cf 2f3d 751e b0bd 0ad1 1cbe
000002b0: 08ac a73d f385 78bd 714b 8dbd 44c8 89bd
000002c0: 23f1 98bd 3ef7 c0bd d99c 0dbd 4fda c33d
000002d0: 0eb6 01be 1e34 d53d 5248 803d c51c dcbd
000002e0: b138 f0bd a57e ddbb 705c ec3d 55a1 19bd
000002f0: aa51 cabc fe3c 07bd c3e3 08bd 8739 523d
00000300: e21e 71bd c41b 123e 7952 bb3d b2e4 25bd
00000310: 2e17 363d 2377 653d 3600 46bd cb16 a5bd
00000320: 9b2b 5bbd 6661 27bd 93d7 99bd ed09 a6bd
00000330: 91b8 e1bd ff72 9cbd 82c7 2e3d e0e3 923c
00000340: 1356 bf3d 5dc8 0d3d cf7e 183d fc0a 86bd
00000350: 0989 06bd 10ac aebd 7a8a aebd dc6a b43d
00000360: 7edd 973d 5638 26bd dd2e 073d fea1 263d
00000370: 215f 743d 0903 083c b0ef 11bd 493f 9a3d
00000380: 1599 9c3d a61f 6abd 848b 28be a60c 0c3e
00000390: b411 06be e11e cdbd 3e06 cbbd 4d92 883c
000003a0: c288 11bd 14e7 c0bd 2070 bbbb b996 363d
000003b0: 250d f5bc 33ce 5cbb 3a71 e1bc ed8a cebd
000003c0: 577d 2b3d 07e8 30be 770c 3ebd 2a42 3bbd
000003d0: 153e eabd ee68 e7bc dc67 16be 3939 393d
000003e0: 9e01 083e 9f7d eb3d fc0b c23b 4d55 93bd
000003f0: c441 623d 1a18 32be 79ef 00be cd56 c2bc
-0.10866908 -0.118948504 -0.08770154 -0.038663827 -0.03159925 -0.041399233 0.031787243 -0.061102986
0.0046200445 -0.07877262 0.047331292 0.085116886 -0.004188391 -0.0018732572 0.0032602195 -0.013822847
-0.07020766 -0.07181643 0.11501791 0.027183188 -0.12314771 -0.13741116 0.11477116 0.11549826
-0.1280608 -0.06483327 0.09097142 0.016652737 -0.10314469 -0.01749864 0.063569546 -0.016530594
0.032967634 0.13240236 -0.082796305 -0.08340938 -0.097292796 0.0015333198 0.10597037 0.05101387
0.011175557 -0.0948097 0.10972547 0.07607802 -0.007079401 -0.049385678 0.10934627 -0.036015205
-0.034700986 0.030143885 0.0688595 0.001269215 -0.06764655 -0.12348164 -0.031232508 0.065276705
-0.04641272 0.09782169 0.011032729 -0.14444324 -0.048953805 0.032986615 -0.015696645 -0.115575306
0.015607879 -0.055633716 0.066065975 0.04368254 0.05152029 -0.10523309 0.13628912 -0.005987002
-0.08557706 -0.007685612 0.06497665 0.016320009 0.043606576 0.077695474 -0.030725637 0.084638
0.033857163 0.05602422 -0.0025391814 0.028730629 -0.08534546 0.060316302 0.09798912 0.07555692
0.07810321 0.12291015 -0.014523912 -0.110966586 -0.10341224 -0.018541854 -0.0929196 -0.04506311
-0.04712244 -0.023292871 0.14683539 -0.03349175 -0.022019051 -0.012082707 0.04830402 -0.035864197
-0.088997796 -0.07203992 0.090883344 0.06837267 0.086275995 -0.052746408 0.101989485 -0.0021770138
0.11149218 -0.09754396 0.03072979 0.10159145 -0.14252761 0.06646096 -0.056448072 -0.06035087
-0.0026446609 0.013395002 0.045867436 0.021051781 -0.0621539 0.122287035 -0.114201866 -0.088591024
-0.042592254 0.021285294 0.030124137 0.08589144 0.038759664 0.04131057 0.0012490413 0.13323647
0.032338012 -0.08823865 -0.09304589 0.03037309 0.049784277 -0.038931943 0.1181655 0.041754276
0.027665583 0.06477616 0.007018355 0.10422176 -0.07071533 0.11056196 0.09271557 -0.0777512
0.077212885 -0.07684248 -0.102446936 -0.023928586 -0.013262134 0.049303982 0.017918468 0.10995321
0.081767865 -0.036144275 0.022813028 0.015443293 0.004499129 0.09490658 -0.07087324 -0.12627715
0.109033056 0.042922318 -0.08599559 -0.15314117 0.08187109 -0.06067462 -0.06899155 -0.06727651
-0.07467868 -0.09422158 -0.03457341 0.095631234 -0.12667105 0.10410331 0.06263794 -0.10747675
-0.11729563 -0.006759482 0.115410686 -0.037507374 -0.024697144 -0.03301715 -0.033420336 0.051324394
-0.058867343 0.14268404 0.0914659 -0.040501304 0.0444557 0.05602182 -0.048340045 -0.08060988
-0.053508382 -0.04086437 -0.07511821 -0.08107362 -0.110215314 -0.07639121 0.042670734 0.017930925
0.09342589 0.03461491 0.03723031 -0.06545064 -0.03284553 -0.08528912 -0.08522506 0.08809444
0.07415293 -0.04058107 0.033003677 0.04068183 0.059661034 0.008301505 -0.035628974 0.07531602
0.076463856 -0.05715909 -0.16459471 0.136767 -0.1309269 -0.10015655 -0.099133 0.016671324
-0.035530813 -0.09419075 -0.0057201535 0.044577334 -0.029913494 -0.003369224 -0.027519811 -0.10085092
0.04186758 -0.17276011 -0.046398606 -0.045717396 -0.114376225 -0.028248277 -0.14688057 0.045220587
0.13281867 0.1149857 0.005921839 -0.07194004 0.0552385 -0.17392007 -0.12591352 -0.02372303

policy_fc1.bias f4 [64]
00000000: 7471 e5bb ae09 aabc 0225 17b8 2085 073c
00000010: 0abb 85ba 4eaa 95bc e824 a23b 02b7 1abb
00000020: e442 86bb ca47 73bb 0f58 dcbb 2ab3 553b
00000030: 4254 f8bb b3ec 52bb 481b 2a3b 5aeb 39bb
00000040: b689 293c 47a6 2cbc de87 0cbc aa15 d6ba
00000050: ed2f 903b 8a87 ecbc fe2d 09bc cf79 0fbc
00000060: e1b8 01bd 3f18 1fbb 451c 163c 0b5b e9bb
00000070: ecd9 2fbc c4d0 9d3b 3030 49bc 9992 07ba
00000080: 0616 43bc 0014 cc3b 112d 0cbc 2fb9 5a3c
00000090: 26ed 893b 924b 633a df84 12bc 5cc5 993b
000000a0: 7f26 223c 74d0 893b 4c32 36bc 6e75 beba
000000b0: 95b9 16bc d82b 97b9 5ac7 a6bb 01ae e23b
000000c0: 1309 45bc d9c5 37bc ed27 a9bc d496 7b3a
000000d0: f501 13bc 1243 03bc 87e8 f1ba 1998 eebb
000000e0: f31e 04ba 4ba8 13bc 57ac 56bc b99f 6ebc
000000f0: 5067 e03a 39c6 1bbc f15b 91bc 8656 8ebc
-0.00700205 -0.020756569 -3.603567e-05 0.008271486 -0.0010202837 -0.018269684 0.004948247 -0.0023607616
-0.0040973295 -0.0037121647 -0.0067243646 0.003260801 -0.0075784037 -0.003218454 0.0025956202 -0.002836904
0.010347774 -0.0105376905 -0.008577315 -0.0016333361 0.0044002444 -0.028873224 -0.008372782 -0.008757069
-0.031670455 -0.0024275926 0.009162013 -0.007121449 -0.010733109 0.0048161466 -0.012279555 -0.0005171686
-0.011907106 0.00622797 -0.008555667 0.013349815 0.0042091785 0.00086706236 -0.008942812 0.0046927165
0.0098968735 0.0042057578 -0.01112039 -0.0014530846 -0.00919952 -0.0002883363 -0.0050896825 0.0069177155
-0.012026089 -0.011216604 -0.02064892 0.0009597365 -0.008972635 -0.008011596 -0.0018456139 -0.007281315
-0.0005040012 -0.009012292 -0.013102612 -0.014564448 0.0017120633 -0.009507709 -0.017744036 -0.017375242

policy_fc2.weight f4 [32, 64]
00000000: 1832 d63d 3398 2ebd bd0b 0a3e f056 46be
00000010: 7ff4 553e ff62 093e 135d 023d 1a4f 123e
00000020: 7c54 d83d b9a6 183e 06ae 5b3c 4102 68be
00000030: 9fd9 39be 5ccc 07be 2f53 8fbc 0ba0 fa3d
00000040: d22a 2fbe 2e56 56be b669 cdbd 360a 993d
00000050: 5ef8 7d3e 0a10 5cbd 4f81 ebbd 3e37 0cbe
00000060: 8cf2 f0bd 3470 99bd d02a 31bc 77c4 0f3e
00000070: 3820 513e acb6 1cbe 34dc eebd 5cdb 58be
00000080: 7fb7 65be 7357 64be 98a4 c7bd 8f0e 48be
00000090: 7976 9cbd 1b39 2bbe eaa9 b63d 8d3c dc3d
000000a0: 38d7 863d 698e afbc 5373 45be 8403 a63d
000000b0: a23f 0bbe af95 d03d f0ae b8bd b4fe c0bd
000000c0: 94c6 723b 5b49 f2bd ef1f 813e 5257 1ebd
000000d0: 6986 a73d 9b0e 483e aa5f 8d3e 0a5c 19be
000000e0: 8664 263e 1c65 2d3d 6e64 68be 48e4 92be
000000f0: f552 31be 8df6 f6bc 13de 8dbc 8abc cd3c
00000100: 50cc 4e3e 68a0 b1bd 693f 893e 3b8c 4fbe
00000110: fc27 243e 426f 21bd 7e4e 6e3e 0d7c 8bbd
00000120: 6147 8cbc d57b fbbb ca47 5e3e 5bcd d43c
00000130: f601 80be 7b44 613e 83f8 49be 1695 63bd
00000140: 057a 1dbe 6744 17be 7762 093d f93a 19bc
00000150: 112d e2bd 8244 38be f098 6b3e 6d53 b5bc
00000160: 503b d8bd 23db 813e bb86 71be e034 fabd
00000170: e0a9 d2bb f853 3cbd 121b db3d 34e2 c43d
00000180: 55af 993d 405d b8bc b59f cd3c b6ea 96bd
00000190: f67c 23be f5ac b33d eec5 4dbd d7c4 e8bd
000001a0: 1ce2 c9bd 5d83 053d 8eeb 09be b82a 473e
000001b0: 79a8 c93d 2c75 0abe 54e1 aebd 44e1 813e
000001c0: 4ad5 acbd 52da 35bd ce4f da3c 4712 023e
000001d0: d310 56be 0ce8 493e 60fa fc3d 2869 68be
000001e0: b7bc 673c 1854 e5ba 4792 2bbe 5e6c ec3d
000001f0: 6928 3d3e c8a2 623e 0d7a 34bd 5f7c c83d
00000200: 86f3 6c3e e5f1 c73d 3a25 393e 02ce dd3d
00000210: 1509 513e f1bb 6dbe 3524 2f3e 73c1 963d
00000220: f59e 0cbe 076d 36be 01d7 573e 2315 6f3e
00000230: f8f9 42be eb2e 243e 8b51 d43a 47fe 54be
00000240: 3d4c 1c3c 8095 2abe ca25 193e b444 493e
00000250: 3146 8c3e 6bff 7cbd 5995 573e bc46 86bd
00000260: 4b67 bebd e0f3 b93d aee0 333e ea90 f5bc
00000270: f17e 243e d64a 3ebe 1b0d 28be abc7 61be
00000280: f9ea de3d 4b17 d7bc a56e f0bd 84d8 b2bd
00000290: 2773 433d 795f 7dbe bcfe c7ba cfac 723e
000002a0: 9b58 003e 0626 4c3e 0d5b b83d 278d a0bd
000002b0: 500c 86bd 582e 81be d1ad bbbd 5a59 ccba
000002c0: 7682 f5bb 8b0b 163e b387 b03d 50cd 0b3e
000002d0: 8195 5abe 2881 d4bd 8373 743e e43b 373e
000002e0: 1de9 cabd 8283 7abe 169a ac3d e47b 27be
000002f0: 2f4a e4bc 6e3a 81bd 9a8c 87be e74c 6cbd
00000300: 370a a1bd 5361 10be c7ea 233c 7999 15be
00000310: 6d91 1f3e 0b64 28be ddd3 c03d 8cca 9fbc
00000320: 1bac 99bd ea23 3d3e 6939 c13d 4186 63bd
00000330: 6ecb 4dbc da98 cc3d f9ee 37be b5b6 61bd
00000340: f307 b33d 547c 7fbd ac57 67be 634e 373e
00000350: ffa8 88be cb65 883e 6a1d 28be be50 743e
00000360: cc05 723e 94d2 d03d 3d41 61be 2c1b 183d
00000370: 5cce 153e acc4 3c3e 554f b3bc 3221 71be
00000380: 73d1 49bd 8753 e6ba b703 cd3d 4dfd 2fbe
00000390: f0e1 65be b06c 413e e6cb 4f3e 15f7 763e
000003a0: bc83 87b9 6e8b 6a3e 490a 40bd 71b7 9b3e
000003b0: d7dc 40be 6203 153e 1b6b 4a3e 6292 183e
000003c0: c19e 4fbd 9988 553d f21c bb3d 07f6 83bd
000003d0: d66e c53d 9d63 f43d f677 353e 4b32 8b3b
000003e0: d011 9abd 23f5 1f3e e4dd d93d b5a8 173b
000003f0: 267c bbbd cbd2 30be a8f0 313e 857d 1c3e
0.104587734 -0.042625617 0.1348104 -0.19369102 0.20894049 0.1341667 0.031827044 0.14287987
0.10562989 0.1490735 0.01340819 -0.2265711 -0.18149422 -0.1326155 -0.01749572 0.12237557
-0.17106178 -0.20931312 -0.100299284 0.07472651 0.24801776 -0.053726234 -0.11499273 -0.13692948
-0.11765012 -0.07492104 -0.01081343 0.14039789 0.20422447 -0.15304059 -0.11663094 -0.21177429
-0.2243328 -0.22298984 -0.09748191 -0.19536804 -0.07639784 -0.16721003 0.08919127 0.10753737
0.065840185 -0.021430211 -0.19282274 0.08106139 -0.13598493 0.101848 -0.09017742 -0.09423581
0.0037044631 -0.11830398 0.25219676 -0.038657494 0.081799336 0.19536822 0.27612048 -0.14976516
0.16249284 0.042332754 -0.22694561 -0.2868979 -0.17316802 -0.030146861 -0.017317807 0.025114316
0.20195127 -0.08673173 0.2680619 -0.20268337 0.16030878 -0.039412744 0.2327213 -0.0681077
-0.01712388 -0.007674674 0.21707073 0.025976827 -0.25001496 0.2199878 -0.19723706 -0.0555621
-0.15378578 -0.14772187 0.03354117 -0.009352439 -0.11043752 -0.17994884 0.2300756 -0.022134507
-0.10558188 0.253625 -0.23586552 -0.12217116 -0.006428942 -0.045978516 0.106985226 0.09613457
0.07504145 -0.022505403 0.025100568 -0.07368986 -0.15965638 0.08773223 -0.05023759 -0.11365669
-0.0985758 0.03259598 -0.13468763 0.1944989 0.09846587 -0.1352126 -0.08539072 0.25367177
-0.08439119 -0.04439766 0.026649382 0.12702285 -0.20904855 0.19717425 0.12352443 -0.22696364
0.014144114 -0.0017496375 -0.16755019 0.11544107 0.18472447 0.22132409 -0.04406171 0.09789347
0.23139772 0.097629346 0.18080607 0.108303085 0.20413621 -0.23216225 0.17103656 0.07361116
-0.13732512 -0.17815028 0.21078111 0.23347907 -0.19040668 0.16033523 0.0016198618 -0.20800124
0.009539661 -0.16658592 0.14955822 0.19655114 0.27397302 -0.061767023 0.21053065 -0.0655646
-0.09297045 0.090797186 0.17566177 -0.029976327 0.1606405 -0.18583235 -0.1641125 -0.22048824
0.10884661 -0.026256224 -0.11739854 -0.08732703 0.04771724 -0.24743451 -0.0015258412 0.23698734
0.125338 0.1993638 0.090017416 -0.07839423 -0.06545317 -0.2523067 -0.09164012 -0.0015590594
-0.007492359 0.14652841 0.086196326 0.13652539 -0.21346094 -0.10376197 0.23872189 0.1789394
-0.09907744 -0.24464229 0.08427827 -0.16355854 -0.027867405 -0.06309973 -0.26474458 -0.057690527
-0.078632765 -0.14099626 0.010004706 -0.14609326 0.1558282 -0.16444413 0.0941541 -0.019505762
-0.0750353 0.18470731 0.09434778 -0.055547956 -0.012560708 0.099900916 -0.17962255 -0.055105884
0.087417506 -0.062374428 -0.22592038 0.17900996 -0.26691434 0.26640162 -0.1641747 0.23858926
0.23635024 0.101964146 -0.21997543 0.037135288 0.14629501 0.184344 -0.021888414 -0.2354782
-0.049272012 -0.00175725 0.10010474 -0.1718647 -0.2244947 0.18889117 0.20292625 0.24117692
-0.00025847356 0.2290475 -0.04688481 0.30413392 -0.18834244 0.14552072 0.1976742 0.1489959
-0.05068851 0.052132223 0.0913638 -0.0644341 0.09640281 0.11933062 0.17721543 0.0042479387
-0.07522929 0.15620856 0.106380254 0.0023141329 -0.09154539 -0.17267911 0.1737696 0.15282257

policy_fc2.bias f4 [32]
00000000: b3c0 013d 937e 8fbb 9dd9 94b9 f0db c2bc
00000010: c420 acbb 950e 123a b7ca a1bb 88c9 19bc
00000020: dead f93b e9c0 bc3c cf27 a0bb cc19 10bc
00000030: efdc ebba 68ab b2bc 042e fe3a d1a7 79bc
00000040: dc7e e2bb e55f 86bc f361 b93b 5056 fdbc
00000050: eaf9 1e3a 2cc9 8a3a 523d d1ba dfcb 143b
00000060: 4c99 01bc e480 34bb 115a a43c 3bed c5bb
00000070: a61b b3bc cdb6 3e39 93c3 b8bc fd56 ff3a
0.031677913 -0.0043791025 -0.00028390894 -0.023786515 -0.0052529294 0.0005571631 -0.0049374956 -0.009386428
0.0076196035 0.023041205 -0.004887558 -0.008795213 -0.001799492 -0.021810248 0.0019392376 -0.015237764
-0.0069120955 -0.016403148 0.0056574284 -0.030924946 0.0006064462 0.0010588518 -0.001596371 0.0022704524
-0.007910084 -0.0027542645 0.020062478 -0.006040243 -0.02186377 0.0001818791 -0.022554195 0.0019480881

policy_fc3.weight f4 [51, 32]
00000000: 1db6 28be 40db 3fbe dbdd 1cbe 9128 9ebd
00000010: 5262 68ba 7cd1 b6bd 916c bebd 5f23 6bbe
00000020: 217a 06be d981 433e b615 21be 3ff9 843e
00000030: 7a29 17be 35cd 07be c381 343e e8b9 e53d
00000040: 718b 75be 3a02 ee3d 4616 8dbe 7d91 f3bc
00000050: 5483 9fbd ea1c 01be 8d10 5a3e 6962 453d
00000060: 0a45 443e a4ec 063e 85e2 5dbe 4b42 613e
00000070: b482 963e f78b 3bbd 3773 5bbe 0d21 853d
00000080: 83ed f8bd 2d84 10be 6a81 3dbe 1f14 fd3d
00000090: 198c 3f3e f564 6fbe 832f 2f3d 9ba8 a43b
000000a0: 571b 14be 5f93 99bc a5e3 d33d b0f5 e4bd
000000b0: 9916 ea3d 7e39 82bd 4874 1fbe 54d3 e9bd
000000c0: 15f5 d13d 43ea cf3d d55a 54be 05ce 993d
000000d0: 5e12 bcbd e417 323e a8de 2bbd d339 09be
000000e0: 450a 403e 9951 1b3e 9804 5fbe 0695 8c3d
000000f0: 2100 143e 89d7 773e 6fc6 3bbe 2d12 f6bb
00000100: 6446 5c3e abcd 243d 544f 333d 9846 83be
00000110: bd0b 533e ff47 0bbe 887d 3d3e 9c90 55be
00000120: 1ffb 3b3e 709a a63d 7db7 15be 0a81 22be
00000130: 0eb5 52be 8071 163e d863 ce3d 643c f7bc
00000140: f379 633e fa75 47be 5580 6e3d 32a0 343e
00000150: 3255 d9bd 5583 d1bd 42b0 57bd 7f6e b93e
00000160: 49dd cfbd a353 6abd 5441 a43c dec6 1bbe
00000170: 2a9f 11bd c000 b7bc 30c2 243d faad d03d
00000180: 1bf2 66be 0af5 19be ddcb 25be c3bc 213e
00000190: 2bb7 7e3e 0613 7abd 216b 1bbd 8ab2 e7bd
000001a0: 312d 7c3d d812 803e ffba f23b 5957 30bd
000001b0: 5e72 9b3d e090 afbd 94ef a7bd 85ac 863d
000001c0: d866 8cbe 10c6 38be 566c 273e 0b9c 20bd
000001d0: 5753 56bd 61a9 6d3e 6544 243e 9cc4 21be
000001e0: 3551 353d 03d2 7b3d 11b4 b63d 0276 1dbe
000001f0: 1e68 0dbe e247 6ebe d42d 2bbe e8bb 97bd
00000200: 96fa 72bd 9399 40be 5ee2 0d3e 41dc e03d
00000210: a6b7 643e c31c 77be 13d8 f03d 4c1e 47bd
00000220: 2093 33be 3105 ad3b a932 dcbd 23ba 2cbd
00000230: 271e 493e ea0b 73be 8991 2fbe 03ff 6cbe
00000240: 4b9e 393e c5d7 18bd 00c3 7fbe 5fa6 8b3d
00000250: b074 e8bd 6004 24be e9e3 743e c964 79be
00000260: 6613 8abe d69c 18be 656b 71be 9bd4 e93d
00000270: e4c8 47bd f2ab d23d a543 5c3e 0d32 a53d
00000280: bc0e 5dbe 1eaf ddbd 8404 fbbd 3654 15be
00000290: 8554 483e 816f f13d dd07 4abb f40c 2ebe
000002a0: 48ea 7abe cc32 943c 7d5e a7bd a92d 5b3e
000002b0: b7ad 44be a994 cabd 5520 843d 8b87 f13c
000002c0: fabd 1bbe 5578 e53d 17ad bc3d f203 553e
000002d0: 1429 383d de3d abbd 0991 543e b9e6 d6bd
000002e0: bd6d ef3b dfeb a1bd 57b6 2cbe 57be 923e
000002f0: 6f56 403e cc5e dfbd ca3f 793d 8022 653e
00000300: 981f 46be a5df 9d3d c0f5 8abe 1906 8b3d
00000310: 97df 863e 6c7f 4e3e c875 52be b95c 173e
00000320: b315 543e 131c 203e 8050 213e 1674 0bbe
00000330: 58d6 793e b4d9 903d 2140 643e d884 173e
00000340: a15d aa3d b85d 9ebd 5d75 763e efda 653d
00000350: 124e 40be f705 bd3d 5ddc 313e 5312 bd3d
00000360: 94b7 893d 9e98 803e c952 e9bd de2e f43d
00000370: 8586 8a3e 4b32 7cbe 05d8 5fbd 292e 393d
00000380: 2909 863e dae1 5e3b 40af 033e cadd 243e
00000390: 4f51 4f3e e645 ef3b fb6d c53c c63d 6bbe
000003a0: c1c0 91be bf90 19be ed5d fabb 4fab 14bd
000003b0: 8ba8 2abe a62b 21be c586 0f3e d013 10be
000003c0: 8892 603e 1317 733e 5553 64be 3381 edbd
000003d0: d041 313e fd1a 00be 52cf 4d3e c132 273e
000003e0: 5a5c 57be 7122 36be 386a 1ebe 4a72 6fbe
000003f0: f52a 09bd 3d16 9a3d 3ee2 1abe 1044 8dbe
-0.1647572 -0.18735981 -0.15319006 -0.07722581 -0.00088647485 -0.08926675 -0.09298051 -0.22962712
-0.13132526 0.19092502 -0.15730938 0.2597141 -0.14761916 -0.13261874 0.17627625 0.112170994
-0.23978974 0.116215184 -0.27556056 -0.02973246 -0.07788721 -0.12608686 0.21295376 0.048189554
0.19166961 0.13176209 -0.21668442 0.21997945 0.29396594 -0.045787778 -0.2143067 0.065004446
-0.12154677 -0.14112921 -0.18506399 0.123573534 0.18705787 -0.23378356 0.04276992 0.005024982
-0.14463554 -0.01874703 0.10346154 -0.11179674 0.114300914 -0.06358622 -0.15571702 -0.11417261
0.10251824 0.10152104 -0.20737775 0.07509998 -0.09183191 0.17391926 -0.04196039 -0.13400964
0.18753918 0.15167846 -0.21779096 0.068643615 0.14453174 0.24203314 -0.18337415 -0.007509491
0.21511227 0.040235203 0.043776825 -0.25639796 0.20609947 -0.13601683 0.18504918 -0.20855945
0.18357514 0.08134925 -0.14620776 -0.15869537 -0.2057688 0.14691734 0.100776374 -0.030180164
0.22214489 -0.19478598 0.058227856 0.17639235 -0.10611953 -0.10230128 -0.052658327 0.36217114
-0.10149629 -0.05720867 0.020050682 -0.1521258 -0.03555218 -0.022339225 0.040224254 0.101894334
-0.22553293 -0.15034881 -0.16191049 0.15794663 0.2487456 -0.0610533 -0.037943963 -0.113133505
0.061566535 0.25014377 0.0074075456 -0.04305205 0.07590173 -0.085725546 -0.08199993 0.06575874
-0.27422214 -0.18044305 0.1634992 -0.039211314 -0.052325573 0.23209144 0.16041715 -0.15797657
0.0442669 0.06147958 0.08921064 -0.15377048 -0.13809249 -0.23269609 -0.16716701 -0.07408887
-0.05932101 -0.18808584 0.13855883 0.1097951 0.22335681 -0.24132065 0.11759963 -0.048612878
-0.17536592 0.00528016 -0.1075185 -0.0421697 0.19640408 -0.23735014 -0.17145361 -0.23144154
0.1812679 -0.03731515 -0.2497673 0.06818842 -0.113503814 -0.16017294 0.23915066 -0.24354853
-0.26967925 -0.14903578 -0.23576124 0.114175044 -0.04877557 0.10286702 0.2151018 0.08066187
-0.21587652 -0.108244166 -0.12256721 -0.14582905 0.19563492 0.11788846 -0.003082744 -0.16997129
-0.24503434 0.018090628 -0.08172319 0.21404137 -0.19206892 -0.09891636 0.06451479 0.029483577
-0.15209189 0.11204592 0.09212702 0.20802286 0.04496105 -0.083614096 0.20758452 -0.104932256
0.007306783 -0.07906317 -0.16866432 0.28660843 0.18782972 -0.10906753 0.06085185 0.22376442
-0.1934799 0.077086724 -0.27140617 0.067882724 0.2634246 0.20165795 -0.20552742 0.14781465
0.20711403 0.1563571 0.15753365 -0.13618502 0.24398172 0.070727736 0.22290088 0.1479677
0.083186395 -0.07732719 0.24068208 0.056116994 -0.18779781 0.09229653 0.17369218 0.09232011
0.06724468 0.25116438 -0.11392743 0.11923002 0.27055755 -0.2462856 -0.05464937 0.045210037
0.26178864 0.003400913 0.12859821 0.16100231 0.2024586 0.0073020337 0.024100294 -0.22972783
-0.28467372 -0.14996623 -0.0076405914 -0.036296185 -0.16665857 -0.15739307 0.14016254 -0.14070058
0.21930897 0.23739271 -0.22297414 -0.115969084 0.17310262 -0.12510295 0.20098618 0.16327955
-0.21031323 -0.17786576 -0.15470207 -0.23383442 -0.033488233 0.07523773 -0.15125367 -0.2759099

policy_fc3.bias f4 [51]
00000000: de49 3d3c ad76 d63c a486 48bd 6c52 923b
00000010: 6e7c fe3b 7271 c43c 0c25 98bc 716c f53b
00000020: 8c5c 63bd e1d7 a33c 4baf e43c ea69 45bd
00000030: 9bbb 32bc 20dd 383d e457 2ebc 0d77 33bc
00000040: 1ec2 ccbc b561 96bc da78 bf3c f02d 1ebd
00000050: f0eb c33a a16a d93c 503b 87bc 64f3 2fbd
00000060: 161e c33c ed2b 733d a9fd b53c a5da 333d
00000070: 3993 163d 3122 d93c f974 853b 75fc 993c
00000080: 81ea 19bc 5ee2 07bc 99ac 3abc f47e 2b3d
00000090: 89c3 fe3c cf6a 48bd cf89 f9bb 57f6 083d
000000a0: d3cb 903c 5bc3 3b3c 3a82 0a3c c873 7ebc
000000b0: c5bb 1cbd 3eb6 22bd 4788 1d3d c285 e33c
000000c0: 66be 2ebc 3f9b 41bc 1108 37bd
0.011553256 0.026179636 -0.04895653 0.004465392 0.007766298 0.023979876 -0.018572353 0.007489734
-0.05550818 0.0200004 0.027915617 -0.04819671 -0.010908986 0.045132756 -0.010641072 -0.010953677
-0.024994906 -0.018357137 0.023373056 -0.03861803 0.0014947634 0.026540102 -0.016507775 -0.042956725
0.023818057 0.059368063 0.022215681 0.043909688 0.036761496 0.026505562 0.004072782 0.018797139
-0.009394289 -0.008293716 -0.01139369 0.04186912 0.031099098 -0.048929986 -0.007615305 0.033438053
0.017675316 0.011460151 0.0084539 -0.015530534 -0.03826501 -0.03972458 0.038460042 0.027773742
-0.010665512 -0.011816799 -0.044685427

value_fc1.weight f4 [64, 261]
00000000: ef38 02bd 3042 eb3c f270 f93d 7763 e5bd
00000010: f717 19be b3a5 da3d 0516 353e 8614 b03d
00000020: d06b fe3d 97d8 263d a236 c3bd 6f0f 993d
00000030: 0acc 7d3d 0c48 d83c 842c 0e3e 765b 2c3e
00000040: 590d 3cbe f191 99bc 616c 9e3c f0a8 403d
00000050: ee80 6fbd e324 afbc 4ee2 c03d e75a 023e
00000060: 3edc 23be 647e e6bc 07a7 c33d 8c13 a4bc
00000070: 706c de3d 61fc 40be 5815 d43c 9f63 263e
00000080: cbb2 473c 44d4 0fbe 46c4 b7bc 3920 24be
00000090: ee02 b6bd 3aa7 be3d 8cef 7fbd c17e 13be
000000a0: a298 e4bd af1e 8e3d ea30 97ba 1918 0fbd
000000b0: 812e f73c cf54 fc3c 1e53 85bd aa39 55bb
000000c0: e8c9 ef3d 5de2 babc 96b6 783d 925c 9d3d
000000d0: 8d2b b9bc e432 ffbb c716 33be 0e1c 24be
000000e0: 3ad6 08be d2cd 303d 110a 0abd 2685 18be
000000f0: 0eaa 11bd da5c c7bd 2089 c9bb 1920 023e
00000100: fe02 3dbd 8845 9a3d b638 e73d 435b 67bd
00000110: 92ac aeba 866f 563d 4b0e e8bc 5025 d1bc
00000120: f3a1 4f3d e1ac 8dbc 5796 72bd 5eef 29bd
00000130: 0260 bdbd 0159 a33d c4bf 21bc 914b a5bc
00000140: 42dc e7bd 7bc2 88bc d70a ed3d 764d 023d
00000150: 71ac b0bc 0a0e 01be b988 4bbd 01d1 063d
00000160: 72f9 bbbd fc08 26be 23f3 073d a831 9e3d
00000170: 0986 cbbd 2584 21bd b995 8c3d 529c d6bc
00000180: 373a 8dbd a38e ce3c 5248 af3d 6d6f ab3d
00000190: 069a 5a3d 5146 22be a290 28bd 4524 40bd
000001a0: 1b25 093e a26a c7bc 8271 0e3e 590c b43c
000001b0: 7c84 0dbe 2365 63bd cd08 153e bfc6 98bd
000001c0: 9265 6f3c 4d3d 4b3d 60c6 45bd 1aea 1e3c
000001d0: 8d66 41bc 5291 04be 585d 4a3d 1689 cf3c
000001e0: 7594 c03c d801 19be 34e9 03be 5f13 2b3e
000001f0: 1542 93bd 4505 b5bd 8212 573d 72f7 b33c
00000200: ea14 9c3d df14 6cbd a525 403d f048 e1bd
00000210: 449b 91bd dc79 cd3d 8716 1d3c a097 f4bc
00000220: 715b 04be e2f6 cbbd 7e65 113e 7611 56bc
00000230: 0184 56bb bcc0 c1bd 873a 8c3d 97a0 dfbd
00000240: 37b4 b63c 6862 0bbd d5ff 643b d4d6 b6bd
00000250: 51a2 4b3d ece1 dfbd 40c5 e3bc fc8d b5bd
00000260: 01b5 25bd 789a e5bb 4e25 a3bd 57ac ef3c
00000270: a2a1 9dbd dc2e 81bd 7f79 38bd 7208 253d
00000280: 53c6 e3bd 862b 03be 9c41 a6bd 2fbd e83d
00000290: 9fac 713d 8771 fc3d e1b9 0dbd da35 3d3d
000002a0: 88fb bbbc d047 8fbd bd45 db3d 4368 62bd
000002b0: 25d1 f03d 6281 e43d 9efa aebd d034 113d
000002c0: 5009 033e 387c bbbd d9bf 023e b0b8 ccbd
000002d0: b4f3 ebbd 0022 4fbb d6ee 7abd 71e5 a23d
000002e0: 05ef f2bd 4461 8e3c 42f0 c9bc f6e0 c03c
000002f0: 42b0 a9bd 979f 6d3d e70b 8e3b ec2d 9a3d
00000300: 4520 043b b3a4 c2bd 1581 61bd 1f45 d43d
00000310: b7b0 bf3c 43a1 fa3c a236 bdbc 34c6 d73c
00000320: 7d70 56bd 9995 fcbc 83e2 d5bc 62a0 3c3d
00000330: 6442 c13d 0aa3 a33d 9dc6 6fbd b841 e6bc
00000340: 766f f8bd f228 28bd 674a 3d3e af4c 8fbc
00000350: 59aa 8ebc 90a9 033e 6ac4 053e 3c03 9d3d
00000360: e2f7 203d 89af 8c3d 6442 d1bc 0bfa d33c
00000370: c938 97bd 3feb 75bd 133a cf3c cbd6 5ebb
00000380: b266 e83d 148c 87bc 893e 123d 7527 d6bd
00000390: 1190 5dbc 796c 5ebd efeb b73d 5b6a 083c
000003a0: d22e 75bc dc2f c93c 8432 0fbd dfb7 81bd
000003b0: 7b80 e03d e351 6b3c 8107 fabd f696 2e3d
000003c0: 6b47 96bd 5bd3 ef3d c070 afbd bd8c 8fbb
000003d0: e2f9 b0bd ac15 333d ad24 dabd ac89 6e3d
000003e0: 6d86 9dbd fa28 f73d db08 29bd 243e b03c
000003f0: 84fc d43d 5273 0ebe 9546 543d 511f d4bc
-0.031792577 0.028718084 0.12179746 -0.11200612 -0.14950548 0.10676136 0.17684181 0.085976645
0.12422907 0.0407339 -0.09531905 0.07473647 0.061962165 0.026401542 0.13884169 0.16831765
-0.18364467 -0.018746348 0.019338788 0.04703611 -0.058472566 -0.021379894 0.09418164 0.12729989
-0.16001984 -0.02813644 0.09553342 -0.020028852 0.108605266 -0.18846275 0.025889084 0.1624894
0.012188624 -0.14045817 -0.022432458 -0.16027917 -0.088872775 0.0930924 -0.06248431 -0.14403822
-0.11161925 0.06939446 -0.0011534963 -0.03493509 0.030173542 0.030802159 -0.06509994 -0.003253559
0.117084324 -0.022813017 0.060721003 0.07683672 -0.022603774 -0.007788049 -0.17489158 -0.16026327
-0.13362971 0.043165036 -0.033701006 -0.14894542 -0.035562567 -0.09734507 -0.00615038 0.12707557
-0.04614543 0.07532793 0.11290114 -0.05648352 -0.0013326576 0.05235245 -0.028327128 -0.025530487
0.050691556 -0.01729435 -0.059225406 -0.041488044 -0.09246828 0.079759605 -0.009872381 -0.020177634
-0.11321308 -0.016694298 0.11574333 0.031812154 -0.021566601 -0.12603012 -0.049690936 0.032914165
-0.09178437 -0.16214365 0.033190858 0.07724315 -0.099376746 -0.039432663 0.06864495 -0.026197586
-0.06895869 0.025214499 0.08558716 0.08370862 0.053369544 -0.15847136 -0.041153558 -0.04690959
0.13393061 -0.024342839 0.13910487 0.021978544 -0.1382007 -0.055516373 0.14554138 -0.07459783
0.014611619 0.049619008 -0.04828489 0.009699369 -0.011804235 -0.1294606 0.049405426 0.025333922
0.02350829 -0.1494211 -0.12881929 0.16706608 -0.071903385 -0.08838896 0.052507885 0.021968577
0.076211765 -0.05763709 0.0469109 -0.1100024 -0.07109693 0.100330085 0.0095878905 -0.029857457
-0.12925507 -0.099591985 0.14198872 -0.013065686 -0.003273249 -0.09460589 0.06847101 -0.10919302
0.02230273 -0.034029394 0.0034942527 -0.08927694 0.049715344 -0.10931763 -0.027804017 -0.08864972
-0.040455822 -0.0070069395 -0.079661 0.029256983 -0.07696845 -0.06307766 -0.045037743 0.040291257
-0.11121812 -0.12809572 -0.08117983 0.11364209 0.059002515 0.12326341 -0.034601096 0.046193935
-0.022947088 -0.06996119 0.10706661 -0.055275213 0.11758641 0.1115749 -0.08543895 0.035450757
0.12796521 -0.09154552 0.12768497 -0.09996164 -0.11521092 -0.003160596 -0.061262928 0.07953919
-0.118619956 0.017380364 -0.024650697 0.02354477 -0.08285572 0.058013525 0.004334915 0.0752829
0.0020160836 -0.0950407 -0.055054743 0.10364746 0.023399694 0.030594474 -0.02309734 0.026339628
-0.05235337 -0.030833052 -0.026108986 0.04605139 0.09436491 0.079900816 -0.05853902 -0.028107509
-0.121306345 -0.041054673 0.18485413 -0.01749262 -0.017415212 0.12857652 0.13063207 0.076666325
0.0392989 0.06869418 -0.025544353 0.025876066 -0.07383878 -0.0600388 0.025296247 -0.0034002538
0.113477126 -0.016546287 0.03570417 -0.104567446 -0.013523118 -0.054302666 0.08980548 0.008326138
-0.014964776 0.024558954 -0.034960285 -0.06333899 0.10962006 0.014362785 -0.122084625 0.042624436
-0.07337841 0.11710235 -0.08566427 -0.004380791 -0.08641411 0.04372184 -0.106515266 0.058236763
-0.07691655 0.120683625 -0.04126821 0.021514006 0.10399726 -0.13911179 0.051825125 -0.02589384

value_fc1.bias f4 [64]
00000000: dcef 7cbd c2c3 0e3c d7cd 40bc 3145 823c
00000010: 3c87 c13c 281b 823b 6ffa e53b 8276 feba
00000020: af39 6a3b 57d6 ac3c 27e7 25bc 1e64 3c3b
00000030: a1ea 243d ac3a 66bc 7d0b 433b 6f80 a43c
00000040: 7446 f1bb 7ea8 7d3c 00ba 96bb a84f 603c
00000050: b53a b13b 2665 81ba 8e78 323c 931c 523d
00000060: 551b 06bc b86b 823c 6345 30ba e3ac 563c
00000070: 1a19 1abd db7c 96bd 519e 3e3b d888 833c
00000080: 24e1 4dbd 2849 ff3b 73f7 813c 915f e33b
00000090: 4201 103c cfb7 d3bb 6ea2 cb3c bc03 3abd
000000a0: 456c 5dbc af20 4e3c 23f7 233c 8595 e83b
000000b0: 58bd 413a b03b aabc 0533 f9ba 34a5 a2bc
000000c0: f0bb b83a fab8 ca3c f7b1 8ebc 3d0f f93b
000000d0: 6504 a7bc 0634 a83c fcff eb3c c6ea abba
000000e0: 7c1c 033d 19ef 693c 7aad 793c ce6d 123c
000000f0: f53c c6bb fe58 0bbc 7166 163c f436 da3a
-0.061752185 0.0087136645 -0.011767826 0.015902134 0.023624055 0.0039705224 0.0070183794 -0.001941398
0.0035739949 0.021098299 -0.010125912 0.0028746198 0.040262822 -0.014052074 0.0029761486 0.020080773
-0.007363135 0.015482066 -0.0045998096 0.0136908665 0.0054086098 -0.0009872064 0.010893 0.05129678
-0.008185227 0.015920505 -0.00067242066 0.013102743 -0.037621595 -0.07348033 0.0029086063 0.016056463
-0.05026354 0.0077907033 0.015865063 0.0069388826 0.008789362 -0.0064611207 0.024857726 -0.045413718
-0.013514583 0.012581035 0.010007652 0.0070979022 0.000739058 -0.020780414 -0.0019012397 -0.019854166
0.0014094096 0.024746407 -0.017418845 0.0076006935 -0.020387838 0.02053262 0.028808586 -0.0013116233
0.032009587 0.014278197 0.015239114 0.008937312 -0.006049747 -0.008505104 0.009179697 0.0016648457

value_fc2.weight f4 [32, 64]
00000000: 19cc 29bd 89f5 2dbe 035d f0bc 18a1 a03c
00000010: 5ee2 aabd c538 4cbc 1e5b 533d 048b 25bd
00000020: 7267 563e a633 f83d fdb7 503e 323f 8d3e
00000030: 3f6c 0bbf d5ef 9f3e 86c8 a1be a9fd 5f3d
00000040: 519c 8fbc 589c 813d 537e acbe e6f0 4dbe
00000050: 4268 a23d ce0e b0be 4e6e 83be e6a3 d2bd
00000060: 45ee d2bd 761d 05be cead 60bd 7218 ac3d
00000070: bd09 53be 4a0e 7b3a 2383 a4be a5ea a6be
00000080: e79d b73d fd20 893e 8d95 353e a615 7bbd
00000090: 6161 6fbe a417 5fbe 65af 8fbd 97c7 cbbd
000000a0: 1aa6 4f3e 35ab 87bd 5b25 023c 56be 1fbe
000000b0: 84af 30bc 717a f33d cfb5 03be 6b6c 3fbd
000000c0: e795 81be da43 54be 9a6a 803d c425 5fbe
000000d0: 6df5 afbe c198 3d3e ac12 46be 2333 9cbe
000000e0: e7a0 083e 487e 6dbe 23a9 1abe 6292 81be
000000f0: b1d9 e23d 34fc babe a1f0 f0bd 0a28 86bd
00000100: 502d 8fbe 7ab9 c93c 1ffc c4bd 55dd 93be
00000110: 0c40 2e3e deac 723e d024 33be cfa3 a7be
00000120: a7f4 5b3e 05c9 533e ad75 9f3d 3bd1 f0bc
00000130: 42c8 10be f7b1 8f3e 455b 52bd e74c 5cbe
00000140: 70ed 90be 2d96 b13d 8832 b9be 9d7c 96be
00000150: 3e1a 123e 068b 0c3e a35d 38be e157 59be
00000160: 8c0d eabd 5609 33be 68cb cfbe 8aec ad3d
00000170: 53a8 073e 247e 33bd 13e1 f53d 0e0e 11be
00000180: 6bf6 b83d 86b7 0f3d 9ec2 c73d 30c8 103e
00000190: 1063 fe3d 350f 63be d552 61be 82d9 15be
000001a0: c2d9 dfbc 60be 83be e50f 5dbe 5fcf 87bc
000001b0: 3d3f 6fbe 5590 323d f13d 113d 8e92 b53d
000001c0: 523b 133c 8e6b 6abe e5b9 3fbd f957 bebe
000001d0: d57c e2bd c68b 9fbd 9fd1 bb3d c622 113b
000001e0: 2bd9 36bd 4b51 9e3d 0c37 6c3e af57 03be
000001f0: c11e 0c3d e525 9dbd f218 67bb bd17 4dbe
00000200: 7117 483e 41e3 1cbe f9fa 28be 541b a9bc
00000210: d89c 813e 7a22 163e 5029 6cbd 610a 9abe
00000220: 5b42 07be cb42 823e 4e29 793d cab6 753e
00000230: 47a8 35ba b9d4 8d3e 6e72 eb3c 3953 14be
00000240: f053 a0bd fe13 7cbd 7871 363e 385f b83d
00000250: 94a8 1b3d e3fa 75be 7b27 35be 3320 513e
00000260: 158c 80bd acfd acbd ce99 513e 2717 143e
00000270: 1ed0 ba3d e858 35bd 141c ddbd 5a8c 8cbe
00000280: 4a2b 0fbe 67ba 29be e789 d03d e315 803e
00000290: 5dfe 2dbd 5c52 bd3d 0e70 13be e813 7fbe
000002a0: f661 173e 7d78 d7bd 4401 20bc 653f 42be
000002b0: 2fd0 da3d 82b8 23be ada3 7d3e e3b8 303e
000002c0: 814c debe 8d55 363d b4e1 803d b2f2 0fbd
000002d0: 3923 983d 1a99 c6bd 8d9e 07be 61f7 bf3d
000002e0: d788 25be 4117 6fbd 5840 c23d 207d 4dbe
000002f0: 23cf 06be b072 0bbe 6395 763e dd39 5bbe
00000300: d81e 2a3e 1aef 283e 858b 103e bb56 fa3d
00000310: 01a1 31be 7990 473e b2bc 293e 332c 313e
00000320: 1237 903b cda1 b43d f768 5fbe 1e3d c73d
00000330: 6bc0 793d 548b 28bd 0519 ff3c 95cd 023e
00000340: 458d 41bd 6599 8cbe 4882 17be b5b4 51bd
00000350: 27e8 1f3d 91e9 64be 00b7 6c3c 81ad eebc
00000360: d7aa 6bbe 72f6 f5bd 87d9 aa3b 64ae 763d
00000370: 0142 cabd e92d 6abc 2c4c 47bc 11f1 fbbc
00000380: 8d54 583e 3f85 72be b472 103c ade4 c83c
00000390: 351e f1bc aab5 23be 6152 113e a73d f8bc
000003a0: 699a 51be 2f3d 523c a7b8 143e bb3a ba3d
000003b0: b4d1 15be 909d 8c3d c2f0 133e ba39 94bd
000003c0: 6f45 e1bc 1625 3d3e 9fcc 223d 1d72 a0bd
000003d0: 9a09 493c cde8 133e 9a97 96bd 5083 4d3e
000003e0: cb2c 1dbe 4dc9 91bd 738b 54be 418c e93c
000003f0: f65e a3bd d520 903d 5a91 28be 6d81 233e
-0.04145441 -0.16988195 -0.029341226 0.019608065 -0.08343957 -0.012464707 0.051600568 -0.04041578
0.20937899 0.12119226 0.20382686 0.27587277 -0.54462045 0.31237665 -0.315983 0.05468527
-0.017530592 0.06328648 -0.33690128 -0.20111427 0.07930042 -0.34386295 -0.25670093 -0.102851674
-0.102993526 -0.1299952 -0.054853253 0.084031 -0.20609184 0.00095770194 -0.321313 -0.32600895
0.08965664 0.2678298 0.1773283 -0.061299942 -0.23376991 -0.21786362 -0.07015876 -0.09950178
0.20278206 -0.06624452 0.007943477 -0.15599951 -0.010784034 0.11888588 -0.12862323 -0.046734255
-0.2530968 -0.20729008 0.06270333 -0.2179175 -0.34366933 0.18515302 -0.1934306 -0.30507764
0.1334263 -0.23192704 -0.15103583 -0.25306994 0.110766776 -0.3652054 -0.11764646 -0.065506056
-0.27964258 0.024624575 -0.09618401 -0.288798 0.1701662 0.23698756 -0.17494512 -0.32742164
0.21480046 0.20682152 0.07786117 -0.029396644 -0.14138892 0.28065464 -0.051356573 -0.21513711
-0.2830615 0.08671222 -0.36171365 -0.29391947 0.14267823 0.13724908 -0.1800447 -0.2122493
-0.11428365 -0.1748403 -0.40584874 0.08492382 0.13247804 -0.04382147 0.1200582 -0.14165518
0.090313755 0.03508713 0.09753917 0.14138865 0.124212384 -0.2217377 -0.22004254 -0.14633754
-0.027325515 -0.25731182 -0.21588095 -0.016578374 -0.23363967 0.043594677 0.035459463 0.08865844
0.008986311 -0.22892591 -0.046808142 -0.37176493 -0.11058966 -0.077903315 0.091708414 0.002214597
-0.0446407 0.07730349 0.23067874 -0.12826417 0.034209017 -0.076732434 -0.0035262671 -0.20028587
0.19540192 -0.15321065 -0.16501988 -0.020642914 0.25314975 0.1466159 -0.057656586 -0.30086043
-0.13208906 0.25441584 0.060830407 0.2399551 -0.00069296773 0.27701357 0.028741088 -0.14484872
-0.0782851 -0.061542504 0.17816722 0.090025365 0.038002566 -0.24021487 -0.17690842 0.2042244
-0.062767185 -0.084468216 0.20468828 0.14461957 0.091217265 -0.04427424 -0.10796371 -0.2745083
-0.13981357 -0.16575013 0.10182553 0.25016698 -0.042478908 0.092442244 -0.14398214 -0.24909937
0.14783463 -0.10521028 -0.009765927 -0.18969496 0.10684239 -0.15988353 0.24769469 0.17258029
-0.43417743 0.04451518 0.062930495 -0.03514356 0.07428593 -0.096971706 -0.13244076 0.09373356
-0.16165482 -0.058371786 0.09484929 -0.20067263 -0.13164954 -0.13617969 0.24080424 -0.21408792
0.16613328 0.1649746 0.14115722 0.12223574 -0.17346574 0.19488706 0.16575888 0.17302017
0.004401096 0.088199235 -0.21817385 0.09728454 0.06097452 -0.0411485 0.03113986 0.12773736
-0.047253866 -0.2746078 -0.14795792 -0.051197726 0.039039757 -0.22354724 0.0144479275 -0.029135467
-0.23014389 -0.12009896 0.0052139196 0.060224906 -0.098758705 -0.014293172 -0.012164157 -0.030754598
0.21126004 -0.23683642 0.00881641 0.024523104 -0.02943335 -0.15987268 0.14191581 -0.030302836
-0.20469059 0.01283197 0.14523564 0.09093233 -0.14630777 0.0686599 0.1444731 -0.07237573
-0.027498929 0.18471178 0.039745923 -0.078342654 0.012270356 0.14444275 -0.073531345 0.20069623
-0.15349118 -0.07118473 -0.2075632 0.028509261 -0.07977097 0.07037512 -0.16461697 0.15967341

value_fc2.bias f4 [32]
00000000: 0985 e43c 44f0 943c b94e 4a3d be53 35bb
00000010: b982 593d 5806 943c a711 4c3d 60d5 503d
00000020: d958 8c3b 5194 653d 9686 28bd 7350 0dbd
00000030: 72b5 9e3b 3d9d b43c d36e 23bd 20a8 1bbd
00000040: b07a 383d 0f92 32bd 71df 2f3c c340 22bc
00000050: 40b3 593c 43d5 dd3a db28 71bd ec62 fa3c
00000060: 1d4e 3b3c 27ce ce3b 4688 13bb cb39 01bd
00000070: 2942 aabc 0441 0b3d 7a70 103c 699c 91bd
0.027895467 0.018180974 0.049391482 -0.0027668322 0.053103182 0.018069431 0.049821522 0.05098474
0.0042830524 0.05604965 -0.041143976 -0.03450055 0.0048434073 0.022047633 -0.039900612 -0.038002133
0.04503888 -0.043596324 0.010734425 -0.009903136 0.013287365 0.0016924519 -0.058876853 0.030564748
0.011432198 0.0063111964 -0.0022511645 -0.031549256 -0.0207835 0.03399755 0.008815879 -0.07109911

value_fc3.weight f4 [1, 32]
00000000: 697a d43e 6be0 d13e c7e2 c23d a748 b13e
00000010: 9376 fb3e 02af 7c3d 4762 db3e 4c29 293e
00000020: 51af abbe 317e 0f3e c209 eb3a 262e 5cbe
00000030: 728f 9bbe 0c7b 033f d285 35be b051 2a3e
00000040: 47e6 6f3e cf77 ca3e cf49 8b3e 567b aa3d
00000050: d2ee 883d 7a7d 9bbe c4f6 21be 98e7 563e
00000060: 8a05 af3e 9d3f 143f 2d52 653a 5913 e2bd
00000070: 6cd5 92be 1dca 1b3f 1500 293f 2368 933e
0.41499642 0.4099153 0.095159106 0.34625742 0.49113902 0.061690338 0.42848417 0.1651966
-0.33532193 0.14012982 0.0017931985 -0.21501979 -0.30382878 0.5135963 -0.1772683 0.16632724
0.23427688 0.39544532 0.2720475 0.08324306 0.06686176 -0.3036917 -0.1581679 0.20986784
0.34183913 0.57909566 0.0008747902 -0.110388465 -0.28678453 0.60855275 0.6601575 0.28790388
