rl/spin_model_11212038/17.pt (torch_old, 159601 bytes, 12 tensors)

log_std f4 [51]
0	0xbcd20df9	-0.025641428
1	0x3d79700d	0.060897876
2	0xbc395dca	-0.011313865
3	0x3da35891	0.07975877
4	0x3d8f5ad2	0.069997445
5	0x3dc0597b	0.09392067
6	0x3dadc386	0.08484559
7	0x3d8b6b49	0.068075724
8	0x3e0cd750	0.1375401
9	0x3d2cee46	0.042219423
10	0x3dbf6308	0.093450606
11	0x3ce94362	0.028474513
12	0x3cfbe018	0.030746505
13	0x3e10f53a	0.14156047
14	0x3d0e5c5d	0.034756053
15	0xbba9a760	-0.0051774234
16	0x3da0362a	0.07822831
17	0x3d777f5b	0.06042419
18	0x3da564df	0.0807588
19	0x3e069a8f	0.13144897
20	0x3d955abb	0.07292696
21	0xbbc157b8	-0.0059003495
22	0x3dc16c94	0.09444538
23	0x3d94117c	0.072298974
24	0x3d4968cc	0.049172208
25	0x3e0fe6a2	0.14052823
26	0x3ddb8b8b	0.10719975
27	0x3deb2a25	0.11482648
28	0x3deec03c	0.116577595
29	0x3dcb3c99	0.099236675
30	0x3dadec81	0.08492375
31	0x3e030dcd	0.12798233
32	0x3ddfc483	0.109261535
33	0x3e272a4d	0.1632473
34	0x3db3b4b0	0.08774698
35	0x3dbe1536	0.092813894
36	0x3db754c2	0.08951713
37	0x3e2400c8	0.16015923
38	0x3d8b5fcc	0.06805381
39	0x3da94420	0.08264947
40	0x3d925198	0.07144469
41	0x3dd7523d	0.105137326
42	0x3d5adb7b	0.05343197
43	0x3dcf8f15	0.101347126
44	0x3db77056	0.08956973
45	0x3df2f1fa	0.118625596
46	0x3d844b14	0.064596325
47	0x3e0b1793	0.13583212
48	0x3e187050	0.14886594
49	0x3ddffbc0	0.109366894
50	0x3cf4835d	0.029847795

policy_fc1.weight f4 [64, 261]
0	0x3d3d69d5	0.046243507
1	0x3d1309fc	0.035898194
2	0x3ddf3276	0.108982965
3	0xbe03b49c	-0.12861866
4	0xbdca5a53	-0.09880509
5	0xbddaf65b	-0.1069152
6	0xbca6fc60	-0.020384014
7	0xbd8f356f	-0.069926135
8	0x3d97c8ff	0.07411384
9	0x3d13c80e	0.03607946
10	0xbb011726	-0.0019697635
11	0xbd78d2a7	-0.06074777
12	0x3da2478d	0.079238035
13	0xbcefbf67	-0.029266072
14	0xbd7aabdc	-0.061199054
15	0x3df25bb4	0.11833897
16	0x3c0d2a6c	0.008616071
17	0xbdaf16eb	-0.08549293
18	0xbd005c3d	-0.031337965
19	0x3cdbb6d5	0.02682058
20	0x3dc1b93e	0.0945916
21	0x3d78798d	0.060662795
22	0xbde72533	-0.11286392
23	0x3e104224	0.1408773
24	0xbde2936d	-0.110632755
25	0x3e1a1463	0.1504684
26	0xbcf7e825	-0.030262062
27	0xbcfec74a	-0.031100888
28	0xbc115d70	-0.008872375
29	0xbdbbbdf1	-0.09167088
30	0x3c013200	0.007885456
31	0x3e26c196	0.16284785
32	0x3de50e6a	0.1118439
33	0x3d810b65	0.063010015
34	0x3db77a2e	0.08958851
35	0x3d90a57d	0.070628144
36	0x3c7908c1	0.015199841
37	0xbd322f41	-0.043502096
38	0x3d78de5f	0.060758945
39	0x3d89a4cf	0.06720888
40	0xbdd9a170	-0.10626495
41	0x3da38561	0.079844244
42	0x3d0ab554	0.033864334
43	0xbc4d9d60	-0.012549728
44	0x3d30366e	0.04302066
45	0xbddcd4bb	-0.107827626
46	0xbcecf4ff	-0.028925417
47	0xbde9e7b2	-0.114211455
48	0xbd17b3e3	-0.037036788
49	0x3e23feac	0.16015118
50	0xbdd569c0	-0.10420561
51	0xbd87b0a0	-0.066254854
52	0xbd3c5313	-0.045977663
53	0xbcc42cb3	-0.023947095
54	0xbe2205cb	-0.15822522
55	0x3d2414ab	0.040058773
56	0xbda00b10	-0.0781461
57	0xbc6bb157	-0.014385543
58	0xbc4ccbeb	-0.01249979
59	0x3e0316e2	0.12801698
60	0xbabdf0a5	-0.0014491273
61	0xbd4eaadb	-0.05045591
62	0x3d860bde	0.06545232
63	0x3dc55330	0.096350074
64	0x3d920bac	0.071311325
65	0x3d0ad10f	0.03389078
66	0xbcff1494	-0.031137742
67	0x3d4df267	0.05028
68	0xbdbc1070	-0.09182823
69	0xbde89713	-0.1135694
70	0x3ce9ecc3	0.02855528
71	0x3babf680	0.005247891
72	0x3d2cdb43	0.04220129
73	0x3d6f60a8	0.058441788
74	0xbbd704e5	-0.006561863
75	0xbdb6f565	-0.08933524
76	0xbda61382	-0.081091896
77	0xbddc5940	-0.107592106
78	0x3dc7b774	0.09751788
79	0xbd8f598d	-0.06999502
80	0x3d1fdbc0	0.03902793
81	0x3ddad8fa	0.10685916
82	0xbae81afa	-0.0017708235
83	0xbcd60ce0	-0.026129186
84	0x3cbaa434	0.022783376
85	0x3dc05fd2	0.09393276
86	0x3da7602d	0.08172641
87	0x3d92837c	0.07153985
88	0x3b8f7b87	0.0043787393
89	0xbd5dc218	-0.05414018
90	0x3d10fd37	0.035397734
91	0xbd1ab421	-0.03776944
92	0xbc9005a1	-0.01758081
93	0x3d2807e4	0.04102315
94	0x3d812952	0.06306709
95	0x3c9067b3	0.017627573
96	0xbdeac645	-0.11463598
97	0xbe0bf238	-0.13666618
98	0x3d891eaf	0.066953056
99	0xbcfbe8dc	-0.030750684
100	0xbc07803c	-0.00827032
101	0x3d0e8aa8	0.0348002
102	0xbe22393c	-0.15842146
103	0x3bb28762	0.005448268
104	0xbdbb8ddb	-0.09157916
105	0x3d028a9d	0.031870473
106	0x3da5fc70	0.08104789
107	0x3c8454af	0.016153662
108	0xbd98ff30	-0.07470548
109	0x3de7f4af	0.113259666
110	0xbd98ea96	-0.07466619
111	0x3bdf632c	0.006817242
112	0xbaae8152	-0.0013313687
113	0xbd8aba0a	-0.067737654
114	0xbd2f0e36	-0.042738162
115	0x3da47651	0.080303796
116	0x3d775139	0.060380194
117	0x3dd9b6cc	0.10630569
118	0x3de989ca	0.11403234
119	0x3c974021	0.018463196
120	0xbb1783db	-0.0023119363
121	0xbdaaf7c0	-0.08348036
122	0xbde0cbf3	-0.109764
123	0xbd641a58	-0.055689186
124	0x3d9e4ec6	0.077298686
125	0x3cdc0aeb	0.026860675
126	0xbe24432b	-0.16041248
127	0xbccaa26d	-0.024735654
128	0x3dc99be7	0.09844189
129	0xbd449792	-0.04799611
130	0x3defdab4	0.11711636
131	0xbe1c082d	-0.15237494
132	0x3d23a59a	0.03995285
133	0xbd94dd3b	-0.07268759
134	0xbc9538be	-0.018215533
135	0xbd57d13a	-0.05268977
136	0xbd9c887d	-0.076432206
137	0x3cb5d2d7	0.022195263
138	0xbc736c5b	-0.014857377
139	0xbe0c8caf	-0.13725542
140	0xbe13fac9	-0.14451136
141	0xbd986274	-0.074406534
142	0x3df51a1c	0.119678706
143	0xbd17ec0a	-0.03709034
144	0xbd8eb9c2	-0.06969024
145	0x3cd8606e	0.026413169
146	0x3d75a19a	0.05996857
147	0xbdc4b405	-0.096046485
148	0xbcfee40b	-0.031114599
149	0xbe19cb11	-0.1501887
150	0xbdcabd0b	-0.09899338
151	0x3d8e7884	0.0695658
152	0x3cf2d0f3	0.02964065
153	0xbd09c57f	-0.033635613
154	0x3e03f0c1	0.12884809
155	0x3d9519a5	0.07280282
156	0x3df2d029	0.1185611
157	0x3d54cdac	0.051953956
158	0xbdf95666	-0.12174682
159	0x3e10fc2b	0.14158694
160	0xbde1c878	-0.110245645
161	0x3d736df5	0.059431035
162	0x3d0b73cf	0.03404599
163	0x3d85f39c	0.065406054
164	0xbe1218dc	-0.14267296
165	0xbd76316d	-0.06010573
166	0x3dc8f86e	0.09813009
167	0xbdd1d2f6	-0.10245316
168	0x3cc3a3d3	0.023881828
169	0x3d953a5c	0.07286522
170	0xbce5d074	-0.0280535
171	0xbd0883bf	-0.033328768
172	0xbd23aadc	-0.039957866
173	0x3df50418	0.119636714
174	0x3dd1613b	0.10223623
175	0xbb610411	-0.00343347
176	0x3dede5cc	0.11616096
177	0xba46ec89	-0.0007588347
178	0x3d9036c1	0.070416935
179	0x3dc9dbb9	0.09856362
180	0x3e170eba	0.14751711
181	0x3c267a53	0.010161
182	0xbd99be78	-0.07507032
183	0xbd6c38ce	-0.05767136
184	0x3dd6390f	0.10460102
185	0x3d9df092	0.07711901
186	0xbdb87008	-0.09005743
187	0x3e095b54	0.13413745
188	0xbca947cf	-0.020664124
189	0xbd0a1a0c	-0.033716246
190	0xbd646e1a	-0.055769064
191	0x3d8a7989	0.06761462
192	0xbdd72d22	-0.10506655
193	0xbce1238a	-0.027482767
194	0xbdc583e9	-0.096443005
195	0x3cad5770	0.021159858
196	0x3d8a20fc	0.067445725
197	0x3da99fa4	0.08282402
198	0xbdd306d2	-0.10304035
199	0xbdca5f15	-0.09881417
200	0x3df48fed	0.11941514
201	0xbdd6d1e6	-0.10489254
202	0xbc4784ab	-0.012177627
203	0x3d997e3d	0.07494781
204	0xbdff19f6	-0.124561235
205	0xbe04471b	-0.1291775
206	0xbcf2ea81	-0.029652836
207	0xbd755fe0	-0.059905887
208	0xbd887106	-0.066621825
209	0xbdc11b3d	-0.094290234
210	0x3da27a59	0.07933492
211	0xbd7d31fb	-0.061815243
212	0x3db4ab18	0.08821696
213	0xbd3adc53	-0.045620274
214	0x3da2fe44	0.079586536
215	0xbda200aa	-0.07910283
216	0x3d31ebce	0.04343777
217	0xbda581a7	-0.0808137
218	0x3cdf79ce	0.02727976
219	0xbcbf87a9	-0.023380117
220	0x3da42663	0.08015134
221	0xbdb67a63	-0.08910062
222	0x3dc8e164	0.09808615
223	0xbd8c1fe6	-0.06842022
224	0x3db222d9	0.08698053
225	0xbdc28282	-0.09497549
226	0x3da5744c	0.080788225
227	0x3df09497	0.11747091
228	0xbde48dc8	-0.11159855
229	0x3d6069e2	0.054788478
230	0x3df04de6	0.11733608
231	0x3d7bc5ef	0.06146806
232	0xbded782d	-0.11595187
233	0x3e09aa73	0.13443927
234	0xbda4a708	-0.08039671
235	0xbcedb51a	-0.02901702
236	0x3cafaaf7	0.021443827
237	0xbd7e7ab9	-0.062128756
238	0xbce2afaa	-0.027671654
239	0x3d8ae3f5	0.067817606
240	0x3d9e4f9c	0.07730028
241	0x3c971a9b	0.018445304
242	0xbcf3aab3	-0.029744482
243	0x3c49351a	0.012280727
244	0xbda8233f	-0.08209848
245	0xbccbd64c	-0.024882458
246	0xbae4d3b5	-0.0017458113
247	0xbdf02a62	-0.11726834
248	0x3dc07440	0.09397173
249	0x3d8a75e1	0.06760765
250	0xbc18d7e1	-0.009328813
251	0xbcf68dbc	-0.030096881
252	0xbdf83040	-0.12118578
253	0xbe1bd1c0	-0.15216732
254	0x3e1b7934	0.15182954
255	0xbacf1368	-0.001579863

policy_fc1.bias f4 [64]
0	0xbc7167cb	-0.014734219
1	0xbc31a83e	-0.010843335
2	0xbbfdce37	-0.00774553
3	0xbcb00ba3	-0.021489924
4	0xbba90757	-0.0051583457
5	0x3c1860ca	0.00930042
6	0xbce95ea6	-0.028487515
7	0xbd25b5fa	-0.04045675
8	0xbb95e9ad	-0.0045749755
9	0xbb0eab67	-0.0021769644
10	0xbd240771	-0.04004616
11	0xbbd671c9	-0.006544326
12	0x3c53516b	0.0128978295
13	0xbc2bb40b	-0.010479937
14	0xbb51323c	-0.003192081
15	0x3b999993	0.004687497
16	0xbc0ab59f	-0.008466153
17	0xbcbca4d9	-0.023027824
18	0x3bc7b207	0.0060942206
19	0xbba2c6e7	-0.0049675587
20	0xbb515c93	-0.0031946048
21	0xbc46ef1c	-0.012141969
22	0xbc1e92cf	-0.009678557
23	0x3b21ce88	0.0024689753
24	0x3b4a2df1	0.0030850137
25	0x3b9e32b0	0.0048278198
26	0xbbb8a12a	-0.0056344466
27	0x3bb12cdf	0.0054069604
28	0xbb7071b4	-0.0036688866
29	0xbc06ddef	-0.008231624
30	0xbc718a21	-0.014742405
31	0xbb60b89b	-0.003428972
32	0xb8ca75fe	-9.654088e-05
33	0x3b4cb91a	0.0031238259
34	0x3acb1a1b	0.0015495451
35	0xbbda3948	-0.0066596605
36	0xbc74fb2a	-0.01495246
37	0x3bd229d3	0.0064136772
38	0x3b60d918	0.0034309085
39	0xba026cc5	-0.00049753144
40	0xbc4b6118	-0.012413286
41	0x3c598f17	0.013278744
42	0xbc342b91	-0.010996715
43	0xbbd350fa	-0.006448862
44	0xbcc28c00	-0.023748398
45	0x3b56e90c	0.0032792715
46	0xbc642ee2	-0.013927193
47	0x3ba647ba	0.0050744684
48	0xbbaf6cb8	-0.0053535365
49	0x3bced654	0.006312171
50	0xbc0f47b3	-0.008745122
51	0xbbaa703d	-0.005201368
52	0xbd10f456	-0.035389267
53	0xbcc2a89c	-0.02376204
54	0x3bcf118a	0.0063192295
55	0xbbf0c388	-0.007347528
56	0x3bff3642	0.0077884505
57	0x3b578ab0	0.003288906
58	0x3a4980e4	0.00076867477
59	0xbc8ca852	-0.017170105
60	0xba307c8e	-0.0006732427
61	0xb9e28e2a	-0.00043212
62	0xbad94ba3	-0.0016578328
63	0xbb318be1	-0.002709143

policy_fc2.weight f4 [32, 64]
0	0xbe4f59c5	-0.20249088
1	0x3d3c2a2d	0.04593866
2	0xbe46ca7d	-0.1941318
3	0x3e3d4553	0.18483476
4	0xbd6eff75	-0.05834909
5	0x3e5148fc	0.20437998
6	0xbd83e2f2	-0.06439771
7	0xbe81ac6c	-0.2532686
8	0x3d4d7b59	0.05016646
9	0xbc225e2f	-0.00991015
10	0xbe0fd9c1	-0.1404791
11	0x3d0251e8	0.031816393
12	0xbdf9ad9e	-0.12191318
13	0x3d5a4bf1	0.05329508
14	0x3cb9f520	0.022699893
15	0xbc7ea674	-0.015542615
16	0x3dcef17a	0.10104652
17	0xbcc6ebbd	-0.02428233
18	0xbeafdb1a	-0.3434685
19	0x3d8396b4	0.06425229
20	0x3dec6cab	0.11544164
21	0xbe8dd1d9	-0.27699164
22	0xbd3ea62b	-0.04654519
23	0x3dfefb88	0.124503195
24	0xbd773106	-0.060349487
25	0xbd53fc1f	-0.051754113
26	0x3e4c0eac	0.19927472
27	0xbd288e81	-0.041151527
28	0x3e481b78	0.19541728
29	0xbd133c68	-0.03594628
30	0x3e5a4e5c	0.21318954
31	0xbcfdb5c8	-0.03097047
32	0x3e0eb1c6	0.13935003
33	0xbe1af444	-0.15132242
34	0x3c53db89	0.012930759
35	0x3dab3acc	0.08360824
36	0x3da9a979	0.082842775
37	0xbdb1acf5	-0.08675567
38	0xbe7a1a01	-0.24423982
39	0xbde52c51	-0.11190093
40	0xbd6203a1	-0.055179242
41	0xbe3d0d38	-0.18462074
42	0xbea493d7	-0.32144043
43	0xbde3d330	-0.11124265
44	0xbda420ec	-0.08014092
45	0xbe8637cf	-0.26214454
46	0xbe1b687e	-0.1517658
47	0x3e13be63	0.14428096
48	0x3d5f2a3a	0.05448363
49	0x3c5d8887	0.01352132
50	0x3e729f07	0.23693477
51	0xbe4bf4c9	-0.19917597
52	0xbe327ec0	-0.17431164
53	0x3d813f85	0.063109435
54	0x3e73f498	0.23823774
55	0xbe2a415d	-0.16626497
56	0x3e1cb624	0.15303856
57	0xbe8709c7	-0.26374647
58	0xbe90b00a	-0.28259307
59	0x3d4867cb	0.04892711
60	0xbe76c782	-0.24099544
61	0x3c2d776f	0.010587557
62	0xbded698e	-0.115923986
63	0xbd466c20	-0.04844296
64	0xbd7242ed	-0.059145857
65	0xbc88af05	-0.016685018
66	0x3e28090a	0.16409698
67	0x3ddf538c	0.10904607
68	0x3e31d020	0.1736455
69	0x3e5a5bce	0.21324083
70	0x3dbb38bc	0.091416806
71	0x3de668bd	0.11250446
72	0x3dd8ea8f	0.105916135
73	0x3d456496	0.04819163
74	0xbe546ecc	-0.2074539
75	0xbd5eb405	-0.0543709
76	0xbe664128	-0.22485793
77	0x3e5cff63	0.21581797
78	0x3d112da1	0.035443906
79	0xbe55fcc5	-0.20897205
80	0x3e7ea4fc	0.24867624
81	0xbdbc184e	-0.09184323
82	0x3ddbddb0	0.10735643
83	0xbe7091e0	-0.23493147
84	0x3e52d2e7	0.20588265
85	0xbdc2374c	-0.09483203
86	0xbd990712	-0.07472052
87	0x3da5a962	0.08088948
88	0x3e176fb1	0.147887
89	0xbe20e038	-0.15710533
90	0x3e2dd40c	0.1697542
91	0xbc4de05f	-0.012565701
92	0xbcee8733	-0.029117202
93	0xbe849fd1	-0.2590318
94	0xbe203a14	-0.15647155
95	0x3e6f14b5	0.23347743
96	0xbe64264f	-0.22280239
97	0x3e6fec83	0.23430066
98	0x3d31630f	0.04330736
99	0x3d9f8ae4	0.07790163
100	0x3e0f9bc3	0.14024262
101	0xbdd680e4	-0.10473803
102	0x3d58667f	0.052832123
103	0x3e2b1950	0.16708875
104	0xbd274194	-0.040834025
105	0x3e890724	0.2676326
106	0x3dc8f5b4	0.09812489
107	0xbde89c74	-0.11357966
108	0x3ea0e91d	0.3142785
109	0x3e79ea66	0.24405822
110	0xbe164d90	-0.14678025
111	0x3e54de04	0.20787817
112	0xbe081b15	-0.13291581
113	0xbe280506	-0.16408166
114	0xbdfbd680	-0.12296772
115	0xbe26141b	-0.16218607
116	0x3d163796	0.036674105
117	0xbe4d54f4	-0.20051938
118	0x3e370931	0.178746
119	0xbe517887	-0.20456134
120	0x3d2eea73	0.042704057
121	0xbe3e9671	-0.18612076
122	0xbcc0dfc7	-0.023544205
123	0xbd338b7d	-0.0438342
124	0xbda618fb	-0.081102334
125	0xbe084eff	-0.13311385
126	0x3e0cee4b	0.13762777
127	0xbd8ca780	-0.068678856
128	0xbdc0e52b	-0.0941871
129	0x3e785e33	0.24254684
130	0xbe663d99	-0.22484435
131	0x3e2a7e51	0.16649748
132	0xbe31fdbd	-0.1738195
133	0x3da18295	0.07886235
134	0xbda741dc	-0.081668586
135	0xbe442ee4	-0.19158512
136	0xbd68ce53	-0.05683739
137	0x3e89b674	0.26897013
138	0x3ea3bc67	0.31979677
139	0x3e78cff3	0.24298076
140	0xbe31de75	-0.17370017
141	0x3c4f3887	0.0126477545
142	0x3e705fc1	0.23474027
143	0xbe835bcd	-0.25655976
144	0xbe5ee57c	-0.21767229
145	0x3d8c73ff	0.06858062
146	0xbcdd3656	-0.027003448
147	0xbe3748b3	-0.17898826
148	0x3e623aec	0.2209279
149	0xbd504744	-0.050849214
150	0x3b6bc1aa	0.0035973587
151	0xbcd52b19	-0.026021527
152	0xbe0169dc	-0.12638038
153	0xbd51889b	-0.051155668
154	0xbe66c0f5	-0.22534545
155	0xbe46c845	-0.19412334
156	0x3e1b8ce4	0.15190464
157	0x3e5e9f85	0.2174054
158	0xbb72d408	-0.003705265
159	0xbe6d3261	-0.2316375
160	0x3dd720e3	0.105043195
161	0xbde4c939	-0.11171193
162	0x3ddda95b	0.108233176
163	0xbdde8e12	-0.108669415
164	0x3e6021e9	0.21887936
165	0x3d650996	0.055917345
166	0xbdbd48d3	-0.09242406
167	0xbe2d1ba4	-0.16905075
168	0x3e1f0b54	0.15531665
169	0xbc353c2b	-0.011061708
170	0x3d9c8a2d	0.076435424
171	0xbe2cfc0a	-0.1689302
172	0x3e58dd95	0.21178277
173	0x3ded8336	0.11597292
174	0x3c334299	0.010941171
175	0x3e803fed	0.25048772
176	0x3da3b85c	0.07994148
177	0xba877258	-0.001033376
178	0xbe50b229	-0.20380463
179	0x3cb2330c	0.021752857
180	0xbe537ead	-0.20653792
181	0x3c29974b	0.010351012
182	0xbe6b7f8b	-0.22997873
183	0xbe14a715	-0.14516862
184	0xbe465895	-0.19369729
185	0xbe87b2e1	-0.2650366
186	0xbe202cd3	-0.15642099
187	0x3c8f830a	0.017518539
188	0x3e66ed55	0.22551472
189	0x3e737482	0.23774913
190	0xbcfc5040	-0.030799985
191	0xbb801b8f	-0.0039095352
192	0x3da1f3d2	0.07907833
193	0xbc68de86	-0.01421321
194	0xbdea2ae8	-0.11433965
195	0x3e5d2a84	0.2159825
196	0x3e238bef	0.15971349
197	0x3e45c05b	0.19311659
198	0x3e58c9c1	0.21170713
199	0x3dd2332c	0.102636665
200	0xbcec1245	-0.028817305
201	0xbe654809	-0.2239076
202	0xbe1289ed	-0.14310427
203	0xbd0b0888	-0.033943683
204	0xbe41614e	-0.18884775
205	0xbd0bb2fa	-0.034106232
206	0xbe1cf406	-0.15327463
207	0xbe4c87ff	-0.19973753
208	0x3e4006d6	0.18752608
209	0xbdd01f1f	-0.10162186
210	0x3e41dcb2	0.18931845
211	0x3e73e14f	0.23816417
212	0x3e734915	0.23758347
213	0xbe1e7a9b	-0.15476458
214	0x3e4a20c9	0.19739069
215	0x3e14c186	0.14526948
216	0x3e5c917c	0.21539873
217	0xbdf33614	-0.11875549
218	0xbe826e20	-0.25474644
219	0xbdd9973c	-0.10624549
220	0x3d5f8491	0.054569785
221	0x3e4e76a9	0.20162453
222	0x3de345c7	0.11097293
223	0xbdae8549	-0.08521516
224	0x3e25e3cf	0.16200183
225	0xbda4ef7a	-0.08053489
226	0x3e107121	0.14105655
227	0x3d94d641	0.07267428
228	0x3e699493	0.22810583
229	0xbd8597d0	-0.065230966
230	0x3c3b41ac	0.011429232
231	0xbe810ed2	-0.2520662
232	0xbcdf4d93	-0.02725867
233	0xbda22f12	-0.07919134
234	0x3e4787c0	0.19485378
235	0xbdcb26e8	-0.0991953
236	0xbe6af4a8	-0.22944891
237	0x3dc882ad	0.097905494
238	0x3d04789c	0.032341585
239	0x3ddeaa32	0.10872306
240	0xbe357bc0	-0.17722988
241	0xbe3d5fc7	-0.18493567
242	0x3e41fc23	0.18943839
243	0x3e59686b	0.21231239
244	0x3e5c5eb6	0.21520504
245	0x3d5eb259	0.054369304
246	0xbe43d217	-0.19123112
247	0x3d9ea5e2	0.077464834
248	0xbe2cc83f	-0.16873263
249	0xbe5d9d77	-0.216421
250	0xbe03f192	-0.1288512
251	0x3c924e1c	0.017859511
252	0x3d62bbd6	0.055354916
253	0x3e1588c3	0.14602952
254	0xbccfa58d	-0.025347495
255	0x3e5fb4ee	0.21846363

policy_fc2.bias f4 [32]
0	0x3c12b60b	0.008954535
1	0xbc91a991	-0.01778105
2	0xbd3efd44	-0.04662825
3	0xbb02d2a3	-0.0019961975
4	0x3cb0d084	0.021583803
5	0x3cd4e256	0.025986832
6	0x385ef240	5.3154537e-05
7	0x3d078353	0.033084225
8	0xbcf7ea7e	-0.030263182
9	0xbc128371	-0.008942471
10	0x3c575ab6	0.013144186
11	0xbc434161	-0.011917443
12	0xbbe00086	-0.006836
13	0x3ce479ee	0.027890172
14	0x3cd68895	0.026188174
15	0xbcfebfdf	-0.03109735
16	0x3c0597e9	0.008153894
17	0x3b6dd766	0.0036291718
18	0xbc83c7b2	-0.016086433
19	0x3d23a50b	0.03995232
20	0xbbfb3d2c	-0.0076672044
21	0x3c0b678f	0.008508577
22	0x3cec6804	0.028858192
23	0x3c0d2dcf	0.008616879
24	0xbc80b915	-0.015713254
25	0xbd17c3d9	-0.03705201
26	0x3cb110c1	0.021614434
27	0xbc9130a0	-0.017723382
28	0xbce0e6d6	-0.027453821
29	0x3c39a622	0.011331113
30	0xbb86cb05	-0.0041135573
31	0xbd4e9b11	-0.05044085

policy_fc3.weight f4 [51, 32]
0	0x3cb94176	0.022614222
1	0xbe2f50b5	-0.17120631
2	0x3e4cc92f	0.1999862
3	0x3dde9078	0.10867399
4	0x3e6b7d40	0.22996998
5	0xbe530f1f	-0.20611237
6	0xbdb254e2	-0.08707596
7	0xbd029647	-0.031881597
8	0xbe004e7f	-0.12529944
9	0x3da30ca1	0.07961393
10	0xbdfefdc2	-0.12450744
11	0x3b4f6c08	0.0031650085
12	0x3e537de1	0.20653488
13	0xbb8a60cb	-0.0042229644
14	0x3e60caf6	0.21952423
15	0xbe41ba3e	-0.18918702
16	0xbba51a8f	-0.0050385664
17	0x3d9a02b5	0.075200476
18	0xbd8337b6	-0.064071104
19	0xbe8e4bc8	-0.27792192
20	0xbd903235	-0.07040826
21	0x3ed82d95	0.42222276
22	0x3e315f41	0.17321493
23	0x3d000dfe	0.031263344
24	0x3de9f451	0.11423553
25	0x3d8905d3	0.06690564
26	0xbe5e0be7	-0.21684228
27	0x3dc5809a	0.096436694
28	0xbe025a72	-0.12729815
29	0x3e398ca8	0.18120062
30	0xbc52f9a4	-0.012876902
31	0x3c14ab35	0.009074022
32	0x3d43acf8	0.047772378
33	0x3e20d648	0.15706742
34	0x3e0ca07d	0.13733096
35	0x3e361a2b	0.1778342
36	0x3e93c56d	0.2886156
37	0x3c1ecf26	0.009692943
38	0x3e6af0aa	0.22943369
39	0x3d067853	0.032829594
40	0x3e3d5b48	0.18491852
41	0xbd8ce54b	-0.06879672
42	0x3e3d2481	0.18470956
43	0x3e816b14	0.25277007
44	0xbdb460ef	-0.08807551
45	0x3e0b8ca6	0.13627872
46	0xbe72b115	-0.23700364
47	0x3e141a90	0.14463258
48	0x3d5b8a20	0.053598523
49	0xbdb3db4f	-0.08782064
50	0x3e488f2e	0.19585869
51	0xbe6baa9b	-0.230143
52	0x3dac9ec2	0.08428718
53	0x3e8f7a40	0.28022957
54	0x3e6b6020	0.22985888
55	0x3d7ab11a	0.061204053
56	0x3d8fc6be	0.07020329
57	0x3e3af11f	0.18256043
58	0xbe81185e	-0.25213903
59	0x3e390e66	0.18071899
60	0x3c4efafc	0.0126330815
61	0x3e2d212f	0.1690719
62	0xbc89afc4	-0.016807444
63	0x3e3fbb9c	0.18723911
64	0x3e3281cf	0.1743233
65	0xbe113d24	-0.1418348
66	0x3de82b43	0.113363765
67	0x3e4e9e4e	0.20177576
68	0xbe4892db	-0.19587271
69	0xbe73a6dc	-0.2379412
70	0xbd29dbc3	-0.041469347
71	0xbda34095	-0.079713024
72	0xbd113aaf	-0.035456356
73	0x3e0a18b7	0.1348599
74	0x3d3bf32d	0.045886207
75	0xbe332c33	-0.1749733
76	0x3e60f211	0.21967341
77	0x3e38d737	0.18050848
78	0xbe24c4f8	-0.16090763
79	0xbe7009a5	-0.23441179
80	0xbdc20229	-0.09473068
81	0xbdbe6254	-0.09296098
82	0x3e55a60a	0.2086412
83	0x3dfbeb25	0.1230071
84	0x3e15061d	0.14553113
85	0x3e4108a2	0.1885095
86	0x3d6482dc	0.05578886
87	0xbe216e60	-0.15764761
88	0x3dd8d11a	0.10586758
89	0xbe4bf735	-0.19918521
90	0xbe85c467	-0.26126406
91	0x3e79824f	0.24366115
92	0x3b437c9c	0.0029828912
93	0x3e3cf92f	0.18454431
94	0x3df5df75	0.12005512
95	0xbe31ea82	-0.17374614
96	0xbc92a9bb	-0.0179032
97	0xbe761b6b	-0.24033897
98	0x3e23147f	0.15925787
99	0xbd7e4b23	-0.062083375
100	0xbd32832c	-0.043582126
101	0xbdf1c04a	-0.11804254
102	0xbe28120f	-0.16413139
103	0x3cb1b0c1	0.021690728
104	0xbdf8eb93	-0.12154307
105	0xbd94287b	-0.072342835
106	0xbdbf1b00	-0.09331322
107	0xbe6a43de	-0.22877452
108	0x3e410d46	0.1885272
109	0x3e5c2d3c	0.2150163
110	0xbd8b76f0	-0.06809795
111	0xbe28af0c	-0.16473025
112	0x3e163f82	0.14672664
113	0xbd5d5f24	-0.05404581
114	0xbd92b434	-0.07163277
115	0x3cb07f13	0.021544969
116	0x3e733be6	0.23753318
117	0xbde0573d	-0.109541394
118	0x3e167557	0.14693199
119	0xbd46c42d	-0.04852693
120	0xbdf0b1be	-0.11752652
121	0xbdc0ed89	-0.09420306
122	0xbe4cd4a6	-0.20002994
123	0x3e137cf9	0.14403142
124	0xbe1ace05	-0.15117653
125	0x3d09b462	0.033619292
126	0x3e9997a1	0.29998496
127	0xbe3cb85f	-0.18429707
128	0xbdd21c6c	-0.10259327
129	0x3e61b54c	0.22041816
130	0x3e210e65	0.15728147
131	0x3e78ad19	0.24284782
132	0x3e2fd81c	0.17172283
133	0xbd1b533e	-0.037921183
134	0x3d754661	0.05988157
135	0xbd9fc1a1	-0.07800604
136	0xbda9e21b	-0.08295079
137	0x3e8459e5	0.25849834
138	0x3e156b08	0.1459161
139	0xbe5dfc48	-0.21678269
140	0xbdf16f20	-0.117887735
141	0x3e89112d	0.26770917
142	0x3e77bfe8	0.241943
143	0x3e4dc0ba	0.2009305
144	0xbde82415	-0.11335007
145	0xbba8d88f	-0.005152769
146	0x3e10ebd8	0.14152467
147	0xbe886229	-0.2663739
148	0x3cd87af4	0.026425816
149	0xbe715214	-0.23566467
150	0xbdbc35ce	-0.0918995
151	0xbdc34b94	-0.095359
152	0x3e449a2e	0.1919944
153	0x3d9f7723	0.077863954
154	0xbe85826c	-0.26076066
155	0xbe17206a	-0.14758459
156	0xbe7dca10	-0.24784112
157	0x3d56e389	0.05246309
158	0x3e85f465	0.2616302
159	0x3e04f82e	0.12985298
160	0x3db780af	0.08960091
161	0xb9298306	-0.00016165906
162	0x3dce20ae	0.10064827
163	0xbe5b5dc7	-0.21422492
164	0x3e1a7d1e	0.15086791
165	0x3e24fcc4	0.16112047
166	0x3e3261e9	0.17420162
167	0xbe86a099	-0.262944
168	0xbe94c0d3	-0.29053363
169	0xbdf90bfc	-0.12160489
170	0x3e48829e	0.19581077
171	0x3d0411d4	0.032243565
172	0x3e40b37d	0.1881847
173	0xbd3b1037	-0.04566976
174	0xbd8fd3c7	-0.07022815
175	0xbe18bbbe	-0.14915368
176	0xbe40b967	-0.18820725
177	0xbe1b918d	-0.15192242
178	0x3c9d37c1	0.019191625
179	0x3e94d49b	0.29068455
180	0xbe076172	-0.13220766
181	0xbe37a19f	-0.17932747
182	0x3e3419c7	0.17587958
183	0xbb904b2a	-0.0044034915
184	0xbdf30b87	-0.11867433
185	0xbdf12582	-0.11774732
186	0x3de9ceb9	0.11416382
187	0xbe411f53	-0.18859605
188	0x3db9dc06	0.09075169
189	0xbe059112	-0.13043621
190	0x3dc0ecae	0.09420143
191	0xbe3185f1	-0.17336251
192	0xbaed81b5	-0.0018120321
193	0x3e7d354c	0.24727362
194	0xbe45599c	-0.19272465
195	0x3e5f40d5	0.21802075
196	0xbdf2477d	-0.118300416
197	0xbd05af2c	-0.03263776
198	0xbe12fde8	-0.1435467
199	0x3c1b28a8	0.009470142
200	0xbe39e41f	-0.18153428
201	0xbe6c57f8	-0.23080432
202	0x3d5b1fc7	0.053497102
203	0x3e0e35b5	0.13887675
204	0xbd2f112d	-0.04274099
205	0x3d4d8dc4	0.050184026
206	0x3e8dce43	0.27696428
207	0xbb0be49c	-0.0021345979
208	0xbe1c4cb0	-0.15263629
209	0xbd740070	-0.05957073
210	0x3e8cf8da	0.2753361
211	0x3d2b48ae	0.04181736
212	0xbe2769b3	-0.16348915
213	0x3e13a76f	0.1441934
214	0xbc5f6f91	-0.013637439
215	0xbe721a8d	-0.23642941
216	0x3e260c1d	0.16215558
217	0x3e336da7	0.17522298
218	0xbe880d04	-0.2657243
219	0x3e213483	0.15742688
220	0xbe427d36	-0.18993077
221	0xbe571887	-0.2100545
222	0xbe182619	-0.14858283
223	0x3de5f2bd	0.11227939
224	0x3e29e908	0.165928
225	0x3e30f48d	0.17280789
226	0xbe3bda31	-0.18344952
227	0x3e6de495	0.23231728
228	0x3e3f83c8	0.18702614
229	0x3decb53a	0.11558004
230	0x3d5e17aa	0.054221787
231	0x3ce02f6a	0.027366359
232	0x3e3f621a	0.18689767
233	0x3dd0d073	0.101960085
234	0xbe1c1ada	-0.15244618
235	0xbe45b450	-0.19307065
236	0xbd67a4e6	-0.056553744
237	0xbcdd9961	-0.027050676
238	0x3dc0285a	0.093826964
239	0x3e2360e4	0.1595493
240	0x3cff0436	0.031129938
241	0x3e3f8359	0.18702449
242	0x3e546d95	0.20744927
243	0x3e34fe26	0.17675075
244	0xbe5c4398	-0.2151016
245	0xbe1b3ad5	-0.15159161
246	0x3e3c8bee	0.18412754
247	0x3e43714a	0.19086185
248	0xbc8dc410	-0.017305404
249	0x3ceceae6	0.028920602
250	0xbce6bb8e	-0.028165605
251	0xbe1495d2	-0.14510277
252	0xbdf579f2	-0.1198615
253	0xbe5fd75a	-0.21859494
254	0xbe8b63e9	-0.27224663
255	0xbe829816	-0.25506657

policy_fc3.bias f4 [51]
0	0x3dd3284a	0.10310419
1	0xbd85e6ca	-0.0653816
2	0xbd04a407	-0.03238299
3	0xbbbaf334	-0.0057052616
4	0xbd0159e8	-0.031579882
5	0xbc3c1540	-0.011479676
6	0x3d302c46	0.043010972
7	0x3b940524	0.0045172144
8	0x3cfd8419	0.030946778
9	0x3d4315da	0.04762826
10	0x3d4769f0	0.048685014
11	0xbc25287a	-0.010080451
12	0xbc76b91e	-0.015058784
13	0xbc989036	-0.018623453
14	0x3c1f8a28	0.009737529
15	0xbbb61940	-0.0055572093
16	0x3aff1ab1	0.0019462911
17	0xbce55086	-0.027992498
18	0xbd1cfef7	-0.03832909
19	0xbcd58ccd	-0.026068116
20	0xbd64a893	-0.055824827
21	0x3a16021b	0.00057223596
22	0xbc0f9ab6	-0.008764913
23	0x3c7e0687	0.015504486
24	0xbcfa7ec2	-0.030578021
25	0x3d64b72c	0.05583875
26	0x3ba910dc	0.0051594805
27	0x3d2aff44	0.041747347
28	0xbc9fd2e9	-0.01950975
29	0xbd586835	-0.052833755
30	0x3c96d2c1	0.018411042
31	0xbce0737d	-0.02739882
32	0x3d118e25	0.03553595
33	0xbd48ecab	-0.04905383
34	0x3cc32bee	0.023824658
35	0xbd05400e	-0.03253179
36	0xbc7b5815	-0.015340825
37	0xbc413b83	-0.011793974
38	0xbc860ee4	-0.016364522
39	0xbc00d1d7	-0.00786253
40	0xbd72534f	-0.05916148
41	0x3c8b9ce0	0.017042577
42	0x3ca26198	0.019821927
43	0x3cadb082	0.02120233
44	0xb9894e9e	-0.0002618925
45	0xbd0478ce	-0.03234177
46	0xbce87e02	-0.028380398
47	0xbc82a962	-0.015949909
48	0x3bce12d8	0.0062888674
49	0xbc0f0eb3	-0.008731532
50	0xbd7af255	-0.061266262

value_fc1.weight f4 [64, 261]
0	0xbe83c531	-0.25736383
1	0xbd1ed500	-0.03877735
2	0x3d895618	0.06705874
3	0xbddc78a6	-0.10765199
4	0xbdd74049	-0.10510308
5	0xbd6d5e2d	-0.05795114
6	0xbdb2ab21	-0.087240465
7	0xbe1ae6cc	-0.15127105
8	0xbd882316	-0.06647317
9	0x3cd3b643	0.025843745
10	0xbe30224d	-0.17200585
11	0x3d6bd081	0.05757189
12	0xbd2ad3e2	-0.041705973
13	0xbe5fd8cf	-0.2186005
14	0xbc38d91c	-0.011282232
15	0xbdfe6d3b	-0.12423178
16	0xbdc9e799	-0.09858627
17	0x3df4af96	0.11947553
18	0xbd92013f	-0.07129144
19	0x3df2a0cc	0.11847076
20	0xbb831aed	-0.0040010125
21	0xbd7b9b4a	-0.061427392
22	0xbdd7a700	-0.105298996
23	0xbdc56a7e	-0.096394524
24	0x3da07a97	0.07835882
25	0xbd8c9707	-0.06864744
26	0x3df75a6f	0.12077796
27	0x3e00b168	0.12567675
28	0xbd226a62	-0.039652236
29	0xbd8b5c59	-0.06804723
30	0x3d7b89b4	0.06141062
31	0x3c71e93b	0.014765079
32	0xbddf445b	-0.1090171
33	0xbdd27d82	-0.10277845
34	0xbd377611	-0.04479033
35	0xbc6c32d7	-0.014416418
36	0xbd919483	-0.071084045
37	0xbd8094c3	-0.06278374
38	0xbe0b5d18	-0.13609731
39	0x3d1911b9	0.037370417
40	0x3d01ae4a	0.031660356
41	0xbd3e00c5	-0.046387453
42	0x3d369e6e	0.044584684
43	0x3e052ff1	0.1300657
44	0xbe036403	-0.1283112
45	0xbd68842c	-0.056766674
46	0x3dbc08c2	0.09181358
47	0x3e0558ea	0.130222
48	0xbe081114	-0.13287765
49	0xbbfc7ef8	-0.0077055655
50	0x3cd0ba24	0.025479384
51	0xbc8509a9	-0.016239958
52	0xbd905af0	-0.07048595
53	0x3df37104	0.118867904
54	0xbd38c42c	-0.04510896
55	0x3d310ad9	0.043223236
56	0x3e274b1c	0.16337246
57	0x3c1fc941	0.0097525725
58	0xbd8c1fcd	-0.06842003
59	0x3c4dce2f	0.012561365
60	0xbbaec62c	-0.0053336825
61	0xbd9d1896	-0.07670705
62	0x3d9ddb54	0.07707849
63	0xbd5d65fe	-0.054052345
64	0x3d9b1592	0.075724736
65	0xbe3b74af	-0.1830623
66	0x3b1c791a	0.0023875893
67	0x3d782547	0.060582425
68	0x3e00aa56	0.12564978
69	0xbdd61e76	-0.10455029
70	0x3d366022	0.044525273
71	0xbc0d44cc	-0.0086223595
72	0x3d070154	0.03296025
73	0xbd83887d	-0.064225174
74	0xbd3500a8	-0.04419008
75	0xbd84360c	-0.06455621
76	0xbe6280fa	-0.22119513
77	0xbd515b79	-0.051112626
78	0xbdda3d2a	-0.10656197
79	0x3dcb6708	0.09931761
80	0xbde14e57	-0.1100127
81	0x3e001d93	0.12511282
82	0x3d738a08	0.05945781
83	0x3de9f043	0.114227794
84	0x3cbdf52c	0.023188196
85	0x3d37c81b	0.04486857
86	0xbc9a8fb0	-0.018867344
87	0xbd88bf51	-0.06677116
88	0x3d459e07	0.04824641
89	0xbc818d16	-0.015814345
90	0xbc3b64c1	-0.011437596
91	0xbe1e13dc	-0.15437263
92	0xbde10b8b	-0.1098853
93	0xbe158e19	-0.14604987
94	0xbd48cf82	-0.04902602
95	0xbe30f322	-0.17280248
96	0xbe2b396e	-0.16721126
97	0xbcf79c9d	-0.030226046
98	0xbd864cc2	-0.06557609
99	0x3e16e233	0.14734726
100	0x3d39b7bf	0.04534125
101	0xbdfabffb	-0.122436486
102	0x3dc684c1	0.096932895
103	0xbcf2fded	-0.029662097
104	0x3d1e9034	0.03871174
105	0x3d461bdf	0.048366424
106	0xbc1d1adf	-0.009588926
107	0xbd6313c0	-0.055438757
108	0x3d446e2c	0.04795663
109	0xbe03c616	-0.12868533
110	0x3c22d23e	0.009937821
111	0xbd2feab5	-0.042948443
112	0x3e1306ed	0.1435811
113	0x3d9447fc	0.072402924
114	0xbd96ed49	-0.07369477
115	0x3e4c02fe	0.19923016
116	0x3e10ffeb	0.14160125
117	0xbe16afd5	-0.14715512
118	0x3d67d6f2	0.056601472
119	0x3d6759b9	0.05648205
120	0xbd9e5521	-0.07731081
121	0x3de56f06	0.11202817
122	0xbdde13c1	-0.108436115
123	0x3dc1373a	0.09434362
124	0xbd2d6a74	-0.04233785
125	0xbd8bcead	-0.0682653
126	0xbca77752	-0.020442639
127	0xbd2607de	-0.040534846
128	0x3cf29c69	0.029615598
129	0x3d4dc5c5	0.050237436
130	0x3c061c0d	0.008185399
131	0x3d9f65d1	0.07783092
132	0xbc577c42	-0.013152184
133	0x3d3a1ff1	0.045440618
134	0x3e45d915	0.19321091
135	0x3dd7dd4b	0.10540255
136	0xbe61141c	-0.21980327
137	0x3b956d0b	0.004560118
138	0xbce3000a	-0.02770998
139	0xbdbc59b8	-0.091968
140	0xbe0b57c2	-0.13607696
141	0xbdde5c07	-0.108573966
142	0xbcf5b08b	-0.029991409
143	0x3d1c9d46	0.038235925
144	0x3cadca3e	0.0212146
145	0x3d8fc175	0.07019321
146	0xbe21d053	-0.15802126
147	0x3dc6550d	0.09684191
148	0xbdfd2361	-0.123602636
149	0xbdc9e0c8	-0.09857327
150	0x3e304f40	0.17217731
151	0xbdb104db	-0.08643504
152	0x3df12037	0.117737226
153	0xbd80f86f	-0.06297385
154	0x3d6afeb4	0.05737181
155	0x3d4bc403	0.04974748
156	0x3dc4a1be	0.096011624
157	0xbbab8754	-0.005234638
158	0xbbd71489	-0.0065637273
159	0xbd879c5a	-0.066216186
160	0x3ca8a2cb	0.020585438
161	0xbd6a4749	-0.05719689
162	0xbd99eb18	-0.07515544
163	0x3df0ad3d	0.117517926
164	0x3b7e6839	0.0038819446
165	0xbca4a3bb	-0.020097604
166	0x3de46402	0.111518875
167	0xbdeef9a5	-0.1166871
168	0xbda4d37c	-0.0804815
169	0x3de16776	0.11006062
170	0x3c5702a9	0.013123193
171	0xbdf30270	-0.11865699
172	0x3d1118ff	0.03542423
173	0x3d398dbe	0.04530119
174	0xbd9e4c1c	-0.077293605
175	0xbd17caa7	-0.0370585
176	0xbdc97745	-0.09837202
177	0x3d39dc70	0.04537624
178	0x3c820ea5	0.015876124
179	0xbb8e8a71	-0.0043499996
180	0x3d8ad9e5	0.06779841
181	0x3d6b71b8	0.057481498
182	0xbce1e089	-0.027572887
183	0x3dad7cd8	0.08471078
184	0xbd823b91	-0.06359018
185	0xbc7bd8c7	-0.015371508
186	0x3bf2496f	0.007394008
187	0x3d8421d4	0.06451765
188	0x3d52f63d	0.051504362
189	0xbc6919b5	-0.01422732
190	0xbdb81109	-0.08987624
191	0xbe0c4729	-0.1369902
192	0xbe0dc0d1	-0.13843085
193	0xbc93e1d0	-0.018052012
194	0xbcf69711	-0.030101331
195	0xbda83cba	-0.08214708
196	0x3dc96533	0.09833755
197	0x3d856b49	0.06514604
198	0x3d001ca7	0.031277325
199	0x3cbdb67e	0.023158308
200	0xbdc79c70	-0.09746635
201	0xbd85d35d	-0.06534455
202	0xbdfad637	-0.122478895
203	0x3db8a2ad	0.09015403
204	0x3ca0f1c2	0.01964653
205	0x3ce994b9	0.0285133
206	0x3d02ee20	0.031965375
207	0x3cd9558d	0.026530052
208	0xbe2ca387	-0.16859256
209	0xbe06343d	-0.13105865
210	0x398ab41e	0.0002645561
211	0xbd86d592	-0.06583704
212	0x3e0eff74	0.13964635
213	0x3de2172d	0.11039577
214	0xbe0527b8	-0.13003433
215	0xbdbd9733	-0.092573546
216	0xbc38d396	-0.011280915
217	0x3cb3b91c	0.021938853
218	0x3d0f09ab	0.03492133
219	0xbd1b20db	-0.03787313
220	0xbd6ee9b0	-0.05832833
221	0x3dd0de36	0.101986334
222	0x3d56424b	0.052309316
223	0x3cbcb0a4	0.023033448
224	0xbc3ecd5c	-0.011645641
225	0x3d617343	0.055041563
226	0xbd4b5ea9	-0.04965082
227	0x3e1e6226	0.15467128
228	0x3d93b792	0.07212748
229	0xbc7cdec3	-0.01543397
230	0xbcfedb99	-0.031110572
231	0x3caad0a5	0.020851443
232	0x3bfbe8d4	0.0076876674
233	0xbda75d39	-0.08172078
234	0x3d4e17e9	0.05031577
235	0xbcccc4d6	-0.024996202
236	0xbde224df	-0.11042189
237	0x3d50ba78	0.05095908
238	0xbe221551	-0.15828444
239	0xbd22739f	-0.039661046
240	0x3d5b6785	0.05356552
241	0xbdfd166e	-0.12357794
242	0x3e07788e	0.13229582
243	0x3cf87b68	0.030332282
244	0xbe0c4502	-0.136982
245	0x3e24dd2b	0.16099994
246	0x3c476ba6	0.0121716615
247	0xbdd629e3	-0.10457208
248	0x3d88f508	0.06687361
249	0xbdeda83f	-0.11604356
250	0xbba5e5be	-0.005062788
251	0xbd173fb9	-0.036926005
252	0xbceb9c03	-0.028760916
253	0x3b629ab5	0.0034577076
254	0x3dd203de	0.10254644
255	0x3dc44c87	0.09584909

value_fc1.bias f4 [64]
0	0xbcaf6fa6	-0.021415543
1	0x3baab3bb	0.005209414
2	0xba19706c	-0.0005853239
3	0x3c8d807c	0.01727318
4	0xbcd19b8d	-0.025586868
5	0x3c8b4447	0.01700033
6	0x3bf5f30a	0.007505779
7	0x3c3c92d4	0.011509616
8	0x3c657d7d	0.0140069695
9	0xbc606cfc	-0.013697859
10	0xbdadd7ac	-0.08488402
11	0xba5cf2c0	-0.00084285066
12	0xbdaabbbe	-0.0833659
13	0xbbccf56e	-0.0062548434
14	0xbce922ad	-0.028458918
15	0x3cb41cce	0.021986391
16	0x3bb491db	0.0055105514
17	0x3ced8cc3	0.028997784
18	0xbba44a3e	-0.005013733
19	0xbc231677	-0.0099540865
20	0x3ba1752c	0.004927298
21	0x3d10b684	0.03533031
22	0xbceb1d25	-0.02870042
23	0x3c8ba9e0	0.017048776
24	0x3c8d541e	0.017252024
25	0xbcacb3c2	-0.021081809
26	0x3c562fd6	0.013072928
27	0xbc580754	-0.013185341
28	0x3c2aae0f	0.010417475
29	0xbd716f81	-0.05894423
30	0xbbe4a7d8	-0.0069780163
31	0x3cd6ca14	0.026219405
32	0xbcceaa76	-0.025227766
33	0x3cf9726f	0.030450074
34	0x3d71b08d	0.059006263
35	0xbc7093d8	-0.014683686
36	0x3bb243f7	0.005440231
37	0x3957c3ba	0.00020576912
38	0x3c5cb2d7	0.013470373
39	0xbbcb891b	-0.0062114126
40	0xbc9df893	-0.019283568
41	0xbd8255de	-0.06364034
42	0xbc2222a6	-0.009895956
43	0xbca7369b	-0.02041178
44	0x3ca46550	0.02006784
45	0xbd13bb7a	-0.036067463
46	0xbc854a4b	-0.016270777
47	0xbc12bca1	-0.008956105
48	0xbc7fb2a7	-0.015606559
49	0x3c19e5ca	0.009393165
50	0xbc7a9a87	-0.015295631
51	0xbc96a7f7	-0.018390639
52	0x3cd860c6	0.026413333
53	0x3c721406	0.014775282
54	0xbcc72bcb	-0.024312874
55	0x3ab9effa	0.0014185898
56	0xbbbfdd68	-0.005855251
57	0x3c9e6898	0.019336984
58	0xbc224231	-0.009903477
59	0xbc6e4730	-0.01454334
60	0xbd1fe568	-0.03903714
61	0xbc98904c	-0.018623494
62	0x3ca843a8	0.020540074
63	0x3a8f57d2	0.0010936207

value_fc2.weight f4 [32, 64]
0	0x3c7af916	0.015318176
1	0xbb42e5c5	-0.0029739004
2	0x3d218831	0.039436523
3	0x3e088072	0.13330248
4	0x3d14dee6	0.036345385
5	0x3e212501	0.15736772
6	0xbd08fd16	-0.033444487
7	0x3cfd848b	0.03094699
8	0x3e934ce3	0.28769597
9	0xbe1976d5	-0.14986737
10	0xbe39aad8	-0.18131578
11	0xbd966b0f	-0.073446386
12	0xbcc8879b	-0.024478724
13	0xbe4d58c0	-0.20053387
14	0x3e3c0a9a	0.18363419
15	0xbd9c7470	-0.07639396
16	0x3d0e668e	0.034765773
17	0xbde7eb11	-0.11324132
18	0x3e45dca5	0.1932245
19	0x3e2f2ed6	0.1710771
20	0x3e0f877b	0.14016525
21	0x3e61dcd1	0.22056891
22	0xbe2bba34	-0.1677025
23	0xbe5ebf6a	-0.21752706
24	0x3dc9c275	0.09851543
25	0xbbc455e3	-0.005991684
26	0xbcd44b5a	-0.025914837
27	0x3d2a21b0	0.041536033
28	0x3e0caa61	0.1373687
29	0x3e8082c6	0.25099772
30	0x3e30075d	0.17190309
31	0x3e7b3428	0.24531615
32	0x3e46d1ce	0.19415972
33	0xbe692d69	-0.22771229
34	0x3debda8d	0.11516295
35	0xbd5af35e	-0.05345475
36	0x3dc4298e	0.095782384
37	0x3c3adfb5	0.011405875
38	0x3e8213f1	0.2540584
39	0x3dd584d0	0.104257226
40	0x3c98daa7	0.018658949
41	0x3e62213c	0.2208299
42	0x3e453142	0.19257072
43	0x3e17e2f9	0.14832677
44	0x3bf44ffe	0.007455825
45	0x3e54b635	0.20772631
46	0x3e0a36ed	0.13497515
47	0xbe1f51b3	-0.1555851
48	0xbd64920c	-0.055803344
49	0xbe3b64ab	-0.1830012
50	0x3e01dda7	0.1268221
51	0xbde0498a	-0.109515265
52	0x3e16aaed	0.1471364
53	0xbd7a01ea	-0.06103698
54	0x3e846aa6	0.25862616
55	0xbe073ab8	-0.13205993
56	0xbe01d095	-0.12677224
57	0xbe709c66	-0.23497161
58	0xbdfc3366	-0.12314491
59	0x3e5e41cb	0.21704786
60	0x3d8db574	0.06919375
61	0x3d38bcaa	0.0451018
62	0x3e401036	0.18756184
63	0xbe8a24ee	-0.269813
64	0xbd84adb0	-0.06478441
65	0x3d559e36	0.052152835
66	0xbdcbd640	-0.09952974
67	0x3e810724	0.2520076
68	0x3e338465	0.17530973
69	0x3df1e403	0.11811068
70	0x3d8da7b4	0.069167525
71	0xbe81f990	-0.25385714
72	0xbe2d3ece	-0.1691849
73	0xbe5f1e17	-0.21788822
74	0x3e53038c	0.20606822
75	0xbe858b04	-0.26082623
76	0x3e1fc768	0.15603411
77	0xbe30e0a7	-0.17273198
78	0x3e1baa16	0.15201601
79	0xbe05a651	-0.13051726
80	0xbe87c43e	-0.26516908
81	0x3e2a9a81	0.16660501
82	0xbe54e7a0	-0.20791483
83	0x3e3f3f4d	0.18676491
84	0xbe436817	-0.19082676
85	0x3e68d3a2	0.22736982
86	0x3e0dcec1	0.13848402
87	0xbe3d7f71	-0.18505646
88	0xbb9feb62	-0.0048803547
89	0x3e8838f5	0.26605955
90	0xbe61b466	-0.22041473
91	0xbe217450	-0.15767026
92	0x3e426f28	0.18987715
93	0xbde94426	-0.113899514
94	0xbe112a2c	-0.14176244
95	0x3d5d9704	0.054099098
96	0x3e3dad43	0.18523125
97	0xbe9c365c	-0.30510223
98	0xbc5171ab	-0.012783448
99	0x3e2a409b	0.16626208
100	0xbe58f2ed	-0.21186419
101	0x3e4d11fe	0.20026395
102	0xbe61b9c7	-0.22043525
103	0xbd31f8e0	-0.043450236
104	0x3df930bf	0.12167501
105	0xbddc2010	-0.10748303
106	0xbd986257	-0.07440632
107	0xbda7b40a	-0.081886366
108	0xbcd94160	-0.026520431
109	0x3e4b52b7	0.19855772
110	0xbe2b12bb	-0.16706364
111	0x3d934fb5	0.07192937
112	0x3e459be9	0.19297756
113	0xbe825160	-0.2545271
114	0xbe874cf6	-0.26425904
115	0x3d1ea7f0	0.038734376
116	0x3e4317df	0.19052075
117	0xbdf6ddcb	-0.120540224
118	0xbd8f9801	-0.07011414
119	0x3d8518ed	0.06498895
120	0xbd373f03	-0.044737827
121	0xbe6e791e	-0.2328839
122	0xbe0a4c6e	-0.13505718
123	0xbd51dacc	-0.05123405
124	0x3d952c44	0.072838336
125	0xbe9fbfa2	-0.31200892
126	0x3e1a933d	0.1509523
127	0xbd802105	-0.06256298
128	0x3e0b1fa2	0.13586286
129	0xbbe71359	-0.007051867
130	0xbd0336fd	-0.032034863
131	0x3e36770f	0.17818855
132	0x3d3b4841	0.045723204
133	0x3d2da5f8	0.04239461
134	0xbe4d052d	-0.20021506
135	0xbe4abb0b	-0.19797914
136	0xbe1d21ab	-0.15344875
137	0xbe66d08e	-0.22540495
138	0xbd83dc03	-0.06438448
139	0xbdabc42d	-0.08387027
140	0xbe0c4f64	-0.1370216
141	0xbe29e682	-0.16591838
142	0x3dfdc478	0.12390989
143	0x3cc44bce	0.023961928
144	0xbe26aabb	-0.16276066
145	0xbe5eabfa	-0.21745291
146	0x3c290981	0.010317207
147	0xbe4f6b0d	-0.2025568
148	0x3d7d37b3	0.061820697
149	0x3e3946a9	0.18093361
150	0xbd34faff	-0.04418468
151	0x3dad6ae7	0.08467656
152	0x3e043747	0.12911712
153	0x3ddfee6a	0.10934146
154	0xbd070039	-0.032959197
155	0x3d1c12b2	0.038103767
156	0xbe7fcbbf	-0.24980067
157	0xbe4496fb	-0.1919822
158	0x3bcb54ae	0.006205163
159	0xbc8f1f5e	-0.017471012
160	0x3d8211e6	0.0635107
161	0xbdb13e28	-0.086544335
162	0xbe25aaef	-0.16178487
163	0xbdb62ef4	-0.08895674
164	0x3e348171	0.17627503
165	0xbc524716	-0.012834331
166	0x3e0711ac	0.13190335
167	0xbe8b5414	-0.27212584
168	0x3df56939	0.1198296
169	0x3daceb0b	0.084432684
170	0x3e003365	0.12519605
171	0xbcfab213	-0.03060249
172	0xbd44cfe1	-0.04804981
173	0xbe81423a	-0.2524584
174	0x3ddf9d2c	0.1091865
175	0x3de027d6	0.10945098
176	0x3ba97cc5	0.0051723444
177	0x3dc09d7c	0.09405038
178	0x3d0bd057	0.034134235
179	0xbd3a59db	-0.04549585
180	0xbd05c675	-0.032659966
181	0x3e502e45	0.2033015
182	0xbe4d1739	-0.2002839
183	0x3e4b768d	0.19869442
184	0x3e818bd1	0.25301984
185	0xbe6b93ee	-0.2300565
186	0x3e5928f6	0.21207032
187	0x3e11ae55	0.14226659
188	0xbd9993d3	-0.07498898
189	0x3e17a7dd	0.14810129
190	0x3db49271	0.08816994
191	0x3e14007e	0.14453313
192	0x3eba6471	0.36404756
193	0xbd82d20a	-0.06387718
194	0xbf0d0c60	-0.5509701
195	0x3e2e96a2	0.1704965
196	0xbecf86c8	-0.40532517
197	0xbd2a313b	-0.041550856
198	0xbec48cde	-0.38388723
199	0xbee12276	-0.43971604
200	0xbdc4a782	-0.09602262
201	0x3cf75054	0.03018967
202	0xbd7ab4da	-0.06120763
203	0xbe6172a8	-0.22016394
204	0xbe473836	-0.19455037
205	0xbcdd8fd2	-0.027046118
206	0x3c7dc5af	0.015489026
207	0xbefd6237	-0.49488994
208	0xbe487fb5	-0.19579966
209	0xbe8932e2	-0.26796633
210	0xbdb51887	-0.08842569
211	0xbe096a0c	-0.1341936
212	0xbec2f374	-0.38076365
213	0x3d1d500f	0.038406428
214	0x3e77e4d0	0.24208379
215	0xbce5a7f7	-0.028034193
216	0xbefa5510	-0.48893023
217	0x3d94766b	0.07249149
218	0xbe9a4460	-0.3013029
219	0xbd5ab988	-0.053399593
220	0xbe6433d4	-0.22285396
221	0xbe2e3585	-0.17012604
222	0xbecb201f	-0.39672944
223	0xbd8b210f	-0.06793415
224	0x3e74f481	0.23921396
225	0xbb5823ee	-0.00329804
226	0x3e702dc3	0.23454957
227	0xbe15ba89	-0.14621939
228	0xbe9b7025	-0.30358997
229	0x3e78a71c	0.24282497
230	0x3c6ed238	0.014576487
231	0x3da398ff	0.07988166
232	0x3e5d24a1	0.21596004
233	0xbe28ca97	-0.16483532
234	0xbcd97b15	-0.026547948
235	0xbe841a7c	-0.25801456
236	0xbe123ab5	-0.14280207
237	0x3e08f158	0.13373315
238	0xbf166bf5	-0.5875848
239	0x3e3d5f36	0.18493351
240	0x3ce4ab91	0.02791384
241	0xbeb860e5	-0.36011425
242	0xbf008b96	-0.5021299
243	0x3daf5d25	0.08562688
244	0xbe95df73	-0.2927204
245	0xbdc48a75	-0.09596721
246	0x3e8d7c96	0.27634114
247	0xbf1491c9	-0.5803495
248	0xbaffae2c	-0.0019506863
249	0xbebbad8b	-0.3665584
250	0x3d56c87b	0.052437287
251	0xbe97978e	-0.29607815
252	0x3baa1f70	0.005191736
253	0xbed21b55	-0.41036478
254	0x3e8d8cfa	0.2764662
255	0xbdd5169d	-0.10404704

value_fc2.bias f4 [32]
0	0x3d896e5d	0.06710503
1	0x3c397c29	0.011321106
2	0xbcb4ff51	-0.0220944
3	0x3dae6dee	0.08517061
4	0x3badff5a	0.0053099813
5	0xbd03c2f2	-0.032168336
6	0xbcc1aab6	-0.023640972
7	0x3c070aeb	0.008242349
8	0xbc95decd	-0.018294716
9	0x3d12a50a	0.035801925
10	0x3cad6a61	0.02116889
11	0x3d8747ca	0.066054896
12	0x3c08841a	0.008332277
13	0x3d0cdc23	0.034389626
14	0x3c7d7f69	0.0154722715
15	0xbc6c6cd6	-0.014430245
16	0x3b9bb398	0.004751634
17	0x3cce3049	0.025169509
18	0xb9e82f42	-0.00044285698
19	0x3afef33d	0.0019451153
20	0x3ce823e8	0.028337434
21	0x3d45a059	0.048248623
22	0xbca61ebe	-0.02027833
23	0xbd14f6a1	-0.036368016
24	0x3d1f229e	0.038851373
25	0xbd212f16	-0.039351545
26	0x3ba8d3f4	0.00515222
27	0xbb530e39	-0.0032204522
28	0x398e1908	0.00027103
29	0xbafd03b4	-0.0019303472
30	0x3c30fc68	0.010802366
31	0x3cbcf7b7	0.023067338

value_fc3.weight f4 [1, 32]
0	0x3e28d8f8	0.16489017
1	0x3e9ddeff	0.30834195
2	0xbe38024f	-0.1796963
3	0x3f1542bb	0.5830495
4	0xbedce8b6	-0.43146294
5	0x3e65d5e8	0.2244488
6	0xbdf2d853	-0.11857667
7	0xbea15e71	-0.31517366
8	0xbe9e0155	-0.3086039
9	0xbe3fe602	-0.18740085
10	0x3e9477ff	0.289978
11	0x3e79268c	0.2433111
12	0xbe878c5f	-0.26474282
13	0xbe73779b	-0.23776095
14	0xbda0bc77	-0.07848447
15	0x3e23a890	0.1598227
16	0x3d9c074b	0.076185785
17	0x3efba602	0.4915009
18	0x3dc93b07	0.09825712
19	0x3e4feb8c	0.20304698
20	0xbed78274	-0.42091715
21	0xbd86cf68	-0.06582528
22	0xbe392172	-0.18079165
23	0xbb9fb8c5	-0.004874321
24	0x3e1b5524	0.15169197
25	0xbeb56550	-0.35428858
26	0xbdf9a20b	-0.1218911
27	0x3ed52f84	0.41637814
28	0x3dde6553	0.1085917
29	0xbe2ec8b6	-0.17068753
30	0xbe8d5a54	-0.27607977
31	0x3f23b9db	0.6395547
