rl/spin_model_11212038/31.pt (torch_old, 159601 bytes, 12 tensors)

log_std f4 [51]
00000000: 6d60 8ebd 9247 b9bb 953b 4bbd c6cd e73d
00000010: be42 2eb9 b383 9a3d 3e02 213e 9758 dc3c
00000020: 93b2 f23d f371 0b3d aebc 603d a262 71bc
00000030: f3f3 2ebb d0bf 383e 237b d83c e3c0 213d
00000040: b998 073d 4feb 7d3d 076d d53d 616f a03d
00000050: 905d 3d3d 8f32 51bd 2426 f43d 22e3 163d
00000060: 33dd 173d e5e7 143e 8648 173e 7f19 c93d
00000070: 0802 0d3e c533 243c 88bd 853d a0a8 123e
00000080: cc15 153e 8dbe 2e3e ad97 973d f05f 233d
00000090: 10ad 4b3d 2715 0f3e b586 0cbd 3d84 3c3d
000000a0: 6fab 823d af1d ca3d cef8 2fbc 3a2a da3d
000000b0: afc8 f33d bda2 bf3d bd5a 8e3d 01c8 413e
000000c0: 2b8c e13d 04b1 8d3d 9a8b d13c
-0.069519855 -0.005654284 -0.04961737 0.11318545 -0.00016618797 0.07544651 0.15723512 0.026897712
0.118504666 0.034044217 0.05486744 -0.014732989 -0.0026695698 0.1804192 0.026425904 0.03949059
0.033104632 0.061991986 0.10421186 0.07833744 0.046231806 -0.051073607 0.11921337 0.036837704
0.037076186 0.14541586 0.14773759 0.09819316 0.13770306 0.010022108 0.06530291 0.14322138
0.14559096 0.17064877 0.07401977 0.039886415 0.049725592 0.13972913 -0.034308154 0.04602455
0.063803546 0.09868943 -0.010740472 0.10652585 0.11903512 0.09357212 0.06950901 0.18923952
0.11013063 0.06918529 0.025579263

policy_fc1.weight f4 [64, 261]
00000000: 0767 323d fc09 133d 7632 df3d 9cb4 03be
00000010: 47a2 e1bd 3cae c3bd beb6 13bc 20dd 5abd
00000020: bb4e 953d 9a90 763d 6079 e33b 40cd 81bd
00000030: d238 c73d 1fbe a7bc 08b6 82bd f919 0c3e
00000040: 2654 34bb ccce 97bd bdec 2ebd 1790 88bc
00000050: 2949 d63d 7e59 3d3d f6e3 17be ff2e 1b3e
00000060: f1de f7bd 963c ed3d 8d1e a1bc 04cc 2abd
00000070: 705d 11bc 0e06 d3bd 0032 013c 8f09 1d3e
00000080: 4a9d ce3d ab6a c13d 3ce1 c93d 7a49 6d3d
00000090: 31af ba3c 400f 59bd 08fc 4b3d 1504 ca3d
000000a0: 5ed0 cfbd 0909 8c3d 3c5a 423d 5bab 03bd
000000b0: f2b1 e83c cc63 b8bd d80a 54bd 449b 08be
000000c0: 43cd acbc a546 1a3e e0da ebbd a6a2 0ebd
000000d0: de63 debc dcef 1ebd 4bf0 2dbe 22cd 803d
000000e0: a5b7 c1bd cf9a f6bc 4bc0 3ebc 687b c93d
000000f0: 0874 a1bc 7a3b 7dbd de0b 863d 3053 c53d
00000100: ac0b 923d 02fc a3bc cb82 90bd 778e 583d
00000110: 2164 0dbe 9fc1 10be f1e8 583c 365f 6a3c
00000120: 73e3 353d c984 553d b693 4ebd 3bf6 9abd
00000130: 35d7 94bd 2d47 e9bd c2bb 5b3d e5b4 66bd
00000140: 4454 423d 2851 d03d 9138 42bb 2f3b 20bd
00000150: 0a8f 36bc 2f4b ba3d 264d ab3d 56d6 873d
00000160: 1ef8 b5bc b8fa 8abd 5b3c 5c3d ca4b acbc
00000170: 8fc9 7abd 12a9 df3c f7c8 a63d 17c2 0c3d
00000180: b814 22be 9114 17be 6a6b c33d 8489 86bc
00000190: 351e 3bbc eddc b63c 01e3 21be 58ee aa3c
000001a0: 195f d4bd f0e6 aa3c 1ab5 d63d f8f6 973c
000001b0: fce5 9ebd bf6d c43d a1a4 65bd fe01 1d3c
000001c0: b77a 91bb 701e 9abd 2374 7ebd 4240 8d3d
000001d0: 2b34 123d dada c93d b014 ce3d 8453 e23c
000001e0: 8eb4 b0bc 23a3 b3bd b1ee 03be 8526 6fbd
000001f0: 601b 433d ed76 543c 1670 31be 9f08 ba3c
00000200: 765b a73d ce7c 80bd f4be 103e 5702 0ebe
00000210: 315a 063d 7710 a4bd 0397 0abb b441 18bd
00000220: fccb b0bd d745 523c d39c b33b 120e 03be
00000230: 8cf3 22be 648b 5fbd 878a 1a3e 04dc 8cbd
00000240: 9afd 47bd 9e22 6a3d c376 013d 50b4 a8bd
00000250: ff38 33bb ef8d 1dbe 1ac7 eabd e332 a03d
00000260: 541a 333d 8bd8 4bbd 5d83 093e 192c bb3d
00000270: 27b0 0a3e e62b b03d cbb5 19be e839 0f3e
00000280: 0d5a b0bd 6a31 633d ba0b 123d 7b15 9e3d
00000290: 517d 0abe 6c88 65bd c5ba e03d 871a c2bd
000002a0: 9b11 1e3d 4035 d53d 2240 7abd dacb 2abd
000002b0: 0ba1 69bc bc54 be3d 951b a43d 368e 9c3c
000002c0: 1878 d43d 088f 15bc 1ad8 c43d 5e2c 933d
000002d0: fdb0 083e 0930 df3c bfbf cfbd c1e8 53bd
000002e0: b6a5 da3d 5a2f 053d a8cf 98bd b190 0c3e
000002f0: 8820 a0bd 2962 2cbd 0157 f6bc 4c94 273d
00000300: f107 01be 2d12 b3bb d887 d8bd 2624 adba
00000310: 62a3 a63d 07e5 873d 59fd 07be 4621 bebd
00000320: 3818 dc3d a029 d5bd 0b43 a4bc 1479 e33d
00000330: ffaa 00be ab0a 05be 9f57 1abd 039b 55bd
00000340: 4417 93bd 3e89 c8bd 26e1 f23d efeb a4bd
00000350: bdd8 713d c974 d0bb b456 793d 7bbf ddbd
00000360: be7b 053d a15d 82bd 07b8 073d f3f2 1cbd
00000370: 38a0 c23d 037b 9abd 057c c03d 7ef7 4ebd
00000380: 9ecb d63d cfe7 cabd 6c18 ca3d a39e 0a3e
00000390: 9884 c9bd 3eed 2c3d fce6 193e ab7a 983d
000003a0: dfe4 febd 2170 203e 364c 59bd 5180 00bd
000003b0: 1c35 173d 12f4 6dbd d6cf fdbc 0fa3 c73d
000003c0: 6a25 a03d 821d 1f3c c664 26bb 50eb b43c
000003d0: 407f bdbd 7c1e 093b 0140 b1bb 3e41 fdbd
000003e0: d475 063e 788e b43d 7925 7bbc 07ae febb
000003f0: 5bb4 dfbd e1d3 25be 6ff9 2b3e 340d 653c
0.043555286 0.035898194 0.108982965 -0.12861866 -0.1101728 -0.09554717 -0.009015737 -0.053433537
0.07290407 0.060196497 0.0069419593 -0.063379765 0.097276345 -0.020476399 -0.06382376 0.13681783
-0.0027515977 -0.0741249 -0.04270624 -0.01667027 0.10463173 0.046227925 -0.14833054 0.15154646
-0.121030696 0.115838215 -0.019667888 -0.04169847 -0.008872375 -0.10303889 0.007885456 0.15335678
0.10088594 0.094441734 0.09857413 0.0579314 0.022788616 -0.05299306 0.049800903 0.0986406
-0.10147165 0.06837661 0.047449335 -0.03214584 0.028405163 -0.0900341 -0.051768154 -0.13340479
-0.02109397 0.15066011 -0.115163565 -0.034823082 -0.02714723 -0.038802966 -0.16986196 0.06289126
-0.094588555 -0.030103115 -0.011642526 0.09837991 -0.019708648 -0.0618243 0.06545232 0.096350074
0.071311325 -0.020017628 -0.07056197 0.05287024 -0.13807727 -0.1413636 0.013239131 0.014304927
0.044406366 0.052128587 -0.050433837 -0.07566496 -0.0726761 -0.11390529 0.053645857 -0.05632486
0.047443643 0.10171729 -0.0029635767 -0.039118942 -0.011142502 0.090963714 0.08364324 0.06632678
-0.022213038 -0.06786102 0.053768497 -0.021032233 -0.061227378 0.027302299 0.081438 0.034364786
-0.15828216 -0.14753939 0.09541972 -0.016422994 -0.011420776 0.022322142 -0.15809251 0.020865604
-0.10369701 0.020862073 0.10483761 0.018550381 -0.0775871 0.09591245 -0.056065205 0.0095829945
-0.0044396776 -0.07525337 -0.062122475 0.06897022 0.035694283 0.09856196 0.100625396 0.027627714
-0.02157047 -0.0877135 -0.12884022 -0.058386344 0.04763353 0.012967807 -0.17327914 0.022709189
0.08171742 -0.062738046 0.14135343 -0.1386808 0.032800857 -0.08010953 -0.002114714 -0.037172034
-0.08632657 0.012834034 0.0054813414 -0.12798336 -0.15913218 -0.054576293 0.15091906 -0.06877902
-0.048825838 0.05716192 0.0316074 -0.08237517 -0.0027347205 -0.15386175 -0.11463757 0.07822206
0.04372628 -0.04976706 0.13429017 0.0913927 0.1354376 0.08602123 -0.15010755 0.13986933
-0.08610926 0.055467047 0.035655715 0.07718941 -0.13524367 -0.056038305 0.109731235 -0.09477716
0.03859101 0.10410547 -0.061096318 -0.041698314 -0.014259587 0.092935055 0.08013073 0.01911078
0.103744686 -0.00912834 0.096115306 0.07186197 0.13348766 0.027244585 -0.101439945 -0.051735643
0.10676138 0.03251586 -0.07461482 0.1372707 -0.07818705 -0.0420858 -0.030070784 0.04091291
-0.12600686 -0.005464813 -0.10572785 -0.0013209626 0.081366315 0.066354804 -0.13280238 -0.0928369
0.10746807 -0.1040833 -0.0200515 0.11107078 -0.1256523 -0.12992351 -0.03768122 -0.052149784
-0.07182172 -0.09791802 0.1185935 -0.08052813 0.05904459 -0.006361578 0.060873702 -0.108275376
0.032588713 -0.063655145 0.033134487 -0.038317632 0.095032156 -0.07542994 0.09398655 -0.050528996
0.10488056 -0.09907495 0.09867939 0.13537078 -0.098397434 0.04221844 0.1502952 0.07445272
-0.124459974 0.15667774 -0.053051196 -0.031372372 0.036915883 -0.05809409 -0.030982893 0.09747898
0.07819636 0.009711625 -0.0025389655 0.022084862 -0.09252787 0.002092271 -0.005409241 -0.123659596
0.13130885 0.08816236 -0.015328758 -0.0077722105 -0.10923072 -0.16194107 0.1679437 0.013980199

policy_fc1.bias f4 [64]
00000000: 3fd5 d5bc 7c8a 0dbc 7590 82bc 4385 5ebd
00000010: 30d4 47bb e896 0d3c 94a2 ebbc d5c9 33bd
00000020: 2c35 12bc 8210 d2bb d0ed 42bd 3c97 5ebb
00000030: 522c 653c 45c0 41bc 564d b7bb 9797 34bb
00000040: d84a 01bc 2b2c 51bd f379 003c bdc0 8ebc
00000050: e2c9 d2bb e0f2 6abb 6fc2 81bc 6254 0f3b
00000060: f22a 26bb 27b8 023b 6890 9cbb 110b c13b
00000070: c77d b33b 8a4e fdbb 7205 14bc 01d7 73bc
00000080: 3f5f a0bb 7891 163a 9514 98bb 5327 93bc
00000090: 6c4b 1cbc 1876 313b 6dc4 05bc 6e62 afbb
000000a0: 7727 04bd 8562 4e3b 50cb c8bc 852c 4abc
000000b0: 7aab 8ebc a0b7 2a3c 3ca0 23bc d056 933b
000000c0: 6be6 27bc 619d 5ebb 40b6 23bc 7d39 78bc
000000d0: f352 36bd bfaa 0fbd 8256 db3b d106 d9ba
000000e0: d09d 9c3b b189 a43b da41 b33b 8706 c4bc
000000f0: c165 90b9 2457 203b e4ab 28bb 86b7 12bc
-0.02610266 -0.008638974 -0.015938023 -0.054326307 -0.0030491464 0.008641936 -0.028764047 -0.043893654
-0.00892381 -0.0064106593 -0.047590077 -0.0033964654 0.013987618 -0.011825626 -0.005593936 -0.0027556175
-0.007891379 -0.051067512 0.007841575 -0.01742589 -0.0064327577 -0.0035850331 -0.015839783 0.0021870364
-0.0025355187 0.001994619 -0.0047779568 0.005891212 0.0054776403 -0.00773031 -0.009034501 -0.014882804
-0.0048941667 0.00057437224 -0.0046411254 -0.017963087 -0.009539466 0.0027078446 -0.008164507 -0.00535231
-0.0322642 0.0031491828 -0.02451101 -0.012339716 -0.01741575 0.010419756 -0.009986933 0.004496433
-0.010247807 -0.0033968317 -0.009992182 -0.015150425 -0.0445127 -0.035074946 0.006693662 -0.0016557818
0.004779555 0.005021297 0.0054704966 -0.023928894 -0.00027541633 0.0024466002 -0.002573722 -0.008954888

policy_fc2.weight f4 [32, 64]
00000000: c0a9 2abe 431f f83c a5a8 25be 8395 463e
00000010: 10ce 6abd 4580 5c3e af9d 9bbd 02d3 a4be
00000020: b934 b73d 5545 8d3c 1e1f 26be 50f4 a63d
00000030: a25c c9bd 16f6 cc3d 4068 85bc 44f9 deba
00000040: 4546 b03d ae16 23bd 0af4 c9be eeec 423d
00000050: 4878 4a3d 70d8 7dbe d5a3 69bd 5ebd cc3d
00000060: 35ad cfbd 3df1 8cbd 3565 723e b372 15bd
00000070: 0db3 483e 95cd 22bd 945e 563e 9781 53bd
00000080: bd34 1f3e 364a debd ad8b c83c fb91 823d
00000090: 0dde 5e3d 1631 95bd cffa 64be df56 27be
000000a0: 0f35 1dbd 293f 7dbe 22ac adbe e518 abbd
000000b0: 55e1 b9bd 34b4 9ebe 767a 29be 1b7a 853d
000000c0: 9247 443d cdbd fa3c 150a 823e ae1a 67be
000000d0: cdc4 12be 2867 6f3d 205e 7a3e 00d1 19be
000000e0: 8371 003e 8faf 7fbe 4a98 88be 6ad0 7b3d
000000f0: ad04 5bbe e9a8 2e3d 5e0a 00be b367 8ebd
00000100: be4b 59bd 727b abbc c94d 373e d29c a73d
00000110: 6ba7 1b3e cb49 333e 73a9 ce3d ec5a 093e
00000120: eb8d f73d ed61 543c 6503 3fbe 1b6b 34bd
00000130: d5ab 5dbe db41 543e dde6 8d3c 1875 7bbe
00000140: 546d 7f3e b556 2cbd 35a2 ee3d 64d6 77be
00000150: 81ee 553e b71b 8ebd 03a5 a3bd 235c ac3d
00000160: 1c57 373e aa78 28be e5f7 493e cac6 63bc
00000170: 34aa 56bc d270 9fbe d546 11be 522d 7d3e
00000180: c98a 72be 5370 9a3e f021 103d 9705 8f3d
00000190: e224 103e 77ed d2bd bfb5 363d 9d76 413e
000001a0: f85f 7dbc 81c7 7e3e 66b1 023e 6977 0bbe
000001b0: 337a a13e 101c 543e 7faa 11be b454 2a3e
000001c0: 95be 0fbe 0d84 17be 2d69 17be 1e12 1fbe
000001d0: 2609 103d 67bd 40be daac 3a3e 50f9 70be
000001e0: 1113 523d c89c 33be 1477 60bd 3917 a8bd
000001f0: 1175 efbd 9439 efbd 8390 b63d 9617 f3bd
00000200: 90f7 9cbd d205 983e d263 8abe 5a94 263e
00000210: 2889 14be 4835 393d d02c fabd 5f11 51be
00000220: ddf7 27bd fe30 793e eeb6 ab3e 9c08 593e
00000230: d7d8 58be ded8 1e3d d225 3e3e a8f4 87be
00000240: 27cd 58be 6d5a 843d d35d fcbc 30f8 4fbe
00000250: 0fe0 5b3e f3dc 0cbd 79a2 03bc a71c a1bd
00000260: 8ba1 e4bd 07d0 c0bd d8d9 71be 6a22 5abe
00000270: 34d5 413e 716b 373e 27ff 4dbc 40b9 85be
00000280: d12b 6b3d 7545 15be ba51 ca3d 6909 c7bd
00000290: b32b 533e 4f6c e83d 39dc c3bd 8985 4bbe
000002a0: 6ded 123e 215f 02bd 366e 683d e913 0abe
000002b0: 7b81 4e3e f90e a13d 2c9b 0d3c 880c 553e
000002c0: 7c65 b63d 4812 ae3c 5cd3 3dbe ba54 d0bc
000002d0: b3b7 27be f0cd 8a3c 7dc3 84be b64a 4fbe
000002e0: a0ee 60be 0480 9abe e827 20be b1a2 e63c
000002f0: 71f9 753e 6e6a 583e 020f 9ebd 15fc fc3c
00000300: c002 943d 4f02 b13c 597f d5bd d6d3 563e
00000310: cebc 283e f9dc 473e 2447 3a3e 018f a93d
00000320: 2857 37bd a4c7 3bbe 1501 15be 7ecc 46bb
00000330: 56c6 36be cf70 9f3c ce4b fbbd 3ce8 5dbe
00000340: ec1c 3b3e 88c9 d3bd 4d43 583e 8dba 803e
00000350: bc23 6e3e 89f2 4dbe b075 523e 4195 013e
00000360: 68e8 603e 6680 f6bd 3246 88be f752 cfbd
00000370: 7894 203d cea3 603e c2da c93d 0263 3abd
00000380: eb70 ff3d a0d6 8abd b029 063e abf2 9e3d
00000390: 49c7 5a3e 4fdd 89bd 027b 923c 9b55 76be
000003a0: 46eb 1b3c bdf3 53bd 3d8e 643e ec16 02be
000003b0: c4df 86be a337 a63d 8aa2 243c d65b 6b3d
000003c0: c787 4ebe 75f5 45be c69e 7e3e a169 5d3e
000003d0: 603e 413e ac80 693d 223d 4fbe 0d2c 5e3d
000003e0: bc58 16be f0ce 45be 940e d0bd 2418 4f3d
000003f0: 7c00 a03d c8b3 0e3e c5e5 e7bc 4c10 483e
-0.16666317 0.030288344 -0.16177614 0.19392972 -0.057325423 0.21533306 -0.07598435 -0.32192236
0.08945603 0.017244974 -0.16222808 0.08152068 -0.098321214 0.10007875 -0.016285062 -0.0017011543
0.08607153 -0.03981655 -0.39444 0.047589235 0.049431115 -0.24789596 -0.057041008 0.099970564
-0.101404585 -0.0688195 0.2367142 -0.03648634 0.19599552 -0.03974684 0.20934516 -0.05163726
0.15547462 -0.10853998 0.024480665 0.063755 0.054410983 -0.07284753 -0.22361301 -0.16341732
-0.03838068 -0.24731125 -0.3392039 -0.08354358 -0.09076182 -0.3099686 -0.16550621 0.065174304
0.047919817 0.030608082 0.25398317 -0.22568771 -0.14332886 0.058447987 0.24449968 -0.15021133
0.12543301 -0.24969314 -0.26678687 0.061478056 -0.21388502 0.042641554 -0.12503955 -0.06953373
-0.05305075 -0.020932887 0.17900766 0.08184208 0.15200584 0.17508619 0.100909136 0.1341359
0.120876156 0.0129628 -0.18653639 -0.044047456 -0.2164758 0.20728247 0.017321998 -0.24556386
0.24944049 -0.042074878 0.11652032 -0.24202877 0.20891763 -0.0693888 -0.07990458 0.08416011
0.17904323 -0.1645228 0.1972347 -0.0139023755 -0.013102103 -0.31140763 -0.14187177 0.2472432
-0.23685755 0.30163822 0.035188615 0.06983488 0.1407657 -0.10299199 0.04460692 0.18892904
-0.015464775 0.24880792 0.12762985 -0.1361977 0.31538543 0.2071383 -0.14225195 0.16633874
-0.14037545 -0.14796467 -0.14786215 -0.15534255 0.035164975 -0.18822251 0.1823 -0.23532605
0.051287714 -0.17540276 -0.05480106 -0.08207554 -0.116922505 -0.11680904 0.08914282 -0.11869733
-0.07664406 0.2969194 -0.27029282 0.16267529 -0.14505446 0.04521683 -0.122155786 -0.20416783
-0.041007865 0.24335095 0.33538002 0.2119469 -0.21176468 0.03878104 0.18569115 -0.26553845
-0.2117201 0.0646256 -0.030806458 -0.2030952 0.2147219 -0.0343904 -0.008034342 -0.07866793
-0.111636244 -0.09414678 -0.23618257 -0.2130219 0.18928987 0.1791208 -0.01257304 -0.26117897
0.057414833 -0.14577277 0.09878869 -0.09718592 0.20622139 0.11348783 -0.095634885 -0.19875158
0.14348383 -0.031829003 0.05674573 -0.13484158 0.2016658 0.07864184 0.008642953 0.20805562
0.08906075 0.021248952 -0.18537658 -0.025431026 -0.1637867 0.016943902 -0.25930396 -0.20243344
-0.21966028 -0.30175793 -0.15640223 0.02815375 0.24020936 0.2113435 -0.07717706 0.03088192
0.07227087 0.021607546 -0.1042468 0.20979246 0.16478273 0.19517888 0.181912 0.08279229
-0.044760853 -0.18337876 -0.14551194 -0.003033429 -0.17849097 0.019462971 -0.12270318 -0.21670622
0.18272752 -0.103411734 0.21119423 0.25142327 0.23255819 -0.20112051 0.20552707 0.12654592
0.21963656 -0.12036209 -0.26616055 -0.10123246 0.03920409 0.21937487 0.09856178 -0.045504577
0.12472709 -0.06779218 0.1310184 0.07761129 0.21365084 -0.067316644 0.01788092 -0.24056093
0.009516543 -0.05174612 0.22319885 -0.12704057 -0.26342595 0.081160806 0.010048518 0.05746063
-0.20168982 -0.19331916 0.24865255 0.21622325 0.1887145 0.057007477 -0.20238164 0.05424123
-0.14682287 -0.19317222 -0.101590306 0.05056013 0.078125924 0.13935769 -0.028307805 0.19537467

policy_fc2.bias f4 [32]
00000000: 9678 b33c 6dd9 5cbc a094 40bd 0308 bbbb
00000010: 8fea 873c 45a0 dd3c 7a94 983c 6751 9a3c
00000020: 0982 4bbd 48c9 08bd 9724 953c baf3 59bc
00000030: b5e2 083c ae58 6d3d 4949 5b3d 45ac 26bd
00000040: 16a2 463c ccd4 903d 6fb8 b13c d3d2 903d
00000050: cd8d 67bc 052e 8c3c e8ab 8c3d 449e 173d
00000060: ed7a 20bc 229a 70bd 5c5d 533b a215 00bd
00000070: 4658 c5bc 7e36 933c 8970 b8bb 5d3e f0bc
0.021908086 -0.013479573 -0.04701674 -0.005707742 0.016591338 0.027053962 0.018625487 0.018837644
-0.049684558 -0.03339508 0.018205924 -0.013302738 0.008354832 0.0579459 0.053536687 -0.040691633
0.012123605 0.07071838 0.02169439 0.070714615 -0.014132929 0.017111788 0.06868726 0.03701617
-0.009794933 -0.058740743 0.0032251691 -0.03127063 -0.024089944 0.01797032 -0.0056286496 -0.029326612

policy_fc3.weight f4 [51, 32]
00000000: 4a4f 9fbd fa23 2ebe 7c0e 663e 7281 0d3e
00000010: a9c5 623e 759f 56be 5e73 6bbd 9d14 88bd
00000020: 8a40 f2bd 3a9b b93c e2d1 6bbe 60e4 d4bb
00000030: 9785 353e b9c2 a2bd e168 6f3e d2ac e8bd
00000040: c14e b43d 0d3c 053e dc2e afbd d3fd 9bbe
00000050: 4d90 92bd 618a c33e 6e50 3c3e 9c88 013e
00000060: e9a1 043e fe46 2b3e 2e59 4cbe 19c2 053d
00000070: e2ca d5bd 9426 443e 9ad5 003d b840 8b3c
00000080: 2bfc 2f3e 539a 053e c5f3 243e 93d3 363e
00000090: 4456 8e3e 83e6 513c 3ca9 433e f58d cb3c
000000a0: fffb 4c3e 4f56 ccbd d87e 7c3e 090f 743e
000000b0: 9101 c4bd c5ec b93d 63d2 71be 1d31 123e
000000c0: 7e44 b93d 7d11 cabd 676c 383e 0e83 afbe
000000d0: 1a67 da3d 7e95 ab3e 3c0f 5d3e 31ac 223c
000000e0: 30e2 403d dd11 5c3e db33 94be 5018 613e
000000f0: d95d f3bb 3332 093e ab40 62bd c4c8 193e
00000100: 036c 183e e8e6 12be 3b9d 113e 0aeb 443e
00000110: 3b44 65be cebc 57be 60bf a5bc aa7d 96bd
00000120: c7fd 7dbc 5a43 823d 2aee 3dbd ab52 3bbe
00000130: 3398 6e3e 7f0d 153e eada 14be 8f67 6abe
00000140: 5a10 09be 32b4 11be 9ded 523e 09cc 033d
00000150: 67ba 3c3e 2d19 3f3e 6f14 983b f25b 22be
00000160: 1d05 863d 4dc0 e0bd 4878 42be 1343 593e
00000170: faa6 303c db6d 553e f965 613e 6333 24be
00000180: b9c6 a63c eabc 83be 6e31 263e e8c4 aebd
00000190: c3a4 b5bd dae6 42be 8191 64be 89af cd3c
000001a0: 4b11 1dbe d8f6 b2bd c820 fab6 03bd 6dbe
000001b0: 371f 2c3e c55a 793e 8cc8 47bd 5fd9 3dbe
000001c0: 54aa 283e 0a48 a1bd 78fe 8fbd ce92 813d
000001d0: 8ebb 4b3e a747 debd 875e 373e cd8a e5bd
000001e0: ea4c f9bd 33fd 7ebd ec6b 00be 9b5d 0b3e
000001f0: 262b 2ebe 47af ffba 764c 883e 4568 ffbd
00000200: 02f0 1ebe 1a0b 483e 5d1c 073e 792a 5e3e
00000210: 9a41 4d3e 5051 45bd d1bc 1ebd 7421 adbd
00000220: 5799 b9bd 6053 743e 4b42 3c3e 560b 62be
00000230: 4d1e cdbd 7a98 823e 87d9 743e f987 1e3e
00000240: a226 e1bd 7846 603c 5c21 183e 8263 71be
00000250: a2c9 c53c 56fe 77be cc00 fbbd 6aa1 e2bd
00000260: 97d5 1e3e b212 b23d da20 6cbe a869 5bbe
00000270: b55c 81be f6ee 703d 57a3 633e dbf3 3d3e
00000280: e319 e93d 5ae1 fcba 9cd2 0e3e 0e10 7bbe
00000290: 21e6 5f3e 6e0d 233e 8c80 2f3e a7d6 70be
000002a0: f537 94be 772c 38be 08af 523e a3c3 043d
000002b0: d982 573e 5b32 3abd 6b6a 03bd f8c0 15be
000002c0: d345 3bbe 8bdb 2ebe f041 1d3c 8b91 9e3e
000002d0: e0bf 05be e5aa e6bd 7e36 673e 8a25 4a3c
000002e0: f137 1dbe 3ebc d2bd 17c4 213e 09d1 14be
000002f0: 9fca e03d bf22 05be 16de 913d 789f 18be
00000300: a322 11bb 23a6 a43e 8b6a 51be b679 443e
00000310: 3f39 21be 8169 9cbc 4a52 cfbd 5214 8aba
00000320: 786d 8abd 04df 6dbe 64bf f93c c9e3 0a3e
00000330: 280a 87bd 9867 953c 4692 833e b7f5 c93d
00000340: 9b73 4ebe 5ed6 f8bd a709 903e b60e eb3c
00000350: 4087 4bbe f0c2 cc3d 27f0 eebc cff6 93be
00000360: e666 1b3e 044c 6f3e 06ff 9cbe 2d9b 3f3e
00000370: 7ab6 60be 2c48 34be 4bc3 3cbe 3adf c13d
00000380: 6b22 283e 2688 283e e722 3dbe e7f5 3b3e
00000390: 36a4 7a3e 5c46 b53d a28c 4cb8 0547 3d3d
000003a0: 1532 453e 1469 ac3d 1b95 27be 1208 4abe
000003b0: 7a6e 62bd 109b 133d 46a1 c43d 5659 403e
000003c0: 1108 373a b349 4a3e 7035 4b3e a660 253e
000003d0: 47b6 31be 0e7f 3cbe 8028 e13d 3bcb 1a3e
000003e0: 71e8 4dbb 6bdb c63c 7a6f 46bd 35cc c0bd
000003f0: 513d 68bd 5a57 49be 528a 65be e377 8fbe
-0.07778795 -0.17005911 0.22466463 0.1381891 0.22145714 -0.20959266 -0.05748307 -0.06644557
-0.11828716 0.022657026 -0.23029283 -0.006496951 0.17726742 -0.07947297 0.23379852 -0.11361088
0.088040836 0.13011189 -0.085538596 -0.3046709 -0.071564294 0.38191512 0.18390056 0.12649769
0.12952389 0.167263 -0.19955894 0.03265581 -0.104390875 0.19155341 0.031453706 0.016998634
0.17186038 0.13047151 0.16108616 0.17854147 0.2780019 0.012811306 0.19107527 0.024847964
0.20018004 -0.099773996 0.24657762 0.2383386 -0.09570611 0.09078363 -0.23615412 0.14276548
0.09046267 -0.09866617 0.18010102 -0.34279674 0.10664196 0.3351249 0.21587843 0.009928749
0.04709071 0.2149119 -0.28945813 0.2198193 -0.007426959 0.13398056 -0.055237453 0.15017992
0.14884953 -0.14345896 0.14220135 0.19230285 -0.22389309 -0.21068117 -0.020232856 -0.07348187
-0.0155024 0.063605025 -0.04636971 -0.18293254 0.23300247 0.1455593 -0.14536634 -0.22891067
-0.13385144 -0.14228895 0.20598455 0.032177005 0.18430482 0.18661948 0.0046411077 -0.15855387
0.06543944 -0.109741785 -0.18991196 0.21216993 0.010781998 0.20842688 0.22011556 -0.16035227
0.02035843 -0.25730067 0.16229793 -0.08533651 -0.088693164 -0.19033375 -0.2232113 0.025108116
-0.15338628 -0.08738488 -7.454397e-06 -0.23216633 0.16808783 0.24351032 -0.04877524 -0.18539952
0.16471225 -0.078750685 -0.07030958 0.06326829 0.19895765 -0.1085351 0.17907153 -0.11208115
-0.12172873 -0.06225319 -0.12541169 0.13609926 -0.17008647 -0.0019507193 0.26620835 -0.1247106
-0.15521243 0.19535485 0.13194413 0.2169589 0.20044556 -0.04817325 -0.038754288 -0.08453646
-0.090624504 0.2385993 0.18384664 -0.22074637 -0.10015545 0.25506955 0.23911105 0.15481557
-0.10993697 0.013688676 0.14856476 -0.23573115 0.024143998 -0.24218115 -0.12256011 -0.110659435
0.15511166 0.08694972 -0.23059407 -0.21427023 -0.25266042 0.05882164 0.22230278 0.18550055
0.113818906 -0.0019293234 0.13947529 -0.24517843 0.21865131 0.15923092 0.1713888 -0.23519383
-0.28948942 -0.17985712 0.20574582 0.032413136 0.21046008 -0.04545818 -0.03208391 -0.14624393
-0.18288355 -0.17075936 0.00959824 0.30970415 -0.13061476 -0.11263064 0.22579381 0.012338052
-0.15353371 -0.102898106 0.15797459 -0.14532866 0.10976147 -0.13001536 0.07122438 -0.14904583
-0.002214589 0.32158002 -0.20450799 0.19187054 -0.15744494 -0.019093277 -0.10123117 -0.001053462
-0.06759161 -0.23229605 0.03048677 0.13563456 -0.06593734 0.018237874 0.25697535 0.098613195
-0.20161287 -0.12150262 0.28132364 0.028693538 -0.19875813 0.09998119 -0.029167248 -0.28899238
0.15175971 0.23368841 -0.30663317 0.18711539 -0.2194461 -0.17605656 -0.18433873 0.09466405
0.1641938 0.16458187 -0.18470345 0.18355523 0.24476704 0.088513106 -4.8768365e-05 0.046210308
0.19257386 0.084184796 -0.16365473 -0.19729641 -0.05528114 0.03603655 0.09601073 0.18784079
0.0006982098 0.19754677 0.19844604 0.1615015 -0.1735469 -0.18407843 0.10994053 0.15116589
-0.0031419063 0.024274549 -0.048446156 -0.094139494 -0.0566991 -0.19662228 -0.22416046 -0.28021154

policy_fc3.bias f4 [51]
00000000: 1e0f db3d dcd7 83bd 155d c5bd 7190 d73c
00000010: 07e1 5ebc f0fd 463d 9fb9 b33b 355e 28bc
00000020: 6984 08bd 610b 463d 05d7 b93d f48c 8cbc
00000030: 34cd 14bd 96d0 8c3b e6e4 b63c fe50 253c
00000040: df5f 963b 4641 07bd 85a3 49bd e804 04bc
00000050: 1f1a 88bd 77a8 e73a 7292 49bc 22fd b1bc
00000060: dd31 a5bb 2e59 653d f894 cf3c c310 fe3c
00000070: 7d54 db3c 47ae 21bd eeaa 0c3c bc6f 71bd
00000080: 6a72 763d feb8 30bd 3c68 f03c 7d2e 2c38
00000090: ae19 1d3c c7e7 e2bc 52ba 033c 4ff1 abbc
000000a0: f1d6 58bd e0c2 e23c eb5c 6a3d 78a1 473d
000000b0: 83c0 4abc d3a1 cdbc 8253 68bd 3d27 cebc
000000c0: fde9 05bd bd46 abbb 6f09 c3bd
0.10696243 -0.06437656 -0.096368946 0.026313992 -0.013603455 0.048582017 0.0054847742 -0.010276367
-0.0333294 0.048350696 0.09074215 -0.017157055 -0.03632851 0.0042973263 0.022325944 0.010090111
0.0045890654 -0.033021234 -0.04922821 -0.00805781 -0.06645607 0.0017674108 -0.012302982 -0.021727148
-0.0050413446 0.05599325 0.025339589 0.031013852 0.026773686 -0.039472844 0.008585675 -0.05894445
0.060167708 -0.043145172 0.029346578 4.105129e-05 0.009588642 -0.02769841 0.008040028 -0.020989088
-0.05293936 0.027680814 0.05721752 0.048737973 -0.012375 -0.025101578 -0.056720264 -0.025165195
-0.03269385 -0.0052269385 -0.09523284

value_fc1.weight f4 [64, 261]
00000000: e014 8dbe 00d5 1ebd 1856 893d a678 dcbd
00000010: daaf ecbd 9e7e 42bd 5b3b 9dbd 59c1 febd
00000020: 0fcb 72bd bfb8 813c f57e 0bbe 55d8 843d
00000030: 14f9 48bd 384f 3dbe 0603 95bb a05b 08be
00000040: 2a57 dfbd ac0f 053e 0571 a7bd c938 143e
00000050: d544 283b 01b5 97bd 0fd7 dcbd f47f c0bd
00000060: 80bc 693d 7e8b 91bd c436 fc3d 7f13 d53d
00000070: 626a 22bd 2bcc a0bd b489 7b3d f5a6 ab3b
00000080: e2fb f2bd cb6d f1bd 4c51 4cbd cf02 cfbc
00000090: ea0f bfbd 5717 94bd ce38 15be 4a62 b63c
000000a0: 1731 023d dcb0 74bd 70f4 353d 1af1 0e3e
000000b0: e8d7 14be 7a91 48bd 103b bd3d 9037 df3d
000000c0: d766 00be a42a 8dbc 23dc 813c 6c65 00bd
000000d0: 1a06 a4bd 7c32 df3d 8500 71bd 2c4d 063e
000000e0: 71d6 243e 114c bd3b 9b85 7dbc bcfa d83b
000000f0: 35cf 22bc 6f88 b2bd 54db 9d3d fe65 5dbd
00000100: 9215 9b3d a413 7ebe 0c5b e0bd caf6 433d
00000110: 2b8e 093e 4c98 13be 0924 893c 1026 5bbc
00000120: c1a1 153d 7ff4 87bd a718 143c 26a9 92bd
00000130: 384f 15be 6633 5abd 6a73 5abd eef3 bc3d
00000140: f3d5 0dbd 2725 d53d 6da7 a03d 3c5c a73d
00000150: d52c f23d 25f3 c73c b66e 493c bb7d adbd
00000160: 2643 d73c 3bff cfbc e893 743c 298e 1fbe
00000170: 4890 0fbe 6a5c 1fbe b2a2 b9bc 6f6d 32be
00000180: 0244 4abe a25d 2abd 3026 c8bd aea3 223e
00000190: 61ed 633d 9142 09be 0976 923d 2c46 38bd
000001a0: 02b4 113d b27d 1d3d 9a68 c23c d761 a8bd
000001b0: 5d7c adbd 039a 11be 8aab 873c b105 55bd
000001c0: 41bf 103e 38a3 813d 819d bfbd 3213 523e
000001d0: 7942 163e 8b9f 20be 91e9 373d 4a1c 983c
000001e0: 566a ccbd 7b5c d13d ef95 f9bd ae1b 773c
000001f0: b3d6 5ebd ea8a a0bd 3c6f 02bd 4e38 303d
00000200: 9b85 423d 71e1 0b3d 102a 913b a5e9 ac3d
00000210: b2fb 4139 2d50 163d 1dd8 563e e6bd cd3d
00000220: fecc 5abe 6756 a2bb 901a a5bc e694 b8bd
00000230: 2d7e e8bd c984 b9bd faed 10bd baa4 043d
00000240: f011 ea3c 6a24 883d 35f3 2abe efd2 e53d
00000250: 2d60 0dbe 994c eabd 6cb6 423e c7ce cbbd
00000260: af93 b43d a6f9 2dbd 5876 303d 1f34 a43c
00000270: 5d74 f33d b494 5bbc 1cb7 7dbc bd48 46bd
00000280: d624 173c c553 8ebd cda9 80bd 5806 d23d
00000290: 4063 43bc a653 e0bb 5647 c63d 3cfb 05be
000002a0: 64d2 75bd a55c d63d 3dca 113c be0b ddbd
000002b0: 096c fc3c a80f df3c 4033 96bd 11d3 1cbd
000002c0: 9b9d fbbd d4c9 653d 8391 383c 6dae b7bc
000002d0: 3be5 af3d e084 3b3d 9bfe 57bd 53c1 d63d
000002e0: 85b2 9cbd 78fa 19bd d3fd b13c 0e91 1b3d
000002f0: 30f0 083d f890 65bb 7982 c1bd 87c8 1ebe
00000300: f67d 03be 4fdf dfbc 6984 53bd 4da8 9fbd
00000310: cb3b c63d 1b4e 4b3d a278 c63c 5506 093d
00000320: 0945 e1bd 00db 63bd 0438 a9bd d9b6 963d
00000330: 8223 0b3d 61de 593d 39b2 e73c 9169 503d
00000340: 5c7a 23be f41f 16be 4c20 013c 4529 83bd
00000350: 4ba4 123e 8eb0 f13d 9251 03be 514d b6bd
00000360: 925a b4b8 9597 0f3d 356c c13c 07c5 01bd
00000370: 7484 58bd a616 b83d a483 1b3d 61a3 cb3c
00000380: 67ad 8739 9cb4 263d 47e5 43bd cf92 2a3e
00000390: ecaa 5b3d 8f80 5d3a 0616 9fbc 8ba1 d93a
000003a0: defe 8aba 47f5 92bd f176 023d 2745 b6bc
000003b0: 5c14 91bd 6b4e 0d3d 0f76 25be 6332 71bd
000003c0: 4fcf 4a3d 050f 0abe 8e6c f33d 2c76 043c
000003d0: 48f0 07be 4810 0e3e bcda b7bb 83e2 f4bd
000003e0: ad1b 173d 69d2 02be 72dc 51bc 55b1 7fbd
000003f0: ac3a 0ebd a82c 493b d0b5 c13d 5da7 a93d
-0.2755499 -0.03877735 0.06705874 -0.10765199 -0.115569785 -0.047484033 -0.07677337 -0.12439222
-0.059275683 0.015835164 -0.13622649 0.064865746 -0.049065664 -0.18487251 -0.0045474796 -0.13316202
-0.10905297 0.1299426 -0.08175854 0.14474787 0.0025675793 -0.07407571 -0.10783207 -0.09399405
0.057064533 -0.07106684 0.12315133 0.10404109 -0.039652236 -0.07851442 0.06141062 0.0052384087
-0.11864449 -0.117885195 -0.04988222 -0.025269894 -0.09329207 -0.07231014 -0.1457245 0.022263665
0.031785097 -0.05973898 0.044422567 0.1395916 -0.14535487 -0.048966862 0.09239781 0.108992696
-0.1253923 -0.017232247 0.01585204 -0.031346723 -0.08008976 0.10898301 -0.058838386 0.13115376
0.16097428 0.00577689 -0.015473749 0.0066216867 -0.009937097 -0.08717429 0.07707849 -0.054052345
0.075724736 -0.2481218 -0.10954866 0.04784278 0.13433139 -0.14413565 0.016740816 -0.013375774
0.036531214 -0.06638431 0.009039081 -0.07161169 -0.14581001 -0.053271674 -0.053332724 0.092262134
-0.034627866 0.10407477 0.07844434 0.08171889 0.11824957 0.024407933 0.012294462 -0.08471247
0.026277136 -0.025390258 0.014927842 -0.15581574 -0.14019883 -0.15562597 -0.022660587 -0.17424558
-0.19752505 -0.0415932 -0.09772909 0.15882751 0.055646304 -0.134043 0.0715142 -0.044988796
0.03557206 0.03844995 0.023731519 -0.082217865 -0.08470986 -0.14218907 0.016561288 -0.05200738
0.14135458 0.0632996 -0.09356213 0.20515135 0.14673795 -0.15685861 0.04490048 0.018568177
-0.099812195 0.102227174 -0.12186801 0.015082283 -0.054403972 -0.07838996 -0.031844363 0.043022446
0.047490697 0.034150545 0.004430063 0.08443002 0.00018499678 0.036697555 0.20980878 0.10045986
-0.21367261 -0.0049541476 -0.020154268 -0.09012775 -0.11352191 -0.0905853 -0.035383202 0.032383658
0.028573006 0.066475704 -0.16694339 0.11221873 -0.1380622 -0.11440391 0.19014901 -0.09951549
0.08817231 -0.04247441 0.04308161 0.020044385 0.11887429 -0.013402153 -0.015485551 -0.048409212
0.009225091 -0.069495715 -0.06282387 0.10255116 -0.0119255185 -0.006845909 0.09681575 -0.1308412
-0.060015097 0.10466889 0.008898315 -0.10793255 0.030813234 0.027229145 -0.07333994 -0.038287226
-0.1228592 0.05610068 0.011265161 -0.02242204 0.08588644 0.045781016 -0.052733045 0.104860924
-0.076512374 -0.03759238 0.021727478 0.03798013 0.033432186 -0.0035029035 -0.09448714 -0.15506183
-0.12841019 -0.027328162 -0.051639948 -0.07795773 0.09679373 0.049635034 0.024227444 0.033453304
-0.109994955 -0.055628777 -0.08262637 0.07359094 0.03396941 0.053190593 0.028283225 0.050881926
-0.15964645 -0.14660627 0.007881235 -0.06404356 0.14320485 0.11801253 -0.12824085 -0.08901466
-8.599939e-05 0.03505667 0.023611167 -0.03168204 -0.052860692 0.08988695 0.03796734 0.024858179
0.000258784 0.040699586 -0.047826078 0.16657566 0.0536298 0.00084496377 -0.019419681 0.001660393
-0.0010604521 -0.07175689 0.031851713 -0.022249771 -0.07083961 0.034498613 -0.16158317 -0.058885943
0.04951411 -0.13482292 0.118859395 0.008084815 -0.13275254 0.13873398 -0.005610792 -0.11957266
0.036891628 -0.12775578 -0.012808906 -0.062424976 -0.034723923 0.0030696783 0.09458506 0.08283875

value_fc1.bias f4 [64]
00000000: 7697 02bd c6f8 07bc 2bd9 c13a 959f 043c
00000010: b59b b4bc 9350 6d3c b962 9b3b d418 9f3c
00000020: d6b6 fb3b 5dbe 65bb 7b0b b3bd ac68 4bbc
00000030: 80f8 b1bd 3ba4 1fbc 9d20 35bd 9b1b bc3c
00000040: b76c 113c 186b 123d 60e8 63bc 878c 2bbc
00000050: 7627 f13a 1afb e43c b233 03bd 0da9 33ba
00000060: 582a ad3c a0b2 0cbd da97 923c ddbf aebc
00000070: 76a9 c53b 2168 61bd 87c3 31bc e207 d03c
00000080: 3274 cebc 65f8 0f3d e821 753d a791 61bc
00000090: 6243 393c 8ac1 0bbb 7001 363c 1b04 44bc
000000a0: f6f1 b2bc de27 5cbd 651d 6abc 0e16 f0bc
000000b0: 93ee 6d3c 8fed 29bd 99b3 afbc 2f3c a5bc
000000c0: 6290 8abc 256c 6c3b c900 cbbb 65ff 02bd
000000d0: 3ca0 cf3c 65eb 9d3c 9c74 d5bc 9a3d 32bb
000000e0: 54f3 4fbc 4e8b b73c 1c6d 88bb 1dd5 d3bc
000000f0: d6df e9bc cc59 85bc ba8f 5d3c b8b1 573c
-0.031882726 -0.008299058 0.0014789453 0.008094688 -0.022046903 0.014484542 0.0047419933 0.019421019
0.007681708 -0.0035056092 -0.08742424 -0.012415092 -0.08689976 -0.009743745 -0.044220556 0.022962382
0.008876017 0.035746664 -0.013910383 -0.010470516 0.0018398601 0.027951766 -0.032031722 -0.00068534986
0.021138355 -0.034350038 0.017894674 -0.021331722 0.006032164 -0.055030946 -0.01084984 0.025394384
-0.02520189 0.035148997 0.05984679 -0.013767636 0.011307569 -0.0021325075 0.011108741 -0.011963869
-0.021843892 -0.053748958 -0.014289235 -0.029307391 0.014522213 -0.04148632 -0.021447944 -0.0201703
-0.01691455 0.0036075201 -0.006195162 -0.031981844 0.02534496 0.019277284 -0.02605658 -0.0027197362
-0.012692291 0.022405293 -0.0041633975 -0.025858456 -0.028549116 -0.01627817 0.013523037 0.01316493

value_fc2.weight f4 [32, 64]
00000000: efd1 5e3c 2be6 083b 421c 3e3d 4724 0e3e
00000010: 10dd 1c3d ea4f 253e a5ed c8bc 945e 963c
00000020: e49e 933e 6b3a 14be 62b6 39be 6147 a3bd
00000030: cd8e e8bc 3d3f 4fbe 3195 363e 5444 83bd
00000040: 783d c53c d52f f0bd 57de 403e 71ec 2f3e
00000050: cd1b 0d3e 4a31 5f3e 24c3 27be 6fbc 4dbe
00000060: 48db ed3d 7e57 313b aa65 e8bc b65c 153d
00000070: 6236 093e 9e09 803e 59e8 203e d9ae 803e
00000080: 17ca 4b3e 3e98 78be 5cbd d53d a091 85bd
00000090: 963f 983d 5660 d13c e8d6 823e 4569 c63d
000000a0: 28c9 993c 2510 623e d687 433e b24f 193e
000000b0: 669e 2d3c 8347 4e3e 8c28 063e 458d 20be
000000c0: e144 56bd 5a24 45be 1949 f83d 03d3 c4bd
000000d0: c3e2 0a3e 0fb0 6fbd cd13 813e b87f 0abe
000000e0: 9028 f9bd 4531 72be de54 fabd ea13 5a3e
000000f0: 9251 8c3d e530 143d 70da 4b3e a1cb 89be
00000100: ff02 6ebd 4be0 803d 6bc5 ebbd 57e8 813e
00000110: ce93 243e 0449 c23d d7f3 983d 5a14 8fbe
00000120: b726 3fbe 1f62 5dbe 94a3 523e 8ba2 8abe
00000130: d8e3 1e3e 09d1 21be 2b2d 123e 94ee 2ebe
00000140: 213b 99be baeb 243e ce29 3abe 450e 383e
00000150: 436e 84be 049c 6e3e 8730 2e3e 9ea3 3cbe
00000160: ea17 a3bc abb0 853e e83e 57be 0e20 7dbe
00000170: bfc2 353e 2e94 eebd ece1 33be a731 693d
00000180: 10b7 333e a0bc a5be c565 f9bc 2b2f 173e
00000190: ecde 89be a427 523e 780d 61be b2fe 56bd
000001a0: c709 b03d 4385 debd 70c3 b8bd 880e b4bd
000001b0: 3126 f2bc 4ed0 6a3e eac6 3cbe b429 5f3d
000001c0: 8879 543e 8dab 86be 3c0e afbe 0885 fc3c
000001d0: cfea 273e bb10 1abe 1e58 a0bd 4924 e13d
000001e0: 13c8 aebc a400 4bbe 4724 19be 8ebb 86bd
000001f0: f966 aa3d d3ef a9be be36 1b3e 0d7e 80bd
00000200: d055 0e3e 8637 1ebb cc30 34bd b941 333e
00000210: 4187 103d cf86 ed3c e922 67be 738b 54be
00000220: 8747 29be b5ef 71be bed5 83bd 7f66 aabd
00000230: a3f1 0bbe 4f5a 23be 3fce e63d c842 a83b
00000240: ad15 11be a1b0 67be 444d 863c f22f 51be
00000250: 7873 833d 3586 403e 4756 37bd 9607 783d
00000260: 667d 123e 5605 da3d 6b38 27bd 4ae7 163d
00000270: 119b 80be 8943 45be 028b c53b 1a72 0dbd
00000280: faa0 833d 6a2c b2bd 80df 23be 10e6 bebd
00000290: 1422 393e 113e 7abc 944b ed3d 505a 86be
000002a0: 53be f03d cc2f ac3d 3042 fd3d 6928 01bd
000002b0: 507a febc cf56 7ebe b239 e13d 0614 d93d
000002c0: 6464 253c f719 cc3d 2417 c63c 8fe8 23bd
000002d0: e58d 0bbd 0fff 403e 5d36 51be 0a5b 523e
000002e0: 9eb5 6e3e f847 5bbe 820a 433e 3c1f fe3d
000002f0: 6ad3 94bd 6f40 133e e5ac af3d ad6e 143e
00000300: 28e4 c03e 0fbe b4bd a783 2dbf 0306 2d3e
00000310: 78c7 cfbe 8dbf 18bd efdb a9be 27b3 02bf
00000320: 6c30 e4bd f0c6 123d dab4 7abd 0814 5fbe
00000330: 3638 47be 4013 8bbd 5584 7b3c 8a76 f9be
00000340: e88f b9be 03ea afbe d9ed 0ebe 53ea 8cbe
00000350: 8053 d0be 2b31 c43c ab0a 6f3e 1d5a 8a3c
00000360: e06f 07bf 0784 943d 74b9 a5be 8ee7 bebd
00000370: 098f 6abe 8535 2ebe ed35 1fbf bdc4 93bd
00000380: 7f8f 703e b3d2 7a3d ff96 773e 920d 0dbe
00000390: 97bb a0be eda2 6f3e 606e 903c 2599 b63d
000003a0: d814 663e 97ca 28be e47a 09bd 9773 86be
000003b0: 832f 1bbe 52e6 1a3e ffdc 30bf c1b9 293e
000003c0: dbe6 ac3c c919 00bf c8a4 24bf 395e 783d
000003d0: f5e5 a7be 2a8e 31be a5db 9d3e c7fa 39bf
000003e0: b538 6d3e 9054 abbe 8eb1 3a3d d2bb 96be
000003f0: 701f aa3b 16e5 17bf 59ea 8a3e 84ca c7bd
0.013599857 0.0020889144 0.046413668 0.13881026 0.03829676 0.16143766 -0.02452738 0.018355645
0.2883216 -0.1447541 -0.1813598 -0.07972599 -0.028388405 -0.20238967 0.1783035 -0.06409517
0.024077162 -0.11727873 0.18834816 0.17180039 0.13780136 0.21796146 -0.16383034 -0.20091413
0.1161409 0.0027060206 -0.02836879 0.03646537 0.13399652 0.25007337 0.15713634 0.25133398
0.1990131 -0.24276826 0.10436508 -0.065219164 0.07434003 0.025558632 0.25554585 0.09688047
0.018772677 0.22076471 0.19094786 0.14971808 0.010596847 0.20144467 0.13101405 -0.1567889
-0.05231178 -0.19252148 0.12123317 -0.0961056 0.13563065 -0.058517512 0.2521042 -0.13525283
-0.1216594 -0.23651607 -0.122232184 0.21296659 0.06851496 0.036179442 0.19907546 -0.2691317
-0.058108326 0.062927805 -0.11512264 0.25372574 0.16072008 0.09486583 0.07468384 -0.27945215
-0.18667112 -0.21619461 0.20570213 -0.27077135 0.15516603 -0.15802397 0.14275043 -0.17083198
-0.29927924 0.16105548 -0.1818001 0.17974193 -0.25865373 0.23301703 0.17010699 -0.1842179
-0.019908864 0.2611135 -0.2102009 -0.24719259 0.17750071 -0.11649357 -0.17566651 0.056932118
0.17550302 -0.32370472 -0.030444035 0.14764087 -0.26927888 0.20522934 -0.21977794 -0.05248899
0.08595615 -0.108652614 -0.09021652 -0.08791834 -0.029559227 0.22931024 -0.18435255 0.05448313
0.20749485 -0.26302758 -0.34190547 0.030825153 0.16398166 -0.15045445 -0.07829307 0.10993249
-0.021335637 -0.19824463 -0.14955245 -0.06578742 0.08320422 -0.33190784 0.15157601 -0.06274042
0.13899922 -0.0024141981 -0.04399185 0.1750554 0.03528524 0.028994946 -0.22571911 -0.2075632
-0.16531192 -0.23626597 -0.064372525 -0.08320331 -0.13666396 -0.15952419 0.11269807 0.005134914
-0.14168425 -0.22625972 0.016394265 -0.20428446 0.06418508 0.18801196 -0.044760015 0.06055411
0.14305648 0.10645549 -0.04082529 0.03684167 -0.25118306 -0.19264044 0.006028534 -0.034532644
0.06427188 -0.086998776 -0.16003227 -0.09321225 0.18079406 -0.015273587 0.11586681 -0.26240778
0.117550515 0.08407554 0.1236614 -0.03153268 -0.031064183 -0.24837802 0.10997333 0.10599522
0.010094736 0.0996589 0.024180956 -0.040016707 -0.034070868 0.18847297 -0.20430894 0.20542541
0.23311469 -0.21414173 0.19046977 0.12408301 -0.072668865 0.14380048 0.08577899 0.14495344
0.3767407 -0.08825313 -0.6777901 0.16896825 -0.4058187 -0.037292052 -0.3317561 -0.51054615
-0.11142048 0.035834253 -0.06120763 -0.21784985 -0.19455037 -0.06790781 0.015351375 -0.4872325
-0.36242604 -0.34358224 -0.13957919 -0.27522525 -0.40688705 0.023949226 0.23343913 0.016888672
-0.5290508 0.07251745 -0.32368052 -0.09321509 -0.22906126 -0.17012604 -0.6219166 -0.07215259
0.2349224 0.061236095 0.24178694 -0.13774708 -0.3139312 0.23401995 0.017630756 0.08915929
0.22468889 -0.16483532 -0.033564463 -0.26260063 -0.15154843 0.15126923 -0.69087213 0.16574766
0.021106174 -0.50039345 -0.64313936 0.060636733 -0.3279263 -0.17339388 0.30831638 -0.7264828
0.23166163 -0.33462954 0.045579486 -0.2944017 0.005191736 -0.5933393 0.27131918 -0.09755424

value_fc2.bias f4 [32]
00000000: 2a16 a13d ba4d 2b3a e3fb 06bd 56ab b23d
00000010: 74f5 28bc b535 1bbd 5b63 18bd 3b64 62bc
00000020: a00d bdbc 77cc c83c 0742 243c ffcd 713d
00000030: ad1f 173c de86 db3c 26c4 073c 24e1 8bbb
00000040: 32d0 463c 196d ee3c 6088 e3bb 6468 933c
00000050: 0e23 183d b4d4 b43c ff71 b4bc 9cac 8c3d
00000060: 03ea 7b3d 4d44 3bbd 22ae ec3c 404e 2cbc
00000070: e568 4bbc 7e3a 983a d0de 90bb e4cc f73c
0.078655556 0.00065347145 -0.03295506 0.08724086 -0.010312427 -0.037893016 -0.037204128 -0.013817842
-0.023077786 0.024511559 0.010025508 0.059034344 0.009223861 0.026797708 0.0082865115 -0.004268782
0.012134599 0.029104756 -0.0069437474 0.017994113 0.037142806 0.022074081 -0.022027014 0.0686886
0.061502468 -0.045719434 0.028891627 -0.010516703 -0.0124151455 0.0011614112 -0.0044210926 0.030249067

value_fc3.weight f4 [1, 32]
00000000: 4bb0 1f3e 0dd2 b13e d9fc 18be 53a8 2d3f
00000010: 3a69 c7be bef1 3d3e 7342 e3bd 4b38 83be
00000020: 479b 9abe 7f52 2dbe 9dd9 733e 376b 873e
00000030: 62f8 67be c7db 86be 2361 74bd 630f 043e
00000040: c7e0 8d3d 5b5c 0b3f 2f53 ab3d c66c 3d3e
00000050: 9791 f5be 4741 83bd a6aa 12be 8a3a cfbc
00000060: 0ce3 253e 3b59 acbe 08be bcbd 75ae e83e
00000070: 0eb4 d93d c955 1fbe 2ba9 7dbe 7369 4c3f
0.15594594 0.3473057 -0.14940204 0.6783497 -0.3894747 0.18549249 -0.110966586 -0.25628886
-0.30196592 -0.16926001 0.23813482 0.26448986 -0.22653344 -0.26339552 -0.05966295 0.12896495
0.069276385 0.544378 0.083654754 0.18498525 -0.4796264 -0.06408935 -0.1432291 -0.025296468
0.16199893 -0.33661827 -0.09215933 0.454456 0.10630046 -0.15560068 -0.24771564 0.798484
