rl/spin_model_11282100/11.pt (torch_old, 159601 bytes, 12 tensors)

log_std f4 [51]
00000000: 28e8 c43b f403 763d d448 be3d c9cc a53d
00000010: 2401 503d d8f4 db3d a26c 043e b45d a33d
00000020: e229 943d dd24 1b3e 3c61 b63d 344b d03d
00000030: f8b8 a23d f979 7b3d b0de cf3d 697c b53d
00000040: 9ffb 013e 2c6c cc3d 4ca9 673d 60b4 8c3d
00000050: f541 813d 5c8c da3c a1ac fc3d 6d5e 823d
00000060: 5818 f13d 87a5 763d 308f 873d 1bb8 713d
00000070: 4591 c03d 2e0b 043d 0cfc 5d3d 3990 e33d
00000080: d66f bd3c 3af3 833d 1fce cb3d 9429 763d
00000090: 68e7 143e d169 eb3d a900 c43d 303d 413d
000000a0: 63fe 833d 8cbe 8b3d ec4f b73d 1738 a33d
000000b0: 73f5 a83d cf41 0d3e 02d3 6f3d da38 c73d
000000c0: b164 ac3d e56b 023e 3f99 d63d
0.0060091205 0.060062364 0.092912346 0.080957 0.050782338 0.107400596 0.12932065 0.07976857
0.07234551 0.15150781 0.08905265 0.10170594 0.07945436 0.06139562 0.10149896 0.0886162
0.12693642 0.0998157 0.05655794 0.06870341 0.063114084 0.026678257 0.12337614 0.063656665
0.11772221 0.060216453 0.06619108 0.059013467 0.09402708 0.032237224 0.05419545 0.11111493
0.023124617 0.06442876 0.09951424 0.060098246 0.145414 0.11494792 0.095704384 0.047177494
0.06445005 0.06823453 0.08950791 0.07969683 0.08249941 0.13794635 0.058550842 0.097276405
0.08417643 0.12736471 0.10478448

policy_fc1.weight f4 [64, 261]
00000000: eb96 a53d 8028 c7bd ae97 ccbd 5d8d 053e
00000010: 8879 6bbd 7108 91bd f4bf bb3d a07c b83c
00000020: 9486 e33d fbb3 6fbd 3bb6 97bd e3e0 0cbd
00000030: d37c 0e3e ae22 f93d 18e0 b2bc 94a7 92bd
00000040: 6863 043d 72c2 40bd 27a1 113c 17e4 263e
00000050: 2c42 7fbd 2bb5 05be ed09 023e be60 643d
00000060: 5b7d 05be e78b 0f3d dac0 b6bd 1fbf b3bd
00000070: 2e5b db3d 5ad0 1d3d e013 02bc 931a a13c
00000080: dc23 02be ccdd f23d 17de d93d 40d8 d53d
00000090: 7c8a 87bd 8879 acbd f672 203d 40be 20bd
000000a0: 6b79 8fbd 2891 9fbd 3401 083e 8523 673d
000000b0: d9dc 31bd f6a0 083e 3a51 88bd 1a8e a73b
000000c0: dcc6 ab3d 1f2c 813d 16de 833c 097d 0cbd
000000d0: bc2f debd aa14 a33d bc64 d2bc 7546 903d
000000e0: 634b 7dbc 8c8f c4bd 0655 d63d 2174 0bbe
000000f0: f446 bcbd 7116 51bd 5ece 70bd 10d4 a33d
00000100: ee2a fd3d 570c a8bd 8517 033e 652a 7dbd
00000110: 0058 b8bc 5785 58bd 0358 31be 7153 57bd
00000120: 2b7e f5bd 85a4 d4bd 060b 09be 574b 84bd
00000130: 5e27 b6bd 4767 59bb 1990 df3d c108 b63d
00000140: 5135 983d df82 d73d 0fa7 bd3c 9203 933d
00000150: 00a4 173d 995d 8abd bf39 063e 3257 e43d
00000160: 557f b33d bc70 ba3d aee5 843d 93bc 683c
00000170: 2533 823d 3431 5c3c 64c8 47bd f20d ba3d
00000180: 72a1 1c3e c932 05be b7b5 0fbc 047a 90bd
00000190: 1b49 9cbd b91b b43d e7f8 973b e073 65bd
000001a0: 19b4 0e3d 121a c3bd da1d 16be cba7 923d
000001b0: d39f 1abe 8084 b5bd 4ece e83d 8a56 2c3d
000001c0: 6ebc 093d 2b6f 8e3d 47cd 9d3d 3b1f c5bd
000001d0: 081f 943d 3b83 243c aaf3 81bd 3c47 0dbe
000001e0: 3621 74bd f30a ca3d 7888 a03d 5d06 7a3c
000001f0: 364b 85bd da97 803d 71b7 953c e935 983d
00000200: 136f d43d 1e96 503d f7c1 e03d 77d5 b13d
00000210: c21d 1f3d 0194 0abe 87ff 29bd baff 57bd
00000220: 358a 80bd 0a75 7abd d677 b8bd 0755 b2bc
00000230: e52d c13c 877c 0fbd 7eb4 033d 40ae 0f3d
00000240: 4cb7 a23c 8efd 89bd ee98 01be b224 63bd
00000250: 6f90 863d 691e 8d3d d2c4 c13d 2bd2 b6bd
00000260: c7e2 173e 5320 4abd 4091 48bd a983 4ebd
00000270: d389 153d 48a2 80bd 3c96 233d 79a2 913d
00000280: 37d1 a5bd 7256 7bbd a1ae 423d e5d2 973c
00000290: 86ed fb3d 5b6f 9dbd bee6 d03d cc30 e9bd
000002a0: 4eb5 8abc 176a 263b 10cf abbd a805 033e
000002b0: 865f 08bd deb9 84bd fc9e 8a3d 2b6d be3d
000002c0: 4c72 db3d feaa 443d 0dee 0f3e 6130 cf3d
000002d0: d667 a63d 2cb1 a93d 3d90 f53d fca6 153d
000002e0: 8f45 b6bd e7ec c03d db88 14bd e249 15bd
000002f0: 56aa a93d 9c59 a33d b8ee 24bb 6b81 b33c
00000300: 376c afbc 0742 d33d 4fde d53d c3d4 e53d
00000310: 9fd3 0e3c 92c1 023e f1ad a13d 9d64 df3b
00000320: d88a e33d 7f52 013e 67fd 80bd 1dfe 0c3d
00000330: e1fd 92bd 99e5 76bd 6a3e 583d 2406 2ebe
00000340: 33be c93d e95e b2bd 5311 c1bb 7733 65bd
00000350: 1875 1e3d b857 f5bc 9107 a63d b41e 01be
00000360: 39d8 023e 5d29 e13c 048d 9a3d 7e6a 293e
00000370: 3ec4 49bd cb4b 80bd e669 c63b 1e8f a63d
00000380: 2ed6 c33d 4bff ef3d 4347 503d b43b 17bd
00000390: 4a76 9dbc bb2a eabc 38d9 cd3c 576e b8bd
000003a0: e0b1 ddbc 3f13 1bbd 4f1d 2f3c a67b 89bd
000003b0: 2cf0 503d cd6d 833d cd96 fcbc fcfd eebd
000003c0: 6309 1fbd ad73 9d3c da1f 0fbe 179f dc3d
000003d0: 3e14 80bd 5963 07be f0f1 89bd 624c 5f3c
000003e0: 631a 9b3c 642d 90bd 9a65 0abe a5a6 f63d
000003f0: fa75 e33d dd44 11be d4e7 de3d 342c 363c
0.08085426 -0.09724522 -0.09989868 0.13042207 -0.057488948 -0.07081688 0.091674715 0.022520363
0.11109653 -0.058521252 -0.074078046 -0.034394156 0.13914804 0.12164818 -0.021835372 -0.07160869
0.032321364 -0.047060438 0.008888519 0.16297947 -0.062318966 -0.13057391 0.12699099 0.055756323
-0.130361 0.03504553 -0.08923502 -0.08776688 0.107107505 0.038528778 -0.007939309 0.019665992
-0.12708992 0.11858711 0.106380634 0.10441637 -0.06618211 -0.08421618 0.039172135 -0.039243937
-0.070055805 -0.07791358 0.13281709 0.05643036 -0.043423507 0.13342652 -0.06656118 0.0051133754
0.08387539 0.063072436 0.01609711 -0.03429893 -0.10848948 0.07962926 -0.0256828 0.070446886
-0.015459868 -0.09597692 0.10465436 -0.13618518 -0.09193221 -0.051046792 -0.058790557 0.07999432
0.12361704 -0.08205479 0.1280194 -0.06180801 -0.0225029 -0.052861538 -0.1731873 -0.05256981
-0.11986955 -0.10382942 -0.13383111 -0.064596824 -0.088942274 -0.003317313 0.10916156 0.088883884
0.07432044 0.105230086 0.023150949 0.07178415 0.037021637 -0.067561336 0.13107966 0.11149444
0.08764521 0.091035336 0.064891204 0.014205116 0.06357411 0.013439465 -0.04877509 0.09084691
0.15295961 -0.13007654 -0.008771352 -0.07054523 -0.07631131 0.0879435 0.004637826 -0.05601871
0.034839723 -0.09526457 -0.14659825 0.0716091 -0.1510003 -0.08863163 0.113674745 0.042074718
0.033626966 0.06954797 0.07705169 -0.09625097 0.07232481 0.010041053 -0.06345303 -0.13796705
-0.059601985 0.0986537 0.07838529 0.015260306 -0.06508486 0.062789634 0.018275948 0.074321575
0.10372748 0.050924413 0.10974496 0.08683293 0.03884674 -0.13533022 -0.041503455 -0.052734114
-0.06276361 -0.061146773 -0.09007232 -0.02176906 0.023581455 -0.035030868 0.032154553 0.035078287
0.019862793 -0.06737815 -0.12655994 -0.055454917 0.06570517 0.06890566 0.094613686 -0.08926805
0.14832602 -0.049347233 -0.048966646 -0.05041853 0.036508393 -0.06280953 0.039938197 0.07111067
-0.08096545 -0.061361738 0.04752982 0.01853318 0.123011634 -0.07687255 0.102002606 -0.113862604
-0.016932156 0.0025392824 -0.083891034 0.12795126 -0.033294223 -0.06480764 0.06768605 0.09298166
0.1071516 0.048014633 0.14055653 0.101166494 0.08125274 0.08285746 0.11990402 0.0365362
-0.08899986 0.094201855 -0.036263328 -0.036447413 0.08284442 0.07976076 -0.0025166702 0.021912297
-0.021413906 0.10315328 0.104427926 0.11222222 0.008717447 0.12769154 0.07894505 0.006817414
0.11110467 0.12629126 -0.06298333 0.03442203 -0.0717733 -0.060277555 0.052793898 -0.1699453
0.09850731 -0.08709509 -0.005891958 -0.055957284 0.038685888 -0.029949054 0.08106912 -0.12609369
0.12777795 0.027485544 0.07546428 0.1654453 -0.049259417 -0.06264456 0.0060551045 0.08132766
0.09562336 0.11718615 0.05084921 -0.03692217 -0.019221444 -0.028584829 0.025127992 -0.09005421
-0.027062356 -0.03786015 0.01068814 -0.06713037 0.051010296 0.06417427 -0.030833626 -0.116695374
-0.03882731 0.019220198 -0.13976994 0.107725315 -0.06253861 -0.13221492 -0.06735599 0.013629051
0.01893348 -0.070399076 -0.1351532 0.12043504 0.111064866 -0.14186426 0.108840615 0.011118937

policy_fc1.bias f4 [64]
00000000: 26ec 48bc bfe7 913b 0532 7abb b341 053c
00000010: 7b4c 8dbb b2a4 94bc c38c aebc 24a9 36bc
00000020: 29d2 353b 1367 4bbc d32d ddbb b0dc bbbb
00000030: 5189 003b 91e7 6ebb 94e9 083c 7f24 543b
00000040: 6b16 56bc de11 f3bb 87c8 1fbc 1526 65bb
00000050: 35a3 35bc e4fc 9cbc de09 56ba c2fc 20bb
00000060: c366 203b 6708 a139 a86c 58bc d0af 5bba
00000070: d9aa c63b 7218 c9ba 5a22 c4bb 9566 13bc
00000080: e8e9 c7bb 2b8a 89bc 173b 94bc f650 933a
00000090: b4e2 bebc 99c0 08bc fd97 b6bb a205 1e3b
000000a0: 72e5 23bb 8e46 8e3a 93a8 3bbc 0056 cc3b
000000b0: 97d7 83bc c5d3 0a3c 4408 61bc 2a17 303b
000000c0: 9c27 b33a b252 8e39 bc75 f7bb 9049 b43b
000000d0: 2c9a 963b 276b 263a 0537 30bc 2cb7 59bc
000000e0: 697b 39bc e77c c8bc 0409 1d3b 2192 9dbc
000000f0: 68bd abbb 1a5c abbb 728e 5abb 1887 16bc
-0.012263333 0.004452675 -0.0038176787 0.00813334 -0.0043120957 -0.01814494 -0.021307355 -0.011148725
0.0027743673 -0.0124147115 -0.0067498474 -0.005733095 0.0019613097 -0.0036453942 0.008356471 0.0032370386
-0.013066868 -0.0074179014 -0.009752399 -0.0034965326 -0.011086275 -0.019163556 -0.00081649225 -0.0024564718
0.0024475313 0.00030714573 -0.013209499 -0.0008380385 0.006062847 -0.0015342368 -0.0059855403 -0.008996625
-0.006100882 -0.016789516 -0.018094582 0.0011239338 -0.02330146 -0.0083467 -0.0055723176 0.0024112244
-0.0025008586 0.0010854767 -0.011453765 0.006235838 -0.016094012 0.008473341 -0.013734881 0.0026869276
0.0013668421 0.00027145963 -0.007551877 0.0055019334 0.0045960154 0.00063483644 -0.010755305 -0.0132883005
-0.011320927 -0.02447362 0.0023961673 -0.019234719 -0.005241085 -0.005229485 -0.0033349064 -0.009187482

policy_fc2.weight f4 [32, 64]
00000000: 962f 58be e519 d53d 00fd 93be 1ab3 763e
00000010: 833d 973c 8292 5bbe 5e90 1e3e a2e3 ca3c
00000020: d13d 04be b6e8 2cbd ccc1 633e 5ef0 4fbe
00000030: dbe7 f8bd d9ce 28be 97dc 85be 9469 edbd
00000040: 2bc3 e43d bd7d dcbd 82e2 80be 0c38 3dbe
00000050: 24bb 243d 0a01 243e ec2a 1dbe a77a 163e
00000060: 9e3a 15be 142e 663d 5686 1c3e 17b2 9fbd
00000070: 76bc 3f3e 4dd6 52be 3d3e b2bc 2564 87bd
00000080: a8ac 7c3d a9f8 773d 48cf 993d a198 193d
00000090: 530a 693d 0d0e c13c 4b9e 303e 2260 54be
000000a0: c483 46be 174d 3dbd 6c5a 5f3e 4ebd 97bd
000000b0: 8250 443a b5e3 08be 5de6 f3bd dcc0 16be
000000c0: 091c 723d abec 703e ef52 7bbe fb96 1c3e
000000d0: 8780 813e 75cf 443e a88a 193e 99a7 b13d
000000e0: 4ec5 02bc 6a3b 373d f788 69be 5ffa f4bd
000000f0: 7790 b2bd 824e ca3c 78cb 4fbd d29c 4bbc
00000100: 8097 373e 3128 0cbe 681c 06be 5244 433e
00000110: d8a9 2e3e 2448 dbbd 3300 36be 174e 1dbd
00000120: b01e 173d ebaf 6abe cecd 073e 083d 6c3d
00000130: 981c 16bd ab9f 703e 11f8 17be 4ba9 0abe
00000140: 6ec5 babd dfc9 373e c882 703d 9cce 263d
00000150: 3be3 fabd 4175 073e e078 16bd 1df3 123d
00000160: 0344 5ebe 29af c43c faca f8bc 8866 643e
00000170: 4ca3 15be 7e0a bf3d 5c23 073e a064 873d
00000180: b789 323e 6e3f 74be f464 f1bc 16e3 2bbd
00000190: 1389 333c 17ae 2c3e 9c36 0b3e 494c a6bc
000001a0: 25d8 843e 92b7 993d 996f a03d 6999 743e
000001b0: d55d 09bd bb91 3dbe d9aa 213e 68af b53b
000001c0: 7f9c df3c 23a0 88bd 39d7 293d 4ce9 563e
000001d0: b905 1e3e b208 d03d d687 af3c 039d 30be
000001e0: 60b3 f13c 174e 1a3e e6cf 293e f0ca 7d3d
000001f0: 9e5e 2abe be25 fe3c 56e3 05bd 7d1b 0ebe
00000200: 2f47 2e3d 6540 e03d 4165 923d bcce 44bd
00000210: e32a 15bd f174 2bbd 3cbf 5ebd 281c bb3d
00000220: 5ebf 9c3d eee7 d6bd fb35 08be dcab 853e
00000230: 57fe 183e 3617 7bbe b876 053e 1b60 1d3e
00000240: 9242 693e 40a8 6a3d e27c 403e 298e 02be
00000250: 05ce aabd 9f11 063e 7d45 c83d 9d7e b93d
00000260: d954 3c3e 9a81 b93c 48eb 4c3e 7928 1e3e
00000270: f774 673e b693 55bd 4d20 513d 0593 80be
00000280: 3da5 ef3d e25b 5a3e 81c1 4ebe 9dd7 ccbd
00000290: 6d3f 6fbe 2773 b6bd 5bad 39be 0a5d 003e
000002a0: d1e3 0f3e dec7 c93c 180d 15bd e3b0 2abe
000002b0: 5755 1fbd e361 95bd 54d9 963d 3a0a 953c
000002c0: 79f8 3e3d 6b53 363c a706 173e 1667 243d
000002d0: 4475 653e 1d3f 34be a198 dd3d 8a4a d8bb
000002e0: 444b 983d 99cb 3e3e 5843 29be ccdb d83d
000002f0: c5ba ccbd b70e a2bd c218 113e f317 28bd
00000300: 1ad0 80bd a47b 6e3e 9137 14be b717 ea3d
00000310: 5839 60bd 0105 9ebb 7195 f53c fd10 183e
00000320: 3f32 5dbd ffb1 5e3e d805 e2bc 5a78 68be
00000330: c966 e13d a695 623d 3057 2bbe 30da 71be
00000340: 18b6 45be 19cb 96bd d9e9 b1bc ea67 3bbe
00000350: e7fa 103e 1599 293e 3b23 6c3e 8a5b 63be
00000360: 2ed5 b43d 871f 603e 769d 403d 22c6 b4bc
00000370: 82b3 5ebe d601 3c3e fed7 603e 3585 403e
00000380: a96b 84bd 8504 30bc a7b6 683e 2064 f7bd
00000390: 6429 4abe fd5b c53d a44e 603d c295 2bbe
000003a0: 5623 bbbd b736 4b3e f7e5 16be 42e1 1abe
000003b0: 0959 42bd fa17 17be 3d1f 8c3e c089 823e
000003c0: 1a54 803d 9e30 9cbd f9b8 6f3e 281e 00be
000003d0: 038a 6fbe 8a27 413d aced ee3d 70bf 233e
000003e0: cbbc 0b3e b32e 323e fd51 58be 5d7a 113d
000003f0: 46cb 4dbe 51bd 59be 58aa 8c3b 8679 e93d
-0.21111903 0.104053296 -0.2890396 0.2409176 0.018461948 -0.21442607 0.15484759 0.024766747
-0.12914206 -0.042214118 0.22241896 -0.20306537 -0.12153598 -0.16485156 -0.2614486 -0.11592403
0.11170038 -0.1076617 -0.25172812 -0.18478411 0.040217534 0.16016021 -0.15348405 0.14695226
-0.14573142 0.056196287 0.1528562 -0.0779764 0.18724236 -0.20589562 -0.021758193 -0.06610898
0.061688095 0.060539875 0.07510239 0.037499074 0.05689461 0.02356627 0.17247884 -0.20739797
-0.19386202 -0.046216097 0.21811837 -0.07409154 0.0007488803 -0.13368113 -0.11909173 -0.14722008
0.059108768 0.23527782 -0.24543355 0.1529197 0.2529337 0.19219764 0.149943 0.08674545
-0.007981611 0.044734396 -0.22806154 -0.11961817 -0.08718961 0.024695639 -0.050731152 -0.012427526
0.17928886 -0.13687207 -0.13096774 0.19069031 0.17056978 -0.10707119 -0.17773513 -0.03840455
0.0368945 -0.2291867 0.13262102 0.05767539 -0.036648363 0.23498408 -0.14840724 -0.13541143
-0.09119688 0.17948101 0.058718473 0.04072438 -0.12250372 0.13228323 -0.03673637 0.035876382
-0.21705632 0.024009304 -0.030370224 0.22304738 -0.14613074 0.09328173 0.13197082 0.066109896
0.17435347 -0.23852322 -0.029467084 -0.041964613 0.010957974 0.16863285 0.1359505 -0.020300047
0.25946155 0.075057164 0.078337856 0.23886646 -0.03353675 -0.18512623 0.1578783 0.0055445917
0.027296303 -0.06671169 0.041465018 0.20987433 0.1543187 0.101579085 0.021427076 -0.17247395
0.029504478 0.15068851 0.16583213 0.061961114 -0.16637656 0.031023856 -0.032687508 -0.13877673
0.042548355 0.10949782 0.07148219 -0.04804872 -0.036417853 -0.04185957 -0.054381594 0.0913623
0.07653688 -0.10493456 -0.13301842 0.2610768 0.14940773 -0.24520573 0.13033569 0.15368693
0.22779301 0.057289362 0.18797639 -0.12749542 -0.08340076 0.1309266 0.09778879 0.09057353
0.18391742 0.022644807 0.20011628 0.15445127 0.22603212 -0.05214282 0.051056195 -0.25112167
0.117014386 0.21324113 -0.20191003 -0.100020625 -0.23364039 -0.08908682 -0.18132536 0.12535492
0.14051749 0.024631437 -0.03638944 -0.1666904 -0.038899746 -0.07294061 0.07365671 0.018193353
0.04662368 0.011128287 0.14748631 0.040137373 0.22408015 -0.17602201 0.10820127 -0.0066006826
0.07436231 0.18632354 -0.16529596 0.10588798 -0.09996561 -0.07912963 0.141696 -0.041038465
-0.06289692 0.23289353 -0.14474322 0.114303045 -0.054742187 -0.004822374 0.029978486 0.1485023
-0.054002997 0.21747588 -0.027590677 -0.2270216 0.11005933 0.055318497 -0.16732478 -0.23618388
-0.19307745 -0.073629566 -0.021717953 -0.18301359 0.14158212 0.16562302 0.23060314 -0.22202888
0.08829723 0.21887027 0.047025166 -0.022067133 -0.21748164 0.18360075 0.21957394 0.18800814
-0.06465847 -0.010743265 0.22725926 -0.12079644 -0.19742352 0.09636686 0.054762498 -0.16756347
-0.09137599 0.19845091 -0.14736162 -0.15124992 -0.04744819 -0.1475524 0.27367583 0.2549572
0.06266041 -0.076264605 0.23410405 -0.12511504 -0.23392491 0.047156848 0.11666426 0.15990996
0.13646238 0.17400627 -0.21125026 0.035517085 -0.20097074 -0.21263625 0.0042927675 0.11400132

policy_fc2.bias f4 [32]
00000000: fa21 0c3c a95a 753c bb95 8ebb e229 2dbc
00000010: 62f2 37bc d827 ed3b 7bc9 6e3b f8e3 a73c
00000020: 226b 883b 041d ecbc e6aa 3d3c f0d5 5fbc
00000030: 591e 3a3c ca6e 5fbc 93bb 11bc ba7b 413b
00000040: fde6 e6bb bf8e 6ebc b56c a8bb a678 cd3c
00000050: 5a77 00bc 54f5 b03c d662 733c 2ce1 973b
00000060: d4cf 343c 8e5f 72bb 3c57 1fbc 8812 3f3a
00000070: fd5e e3bb 4178 063c e6bc 20bc d9b0 80b9
0.0085530225 0.014975228 -0.0043513454 -0.010569068 -0.011227222 0.0072374158 0.003643601 0.020494446
0.004163162 -0.02882243 0.01157639 -0.0136618465 0.0113597745 -0.013637254 -0.008894819 0.002952321
-0.007046579 -0.0145604005 -0.005139912 0.025081944 -0.007840956 0.021601357 0.014855107 0.004634997
0.011035878 -0.0036983225 -0.009725388 0.0007288833 -0.0069388137 0.008207382 -0.009810662 -0.00024545824

policy_fc3.weight f4 [51, 32]
00000000: 0b2a 55bd e8fc 5e3d dc8b a03d 01b5 683d
00000010: 3bac 123e ef83 5dbe 40d1 1b3e 192c 2b3e
00000020: 2053 91be e564 713c 2779 323d f99d 11bd
00000030: 5323 79bd 1f0e 3cbe b27e 82bc d378 16bd
00000040: cd46 a0bd 00e4 f6bc cb16 17ba d46e 0abe
00000050: 28e2 5a3d fc0a c93d 35d5 8cbd 34b3 453e
00000060: ca3e 5f3d 985a 7f3e cbb5 1e3e 5136 523d
00000070: 25fb 6dbe e3de 13be e07d ebbd b266 653e
00000080: 0b81 04be 333e 273e 7023 6c3d 8612 7abe
00000090: c157 c7bd d446 b43d cfb3 5ebd ce56 00be
000000a0: 4af0 4ebd 892e 4ebd fa31 073e bac7 6ebd
000000b0: d7f5 9cbe 1108 bb3c b378 ef3d ddd0 4c3e
000000c0: d477 9cbc 9d87 ff3d 887a 48be 08bf c2bc
000000d0: 4220 2fbe beae fe3d ec09 42be bbac ad3d
000000e0: 9b11 423e 529c 35be a025 82bd 30f0 eabc
000000f0: b854 3fbe e79d ef3d 6bc2 9bbd 1e8e bc3d
00000100: 0727 64be 4a9c fabd 2f7f af3d d866 0cbe
00000110: 7627 8b3e eef8 703e 51d5 2d3e 5227 963d
00000120: 81a6 c1bd a1db 17bd d786 493e c047 79be
00000130: b570 443e 7006 2c3e bc7d bf3d bfdb 8bbc
00000140: 4e23 833b 4716 9f3d 0dec 5f3d 8fbf ccbd
00000150: 9bef 40bd b697 4d3e b0a3 9ebd 7f5e 0b3e
00000160: e73b b3bd 6256 1d3e 05a0 003e 371b 0bbc
00000170: d386 11be 5d67 1c3e 6dc3 f6bd d55c 833d
00000180: 3f82 1bbd d759 c53c e7ce 073d 191a 14be
00000190: a42f 743e f48f 263e 9c87 603d ac1a 2ebe
000001a0: eaa0 84be 43a9 593c 9e6f f53c 1258 74be
000001b0: 76f5 a93d 594a 9a3d 57d6 7a3e edfc c2bd
000001c0: b60e 823e 27b8 463e 81d2 63bc b015 9fbd
000001d0: eb4e b0bc c33c 44be 8f55 313e 4c0a 5d3e
000001e0: be41 03bc b75b 42be 8f46 533e e59e e939
000001f0: 856b ef3d b59d f13d 4bf6 acbd b76b d6bd
00000200: df56 173e c7c5 1ebe c822 393e 39da 05be
00000210: 0b0f cfbd 2ead b83e ca67 0a3e 294b fb3c
00000220: 2ecb 00be bc35 833e bf2c 2a3e 7b5e 0c3e
00000230: cabd 713e 3d2e 87be 0320 4c3e aca9 8c3e
00000240: b08c 37bd 0bcb 07bc ea59 313e d874 8cbe
00000250: e0a6 76be 9adb 4f3d 6a7d dc3c 3504 e23c
00000260: 5fa2 25bc d36d 553e bdd5 873e cff4 f43d
00000270: 541d 3fbc fbc9 1fbe c0c6 12ba d55b 9abd
00000280: 0fc5 7bbd 169b 163e 7e42 82be 957b eebc
00000290: fad8 413e 8dd4 633d c58e 9f3e 8e69 7dbc
000002a0: 8115 833e 479d f03d a38c 673e 719d 1a3e
000002b0: 206c 94be 2c58 8bbe 35f1 4abc 4876 f3bd
000002c0: 0afc 8dbe 059c 6fbd 7958 43be 24bc 1bbe
000002d0: 7795 35be ddd9 e6bc 5c5c 503e fad9 d8ba
000002e0: 2a54 ce3d 60a3 11bd 7a1c 4cbd 785a 3b3e
000002f0: 9dc8 273e 6419 51be 34f0 a03d 9575 52be
00000300: 974e 45bd 4074 363e ce6c 4c3d 2c1a f13d
00000310: 6e50 7fbe 91c4 41be f01b bcbc 89b4 99be
00000320: 958c 1f3d f56d 51be 04fc 983d 66ac c1bc
00000330: c743 3ebe 73a4 dabc fc83 4b3e bef9 1a3e
00000340: 6dd4 0abc 3571 433e bc9c ba3d fbf8 c8bd
00000350: 306b 3bbe 2791 c1bd 26d6 233e dfbd 1e3c
00000360: 11af 193e ea13 25be 0256 80be 6115 253d
00000370: 0d33 2cbd 9cb2 63be 998a 85bd fa03 643e
00000380: 2315 2fbe 3d90 82b9 e374 483d 76fb 2b3e
00000390: eacf 1cbe 60a9 8fbd 7616 763d 41f3 373e
000003a0: f621 88bd c51a 323d 5ed6 38be 648b a73c
000003b0: 273f 413e 3830 91bd b876 b9bd 70d0 123d
000003c0: e44d d83c d03a b9bd ef05 943c c1d0 43be
000003d0: be66 26be 8b4f 34be c5d0 19be 79c7 0dbe
000003e0: 7426 8dbe a37c 4e3d da52 043e 13f5 ffbd
000003f0: edd3 bf3d ba72 75be 8096 533d abc9 eb3c
-0.05204205 0.05444041 0.07839176 0.056813244 0.14323513 -0.2163236 0.15216541 0.1671604
-0.28383732 0.014733528 0.04357257 -0.035551045 -0.060824703 -0.18364762 -0.015929554 -0.03673632
-0.07826004 -0.030138016 -0.0005763589 -0.1351884 0.053438336 0.09816548 -0.068766035 0.19306642
0.05450324 0.24936903 0.15499036 0.05132133 -0.23240335 -0.14440493 -0.11498618 0.22402456
-0.12939851 0.16332321 0.057650983 -0.24421129 -0.097335346 0.08802572 -0.054370698 -0.12533113
-0.050522126 -0.050337348 0.13202658 -0.058295943 -0.3065631 0.022830995 0.116929434 0.2000155
-0.019100107 0.12477038 -0.19577992 -0.023772731 -0.17102149 0.12435673 -0.18949097 0.08480211
0.18952028 -0.17735413 -0.06354833 -0.028678983 -0.18684661 0.11700039 -0.07605442 0.09206794
-0.22280513 -0.12236841 0.0856918 -0.13711107 0.27178544 0.23532459 0.16975905 0.073317185
-0.09455586 -0.03707469 0.19680344 -0.24343777 0.1918362 0.1679933 0.09350154 -0.017072557
0.0040020114 0.07767921 0.054668475 -0.099974744 -0.047103506 0.20077404 -0.07746065 0.13610266
-0.0875166 0.15364984 0.12561043 -0.008490375 -0.14211588 0.15273805 -0.12048993 0.06414191
-0.03796601 0.02409069 0.0331563 -0.1446308 0.23846298 0.16265851 0.054816827 -0.17002362
-0.25904018 0.013284984 0.02996045 -0.23861721 0.08298771 0.07533712 0.24495827 -0.09520898
0.2540185 0.19406186 -0.0139051685 -0.077678084 -0.021522006 -0.19163804 0.17317794 0.21585959
-0.00801128 -0.18980299 0.20632385 0.0004455961 0.116904296 0.11797658 -0.08445414 -0.10469764
0.14779232 -0.15505134 0.18079674 -0.13071527 -0.10110291 0.36069626 0.13516155 0.030675488
-0.12577507 0.25626934 0.16618632 0.13707916 0.23607555 -0.26402465 0.19934087 0.274732
-0.044811904 -0.008288155 0.17319456 -0.27432895 -0.24087095 0.050746538 0.02691527 0.027589897
-0.010109513 0.20842676 0.26530257 0.11960756 -0.011664707 -0.15604393 -0.0005599074 -0.07537047
-0.061467227 0.14707598 -0.25441355 -0.029111663 0.18930426 0.055622626 0.31163612 -0.015467061
0.25602344 0.11748748 0.22612242 0.15099122 -0.28988743 -0.27215707 -0.01238661 -0.11887795
-0.27731353 -0.0584984 -0.19076718 -0.15208489 -0.17732798 -0.028180057 0.20347732 -0.0016544454
0.10074647 -0.035556197 -0.049831845 0.1829623 0.16385122 -0.20419842 0.07858315 -0.20552666
-0.048170652 0.17817783 0.04990845 0.1177257 -0.24933025 -0.1892264 -0.02296254 -0.3002055
0.03895243 -0.20452102 0.07469943 -0.023641776 -0.18580543 -0.026689744 0.19874567 0.15134332
-0.008473498 0.19086154 0.09111926 -0.09813114 -0.18302608 -0.09451514 0.1599966 0.0096888235
0.15008189 -0.16120878 -0.2506562 0.04030359 -0.042040873 -0.22236103 -0.06520576 0.22267142
-0.17097907 -0.00024902998 0.048939597 0.16795143 -0.15313688 -0.070147276 0.060080014 0.17963888
-0.066471025 0.04348256 -0.18050525 0.020452209 0.18871747 -0.07089275 -0.09055847 0.035843313
0.026404329 -0.09044421 0.018069236 -0.19122602 -0.1625013 -0.17608468 -0.15021046 -0.13845624
-0.275684 0.05041183 0.1292223 -0.12497916 0.093665935 -0.23969546 0.0516572 0.028782686

policy_fc3.bias f4 [51]
00000000: 5d7d 083d 050d b3bc f15b 94bd 4638 3a3b
00000010: d4c7 ab3c 636a d83c 7f51 893b b694 353c
00000020: 5128 33bd b110 0a3c c426 233c 0464 8e3c
00000030: 2960 143d 21c6 823a f7ae 063d d5a1 193c
00000040: 0184 b23b 16f6 01bd fdba 703c 45d3 ccbc
00000050: 99ec 1d3c d079 d43c a9f5 8abc 39a1 4c3c
00000060: 90d8 ecbc 5e89 723c 70b9 a6bc c2fa 5eba
00000070: 13b6 313c 0e54 0a3d 4182 1abd b3b8 353c
00000080: 3a18 943b 1a3c c83b 2e49 c63a c553 6f3d
00000090: 5264 123c 6e08 afbc 6074 29ba 87cc d3bb
000000a0: 9a47 073c 9fc3 63bc 78d8 2c3c 6f3e 70bd
000000b0: 0a25 e7bc 1170 05bc 8465 cbbb 6ee2 193d
000000c0: 7797 68bc ea5e b5bc 355a 2a3c
0.03332268 -0.021856794 -0.07244099 0.002841489 0.020969309 0.026417917 0.0041906233 0.011082819
-0.04373962 0.008426831 0.009957973 0.017381676 0.036224518 0.000997726 0.032881703 0.009376963
0.005447865 -0.031728826 0.014693019 -0.025003085 0.009638929 0.025936991 -0.016962843 0.01248961
-0.028911859 0.014803259 -0.020352095 -0.0008505994 0.0108466325 0.033771567 -0.037721876 0.011091399
0.0045194896 0.0061106803 0.001512801 0.0584295 0.008935051 -0.021366324 -0.00064641796 -0.0064635905
0.008256817 -0.01390162 0.010549657 -0.05865329 -0.028215904 -0.0081443945 -0.00620717 0.037569456
-0.014196268 -0.022139985 0.010397484

value_fc1.weight f4 [64, 261]
00000000: 5caf a53d 40aa e53b 48f9 04be 5d02 f3bd
00000010: b01c fb3d 6ac4 bb3b 5529 773d 0681 6b3c
00000020: ccf2 2e3c 6d0f 1abe e85a 333d bd2a 03bc
00000030: 426a dfbd 448c 813d bd2c 01bd da16 a9bd
00000040: 093c a83d 0efb 0abe 53f5 b23d 7aa8 e83d
00000050: 9a07 a2bc c5da f53d aaef ebbd a3ca 70bd
00000060: 3a00 d43d d148 43bd ffa3 8cbd b80c b7bd
00000070: eb82 093e 6ba9 0f3d 0cc9 1a3d 3d73 3dbd
00000080: dae8 32bd 3976 8839 5e08 563d 5f9b 773c
00000090: 86fd 9abd fd8f e73d f8f1 f5bd 9a41 1a3e
000000a0: be27 ca3d ca63 0f3d 780a cfbd 27ea bf3d
000000b0: 90e9 7fbd fa93 7e3d aa25 1dbc 3ea3 103e
000000c0: 51ff 9fbd 8f66 52bd 1ed4 b1bd e7b8 c93d
000000d0: c5ee 1b3e ad94 cf3b 993f e3bd 0775 b5bc
000000e0: 694e 08bd 9f80 8c3b 8dbe b7bd 15b7 863d
000000f0: 1e3e c43d bf18 233d 9e19 923d e027 b6bb
00000100: 00cc 8bbb c9e5 dd3d ca3d aabc b2e3 9d3c
00000110: 4216 89bd 3df3 3bbd 45e4 41bd 3d6a 05bd
00000120: 6a87 27bd da1f 71bd a316 1cbe 5283 b8bd
00000130: 2fa3 17bd a0e8 4cbd 11c5 7cbd 506a d5bd
00000140: f51c 1cbd d316 093e 74e1 36be 1784 123d
00000150: 9d93 c4bd b35b b63d 497e c93d b333 2dbc
00000160: 4ff0 03bd cc23 afbd 0c92 27be 09de 75bd
00000170: aeeb 47bc a2be cbbd 1a62 30be 9e86 cabd
00000180: ee7c 70bd 5ddf 843b b96d 90bd 5af1 043e
00000190: 6b9f 01bd 1e17 cfbd 4fef da3d 77ed e83d
000001a0: ff87 f23d f3dd 31bd f8ba 2a3d 7259 0d3d
000001b0: 2bad f03d f963 923d cab6 713c f809 e53d
000001c0: 19b7 c7bd edfd 953d 203f 35bd c0c5 2a3e
000001d0: 2717 dbbb 173a 0cbd 9716 173e f81d efbc
000001e0: eac9 d6bc bcb5 743d 43d1 703d 12ae 013d
000001f0: bf2a b73d aea7 0a3e e5ba 583d 0742 12be
00000200: a5a1 aebc cfb4 e9bd c152 973d d783 a8bd
00000210: e121 b23d 1bd4 5d3d 7ad5 eabd de23 983d
00000220: 7fc0 df3c 6e61 d8bd a33a 7e3d cc1a 123e
00000230: 6b68 41be fc49 cc3d a92d 0fbd 714a 9a3d
00000240: 054e 2fbb 7627 023c 6a52 c3bd ca73 173c
00000250: fb38 d1bd 1416 c1bd d30c 9ebd f081 d63d
00000260: d9ba 6a3d ace0 61bd 785f eebd 2c41 033d
00000270: 3517 d8bd 32fb 2ebd 1827 20bd cba0 0abc
00000280: c9ef 9a3c 4b48 343d 7d36 19bd 9d2a 6c3d
00000290: fe6f 5dbb de9d 7ebd 3e20 d5bd b169 a7bd
000002a0: f8af 29bd f37c 893d 9c14 083e e2da 813c
000002b0: c262 cc3b c6c5 cb3d fd5e 21bd f133 da3d
000002c0: 5001 763d 8f75 39bd b3f9 f9bd fae7 043d
000002d0: c99c 093d 88d2 19bd 71b4 60bd 11b9 98bd
000002e0: 4d24 98bd c78c e4bd c3df 183d 7ef1 1dbd
000002f0: 17f9 aebd 8193 a43c a410 6c3d 40f8 9b3d
00000300: 5775 eebd 4cf9 d4bd 1948 9c3d 782e b83d
00000310: efe3 193d 4812 b0bc d5d5 e43d 47ee 02bd
00000320: 6215 213d f38b a53c 697b 89bd 0554 98bd
00000330: 6519 e8bc e269 303c f75a 21be 26d6 053e
00000340: 2cb3 acbd f7b7 b03a 597e 2ebc d770 ee3d
00000350: 81c5 01be e330 003e d4cf 6d3d ba57 f4bd
00000360: c6ac 91bd 0123 c53c 2756 84bd a22d 89bd
00000370: ab9c 053d 7501 70bd af10 303d c89c a63d
00000380: 9966 dcbd 572a 773d 6d80 a9bd cb1d d9bd
00000390: 8f37 0fbe 6a2a f6bd 0d93 02be 4308 c43d
000003a0: b3ce 00bd 5ee4 90bd 8013 27be 3846 bdbc
000003b0: 7104 0bbe a690 a1bd 049b db3d a456 88bd
000003c0: 61fd c83d d441 0f3d 91c1 8fbd cf88 03be
000003d0: 0e2b cebd 47ae 733d 0f56 023e 794c dbbd
000003e0: 8624 643d 8127 a83d 9a29 5c3d 9925 bdbd
000003f0: c6fa 7cbd 6be2 c83d e739 5d3d 17cc ebbd
0.08090088 0.007008821 -0.12985718 -0.11865685 0.12261331 0.0057302015 0.06034215 0.014374023
0.0106780045 -0.15044947 0.043787867 -0.008005795 -0.10908939 0.06325582 -0.031536806 -0.08256312
0.08214576 -0.13572332 0.08738198 0.11360259 -0.019779015 0.120046176 -0.11520322 -0.058787
0.10351606 -0.047676865 -0.06867217 -0.08937973 0.13428847 0.03507368 0.03778939 -0.046252478
-0.043679096 0.00026028024 0.052254073 0.015112727 -0.07567887 0.113067605 -0.120090425 0.15064088
0.098708615 0.035007276 -0.10109419 0.09370833 -0.062478602 0.06215284 -0.009591499 0.14124772
-0.078123696 -0.05136734 -0.08683036 0.098497204 0.15227802 0.006334862 -0.11096115 -0.02215053
-0.033277903 0.0042877938 -0.089718916 0.06577889 0.095821604 0.03981852 0.07133792 -0.0055589527
-0.004266262 0.10834844 -0.020781416 0.019273613 -0.066936985 -0.045886267 -0.047336835 -0.03257202
-0.040900625 -0.058868267 -0.1524301 -0.09009422 -0.03702086 -0.050026536 -0.061711375 -0.10420668
-0.038113553 0.13387613 -0.17859441 0.035770502 -0.095984675 0.08904209 0.0983854 -0.010571408
-0.032211598 -0.085517496 -0.16364306 -0.060026202 -0.0122021865 -0.0994847 -0.17224923 -0.098889574
-0.058712892 0.0040549473 -0.07052178 0.12982693 -0.031646173 -0.10111831 0.10690176 0.11373418
0.118423454 -0.043424558 0.041682214 0.03450913 0.11751779 0.071479745 0.014753053 0.11183542
-0.0975172 0.07323823 -0.044249654 0.16676998 -0.0066861096 -0.034235086 0.14754711 -0.029189095
-0.026219327 0.059743628 0.058793318 0.031660147 0.089437 0.13540527 0.05291261 -0.14283
-0.021317312 -0.114114396 0.07388831 -0.082282715 0.08697868 0.054157358 -0.11466499 0.07428716
0.027313469 -0.10565458 0.06206764 0.14268035 -0.18887489 0.09975049 -0.034955654 0.0753373
-0.0026749384 0.0079439785 -0.095372036 0.009243915 -0.10215946 -0.09428039 -0.0771729 0.10474002
0.057307098 -0.055145904 -0.11639303 0.032044575 -0.105513014 -0.042720027 -0.039099783 -0.008461188
0.018913167 0.044014256 -0.03740548 0.057657827 -0.0033788676 -0.062162273 -0.1040654 -0.08174456
-0.041427583 0.06713285 0.13289112 0.015851442 0.006237359 0.09949832 -0.03939723 0.10654438
0.060059845 -0.04527813 -0.122058295 0.032447793 0.033596788 -0.037554294 -0.054859582 -0.074571736
-0.07428799 -0.11159664 0.03732277 -0.038560383 -0.08543604 0.020089867 0.057633057 0.07615709
-0.116434745 -0.10399112 0.07630939 0.08993238 0.03757089 -0.021493092 0.11173598 -0.03196552
0.039327033 0.020208335 -0.06712992 -0.074379005 -0.028332422 0.010767432 -0.15757357 0.13069972
-0.08432612 0.001348256 -0.010650241 0.11642616 -0.12672998 0.12518649 0.05805953 -0.11930795
-0.07113032 0.024064543 -0.06461745 -0.06698157 0.032620113 -0.05859514 0.04298466 0.081353724
-0.107617564 0.060343113 -0.082764484 -0.10601386 -0.13986038 -0.120198086 -0.12751408 0.09571888
-0.031447124 -0.070748076 -0.16316032 -0.023104772 -0.13575913 -0.078889176 0.10722926 -0.066571504
0.09813953 0.034974888 -0.07019342 -0.12845157 -0.10066806 0.059492376 0.12728141 -0.107079454
0.055698894 0.0821066 0.05375061 -0.09235687 -0.061762594 0.09808811 0.054010298 -0.115135364

value_fc1.bias f4 [64]
00000000: 1bb4 f23a 02c1 6dba f84a 1d3d e91a 2e3c
00000010: 3b68 743c 0c57 d2bb 44ab cdba 051c 9ebb
00000020: d0a0 86bc 54a8 1d3d b70d 803b 3f5c de3b
00000030: 2e43 1fb9 41ac 38bc d46f 773c 7ff3 c3bb
00000040: c932 5d3c 3a2a b53c e80d 8bbb 93a5 aabc
00000050: 40e7 87bc 41fb 53bd 0521 433b 8d0a 98bc
00000060: 5ca7 adbc 1b1a cbbc 1ae7 a5bc fb57 3fbc
00000070: 5185 ecbc 454e 55bc 8d01 8abb 04af 2abc
00000080: 0a59 a03c 5cc6 e3bb 532c ce3c 8565 c9bc
00000090: 533d 303c 9e3a 473c 8f4b 83bc 45d2 84bc
000000a0: 7069 1c3c 7b29 b83b 7e7c e9bb 9169 8b3b
000000b0: c20a b83a e347 e0ba 9757 cfbb 3d23 8f3c
000000c0: 3552 05bd 18d3 933c 2e32 81bc 461f 9ebc
000000d0: f9bb b33b 4cf9 6f3b af38 ed3b 881f 9f3c
000000e0: c1d9 0c3d 469c 293b 5d89 253b 3dca 81bc
000000f0: 1023 bd3c d45c c73a 5dd3 a9bc 5197 0cbc
0.001851681 -0.0009069593 0.038401574 0.010626533 0.014917429 -0.006419068 -0.00156913 -0.0048251175
-0.016434103 0.03849061 0.003907885 0.006785899 -0.00015188448 -0.011271537 0.0151023455 -0.0059799547
0.013500878 0.022114862 -0.004243601 -0.020830905 -0.01658976 -0.051753286 0.002977432 -0.018559719
-0.021197967 -0.024792721 -0.0202518 -0.011678691 -0.028872164 -0.013019149 -0.0042116106 -0.010417704
0.019573707 -0.0069511365 0.02516762 -0.024584541 0.010756808 0.0121599715 -0.01602724 -0.016213546
0.009546623 0.005620179 -0.0071254363 0.004254528 0.0014041292 -0.0017111268 -0.00632758 0.017472858
-0.0325491 0.018044993 -0.015770998 -0.019302022 0.0054850546 0.0036617098 0.007239423 0.019424215
0.034387354 0.00258805 0.0025258877 -0.015843505 0.023088008 0.001521016 -0.020730669 -0.0085809985

value_fc2.weight f4 [32, 64]
00000000: b287 513e a583 d13c 1e22 213d ec26 85bd
00000010: f1dd d8bd 9626 ca3d 6074 103e 6773 353e
00000020: 7c80 68be 3585 08be 9f5a 333e ce15 043e
00000030: d496 52be bf19 7f3e 63f0 05bc 079b 6cbe
00000040: a552 813d b0a9 1c3d 8e7f d23d 8d92 28be
00000050: c907 233e 5dba fd3b b035 34be 09c9 b9bb
00000060: 4afe 633d 3d00 e73d 491b 69bb eaa1 2c3d
00000070: c590 773d 2b10 b73d 2782 3a3e ed1e 35be
00000080: 40e7 5bbd cc08 26be 7873 f4bd dfa6 3cbe
00000090: 152a 183e cc0e 68be cd88 323c 08dc 62bd
000000a0: e203 9d3a 1cbd 863d ceb4 b23d 7a96 223d
000000b0: 51e9 1f3e d299 6dbe c551 30be 7acf 303e
000000c0: 6bdb 8e3c 7c47 36be d7c1 25be 03da 5e3e
000000d0: d007 573e 8901 1d3e 2884 6b3d dd30 36be
000000e0: 09f3 293e 1d7a c93c beee 4a3e 0759 693e
000000f0: 5de7 443e a5bd 203e a2d8 7abe dc5b 9e3c
00000100: 3208 1fbe c9e5 50be 0356 e3bc 5eec 1f3e
00000110: 4e13 2fbe 651e 79be 77ab 36be b3f3 113c
00000120: c667 2b3d 9aed 873d 4052 b63d 8010 0c3e
00000130: 58a3 023e 0480 083c 47fc bdbd e448 b93c
00000140: 446f 35be 2f96 bcbd 9b13 a03d 0e49 d53d
00000150: eb96 ff3d ed21 e03d 77fe 63bd 0a65 163c
00000160: 398f 89be 48d0 2e3e 6687 92be fc54 503e
00000170: 9a94 2c3e f50a 953d bb91 3cbe abd6 ca3d
00000180: 1bba 413a aa7c e43d c585 0fbd 843e d73d
00000190: 9729 33be 194c 54be c602 2ebe fe3a 0fbd
000001a0: 8baa 203e ef05 a13d f8bf 96bc f8fb c9bc
000001b0: 39d2 6e3e 822f 8f3d c4ed 83be 8490 9bbd
000001c0: 53ee 483e 1f3b 90bd db9e a73d 37fe 21be
000001d0: 512a a73d 6380 5cbe a043 43be 7e4e 3b3e
000001e0: 4016 a6bd 6b4e a3bd 433f 673e 9b1c eabb
000001f0: 861d 5ebd bc37 1dbe 8dc9 8bbd 5d31 1f3e
00000200: 3c68 06be 6453 f6bd eb03 6e3e ec16 2fbd
00000210: d6ca 463e 76e8 6abe db53 2b3e d0f8 79be
00000220: 0302 d93d 3975 473d 32a7 4dbd f786 7dbd
00000230: 7285 ea3d efc2 73be 268f 5c3e 0569 32be
00000240: a6a3 f83d 7b9d 293e 3823 8e3d 1ca8 6dbe
00000250: eea2 333e eb87 b3bb 7f8f ddbd b3be 153e
00000260: c84b 683d 80b8 4ebe 27b7 2abd 2827 813d
00000270: 8ee6 13be 786e 683c 2f27 1a3e 6873 afbd
00000280: 7ac5 14be 794c 51be a445 15be 9e95 b23d
00000290: 73e7 4fbe 2eea a63d 87a8 7f3c a428 5d3c
000002a0: dba5 a5bc bf7e c93c 1e27 0f3c 4f68 dbbc
000002b0: 9639 a5bd 06ef d8bd f1c0 293e 85df 393e
000002c0: 90e4 423d 49e7 71bd 694d c3bd 8fd2 f2bc
000002d0: aeac 173e 220d b8bd 4d7d 74be 2924 8abc
000002e0: d9b3 a3bd 384d 753d a0fd 7cbe 2664 bebd
000002f0: 65ef d13d 3b9c 523e a7ee 8fbe f30a 973d
00000300: 5aa3 3fbe 3510 be3d 9515 75be 4066 87be
00000310: 7fbb 3cbb fd92 68bc 14e5 85be 6850 f3bd
00000320: 496c e93c 7d37 b4bd a847 683d 783a 00be
00000330: 41b5 883e 3478 193e c99c 8c3d 1045 56bc
00000340: 7b24 68be 9ce3 293e b7fa 7cbe 0211 85be
00000350: 1016 74be 2867 343e 47b4 463e c518 20bd
00000360: 25bc b93c 7fc7 22be 47d9 2a3d ac02 363d
00000370: 79c5 0d3e aed9 313e 7e9d 3ebd 5912 8fbd
00000380: d248 92bd 701c 25be e42e 043e e828 23be
00000390: 6015 3ebb 1867 0c3e e89a 0cbb 7c6a a83d
000003a0: 13f8 3f3e 7617 003e 5baf d93d 40d9 e8bd
000003b0: fe9e 73be 5d4c 1abe c7e9 1d3e 6f57 46bc
000003c0: 9a17 60be ae26 953d ecaf f43d 672b 1fbe
000003d0: 28e3 a73c 0fcc 533e c682 80be f4b1 70bd
000003e0: 8a67 a3bd fb89 82be c431 d8bb 3b0f eabd
000003f0: ff29 19be 3732 0abc b43d 1e3e 34d3 57bd
0.2046192 0.025575468 0.039339177 -0.065015644 -0.10589207 0.09870641 0.14106894 0.17719804
-0.22705263 -0.13332064 0.17515038 0.12898943 -0.20565349 0.24912165 -0.008174988 -0.23106013
0.06314591 0.038247764 0.102782354 -0.16462155 0.15920939 0.0077431635 -0.17598605 -0.005669717
0.05566243 0.11279342 -0.0035569242 0.0421466 0.060440797 0.08938631 0.18213712 -0.17687578
-0.053687334 -0.16214293 -0.119360864 -0.18423031 0.14859803 -0.22661895 0.010896874 -0.05538562
0.0011979307 0.065790385 0.08725892 0.039694287 0.15616347 -0.23203209 -0.17218693 0.17266646
0.017438611 -0.17800707 -0.16187225 0.21762852 0.20999074 0.15332617 0.05749908 -0.17792077
0.16596617 0.024594361 0.19817635 0.22787867 0.19228883 0.15697344 -0.24496701 0.019330911
-0.1553047 -0.20400156 -0.027750975 0.1561751 -0.17097208 -0.24328001 -0.17838846 0.0089082
0.041847013 0.06637116 0.08902407 0.13678169 0.12757623 0.008331303 -0.09276634 0.022617765
-0.17718226 -0.09208333 0.078162394 0.10414325 0.12479957 0.10943971 -0.0556626 0.009179363
-0.26867083 0.1707164 -0.28618926 0.20344919 0.16853562 0.072774805 -0.18414967 0.09904226
0.00073900976 0.1115659 -0.035039682 0.10509971 -0.17496334 -0.20732154 -0.16993245 -0.03496837
0.15690057 0.0786246 -0.018402085 -0.02465628 0.23322381 0.06991483 -0.25767338 -0.075959235
0.19622163 -0.070425265 0.08184596 -0.15819632 0.08162368 -0.2153335 -0.19068766 0.18291661
-0.081097126 -0.079739414 0.22582726 -0.0071445233 -0.054227374 -0.15353292 -0.06825552 0.15546174
-0.131257 -0.12027624 0.23243682 -0.04274647 0.19413313 -0.2294024 0.16731207 -0.2441132
0.10596087 0.048695777 -0.050208278 -0.06189629 0.11451234 -0.2380483 0.21538982 -0.17422874
0.121405885 0.1656398 0.06940311 -0.2320866 0.17542621 -0.005478849 -0.10818385 0.14623527
0.056712896 -0.20187569 -0.041678574 0.063062966 -0.14443418 0.014186494 0.1505401 -0.08566934
-0.14528456 -0.20439328 -0.14577347 0.087199435 -0.20303135 0.08150135 0.015604145 0.013498459
-0.020220688 0.02459657 0.008737354 -0.026783137 -0.08067624 -0.10592465 0.16577508 0.18151672
0.047581255 -0.05905846 -0.09536249 -0.029641418 0.14811966 -0.0898688 -0.23875923 -0.016862946
-0.079932876 0.059888095 -0.24706125 -0.092964455 0.10250739 0.2056741 -0.28111765 0.07375135
-0.18714657 0.09280435 -0.23934014 -0.26445198 -0.002879828 -0.014195201 -0.26151335 -0.11880571
0.028494017 -0.08799646 0.05670896 -0.12522304 0.26700786 0.1498726 0.06865842 -0.013077989
-0.22670166 0.16590732 -0.24705015 -0.25989538 -0.23836541 0.17617476 0.19404708 -0.039086122
0.022672722 -0.15896414 0.041711118 0.04443614 0.13844861 0.17368194 -0.046536915 -0.069859214
-0.071427956 -0.1612413 0.12908512 -0.15933573 -0.002900444 0.13711202 -0.0021454636 0.08223435
0.18746977 0.1250895 0.106291495 -0.11369562 -0.2379112 -0.15068193 0.1542121 -0.012105807
-0.21884003 0.07282768 0.11947617 -0.155439 0.020494059 0.20683311 -0.25099772 -0.05876346
-0.07978733 -0.25495896 -0.0065977294 -0.11428686 -0.14957426 -0.008434824 0.15453225 -0.052691653

value_fc2.bias f4 [32]
00000000: 1b81 0b3b 3601 98ba 270e 063c fb7a 8bbc
00000010: 94c9 0e3c 6ce4 9c3c 4bbe c13a 9999 85bc
00000020: 7360 cfbc 05c5 df3c d365 213b 47a2 113c
00000030: 0711 b53c 6976 5a3c ad92 c93c 51a9 b43c
00000040: 5326 433d e7f4 483d 1809 f7bc b334 943c
00000050: efac 64bc fb64 a83c 7848 6e3c 50a5 ebbc
00000060: 704a dd3b 4428 abbc 08f8 123d 592e 30bd
00000070: 33e5 f73c 78fd 333c 48c4 fbbc 20e5 1f3d
0.002128667 -0.001159704 0.008182085 -0.017026415 0.008715052 0.019151889 0.0014781443 -0.016308593
-0.025314545 0.027315626 0.0024627342 0.008888788 0.022102846 0.013333895 0.024606073 0.022053393
0.04764397 0.049061682 -0.030155703 0.018091535 -0.013957246 0.020555964 0.014543645 -0.02876535
0.0067532584 -0.020893224 0.035881072 -0.04301295 0.030260658 0.010985725 -0.030733243 0.03903687

value_fc3.weight f4 [1, 32]
00000000: 4475 0f3e 8273 babe 1e07 38be 54f3 b13c
00000010: 546e 8e3e 454c b73e 1281 253e 2ed6 6dbe
00000020: db4d acbe ad20 b83c 2035 c4be dbb7 11be
00000030: 9944 013f 6714 a6be 99de 033f 6651 5fbe
00000040: 9598 273f 600a 51be 223e b6be d991 4f3e
00000050: cd3c c0be 00a6 f83d a775 823e 24cb 51be
00000060: 6a42 78be b059 47be b86c 993e 9995 0abd
00000070: 5703 cf3e 3ae2 8a3e ae26 763c 03f1 643e
0.14009577 -0.3641625 -0.17971465 0.021722473 0.2781855 0.35800377 0.16162518 -0.23226234
-0.3365315 0.022476519 -0.3832178 -0.14230292 0.50495297 -0.3243744 0.5151153 -0.21808395
0.65467197 -0.20414114 -0.3559428 0.2027048 -0.37546387 0.12141037 0.25480387 -0.20487648
-0.24244085 -0.19467807 0.29965758 -0.033834074 0.40432236 0.27125722 0.01502387 0.22357564
