rl/spin_model_11282100/21.pt (torch_old, 159601 bytes, 12 tensors)

log_std f4 [51]
000000 c3 e5 19 bd 8a 46 2c 3d 98 bd e4 3c fc 7e 9e 3d
       -0.037572633 0.04205946 0.027922437 0.07739064
000010 e8 df 6e 3d cd 3a 93 3d 30 95 fd 3d fe 91 81 3d
       0.058319002 0.0718895 0.12381971 0.06326674
000020 b2 a7 24 3e 2b 6a f1 3d c7 3b a8 3d 6d 8e 8b 3d
       0.16079596 0.11787828 0.082145266 0.06814275
000030 f7 a8 cc 3d 14 73 c2 3d 10 7d 1f 3e 18 3e f8 3d
       0.09993165 0.09494606 0.15575051 0.121212184
000040 74 74 a8 3d 20 ae 81 3d d0 80 1d 3d 5d 63 7b 3d
       0.08225337 0.0633204 0.038452923 0.061374057
000050 4a 61 a7 3d 77 b1 4b 3d 8d 43 bc 3d de 98 d2 3d
       0.08172853 0.04972979 0.09192572 0.10283063
000060 e9 f6 2f 3e df 33 f1 3c ab c4 8b 3d 11 85 d8 3c
       0.17184032 0.02944368 0.06824621 0.026430639
000070 ab 74 b1 3d 5f ca 79 3c bf 58 a9 3c 6c 94 fb 3d
       0.08664831 0.015246003 0.0206722 0.122841686
000080 85 d9 90 3d e2 92 f4 3b 61 53 86 3d ea 76 7e 3d
       0.070727386 0.007463799 0.06558872 0.062125124
000090 36 32 43 3e 40 ac 25 3e d1 ed c9 3d b8 10 19 3b
       0.19062123 0.1617899 0.09859813 0.0023355912
0000a0 66 7b d2 3d 40 d0 37 3d 36 1e 56 3d 84 2e 81 3d
       0.10277443 0.044876337 0.052274905 0.063077
0000b0 c4 54 d5 3d 92 23 c0 3d 95 3c 8e 3d 36 fc ea 3d
       0.104165584 0.093817845 0.06945149 0.11473887
0000c0 ff 16 9d 3d 9e f3 19 3e 51 30 c5 3d
       0.07670402 0.15034339 0.09628356

policy_fc1.weight f4 [64, 261]
000000 ad 05 8f 3d 80 28 c7 bd ae 97 cc bd 5d 8d 05 3e
       0.069835044 -0.09724522 -0.09989868 0.13042207
000010 70 e8 84 bd ba dc 81 bd bc eb ca 3d 39 05 cd 3c
       -0.064896464 -0.063409284 0.09908244 0.025026904
000020 7b 23 04 3e 3a bb a2 bd cb 6c 71 bd 90 92 84 bc
       0.1290416 -0.07945867 -0.058941644 -0.016183168
000030 ea 2e f1 3d 02 22 0f 3e 9e 1d 86 bb 2c 5b c0 bd
       0.11776526 0.13977817 -0.004092886 -0.0939239
000040 22 18 cc 3c e8 6a 22 bd 03 17 c2 3a 3c 79 19 3e
       0.024913851 -0.039652735 0.0014807883 0.14987653
000050 76 98 5e bd f6 d3 0a be 5a df e4 3d 94 f0 82 3d
       -0.054344617 -0.13557419 0.111754134 0.06393543
000060 17 c6 0a be d4 0b a3 3c 44 be a5 bd c7 6e bf bd
       -0.13552128 0.019903101 -0.08092931 -0.09347301
000070 2e 5b db 3d a7 f1 fe 3c e0 13 02 bc ed b6 ca 3c
       0.107107505 0.031121088 -0.007939309 0.024745429
000080 2c 94 0a be a8 d0 b9 3d 98 dc d1 3d f8 08 c5 3d
       -0.13533086 0.09073001 0.10247153 0.09620851
000090 a7 6c b0 bd 71 12 a2 bd b0 63 fd 3c 30 6c 89 bd
       -0.08614474 -0.07913674 0.030931324 -0.06710088
0000a0 69 a9 8e bd 9a 5d ad bd de cb 0d 3e 3a ec 29 3d
       -0.06965906 -0.08465119 0.138473 0.04148505
0000b0 2c 02 34 bd e5 13 14 3e 56 97 b3 bd 0e 64 0b 3c
       -0.043947384 0.14460714 -0.087690994 0.008507742
0000c0 8f 1a c2 3d 30 93 8b 3d a4 b7 00 3c 2f 97 7e bd
       0.09477722 0.06815183 0.007856283 -0.0621559
0000d0 74 16 06 be 76 7c 94 3d 55 a5 23 bd e9 7b 04 3d
       -0.13094503 0.072503015 -0.039952595 0.032344732
0000e0 84 02 73 bc ae a0 d3 bd 92 18 7f 3d c2 f3 05 be
       -0.014832143 -0.103333816 0.06227929 -0.13081267
0000f0 4e d2 c8 bd 0b 6e 6f bd 5e ce 70 bd 10 d4 a3 3d
       -0.098057374 -0.058454555 -0.058790557 0.07999432
000100 ee 2a fd 3d 78 a8 b1 bd b0 14 0d 3e 0e 6d 6e bd
       0.12361704 -0.08674711 0.13777423 -0.05820947
000110 1d b1 8c 3c d5 b0 98 bd 63 86 60 be 19 b8 88 bd
       0.017174298 -0.07455603 -0.21926264 -0.06675739
000120 8e 1a 91 bd 84 eb ec bd f7 cd dd bd e6 a1 7e bd
       -0.07085143 -0.115683585 -0.108303 -0.062166117
000130 c7 3c 8e bd c0 91 78 bc 3a ec 09 3e 13 03 bb 3d
       -0.06945186 -0.015171468 0.1346902 0.09131446
000140 e9 1f c0 3d b3 06 cd 3d c2 9b a7 3c b9 03 b7 3d
       0.093810864 0.100110434 0.020460013 0.08936257
000150 9e f7 dc 3a d4 26 9c bd 8e 45 02 3e f4 87 fc 3d
       0.0016858464 -0.076245934 0.12721846 0.123306185
000160 92 c9 e1 3c f4 cc aa 3d 17 a7 a5 3d 6b 83 ba bb
       0.027561937 0.08339873 0.080885105 -0.005691936
000170 a7 4e d9 3c 02 26 be 3b 8e 45 06 bd 21 4e 91 3d
       0.026526762 0.0058028707 -0.032781176 0.0709498
000180 7d 63 ed 3d 7f f0 0c be 21 2a 8a bc 5d ad 5e bd
       0.115912415 -0.13763617 -0.016865792 -0.05436455
000190 28 2e 9b bd 85 ef a2 3d 20 dd b2 bb 81 3f a6 bd
       -0.07577163 0.07955841 -0.005458489 -0.08117581
0001a0 57 a5 04 3d 3b 78 d3 bd f9 ba 15 be 87 c6 6d 3d
       0.032384243 -0.103256665 -0.14622106 0.05805066
0001b0 9a cc ed bd 9f 9e c4 bd e0 13 fe 3d 1d b6 d3 3c
       -0.1161129 -0.09600567 0.124061346 0.025843674
0001c0 1f 97 1d 3d 4f 2e 74 3d 2b 86 92 3d a9 a9 c0 bd
       0.0384742 0.059614476 0.07154497 -0.0940736
0001d0 d0 cd 87 3d fa 49 5f 3b 6d 51 9d bd 41 a0 f9 bd
       0.066310525 0.0034071193 -0.07681546 -0.12188769
0001e0 e3 b5 ae bd ef 8e b9 3d 42 88 8f 3d 53 74 44 3d
       -0.08530786 0.090604655 0.07008411 0.047962498
0001f0 69 f2 a8 bd ea 45 59 3d a5 54 e3 ba 7c 9d 5d 3d
       -0.08249361 0.05304519 -0.0017343952 0.054105267
000200 22 2b f8 3d f7 7f 29 3d 34 af e5 3d 88 f8 84 3d
       0.12117602 0.041381802 0.11215058 0.06492716
000210 40 df fd 3c e0 1d 0e be c7 4a 21 bd 7c 7a 56 bd
       0.030990243 -0.13878584 -0.039377954 -0.052362904
000220 15 fd ad bd 86 90 8d bd 4e f1 9d bd 89 b9 14 bd
       -0.08495537 -0.06912331 -0.07712041 -0.036309753
000230 f9 1a 91 bb 12 ac e9 bc 28 47 fe 3c 5c fb 7c 3d
       -0.004428264 -0.028524432 0.03103979 0.061763152
000240 de 7a 3c 3b 35 b0 8f bd b6 8f d3 bd 05 99 8c bd
       0.0028759758 -0.07016031 -0.10330145 -0.06865124
000250 da 5a 3d 3d 61 46 a2 3d 19 50 bd 3d 15 77 eb bd
       0.04622922 0.0792358 0.09243793 -0.114973225
000260 00 53 02 3e 2e d7 42 bd 1f 33 9a bd 6c 29 93 bd
       0.12726974 -0.047568493 -0.07529282 -0.07185635
000270 96 1e 7c 3d a6 dc 80 bd 47 6d 81 3d 6d 43 67 3d
       0.061552607 -0.06292085 0.06319671 0.056460787
000280 b0 14 a0 bd 44 15 35 bd 82 00 4b 3c 38 76 8b 3c
       -0.07816446 -0.044209734 0.012390258 0.017024145
000290 9f b8 10 3e 08 c6 e8 bd c2 6e cf 3d 42 9d bf bd
       0.14132927 -0.113658965 0.10128547 -0.093561664
0002a0 e8 61 ca bb 02 b7 ba 3a cb 35 6a bd 50 10 1e 3e
       -0.006176222 0.0014245214 -0.057180207 0.1543591
0002b0 32 6a 16 bd aa b4 2a bd f1 d7 d4 3d 29 03 bd 3d
       -0.03672237 -0.0416762 0.1039275 0.092291184
0002c0 60 92 06 3e a6 6a 98 3d 5d 6b 0c 3e fc 8f fe 3d
       0.13141775 0.074422166 0.13712831 0.124298066
0002d0 bb 74 ef 3d 4d a0 9b 3d e8 ed 11 3e c5 48 5b 3d
       0.116921864 0.07598934 0.1425091 0.053536195
0002e0 1b 28 ce bd 5b 6c ee 3d 26 5c 13 bd f2 b6 39 bd
       -0.10066243 0.11641761 -0.03597655 -0.045340486
0002f0 97 24 e4 3d c1 6e d9 3d 4a cc c2 bb d8 7f 38 3d
       0.111397915 0.10616828 -0.0059447633 0.045043796
000300 fe e3 1b 3c c1 b0 d4 3d 28 0d 07 3e 32 df 01 3e
       0.009514807 0.10385276 0.13188612 0.12682799
000310 84 60 51 3a 7b e3 1c 3e df 07 bb 3d 51 2a 38 bc
       0.0007987099 0.15321152 0.09132361 -0.011240558
000320 06 be 0f 3e c0 18 18 3e a2 cc c1 bb 1a 13 8f bb
       0.14037332 0.14853191 -0.0059142867 -0.0043662908
000330 e5 72 66 bd 51 5a 10 bd 41 08 8e 3d a1 b5 1d be
       -0.056261916 -0.035242382 0.06935168 -0.15401317
000340 ff 0e d6 3d 87 2f 7a bd 73 1f 03 3d cd 0e d6 bd
       0.10452079 -0.06108048 0.032012414 -0.10452042
000350 66 89 52 3d fc 56 02 3c 01 25 05 3d 4d 33 e8 bd
       0.051400565 0.007955309 0.032505993 -0.1133791
000360 86 21 11 3e 1a 5f ef 3c 77 bc 75 3d 0c f2 3d 3e
       0.14172944 0.029220153 0.059994187 0.18549365
000370 71 79 4b bd 52 42 99 bd d1 b3 bc 3c 34 1a b3 3d
       -0.049676362 -0.07483353 0.023034962 0.08745232
000380 92 d3 ae 3d d8 62 09 3e 66 5d 69 3d 0c 41 41 bd
       0.085364476 0.13416612 0.056973837 -0.047181174
000390 8d 08 b9 3b 34 5e a0 3b 0e ea 82 3b c7 9e 9c bd
       0.0056467713 0.0048940424 0.0039951866 -0.07647472
0003a0 2a ff 93 bb 9d 42 8f bd 0d 48 6a 3c 1e 58 64 bd
       -0.004516502 -0.06995127 0.014299405 -0.055748098
0003b0 27 cb d4 3c be d1 58 3d c6 b1 5d bb 58 0f 28 be
       0.025975777 0.0529344 -0.0033827885 -0.16412103
0003c0 f0 c8 3f bd 6a d2 61 3d c9 dd 41 be e6 8f d5 3d
       -0.04682249 0.055132307 -0.1893226 0.10427837
0003d0 b7 57 f8 bc 41 07 30 be f9 08 9e bd 56 38 54 3d
       -0.030315263 -0.17190267 -0.07716555 0.05181154
0003e0 67 f5 7e bc 3d e0 87 bd f7 28 f9 bd 7d f2 ba 3d
       -0.015561438 -0.06634567 -0.121660165 0.09128282
0003f0 16 b2 e6 3d 92 14 15 be b8 41 7c 3d 55 f8 b5 3c
       0.11264436 -0.14558628 0.06158611 0.02221314

policy_fc1.bias f4 [64]
000000 58 25 a1 bc d8 ad 6e 3c 45 f9 02 bc 8b c0 04 3c
       -0.019671127 0.014567815 -0.007994001 0.008102546
000010 42 51 e7 bb 1c 6d 1e bd ad 12 20 bd 15 2a c9 ba
       -0.0070592472 -0.038678274 -0.03908031 -0.0015347624
000020 cb 60 a5 bb 9c 5b e9 3b b9 79 b0 bb 51 42 1a bc
       -0.005046939 0.0071215164 -0.005385604 -0.009415225
000030 ee 22 d6 bb 8d 1f cd bb 52 3c 8c bb 74 e1 08 bc
       -0.0065349257 -0.0062598647 -0.0042796517 -0.008354533
000040 06 eb e0 bc fb 23 87 ba c9 4e 1c bc 39 ed cb bb
       -0.027455818 -0.0010310406 -0.009540268 -0.0062233475
000050 89 bf 9d bc 08 ad e1 bc 3a f7 4d bc 13 1d 1f bc
       -0.01925637 -0.027548328 -0.01257115 -0.009711522
000060 6a 43 32 ba d2 1a f2 bb 35 7e 44 bc c8 e1 8e bb
       -0.00068002066 -0.007388451 -0.011992981 -0.0043604113
000070 15 17 39 3c 9a 62 f4 b9 d7 74 27 bc dc 59 8e bc
       0.011297007 -0.0004661277 -0.010220728 -0.017376833
000080 2b d6 29 3c d2 05 de ba 13 b8 88 bc e2 dc 3e ba
       0.010366003 -0.001693899 -0.016689336 -0.0007280839
000090 32 a4 8e bc 25 50 10 bc 40 f6 8e bc af cf 2a 39
       -0.017412279 -0.00880817 -0.017451406 0.00016289832
0000a0 1c f8 0b bc 09 bd 33 3a 95 a9 8c bc 6e fe aa bb
       -0.008543041 0.00068564765 -0.017170707 -0.0052183187
0000b0 57 2e 31 bc 2b f9 bf ba d7 b8 cb bc 8e c3 d2 3b
       -0.010814271 -0.0014646401 -0.024868412 0.0064320033
0000c0 a7 7b 26 3b f7 b8 c2 bb 6f 2e cf 3b cf 74 99 3b
       0.0025403292 -0.0059424597 0.006322674 0.004683114
0000d0 19 0b 4a bc 74 5a 1b bc fb 88 9f bc 69 53 86 bc
       -0.012331747 -0.009482015 -0.019474497 -0.016397195
0000e0 87 30 e1 bc 2c b9 ad bc e1 29 34 bc 26 1c dc bb
       -0.02748896 -0.02120646 -0.010996313 -0.0067172227
0000f0 a6 00 9b bc ef 4d ec ba 5e 8f 6e 3b 39 e0 78 bc
       -0.018921208 -0.0018028597 0.0036401371 -0.015190178

policy_fc2.weight f4 [32, 64]
000000 ba 5d 59 be 15 fd cd 3d 93 16 9a be 0a 9f 67 3e
       -0.2122716 0.10058037 -0.30095348 0.22619262
000010 21 f7 e6 3c c3 bf 56 be 3c 18 00 3e c7 31 5f 3d
       0.028194012 -0.20971589 0.12509245 0.05449083
000020 ff d9 ec bd 1c 83 9f bc f8 3a 5f 3e ac b5 36 be
       -0.11565017 -0.019471698 0.21799839 -0.1784274
000030 5f e7 be bd fa 28 0f be 00 df 68 be 61 3b cf bd
       -0.09321474 -0.13980475 -0.22741318 -0.101187475
000040 80 22 08 3e 02 4a e5 bd c8 a4 71 be 63 f5 1f be
       0.1329441 -0.111957565 -0.23598015 -0.15620951
000050 48 d3 88 3d b8 f0 1f 3e f8 00 2c be 4a 35 23 3e
       0.06680924 0.1561917 -0.16797245 0.15938297
000060 24 fe 16 be fe 56 8d 3d 19 96 3a 3e 11 f4 67 bd
       -0.14745384 0.06901358 0.1822132 -0.056629244
000070 00 54 54 3e 02 e3 34 be fb 5c ba bc bf 43 bc bd
       0.20735168 -0.17664722 -0.022749415 -0.09192609
000080 b6 95 c6 3d 39 01 cd 3d 96 31 ed 3d fa 08 8e 3c
       0.09696524 0.10009999 0.115817234 0.017338265
000090 4a 63 85 3d 88 35 bd 3c 6a 22 3b 3e 05 25 1e be
       0.065130785 0.023096815 0.18274847 -0.1544381
0000a0 58 74 49 be fa 5e 3a bd ae be 4e 3e b0 7f 6d bd
       -0.19673288 -0.045500733 0.20189926 -0.0579831
0000b0 79 1f 82 3c 2b 66 f1 bd 19 68 d5 bd 16 0d 0f be
       0.015884148 -0.11787065 -0.10420246 -0.13969836
0000c0 fd fb 2a bc 9a 06 85 3e 5e 2e 73 be 28 c3 1e 3e
       -0.010436055 0.259816 -0.23748156 0.15504134
0000d0 44 6f 90 3e f3 73 40 3e 7b 9c f3 3d 87 49 bc 3d
       0.2820989 0.18794231 0.11895081 0.09193712
0000e0 6c fa a4 bc 63 dd 6c 3d 65 30 66 be 80 12 ef bd
       -0.020138942 0.05782832 -0.22479399 -0.116734505
0000f0 c2 dc c4 bd 25 73 e0 3c f8 b1 7d bd 59 f7 d8 bc
       -0.09612419 0.027398655 -0.061937302 -0.026485132
000100 82 cb 2c 3e 84 6c 13 be 90 4c e6 bd 75 22 49 3e
       0.16874507 -0.14396864 -0.11245072 0.1964205
000110 b5 0e 1d 3e 3d 28 f4 bd f3 2c 10 be 13 f4 73 bd
       0.15337642 -0.11921737 -0.14079647 -0.05955894
000120 81 4b 53 3d 58 1a 7a be a0 b1 d7 3d a8 51 01 3d
       0.051585678 -0.24424112 0.10531926 0.031572014
000130 cc 09 7d bd 50 18 5e 3e 10 7b d3 bd 06 34 ed bd
       -0.06177692 0.21688962 -0.10326207 -0.11582188
000140 62 1c 4f bd ac 47 3d 3e d8 2d bc 3d 53 f6 74 3c
       -0.050564177 0.18484372 0.091884315 0.014951306
000150 31 17 05 be bc 8f 0d 3e 46 aa 42 bd 95 bb 5e 3d
       -0.12997128 0.13824362 -0.047525667 0.05437811
000160 ff f9 4e be de e3 17 bc 31 6f 58 bc 45 2c 5c 3e
       -0.20212553 -0.009270636 -0.013210104 0.21501262
000170 07 df 31 be 26 3f d7 3d 90 7e 12 3e e7 9a 91 3d
       -0.17370234 0.105100915 0.14306092 0.071096234
000180 09 04 49 3e 0e 3a 69 be 44 63 70 bd 65 70 1b bd
       0.19630446 -0.22776052 -0.058688417 -0.037948985
000190 f3 a4 f2 3c 2c de 2d 3e f9 64 3d 3e 99 1d fc bc
       0.02961967 0.16979283 0.1849555 -0.030775832
0001a0 da 71 75 3e 6c 99 7b 3d f2 f1 3b 3d ca 84 58 3e
       0.23969212 0.06142561 0.045885034 0.21144405
0001b0 c6 81 06 bd b5 42 33 be 47 13 3d 3e 52 d5 2c bc
       -0.032838605 -0.17505915 0.18464385 -0.010548906
0001c0 46 6b db 3c ca 03 83 bd 59 da 36 3d f4 76 4b 3e
       0.02678455 -0.06397207 0.044641826 0.19869596
0001d0 f5 25 00 3e 2b f8 a9 3d fb 1a 32 3c 0d 56 3e be
       0.1251448 0.082992874 0.01087069 -0.18587513
0001e0 01 bd 49 b9 d5 47 2d 3e 12 07 df 3d b9 20 8b 3d
       -0.00019239263 0.16921933 0.108900204 0.06793351
0001f0 83 06 29 be b4 5b a7 3c 5c c0 83 bc 0e ca 27 be
       -0.1650639 0.02042947 -0.016082935 -0.16385671
000200 b6 ed 1a 3d 26 19 01 3e 94 24 9a 3d 7b d3 20 bd
       0.037824355 0.1260725 0.07526508 -0.039264183
000210 f4 90 79 bd a4 94 22 bd ad b7 5c bd 30 a0 bf 3d
       -0.060929254 -0.039692536 -0.053886104 0.09356725
000220 4b 50 d2 3d e1 07 ad bd 98 c2 0c be 9a 58 8e 3e
       0.10269221 -0.084487684 -0.13746107 0.27801973
000230 55 d9 fb 3d ea ab 87 be b1 5c 0f 3e 81 19 25 3e
       0.12297312 -0.26498348 0.14000203 0.1612301
000240 1e 3d 75 3e 73 77 9d 3c cf 6a 0d 3e 5a fa 1b be
       0.23949096 0.019221997 0.13810275 -0.1523222
000250 25 24 b5 bd b4 b8 0e 3e 84 b6 de 3d aa 6e 79 3d
       -0.08844785 0.13937646 0.10874656 0.060896553
000260 cb 9f 2d 3e 31 3f 21 3d 0f 7d 4f 3e 39 7f 31 3e
       0.16955487 0.039366905 0.2026255 0.17333688
000270 de 7f 5a 3e 50 08 97 bd c6 be dc 3d e4 ba 80 be
       0.2133784 -0.07374632 0.10778575 -0.25142586
000280 78 03 c0 3d 74 b3 43 3e ae eb 4e be 00 19 02 be
       0.093756616 0.19111425 -0.20207092 -0.12704849
000290 e2 b5 7d be a1 ac ca bd 42 ec 21 be 92 ab 17 3e
       -0.24776414 -0.098962076 -0.15812781 0.14811543
0002a0 44 2e 1a 3e 96 cc 2a 3d d7 4c 04 3c c8 81 3e be
       0.15056711 0.041699015 0.008074961 -0.18604195
0002b0 2b f7 83 bd 0b d9 8f bd fc c5 d8 3d 71 ea 87 3c
       -0.06443628 -0.070238195 0.105846375 0.016591283
0002c0 57 3b a3 3c 60 8e c5 b9 13 89 08 3e 13 7c 63 3d
       0.019925756 -0.00037680846 0.1333354 0.05553825
0002d0 ac e1 6e 3e 78 67 35 be db c1 dd 3d e1 4e 86 3b
       0.23328274 -0.17715251 0.108279906 0.0040987586
0002e0 19 23 9e 3d dc 04 50 3e 7b 93 0e be 86 cf c9 3d
       0.07721538 0.20314354 -0.13923447 0.09854035
0002f0 8f ed ad bd 9a 77 2c bd d6 ca ee 3d 12 49 3a bd
       -0.08492576 -0.04210625 0.11659782 -0.04547984
000300 3f 7a 74 bd af 47 5a 3e 04 49 23 be d5 d0 f2 3d
       -0.059686895 0.21316408 -0.15945822 0.11856238
000310 8e 16 56 3c 99 9e 23 3b 82 a0 47 bc 34 2c 31 3e
       0.013066901 0.0024966358 -0.012184264 0.17302018
000320 32 f9 90 bc b0 19 78 3e 2f 3b da bc 10 ed 5d be
       -0.01769695 0.24228549 -0.026639549 -0.21672463
000330 56 25 cc 3d d0 8c 32 3d 34 72 03 be 5e 63 6a be
       0.09968059 0.04359132 -0.12836534 -0.22889468
000340 63 e5 32 be 72 af b1 bd 88 e9 83 bc 6c c0 45 be
       -0.17470317 -0.08676042 -0.016102567 -0.19311684
000350 0b 55 19 3e 4e 65 54 3e e7 74 64 3e 88 ad 5a be
       0.14973848 0.2074177 0.2231022 -0.2135526
000360 3f 62 9d 3d 0c 99 62 3e 82 15 4e 3d d6 9d 49 bd
       0.076847546 0.22128695 0.05031348 -0.04922279
000370 00 60 65 be 0b 3c 49 3e fa af 51 3e 62 62 4c 3e
       -0.22399902 0.19651811 0.20477286 0.19959405
000380 ca 2e 8c bd 09 a2 fb bc 0b 34 82 3e 63 dc dd bd
       -0.06844862 -0.030716913 0.2543033 -0.10833051
000390 e7 74 73 be 47 d0 c1 3d 33 ab 39 3d 36 35 19 be
       -0.23775063 0.09463554 0.045329284 -0.14961705
0003a0 ff ec 9d bd 7f 7d 37 3e f7 67 f3 bd f5 6e d2 bd
       -0.07711219 0.17918967 -0.11885064 -0.102750696
0003b0 d3 bd 6b bd dc 9d 1c be 4b 51 93 3e 35 20 92 3e
       -0.057554077 -0.15294594 0.2877296 0.28540197
0003c0 09 6e b9 3d 48 59 af bd 9f d2 6f 3e 05 8b 18 be
       0.09054191 -0.08561951 0.2342019 -0.14896782
0003d0 70 f4 80 be 53 d2 70 3d d5 24 de 3d 99 13 36 3e
       -0.2518649 0.05879433 0.10846869 0.17780913
0003e0 be 63 15 3e 64 02 35 3e 44 e2 5f be a2 3e 47 3d
       0.1458883 0.17676693 -0.21863657 0.048643716
0003f0 00 91 48 be 33 5a 7c be 27 b1 81 3c bc 34 ae 3d
       -0.19586563 -0.24643783 0.015831543 0.08506152

policy_fc2.bias f4 [32]
000000 df 3f 9b 3c 08 60 13 3c da 54 b0 3c d6 a9 7a bc
       0.018951355 0.008995064 0.021524835 -0.015299281
000010 49 83 1a bd 1f a4 01 bc a9 a0 be 3b cf 50 ab 3c
       -0.03772286 -0.007912665 0.005817492 0.020912556
000020 47 77 33 bc 64 a0 50 bc 2b 41 a0 3c 74 d7 c0 bc
       -0.010953731 -0.012733553 0.019562325 -0.023540236
000030 b7 85 59 3d ce ac 30 bc 57 f7 38 bb 97 a2 06 bd
       0.053106036 -0.010783387 -0.0028223598 -0.0328699
000040 57 73 7a 3b b8 53 8e 3c 00 b0 fc bb bb 40 1c 3d
       0.003821572 0.017373905 -0.0077114105 0.03814767
000050 00 9f 91 38 ee 87 17 3b 67 bb 18 bc 10 5e 1e 3c
       6.943755e-05 0.0023121792 -0.009322024 0.009665981
000060 39 2a b6 3b 35 aa c7 3b 1f 0a 96 3b 60 29 77 bc
       0.0055592326 0.0060932883 0.0045788432 -0.015085548
000070 d6 72 8d bc f9 b0 86 3b 68 78 d6 3b da 6c a9 bc
       -0.017266672 0.0041104523 0.0065451153 -0.020681787

policy_fc3.weight f4 [51, 32]
000000 4c d4 44 ba 22 c5 97 3d 2e 22 d5 3d 50 82 54 3c
       -0.00075084413 0.07410647 0.1040691 0.012970522
000010 4d bb 25 3e d5 86 64 be ad 6a 26 3e 8a 9c 24 3e
       0.16184731 -0.2231706 0.16251631 0.1607534
000020 83 57 a0 be da 94 a7 3c 95 49 89 3d 8d 7a c5 3c
       -0.31316766 0.02045672 0.06703488 0.024106288
000030 36 ae 91 bd dd 66 6b be db 45 0d 3c a8 82 88 bd
       -0.07113306 -0.22988458 0.008622612 -0.06665546
000040 65 19 dd bd bc 32 b7 bc 44 c4 8f 3d c9 5e 18 be
       -0.10795859 -0.02236306 0.070198566 -0.14879908
000050 f0 79 de 3d 44 8f 58 3d 48 e7 36 bd 1a 25 2b 3e
       0.108631015 0.052871004 -0.04465416 0.16713372
000060 0d 4c d5 3d a5 9f 92 3e 5b 1c 03 3e 54 e1 69 3d
       0.10414896 0.28637424 0.12803786 0.057099655
000070 ca 7c 73 be 57 a0 0f be 1e 6d 16 be 6c b1 39 3e
       -0.23778072 -0.14026009 -0.14690062 0.18134087
000080 48 b1 f8 bd f4 9e 26 3e 49 5b d6 3d be ac 68 be
       -0.12143189 0.16271573 0.1046663 -0.22722146
000090 7d cd cc bd bb 95 e0 3d c5 7b cd bd 20 04 38 be
       -0.10000131 0.10966059 -0.10033373 -0.17970324
0000a0 b3 10 3c bc 6d a2 63 bb 75 36 38 3e 71 fb 2e be
       -0.011478591 -0.0034734264 0.17989524 -0.17088105
0000b0 f1 9e be be fc 27 8b 3d 65 43 b6 3c 2b 89 46 3e
       -0.37230638 0.06794736 0.022248933 0.19388263
0000c0 36 05 81 bd aa e0 18 3e 15 47 2b be b4 de d7 bc
       -0.06299822 0.14929453 -0.16726334 -0.02635131
0000d0 8e 76 23 be dc 6e 08 3e 27 07 2d be 66 4c fb 3d
       -0.15963194 0.1332354 -0.1689726 0.12270431
0000e0 2c d8 20 3e f2 9d 2f be 75 99 82 bd 86 2f b6 bc
       0.15707463 -0.17150095 -0.06376926 -0.022239458
0000f0 95 91 23 be ac fd 06 3e e9 89 93 bd a0 cf e2 3d
       -0.15973504 0.13182706 -0.07204039 0.110747576
000100 b4 23 5a be e8 99 19 be 8f 93 91 3d ed 47 0e be
       -0.21302682 -0.15000117 0.07108223 -0.13894625
000110 9c 96 8a 3e 76 39 67 3e 47 a3 3c 3e 09 d9 e9 3d
       0.2706803 0.22580513 0.1842166 0.11418349
000120 e2 f5 d4 bd df b7 81 bd de a7 7c 3e f1 2f 7d be
       -0.10398461 -0.06333899 0.24673411 -0.2472532
000130 9c 04 2d 3e 4a fb 1b 3e 15 41 b2 3d 7d 46 60 bd
       0.1689629 0.15232578 0.0870382 -0.054754723
000140 2f 1b 52 3c 12 d9 f3 3d 58 fd a2 3d ee e1 e8 bd
       0.012823864 0.11906637 0.07958478 -0.11371218
000150 73 67 a6 bc 1a f9 69 3e ae 92 08 bd 7c ea f8 3d
       -0.020313 0.22848931 -0.03334301 0.12154099
000160 97 4b b0 bd 91 8a 2e 3e 42 1e 14 3e 4f 39 71 bb
       -0.086081676 0.17045046 0.14464667 -0.003680784
000170 47 43 16 be 42 09 08 3e f7 88 fc bd b1 ed 6d 3d
       -0.14674102 0.13284782 -0.123308115 0.05808801
000180 bc bc a3 bc 42 10 a1 3d 0c 28 6c 3d 10 35 bb bd
       -0.019987457 0.07864429 0.05765538 -0.0914098
000190 8c 90 75 3e e6 db 1e 3e 5e c1 15 3d 01 63 0c be
       0.23980922 0.15513572 0.036561362 -0.13709642
0001a0 fc 4f 8d be 9f 5a d7 3b 47 0c 66 3d 8b 00 82 be
       -0.27600086 0.006572082 0.056164052 -0.2539104
0001b0 ad 80 ec 3d 10 10 b3 3d 0b 67 77 3e f2 f4 87 bd
       0.115479805 0.08743298 0.24160402 -0.066385165
0001c0 15 4a 35 3e 06 3f 5a 3e 23 05 e5 bc 62 99 a0 bc
       0.17704041 0.21313104 -0.027956551 -0.019604389
0001d0 eb 36 44 3b 33 5f 30 be e2 00 7b 3e bb d9 71 3e
       0.002993996 -0.17223816 0.24512056 0.23618214
0001e0 34 d3 38 bc 5c 6e 20 be 02 85 52 3e 52 2a 86 3d
       -0.0112808235 -0.15667099 0.20558551 0.06551041
0001f0 74 2a 35 3e 89 2c 03 3e 5e a0 8e bd d9 cd a5 bd
       0.17691976 0.12809958 -0.06964181 -0.08095903
000200 a6 84 4c 3e 52 32 33 be af 45 19 3e 39 3b d7 bd
       0.19972476 -0.17499664 0.14967988 -0.10509343
000210 cb f0 bb bd 5e 20 cb 3e da 62 c5 3d 48 0e 0f 3d
       -0.09176787 0.39673132 0.09637995 0.03492573
000220 c8 c3 24 be 9f fb 85 3e 4a 54 ed 3d 34 40 0e 3e
       -0.1609031 0.26168534 0.115883425 0.13891679
000230 fc bf 7c 3e 33 c4 88 be e4 7a 30 3e c3 83 8d 3e
       0.24682611 -0.26712188 0.17234379 0.2763959
000240 f4 01 4e bd c9 ff 8e ba fa cd 0a 3e cd d8 63 be
       -0.05029483 -0.001090997 0.13555136 -0.22250672
000250 8c 1b 8a be ae 2d 66 3d 26 ca 7c 39 68 25 2b bc
       -0.26974142 0.056195907 0.00024107899 -0.01044593
000260 dc f3 66 bc 55 0b 31 3e 1c 3d 81 3e fd 60 da 3d
       -0.014096227 0.17289479 0.25241935 0.1066303
000270 f7 77 af bc 84 18 39 be 73 6a 03 3c 3f ed b7 bd
       -0.021419508 -0.18075758 0.008020985 -0.08980798
000280 50 4d e9 bd 18 24 1f 3e 3f 60 84 be 0f fb 22 bd
       -0.11391699 0.15541112 -0.2585468 -0.03979021
000290 21 b4 49 3e d2 1c 78 3d 12 47 ab 3e 4c 03 ff 3b
       0.1969762 0.06057436 0.3345266 0.0077823754
0002a0 9b 44 72 3e c5 fb 19 3e c1 6f 96 3e 07 82 07 3e
       0.23658983 0.15037449 0.29382136 0.13233195
0002b0 25 2e aa be 3a 7f 85 be d6 2c ae bc 36 ab c1 bd
       -0.3323833 -0.2607363 -0.021261614 -0.09456484
0002c0 04 69 8d be 97 ba d3 bc 1b cd 3c be ef bb 07 be
       -0.27619183 -0.025845809 -0.18437617 -0.13255285
0002d0 34 cb 2e be fb b5 b4 bc 36 f4 48 3e 7d 39 f4 3c
       -0.17069703 -0.022059431 0.19624409 0.029812569
0002e0 5f 99 8d 3d 6e 56 3d bd c2 c3 1a bd bc 6a 45 3e
       0.06914019 -0.046225004 -0.037784345 0.19278997
0002f0 17 f9 3e 3e b4 9b 44 be 51 38 ab 3d 2b 1c 39 be
       0.18649708 -0.19200021 0.08360351 -0.18077151
000300 04 3b 37 bd 6c f7 14 3e 1a 7d ee 3c f2 10 d5 3d
       -0.044734016 0.14547509 0.029112387 0.10403623
000310 9b 37 8a be 29 6b 66 be c9 0c 4b bd de a1 75 be
       -0.2699555 -0.22501816 -0.04957274 -0.23987529
000320 6e 2a a7 3d f1 30 57 be 26 70 18 3d 70 ab 92 bd
       0.0816239 -0.21014763 0.037216328 -0.07161605
000330 14 31 31 be 51 53 0a bd d7 73 64 3e 98 16 27 3e
       -0.17303878 -0.033770863 0.22309814 0.16317213
000340 1a b1 e0 3b 9c 4a 2f 3e be 2f 2f 3d 57 dc 17 be
       0.0068570497 0.17118305 0.04277014 -0.14830147
000350 47 a2 14 be b8 ae 9f bd c2 48 2b 3e e9 ab 9c 3b
       -0.14515029 -0.07796997 0.16726974 0.0047812355
000360 1b c7 2a 3e 77 7f 16 be 05 d6 5d be d8 51 7c 3d
       0.16677515 -0.14697061 -0.21663673 0.06160149
000370 34 3c 41 bd ae 8d 7b be 22 d8 95 bd a4 4e 57 3e
       -0.047176555 -0.24565765 -0.07316615 0.21026093
000380 5e 89 fc bd 14 1a 11 3d c9 57 9b 3d 20 68 1c 3e
       -0.12330888 0.03542526 0.07585103 0.15274096
000390 b4 c2 16 be 13 3d d5 bd df b8 85 3d bd 64 47 3e
       -0.14722711 -0.104120396 0.06529402 0.19472022
0003a0 37 1d 8a bd e7 bf 17 bb a3 68 08 be 69 09 c5 3c
       -0.067438535 -0.0023155154 -0.13321166 0.024052339
0003b0 c5 00 33 3e 95 01 a7 bd db bd fb bd 00 ea cb 3a
       0.17480762 -0.081545986 -0.122920714 0.0015557408
0003c0 99 a5 46 3d 97 20 79 bd 3b 86 3e 3d b3 f2 7d be
       0.04849777 -0.060822096 0.04651473 -0.24799614
0003d0 f3 0a 1c be 09 33 36 be 4b 1c 06 be 33 ce 0c be
       -0.15238552 -0.17792906 -0.1309673 -0.13750534
0003e0 66 ec 9a be 0a dc 36 3d 02 09 e3 3d 45 8e 21 be
       -0.30258483 0.04464344 0.110857025 -0.15776928
0003f0 c6 8c 5e 3d 1c 4a 71 be c1 ca 87 3d 65 3b e2 3b
       0.05433347 -0.23563427 0.06630469 0.006904053

policy_fc3.bias f4 [51]
000000 78 32 24 3d 76 27 f9 bc 7e a4 bf bd ce 4f d1 3c
       0.040087193 -0.030414324 -0.09357546 0.02555075
000010 88 33 54 3d e4 cd 8f 3b e4 0b 8f 3b 38 14 75 3d
       0.051806957 0.0043885577 0.004365431 0.059833735
000020 47 56 9f bd 98 e0 63 3d b6 5c a3 3c 88 81 4d 3d
       -0.07780128 0.05563411 0.019941669 0.05017236
000030 68 c8 ba b8 a6 b2 41 3a 0d c0 83 bc d4 ab af bc
       -8.9065e-05 0.00073889864 -0.016082788 -0.021444239
000040 57 a5 a8 3c 57 20 96 bd c9 87 b9 bc 28 57 d4 bc
       0.020586653 -0.07330387 -0.022647755 -0.025920466
000050 9a 68 a5 3b 62 e9 0d 3d 8a a6 bb bc 6e 99 09 bc
       0.00504787 0.0346464 -0.02290656 -0.008398397
000060 3d fb 8a bd fe f5 01 bc ae 0d 3b 3c d0 b1 91 3a
       -0.06786201 -0.007932184 0.011416836 0.0011115614
000070 ea 01 b0 39 03 87 c7 3b 55 7c 99 3c 83 b0 67 3c
       0.00033570762 0.0060890927 0.018736044 0.014141205
000080 14 e5 f0 3b 66 9e 8e bc 4f 02 51 3d a2 87 a0 3d
       0.007351527 -0.017409515 0.051027592 0.0783837
000090 34 41 0c bc a3 74 07 bd 91 22 1b 3d da 8e 09 3c
       -0.0085604675 -0.033070218 0.037874762 0.008395875
0000a0 0e c0 06 bd 69 c6 2c bd ce c7 07 3d 83 ea 1c bd
       -0.032898 -0.042181406 0.033149533 -0.038309585
0000b0 0a 31 2f 3c 3e b8 f3 bc 53 a8 01 bd 18 af af 3c
       0.010692844 -0.02975094 -0.031654667 0.021445796
0000c0 24 2c 06 bd 87 18 5e bd 94 df 14 3d
       -0.03275694 -0.05422261 0.036346033

value_fc1.weight f4 [64, 261]
000000 ef b0 7d 3d 40 aa e5 3b 48 f9 04 be 5d 02 f3 bd
       0.061936315 0.007008821 -0.12985718 -0.11865685
000010 ad 6b e6 3d 27 b6 81 3c f8 45 90 3d 00 f8 02 3d
       0.11251006 0.015833927 0.070445955 0.031974792
000020 2e 6f 60 3c 27 13 12 be f0 a8 67 3d 49 46 d1 bb
       0.013698382 -0.14265119 0.056557596 -0.0063865525
000030 7d e7 d9 bd a0 35 99 3d d6 7b f6 bc b0 d3 a1 bd
       -0.10639856 0.07480931 -0.030088346 -0.07901704
000040 07 8b 93 3d 6f a2 00 be fe 43 9e 3d 68 1e af 3d
       0.07204252 -0.12561963 0.07727812 0.085507214
000050 b9 8e 1a bc dc 19 eb 3d 27 5a 08 be f7 74 3b bd
       -0.009433442 0.11479542 -0.1331564 -0.045765843
000060 58 5b d8 3d 41 65 7e bd 53 cf 61 bd 2e 5f b0 bd
       0.105642974 -0.062108282 -0.05512936 -0.08611904
000070 eb 82 09 3e eb 8d cc 3c 0c c9 1a 3d dd af aa bc
       0.13428847 0.024970016 0.03778939 -0.020835811
000080 21 43 5c bd 93 ea f9 3c 59 37 85 3d 78 30 02 3c
       -0.053774957 0.030507362 0.06504697 0.007946126
000090 b0 98 93 bd cd ce 0d 3e 88 4f 05 be cf 3a 39 3e
       -0.07206857 0.1384842 -0.1301862 0.1808884
0000a0 fc 74 9e 3d 59 77 e1 3c 61 14 bb bd 53 dc d7 3d
       0.07737157 0.02752273 -0.09134746 0.105400704
0000b0 36 ca 8d bd ac 12 95 3d cf 57 0b bc d3 dd 0a 3e
       -0.06923334 0.07278952 -0.008504822 0.13561182
0000c0 e7 01 92 bd 71 96 d4 bc 46 81 c6 bd 84 d5 03 3e
       -0.07129269 -0.025950642 -0.09692626 0.12874418
0000d0 29 4f 36 3e f0 e1 35 3b 90 60 f5 bd 55 43 c7 bc
       0.17803635 0.0027753077 -0.119813085 -0.024324099
0000e0 69 dc 03 bd 9d 11 11 3c 65 b6 d9 bd ae f2 90 3d
       -0.03219262 0.008854297 -0.10630492 0.070775375
0000f0 8c b9 cd 3d 6e f6 eb 3c 9e 19 92 3d e0 27 b6 bb
       0.10045156 0.02880403 0.07133792 -0.0055589527
000100 00 cc 8b bb 52 12 e1 3d 51 24 21 bd 3f 5d 8f 3d
       -0.004266262 0.109898224 -0.039341275 0.07000207
000110 91 94 83 bd a0 0e 6a bd 26 dc 6c bd b6 c6 f0 bb
       -0.06424821 -0.057142854 -0.057827137 -0.007347907
000120 ea 9c dc bc 4c 11 87 bd 12 4b 1f be 4d 7b b7 bd
       -0.026930291 -0.06595096 -0.15555981 -0.08959065
000130 9f b1 3b bd 5e eb 69 bd 8a cb 84 bd 4b 62 d4 bd
       -0.04582369 -0.05710923 -0.064841345 -0.103703104
000140 65 2b 40 bd 47 4d 0f 3e 51 5e 4d be a1 c0 54 3d
       -0.046916384 0.13994323 -0.2005551 0.051941518
000150 69 9a 15 be 4d 48 b5 3d 0d 3c 9f 3d f1 7e 1f bc
       -0.14609684 0.08851681 0.07775126 -0.009734855
000160 ef 1f 43 bd 91 0f c9 bd 7b b2 2e be 17 79 a1 bd
       -0.047637876 -0.09817422 -0.17060272 -0.07884424
000170 57 c9 fa 3b 67 aa e5 bd 89 82 37 be ad 10 f1 bd
       0.007653396 -0.11214142 -0.17920889 -0.11770759
000180 df 28 1f bd 92 e9 d2 bb 56 86 07 bd ae a7 1b 3e
       -0.038857337 -0.006436535 -0.033087097 0.15200683
000190 d2 6e 3f bd 6f 59 e1 bd ee e9 ba 3d a5 95 28 3e
       -0.046736546 -0.11003386 0.0912665 0.16463335
0001a0 91 c9 0f 3e 0c 61 6c bd e4 37 16 3d ff c1 8e 3d
       0.14041735 -0.05770974 0.036674395 0.069705956
0001b0 fe 92 f7 3d 3e 0d 7d 3d 02 a4 19 3c 21 ba 02 3e
       0.120885834 0.061780207 0.009377481 0.12766315
0001c0 4e f3 b6 bd ee f6 84 3d 53 14 43 bd f2 c6 3b 3e
       -0.089331254 0.064924106 -0.047626805 0.1833761
0001d0 83 21 57 3c 03 49 28 bd 2f 9f 0e 3e a8 b7 9f bb
       0.013130548 -0.041085254 0.13927911 -0.0048741885
0001e0 12 7a 86 bc fd 96 5c 3d 61 ba 54 3d 9f 85 82 3d
       -0.01641563 0.05385493 0.051935557 0.063731425
0001f0 a0 9e bb 3d 61 54 05 3e 12 c7 33 3c 87 87 0c be
       0.09161115 0.13020469 0.010972755 -0.13723575
000200 1f 1c 63 bc 99 b4 0f be d8 c4 8a 3d 21 30 6d bd
       -0.013861685 -0.14033736 0.06775826 -0.057907227
000210 70 9a 96 3d 4d 82 2a 3d 2d 68 02 be 6a 21 9d 3d
       0.07353675 0.04162817 -0.12735052 0.07672389
000220 2a 0d 3c 3c db 31 ef bd 4b 0b 56 3d d8 f6 17 3e
       0.011477748 -0.11679431 0.052256864 0.14840257
000230 1c b6 58 be 9b 3a c4 3d c9 18 04 bd 3d fc 9e 3d
       -0.21163219 0.095814906 -0.0322502 0.077629544
000240 49 d2 35 bc ba 1c 37 3c 36 39 c0 bd 6e 94 f5 3b
       -0.011097499 0.011176283 -0.09385912 0.007494501
000250 4b 58 d3 bd 5e 9d b3 bd e3 06 98 bd ba 68 c7 3d
       -0.10319575 -0.0877025 -0.074231885 0.09736772
000260 0a 00 8d 3d b5 28 55 bd a5 4e fc bd 08 51 33 3d
       0.06884773 -0.052040774 -0.12319688 0.04377845
000270 4d 13 da bd 51 04 27 bd ab f4 19 bd 76 ab 2c bc
       -0.106482126 -0.0407756 -0.03758685 -0.010538926
000280 5f 3d cf 3c 1d 13 56 3d fc e3 19 bd 2a 9e 88 3d
       0.025297819 0.05226432 -0.03757094 0.066707924
000290 b1 3b da 3b e6 e4 7f bd 2d 2a c4 bd f8 f1 92 bd
       0.006659948 -0.062474154 -0.09578357 -0.07175058
0002a0 20 a9 36 bd 55 07 8f 3d 32 c3 0a 3e 8c 4d 6c 3c
       -0.044594884 0.0698382 0.13551024 0.0144227855
0002b0 0f 27 0a 3c ac eb dc 3d 8f 7c 28 bd c9 7e db 3d
       0.008432164 0.10787138 -0.041134413 0.10717542
0002c0 c5 03 8f 3d 9a 4f 3f bd 06 7b f5 bd cf 33 27 3d
       0.06983141 -0.046706773 -0.119863555 0.040820893
0002d0 54 16 00 3d a9 18 03 bd c6 93 40 bd 99 92 96 bd
       0.031271294 -0.03200594 -0.047015928 -0.0735218
0002e0 37 6b 6d bd 0c 61 da bd c7 e2 1f 3d 3e 98 83 bc
       -0.057963576 -0.106630415 0.03903463 -0.016063806
0002f0 94 2f b1 bd 5a df 98 3c 04 0e 75 3d 26 1e ad 3d
       -0.08651653 0.01866119 0.05982782 0.08453016
000300 a2 62 eb bd cf 63 d9 bd 56 ec a4 3d 2e 40 b9 3d
       -0.11493422 -0.1061474 0.0805289 0.090454444
000310 d4 3f 20 3d 97 6e b9 bc 0a 69 dd 3d 16 ea 0a bd
       0.03912337 -0.022635741 0.1081105 -0.033914648
000320 0d ed f9 3c d5 64 ae 3c 1c a7 81 bd 72 ae 9b bd
       0.030508542 0.021288315 -0.06330702 -0.07601632
000330 e3 60 df bc 61 be 49 3c 08 7d 22 be c6 3c 06 3e
       -0.027267879 0.012313456 -0.15868008 0.1310912
000340 15 61 a8 bd df 12 c1 39 85 e6 2e bc c9 09 f2 3d
       -0.08221642 0.0003682589 -0.010675077 0.118182726
000350 12 e3 fd bd 64 2a 00 3e 98 01 75 3d ff af ee bd
       -0.12396826 0.1251617 0.059815973 -0.11654662
000360 93 2d 8f bd 8c 01 14 3d 01 e3 87 bd e2 a0 87 bd
       -0.069911145 0.036134288 -0.066350944 -0.06622483
000370 19 db 3a 3d c6 d2 6e bd f1 58 2a 3d 6e a5 bd 3d
       0.045619104 -0.058306478 0.041588727 0.09260069
000380 8a 7a dc bd 99 72 71 3d c7 77 92 bd bc 31 d9 bd
       -0.1076556 0.05894718 -0.07151752 -0.10605189
000390 d9 a9 0c be e6 58 f0 bd ed 2e 03 be 5a 15 ca 3d
       -0.13736667 -0.11735706 -0.1281087 0.09867354
0003a0 0d aa f3 bc e1 4b 91 bd db 04 25 be 80 46 ab bc
       -0.029744172 -0.07094551 -0.16115133 -0.02090764
0003b0 fc b9 0b be d6 20 9b bd cc fc dd 3d b1 95 8b bd
       -0.13645166 -0.07574622 0.10839233 -0.06815661
0003c0 58 0a d1 3d fa d9 19 3d 20 3c 92 bd cb c6 fe bd
       0.10207051 0.037561394 -0.07140374 -0.124402605
0003d0 3b 67 ca bd 76 c0 78 3d cb 63 06 3e 40 fc d5 bd
       -0.09882971 0.06073042 0.13124005 -0.104485035
0003e0 26 eb 66 3d a3 0f ab 3d a2 13 6a 3d 66 35 bf bd
       0.0563766 0.08352592 0.05714763 -0.09336357
0003f0 c7 f6 77 bd 7d 49 d0 3d 75 c6 58 3d 96 bb ea bd
       -0.06053808 0.10170267 0.05292364 -0.114615604

value_fc1.bias f4 [64]
000000 95 1f 16 bc b8 60 96 bb 1e d7 27 3d d7 29 47 3c
       -0.009162803 -0.0045891665 0.040976636 0.0121559715
000010 9a 39 05 3c 4e 6e d9 bb 0d a1 36 bc fb 02 26 bc
       0.008131409 -0.006635464 -0.011146796 -0.010132547
000020 fa 52 72 bc e3 0e 0b 3d 56 da a6 3b f8 c3 80 b9
       -0.014790291 0.033949744 0.0050919456 -0.0002456007
000030 ae e2 f9 ba fd 49 42 bc 6d 71 09 3b 95 3d c0 bb
       -0.0019064748 -0.0118584605 0.0020972148 -0.005866716
000040 a4 49 99 3c 83 d0 de 3c 91 b3 33 bc b7 fa 96 bc
       0.018711872 0.027199036 -0.010968105 -0.018430097
000050 15 fe 88 bc 7f eb 47 bd bc cf fd 3a 06 54 9f bc
       -0.016722718 -0.04880857 0.0019364278 -0.019449245
000060 01 9b 43 bd 62 fe d3 bc 70 2a 03 bd 3f 76 8e bc
       -0.047755245 -0.025878135 -0.032022893 -0.017390369
000070 46 a9 f2 bc ed d0 5d bc 8e 8e cf bb 08 8a d3 bc
       -0.029621731 -0.013538581 -0.0063341325 -0.025822654
000080 c0 46 bc 3c e9 ea 8a bb 7a fb 7b 3c ec 29 0f bd
       0.022982955 -0.0042394293 0.015379781 -0.03495209
000090 43 1a 66 3c c6 bb 67 3c 77 57 86 bc e4 dc c1 bb
       0.014044347 0.01414389 -0.016399128 -0.005916225
0000a0 7a fb 0f 3c 01 2f a9 3a 2e 9c 1d bc 49 98 ef 3b
       0.008787984 0.0012907685 -0.009619756 0.007311855
0000b0 35 b5 43 bc 8b 28 5d ba 44 cd 48 bb 15 69 bd 3b
       -0.011945059 -0.00084365223 -0.0030639926 0.005780349
0000c0 a0 39 0a bd a5 da cf 3c cf 3d 61 bc 72 fb 0c bb
       -0.03374636 0.025372813 -0.0137476465 -0.0021512178
0000d0 05 32 39 3b 58 16 80 ba 14 5c 79 3b 54 ee 93 3c
       0.0028258574 -0.0009772284 0.0038049268 0.01805798
0000e0 f6 54 15 3d 06 ab bb bb b6 ce a7 ba b6 0c 6f bc
       0.03645798 -0.0057271747 -0.0012802694 -0.014590433
0000f0 96 ba 9e 3c 66 99 3a bb 24 3f ab bc a2 1c 2b bc
       0.01937608 -0.002847278 -0.020904131 -0.010443838

value_fc2.weight f4 [32, 64]
000000 50 55 4e 3e 97 03 98 3c 2b 79 01 3d 17 76 84 bd
       0.20149732 0.0185564 0.031609695 -0.06467836
000010 4b 36 c2 bd 51 db de 3d 6d dd 11 3e 82 36 2d 3e
       -0.09483012 0.10881675 0.14244623 0.16915324
000020 85 47 6f be 51 a3 05 be d8 4a 32 3e 0b 9e f2 3d
       -0.23367126 -0.13050582 0.17411363 0.118465506
000030 bc 1b 4e be f7 47 76 3e d7 6e b4 bb bb 3b 7d be
       -0.20127767 0.2405089 -0.005506377 -0.24729817
000040 22 f3 44 3d 5d be 0b 3d 59 7a c2 3d 78 61 27 be
       0.048083432 0.03411709 0.09495992 -0.16345775
000050 94 95 25 3e d8 65 b4 3b 7b 5e 33 be 5f d2 fd b8
       0.16170341 0.005505305 -0.1751651 -0.00012103165
000060 1c 0f 5b 3d ad 36 f4 3d b7 98 b3 3b d4 cb 3e 3d
       0.053481206 0.11924491 0.0054808515 0.046581104
000070 cd ab 51 3d aa 65 c8 3d e8 02 31 3e 30 0e 42 be
       0.051189233 0.09785016 0.17286265 -0.18950725
000080 bd 2c 1d bd a2 84 1c be 5e ac eb bd ec 83 38 be
       -0.038372744 -0.1528497 -0.11507486 -0.18019074
000090 bc 9e 14 3e d2 fa 70 be a4 92 df 3b 40 2b 55 bd
       0.14513677 -0.2353318 0.006822901 -0.0520432
0000a0 e4 6f ea ba bd ad 8d 3d 1d 89 a1 3d 23 fd e4 3c
       -0.0017886129 0.069179036 0.078874804 0.027952736
0000b0 9c b2 1e 3e c0 c4 6a be 79 bc 2d be fe 43 22 3e
       0.15497822 -0.22926617 -0.16966428 0.1584625
0000c0 24 30 81 3c 1b 09 3e be 21 62 20 be 06 b4 50 3e
       0.015770026 -0.18558161 -0.15662433 0.20381173
0000d0 49 5f 4e 3e 51 6a 11 3e 5f 63 6d 3d c1 25 2c be
       0.20153536 0.14200713 0.057956096 -0.16811277
0000e0 8b 2a 22 3e e1 76 36 3c 16 5e 4e 3e 6d 33 72 3e
       0.15836541 0.011136741 0.20153078 0.2365243
0000f0 0d 5e 40 3e e2 b1 0b 3e c6 6f 6e be ad 32 7c 3c
       0.18785878 0.13642076 -0.23284826 0.015392941
000100 7f fa 19 be 14 c0 41 be bc 6e 0f bd ce b7 20 3e
       -0.15036963 -0.18920928 -0.035017714 0.15695116
000110 25 10 29 be b0 9d 7d be 98 c5 36 be fd 2f c7 3c
       -0.16510065 -0.24767184 -0.17848814 0.024314875
000120 c8 22 1d 3d 85 e9 aa 3d 7f ce b2 3d d6 28 0d 3e
       0.038363248 0.083453216 0.08730792 0.13785109
000130 fc f9 e2 3d a8 20 23 3c db b5 c2 bd ee b8 e4 3c
       0.11082837 0.009956516 -0.095073424 0.027920213
000140 ec 59 2a be e5 fa c7 bd 31 e2 9e 3d e8 91 ce 3d
       -0.16635865 -0.09764651 0.07757986 0.10086423
000150 e0 e9 ec 3d d3 1b e6 3d 1d 39 98 bd a0 15 71 3b
       0.115680456 0.11235776 -0.074327685 0.003678657
000160 11 42 8b be 20 22 2a 3e 96 c2 95 be 79 a5 58 3e
       -0.27198842 0.1661458 -0.2925002 0.21156873
000170 c7 32 1e 3e 2c 8e 79 3d d9 11 23 be 9d d3 ba 3d
       0.15449058 0.0609266 -0.15924777 0.09122393
000180 d0 58 c2 bb 10 42 e2 3d 40 5c e9 bc 12 0a b8 3d
       -0.0059309974 0.11047757 -0.028486371 0.08986296
000190 ad 94 18 be b9 a8 44 be 59 60 3f be be 87 11 bd
       -0.14900465 -0.19204988 -0.18689097 -0.035529844
0001a0 b1 e5 0f 3e f6 87 9a 3d 27 23 fb bc 66 35 d3 bc
       0.14052464 0.07545464 -0.03065641 -0.025782298
0001b0 66 fd 60 3e 63 0f 6a 3d d9 9c 82 be ce 1b a3 bd
       0.21971664 0.05714358 -0.2551029 -0.07964288
0001c0 b5 90 42 3e 81 43 9d bd 8a 2d 4d 3d d8 9f 24 be
       0.19000514 -0.07678891 0.050092258 -0.160766
0001d0 34 dd c0 3d db a7 57 be 06 e8 48 be 34 53 3c 3e
       0.09417191 -0.21060126 -0.1961976 0.18391114
0001e0 ea 74 b2 bd 4d 17 ac bd 5a 84 5f 3e ee e5 80 bc
       -0.08713706 -0.08402882 0.21827832 -0.015734639
0001f0 0e 8f 97 bd f1 22 1c be 4e 42 a3 bd f2 f3 18 3e
       -0.074003324 -0.15247704 -0.07971631 0.14936808
000200 8f 7e 16 be 03 2b e0 bd f4 87 6b 3e 57 c4 f3 bc
       -0.14696716 -0.10945704 0.23001081 -0.029756708
000210 9a d0 4b 3e e4 f6 4c be a4 e5 2a 3e c7 10 86 be
       0.19903794 -0.20016056 0.16689163 -0.26184675
000220 27 6d d4 3d 20 86 54 3d cf 63 53 bd 42 b1 49 bd
       0.10372382 0.051885724 -0.051608857 -0.04924131
000230 72 7f c4 3d f8 4e 6b be 7d 87 40 3e f3 88 32 be
       0.09594621 -0.22979343 0.18801685 -0.17435054
000240 94 e2 ee 3d 92 c1 29 3e a2 d1 9d 3d f7 58 61 be
       0.1166431 0.16577747 0.07706 -0.22006594
000250 a9 51 28 3e 2d 27 1c bc 8f 2a e6 bd 73 1f 14 3e
       0.16437401 -0.009530825 -0.11238586 0.14465122
000260 63 4a 5a 3d 2b 58 5d be d0 93 dd bc 6a a0 94 3d
       0.053293597 -0.21615665 -0.027048022 0.07257159
000270 37 7b f8 bd 9d 91 23 bc 70 06 22 3e b0 9a 80 bd
       -0.12132876 -0.009983447 0.15822768 -0.06279504
000280 6d fb 0f be 0e 0c 46 be 2e b6 1b be 0d 6a af 3d
       -0.14060755 -0.19340536 -0.15206215 0.085651495
000290 30 9e 49 be 7b ab be 3d bb bf 9c 3c e0 51 c2 bb
       -0.1968925 0.09310051 0.019134393 -0.0059301704
0002a0 d1 5b bc bc 8e 68 56 3c 2b 5d 1f 3c f5 64 3d bd
       -0.022993 0.013086451 0.009726803 -0.04623886
0002b0 d3 5a a2 bd 65 73 f4 bd 00 d0 2b 3e b2 87 43 3e
       -0.079274796 -0.11936072 0.16778564 0.19094732
0002c0 57 35 1b 3d 75 82 85 bd 71 45 b2 bd a5 c0 dc bc
       0.037892666 -0.06519023 -0.08704651 -0.026947329
0002d0 9e a0 26 3e 71 6e 8f bd c3 1e 73 be 4e 9e ea bc
       0.16272208 -0.07003487 -0.23742203 -0.028639939
0002e0 16 f9 59 bd ba 6d 5a 3d 53 d3 72 be 37 cd d9 bd
       -0.053216062 0.0533273 -0.23713426 -0.10634845
0002f0 5c 2a f0 3d e3 98 56 3e 4e 15 8c be 01 26 a7 3d
       0.117268294 0.20956759 -0.27360004 0.081615455
000300 e5 21 34 be 53 5a bd 3d 1a 67 75 be d8 3d 81 be
       -0.17591055 0.092457436 -0.23965111 -0.25242496
000310 9b 45 4a 3a ec 8f 18 bc c1 43 86 be ca 2b f8 bd
       0.00077160605 -0.009311657 -0.26223567 -0.12117727
000320 00 67 e3 3c 69 5b ab bd e8 1b 69 3d f4 ce 01 be
       0.027759075 -0.083670445 0.05691138 -0.12676603
000330 76 a2 8c 3e 61 26 18 3e 3e 79 9b 3d 43 92 05 bc
       0.27467698 0.1485839 0.075914845 -0.008152547
000340 5a 82 62 be 65 5d 2a 3e d8 1a 7b be e7 88 84 be
       -0.22120038 0.1663719 -0.24521959 -0.25885698
000350 11 a5 73 be 48 b1 34 3e 85 6a 47 3e 00 a7 24 bd
       -0.23793437 0.17645752 0.19474228 -0.040198326
000360 16 17 b9 3c 25 25 22 be de d5 45 3d 8f b6 3c 3d
       0.022594016 -0.15834482 0.048299663 0.04607254
000370 9e 77 10 3e ca 58 42 3e d8 83 39 bd de d4 91 bd
       0.1410813 0.18979183 -0.04529175 -0.07120679
000380 6e f4 90 bd 25 05 25 be 2c 27 05 3e 6f bc 22 be
       -0.07077871 -0.16115244 0.13003224 -0.15892194
000390 a2 74 90 bb 19 d6 0b 3e 3c 0c bf ba fe 01 ce 3d
       -0.004408435 0.1365589 -0.001457579 0.10058974
0003a0 fe d1 40 3e 26 01 02 3e 29 51 e4 3d a6 6d cf bd
       0.18830106 0.1269575 0.111482926 -0.10128336
0003b0 20 02 72 be 44 fd 0b be a8 ee 1c 3e b8 f2 32 bc
       -0.23633623 -0.13670832 0.15325415 -0.0109221265
0003c0 7e e9 5f be 73 2e a0 3d bd 6c f5 3d d7 38 1f be
       -0.21866414 0.078213595 0.11983631 -0.15549026
0003d0 53 62 93 3c d0 6c 58 3e df b0 7d be 2c 8b 6b bd
       0.01799122 0.21135259 -0.24774502 -0.05750577
0003e0 85 a4 94 bd e6 84 82 be 40 33 d2 ba b5 43 e6 bd
       -0.07257942 -0.25492018 -0.0016037002 -0.11243383
0003f0 29 4d 14 be ce ce a3 bb 6c 16 1e 3e a1 6d 5d bd
       -0.1448256 -0.0049990183 0.15438241 -0.05405963

value_fc2.bias f4 [32]
000000 2a cf e3 3c 7f 22 0b 3c 4a 77 c2 3a a3 30 5a 3c
       0.027808744 0.008492111 0.0014836576 0.01331726
000010 cb 36 a8 3b f5 a1 bf 3c 4b ce 44 3c 66 8c 5d 3c
       0.005133485 0.023392657 0.012012075 0.013522243
000020 9d b4 79 bc 7d d8 fd 3c 9d 84 9b bc c6 ce 80 3c
       -0.0152408155 0.030987019 -0.018984133 0.015723597
000030 52 af 48 3c 22 3e c3 3a e0 02 fb 3c 14 31 18 38
       0.012248831 0.0014895836 0.03064102 3.628533e-05
000040 e8 c0 17 3d 95 3c 1a 3d 23 3c 15 bd 89 8f 9c 3c
       0.037049204 0.03765543 -0.036434304 0.019111412
000050 e7 76 eb bc 21 8f 08 3d de 0b ae 3c 4e c0 4a bd
       -0.02874322 0.033339623 0.021245893 -0.049499802
000060 6c 38 cf 3b 11 77 0f bd 92 76 2c 3d de dc c3 bd
       0.0063238647 -0.03502566 0.042105265 -0.095636114
000070 89 b3 f4 3c 0c d9 a2 3c 37 d2 17 bd ee 9a 50 3d
       0.029870765 0.019878887 -0.03706571 0.050929002

value_fc3.weight f4 [1, 32]
000000 b2 54 ec 3d 78 75 a5 be 1a 4f 14 be ab 36 88 3c
       0.11539592 -0.32316184 -0.144833 0.01662763
000010 41 2b 89 3e 1a 61 a7 3e 15 8f 32 3e 7f 9c 84 be
       0.26790813 0.3269127 0.17437394 -0.25900647
000020 da 82 99 be 91 35 c3 3c a7 5b a2 be 7b c3 00 be
       -0.29982644 0.023829253 -0.3171055 -0.1257457
000030 78 b7 26 3f 18 ea 9a be d8 47 31 3f de b2 45 be
       0.651237 -0.30256724 0.6925025 -0.19306514
000040 c9 55 4b 3f 45 fc 64 be 7c 44 a5 be 66 e1 65 3e
       0.7942777 -0.22361858 -0.32278812 0.22449264
000050 95 d2 b4 be 1e 4d fc 3d ce 50 68 3e 60 e7 2b be
       -0.3531691 0.123193964 0.22687075 -0.16787481
000060 74 df 5c be e6 5a 0d be b9 f0 89 3e 80 67 db bc
       -0.21569616 -0.13804206 0.2694147 -0.026782751
000070 4c 0e e6 3e 9a 8a ac 3e 91 c3 d0 3c 6f 75 8e 3e
       0.44932783 0.33699495 0.025483878 0.2782397
